saved_models/episode_0/agent_2.pth (torch, 738018 bytes, 44 tensors)

fc1.weight f4 [128, 5]
-0.116254576 -0.0667741 -0.117100105 0.11831365 -0.4001406 0.36574358 0.4293176 0.14148036
0.16418341 -0.39024344 0.17318872 -0.32006896 0.17606539 -0.032500602 -0.28925425 -0.08026705
-0.021626072 -0.19293176 0.042366523 -0.41559988 -0.30921993 -0.39496958 0.26074272 0.37423366
-0.36886215 0.3324168 0.07833491 -0.17472568 -0.16558741 -0.21243505 0.38251343 -0.19602247
0.32878911 0.17904954 -0.24804993 0.16702849 -0.09415751 -0.07141397 0.30518594 -0.06502314
-0.16571473 0.09620821 0.042010993 0.13644639 0.17297126 0.13474813 -0.0315539 -0.24955508
-0.008970042 0.36312482 -0.34787223 -0.37446398 -0.088306695 -0.026422214 0.21130075 -0.033496097
0.03015237 0.3813976 -0.3757047 -0.23253 0.23289883 0.28273308 -0.01741428 -0.26518852
-0.001846324 -0.3945299 0.19662282 0.3536766 -0.072381176 0.13385837 0.34616655 -0.28079218
0.37184837 0.16502345 0.15506674 -0.33243454 -0.4196115 0.0787999 -0.046379745 -0.31301594
0.17915547 -0.04733216 0.24555106 0.03658626 -0.07518216 0.12779692 0.19124544 0.35822266
-0.43881553 0.371443 0.039733764 -0.21335457 -0.06493947 -0.2619932 -0.056210004 -0.3318063
-0.079076536 0.11137434 0.32746676 -0.29951915 0.36379418 0.23629619 -0.13763902 -0.3806704
0.42019033 -0.26157066 0.34232974 -0.068178676 -0.2060626 0.28111646 -0.001743438 0.29961583
0.054154802 -0.15738924 0.18852922 0.26308936 -0.14586605 -0.024990425 -0.07468661 0.002872728
0.23805723 -0.39112934 -0.18832982 -0.23874864 -0.3651125 -0.22303103 -0.37932464 -0.009291538
-0.378853 -0.2501498 -0.037855044 -0.06905222 0.06401674 0.41784692 0.09327549 0.41086325
-0.12911241 -0.39211866 0.16866095 0.1514183 0.14623065 -0.13088053 0.32333216 0.32177216
-0.33292082 -0.17295413 0.26412955 0.20467553 0.14836682 0.07342663 0.18286233 0.02758082
0.15590511 -0.15465069 0.15652964 -0.1665761 -0.06394622 -0.12259551 0.44117793 -0.20338736
0.041173417 0.12856135 0.027254518 -0.401068 0.35323673 -0.23517555 0.08293251 0.2747757
-0.1322611 0.33910096 -0.40443164 0.18309516 0.27973858 -0.030713933 0.26046976 -0.3788381
0.28822362 0.3104015 0.2867919 -0.2999105 -0.03149828 -0.26695985 0.00023121593 0.20277928
0.16671404 -0.06754503 0.19942896 0.21923682 0.19119768 0.07831028 -0.34975216 0.35736862
0.24351755 0.109874524 -0.16710523 -0.3868701 -0.35230008 -0.39321226 -0.17112944 -0.3541724
-0.34397748 0.41090074 -0.21288873 -0.04163338 -0.047333658 0.050388258 -0.2394997 -0.038732953
0.35262895 -0.124734834 -0.26318136 0.27543524 -0.19032182 -0.13837805 -0.19040173 -0.42001843
0.024424106 0.32425526 0.4171702 0.41174248 0.30508882 -0.005711532 -0.0054388135 0.092435
0.24340297 0.35988623 -0.25589442 -0.10279416 0.37755576 -0.13021989 0.3997883 0.35485142
0.01167625 -0.34844866 0.16817124 -0.39218393 0.04345865 0.14617267 0.23349293 0.21057636
-0.29524463 0.20256057 0.4282749 -0.3998356 0.32473537 -0.21978459 0.37976688 0.37569076
-0.18713672 0.39688033 0.21754703 0.02150148 0.027835092 -0.12219688 -0.33065554 -0.3300019
00000000: e116 eebd dcc0 88bd 2ed2 efbd 6d4e f23d
00000010: 3bdf ccbe be42 bb3e 84cf db3e 3ae0 103e
00000020: b21f 283e fdcd c7be 6258 313e 14e0 a3be
00000030: 7c4a 343e 5a1f 05bd 2219 94be 0d63 a4bd
00000040: 2929 b1bc e78f 45be 8588 2d3d 82c9 d4be
00000050: 1352 9ebe 7439 cabe 1280 853e 8e9b bf3e
00000060: 80db bcbe 8932 aa3e 0e6e a03d 4aeb 32be
00000070: bf8f 29be 9388 59be cdd8 c33e 1dba 48be
00000080: 0c57 a83e c358 373e cd00 7ebe 8409 2b3e
00000090: a7d5 c0bd 7d41 92bd 5541 9c3e da2a 85bd
000000a0: 1fb1 29be cf08 c53d b813 2c3d 9ab8 0b3e
000000b0: 611f 313e 6afb 093e aa3e 01bd 5e8b 7fbe
000000c0: 15f7 12bc 7feb b93e 4f1c b2be beb9 bfbe
000000d0: 24da b4bd 6673 d8bc 395f 583e 3433 09bd
000000e0: 1a02 f73c 8c46 c33e 5e5c c0be 581c 6ebe
000000f0: 087d 6e3e 64c2 903e 64a8 8ebc cac6 87be
00000100: 5a00 f2ba d3ff c9be 7e57 493e 1915 b53e
00000110: 953c 94bd 2b12 093e be3c b13e fec3 8fbe
00000120: e962 be3e e8fb 283e d1c9 1e3e dc34 aabe
00000130: 52d7 d6be d861 a13d b0f8 3dbd a043 a0be
00000140: 8874 373e 5edf 41bd bd71 7b3e 79db 153d
00000150: 1bf9 99bd 32dd 023e d8d5 433e f668 b73e
00000160: 6eac e0be c72d be3e dfbf 223d 9f79 5abe
00000170: fcfe 84bd f923 86be 763c 66bd 84e2 a9be
00000180: e1f2 a1bd 3b18 e43d b9a9 a73e 935a 99be
00000190: 3b43 ba3e a1f7 713e 3ef1 0cbe 3be7 c2be
000001a0: 3023 d73e 97ec 85be d845 af3e 43a1 8bbd
000001b0: 1302 53be 7fee 8f3e 1284 e4ba 3f67 993e
000001c0: 6dd1 5d3d a52a 21be ce0d 413e a6b3 863e
000001d0: e95d 15be b8b8 ccbc 4bf5 98bd 6144 3c3b
000001e0: 46c5 733e 1b42 c8be 88d9 40be 867a 74be
000001f0: 07f0 babe 3f62 64be d736 c2be 893b 18bc
00000200: 05f9 c1be a213 80be e40d 1bbd 406b 8dbd
00000210: 351b 833d 08f0 d53e 3807 bf3d ab5c d23e
00000220: 0b36 04be c7c3 c8be 75b5 2c3e 660d 1b3e
00000230: 7dbd 153e 8c05 06be cb8b a53e 52bf a43e
00000240: 9974 aabe e31a 31be fd3b 873e 7696 513e
00000250: 79ed 173e b360 963d 4340 3b3e 2cf1 e13c
00000260: 97a5 1f3e c05c 1ebe 4e49 203e ed92 2abe
00000270: 3cf6 82bd 5b13 fbbd 13e2 e13e c744 50be
00000280: 75a5 283d 96a5 033e de44 df3c c958 cdbe
00000290: 72db b43e dcd1 70be 85d8 a93d 67af 8c3e
000002a0: 746f 07be a49e ad3e aa11 cfbe 4c7d 3b3e
000002b0: e539 8f3e c99b fbbc 4b5c 853e 11f7 c1be
000002c0: 0c92 933e f2ec 9e3e 63d6 923e de8d 99be
000002d0: 5704 01bd f6ae 88be 8e72 7239 5fa5 4f3e
000002e0: 16b7 2a3e 0c55 8abd 1b37 4c3e 9e7f 603e
000002f0: 53c9 433e 2461 a03d b712 b3be 05f9 b63e
00000300: aa5c 793e e505 e13d a21d 2bbe d613 c6be
00000310: ad60 b4be 1e53 c9be 8e3c 2fbe 1656 b5be
00000320: d11d b0be 9561 d23e 81ff 59be c387 2abd
00000330: f0e0 41bd eb63 4e3d 693f 75be 72a6 1ebd
00000340: c88b b43e fa74 ffbd b5bf 86be d905 8d3e
00000350: b9e3 42be fab2 0dbe acf8 42be a80c d7be
00000360: 1015 c83c c904 a63e 5597 d53e e9cf d23e
00000370: 9a34 9c3e ce27 bbbb 1338 b2bb 904e bd3d
00000380: a13e 793e 0243 b83e 9804 83be bf85 d2bd
00000390: fd4e c13e 5d58 05be 0db1 cc3e 16af b53e
000003a0: be4d 3f3c dd67 b2be 1535 2c3e 55cc c8be
000003b0: b301 323d 4aae 153e c518 6f3e 54a1 573e
000003c0: 4e2a 97be 0a6c 4f3e d946 db3e 40b7 ccbe
000003d0: b743 a63e 360f 61be ce70 c23e 8a5a c03e
000003e0: c5a0 3fbe e633 cb3e a6c4 5e3e df23 b03c
000003f0: 6b06 e43c 5c42 fabd af4b a9be 02f6 a8be

fc1.bias f4 [128]
0.040535256 0.24829184 0.43300605 0.0989817 -0.17975852 0.379233 0.038633604 0.12497397
-0.36731187 -0.23133673 -0.42817304 -0.005065281 -0.16276744 -0.07458858 0.4221272 -0.4458208
0.15880953 -0.06788745 0.07482789 0.22975117 -0.22711727 -0.26560384 0.021458011 0.075532876
-0.31175858 0.276916 -0.27907386 -0.17316788 -0.2576249 0.30296063 -0.048481546 0.44242597
0.1474862 0.0672582 0.32292923 0.20882198 0.3726759 -0.4159077 0.4521954 0.32259148
0.035307907 0.3524933 -0.12021284 0.25841874 0.23265697 0.058857333 -0.29996812 -0.08118008
-0.2672831 -0.114770316 -0.010339597 0.11906271 -0.064276345 0.055057436 0.40183258 -0.34760988
0.33475232 -0.31025848 0.21238679 -0.3790438 -0.09629229 0.36654687 -0.21782824 -0.17970763
0.24780533 -0.1772954 -0.43825728 0.293874 -0.05438358 -0.06534052 0.039882712 -0.44073185
-0.19650255 0.11967694 -0.33122763 -0.37473843 -0.13989925 -0.34433812 -0.18091379 0.12339599
0.35336152 0.39004424 -0.35241312 -0.19003922 0.3076123 0.2954815 -0.023742346 0.2651778
0.046390943 0.08526949 -0.34805378 -0.042330842 0.19386053 0.33232135 0.04752297 0.3478401
0.20976444 0.12992457 0.4277667 0.3865353 -0.11809897 0.10048901 -0.23561701 0.31615096
0.1601648 0.3995624 -0.093614206 -0.24651031 0.12114489 0.062594116 0.011222027 -0.05866394
0.18469028 -0.07017802 -0.12248407 -0.334051 -0.26101398 -0.03599414 0.37946275 0.15886676
-0.36543688 0.24619944 -0.12266368 0.3865538 0.32701805 0.34386918 -0.13153374 0.3137798
00000000: 4c08 263d 3740 7e3e f8b2 dd3e ebb6 ca3d
00000010: 9e12 38be d42a c23e 453e 1e3d 5af2 ff3d
00000020: 4d10 bcbe 89e3 6cbe 7f39 dbbe a8fa a5bb
00000030: 82ac 26be e6c1 98bd 0e21 d83e a042 e4be
00000040: f79e 223e 9308 8bbd 5d3f 993d e443 6b3e
00000050: 6e91 68be 3afd 87be b6c8 af3c fbb0 9a3d
00000060: d29e 9fbe efc7 8d3e c5e2 8ebe ec52 31be
00000070: 69e7 83be a81d 9b3e 9694 46bd a885 e23e
00000080: 9f06 173e abbe 893d fb56 a53e 6ed5 553e
00000090: 60cf be3e dbf1 d4be 2886 e73e b62a a53e
000000a0: 069f 103d 007a b43e 2632 f6bd 764f 843e
000000b0: a13d 6e3e 6314 713d 6c95 99be be41 a6bd
000000c0: 55d9 88be b30c ebbd 6a67 29bc 26d7 f33d
000000d0: 51a3 83bd e883 613d 00bd cd3e ecf9 b1be
000000e0: a864 ab3e 33da 9ebe ec7b 593e 0712 c2be
000000f0: e434 c5bd 08ac bb3e 5e0e 5fbe 4705 38be
00000100: aec0 7d3e ed8c 35be 4263 e0be a776 963e
00000110: 51c1 5ebd 40d1 85bd 0e5c 233d 9ba7 e1be
00000120: f737 49be 2f19 f53d ab96 a9be b7dd bfbe
00000130: c041 0fbe 164d b0be 7741 39be 09b7 fc3d
00000140: cdeb b43e e1b3 c73e 7e6f b4be a499 42be
00000150: 5c7f 9d3e 5a49 973e 4f7f c2bc 62c5 873e
00000160: 6e04 3e3d c5a1 ae3d 1b34 b2be 1b63 2dbd
00000170: 6083 463e 0626 aa3e 72a7 423d 1918 b23e
00000180: 7dcc 563e f20a 053e 3d04 db3e f4e7 c53e
00000190: dfdd f1bd 2fcd cd3d 9645 71be 8ade a13e
000001a0: 3e02 243e 7193 cc3e ceb8 bfbd 336d 7cbe
000001b0: d01a f83d 5831 803d 98dc 373c 9949 70bd
000001c0: 731f 3d3e 7eb9 8fbd eed8 fabd bc08 abbe
000001d0: a0a3 85be 976e 13bd f148 c23e f8ad 223e
000001e0: 8b1a bbbe b51b 7c3e 1837 fbbd 61ea c53e
000001f0: e96e a73e 9f0f b03e c8b0 06be bfa7 a03e

fc2.weight f4 [128, 128]
-0.043913603 -0.040544953 -0.02206477 0.041443598 0.07041771 0.0619819 -0.004536423 0.07285876
0.021529708 -0.06994277 0.0064833593 0.013952988 0.051113106 0.0873498 -0.048191402 0.06120954
0.014922631 0.03918816 -0.044189338 -0.015750235 0.057876624 0.023711452 0.0011795539 0.08801066
-0.030442806 -0.028243719 0.00961538 0.033005748 0.07001925 0.0845565 -0.039078753 0.030767009
-0.011278392 -0.065833375 0.07708609 0.050485622 0.016432445 0.0011182727 0.015682615 -0.07621891
-0.057803694 0.08368527 0.0701943 0.015273011 0.0048943576 0.028357066 -0.01965018 -0.075747825
0.09220726 0.007845659 -0.060437117 -0.040685777 -0.04420102 0.05761627 -0.020737134 0.05249429
-0.000508586 -0.08708517 0.089470945 -0.06185303 0.0058429413 -0.031070678 0.055645134 0.06764682
-0.05590379 0.0681987 0.067478396 0.029879415 -0.020506684 -0.02960129 -0.014423636 -0.058924478
-0.050245747 0.0862519 0.032188978 0.03588459 0.02368715 -0.014983425 -0.043657433 -0.040601354
0.04093623 0.027001653 0.08244892 0.06761197 -0.080646515 0.07390336 0.037236564 -0.061041545
-0.052075498 -0.026900286 0.05160631 -0.038237568 0.037295874 0.043664917 0.04739163 0.026038291
-0.028733838 0.046540774 0.012512542 -0.014489847 -0.01912553 -0.029884031 -0.028658273 0.038475465
-0.0549823 0.070697755 -0.07485541 -0.07205331 -0.05598253 0.006897588 0.058925793 0.016619418
-0.06390411 0.06329338 -0.07661723 -0.06537725 -0.00019304878 0.07704395 -0.043489985 0.048579913
-0.020574769 0.050977565 0.0027136751 0.021817368 0.07245393 0.012132441 -0.044784237 -0.013167214
0.05936691 -0.029128348 -0.044750553 0.08153785 0.010957959 -0.049661387 -0.041859172 0.088787735
0.016245045 0.08796688 -0.056091543 0.025805788 0.093696 -0.07724006 -0.0726293 0.033275317
-0.006255078 0.030764965 -0.025486631 -0.06229145 -0.03417138 0.08867695 0.07534039 -0.07578173
0.061220646 0.0844642 0.08151863 -0.07562485 -0.059437957 0.029096242 0.05198345 0.036583886
0.05728003 -0.027150445 -0.002098832 -0.008567894 0.023061005 0.050571024 0.04083738 -0.040733885
0.04515177 -0.035941083 0.08517592 0.09121139 -0.049895093 0.047059387 0.09090992 -0.07591188
0.05108055 0.019221963 -0.044090576 0.060894534 0.09403356 0.07476654 0.08161307 0.06993195
0.046142813 -0.023241594 0.057890568 -0.027068526 0.031703357 -0.027080035 0.07298122 -0.039571356
-0.017025905 -0.01208291 0.023374652 -0.04962233 -0.07602792 0.011525331 0.044036634 -0.0455653
-0.008846724 0.075960934 -0.021361519 0.06585842 0.07081146 -0.024186818 -0.07495046 -0.0072228634
0.033666417 -0.057506625 -0.021401817 -0.061119534 -0.081313685 0.05371243 0.08251918 0.05315496
-0.05032278 -0.029019685 0.034262974 0.0797906 -0.030695794 -0.033566352 -0.060824305 -0.017067587
0.0005346389 0.033388644 -0.06138258 0.03411427 0.018268308 0.07707361 -0.032837037 0.07432871
0.070113644 0.0533171 -0.044997606 -0.061519492 0.018999357 0.0030297264 0.07471381 -0.030756151
-0.0105443355 0.023668068 0.054830108 0.03818987 -0.050435644 0.0673003 0.03821559 0.0077611734
0.06536755 -0.03651576 -0.035404127 -0.06303404 -0.06840369 -0.00024570606 -0.0821874 0.038934574
00000000: c0de 33bd 7712 26bd 2dc1 b4bc c3c0 293d
00000010: 2937 903d bce0 7d3d 46a6 94bb f936 953d
00000020: 125f b03c 283e 8fbd 5c72 d43b 139b 643c
00000030: fa5b 513d 74e4 b23d 5964 45bd dbb6 7a3d
00000040: 0d7e 743c c483 203d e1ff 34bd a306 81bc
00000050: 0a10 6d3d 853e c23c 439b 9a3a ef3e b43d
00000060: 3163 f9bc 5f5f e7bc d489 1d3c 0931 073d
00000070: 4166 8f3d f52b ad3d 0b11 20bd 180b fc3c
00000080: 01c9 38bc a6d3 86bd 50df 9d3d 03ca 4e3d
00000090: 569d 863c 0193 923a d478 803c a918 9cbd
000000a0: 91c3 6cbd 2f63 ab3d 07c2 8f3d a73b 7a3c
000000b0: d960 a03b 144d e83c 6af9 a0bc ad21 9bbd
000000c0: 29d7 bc3d 148b 003c e98c 77bd 21a6 26bd
000000d0: 210c 35bd 0aff 6b3d ece0 a9bc 4104 573d
000000e0: a152 05ba b659 b2bd 8b3c b73d 9a59 7dbd
000000f0: 2576 bf3b ef87 febc 27ec 633d 6a8a 8a3d
00000100: 5ffb 64bd c3ab 8b3d 1d32 8a3d adc5 f43c
00000110: a2fd a7bc 687e f2bc 1d51 6cbc cb5a 71bd
00000120: 7cce 4dbd d6a4 b03d 97d8 033d b8fb 123d
00000130: 8e0b c23c 0a7d 75bc 23d2 32bd 9b4d 26bd
00000140: c0ac 273d 9232 dd3c fbda a83d 2578 8a3d
00000150: 002a a5bd a55a 973d 5e85 183d b306 7abd
00000160: 1e4d 55bd fd5d dcbc 2361 533d ff9e 1cbd
00000170: 8fc3 183d fcd9 323d ba1d 423d 414e d53c
00000180: 3a63 ebbc 8aa1 3e3d 6801 4d3c d366 6dbc
00000190: 25ad 9cbc 5bcf f4bc c1c4 eabc 7398 1d3d
000001a0: 1f35 61bd fcc9 903d cb4d 99bd b090 93bd
000001b0: f04d 65bd 2905 e23b 2c5c 713d 7225 883c
000001c0: 28e0 82bd f69f 813d 7fe9 9cbd 82e4 85bd
000001d0: 236d 4ab9 38c9 9d3d 8e22 32bd bbfb 463d
000001e0: 6b8c a8bc dacd 503d ead7 313b 56ba b23c
000001f0: ba62 943d 25c7 463c ad6f 37bd 4cbb 57bc
00000200: b82a 733d 939e eebc 5b4c 37bd 51fd a63d
00000210: 0389 333c bd69 4bbd 8674 2bbd 58d6 b53d
00000220: 5414 853c fb27 b43d 3fc0 65bd a966 d33c
00000230: b0e3 bf3d 0930 9ebd acbe 94bd b34b 083d
00000240: 66f7 ccbb cf06 fc3c 57c9 d0bc 5225 7fbd
00000250: 4af7 0bbd 439c b53d 104c 9a3d 7433 9bbd
00000260: 80c2 7a3d 91fb ac3d 3df3 a63d 34e1 9abd
00000270: 3775 73bd 3e5b ee3c 99ec 543d fcd8 153d
00000280: 779e 6a3d 9c6a debc 8f8c 09bb 5a60 0cbc
00000290: 6fea bc3c 9023 4f3d 1945 273d 93d8 26bd
000002a0: 10f1 383d f536 13bd b670 ae3d 0acd ba3d
000002b0: cc5e 4cbd 58c1 403d fb2e ba3d b077 9bbd
000002c0: d739 513d 6177 9d3c 5298 34bd 8c6c 793d
000002d0: ab94 c03d 331f 993d c124 a73d 7b38 8f3d
000002e0: 3f00 3d3d 2865 bebc a91e 6d3d d0be ddbc
000002f0: 61db 013d f3d6 ddbc 2e77 953d 9315 22bd
00000300: e979 8bbc 66f7 45bc 337c bf3c c940 4bbd
00000310: 87b4 9bbd bed4 3c3c c25f 343d aea2 3abd
00000320: daf1 10bc 6891 9b3d 5afe aebc c8e0 863d
00000330: 9905 913d 6f23 c6bc a07f 99bd c5ad ecbb
00000340: cce5 093d 118c 6bbd dd52 afbc 7a58 7abd
00000350: ca87 a6bd 9101 5c3d d1ff a83d 04b9 593d
00000360: 421f 4ebd b1ba edbc 5557 0c3d 4169 a33d
00000370: bf75 fbbc df7c 09bd e822 79bd 53d1 8bbc
00000380: 0227 0c3a 88c2 083d 4d6c 7bbd 68bb 0b3d
00000390: 6ba7 953c c5d8 9d3d 2180 06bd a739 983d
000003a0: be97 8f3d 0863 5a3d 694f 38bd ddfb 7bbd
000003b0: 8aa4 9b3c 608e 463b 8e03 993d 53f4 fbbc
000003c0: 26c2 2cbc 89e3 c13c 8995 603d fb6c 1c3d
000003d0: 9b95 4ebd bdd4 893d f387 1c3d 7151 fe3b
000003e0: 6cdf 853d 8d91 15bd eb03 11bd fe17 81bd
000003f0: 3c17 8cbd 1cd2 80b9 de51 a8bd dc79 1f3d

fc2.bias f4 [128]
-0.078955814 0.01477341 0.0092945155 -0.03482574 0.049892414 -0.0016621359 -0.054089695 0.048209768
-0.08973898 -0.01667983 -0.038589563 -0.045488905 0.02474337 0.07923794 -0.08754029 -0.054239422
-0.017821439 -0.04643104 0.08580667 -0.04602214 0.07386479 -0.014696754 -0.07065026 -0.023127992
-0.029799148 -0.050290592 0.020445803 -0.063288055 0.013720084 -0.06396204 0.06213047 -0.08450656
-0.007985044 0.04563953 0.019256176 -0.035410825 -0.070240505 0.012000089 -0.048275188 -0.013241603
0.075648375 0.06601325 0.078571565 0.04796363 0.024874259 -0.06604656 0.064722545 -0.05149463
-0.03246108 -0.018026141 -0.09044028 -0.0034350103 0.00031255453 0.04089297 -0.05991019 -0.030930953
0.08794295 0.07079963 -0.058066405 0.06243201 0.043166842 0.0691687 -0.09339281 -0.01663541
-0.007016249 -0.021940006 0.039059233 0.06525226 0.059203696 -0.028534193 -0.024513919 0.04708976
0.044242352 -0.07731132 0.016017381 -0.026184004 -0.017969513 0.0883217 0.056576837 -0.07469935
-0.07809248 -0.003117402 0.07826964 -0.018383633 -0.022854954 0.0746306 0.0624985 0.09022359
0.05312887 0.027119895 0.07100664 0.034670483 -0.086181834 -0.023722403 -0.015014108 -0.06263627
0.007999019 0.031433985 -0.028176924 -0.069500215 0.07675496 0.03790131 0.037578505 -0.032276582
-0.05127553 -0.009271777 -0.061234094 0.010885487 0.024003234 0.019586567 0.03450649 0.047303915
0.031326458 -0.08363963 -0.08160247 -0.021353986 -0.083596334 0.0014060914 -0.046199597 0.04191054
0.013502188 -0.0018234608 -0.032836962 0.014211926 0.020780679 -0.079441704 -0.07031599 -0.053690214
00000000: 96b3 a1bd 2c0c 723c 0648 183c 6fa5 0ebd
00000010: fd5b 4c3d 07dc d9ba 288d 5dbd 9b77 453d
00000020: 12c9 b7bd 24a4 88bc 1710 1ebd 9352 3abd
00000030: 9cb2 ca3c 8047 a23d 5348 b3bd 282a 5ebd
00000040: 44fe 91bc 792e 3ebd 68bb af3d b681 3cbd
00000050: 6c46 973d a7ca 70bc 15b1 90bd ea76 bdbc
00000060: 581d f4bc 82fd 4dbd f57d a73c 2b9d 81bd
00000070: 34ca 603c 88fe 82bd 857c 7e3d c611 adbd
00000080: b4d3 02bc 84f0 3a3d 21bf 9d3c f10a 11bd
00000090: 41da 8fbd 059c 443c 34bc 45bd 4ff3 58bc
000000a0: 89ed 9a3d f431 873d 21ea a03d 8375 443d
000000b0: 1ac5 cb3c 6b43 87bd 418d 843d 08ec 52bd
000000c0: e9f5 04bd 8fab 93bc c138 b9bd e91d 61bb
000000d0: 5cde a339 637f 273d 6364 75bd e962 fdbc
000000e0: 6f1b b43d 65ff 903d 0ad7 6dbd b5b8 7f3d
000000f0: b7cf 303d 52a8 8d3d bb44 bfbd fc46 88bc
00000100: 90e8 e5bb 87bb b3bc 93fc 1f3d faa2 853d
00000110: 937f 723d 8ac0 e9bc 6ad1 c8bc 31e1 403d
00000120: 7837 353d 6655 9ebd e236 833c d67f d6bc
00000130: cd34 93bc 02e2 b43d 1dbd 673d f9fb 98bd
00000140: f3ee 9fbd 544d 4cbb d54b a03d 4699 96bc
00000150: 503a bbbc eed7 983d 6dfe 7f3d 25c7 b83d
00000160: a89d 593d 8b2a de3c ee6b 913d a302 0e3d
00000170: 1a80 b0bd 7c55 c2bc bcfd 75bc 7247 80bd
00000180: 510e 033c ecc0 003d 4bd3 e6bc 2156 8ebd
00000190: b431 9d3d 673e 1b3d ebeb 193d 7334 04bd
000001a0: 4a06 52bd a7e8 17bc 9ad0 7abd 0b59 323c
000001b0: 6ea2 c43c 0274 a03c ad56 0d3d c0c1 413d
000001c0: 2c50 003d 414b abbd 321f a7bd 8eee aebc
000001d0: 8e34 abbd 994c b83a ca3b 3dbd 63aa 2b3d
000001e0: 4838 5d3c 3101 efba 0d80 06bd 23d9 683c
000001f0: 3e3c aa3c 55b2 a2bd d401 90bd 45ea 5bbd

fc3.weight f4 [2, 128]
-0.017352972 0.044548485 0.067880526 -0.031834345 0.041753747 0.03017859 0.037342567 -0.08330772
-0.08262634 0.0015960371 0.051126625 0.07471909 0.027624635 -0.04494843 0.041120045 -0.05371129
-0.02408857 -0.04534448 0.05891153 0.08705731 0.050534196 0.052530672 0.05979367 0.07444707
0.03113726 0.03827155 -0.023956502 0.05172516 0.001681575 -0.023240246 -0.042405017 0.0012926332
0.04821372 -0.044272535 0.052727073 0.040289342 0.008945605 0.0068465555 -0.06855301 0.08362166
-0.004915138 0.0035411404 0.032068662 -0.08343768 -0.00037437992 0.08749151 0.08146861 0.014345612
-0.05183682 0.069740035 0.007537418 -0.06265307 -0.0019772667 0.05252646 -0.01757948 0.079072945
0.065531224 -0.0009381572 -0.05056848 0.07657074 0.04817615 0.014396162 -0.016216498 -0.020263214
-0.079086766 0.07116448 0.026330158 0.0022667774 -0.052309558 -0.08215872 -0.005818181 -0.055152446
-0.07746086 -0.016952612 -0.028910935 -0.08270397 0.03121191 -0.05415328 -0.04296877 -0.0069198306
0.022774277 0.022894673 0.08504556 0.08304283 0.042690136 0.009630102 -0.0633161 0.08933766
0.032367673 -0.008714914 0.017288724 -0.0034818987 0.016947964 0.053930163 0.0768133 0.08511243
0.06540574 -0.00089402945 0.04359997 0.046589285 -0.053322617 -0.06605066 -0.08091574 -0.06351563
-0.0740825 0.07113183 -0.047631152 -0.013251591 -0.07589756 0.04817034 0.08114386 0.06357347
0.03664045 -0.022658883 0.036376163 0.019604327 0.058791574 -0.023663549 0.06401564 0.002683121
0.00029405486 -0.02325168 -0.031074233 0.07108428 0.08371078 0.057754144 0.00829922 0.07059201
0.07666266 0.024070919 -0.080434196 -0.024436025 0.036667384 0.04963989 0.054656036 -0.024155328
-0.062235333 -0.07753687 -0.07189962 0.024694076 0.021609552 0.08894201 0.0614147 0.031665463
0.0012543154 -0.040571757 0.05642626 -0.00028856078 -0.01730077 -0.04803389 -0.0003282502 0.060864117
-0.0005778122 -0.02761586 -0.06162284 -0.032130975 -0.07445912 0.016960587 0.034873523 -0.061607394
0.09237204 -0.0453381 0.0493452 0.09374242 0.060984667 -0.024629228 -0.0613725 0.04767234
-0.080936976 0.008619503 -0.04005472 0.09282578 0.06550197 0.046138767 0.05367653 0.08880662
0.05397271 -0.0034805648 -0.02800824 -0.05045508 0.09049563 0.082431525 0.06347811 0.067506924
0.021278711 -0.053198226 0.08416838 -0.07963843 -0.070663705 0.07022085 -0.0006748787 -0.07754643
-0.040934306 0.029033478 -0.019907083 0.0738394 -0.0086817555 0.06551155 -0.019017223 0.06466299
0.004100349 0.027947797 0.08327018 -0.018944038 0.0115393875 0.011457813 -0.04547487 -0.020620482
0.08838935 -0.03309325 0.042600982 0.035627246 -0.011359785 -0.03454579 -0.0017315584 0.05169647
-0.046542518 0.05190851 0.060469653 0.018825691 0.08562041 0.09259215 -0.023394903 -0.024757218
-0.031744342 0.0074015134 -0.056099087 0.014715868 -0.042392567 -0.06378235 -0.020970395 -0.08445303
0.049087252 -0.067995615 -0.07055587 -0.050371267 -0.018821614 0.030601284 -0.07071769 0.012186347
0.07415305 -0.03146753 0.049440835 -0.052116964 -0.07171565 -0.00017718879 0.055875905 -0.008630083
0.06004293 0.015334915 0.061280444 -0.054326627 -0.025004108 -0.010324669 0.014814512 0.0205701
00000000: d227 8ebc 7978 363d f204 8b3d bb64 02bd
00000010: fa05 2b3d 1739 f73c 85f4 183d 3d9d aabd
00000020: 0038 a9bd 1e32 d13a 276a 513d 5206 993d
00000030: 0f4d e23c d81b 38bd 7e6d 283d 5f00 5cbd
00000040: 6555 c5bc 22bb 39bd 374d 713d 1a4b b23d
00000050: f2fc 4e3d 672a 573d 35ea 743d b577 983d
00000060: 9113 ff3c a1c2 1c3d 6d40 c4bc c3dd 533d
00000070: 4b68 dc3a 5462 bebc e2b0 2dbd 936d a93a
00000080: c07b 453d 1e57 35bd 58f8 573d 7006 253d
00000090: 9690 123c 1259 e03b 8565 8cbd d541 ab3d
000000a0: 2a0f a1bb 7a12 683b 6e5a 033d 60e1 aabd
000000b0: 6c48 c4b9 c02e b33d 04d9 a63d dc09 6b3c
000000c0: d852 54bd ddd3 8e3d 72fc f63b 4150 80bd
000000d0: 0895 01bb fc25 573d d702 90bc fff0 a13d
000000e0: 3c35 863d aaee 75ba e520 4fbd 1fd1 9c3d
000000f0: 5b54 453d e1dd 6b3c 76d8 84bc 0aff a5bc
00000100: 3ef8 a1bd afbe 913d 58b2 d73c 378e 143b
00000110: 8c42 56bd d542 a8bd 71a6 bebb 88e7 61bd
00000120: cda3 9ebd 34e0 8abc a0d6 ecbc b360 a9bd
00000130: 1fb0 ff3c d4cf 5dbd 0500 30bd bfbf e2bb
00000140: 1f91 ba3c 9c8d bb3c 5e2c ae3d 5c12 aa3d
00000150: dadb 2e3d 93c7 1d3c dfab 81bd aaf6 b63d
00000160: f793 043d 00c9 0ebc 15a1 8d3c 9130 64bb
00000170: 75d6 8a3c e0e5 5c3d 4b50 9d3d 6d4f ae3d
00000180: 72f3 853d 4d5d 6aba e295 323d 68d4 3e3d
00000190: d168 5abd 9245 87bd 27b7 a5bd 7c14 82bd
000001a0: 91b8 97bd 91ad 913d e218 43bd 331d 59bc
000001b0: 2e70 9bbd 434e 453d c12e a63d cf32 823d
000001c0: 4c14 163d 1f9f b9bc 2cff 143d 4199 a03c
000001d0: 6fcf 703d 0fda c1bc a21a 833d 4dd7 2f3b
000001e0: 602b 9a39 4f7a bebc 648f febc a394 913d
000001f0: 8f70 ab3d 9c8f 6c3d 74f9 073c 8b92 903d
00000200: 5001 9d3d 6030 c53c afba a4bd 0f2e c8bc
00000210: 8a30 163d 3353 4b3d 02df 5f3d 65e1 c5bc
00000220: 7aea 7ebd a7cb 9ebd 1c40 93bd 3b4b ca3c
00000230: 8406 b13c 3b27 b63d fb8d 7b3d a5b3 013d
00000240: d767 a43a 922e 26bd 391f 673d f949 97b9
00000250: 58ba 8dbc 2fbf 44bd ff18 acb9 a74c 793d
00000260: 5278 17ba a83a e2bc 3b68 7cbd c59b 03bd
00000270: 067e 98bd eef0 8a3c 8ad7 0e3d 0958 7cbd
00000280: 8d2d bd3d 72b4 39bd 311e 4a3d 07fc bf3d
00000290: 0fcb 793d 3cc3 c9bc bb61 7bbd 1244 433d
000002a0: 49c2 a5bd d138 0d3c 6b10 24bd 711b be3d
000002b0: e625 863d 01fc 3c3d ecdb 5b3d 3fe0 b53d
000002c0: 7d12 5d3d 301a 64bb 8971 e5bc fca9 4ebd
000002d0: c655 b93d dcd1 a83d d000 823d 1241 8a3d
000002e0: b150 ae3c 62e6 59bd 7960 ac3d 7919 a3bd
000002f0: 22b8 90bd f3cf 8f3d 58ea 30ba aad0 9ebd
00000300: bbaa 27bd 9ed7 ed3c 2e14 a3bc 1d39 973d
00000310: ec3d 0ebc eb2a 863d 02ca 9bbc 086e 843d
00000320: 385c 863b c7f2 e43c 8e89 aa3d 8730 9bbc
00000330: b30f 3d3c 8db9 3b3c db43 3abd 49ec a8bc
00000340: 7a05 b53d ca8c 07bd 5e7e 2e3d e0ed 113d
00000350: 641e 3abc e37f 0dbd 75f5 e2ba adbf 533d
00000360: 5ea3 3ebd 059e 543d 07af 773d 5638 9a3c
00000370: c159 af3d f4a0 bd3d aba6 bfbc a6cf cabc
00000380: 5b06 02bd 6588 f23b 28c8 65bd d31a 713c
00000390: d4a3 2dbd 52a0 82bd 1bca abbc b6f5 acbd
000003a0: b70f 493d 4941 8bbd 997f 90bd 1a52 4ebd
000003b0: c92f 9abc 8baf fa3c 70d4 90bd 3ea9 473c
000003c0: 8edd 973d 19e4 00bd 7982 4a3d 9978 55bd
000003d0: a8df 92bd c1cb 39b9 22de 643d 3165 0dbc
000003e0: 93ef 753d 4c3f 7b3c 3401 7b3d 9985 5ebd
000003f0: 6ad5 ccbc cd28 29bc 91b8 723c a082 a83c

fc3.bias f4 [2]
0.015626842 -0.04985656
00000000: dd03 803c 6436 4cbd

fc1.weight f4 [128, 84]
0.096300736 0.030873269 0.009646197 -0.08206578 -0.09983073 -0.0025629275 -0.03867412 0.025988646
0.08682872 0.017364416 -0.018147402 -0.08169136 -0.035969745 -0.06514255 0.09001531 0.042643435
-0.088501014 0.09949428 0.0003196277 -0.05381042 -0.09342842 0.028306827 -0.102572195 -0.107295655
-0.08493623 -0.096999176 0.08519587 -0.111782424 0.08881632 0.05972175 -0.027606618 -0.044052385
-0.09108008 -0.028171187 0.08323936 0.08845141 0.07463362 -0.0832405 -0.10989238 -0.08189406
0.005475817 -0.056375023 0.03787833 -0.09328395 -0.06559202 -0.029534468 0.047002017 -0.0032335855
0.09746117 -0.019366384 -0.029403172 0.04266295 0.03387128 0.00078318664 0.008001627 -0.058893487
-0.09768824 0.08473727 0.068328835 0.047986653 -0.07784418 0.09186324 -0.029471597 -0.033077024
0.09298841 -0.10408638 -0.0037781694 0.021686982 -0.008578804 0.05760768 0.013142989 0.059815157
-0.08130665 -0.10343536 0.086138345 -0.054063316 -0.10309077 0.058000475 0.065532975 -0.029386353
0.033752006 -0.057698347 0.022876112 0.038984433 0.041750446 0.004424712 0.015572198 -0.097015835
0.09155206 0.0038855867 0.095326915 -0.0074128658 -0.009671532 -0.027053818 -0.10218775 -0.03817336
0.07487471 -0.05635309 0.027373983 -0.060968395 0.025264408 -0.036231227 0.08990244 -0.04531414
-0.0025770033 -0.011314733 -0.074364595 0.041788097 0.09427471 0.0838536 -0.037741132 0.0472684
-0.09648872 -0.02975373 -0.09216402 0.10641579 0.041014295 -0.08417936 0.10809598 0.062040687
-0.09171396 7.132943e-05 0.0624744 -0.03832906 0.069283195 -0.06741559 0.08209851 0.031943817
-0.03158358 -0.0046023414 0.1077966 0.07935974 -0.043092087 -0.025635064 0.05037541 0.076819055
0.012470413 0.0989687 0.101072356 0.06178987 -0.02865911 0.0848934 0.0014323429 0.06982179
-0.014031061 0.06775781 0.0025293038 0.09837217 0.04834728 -0.05952357 -0.032425143 0.04361055
0.07920854 -0.023260608 0.03409235 -0.06574873 0.028261531 0.10723609 0.061601397 -0.0088415565
-0.074589476 -0.07537959 0.015964374 -0.000981495 0.07917437 0.012538246 0.02994119 0.077145115
0.036465775 -0.10105526 -0.07851053 -0.050988022 -0.017475806 -0.07462005 0.09665288 0.00628512
-0.108828545 -0.09903073 -0.03877348 -0.014601017 0.04193452 0.08373791 0.086648375 0.003343476
-0.066424586 0.08083054 -0.05851204 0.018719673 -0.050384805 -0.057715423 -0.09215518 0.045648627
-0.02604682 -0.0746913 0.075760305 0.05010443 -0.09809276 0.021054875 0.011643922 -0.057808697
-0.09981089 0.031366993 0.087042965 0.059424635 0.047370195 0.062369388 0.058375858 0.010118419
-0.07494609 -0.028694952 -0.10158459 -0.014317027 0.059607822 -0.094160765 0.07846909 0.016032793
-0.038786396 0.09826073 0.0132126715 -0.014767127 -0.024487993 0.0306265 0.087481394 -0.07870809
-0.08731128 -0.092650585 0.07672307 0.09803403 0.04030495 -0.04266614 -0.04038622 -0.01059162
0.020141277 0.02840174 -0.057541523 0.10530572 0.042094324 -0.011744009 -0.031540696 -0.004380768
0.042750854 0.050546415 0.07829185 -0.05258372 0.021425985 0.10393082 0.023667732 0.06872038
-0.028479533 0.07808275 0.08908799 0.08384973 0.06338375 -0.09177413 -0.0475219 0.03354386
00000000: 5239 c53d f0e9 fc3c 150b 1e3c 1b12 a8bd
00000010: 0e74 ccbd caf6 27bb c168 1ebd 24e6 d43c
00000020: 42d3 b13d d23f 8e3c dca9 94bc cd4d a7bd
00000030: 0355 13bd 7569 85bd f259 b83d e2aa 2e3d
00000040: 0540 b5bd a8c3 cb3d b493 a739 5168 5cbd
00000050: 6657 bfbd b8e3 e73c 5f11 d2bd d3bd dbbd
00000060: 0cf3 adbd 81a7 c6bd 2c7b ae3d 2fee e4bd
00000070: 55e5 b53d cb9e 743d 4627 e2bc 4670 34bd
00000080: 3188 babd 43c7 e6bc 6679 aa3d 0326 b53d
00000090: 83d9 983d ff79 aabd 420f e1bd 13b8 a7bd
000000a0: 7b6e b33b 7fe9 66bd 4f26 1b3d a80b bfbd
000000b0: 1c55 86bd 45f2 f1bc 3085 403d 90ea 53bb
000000c0: b999 c73d 40a6 9ebc ecde f0bc 58bf 2e3d
000000d0: 9cbc 0a3d c44e 4d3a 4219 033c 4c3a 71bd
000000e0: c610 c8bd bc8a ad3d fdef 8b3d a78d 443d
000000f0: c56c 9fbd cb22 bc3d 6b6e f1bc c67b 07bd
00000100: b570 be3d 3d2b d5bd 2a9b 77bb e6a8 b13c
00000110: 1d8e 0cbc 08f6 6b3d b155 573c bd00 753d
00000120: 1a84 a6bd ebd5 d3bd 4d69 b03d 7f71 5dbd
00000130: 4121 d3bd e891 6d3d 2736 863d a6bb f0bc
00000140: 8b3f 0a3d 1a55 6cbd af66 bb3c 24ae 1f3d
00000150: 8402 2b3d 2dfd 903b 8822 7f3c 3db0 c6bd
00000160: a57f bb3d 54a5 7e3b c23a c33d a0e7 f2bb
00000170: 5875 1ebc f89f ddbc d047 d1bd ab5b 1cbd
00000180: e957 993d 7fd2 66bd 673f e03c ffb9 79bd
00000190: 4ef7 ce3c 3267 14bd c51e b83d 529b 39bd
000001a0: f1e2 28bb 6e61 39bc 774c 98bd ff29 2b3d
000001b0: 1913 c13d 70bb ab3d 7296 1abd 839c 413d
000001c0: e19b c5bd 18be f3bc 7dc0 bcbd 86f0 d93d
000001d0: 9bfe 273d 3a66 acbd 6d61 dd3d 601e 7e3d
000001e0: 87d4 bbbd b296 9538 28e5 7f3d effe 1cbd
000001f0: 59e4 8d3d 2f11 8abd 4323 a83d 85d7 023d
00000200: c95d 01bd 3dcf 96bb 77c4 dc3d 5c87 a23d
00000210: 5481 30bd a000 d2bc 7256 4e3d 4f53 9d3d
00000220: b450 4c3c 1ab0 ca3d 06ff ce3d 6017 7d3d
00000230: 83c6 eabc 97dc ad3d 74bd bb3a bafe 8e3d
00000240: 89e2 65bc 9bc4 8a3d adc2 253b 5977 c93d
00000250: cc07 463d fdce 73bd 3ad0 04bd faa0 323d
00000260: 1638 a23d 088d bebc 6ca4 0b3d 45a7 86bd
00000270: ba84 e73c 989e db3d bf51 7c3d 2ddc 10bc
00000280: 5ec2 98bd 9d60 9abd b8c7 823c 82a5 80ba
00000290: 2c26 a23d 376d 4d3c 3a47 f53c 42fe 9d3d
000002a0: 235d 153d 0ff6 cebd 21ca a0bd d1d8 50bd
000002b0: 6c29 8fbc 66d2 98bd f2f1 c53d 68f3 cd3b
000002c0: 80e1 debd a0d0 cabd f1d0 1ebd 1b39 6fbc
000002d0: 88c3 2b3d c87e ab3d b474 b13d 381e 5b3b
000002e0: 9d09 88bd 7b8a a53d 52aa 6fbd 005a 993c
000002f0: 4c60 4ebd 0267 6cbd dbbb bcbd 0efa 3a3d
00000300: 2460 d5bc c1f7 98bd 3828 9b3d 4e3a 4d3d
00000310: dbe4 c8bd 467b ac3c 26c6 3e3c d0c8 6cbd
00000320: a769 ccbd ad7a 003d 9543 b23d 3f67 733d
00000330: 4007 423d 0b77 7f3d 861b 6f3d bac7 253c
00000340: 567d 99bd ad11 ebbc 950b d0bd f791 6abc
00000350: 5527 743d 5cd7 c0bd 67b4 a03d 3457 833c
00000360: 7cde 1ebd ec3c c93d f679 583c d2f1 71bc
00000370: 0b9b c8bc 6de4 fa3c 7229 b33d b531 a1bd
00000380: 42d0 b2bd 97bf bdbd fc20 9d3d 11c6 c83d
00000390: ce16 253d b1c2 2ebd 056c 25bd 7988 2dbc
000003a0: 52ff a43c c4aa e83c a9b0 6bbd 86aa d73d
000003b0: 196b 2c3d f269 40bc d130 01bd 8c8c 8fbb
000003c0: 851b 2f3d c209 4f3d 7a57 a03d 0762 57bd
000003d0: 8c85 af3c afd9 d43d d5e2 c13c 45bd 8c3d
000003e0: e94d e9bc d9e9 9f3d c473 b63d 68b9 ab3d
000003f0: 57cf 813d 13f4 bbbd 53a6 42bd 4965 093d

fc1.bias f4 [128]
0.046470188 -0.05845338 -4.93478e-05 -0.08929999 -0.076153055 -0.02812113 -0.10559135 -0.04392135
0.088726655 -0.0349993 -0.020231761 0.032416895 -0.018801628 -0.038938273 -0.08859899 0.014166741
0.009856175 0.094447576 -0.10519238 -0.07798875 0.01623975 0.047098182 0.07354913 -0.01276248
0.028896911 0.04796406 0.04496931 0.10362359 0.10422822 0.029302383 0.066186145 -0.07456704
0.014352854 -0.054904602 0.02618583 -0.019147836 0.040407535 -0.053677484 -0.014506862 0.104996964
-0.053741515 -0.060977817 -0.08107662 -0.036809716 0.015712127 0.088367775 -0.10706923 -0.060344204
-0.05564634 -0.058731582 0.04988297 0.10572641 -0.103099145 -0.07873919 0.02865752 -0.06399878
0.08623801 -0.036590002 -0.08985272 0.0030031395 0.05325441 0.048717476 0.10080749 -0.055580687
0.036065586 0.058430407 -0.043034248 -5.6240584e-05 -0.05679393 0.05677013 0.030464029 -0.0071606664
-0.056816958 -0.057791088 -0.082805164 0.028462963 -0.060636472 -0.019607903 0.029814156 -0.105378285
0.06679541 -0.016836228 -0.073123485 0.020943632 -0.029541174 -0.027027618 -0.054335617 0.10588327
-0.067034476 -0.0043227617 -0.094679184 -0.023188263 0.08954734 -0.063448474 -0.042201553 0.0832037
-0.07423757 -0.030344518 -0.06719852 0.018251779 0.04400867 0.0919632 -0.097211905 0.008244093
-0.021796042 -0.05045048 -0.038716137 0.041245617 -0.04004957 -0.012665091 0.091695175 -0.065614246
0.058535036 0.090679705 0.0035812273 -0.035179306 -0.113231175 -0.09286414 -0.045600448 -0.035713814
0.006059324 -0.04539585 0.022475408 -0.11043422 -0.012525171 0.080550164 -0.078290336 0.024560992
00000000: 8657 3e3d d06c 6fbd ccfa 4eb8 eae2 b6bd
00000010: 22f6 9bbd 495e e6bc 4740 d8bd e0e6 33bd
00000020: 52b6 b53d 6d5b 0fbd 14bd a5bc 94c7 043d
00000030: df05 9abc bd7d 1fbd 6373 b5bd 9e1b 683c
00000040: cb7b 213c bb6d c13d 1a6f d7bd 91b8 9fbd
00000050: 3909 853c 06ea 403d eda0 963d b919 51bc
00000060: 37b9 ec3c f675 443d bd31 383d 9b38 d43d
00000070: 9b75 d53d 8d0b f03c 9a8c 873d 9bb6 98bd
00000080: 3c28 6b3c a6e3 60bd aa83 d63c ecdb 9cbc
00000090: 5f82 253d ecdc 5bbd 30ae 6dbc a608 d73d
000000a0: 1020 5cbd e0c3 79bd 800b a6bd c9c5 16bd
000000b0: b8b6 803c 2afa b43d 1d47 dbbd 7c2b 77bd
000000c0: 6bed 63bd 8790 70bd 1652 4c3d 1787 d83d
000000d0: a525 d3bd 0342 a1bd 2dc3 ea3c cb11 83bd
000000e0: 8e9d b03d 66df 15bd b404 b8bd 52d0 443b
000000f0: 4c21 5a3d fa8b 473d 2874 ce3d 93a8 63bd
00000100: 82b9 133d b954 6f3d ae44 30bd dee3 6bb8
00000110: c0a0 68bd cc87 683d b38f f93c 06a4 eabb
00000120: e6b8 68bd 59b6 6cbd c195 a9bd 292b e93c
00000130: f35d 78bd c1a0 a0bc d13c f43c 92d0 d7bd
00000140: 08cc 883d 21ec 89bc c4c1 95bd fb91 ab3c
00000150: 5500 f2bc 0669 ddbc 068f 5ebd 54d9 d83d
00000160: 5f49 89bd f4a5 8dbb 29e7 c1bd 50f5 bdbc
00000170: 9964 b73d 46f1 81bd 89db 2cbd b466 aa3d
00000180: de09 98bd 1195 f8bc 619f 89bd c184 953c
00000190: 6f42 343d 3457 bc3d 0917 c7bd 3b12 073c
000001a0: 9d8d b2bc 2aa5 4ebd d094 1ebd 2af1 283d
000001b0: 050b 24bd 3e81 4fbc aeca bb3d c360 86bd
000001c0: 6fc2 6f3d 48b6 b93d 06b3 6a3b 2d18 10bd
000001d0: bfe5 e7bd 8e2f bebd 89c7 3abd a648 12bd
000001e0: 4b8d c63b 00f1 39bd 591e b83c 562b e2bd
000001f0: 6036 4dbc 7cf7 a43d af56 a0bd 2234 c93c

fc2.weight f4 [128, 128]
-0.01163646 0.057079464 -0.004370702 -0.04100158 -0.07626654 0.050683565 0.06093037 -0.02667591
-0.041385446 -0.04209211 0.0108895125 -0.015234568 -0.0056862105 0.050644536 -0.018280933 0.020875113
-0.00018265391 -0.06686949 0.08063031 -0.03571446 -0.040086184 -0.03510725 0.078911364 -0.03758816
0.02277191 -0.028776256 0.013574067 -0.020239316 0.047180437 -0.013508475 -0.018364636 0.045827616
-0.04050568 -0.0014325819 -0.013004093 -0.0652208 0.010045764 0.025024196 -0.038954213 -0.048454493
-0.01261688 -0.07107993 -0.03523705 0.053357508 0.087890655 0.07050847 0.036975157 -0.065845385
0.026057458 0.0196239 -0.023131708 0.07308844 -0.057575155 0.05990834 -0.06190865 0.019065948
-0.08113891 0.06713973 0.059370104 0.050913814 -0.073428154 0.0066788634 -0.04498293 0.017741937
0.039846387 0.010297118 0.02406566 0.0291733 -0.020586638 -0.022589372 -0.059241947 0.060622267
0.046149325 -0.07485494 -0.020946383 -0.069206074 0.0050665042 -0.08386906 0.0234663 0.026387382
0.06825516 -0.0729455 0.0057576494 -0.015707476 -0.049605206 0.023347205 0.076448545 0.052542042
0.08446779 -0.046515368 0.04669684 -0.02733063 -0.018679094 0.038636636 0.004736515 0.01519946
0.061251014 -0.046533722 0.064289644 0.08659801 -0.073880546 -0.010412042 -0.061802726 -0.021428585
-0.05147655 0.0635035 -0.03333057 0.0010950594 -0.08393339 0.031818774 0.050782166 -0.027266724
0.045645993 0.054643273 0.027473096 -0.076133184 -0.060449842 0.07204751 -0.027650671 -0.05095752
0.048455387 0.080464646 0.002643113 0.02824942 0.016610842 -0.06115411 -0.035246704 0.049124762
0.0005359355 -0.030191852 -0.0050708875 -0.033089127 0.007943082 0.0142546175 -0.044332627 -0.012284884
0.00014492581 0.06357327 -0.008552814 -0.07657383 -0.035131935 -0.0070847147 -0.08611114 0.0040876395
0.046934534 -0.051077984 -0.02722287 0.058094274 0.008625639 -0.082250245 0.050063297 0.0018081524
-0.061454564 0.068652555 -0.036954284 0.04013658 0.055949777 -0.05554046 -0.0115583055 -0.08386404
0.044783812 -0.050049834 -0.024236428 0.07715722 -0.08186051 -0.020364294 -0.077375956 -0.019800032
0.005914491 0.07908587 -0.020233206 -0.0017068549 0.03439791 -0.061533343 0.04034809 -0.081151396
-0.08254939 -0.07932695 0.04835102 0.08489695 -0.02759151 -0.027897494 0.007746245 0.0012112724
0.0685459 0.08292993 0.08526424 0.082323864 0.07788766 0.005800021 0.007657798 0.027085332
-0.0015476629 -0.07055085 0.056050986 -0.041728295 -0.024470558 -0.05578862 0.0075265635 -0.0138121145
0.02749605 -0.043966502 -0.06473391 0.062712155 0.011643452 -0.020218916 -0.068122745 0.039114766
-0.05026846 0.050186228 0.027564181 0.09204702 -0.027174506 0.07321821 0.053432193 0.0056846794
0.078558035 0.054440014 0.014712954 0.019903265 -0.0010719945 -0.04364891 0.026027717 0.049651433
0.06406387 0.019332604 -0.035937842 0.06425978 0.07751966 0.027980981 -0.02785184 0.0081897825
0.04715976 -0.050333686 0.00018214772 -0.022775777 -0.040664796 0.024345946 -0.0363709 -0.06614872
0.03329617 -0.06449326 0.07495577 0.010785325 -0.012356227 0.084056996 -0.0048859785 -0.067771055
0.050382625 -0.078184605 0.023942916 -0.0030946769 -0.0623264 0.04037235 -0.029657535 -0.083274126
00000000: daa6 3ebc 28cc 693d 1b38 8fbb 46f1 27bd
00000010: a231 9cbd 9299 4f3d 2092 793d 7087 dabc
00000020: c983 29bd c768 2cbd ed69 323c 699a 79bc
00000030: 6453 babb a570 4f3d e5c1 95bc 4902 ab3c
00000040: c986 3fb9 dff2 88bd 8121 a53d 5349 12bd
00000050: 6931 24bd 9fcc 0fbd 489c a13d 0bf6 19bd
00000060: 288c ba3c 2fbc ebbc c365 5e3c eccc a5bc
00000070: 4640 413d a752 5dbc 6f71 96bc bdb5 3b3d
00000080: 49e9 25bd 79c5 bbba 1f0f 55bc 7c92 85bd
00000090: fd96 243c 8bff cc3c 748e 1fbd 3878 46bd
000000a0: 08b7 4ebc 5b92 91bd ba54 10bd 678d 5a3d
000000b0: 0400 b43d bf66 903d 4373 173d f2d9 86bd
000000c0: 7376 d53c 4dc2 a03c b57e bdbc 64af 953d
000000d0: edd3 6bbd 7362 753d ed93 7dbd 3130 9c3c
000000e0: 282c a6bd 8e80 893d 112e 733d 018b 503d
000000f0: 8061 96bd 5eda da3b 0540 38bd 8a57 913c
00000100: f735 233d 3eb5 283c 5925 c53c d8fc ee3c
00000110: 4fa5 a8bc 590d b9bc afa7 72bd 0e4f 783d
00000120: 1307 3d3d 8c4d 99bd c097 abbc eabb 8dbd
00000130: eb04 a63b 8bc3 abbd 663c c03c 5a2a d83c
00000140: 5cc9 8b3d 7364 95bd aaaa bc3b f7ac 80bc
00000150: d42e 4bbd a342 bf3c 0e91 9c3d 5336 573d
00000160: 73fd ac3d e686 3ebd 3045 3f3d 7ce4 dfbc
00000170: e604 99bc 7341 1e3d c534 9b3b 2807 793c
00000180: 58e2 7a3d 259a 3ebd 4aaa 833d 4c5a b13d
00000190: af4e 97bd 4597 2abc db24 7dbd 008b afbc
000001a0: 13d9 52bd 1f0e 823d a385 08bd 1988 8f3a
000001b0: 45e5 abbd 6754 023d f600 503d 775e dfbc
000001c0: 4bf7 3a3d a0d1 5f3d 420f e13c b7eb 9bbd
000001d0: 419a 77bd a58d 933d a983 e2bc d5b8 50bd
000001e0: 2879 463d a6ca a43d 1438 2d3b 546b e73c
000001f0: 7613 883c bb7c 7abd d95e 10bd 0c37 493d
00000200: 067e 0c3a e754 f7bc b029 a6bb 7788 07bd
00000210: b323 023c 338c 693c 2196 35bd 8a46 49bc
00000220: 3af7 1739 b432 823d 1a21 0cbc bdd2 9cbd
00000230: 81e6 0fbd e526 e8bb 0a5b b0bd 9bf1 853b
00000240: 6d3e 403d 2637 51bd 7f02 dfbc 43f4 6d3d
00000250: 8d52 0d3c d172 a8bd 2c0f 4d3d 87ff ec3a
00000260: c8b7 7bbd b699 8c3d 605d 17bd 4166 243d
00000270: 982b 653d 657e 63bd 0c5f 3dbc e9c0 abbd
00000280: 3b6f 373d 0e01 4dbd 798b c6bc 9b04 9e3d
00000290: 7ca6 a7bd 05d3 a6bc 4977 9ebd ad33 a2bc
000002a0: 59ce c13b c6f7 a13d 1cc0 a5bc 8cb8 dfba
000002b0: d3e4 0c3d 630a 7cbd 0a44 253d b432 a6bd
000002c0: a80f a9bd 2b76 a2bd b80b 463d 74de ad3d
000002d0: 9707 e2bc 4989 e4bc 36d4 fd3b 8fc3 9e3a
000002e0: cb61 8c3d 2bd7 a93d 059f ae3d 6a99 a83d
000002f0: 9183 9f3d 1a0e be3b 44ee fa3b 0fe2 dd3c
00000300: f3da caba f77c 90bd b895 653d 4aeb 2abd
00000310: 7b76 c8bc 9c82 64bd 64a1 f63b 354c 62bc
00000320: 653f e13c 3816 34bd 3693 84bd 3b6f 803d
00000330: 2dc4 3e3c 24a2 a5bc f083 8bbd ce36 203d
00000340: 4de6 4dbd 1390 4d3d 47ce e13c 2683 bc3d
00000350: 129d debc 6ef3 953d b7db 5a3d 8c46 ba3b
00000360: 09e3 a03d 7efc 5e3d 9a0e 713c 2c0c a33c
00000370: 2b82 8cba 33c9 32bd 1438 d53c 4d5f 4b3d
00000380: eb33 833d 695f 9e3c 8f33 13bd a29a 833d
00000390: a1c2 9e3d 5f38 e53c 8b29 e4bc 702e 063c
000003a0: 982a 413d b22a 4ebd e8fe 3e39 4494 babc
000003b0: 2190 26bd 2671 c73c a7f9 14bd fb78 87bd
000003c0: 9161 083d 0b15 84bd 6982 993d efb4 303c
000003d0: c671 4abc 1326 ac3d 8f1a a0bb 8dcb 8abd
000003e0: 035e 4e3d 401f a0bd ef23 c43c 10d0 4abb
000003f0: f849 7fbd 7a5d 253d 5cf4 f2bc a08b aabd

fc2.bias f4 [128]
0.073678166 -0.033172272 0.06517259 -0.062781245 0.060872924 0.083276145 -0.03548855 0.07385463
-0.0123618925 -0.027001055 0.065100566 -0.00060028106 -0.019882683 -0.020810155 0.07613555 0.041190363
-0.07842265 -0.009580372 0.049646754 0.056145504 -0.05807734 -0.0650815 -0.011280867 0.037468467
0.06460103 0.015103715 0.03495793 -0.0028838182 0.025371902 0.06848654 -0.017778384 0.072572775
0.025029244 -0.024362283 0.0751649 0.034085393 -0.019648723 -0.08532268 0.078601666 0.07945596
-0.07645234 0.034066644 -0.07557471 -0.06998659 0.0042929305 0.07993332 -0.066585094 -0.021952916
0.0016803221 0.061367385 0.07235667 0.057193294 0.070374176 0.06514573 -0.005846035 -0.07145175
-0.073576055 -0.06377954 0.01865548 0.053177744 -0.00075745187 -0.086937785 -0.08812757 0.059592217
-0.075176425 0.06172722 -0.0011289989 0.014668041 0.021103205 -0.084676325 -0.050254162 -0.023797305
-0.072407454 -0.08786311 -0.066744946 -0.048031233 0.06752913 -0.001683029 -9.279799e-05 0.034700215
0.0010924358 -0.047056325 0.06358164 -0.016480014 0.01414947 -0.026956225 0.053138062 -0.041963905
-0.013573918 -0.047147468 0.024009606 -0.06622599 0.039441794 0.047891483 -0.023759697 0.03948902
-0.012159461 -0.07021898 -0.027100917 0.012243238 -0.010689393 0.056912173 0.06986623 -0.0116871
0.085782535 -0.0008516614 -0.020868083 0.074771166 0.016048202 -0.0263783 -0.0345508 -0.0803775
-0.07136306 0.0055611217 -0.00699939 0.008755729 -0.0067774244 0.011414706 -0.052755293 -0.07488427
0.052885685 0.043911204 0.04081523 -0.063362494 -0.0841096 0.038389537 0.04713145 -0.0842082
00000000: 94e4 963d a6df 07bd 3579 853d 7493 80bd
00000010: e355 793d af8c aa3d 715c 11bd 1941 973d
00000020: 8989 4abc 5131 ddbc 7253 853d 2e5c 1dba
00000030: 02e1 a2bc 0f7a aabc f5ec 9b3d 3ab7 283d
00000040: 0e9c a0bd fef6 1cbc 655a 4b3d d4f8 653d
00000050: 81e2 6dbd 7349 85bd 63d3 38bc 8978 193d
00000060: 8b4d 843d 9275 773c 0c30 0f3d 71fe 3cbb
00000070: bcd8 cf3c ac42 8c3d f9a3 91bc 09a1 943d
00000080: 210a cd3c 6993 c7bc 0ef0 993d 209d 0b3d
00000090: 5cf6 a0bc a8bd aebd e9f9 a03d ceb9 a23d
000000a0: 0b93 9cbd 7789 0b3d eac6 9abd 2155 8fbd
000000b0: b6ab 8c3b 15b4 a33d c45d 88bd 9ad6 b3bc
000000c0: 413e dc3a 5e5c 7b3d bc2f 943d 8443 6a3d
000000d0: 5620 903d 206b 853d 1990 bfbb 4c55 92bd
000000e0: 0baf 96bd d99e 82bd 61d3 983c e8d0 593d
000000f0: bc8f 46ba 700c b2bd 3a7c b4bd f816 743d
00000100: 19f6 99bd aed5 7c3d ebfa 93ba 3952 703c
00000110: a1e0 ac3c c86a adbd 4fd7 4dbd 91f2 c2bc
00000120: 5c4a 94bd 93f1 b3bd 93b1 88bd 66bc 44bd
00000130: b64c 8a3d 1599 dcba 8b9c c2b8 d021 0e3d
00000140: 1030 8f3a 22be 40bd 1737 823d 1801 87bc
00000150: 2ed3 673c 4dd3 dcbc 4ca7 593d 58e2 2bbd
00000160: 2365 5ebc b41d 41bd cbaf c43c 7ea1 87bd
00000170: b88d 213d dc29 443d b2a3 c2bc 3dbf 213d
00000180: 7a38 47bc f8ce 8fbd be02 debc dd97 483c
00000190: 9022 2fbc bd1c 693d 0716 8f3d 407b 3fbc
000001a0: c1ae af3d 0742 5fba 8bf3 aabc a021 993d
000001b0: 8577 833c 4e17 d8bc 2485 0dbd f59c a4bd
000001c0: cc26 92bd 123a b63b 245b e5bb 3074 0f3c
000001d0: 2815 debb bf04 3b3c ef15 58bd ed5c 99bd
000001e0: a99e 583d 3cdc 333d df2d 273d 32c4 81bd
000001f0: a741 acbd 593e 1d3d e80c 413d 5975 acbd

fc3.weight f4 [1, 128]
-0.044646166 0.005763651 0.04540774 -0.04174123 0.02710354 -0.05953916 0.010734112 -0.082247384
-0.064187065 -0.026620416 0.02421871 -0.03641189 -0.0040978915 0.07999444 0.024353277 0.08004213
-0.03935027 -0.06627882 -0.03310994 0.031464852 -0.009888038 -0.06756002 -0.0009126495 -0.023956684
-0.046653517 -0.07479045 -0.025933577 0.07272689 -0.05855454 -0.059786413 0.000620802 0.04550884
-0.019299196 0.047018297 0.044830136 -0.016227845 0.0140498625 -0.03700232 -0.07097521 0.023186393
-0.06422196 -0.0051228967 -0.011397779 -0.07686117 0.02451011 0.073347636 -0.05103948 0.013888267
0.053406462 -0.006274122 -0.04746135 0.009800174 -0.06067123 0.036193196 0.085180655 -0.038094334
0.058299437 0.02923197 -0.028727543 -0.07572138 -0.013576349 -0.0178331 0.03737638 0.007572456
-0.04021083 0.08463923 0.024552302 0.07377951 0.038446244 -0.009057547 0.065593064 -0.050430555
0.037916854 -0.045444228 -0.008636177 0.041761387 0.019292424 -0.026787082 -0.07198686 -0.05805074
0.06894395 -0.026931414 0.041438464 -0.06966737 0.042375285 -0.029985812 -0.051575165 0.0027763194
-0.049215168 -0.058895726 0.070811056 -0.01642287 0.027265277 0.07754696 0.02326746 0.06558125
0.005092433 -0.08088008 0.025614128 0.058137298 -0.008146559 -0.043536555 -0.055508405 0.08574018
-0.008048541 -0.021948181 0.009708739 -0.005837422 0.0258392 -0.07097068 -0.05443917 -0.056246698
0.07857921 0.017478239 0.00855738 -0.03412653 0.0355095 -0.040685218 0.067400254 -0.036974415
-0.052875612 0.01310304 0.020223131 -0.015322931 -0.00117301 0.07751194 -0.05646898 0.011258445
00000000: e6de 36bd 02dd bc3b 77fd 393d daf8 2abd
00000010: 3e08 de3c 56df 73bd 21de 2f3c 5171 a8bd
00000020: 8274 83bd 0f13 dabc 5166 c63c a224 15bd
00000030: 9b47 86bb 20d4 a33d 8680 c73c 21ed a33d
00000040: c02d 21bd 31bd 87bd 4a9e 07bd 4ae1 003d
00000050: 7001 22bc e85c 8abd df3e 6fba cf40 c4bc
00000060: c217 3fbd bc2b 99bd a772 d4bc d6f1 943d
00000070: e3d6 6fbd 99e2 74bd 51bd 223a 7a67 3a3d
00000080: 5919 9ebc 4296 403d ce9f 373d 42f0 84bc
00000090: 6531 663c bf8f 17bd 735b 91bd 64f1 bd3c
000000a0: ce86 83bd f9dd a7bb c0bd 3abc 6469 9dbd
000000b0: 6dc9 c83c 4937 963d c60e 51bd 9d8b 633c
000000c0: bcc0 5a3d 2697 cdbb d566 42bd e990 203c
000000d0: 6582 78bd 513f 143d 3273 ae3d ce08 1cbd
000000e0: 64cb 6e3d e277 ef3c 0656 ebbc d013 9bbd
000000f0: 566f 5ebc b916 92bc fa17 193d 5d22 f83b
00000100: 1cb4 24bd 5557 ad3d e921 c93c b619 973d
00000110: cf79 1d3d 1b66 14bc a855 863d 4590 4ebd
00000120: b44e 1b3d ba23 3abd c07e 0dbc fd0d 2b3d
00000130: 250b 9e3c 9570 dbbc d96d 93bd 9dc6 6dbd
00000140: 7c32 8d3d 459f dcbc 61bb 293d c4ad 8ebd
00000150: b591 2d3d cea4 f5bc 7b40 53bd e9f2 353b
00000160: d895 49bd a53c 71bd 6305 913d 4189 86bc
00000170: 6e5b df3c f1d0 9e3d 669b be3c 764f 863d
00000180: 6dde a63b 75a4 a5bd b8d4 d13c 6021 6e3d
00000190: 2579 05bc 6353 32bd c85c 63bd 8c98 af3d
000001a0: 07de 03bc accc b3bc 6711 1f3c d847 bfbb
000001b0: bbac d33c 1359 91bd 9bfb 5ebd f062 66bd
000001c0: 23ee a03d 862e 8f3c 4134 0c3c 43c8 0bbd
000001d0: 6972 113d 8ba5 26bd 2509 8a3d 7c72 17bd
000001e0: 1994 58bd 22ae 563c fbaa a53c 080d 7bbc
000001f0: afbf 99ba 94be 9e3d 044c 67bd 5775 383c
