saved_models/episode_0/agent_11.pth (torch, 738530 bytes, 44 tensors)

fc1.weight f4 [128, 5]
0	0xbd91d9f4	-0.071216494
1	0x3ee38255	0.44435373
2	0xbeb07544	-0.34464467
3	0x3e92d8bc	0.2868098
4	0xbdd5dcc8	-0.10442501
5	0x3ee7376c	0.4515947
6	0xbe08c202	-0.13355258
7	0x3cf9637d	0.030442948
8	0x3e627068	0.22113192
9	0xbe87647b	-0.26443848
10	0x3ee2c2e6	0.4428932
11	0x3e9581d1	0.29200605
12	0xbec37df6	-0.38182038
13	0x3e89e97d	0.2693595
14	0xbe92c7e1	-0.2866812
15	0x3ea90275	0.33009687
16	0x3edddcee	0.43332618
17	0x3bc58969	0.0060283435
18	0x3de50741	0.11183024
19	0xbe0f629b	-0.14002459
20	0x3ebf0577	0.37308857
21	0x3e00856f	0.12550901
22	0x3e22e790	0.15908647
23	0xbeb82428	-0.35965085
24	0xbd59ef4b	-0.053206723
25	0xbedb0050	-0.42773676
26	0x3ea98228	0.33107114
27	0xbde31336	-0.110876486
28	0x3e650b16	0.2236751
29	0xbbbe07e5	-0.005799281
30	0x3e94c543	0.2905675
31	0x3e3459f6	0.17612442
32	0xbdef9857	-0.116989784
33	0x3ea27b87	0.3173487
34	0x3e343247	0.17597304
35	0xbe959cc3	-0.29221162
36	0x3dcdae74	0.1004304
37	0x3c943d18	0.018095538
38	0xbe13cd38	-0.14433753
39	0x3e3a321b	0.18183176
40	0xbe35b7ff	-0.1774597
41	0xbd517d12	-0.051144667
42	0x3dc227a7	0.09480219
43	0xbe91521f	-0.28382966
44	0x3e6d0310	0.231457
45	0xbed8dbf7	-0.4235532
46	0xbe59ff61	-0.21288826
47	0x3e925f39	0.28588274
48	0xbeca9f70	-0.39574766
49	0xbd8c2ecb	-0.068448626
50	0xbe7eaf50	-0.24871564
51	0x3ed26605	0.4109346
52	0xbc0b6298	-0.008507393
53	0x3ead1963	0.3380843
54	0x3d71bccd	0.059017945
55	0x3d4b579b	0.049644094
56	0xbe8bf901	-0.27338412
57	0x3ecce8e4	0.4002143
58	0xbe39a828	-0.18130553
59	0x3eb3e595	0.35136095
60	0x3e048d97	0.12944637
61	0xbecf9e36	-0.40550393
62	0xbeb33a23	-0.35005292
63	0x3e8eba0e	0.27876323
64	0x3e8cb6d3	0.27483234
65	0xbe14cea2	-0.14531949
66	0x3ed212ee	0.41030067
67	0x3e6be821	0.23037769
68	0xbebc5554	-0.3678385
69	0x3e87a9af	0.26496646
70	0x3e061495	0.13093789
71	0x3e46f04a	0.194276
72	0xbedbda81	-0.42940143
73	0xbcc82696	-0.024432462
74	0xbeb9110c	-0.36145818
75	0xbcb6f702	-0.02233458
76	0x3e19b9d5	0.15012296
77	0xbe8999f3	-0.26875266
78	0x3cc57647	0.02410425
79	0xbe3e78e3	-0.18600802
80	0xbe5cce06	-0.21562967
81	0xbd4d8040	-0.050171137
82	0x3e8e18e2	0.2775336
83	0xbeb9116b	-0.361461
84	0xbeb86681	-0.36015704
85	0x3eaf1875	0.34198347
86	0xbe93358b	-0.28751788
87	0x3eaa22c5	0.33229652
88	0x3eb8bdbd	0.3608226
89	0x3ece37b3	0.4027687
90	0xbe994eba	-0.29942876
91	0x3ec6028e	0.38673824
92	0xbeb288da	-0.34870034
93	0x3de39d51	0.1111399
94	0x3ee1433e	0.43996614
95	0x3ee3beef	0.44481608
96	0xbe11402d	-0.14184637
97	0xbbdc5f1a	-0.006725204
98	0xbe949731	-0.290216
99	0x3e5761d1	0.21033408
100	0x3e0dbbb3	0.13841133
101	0x3d81f0b6	0.0634474
102	0xbdcf56d6	-0.101239845
103	0x3e9f1397	0.31069633
104	0x3deb8c45	0.11501364
105	0x3ea690c6	0.32532328
106	0x3cd5b203	0.02608586
107	0xbd38ff2c	-0.045165226
108	0xbd2ad9f7	-0.041711774
109	0x3da27936	0.079332754
110	0xbe712fec	-0.23553437
111	0x3e7a9456	0.24470648
112	0x3ea22ebb	0.31676278
113	0xbe1c46be	-0.15261361
114	0xbe86d6b3	-0.26335678
115	0x3e92fa75	0.2870671
116	0xbe61f054	-0.22064334
117	0x3eacac99	0.33725432
118	0xbe694712	-0.22781017
119	0x3e2ba4d1	0.16762091
120	0xbeb8771f	-0.36028382
121	0xbe34905c	-0.17633194
122	0xbeb1f19a	-0.3475464
123	0x3dbaaaf4	0.09114638
124	0xbe4390d9	-0.19098224
125	0xbe2a0584	-0.16603667
126	0x3e038864	0.12844998
127	0x3ecb871a	0.39751512
128	0xbe6c0bcf	-0.2305138
129	0x3ec04bb5	0.3755776
130	0xbe802565	-0.2502853
131	0xbe5e4bc7	-0.21708594
132	0xbe2195e3	-0.15779833
133	0xbe4582d2	-0.19288185
134	0x3baeb0e9	0.005331148
135	0xbed122e0	-0.4084692
136	0x3d006ec0	0.03135562
137	0x3e987b67	0.2978165
138	0xbe06fac1	-0.13181593
139	0xbed8e4b8	-0.42362
140	0x3e1371e0	0.14398909
141	0xbd6b34ba	-0.05742333
142	0x3bf96030	0.0076103434
143	0xbcdf85e0	-0.027285516
144	0x3d91b062	0.071137205
145	0xbd354d7b	-0.044263344
146	0xbe306971	-0.17227723
147	0xbed5a89f	-0.4173021
148	0x3eb832c0	0.3597622
149	0xbd811158	-0.06302136
150	0xbebd8c90	-0.37021303
151	0x3e4e74a5	0.20161684
152	0xbd56b337	-0.052417006
153	0x3e54e836	0.20791706
154	0xbe58557a	-0.21126357
155	0x3e4f0e51	0.20220305
156	0x3e624b64	0.22099072
157	0xbcb37c29	-0.02190979
158	0xbeb49c8c	-0.35275686
159	0xbbc599ac	-0.006030282
160	0x3ebf540c	0.3736881
161	0x3e70f65d	0.2353148
162	0xbdef4efb	-0.11684986
163	0x3e6076f8	0.21920383
164	0xbe72d40b	-0.237137
165	0xbe4ba9c8	-0.19888985
166	0xbee11f6c	-0.43969285
167	0xbe527612	-0.20552853
168	0xbe513cb0	-0.20433307
169	0x3dbc523d	0.09195373
170	0xbe72727b	-0.23676483
171	0x3e7e9cd3	0.24864511
172	0x3d1c8d42	0.03822065
173	0x3ee6c017	0.45068428
174	0x3e35f5a1	0.17769481
175	0xbeca0091	-0.39453557
176	0xbd5fdc4c	-0.05465345
177	0x3e320d7e	0.1738796
178	0x3da964d9	0.08271188
179	0x3ed7fb73	0.42184028
180	0xbc50139c	-0.012699988
181	0xbe7fc9be	-0.24979302
182	0x3e9897bd	0.29803267
183	0xbed846af	-0.42241427
184	0xbe10e894	-0.14151222
185	0xbe9db499	-0.30801848
186	0x3eb199d7	0.34687683
187	0xbec82393	-0.3908964
188	0xbe0e1528	-0.13875258
189	0xbc91c833	-0.017795658
190	0x3e034eef	0.1282308
191	0xbe7cb962	-0.24680093
192	0x3da295b9	0.079387136
193	0xbe409aef	-0.18809102
194	0x3d8fc950	0.07020819
195	0xbeae9d97	-0.34104607
196	0xbe216915	-0.15762742
197	0x3ec0dccb	0.37668452
198	0xbd043e59	-0.03228602
199	0x3df4a077	0.11944669
200	0xbee427b9	-0.44561556
201	0x3e467b50	0.19382977
202	0x3ddecb78	0.10878652
203	0x3ece5dfd	0.40306082
204	0x3e020a9f	0.12699364
205	0x3e7da592	0.24770191
206	0xbc904d13	-0.017614877
207	0x3d972a5f	0.073811285
208	0xbecd2856	-0.40069836
209	0x3e0f14d5	0.1397279
210	0x3ec43c0f	0.3832707
211	0x3e6b3209	0.22968306
212	0xbe8889f8	-0.26667762
213	0xbc9b1867	-0.018932534
214	0x3ebe40d1	0.37158826
215	0xbed88e02	-0.42295843
216	0x3ed8b590	0.4232602
217	0x3e93d502	0.2887345
218	0x3e7cefea	0.24700895
219	0xbee0c416	-0.43899602
220	0x3ea0c92b	0.3140348
221	0x3e2c8fa6	0.16851673
222	0x3e96238a	0.2932399
223	0x3aeef5a5	0.0018231167
224	0xbc8f6938	-0.017506227
225	0x3e54d0a7	0.2078272
226	0xbcec6706	-0.02885772
227	0x3eb8209a	0.35962373
228	0x3e9fec1f	0.31234834
229	0xbd5d889c	-0.05408536
230	0xbe945dcc	-0.2897781
231	0xbd89888d	-0.06715498
232	0xbe1a135b	-0.15046446
233	0x3e9181a8	0.28419232
234	0x3eac7d13	0.33689174
235	0xbe56a481	-0.20961191
236	0x3dc58390	0.09644234
237	0xbedf8df9	-0.43663004
238	0xbd2e52a9	-0.0425593
239	0xbe7e684d	-0.24844475
240	0xbeb3d95e	-0.35126776
241	0x3e648fdc	0.22320503
242	0xbdd30beb	-0.103050075
243	0x3da42586	0.080149695
244	0x3e12a450	0.14320493
245	0x3c26f2c2	0.010189714
246	0x3e9ae7e0	0.30255032
247	0x3c8ed085	0.017433414
248	0x3ee08025	0.43847767
249	0x3c9020b0	0.017593712
250	0x3e287b57	0.164533
251	0x3e35af1a	0.17742577
252	0xbe3d1005	-0.18463142
253	0xbe386025	-0.18005426
254	0xbdf48b96	-0.119406864
255	0x3e581bf5	0.21104415

fc1.bias f4 [128]
0	0x3e5c32ef	0.21503805
1	0xbe9dc800	-0.3081665
2	0xbedc72d3	-0.43056354
3	0x3e8b9f7b	0.2727011
4	0x3ed412e1	0.41420653
5	0x3e930a9b	0.2871903
6	0xbe5c2100	-0.21496964
7	0x3ea46887	0.32110998
8	0x3eb7963c	0.35856807
9	0x3e1b9c40	0.15196323
10	0x3e7a14b7	0.24421965
11	0x3e1d23f7	0.15345751
12	0x3e14906d	0.14508219
13	0xbe5b7b02	-0.21433643
14	0x3e44ea27	0.19229947
15	0x3ed3170f	0.4122853
16	0xbeced3a5	-0.40395847
17	0xbedf67c5	-0.43633857
18	0xbeab6e4e	-0.33482593
19	0x3dedf55e	0.11619066
20	0xbba7e1af	-0.005123339
21	0xbdd2e121	-0.10296846
22	0xbdac0ff0	-0.08401477
23	0xbed2612f	-0.4108977
24	0xbd43217a	-0.047639348
25	0x3dc3daf5	0.09563247
26	0xbec97138	-0.39344192
27	0xbc8a5ac2	-0.01688898
28	0xbeacf162	-0.3377791
29	0xbc0cd049	-0.008594581
30	0x3d3f1426	0.046650074
31	0xbdc1fce2	-0.09472062
32	0xbc8d53dd	-0.017251903
33	0x3ea5c6e5	0.32378307
34	0xbdc6e6a6	-0.097119614
35	0xbeba15c6	-0.36344737
36	0xbece21ef	-0.40260264
37	0x3e88d8ae	0.26727813
38	0xbe11cb14	-0.14237624
39	0x3dd6ae29	0.10482437
40	0xbde3df45	-0.1112657
41	0x3ddce57d	0.10785959
42	0x3e432bbd	0.19059654
43	0xbe70f1ed	-0.23529787
44	0x3e563d56	0.20921835
45	0xbe85091c	-0.25983512
46	0xbe818d0d	-0.25302926
47	0x3e87b603	0.2650605
48	0xbee3e090	-0.44507265
49	0xbea662a6	-0.32497138
50	0xbc86b1a8	-0.016442135
51	0x3e86b93c	0.26313198
52	0x3e833bf8	0.2563169
53	0x3e8ac212	0.2710119
54	0xbed5ebb9	-0.41781405
55	0x3ed8760b	0.4227756
56	0xbeb4651f	-0.352334
57	0x3e7e5acf	0.24839328
58	0xbe6818ac	-0.22665662
59	0x3ea8a483	0.32938012
60	0x3e049f9e	0.12951514
61	0xbdf3bb68	-0.11900979
62	0xbd55a4ed	-0.05215924
63	0x3e848faf	0.25890872
64	0x3e530839	0.20608605
65	0x3eac845e	0.33694738
66	0xbd0c9f4c	-0.034331605
67	0x3e3f1c94	0.18663245
68	0xbe94d282	-0.29066855
69	0x3ed316d6	0.4122836
70	0x3e886929	0.2664273
71	0x3d59b4fd	0.05315112
72	0xbd321ba9	-0.04348341
73	0xbeb1de25	-0.34739795
74	0x3e284c21	0.16435291
75	0x3e9f7bb7	0.31149074
76	0x3e483f84	0.1955548
77	0xbe8909f7	-0.26765415
78	0xbd85cf2a	-0.06533654
79	0x3d752728	0.059851795
80	0xbe8082dd	-0.2509984
81	0x3e3dfbd9	0.18553104
82	0x3e8946da	0.26811868
83	0x3c2195b1	0.009862349
84	0x3d710e43	0.05885149
85	0xbdf8f277	-0.121556215
86	0xbe57db74	-0.21079808
87	0xbebf1e3e	-0.3732776
88	0x3e1dfb90	0.15427995
89	0xbecf56d1	-0.40495923
90	0x3d0602f5	0.032717664
91	0x3eb6d2de	0.35707754
92	0x3e6464bf	0.22304057
93	0x3ea066b9	0.3132837
94	0x3dcad8db	0.09904643
95	0x3eb90fd8	0.361449
96	0x3cc36139	0.02385007
97	0x3d7ce920	0.061745763
98	0x3e820b25	0.25399128
99	0xbeb13451	-0.34610227
100	0x3e9a5209	0.30140713
101	0xbeadb9ea	-0.33930904
102	0xbd2b6725	-0.041846413
103	0x3ed524cd	0.4162964
104	0x3ea2796c	0.31733263
105	0xbe6d8a06	-0.23197183
106	0xbeae72a3	-0.34071836
107	0xbe490f9a	-0.19634858
108	0x3d858222	0.065189615
109	0xbe12125e	-0.14264819
110	0xbed1fbec	-0.41012514
111	0xbed7653f	-0.42069432
112	0x3e4a94f5	0.19783385
113	0x3e611aba	0.21982852
114	0xbea14ed6	-0.3150546
115	0x3ea1b52b	0.31583533
116	0x3d99d079	0.07510466
117	0xbd1117ec	-0.035423204
118	0x3e1850d4	0.14874583
119	0xbe9bd869	-0.30438545
120	0xbdcdafb3	-0.100432776
121	0xbe3447e3	-0.17605548
122	0x3d8216bd	0.06351993
123	0xbd7c5519	-0.061604593
124	0x3e3c6193	0.18396597
125	0xbd96db8f	-0.07366096
126	0x3eb584c7	0.35452864
127	0x3ec1c2ab	0.37843832

fc2.weight f4 [128, 128]
0	0xbd9d8952	-0.076922074
1	0xbd9dba15	-0.07701508
2	0xbd127fa4	-0.03576626
3	0xbbfa56f1	-0.0076397588
4	0xbd91aeae	-0.07113396
5	0x3da88698	0.08228797
6	0x3d4182e8	0.047243983
7	0x3bd7bbc7	0.006583664
8	0x3d84a2dc	0.064763755
9	0xbda32006	-0.07965092
10	0xbda5fe82	-0.08105184
11	0xbcc55645	-0.024088988
12	0xbc630658	-0.013856493
13	0x3d9d81b3	0.07690754
14	0x3c1c2032	0.00952916
15	0xbda3ed13	-0.08004203
16	0xbcff209a	-0.031143475
17	0xbc67d03f	-0.014148771
18	0xbd97c568	-0.07410699
19	0x3d3b4ed2	0.045729466
20	0xbd73cdb8	-0.05952236
21	0xbb19e1fb	-0.0023480642
22	0x3cdcf567	0.026972486
23	0x3d99a09e	0.075013384
24	0x3d6dc01e	0.058044545
25	0x3be47bc9	0.006972764
26	0xbd0426a9	-0.03226343
27	0x3b628d6d	0.003456916
28	0xbafa5516	-0.0019098844
29	0x3c46e930	0.012140557
30	0x3d860fc1	0.065459736
31	0xbd14a354	-0.036288574
32	0xbc7b054a	-0.015321085
33	0x3cfa5b57	0.030561132
34	0xbd3f2a3b	-0.046671133
35	0x3cd77c29	0.026304321
36	0x3d3d9b61	0.04629076
37	0xbd39dc52	-0.04537613
38	0xbca8c3df	-0.020601211
39	0xbd20d8d1	-0.039269272
40	0x3db1b055	0.08676211
41	0xbd9a2267	-0.07526093
42	0x3d852ea8	0.065030396
43	0xbd8e998c	-0.069628805
44	0xbd9e0b61	-0.07717014
45	0xbd2d612b	-0.042328995
46	0x3dab3ea3	0.083615564
47	0x3d1cff82	0.03832961
48	0xbc8a248e	-0.016863134
49	0xbd323411	-0.043506686
50	0x3c201a40	0.0097718835
51	0xbd98af15	-0.07455269
52	0xbc78a6d0	-0.01517649
53	0xbabcbe60	-0.0014399998
54	0xbc3b1715	-0.011419077
55	0xbdb398ac	-0.08769354
56	0xbd988360	-0.07446933
57	0xbdb3bd0a	-0.08776291
58	0x3bdaf663	0.0066822036
59	0x3cb24961	0.021763505
60	0xbd512d9e	-0.051068895
61	0x3d87e55c	0.06635544
62	0xbd5bc5ec	-0.05365555
63	0xbdab395c	-0.0836055
64	0xbc500a7d	-0.012697813
65	0xbca8bd3e	-0.02059805
66	0x3d497f24	0.049193516
67	0xbca97f2a	-0.02069052
68	0x3da0fcb9	0.07860703
69	0x3cdbf0ae	0.026848163
70	0xbd1b2b9a	-0.03788338
71	0x3d229f90	0.039702952
72	0x3d55fcbc	0.05224298
73	0xbd423623	-0.04741491
74	0x3cc49108	0.023994938
75	0x3d4669b9	0.04844067
76	0xbb412361	-0.002947055
77	0x3d3ba434	0.045810893
78	0xbd189d43	-0.03725935
79	0x3c18229a	0.009285593
80	0x3c7cc423	0.015427622
81	0xbd5a4f28	-0.053298146
82	0x3d9e5225	0.077305116
83	0xbc854f51	-0.016273173
84	0x3d1b0a12	0.0378514
85	0x3ceb60cf	0.028732685
86	0xbda8cc98	-0.08242148
87	0xbcc2f6cd	-0.023799324
88	0xbd43404e	-0.047668748
89	0x3d1a5058	0.037674278
90	0xbc180d14	-0.009280462
91	0x3d532d92	0.05155713
92	0xbc94ca7e	-0.018162962
93	0xbd99bb01	-0.07506371
94	0xbd9cfdec	-0.07665619
95	0x3d0e7bfe	0.034786217
96	0xbd8ccf71	-0.06875504
97	0xbd11bc2e	-0.035579853
98	0xbd42838d	-0.047488738
99	0x3d8084f9	0.062753625
100	0xbcbec3e3	-0.023286765
101	0x3c64323f	0.013927995
102	0x3d2b1e0c	0.0417767
103	0xbc763029	-0.015026131
104	0xbccd7913	-0.025082147
105	0xbda69f86	-0.081358954
106	0x3d845341	0.06461192
107	0x3d41df1e	0.04733192
108	0x3d5b7317	0.053576555
109	0xbd030443	-0.031986486
110	0x3cc0aa9f	0.023518858
111	0x3dab0124	0.08349827
112	0x3da319d8	0.07963914
113	0xbd8fad8c	-0.07015523
114	0xbd41cd7f	-0.047315117
115	0x3d157ff7	0.03649899
116	0xbd2e01ba	-0.042482115
117	0x3a8ed58d	0.0010897383
118	0xbd9e8e95	-0.07742039
119	0xbcfb93d1	-0.030710133
120	0x3db1e682	0.08686544
121	0x3d86735a	0.0656497
122	0x3d7f6a19	0.062357042
123	0xbc644ffd	-0.013935086
124	0xbcf86463	-0.030321306
125	0x3d9a416f	0.07532012
126	0x3d68c520	0.056828618
127	0xbd3a66db	-0.045508247
128	0xbcef8f13	-0.029243028
129	0x3d960866	0.073258206
130	0x3d4eef1e	0.05052101
131	0x3b87a1cb	0.0041391603
132	0xbc2fce08	-0.010730274
133	0xbd1ce2fb	-0.038302403
134	0x3d22f8b3	0.03978796
135	0x3d7b6331	0.061373893
136	0x3d7c0f04	0.061537758
137	0xbd5f1129	-0.054459725
138	0x3d9a6985	0.075396575
139	0xbd6d573e	-0.05794453
140	0x3c1cd1a2	0.009571465
141	0xbd0869ee	-0.033304147
142	0xbdbb3e38	-0.09142727
143	0x3d3dec07	0.04636767
144	0x3b936bb4	0.004498923
145	0xbdb836aa	-0.08994801
146	0xbd50eb94	-0.051005915
147	0xbcc668a6	-0.024219822
148	0x3d934d5c	0.071924895
149	0xbda763ff	-0.081733696
150	0x3a72044c	0.00092322077
151	0x3c93d97b	0.018048039
152	0x3d240370	0.04004234
153	0x3b9d5e87	0.0048025283
154	0xbda857cc	-0.08219871
155	0xbd25b5d2	-0.0404566
156	0xbd825bb9	-0.06365151
157	0x3d9f2d64	0.077723294
158	0xbd8d3ecf	-0.068967454
159	0xbd6bc914	-0.05756481
160	0xbd57e27f	-0.052706238
161	0x3cf35a13	0.029706037
162	0x3d1c21fe	0.038118355
163	0xbce97083	-0.028496033
164	0x3d68975d	0.056784976
165	0xbc03e5f0	-0.008050427
166	0xbd9b4f0b	-0.075834356
167	0x3c266b2f	0.0101573905
168	0x3d3a7d64	0.045529738
169	0x3bc0f664	0.005888747
170	0x3d0d186b	0.034447115
171	0xbc2baa75	-0.010477652
172	0xbc6db74f	-0.014509036
173	0x3d58eadf	0.052958366
174	0xbdbf9537	-0.09354632
175	0x3d8466f5	0.0646495
176	0xbdb25b7a	-0.08708854
177	0xbda8aaac	-0.08235678
178	0xbc3366df	-0.010949819
179	0x3bf59884	0.007494988
180	0x3cf17e67	0.029479219
181	0xbd887be4	-0.06664255
182	0x3b739a0b	0.0037170674
183	0xbd86ecef	-0.0658816
184	0xbd4891d7	-0.04896721
185	0xbd590e3e	-0.052992098
186	0x3d8b7fcf	0.06811487
187	0x3c83f8b0	0.016109794
188	0x3d57eba1	0.052714948
189	0x3d8fb646	0.07017188
190	0xbc6c9a01	-0.014441014
191	0x3cf2d87f	0.029644249
192	0xbd13f4bf	-0.03612208
193	0x3dab7474	0.08371821
194	0xbdaa6fea	-0.08322127
195	0x3d98c45e	0.07459329
196	0x3cc380f7	0.023865206
197	0xbb1b43e3	-0.0023691587
198	0xbd7b2595	-0.061315138
199	0x3d56fe19	0.05248842
200	0x3c3d47dd	0.011552778
201	0x3cbf587d	0.023357624
202	0x3ccd806b	0.025085649
203	0x3d9464f6	0.07245819
204	0x3d6731c3	0.05644394
205	0x3d6b5011	0.057449404
206	0xbd8732c1	-0.066014774
207	0xbcd7d6f8	-0.026347622
208	0x3cf38add	0.029729301
209	0x3daf3067	0.08554154
210	0xbdbff28b	-0.09372433
211	0x3cd9ddd8	0.026595041
212	0x3d74f15b	0.059800487
213	0x3d39e248	0.045381814
214	0x3d701276	0.058611356
215	0xbd803274	-0.06259623
216	0x3d2420d9	0.04007039
217	0xbdb1a01f	-0.08673119
218	0x3c08aee5	0.008342479
219	0x3cbe635e	0.023240741
220	0x3c838f24	0.016059466
221	0x3c9b7ec4	0.018981345
222	0x3cd07731	0.02544746
223	0xbd82894b	-0.06373843
224	0xbd852c28	-0.06502563
225	0xbd5bd024	-0.053665295
226	0xbd85a805	-0.06526188
227	0x3c6b99ca	0.014379928
228	0xbd46f9b0	-0.048577964
229	0xbdafc522	-0.08582522
230	0xbd18dfb0	-0.0373227
231	0x3d9862ab	0.074406944
232	0xbdbb6fbd	-0.09152172
233	0x3d9c5cb9	0.07634873
234	0x3cf43ca3	0.02981407
235	0x3d96aa8e	0.073567495
236	0x3ceca5c0	0.02888763
237	0xba824437	-0.0009938542
238	0x3d221f9d	0.03958093
239	0x3c9f4345	0.019441256
240	0xbd550e9a	-0.05201588
241	0x3d8b3135	0.06796495
242	0xbd342b15	-0.0439864
243	0xbd89cb53	-0.06728234
244	0x3da1e865	0.07905654
245	0x3da47257	0.08029621
246	0x3b8d61ba	0.0043146284
247	0xbd35355f	-0.04424035
248	0xbda05526	-0.07828741
249	0xbcbfe692	-0.023425374
250	0x3c364ae2	0.011126252
251	0xbc2f32a2	-0.010693224
252	0xbd0f0c64	-0.034923926
253	0x3d867158	0.06564587
254	0x3d3216d7	0.043478813
255	0x3c17d10e	0.009266151

fc2.bias f4 [128]
0	0xbbbf7028	-0.0058422275
1	0xbd559bf1	-0.05215067
2	0x3d87b426	0.066261575
3	0xba994500	-0.0011693537
4	0xbd32fe85	-0.04369976
5	0x3da61c21	0.08110834
6	0x3c1a5526	0.009419715
7	0x3d9e989e	0.07743953
8	0x3d2d21e2	0.04226864
9	0x3d98e708	0.07465941
10	0xbd40f8e3	-0.047112357
11	0x3d02bc6a	0.031917967
12	0xbd3ea173	-0.04654069
13	0xbd36472b	-0.044501465
14	0xbceb94c8	-0.028757468
15	0xbd0c8570	-0.034306943
16	0x3d71911e	0.058976285
17	0xbbd7fbaf	-0.0065912823
18	0xbd2a040c	-0.041507766
19	0x3d445aac	0.047938034
20	0x3d21a674	0.039465383
21	0xbd978370	-0.073981166
22	0xbcd68607	-0.026186956
23	0x3cbd422f	0.023102848
24	0x3d975b61	0.07390476
25	0x3d9429aa	0.07234509
26	0x3d805bf5	0.062675394
27	0xbceb4218	-0.02871804
28	0x3da711bb	0.08157679
29	0xbcd8c90e	-0.026463058
30	0xbd955b60	-0.07292819
31	0xbd339ab2	-0.0438487
32	0x3da0ef3d	0.07858131
33	0x3d59125d	0.05299603
34	0x3d88caf7	0.066793375
35	0xbd704272	-0.058657117
36	0x3d683696	0.056692682
37	0xbda264df	-0.07929396
38	0x3d5ce9e2	0.053933986
39	0xbb5674a1	-0.0032723325
40	0xbd6ffaa0	-0.058588624
41	0x3d0ebf69	0.03485051
42	0x3c319909	0.010839709
43	0x3c0a45c7	0.008439488
44	0xbd9c34d6	-0.07627265
45	0x3c8b3de9	0.016997295
46	0x3d35dfa6	0.04440274
47	0xbd89ca20	-0.067280054
48	0xbd90b9dd	-0.070667006
49	0x3daefa94	0.08543888
50	0x3c9484aa	0.018129665
51	0xbda0cc2a	-0.07851441
52	0x3d44aad8	0.04801449
53	0x3d5a3679	0.053274605
54	0xbc47ae13	-0.012187499
55	0x3d4962ef	0.049166616
56	0xbc77343e	-0.015088139
57	0xbd8335f7	-0.06406777
58	0xbda048d5	-0.078263916
59	0xbd00b1f0	-0.031419694
60	0xbd75ccdd	-0.060009826
61	0x3d8c0d8f	0.068385236
62	0x3d9d9bf7	0.076957636
63	0x3da721ac	0.08160719
64	0xbdb41bc8	-0.08794361
65	0xbd7ee50a	-0.062230147
66	0x3d7030b3	0.058640193
67	0xbd335a83	-0.04378749
68	0xbd185b1a	-0.037196256
69	0x3d802fed	0.06259141
70	0xbc5ac533	-0.01335268
71	0x3d3eb9bf	0.04656386
72	0x3d88e56f	0.06684386
73	0xbc11f18e	-0.008907689
74	0xbd22bbac	-0.03972976
75	0x3d21686d	0.03940623
76	0xbce5a54c	-0.028032921
77	0x3d673cb6	0.056454383
78	0xbca1d38d	-0.019754196
79	0xbbd09268	-0.0063651092
80	0x3d86710d	0.065645315
81	0x3d2e6896	0.04258021
82	0x3c72a146	0.014808958
83	0x3d50d02a	0.05097977
84	0x3db35168	0.087557614
85	0xbc680a51	-0.014162616
86	0x3daa27e4	0.0830839
87	0x3d63c5f0	0.05560869
88	0xbd844580	-0.064585686
89	0x3d882291	0.06647218
90	0xbcbeef28	-0.023307398
91	0x3d93a262	0.072087064
92	0xbcdee116	-0.027206939
93	0xbb919c54	-0.0044436846
94	0xbc0893c7	-0.008336014
95	0xbce2161a	-0.02759843
96	0x3da47275	0.080296434
97	0xbd288fee	-0.041152887
98	0x3d7e8fff	0.062149044
99	0x3d56c634	0.052435115
100	0xbd39e5f7	-0.045385327
101	0x3c62f0e9	0.013851383
102	0x3d45a892	0.048256464
103	0x3d23794e	0.039910607
104	0xbd8cd0d6	-0.0687577
105	0x3dad9945	0.084764995
106	0x3db19466	0.08670883
107	0x3a19a585	0.0005861151
108	0x3d6fba48	0.05852726
109	0x3d4187e3	0.047248732
110	0x3d8b4e13	0.06802001
111	0x3d5ae410	0.053440154
112	0x3d152668	0.03641358
113	0xbd22fb7f	-0.039790627
114	0x3c15b744	0.009137932
115	0xbdb3e87b	-0.087845765
116	0xbc8acfb2	-0.01694474
117	0xbd1fd356	-0.039019905
118	0x3d8cf008	0.0688172
119	0x3d80677d	0.06269739
120	0x3cece56d	0.028917992
121	0x3d2d8d4f	0.04237109
122	0xbd46fd8d	-0.04858165
123	0x3d162880	0.036659718
124	0x3cabc89e	0.020969685
125	0xbdacd257	-0.08438557
126	0xbcf96533	-0.030443763
127	0x3d5167a0	0.051124215

fc3.weight f4 [2, 128]
0	0x3d9b3a17	0.07579439
1	0xbc2a2304	-0.010384325
2	0x3c66eb8a	0.014094243
3	0xbd909b03	-0.07060816
4	0xbb7b336d	-0.0038330213
5	0xbd9ce97b	-0.0766172
6	0x3d614ecf	0.0550068
7	0xbd38f7e8	-0.045158297
8	0xbcc814f0	-0.024424046
9	0x3dab7b09	0.083730765
10	0xbb7947c7	-0.0038037167
11	0xbd5cfea7	-0.053953793
12	0xbd333963	-0.0437559
13	0xbcbd18f3	-0.023083186
14	0x3d9eacdd	0.07747815
15	0x3db7ac70	0.08968437
16	0x3d2d1078	0.042252034
17	0xbd315723	-0.04329599
18	0xbd99cd98	-0.07509917
19	0x3c012209	0.00788165
20	0xbbd34d50	-0.0064484254
21	0x3d1459d8	0.036218494
22	0x3dab2052	0.08355774
23	0x3da7a18f	0.08185112
24	0xbcbf5fd3	-0.023361122
25	0x3b98c45b	0.0046620793
26	0x3d794545	0.060857076
27	0xbd8845e4	-0.066539556
28	0xbd009219	-0.03138933
29	0x3d856db4	0.06515065
30	0xbb589d23	-0.0033052645
31	0xbcc045a0	-0.0234707
32	0x3d82dbcc	0.06389579
33	0x3d435ae6	0.04769411
34	0xbd672709	-0.05643371
35	0x3cd038e4	0.025417753
36	0x3c0d7f39	0.008636289
37	0x3d5d99fa	0.05410192
38	0x3b1450d5	0.0022631187
39	0x3ca49f86	0.020095598
40	0xbd083da5	-0.033261914
41	0xbd9c37c7	-0.07627826
42	0xbd0b6cf9	-0.03403947
43	0xbca6a42e	-0.020341959
44	0xbc71c419	-0.014756226
45	0xbd22778e	-0.039664797
46	0x3c1c70bb	0.009548361
47	0x3c9a714d	0.018852854
48	0x3d951aef	0.07280528
49	0xbd5ab0bd	-0.053391207
50	0x3d8c5b79	0.068533845
51	0xb998ead8	-0.0002916667
52	0x3d96333d	0.07333992
53	0xbdaa3dc3	-0.08312561
54	0x3c2fb01a	0.010723138
55	0xbd25c3ee	-0.040470056
56	0xbacbbf06	-0.00155446
57	0xbd971561	-0.073771246
58	0x3d9bca1b	0.07606908
59	0xbd9a1184	-0.07522872
60	0x3c8e7b65	0.017392823
61	0xbd0ab29d	-0.033861745
62	0x3cc7e49b	0.024401
63	0x3d1267df	0.03574359
64	0xba225e90	-0.00061939005
65	0x3d63ffc1	0.055663828
66	0xbd880899	-0.06642265
67	0xbda29781	-0.07939053
68	0x3db0ddb1	0.08636034
69	0x3da1a765	0.07893256
70	0x3cd6661d	0.026171738
71	0x3d18c063	0.03729285
72	0x3cc5733d	0.024102801
73	0x3d0e2a11	0.034708086
74	0x3c81490a	0.015781898
75	0x3d063ce4	0.032772914
76	0x3d901035	0.07034341
77	0xbc020210	-0.007935062
78	0xbd3ccfc4	-0.04609658
79	0xbc60b2e3	-0.013714525
80	0x3c9cf1eb	0.019158324
81	0xbce92476	-0.028459769
82	0xbd73c459	-0.059513424
83	0x3d98b0df	0.074556105
84	0xbd18fc39	-0.037349913
85	0xbd0accc7	-0.033886697
86	0x3d4016ce	0.04689675
87	0xbccccb4a	-0.02499928
88	0x3d7778a0	0.06041777
89	0x3c9c700e	0.0190964
90	0xbd71e4bb	-0.059056025
91	0xbca49385	-0.020089874
92	0x3d2fa255	0.04287942
93	0x3c8288e3	0.015934413
94	0x3cd48f1d	0.025947148
95	0x3cc16f3d	0.023612613
96	0xbd054d27	-0.03254428
97	0xbd8e3fe2	-0.069457784
98	0xbd60e5ba	-0.054906584
99	0xbc5271b7	-0.012844495
100	0x3da52f62	0.08065678
101	0x3cd197b4	0.025585033
102	0xbcbf4615	-0.023348847
103	0x3d872bd2	0.06600155
104	0xbcb6fa03	-0.022336012
105	0x3d1b8df5	0.037977178
106	0x3d9176af	0.07102715
107	0x3dae48a3	0.08509948
108	0x3d460efb	0.04835413
109	0x3c3ff074	0.011715043
110	0xbd02e8c3	-0.03196026
111	0xbd90208f	-0.0703746
112	0x3d271a34	0.040796474
113	0x3c9b6015	0.018966714
114	0x3d5d6770	0.054053724
115	0xba0575da	-0.00050911086
116	0xbc40f3ea	-0.011776904
117	0xbd62245c	-0.055210456
118	0x3d8dc4fa	0.06922336
119	0xbd27e3da	-0.04098878
120	0x3daac37d	0.08338068
121	0x3b9e643e	0.004833727
122	0xbc85c69e	-0.01633006
123	0x3c0a48a3	0.0084401695
124	0x3d2856af	0.041098293
125	0xbd7d7e9d	-0.061888326
126	0xbdadb0e9	-0.084810086
127	0x3d1175e6	0.035512827
128	0xbc8cebe7	-0.01720233
129	0x3ccbc919	0.024876164
130	0xbcd17cae	-0.025572147
131	0x3dad38d8	0.08458108
132	0x3d8b9963	0.068163656
133	0xbd587c22	-0.052852757
134	0x3c454f60	0.01204285
135	0x3bbee4a5	0.0058255964
136	0x3ce89a58	0.02839391
137	0xbcd5096a	-0.026005466
138	0xbca95421	-0.020669999
139	0x3c7fbce5	0.015609001
140	0xbbd4e40b	-0.0064969114
141	0xbd6ac471	-0.057316247
142	0x3d864f71	0.06558121
143	0xbda8792d	-0.082262374
144	0xbd255895	-0.04036768
145	0xbc857635	-0.016291717
146	0x3d859cf8	0.0652408
147	0xbdb15c61	-0.08660198
148	0xbc95df86	-0.01829506
149	0xbda0ff01	-0.07861138
150	0xbd37f648	-0.044912606
151	0xbd114a5e	-0.035471313
152	0xbdb4f022	-0.08834864
153	0xbd48b324	-0.048998967
154	0xbbba91b6	-0.0056936396
155	0x3ceb9c2a	0.028760988
156	0xbcaba11e	-0.02095085
157	0x3988f803	0.00026124725
158	0x3be46e9d	0.006971194
159	0x3cdec01e	0.027191218
160	0x3d20ab16	0.03922566
161	0xbd8b61ea	-0.06805785
162	0xbc01df74	-0.0079268105
163	0x3c06f4f9	0.008237117
164	0x3cf2b4b3	0.02962718
165	0xbd9b89b1	-0.07594622
166	0x3d367ebf	0.04455447
167	0xbd4c4328	-0.049868733
168	0x3d0aa7a7	0.033851292
169	0x3c831209	0.01599981
170	0xbda9dbfe	-0.08293913
171	0xbd21cc6a	-0.039501585
172	0x3ad5376d	0.0016267129
173	0xbda478db	-0.08030864
174	0x3ceba56b	0.0287654
175	0xbc98d005	-0.018653879
176	0x3d724dea	0.059156336
177	0x3d9b7d81	0.07592297
178	0x3cf1c61d	0.029513413
179	0x3c993172	0.018700335
180	0x3ac6f2b6	0.0015178535
181	0xbd8ce3c8	-0.06879383
182	0x3d40f182	0.04710532
183	0xbd8d56cb	-0.0690132
184	0x3c2cd18d	0.010548008
185	0x3d3166c7	0.043310907
186	0x3cacca4a	0.021092553
187	0x3c09710f	0.008388772
188	0xbd67b5c3	-0.056569826
189	0xbdb8ba70	-0.09019935
190	0xbc5f0d41	-0.013614
191	0x3d223423	0.039600503
192	0xbc286058	-0.010276876
193	0xbd3087ae	-0.043098144
194	0xbcd2226f	-0.025651185
195	0xb9e9ce1c	-0.00044594787
196	0x3d5a4fd4	0.053298786
197	0xbd95e614	-0.073192745
198	0xbd783ce1	-0.060604934
199	0xbd269e4e	-0.040678315
200	0x3da66bd4	0.08126035
201	0xbd0babf5	-0.034099538
202	0xbd9995d1	-0.07499278
203	0x3d27944a	0.040912904
204	0x3d6642c9	0.056216035
205	0x3d94fdf5	0.07275001
206	0xbd8a0e13	-0.06740966
207	0xbce775af	-0.028254358
208	0xbd889b95	-0.066703
209	0x3da432eb	0.08017524
210	0x3d7083b8	0.058719367
211	0xbdb53edf	-0.08849882
212	0xbd1ba032	-0.03799457
213	0xbd6cfb5d	-0.057856906
214	0xbd3b47d8	-0.045722812
215	0xbd8d5f01	-0.06902886
216	0xbd80f09c	-0.062958926
217	0x3c92e498	0.017931268
218	0x3d87e28a	0.06635006
219	0xbdb1f3aa	-0.08689053
220	0xbd203d31	-0.039120857
221	0x3c93bb83	0.018033748
222	0x3d1ac5d8	0.037786335
223	0xbd919d63	-0.07110097
224	0xbd38da93	-0.045130324
225	0x3d991d0a	0.07476242
226	0x3d9ca7c5	0.07649187
227	0xbd3623c5	-0.044467706
228	0x3bea1464	0.007143544
229	0x3da9cdf8	0.082912385
230	0xbd9a53af	-0.07535493
231	0xbd4bd585	-0.049764175
232	0xbcc96e3b	-0.024588695
233	0x3bb9746a	0.0056596296
234	0xbd8ea393	-0.06964793
235	0x3da968b0	0.08271921
236	0xbd151789	-0.036399398
237	0x3ccf5005	0.025306711
238	0x3d29cf72	0.0414576
239	0x3c8ce882	0.017200712
240	0xbcd1db1a	-0.025617171
241	0xbcc7af77	-0.02437566
242	0x3cedd842	0.029033784
243	0xbd5dc98c	-0.05414729
244	0x3d0f058f	0.03491741
245	0xbdb7372b	-0.08946069
246	0xbcd4daa7	-0.025983168
247	0xbd55ab07	-0.052165058
248	0xbdadec2b	-0.08492311
249	0xbc530b28	-0.012881078
250	0x3da01e68	0.078182995
251	0xbd4b7376	-0.04967066
252	0x3d0ab227	0.033861306
253	0xbd113f2d	-0.03546064
254	0x3db32a1c	0.08748266
255	0xbd136b39	-0.035990927

fc3.bias f4 [2]
0	0x3d3146c4	0.043280378
1	0x3ac9dd2e	0.0015401

fc1.weight f4 [128, 84]
0	0xbd4f6989	-0.050637756
1	0xbdb4f061	-0.08834911
2	0xbcce0eb0	-0.025153488
3	0x3d3892bf	0.045061823
4	0x3d50c7eb	0.050971907
5	0xbcfcb024	-0.03084571
6	0x3d954a25	0.072895326
7	0xbbafb780	-0.005362451
8	0x3d91eb5a	0.07124968
9	0xbd0e4a98	-0.034739107
10	0xbd3596bb	-0.0443332
11	0x3d2d89d9	0.04236779
12	0x3ba1c696	0.0049370034
13	0x3d35f873	0.044426393
14	0xbb8c522f	-0.004282258
15	0xbd307ec7	-0.043089654
16	0xbd57c2d4	-0.052676037
17	0xbd910c44	-0.070824176
18	0xbddd350f	-0.10801136
19	0x3d07d755	0.03316434
20	0x3da30bdf	0.079612486
21	0x3c5a8924	0.013338361
22	0xbd5f8638	-0.05457136
23	0xbd2cd700	-0.042197227
24	0x3d49dccc	0.049282834
25	0x3dc4272d	0.09577785
26	0xbcb872e5	-0.022515723
27	0xbd2ee3e4	-0.042697802
28	0x3d86aa76	0.065754816
29	0xbb7138de	-0.0036807577
30	0x3b09fa0e	0.0021053585
31	0xbc2a8378	-0.010407321
32	0xbd8715aa	-0.06595929
33	0x3d69e496	0.057102762
34	0x3d9089b7	0.07057517
35	0xbd21bde8	-0.03948775
36	0x3ca98d49	0.020697253
37	0xbdb7c0fe	-0.08972357
38	0xbdc5a902	-0.09651376
39	0xbd3dfe96	-0.04638537
40	0xbd6784ca	-0.056523122
41	0x3cf6353e	0.030054685
42	0xbd917a7e	-0.07103442
43	0x3d229623	0.039693963
44	0x3dae8446	0.08521323
45	0xbcd6474c	-0.026157044
46	0x3cb56b2e	0.022145834
47	0xbcaddcba	-0.021223415
48	0xbd2ec482	-0.042667873
49	0xbdd61823	-0.104538225
50	0x3d873c3f	0.06603288
51	0xbd5315f8	-0.051534623
52	0x3d6a6e31	0.057233993
53	0x3d738ba9	0.059459362
54	0xbd93d94f	-0.07219183
55	0xbdb14359	-0.08655424
56	0xbd8ff2e5	-0.0702875
57	0x3d5e6f73	0.054305505
58	0xbdc744ae	-0.097298965
59	0xbdd46ccd	-0.103723146
60	0x3d18678f	0.037208136
61	0x3d985a88	0.074391425
62	0xbc7f0a4c	-0.01556642
63	0x3d8a8248	0.067631304
64	0x3c9f543b	0.019449344
65	0xbc942569	-0.018084245
66	0x3cdc2691	0.026873859
67	0x3d9aefbe	0.075652584
68	0x3d16f743	0.0368569
69	0x39bc3515	0.00035897703
70	0x3d0f6660	0.03500974
71	0x3dc70a0c	0.09718713
72	0xbcec691a	-0.02885871
73	0xbd1eb8b9	-0.038750384
74	0x3dc78e64	0.09743956
75	0xbd95cb7f	-0.073142044
76	0xbdd39711	-0.10331548
77	0xbd84e957	-0.064898185
78	0xbda33de2	-0.079707876
79	0x3dacb690	0.084332585
80	0xbc911284	-0.017709024
81	0xbd70ec7d	-0.058819283
82	0x3c0647ef	0.008195861
83	0x3db5705c	0.088593215
84	0x3d1c63dd	0.038181175
85	0xbddedb70	-0.10881698
86	0x3d79f35d	0.061023105
87	0x3c7ff932	0.015623378
88	0x3dd87121	0.105684526
89	0x3dd4ade7	0.10384732
90	0x3dbf9a7b	0.09355637
91	0x3c41cca8	0.011828579
92	0x3bad06a2	0.0052803317
93	0x3c1b3688	0.0094734505
94	0xbd9591c4	-0.07303193
95	0x3dd87ca1	0.10570646
96	0xbce93145	-0.028465876
97	0x3caa4892	0.020786557
98	0xbd3d44b5	-0.046208102
99	0xbc84a165	-0.01619024
100	0xbdb27338	-0.087133825
101	0x3cf1d402	0.029520039
102	0xbd216731	-0.03940505
103	0x3dc32d1b	0.095300876
104	0x3cc8fe47	0.024535311
105	0x3d095692	0.033529826
106	0xbd5d0510	-0.053959906
107	0x3dd1baba	0.102406934
108	0xbd9168d1	-0.0710007
109	0xbdb65998	-0.089038074
110	0xbd513565	-0.05107631
111	0xbda6135c	-0.08109161
112	0xbd8afb97	-0.06786268
113	0xbd937f47	-0.072020106
114	0xbd59c96b	-0.053170603
115	0xbcecfdad	-0.028929556
116	0xbd3a065c	-0.04541622
117	0x3d1c46db	0.03815351
118	0xbb602a12	-0.0034204763
119	0xbc2cd596	-0.01054897
120	0x3cdf304b	0.027244708
121	0x3dd86761	0.10566593
122	0xbd8271b3	-0.06369343
123	0xbdd42195	-0.10357968
124	0x3ddc4255	0.10754839
125	0xbd0514b6	-0.032490455
126	0xbdc02f11	-0.09383977
127	0x38833419	6.256271e-05
128	0xbd13c881	-0.036079887
129	0x3cd29c98	0.025709435
130	0xbd4c83cb	-0.049930375
131	0xbcb01d35	-0.021498302
132	0xbd6cd266	-0.05781784
133	0x3dca4226	0.09875898
134	0xbddf1dce	-0.10894357
135	0xbce19164	-0.027535148
136	0xbd82e49f	-0.06391262
137	0x3db8bd8e	0.0902053
138	0xbd46b9e3	-0.04851712
139	0x3da21cb3	0.0791563
140	0xbd3d4cf5	-0.04621597
141	0xbd6f599f	-0.05843508
142	0x3c2d0103	0.010559323
143	0xbd778aa0	-0.060434937
144	0x3cadac1f	0.021200238
145	0x3c4976a7	0.012296355
146	0x3db7f48a	0.08982189
147	0x3bc9c608	0.0061576404
148	0x3cd494fb	0.025949946
149	0xbdc5c141	-0.09656001
150	0xbdda86ca	-0.1067024
151	0xbdca6ba7	-0.09883814
152	0x3cdf3383	0.027246242
153	0xbc98d749	-0.018657343
154	0x3d964e83	0.07339194
155	0x3d897781	0.06712247
156	0xbcc49cc0	-0.024000525
157	0x3d1f11e3	0.038835417
158	0xbd329dde	-0.043607585
159	0xbda65392	-0.081214085
160	0x3d66d6a9	0.05635706
161	0xbd8189b2	-0.063250914
162	0xbd3cee90	-0.04612595
163	0x3dbfae18	0.093593776
164	0x3dce5efb	0.1007671
165	0x3d999145	0.07498411
166	0x3da7517c	0.08169839
167	0xbb84f54d	-0.0040575624
168	0x3d3e9752	0.04653103
169	0x3d9dc968	0.07704431
170	0x3d3e9766	0.046531104
171	0xbddbef0f	-0.10738956
172	0x3db9c79d	0.09071276
173	0x3dae0b1b	0.08498212
174	0x3dc0a6e7	0.09406834
175	0x3cea6376	0.02861188
176	0x3d741d1d	0.059598077
177	0xbda867b0	-0.08222902
178	0xbc3bcc11	-0.011462227
179	0x3d2c46b4	0.042059615
180	0xbdce0a83	-0.10060599
181	0xbca3fd40	-0.02001822
182	0xbda5dcba	-0.08098741
183	0xbd997e0f	-0.07494747
184	0xbdb6992a	-0.089159325
185	0x3d984c38	0.074364126
186	0x3d8bacd6	0.06820075
187	0xbbc0b1ef	-0.0058805863
188	0xbd408bb5	-0.047008235
189	0xbc91aa0e	-0.017781284
190	0xbda0d5c7	-0.07853275
191	0x3ce127ce	0.0274848
192	0x3d511d20	0.051053166
193	0x3d476e23	0.04868902
194	0xbda52d21	-0.08065248
195	0xbd9c337d	-0.07627008
196	0xbd9e61d1	-0.07733501
197	0x3dc40a48	0.095722735
198	0x3d8b8cdb	0.068139754
199	0xbd9ea2cc	-0.07745895
200	0xbd8c8d01	-0.06862832
201	0x3dca9527	0.0989173
202	0x3dbc3717	0.09190195
203	0xbd39195c	-0.0451902
204	0xbd5575c2	-0.052114256
205	0xbdb530b3	-0.08847179
206	0xbd36cd71	-0.044629518
207	0x3dc99101	0.098421104
208	0xbdbefd4c	-0.09325656
209	0x3b1b5660	0.0023702607
210	0xbd1369b4	-0.03598948
211	0xbcc7e12a	-0.024399359
212	0x3d8696fd	0.065717675
213	0xbdb56b24	-0.08858326
214	0x3d37b279	0.04484794
215	0x3c85c65c	0.016329937
216	0xbd51407a	-0.05108688
217	0xbdaba537	-0.083811216
218	0x3d17ceeb	0.037062567
219	0x3be2340b	0.0069031767
220	0x3d96cd6a	0.073633984
221	0x3d38b6f4	0.045096353
222	0x3dbce631	0.09223593
223	0x3dd97084	0.10617164
224	0xbdccc7a2	-0.099990144
225	0xbb9bf29b	-0.0047591454
226	0x3d845bc8	0.064628184
227	0xbddcb9c9	-0.10777623
228	0x3dc09563	0.09403493
229	0xbdb84a18	-0.08998507
230	0xbdb7298b	-0.089434706
231	0x3daaea03	0.083454154
232	0xbd2508a4	-0.040291443
233	0x3daf57e5	0.085616864
234	0xbdd0e642	-0.10200168
235	0x3d4ab48b	0.049488585
236	0x3c82e0c5	0.01597632
237	0xbc4e209b	-0.012581016
238	0x3d658120	0.056031346
239	0xbcb86355	-0.022508303
240	0x3dcfdb95	0.10149304
241	0x3d268261	0.040651683
242	0xbd19a7b5	-0.037513454
243	0x3cc3014b	0.023804327
244	0xbc147602	-0.009061338
245	0x3da3b633	0.07993736
246	0xbd302c9b	-0.04301129
247	0xbced1957	-0.028942747
248	0xbd1f98ec	-0.038964197
249	0x3d132a9c	0.035929307
250	0x3d2869b9	0.04111645
251	0x3d9819f7	0.074268274
252	0x3d858bed	0.06520829
253	0xbd4e2c9d	-0.050335515
254	0xbdc3efc4	-0.09567216
255	0x3d87cc75	0.06630794

fc1.bias f4 [128]
0	0x3d93510d	0.071931936
1	0x3da2b5ec	0.07944855
2	0x3dd05ac8	0.10173565
3	0x3d92e517	0.07172602
4	0xbcd297ad	-0.02570709
5	0xbda669a2	-0.081256166
6	0xbd267a2c	-0.040643856
7	0x3d9b9e7b	0.07598587
8	0xbc8513f9	-0.016244875
9	0x3d80c30d	0.06287203
10	0xbdae8adc	-0.08522579
11	0x3cd33e16	0.02578644
12	0xbdc2860f	-0.09498226
13	0xbd9d2c4c	-0.076744646
14	0xbb98953f	-0.0046564634
15	0xbcbd909b	-0.023140242
16	0xbdbe7820	-0.09300256
17	0x3c86bb9a	0.016446877
18	0x3d11380d	0.035453845
19	0x3d3e341d	0.046436418
20	0xbd832d91	-0.064051755
21	0x3d9019fb	0.070362054
22	0xbd44bf14	-0.04803379
23	0xbd9dd02a	-0.0770572
24	0xbd99b778	-0.07505697
25	0x3d470c0e	0.04859548
26	0xbd20e43b	-0.039280158
27	0xbd46e70f	-0.0485602
28	0xbcb7b3dd	-0.022424633
29	0x3da477de	0.08030675
30	0xbc31f046	-0.010860508
31	0x3d84dd9c	0.06487581
32	0xbdb6bedd	-0.08923123
33	0xbd401c55	-0.04690202
34	0xbdaf9f32	-0.08575286
35	0x3cea7608	0.028620735
36	0xbd800c07	-0.06252294
37	0xbdad046e	-0.084481105
38	0x3d60bd32	0.05486793
39	0xbdc03c0e	-0.093864545
40	0x3d958e48	0.073025286
41	0x3dc39034	0.09548989
42	0xbdb9db06	-0.090749785
43	0xbdda5fa2	-0.10662772
44	0x3d987913	0.07444968
45	0xbd973b55	-0.073843636
46	0xbda7483b	-0.08168074
47	0x3dacf20f	0.084446065
48	0xbd9e5451	-0.07730926
49	0xbd736009	-0.059417758
50	0xbd97c02e	-0.07409702
51	0x3db9c2cd	0.090703584
52	0xbc820dd2	-0.01587573
53	0x3da00e5d	0.078152396
54	0x3d35b382	0.044360645
55	0x3db82b4c	0.08992633
56	0xbcd2f5e5	-0.025752017
57	0x3d053a63	0.032526385
58	0x3da8f31f	0.08249497
59	0xbddf6070	-0.10907066
60	0x3d1554cf	0.036457833
61	0x3d97d189	0.074130125
62	0x3d0425d8	0.032262653
63	0xbc8ad03d	-0.016944999
64	0x3d5a7662	0.053335555
65	0xbd52ed0f	-0.051495608
66	0x3d8e9c24	0.06963375
67	0x3dcd2447	0.10016685
68	0xbda0eb1d	-0.07857344
69	0x3d970c5b	0.073754035
70	0x3c37d541	0.011220277
71	0xbd6fb0aa	-0.05851809
72	0x3d02d763	0.03194369
73	0x3d663265	0.056200404
74	0x3d873f5f	0.06603884
75	0x3cfb55e0	0.030680597
76	0xbdb4c555	-0.088267006
77	0x3dcea2a3	0.10089614
78	0x3cb5cc6f	0.022192208
79	0x3d152cc9	0.036419664
80	0x3ca86941	0.020558001
81	0xbd0ac611	-0.033880297
82	0xbd30dcba	-0.04317925
83	0xbd132afe	-0.035929672
84	0x3cc26789	0.02373101
85	0xbdb05b47	-0.0861116
86	0xbd7b1c03	-0.06130601
87	0x3d96d220	0.07364297
88	0x3db0add3	0.08626904
89	0xbdbf6a94	-0.093465
90	0x3d4e2f4f	0.050338086
91	0x3ca45483	0.02005983
92	0xbd2513cb	-0.04030208
93	0x3dcccd55	0.100001015
94	0xbd96b84b	-0.0735937
95	0x3d433004	0.047653213
96	0xbdba8687	-0.0910769
97	0x3dac5984	0.08415511
98	0x3d45d09b	0.048294645
99	0x3ddd1159	0.107943244
100	0x3d1b3a37	0.037897315
101	0xbcc57238	-0.024102315
102	0xbd514fc3	-0.051101457
103	0xbdc64408	-0.09680945
104	0xbd69d7b2	-0.05709047
105	0x3d306167	0.04306164
106	0xbcc2a859	-0.023761915
107	0xbd3d2665	-0.046179194
108	0xbd8a2246	-0.067448184
109	0xbd5c47cb	-0.053779405
110	0x3dad1672	0.08451547
111	0xbd8ff903	-0.07029917
112	0x3dc38ddd	0.09548543
113	0x3dc0cf96	0.09414594
114	0xbc97ba05	-0.018521318
115	0x3dc40414	0.0957109
116	0x3da86efb	0.08224293
117	0xbde7056e	-0.112803325
118	0x3b8e901c	0.0043506753
119	0xbdb05254	-0.08609453
120	0xbd5cb5a0	-0.05388415
121	0xbd96bc19	-0.073600955
122	0xbd6bfcb6	-0.05761405
123	0xbcdef97a	-0.02721857
124	0x3ca0b6c6	0.019618403
125	0xbd993f64	-0.07482794
126	0x3d51ec89	0.051250968
127	0x3c46dceb	0.012137632

fc2.weight f4 [128, 128]
0	0x3b5a529a	0.0033313395
1	0xbd544100	-0.0518198
2	0xbd974edf	-0.0738809
3	0x3d83f69a	0.0644352
4	0xbdbd16c7	-0.0923286
5	0xbd8547a4	-0.06507805
6	0x3d7b2124	0.061310902
7	0x3d8e2aaa	0.06941731
8	0x3ceb065b	0.028689554
9	0x3d974f1a	0.07388134
10	0xbd6e23f4	-0.058139756
11	0xbc8c2aa9	-0.017110186
12	0xbd000a88	-0.031260043
13	0xbdb3b5b1	-0.08774889
14	0xbcf1d245	-0.02951921
15	0xbd3389e5	-0.04383268
16	0xbc1adf8c	-0.009452712
17	0xbd1dd91e	-0.038537137
18	0xbd75938f	-0.059955176
19	0x3d4c71af	0.049913105
20	0xbd1eba33	-0.038751792
21	0x3cbb8bcc	0.022893809
22	0x3c8d4b90	0.017247945
23	0xbd5a6930	-0.05332297
24	0x3c974bbb	0.018468728
25	0xbd94f139	-0.07272572
26	0x3da76b4a	0.08174761
27	0xb915e068	-0.00014293345
28	0xbcd14888	-0.02554728
29	0xbb06d582	-0.0020574038
30	0xbc2e35a0	-0.010632902
31	0xbdab3503	-0.083597206
32	0x3d6b9fb9	0.05752537
33	0xbdba53f4	-0.09098044
34	0xbb67cd03	-0.003537
35	0x3d09f9b5	0.033685405
36	0xbc4ec22b	-0.012619535
37	0x3d96f3f6	0.073707506
38	0x3cedc415	0.029024163
39	0x3c8ebd9f	0.017424403
40	0x3c360333	0.011109161
41	0x3d7f8aa8	0.062388092
42	0x3c4b34ab	0.012402694
43	0xbd5b2c34	-0.053508952
44	0x3da3a21e	0.07989906
45	0x3c8b0507	0.01697017
46	0x3d195b65	0.037440676
47	0x3d6ce423	0.057834756
48	0xbc5f0dd5	-0.013614138
49	0xbdaa6ef9	-0.083219476
50	0x3d9f97f2	0.07792653
51	0x3c90ad4d	0.017660761
52	0x3cdf5143	0.027260428
53	0xbdb78aae	-0.08961998
54	0x3d85efbf	0.065398686
55	0xbda9c90b	-0.08290299
56	0x3d9c7dfc	0.07641217
57	0xbd01a4db	-0.03165136
58	0xbceee1bd	-0.029160375
59	0x3d7992aa	0.060930885
60	0xbd805773	-0.062666796
61	0xbd834823	-0.06410243
62	0xbcc4c98f	-0.024021892
63	0x3ccaab4c	0.024739884
64	0x3da6f3c8	0.08151966
65	0xbce6744e	-0.02813163
66	0xbda9439d	-0.08264849
67	0xbcec7ba7	-0.028867556
68	0xbcfeb0dc	-0.031090192
69	0xbd9d1573	-0.07670107
70	0x3d7ca7ee	0.061683588
71	0x3da2ea4e	0.07954846
72	0x3d8d8880	0.06910801
73	0xbc6b5f71	-0.014366017
74	0x3b5c20b2	0.0033588824
75	0x3d744c39	0.059643004
76	0x3cc8eeb6	0.024527889
77	0xbacd18a0	-0.0015647598
78	0x3d9b9ea8	0.07598621
79	0xbda83a62	-0.08214261
80	0xbc7c6741	-0.015405477
81	0x3c2c5588	0.010518439
82	0xbcc61e29	-0.024184303
83	0x3d8a62e2	0.06757142
84	0xbd8df676	-0.06931774
85	0x3d7cd3ce	0.06172543
86	0x3d742ad0	0.05961114
87	0xbda9baae	-0.082875594
88	0x3c45ebf5	0.012080182
89	0xbd1c0396	-0.038089357
90	0x3c2f89c9	0.010714003
91	0x3d1d60fd	0.038422573
92	0x3d4e084f	0.050300892
93	0xbd1a5630	-0.03767985
94	0xbda5adbf	-0.0808978
95	0xbd4f0d40	-0.050549746
96	0xbcab61c0	-0.020920634
97	0xbc68e952	-0.014215784
98	0x3a23511a	0.00062300416
99	0xbcab4a44	-0.020909436
100	0xbdaea38e	-0.08527289
101	0x3d8790ef	0.06619441
102	0x3d3fd856	0.046837173
103	0x3d00540f	0.031330165
104	0xbd9052ff	-0.0704708
105	0xbd6f089a	-0.058357812
106	0x3cfb3422	0.030664507
107	0xbcf34a8d	-0.029698635
108	0x3d7aa04b	0.061188024
109	0xbd74b3c7	-0.05974176
110	0xbd67f0fd	-0.05662631
111	0xbd2e8ced	-0.042614866
112	0xbd135c41	-0.035976652
113	0xbd942227	-0.072330765
114	0x3d036838	0.032081813
115	0x3cce9194	0.025215901
116	0xbd80a1ae	-0.06280838
117	0x3d82e794	0.06391826
118	0x3d1cc42e	0.03827303
119	0xbd9214bd	-0.07132862
120	0xbd208891	-0.03919274
121	0x3b57cc7f	0.0032928286
122	0xbd98c171	-0.07458771
123	0xbd651ac3	-0.055933725
124	0xbd99001d	-0.07470725
125	0xbd7f6602	-0.06235314
126	0xbd99743c	-0.07492873
127	0xbd59514c	-0.053056046
128	0xbc69cb99	-0.014269733
129	0x3cb6c4b4	0.022310592
130	0xbcb3862b	-0.021914562
131	0xbd83f3cd	-0.06442986
132	0xbc8cbdba	-0.017180312
133	0xbca6f6d4	-0.020381369
134	0x3c4bdc0f	0.012442603
135	0xbd267bec	-0.040645525
136	0x3d93a423	0.07209041
137	0xbd152fbf	-0.036422487
138	0xbd7822d2	-0.060580082
139	0xbbab42d9	-0.0052264747
140	0x3d9022ba	0.070378736
141	0x3d832e97	0.06405371
142	0xbd6d5642	-0.05794359
143	0x3db24cd0	0.08706057
144	0xbd692b4d	-0.05692606
145	0xbcfeeaee	-0.031117883
146	0xbd35f755	-0.044425327
147	0xbd8e78cf	-0.06956636
148	0x3da9aca0	0.08284879
149	0xbbe235ec	-0.0069034006
150	0x3d9ee86d	0.077591754
151	0x3b3958fb	0.0028281796
152	0x3d58756c	0.052846357
153	0xbda424ee	-0.08014856
154	0x3d5db3e0	0.05412662
155	0xbcde67d0	-0.027149111
156	0x3d4e8de5	0.05042829
157	0x3bc782de	0.0060885986
158	0x3d9b2f86	0.07577424
159	0xbd09fe73	-0.033689927
160	0xbd323180	-0.043504238
161	0x3d1a3858	0.03765139
162	0xbd93ae74	-0.07211009
163	0x3d8e9652	0.06962265
164	0xbca8fc9a	-0.020628262
165	0xbd64d851	-0.055870358
166	0x3bb282ed	0.0054477365
167	0xbd6fe1b4	-0.058564857
168	0xbd27a09f	-0.040924665
169	0x3cc5fc79	0.02416824
170	0x3d48f8b7	0.049065318
171	0xbce3cf89	-0.027808921
172	0xbdbc9f06	-0.09210019
173	0x3d965df2	0.073421374
174	0x3d26ce47	0.040724065
175	0xbdac20be	-0.084046826
176	0xbd051af8	-0.032496423
177	0xbb6ff61a	-0.0036615194
178	0x3b37d605	0.002805115
179	0x3c670e0e	0.014102472
180	0xbc3bd228	-0.011463679
181	0xbda53c1b	-0.08068105
182	0x3c308e03	0.010776046
183	0x3d199b33	0.037501525
184	0xbcd70e3f	-0.02625191
185	0x3cef0814	0.029178657
186	0xbcb45e15	-0.022017518
187	0xbd760b07	-0.06006911
188	0xbd362312	-0.04446704
189	0xbd66b6c3	-0.05632664
190	0x3daed059	0.08535833
191	0xbda86647	-0.08222633
192	0x3c2325ae	0.009957714
193	0xbc937bdb	-0.018003395
194	0xbd8d8998	-0.069110096
195	0xbd98d26f	-0.07462012
196	0xbd256d40	-0.040387392
197	0xbd62a1b1	-0.055329982
198	0x3c9a7f66	0.018859576
199	0x3bb8fc44	0.005645307
200	0x3c806f15	0.015677968
201	0x3d6eb759	0.058280323
202	0x3d19a34d	0.03750925
203	0xbb9fdda9	-0.004878719
204	0x3c5c2a13	0.013437766
205	0x3d087d52	0.03332264
206	0xbd5668f5	-0.05234619
207	0x3d447ea0	0.04797232
208	0xbc8dad24	-0.017294474
209	0xbd862b93	-0.0655128
210	0xbba8f8aa	-0.005156596
211	0xbaf31165	-0.0018544613
212	0xbd9e9831	-0.07743872
213	0xbc58027a	-0.013184184
214	0x3d3e3069	0.046432886
215	0xbd64b75e	-0.055838935
216	0xbd9ea06a	-0.0774544
217	0x3da8dbac	0.08245024
218	0x3d81db0b	0.06340607
219	0xbd7b0926	-0.06128802
220	0x3cd603f5	0.026124934
221	0xbdae6256	-0.0851485
222	0x3b6b3d47	0.0035894678
223	0x3d96c76e	0.07362257
224	0xbd98d231	-0.07461966
225	0xbbe43c3b	-0.006965188
226	0x3d1ad628	0.03780189
227	0xbc492dc4	-0.012278978
228	0x3bceece7	0.006314862
229	0xbc0eb1c1	-0.008709372
230	0xbda8a3d5	-0.082343735
231	0xbc195b68	-0.009360172
232	0xbc95aba7	-0.018270327
233	0xbd8ad684	-0.06779197
234	0x3d767d12	0.06017787
235	0xbdb8deb1	-0.0902685
236	0x3c83672a	0.016040403
237	0xbc852380	-0.01625228
238	0x3dae871f	0.08521866
239	0xbd80808b	-0.062745176
240	0x3d8ef4d1	0.06980289
241	0x3daa159c	0.08304903
242	0xbd422ca8	-0.04740587
243	0x3da7e857	0.08198612
244	0xbc7cb9be	-0.015425144
245	0x3d74f90a	0.059807815
246	0xbcce84b6	-0.025209766
247	0xbd4581cb	-0.048219483
248	0xbdac4c5d	-0.08413003
249	0xbdba4e5d	-0.09096978
250	0xbc897bf0	-0.01678273
251	0x3c8c291a	0.017109443
252	0xbd37ffe8	-0.044921786
253	0xbcb8e823	-0.022571629
254	0x3d5bc3c5	0.053653497
255	0xbd52c21d	-0.051454652

fc2.bias f4 [128]
0	0xbda32001	-0.07965089
1	0xbd6fcda8	-0.05854574
2	0xbd6b37b0	-0.057426155
3	0x3d55ab1d	0.05216514
4	0xbd9295ef	-0.07157504
5	0xbcb68700	-0.02228117
6	0x3d8566ab	0.06513723
7	0xbd6e6843	-0.0582049
8	0xbd25f12b	-0.0405132
9	0x3d4bbc77	0.04974028
10	0x3db515b6	0.08842032
11	0xbd6338ab	-0.055473965
12	0x3d9c3b60	0.076285124
13	0xbd86ea3a	-0.06587644
14	0x3cfd97c9	0.030956166
15	0x3d8aabf4	0.06771079
16	0x3d8fba57	0.070179634
17	0x3dad4a70	0.084614635
18	0x3d94292a	0.07234414
19	0xbd27d08c	-0.04097037
20	0x3c32d6ab	0.010915439
21	0xbae2220b	-0.0017252577
22	0x3d026045	0.03183009
23	0x3c30d5a3	0.010793122
24	0x3c552248	0.013008662
25	0x3ca90558	0.02063243
26	0x3da21133	0.07913437
27	0x3cc9c0ff	0.02462816
28	0xbdaa4a25	-0.08314923
29	0xbd05c7c2	-0.032661207
30	0x3d27723e	0.040880434
31	0x39d41c21	0.0004045675
32	0x3d51e01e	0.051239125
33	0xbd0b84eb	-0.034062307
34	0xbd5c1315	-0.053729136
35	0xbd8a111a	-0.06741543
36	0xbda311a9	-0.07962353
37	0xbd8ee2cc	-0.06976852
38	0x3d9ed7ab	0.07755979
39	0xbd27ded5	-0.040983994
40	0x3da17d16	0.078851864
41	0x3ab89d46	0.0014084957
42	0xbd40e556	-0.04709371
43	0xbd5d40a3	-0.05401672
44	0x3b97dd51	0.0046345373
45	0xbda5f62f	-0.081035964
46	0x3c8308c5	0.015995393
47	0xbd4b4295	-0.049624044
48	0xb8f6da9b	-0.000117709125
49	0x3c40271b	0.0117280735
50	0x3d47c10e	0.048768096
51	0xbd4374d5	-0.04771884
52	0xbd4c1dad	-0.04983299
53	0x3cbef5bf	0.02331054
54	0xbd874d77	-0.06606572
55	0x3dae591c	0.0851309
56	0x3d1f0fc8	0.03883341
57	0x3d9c3126	0.07626562
58	0xbd1f608a	-0.038910426
59	0x3c826a24	0.015919752
60	0xbd80caa3	-0.0628865
61	0xbd5e9ee1	-0.054350737
62	0xbd42d6a0	-0.047567964
63	0x3cbbcbc5	0.022924313
64	0x3d803d42	0.06261684
65	0xbbde703b	-0.0067882813
66	0xbd0b6638	-0.03403303
67	0x3b524fb4	0.0032090964
68	0x3d752bb8	0.059856147
69	0x3d842f61	0.06454349
70	0x3c70bb98	0.014693163
71	0xbd97e172	-0.07416047
72	0xbd8ca6d1	-0.06867755
73	0x3cc611b5	0.024178365
74	0x3d815acd	0.06316147
75	0x3d80846e	0.06275259
76	0x3d8f5b16	0.06999795
77	0x3d8efca2	0.0698178
78	0xbd59f9dd	-0.053216804
79	0xbda0f9a6	-0.07860117
80	0xbd3515fc	-0.04421042
81	0xbc3f8ab3	-0.011690783
82	0xbcbcecbd	-0.023062104
83	0x3d99c516	0.07508294
84	0xbbe24d86	-0.006906214
85	0x3d0b9ba9	0.034083996
86	0x3daaeecb	0.083463274
87	0xbcf5ebfc	-0.030019753
88	0x3d8112ec	0.06302437
89	0x3da20bc3	0.079123996
90	0x3c609676	0.013707748
91	0x3d5b923d	0.05360626
92	0x3dae33d1	0.08505977
93	0xbd330ee8	-0.043715388
94	0x3bf484c2	0.007462115
95	0x3c8c305d	0.017112905
96	0x3db1e46a	0.08686145
97	0xbc94f6ae	-0.018184032
98	0xbd60e0e8	-0.054901987
99	0xbb9b9e5d	-0.004749103
100	0x3d83e43d	0.06440017
101	0xbd977c1c	-0.07396719
102	0xbd6a986e	-0.057274275
103	0xbc00875e	-0.007844774
104	0xbc7f33e4	-0.0155763365
105	0x3b673c3e	0.003528371
106	0xbd871ead	-0.06597648
107	0xbdb1bc0a	-0.08678444
108	0x3d291525	0.04127993
109	0x3d9ff3b5	0.07810155
110	0xbb1fc11c	-0.0024376577
111	0x3db11136	0.08645861
112	0xbd5ae69c	-0.053442582
113	0xbd8a1a7b	-0.06743332
114	0xbc7a64d9	-0.015282833
115	0xbd606634	-0.05478497
116	0x3d80c538	0.062876165
117	0x3cbd262a	0.023089487
118	0x3b00cbc7	0.001965271
119	0xbd91e815	-0.07124344
120	0x3d22b354	0.039721802
121	0xbd1ee2d6	-0.038790546
122	0xbd84cb0f	-0.06484043
123	0xbcdf0854	-0.02722565
124	0xbbd41f2b	-0.006473442
125	0x3cceb18e	0.025231149
126	0xbd867080	-0.065644264
127	0x3da0836e	0.07837568
