saved_models/episode_0/agent_1.pth (torch, 738018 bytes, 44 tensors)

fc1.weight f4 [128, 5]
000000 6f e5 7c 3e 82 77 d7 be 14 a2 3b be 8a be 65 3e
       0.24696897 -0.42083365 -0.18323547 0.22435966
000010 ac bd c5 3e 99 a1 35 3e 0c a9 00 be 94 17 7f 3e
       0.3862127 0.17737426 -0.12564486 0.24911338
000020 0d 9b 59 be 7b 74 93 3e 0c c1 ef bc e7 fa 92 3d
       -0.21250553 0.28799805 -0.029266857 0.07176762
000030 23 e8 dd be 61 ec 36 be 25 ba 3a 3e c6 2f 5f be
       -0.4334117 -0.17863609 0.18235071 -0.21795568
000040 87 30 1f bc 35 b6 90 bd 5a 45 6b 3e 96 47 a2 be
       -0.00971616 -0.07066003 0.22975674 -0.3169524
000050 a2 a8 cf 3e 70 f3 81 3e 90 ba a9 be db 6b 94 3e
       0.40558344 0.2538104 -0.33150148 0.28988537
000060 a4 e4 aa be 84 11 7c 3e 00 13 e5 3e 75 a7 a6 be
       -0.33377564 0.24616057 0.44741058 -0.32549635
000070 75 93 ff 3c 00 3c db be 95 ff 7e bc 40 45 c9 3e
       0.031198243 -0.42819214 -0.015563865 0.39310646
000080 e8 93 6d bd 50 b4 87 3e ca 58 cf bd 33 20 20 be
       -0.058002383 0.26504755 -0.10124357 -0.15637283
000090 a4 ea 85 bd 2a 2f 8f bd 2f bb e4 be 99 29 9c 3d
       -0.06538895 -0.06991418 -0.4467406 0.076251216
0000a0 e4 c0 64 3e 2b d0 08 be 04 29 20 3e 4a cf af be
       0.22339207 -0.1336066 0.15640646 -0.34337837
0000b0 8b a5 97 3e fb 2b b3 3e d5 35 60 be bf f7 02 3e
       0.29618487 0.34994492 -0.21895535 0.1278982
0000c0 ed bd fe 3d 35 2a 5f 3e 88 12 a1 bd 44 56 86 be
       0.12438569 0.21793444 -0.07864863 -0.2623769
0000d0 fc b7 9b 3e 17 f7 b5 be cc fe be be 6e f3 fc 3d
       0.30413806 -0.35540077 -0.3730377 0.12351118
0000e0 44 bd 5f 3e 4c 7b ad 3e 70 3c ba bd 81 d9 23 be
       0.21849543 0.3388313 -0.09093559 -0.1600094
0000f0 25 9e 9a 3e 10 af db bd 62 f3 84 be 3e c8 97 3d
       0.3019878 -0.1072675 -0.25966936 0.0741124
000100 29 3b 04 3c a4 ac c1 bd 9d 8c 5a be 92 1f 4e 3d
       0.0080707455 -0.09456757 -0.21342702 0.050323077
000110 b6 8b cd bd 60 5a 2e 3e 09 eb 02 be 57 dc ed bd
       -0.10036413 0.17026663 -0.12784971 -0.11614292
000120 15 fa 42 3e 16 48 09 3e 8b 73 0f be 44 61 69 3e
       0.19040711 0.13406405 -0.1400892 0.2279101
000130 08 8c db bd 91 90 c1 bc ab 2f 8a 3e e1 b3 7c 3e
       -0.10720068 -0.023628505 0.26989493 0.24677993
000140 a0 6b ad 3e 9d d5 83 3d 24 8a 98 be e8 0b 00 3e
       0.33871174 0.06437228 -0.29792893 0.12504542
000150 61 3d 86 be 75 87 d1 be 11 81 8c be 07 43 3e 3e
       -0.26218703 -0.40923658 -0.2744222 0.18580256
000160 88 75 2b 3e d3 bd fa bd 91 f7 3b bd dc 44 c9 be
       0.16744053 -0.12243237 -0.045890395 -0.39310348
000170 17 65 b2 bd aa 4e 9a be e3 57 43 3e 43 dd 08 3e
       -0.087106876 -0.3013814 0.19076495 0.13365655
000180 ee cc a8 3e 25 a4 3e 3e fc e1 e0 3e a6 71 0a 3e
       0.3296885 0.18617304 0.43922412 0.13519916
000190 22 db b2 3e 7c 3b bc be b5 ee da 3e 98 58 3e be
       0.3493281 -0.36764133 0.42760244 -0.18588483
0001a0 ac 60 d5 be 12 8b a2 be 6c 32 d3 be 34 3d 8f 3e
       -0.41675317 -0.31746727 -0.41249406 0.27976382
0001b0 3f af ae 3d b8 7e 81 be ab ad b4 3e 3c 5e d5 3d
       0.08529519 -0.2529199 0.35288748 0.104183644
0001c0 8f 62 b5 bd 2b e8 bd be 4c de a2 be 57 fa 39 be
       -0.08856689 -0.37091193 -0.31810224 -0.18161903
0001d0 d5 60 dd 3e 36 cf 65 be 66 ab 6b 3d 09 3c c4 3e
       0.4323794 -0.22442326 0.057536505 0.38327053
0001e0 a0 41 53 3c c8 c1 6c be 08 4e 0a be d5 fb a7 3e
       0.012894064 -0.23120797 -0.13506329 0.3280932
0001f0 94 33 95 3e cc 3e a8 be be 4a b8 be 11 8e c3 3e
       0.29140913 -0.3286041 -0.35994524 0.38194326
000200 2b db ba be 43 fb 00 be 6a 4c e6 3d 36 9f 48 3e
       -0.36495337 -0.12595849 0.112450436 0.19591984
000210 50 8f c3 be 53 e8 89 3d bd 60 8a 3e 3c 24 2d 3e
       -0.38195276 0.067337655 0.2702693 0.16908354
000220 b6 15 9c be e8 01 85 be bf 6b c8 be 73 dd a8 be
       -0.30485314 -0.25978017 -0.39144704 -0.32981452
000230 3a e5 a8 3d cb 37 67 be 06 78 84 be 3e cc ab bd
       0.082468465 -0.22579877 -0.2587282 -0.083885655
000240 32 87 d5 3e 33 0a a2 be 03 9e 2a 3e c0 5b c6 bd
       0.41704708 -0.31648406 0.16661839 -0.09685469
000250 c0 be d0 3e 6b d6 b0 3e 07 f5 a1 3e 48 30 ea ba
       0.4077053 0.34538588 0.31632254 -0.0017867172
000260 7a 7c 54 be 42 a6 b1 be 8e eb 9c be 77 50 ba 3e
       -0.20750609 -0.34697157 -0.30648464 0.36389515
000270 ac 3c 0f 3e c3 ef d2 be 98 75 e8 be b4 2f ff 3d
       0.13987988 -0.4119855 -0.45402217 0.124602705
000280 e4 33 d8 3e 25 64 c2 be f2 d2 90 be 16 38 1b 3d
       0.4222709 -0.3796703 -0.28285939 0.037895285
000290 f5 cc e1 3d 53 a0 14 3e 69 68 a1 be a1 7c 25 be
       0.110254206 0.14514284 -0.3152497 -0.16160823
0002a0 1b f0 90 3e c8 f7 b5 bd 8d 03 1b 3e e6 33 39 3d
       0.28308186 -0.08885151 0.15138073 0.04521551
0002b0 3c ee d7 3d a7 33 88 bd a4 31 a9 bc 4e 18 b5 3e
       0.105434865 -0.06650477 -0.020653553 0.35370106
0002c0 8e 8f 93 be 8f a4 9d be 8e 04 e4 bd bf 60 8d bd
       -0.2882046 -0.3078961 -0.11133681 -0.069032185
0002d0 02 08 8f 3e b9 dc fc 3d 13 75 b9 3e b7 9a 5c 3c
       0.27935797 0.12346787 0.36222133 0.013464621
0002e0 fe 39 db be 2b 27 7b 3d dc 92 ae be 28 8c ad bc
       -0.42817682 0.06131665 -0.3409642 -0.021184996
0002f0 b6 c2 a3 3e 4e 60 7d be 43 04 30 3e 35 cc dc be
       0.3198449 -0.24743769 0.17189126 -0.43124548
000300 bb 73 a4 be 66 8e bc be 00 7c bd 3d 44 8d 76 bc
       -0.32119545 -0.3682739 0.09252167 -0.015048329
000310 2f 0d 98 3e 60 32 c6 be de cf be be 9c e3 7f be
       0.29697558 -0.38710308 -0.37267965 -0.2498917
000320 d1 80 9c 3e e7 01 8c 3e 55 6f ef 3d 54 f3 98 be
       0.3056703 0.273452 0.11691157 -0.29873145
000330 97 17 8a be 90 e2 dd 3e 77 96 24 be b5 59 96 bd
       -0.26971123 0.43336916 -0.16073023 -0.07341329
000340 0e 2b d0 be f5 c0 d5 3e 37 92 76 3e 1a 41 cc 3e
       -0.40657848 0.41748777 0.24079214 0.3989342
000350 15 19 c6 be 7a 7f 8d be 46 f4 85 3e e1 b3 20 3e
       -0.3869101 -0.2763632 0.26162928 0.15693618
000360 f9 ef e4 3d 64 ce 91 3e e8 5e 0f 3e 5c e6 88 be
       0.11178584 0.28477776 0.14001048 -0.2673825
000370 16 f7 57 be c0 c1 b4 3d ef 14 ba be 6e 81 4f 3d
       -0.2109035 0.088260174 -0.36344096 0.050660543
000380 1d 64 c2 3e 5f ce b9 be 22 4d de 3d e4 73 0c be
       0.37967005 -0.3629026 0.10854556 -0.13716084
000390 b5 f2 80 be 2d 4a b7 3e f3 dc 93 be 45 74 2c be
       -0.2518517 0.3579878 -0.28879508 -0.16841228
0003a0 60 93 84 3e ec bd 35 be df 8f 8d 3e 86 69 ce 3d
       0.25893688 -0.1774823 0.27648827 0.10078721
0003b0 90 37 ef 3d b2 0a 28 3e eb b3 89 3e 90 31 da 3d
       0.116805196 0.1641033 0.2689508 0.106539845
0003c0 ad 79 44 be c7 c2 ca 3e c7 ed 9c 3e 1a 30 37 bd
       -0.1918704 0.39601728 0.3065016 -0.044723608
0003d0 5e 96 05 be 8c 13 80 3d ce 9c c7 bd 0f 24 d8 be
       -0.13045642 0.06253728 -0.09746705 -0.4221501
0003e0 56 92 98 be ed 80 8b 3e 2a 27 2c 3e b6 19 21 3e
       -0.29799145 0.272468 0.16811815 0.15732464
0003f0 bd 56 e9 3d 0a f8 16 bd d9 b9 b2 3e 34 0f bc 3e
       0.11393497 -0.036857642 0.34907416 0.3673035

fc1.bias f4 [128]
000000 95 66 a3 bd 29 83 a0 be 3b ad 70 3d a1 cd 9e 3e
       -0.0797855 -0.31350067 0.058758955 0.31016257
000010 14 ae 8b be 34 84 11 3e d4 62 92 3e ae bb 88 3e
       -0.2728125 0.14210588 0.28591025 0.26705688
000020 58 d3 00 be 49 7a 5f 3c 76 dd 12 bc 51 5f c4 be
       -0.12580621 0.013639995 -0.008963933 -0.3835397
000030 e7 57 99 be 5c 09 35 3e 4d 86 d6 3e 43 7f df 3e
       -0.29949877 0.17679352 0.41899338 0.4365178
000040 93 97 6b be 35 01 67 be 31 a7 6f 3e cd b7 04 be
       -0.2300704 -0.22559054 0.23403622 -0.1296074
000050 63 9b 1b 3e ce 15 3d 3b 13 fc ae be 6b 3e 7f be
       0.15195994 0.0028852108 -0.34176692 -0.24926154
000060 b7 0d a6 bb 0d 8c 12 3e 86 a3 57 3d fa 12 09 be
       -0.005067553 0.14311238 0.052646182 -0.13386145
000070 e2 f3 2e 3e 63 25 aa 3c d3 10 ba be 05 80 d2 3d
       0.17085221 0.02076978 -0.3634096 0.10278324
000080 fc ca c1 be 44 4c bc be 8a 98 b6 be a4 37 2d bd
       -0.37850177 -0.36776936 -0.35663253 -0.04228939
000090 a8 4f 76 be 3b 25 e4 3e 8f 22 af 3d b6 f0 93 3e
       -0.24053824 0.44559655 0.085515134 0.28894585
0000a0 fe c8 4b 3e f9 28 b4 be 09 b4 59 be 50 f9 ce 3d
       0.19900891 -0.3518751 -0.21260084 0.10106146
0000b0 85 77 76 be 7d 5a 6c be 00 82 29 3e 29 b7 fb bd
       -0.2406903 -0.23081394 0.16553497 -0.122907944
0000c0 ac bd c8 bd c9 a3 94 3d 05 84 10 be e5 96 55 3d
       -0.09801802 0.07257802 -0.14112861 0.052145857
0000d0 2f 9a 92 3e 4e 3b 13 3e b1 37 1c 3e a6 24 79 3e
       0.28633258 0.14378092 0.1525562 0.24330387
0000e0 94 4f 80 be da 74 15 be 0e 85 5a be 6b ca 70 3e
       -0.25060713 -0.14595357 -0.21339819 0.23514716
0000f0 2b b5 c1 be b0 97 c2 bd be 96 9a bd 73 9c c1 bd
       -0.37833533 -0.09501588 -0.07548283 -0.094536684
000100 bd 11 2c bd 7b 46 f4 ba 08 53 68 3e 50 89 e8 3c
       -0.042009104 -0.0018636727 0.22687924 0.028385788
000110 c5 b4 d6 bd e8 b7 14 be b5 18 08 3e ed 2a 1a 3d
       -0.10483698 -0.1452328 0.13290675 0.037638593
000120 60 f4 90 3d cd e5 51 bd 85 19 3f 3e 03 be 39 3d
       0.07077861 -0.051244546 0.18662079 0.045347225
000130 9f 62 a6 3e 8c 90 54 be de 61 9f bd 9b 92 ae 3e
       0.32497117 -0.20758265 -0.077823386 0.34096226
000140 29 40 b7 3e d7 80 b1 3d 93 18 ce 3e ed 52 34 3e
       0.35791138 0.086671524 0.40253124 0.17609759
000150 90 e8 80 bc 7b 2b 5f 3e 31 a8 c1 3d c6 a3 d2 be
       -0.015735894 0.2179393 0.09455908 -0.41140574
000160 66 98 0a 3e 7a 4d 8e be d1 2a 24 be 8c be e6 3d
       0.13534698 -0.27793485 -0.16031958 0.11266813
000170 a7 cf ac be 8b a8 82 3e 2c e7 e2 3e 56 ed 5a be
       -0.33752176 0.25519213 0.44316995 -0.21379599
000180 9a 9f d3 3e 45 4f da 3e b5 bb 4f 3e b3 31 e3 3e
       0.41332704 0.42638603 0.20286448 0.44373855
000190 9d c9 3b be 8f 6f e1 bd 12 e0 82 3e 67 8f d1 be
       -0.18338628 -0.11007606 0.25561577 -0.4092972
0001a0 9a 76 8d 3e 9a 72 bd be 6d 04 88 3e 40 aa cc 3d
       0.27629548 -0.37001497 0.26565877 0.0999341
0001b0 9c 4f b4 3e 73 a4 25 3e 9f be 4d be bb 72 fa 3c
       0.35216987 0.16176014 -0.20092247 0.030572286
0001c0 3d ac e4 bd 2e 26 28 be 8f 7f b0 3e 13 7b b6 3d
       -0.11165664 -0.16420814 0.3447232 0.08910193
0001d0 73 57 31 be e2 b8 92 3e d1 3b b2 be 88 4c 99 bd
       -0.17318515 0.2865668 -0.3481126 -0.074853
0001e0 d4 d1 d6 bd 39 9f 40 bd 7b 31 b0 be 9b e6 54 bd
       -0.1048924 -0.047026847 -0.3441275 -0.051977735
0001f0 f9 99 a2 3e ef dd af 3e d7 eb 61 be d5 61 21 bb
       0.31758097 0.3434901 -0.22062622 -0.0024624963

fc2.weight f4 [128, 128]
000000 47 cf 71 bd cf 9f 3c 3c 37 85 e9 3c a8 3f b9 3d
       -0.059035566 0.011512711 0.028505905 0.090453446
000010 11 73 1e 3d d8 56 97 3d 70 97 04 3d 00 f8 43 bd
       0.038683955 0.07389611 0.032370985 -0.047843933
000020 7f 23 44 3d 9e 46 65 bd 81 a4 93 bd ae 10 f2 3c
       0.047885414 -0.05597555 -0.07209111 0.02954897
000030 2e cb 82 3c d3 d9 3f bd fe ee e7 bb a3 7c 15 3d
       0.015966024 -0.046838593 -0.0070780506 0.036495816
000040 5c 5d d8 3c 0d 61 99 3c bf 4f 93 bd 96 76 3e bc
       0.026411705 0.018723035 -0.07192945 -0.011624953
000050 74 09 c3 3d 8d ce 6f 3d 76 fd f0 bc 25 47 01 3c
       0.095232874 0.05854659 -0.029417735 0.007890497
000060 f1 b6 03 bb e8 fe 49 bd 04 ed 17 bd 43 dd a2 bd
       -0.0020098055 -0.049315363 -0.03709127 -0.079523586
000070 e3 24 80 bd d7 1f 6b bc c9 5a 63 bd 83 a3 43 bd
       -0.062570356 -0.014350853 -0.0555065 -0.04776336
000080 dd 1c 9f bd a8 d1 a5 bd 81 28 9b bd 62 5c e8 3c
       -0.07769177 -0.080966294 -0.07576085 0.028364364
000090 95 8f 15 bd 97 95 96 bd 73 bb b0 bd 0d 54 47 bd
       -0.036513884 -0.07352751 -0.08629503 -0.04866414
0000a0 c2 d8 5d bd 8a 31 09 bd 76 c2 8c 3d 86 a6 d0 bc
       -0.054161794 -0.03349451 0.06873028 -0.02547003
0000b0 b5 8e da 3b 62 fe 63 bd dd bb 4f bc f5 42 2e bd
       0.006669844 -0.05566252 -0.012679067 -0.042544324
0000c0 64 cb 88 bd 83 1e 4b 3b 69 3b 6e 3d 28 cc f8 3c
       -0.06679419 0.0030993528 0.058162127 0.030370787
0000d0 7c 1e 7d 3d 31 3e 70 3d 71 57 91 3b 46 48 13 3d
       0.06179665 0.05865306 0.0044354727 0.035957597
0000e0 26 7d 37 bd 04 69 bf bc 2d 2e d0 bc e0 78 8c 3d
       -0.044797085 -0.023365505 -0.025412643 0.068589926
0000f0 c4 ea a0 bd 6d 9a 1c bd d4 d8 01 3b 12 88 23 bd
       -0.07857278 -0.03823321 0.0019813078 -0.03992469
000100 4f c3 6d 3c 10 b0 13 3d cd 74 8d 3d 7e 91 50 bd
       0.014511897 0.03605658 0.069070436 -0.050920002
000110 28 30 9c 3d 62 f4 95 3c 8f 19 69 3d 97 62 c2 3d
       0.076263726 0.018305007 0.05690914 0.09491461
000120 2d 7d 53 bc 67 09 22 bd 8e 71 a2 bd 34 bb 3d 3d
       -0.012908262 -0.039559748 -0.07931815 0.04632111
000130 b8 19 1c bc fd 33 88 3d 75 43 a3 bd 31 f4 ac 3d
       -0.009527616 0.06650541 -0.07971851 0.08445013
000140 a4 15 80 3d 92 30 95 bd d4 c1 88 bb 03 da b4 3d
       0.062541276 -0.07284655 -0.0041734967 0.08830645
000150 6c f1 13 bd 16 fb a3 3d 50 e0 7f ba f3 16 8b 3d
       -0.03611891 0.08006875 -0.0009760903 0.067914866
000160 40 eb 94 3d 50 58 b7 3c b5 c6 89 3d 82 96 ab bc
       0.07271433 0.022380978 0.067273535 -0.020945791
000170 f4 6a 50 3d 09 a4 8a bd 0a f1 35 3d 4b fd b0 3d
       0.05088325 -0.067695685 0.044419326 0.08642062
000180 a4 5b 6f 3d 81 92 88 3d 10 ff 70 bb 84 4a 3a 3c
       0.058437005 0.066685684 -0.0036773123 0.011370305
000190 f3 4e 3c 3d 94 d1 ba bc 9c 3d 9f 3d 6f 36 1c 3c
       0.04597373 -0.022805013 0.07775423 0.009534462
0001a0 00 7f 07 bc b1 35 3c bd 6c e9 e1 bc 80 73 3b bd
       -0.008270025 -0.04594964 -0.027577125 -0.045764446
0001b0 44 9d 82 3c c8 e9 9d bd 48 74 c0 3b e3 40 9d bc
       0.01594413 -0.07710606 0.005873237 -0.01919598
0001c0 84 4b a1 bd 17 a5 d3 3c 3a 1a d0 3c 32 ec d7 3c
       -0.078757316 0.025835557 0.02540313 0.026357744
0001d0 24 2f 8e 3a 91 bd e4 ba af 8b 81 bd 59 64 b4 3d
       0.0010847789 -0.0017451515 -0.06325471 0.08808202
0001e0 32 d6 e6 bc 1d 4b 9f bb 03 f0 8b bc e3 b0 6e 3d
       -0.028178308 -0.004861249 -0.01708222 0.05827416
0001f0 f0 fc 13 3b 51 1d 11 bd c2 52 af 3d 1b 54 95 bc
       0.0022581182 -0.03542835 0.08560707 -0.018228581
000200 db 16 8d 3b dd c8 ac bd 5c 36 5d bd 25 91 89 bd
       0.004305703 -0.08436749 -0.05400692 -0.06717137
000210 ac d4 04 bd 33 0c ac 3c 07 d3 6b bb e2 19 23 bd
       -0.032429382 0.02100191 -0.0035983936 -0.039819606
000220 2a 09 1b 3d e8 a7 ba 3c a0 00 40 bd b8 c3 92 bd
       0.037850536 0.022785142 -0.046875596 -0.07166237
000230 c7 d8 a3 bd 99 da e9 bc ef 28 bb 3c 11 4a f8 bb
       -0.08000331 -0.028546618 0.022846667 -0.007577189
000240 44 1d 98 3d 70 d5 ee 3c c6 10 02 bd 0f ea 57 3d
       0.07427457 0.02915451 -0.031754278 0.05271345
000250 ea d6 98 bc 63 10 78 bd 3c 5b 03 bd 92 a8 96 3b
       -0.018657167 -0.060562503 -0.03206943 0.004597732
000260 b5 fc df 3a c7 c4 41 bd 28 62 ac bd b3 fb af bd
       0.0017088862 -0.047306802 -0.08417159 -0.0859293
000270 72 06 5c 3d 93 a4 a3 3d 2c e4 c2 3c 11 90 90 bc
       0.053717084 0.079903744 0.023790441 -0.017646821
000280 cf 15 a3 bd c8 74 67 3d 17 1e 19 bd fa fd ab 3d
       -0.07963144 0.056507856 -0.03738221 0.083980516
000290 ae a2 13 3b 55 f8 9b 3d 2e 9f dc bb e6 e7 50 39
       0.0022527385 0.07615725 -0.006732843 0.00019922815
0002a0 51 5d 80 3d 12 ec 96 3d 99 7c 41 bd 2f 61 56 3c
       0.06267799 0.073692456 -0.047237966 0.013084694
0002b0 b8 ab 95 bd 74 7f 84 bd 15 a5 a9 3b 10 6f 55 bc
       -0.073081434 -0.06469622 0.00517715 -0.013026968
0002c0 69 d7 1d bc 08 09 cb 3b 4b 4a a0 bd 0a bb b2 3d
       -0.009633877 0.006196145 -0.0782667 0.08727081
0002d0 f8 e9 83 3d 59 c9 1a bd 9c 4c 60 bd c0 b4 5e bd
       0.064411104 -0.037789676 -0.05476056 -0.054371595
0002e0 51 55 36 bd 20 90 81 3d a4 b2 84 3d 15 48 ad 3d
       -0.044514958 0.06326318 0.064793855 0.08461014
0002f0 9b 20 af bd 5f 93 52 bd 46 d6 8b 3d 89 86 88 3d
       -0.08551141 -0.051410075 0.06827979 0.066662855
000300 54 f5 7d 3d 20 e7 a2 3d 54 aa 87 3c c7 93 98 3d
       0.06200154 0.0795424 0.016560711 0.07450061
000310 af 63 20 bd 79 47 ac bc 7e f5 b0 bd 7e e4 a0 bc
       -0.039157566 -0.021030175 -0.08640574 -0.019640204
000320 44 c8 5b bd 36 da 54 3d df 00 9d 3d 07 02 97 3d
       -0.053657785 0.051965915 0.07666182 0.073734336
000330 f2 55 ca bc c8 2a 80 3d 57 e0 48 3b c1 24 1e 3d
       -0.024699185 0.0625816 0.0030651295 0.03860927
000340 21 e7 61 3d 07 b7 05 bd e6 18 a5 3c fc 0c 50 bd
       0.055152062 -0.03264525 0.020153474 -0.050793633
000350 ed 83 1c bd 7c 81 f2 3c a2 8f 8f 3c 81 07 8a 3d
       -0.03821175 0.029602759 0.017524544 0.067397125
000360 b1 1c 45 bd ba 76 39 3d 22 82 04 bd 16 9e 86 3b
       -0.048123065 0.045279242 -0.032350667 0.004108201
000370 66 6a 20 bd af 3a 94 bd 71 be 51 3d e1 b3 a0 bb
       -0.03916397 -0.072377555 0.05120701 -0.0049042557
000380 2f f6 ce 3b 52 67 e4 bc 49 49 08 3d aa 63 aa bc
       0.0063159685 -0.027881298 0.033273015 -0.020799477
000390 6a c5 57 3c 84 20 8b 3d 78 dd 0b 3d c0 04 a5 bc
       0.013169626 0.06793311 0.034146756 -0.020143867
0003a0 56 17 68 bc 7e e8 ee 39 81 80 57 3d f9 85 29 bd
       -0.01416572 0.00045568118 0.052612785 -0.041387532
0003b0 76 96 f4 bc 82 91 58 3d b0 b8 35 3c d0 09 94 bd
       -0.029856902 0.052873142 0.011091396 -0.07228434
0003c0 f5 fe 88 bd 09 c6 8a 3d 32 9a 29 bd 4e fc 64 bc
       -0.06689254 0.067760535 -0.041406818 -0.01397617
0003d0 c9 53 07 bd d3 52 61 bc b6 58 bc bc 16 6d 8d bd
       -0.033038888 -0.013752657 -0.02299152 -0.06905572
0003e0 f5 88 61 bd 86 04 62 3d 3c fe 01 bd a6 84 cc ba
       -0.055062253 0.055180095 -0.031736597 -0.0015603497
0003f0 c4 ae 25 bd a7 ea 54 3d 0d 1d 19 bd 69 de a4 3d
       -0.040449873 0.051981594 -0.03738122 0.08050234

fc2.bias f4 [128]
000000 1a 49 52 3d 62 48 08 3d b5 41 8d 3d 60 c4 95 3d
       0.051339246 0.033272155 0.06897298 0.07312846
000010 b0 ce aa 3b 4d 43 37 bd 59 53 70 bd 2d f0 92 bd
       0.0052126274 -0.044741917 -0.058673237 -0.07174716
000020 45 d2 a4 3d 79 ce 0a bd 24 7c 8e 3d 6b fe ac 3c
       0.08047918 -0.033888314 0.06957272 0.02111741
000030 22 fc 8e 3c 1d 87 1e bd c7 2e 18 bd 6f ae 48 3d
       0.01745421 -0.038703073 -0.037153985 0.048994478
000040 24 63 46 3d 41 6c a4 bc 04 ce 9f 3d 6a 3f f9 bc
       0.04843439 -0.02007115 0.07802966 -0.030425746
000050 86 29 9f bb 59 eb bb bc 9b 30 87 bd be ac 8e 3d
       -0.004857245 -0.022939371 -0.06601068 0.06966542
000060 eb 9d a9 3d 19 ca ba 3d 97 96 66 3d 1b f5 9d bd
       0.082820736 0.09120578 0.056295957 -0.07712766
000070 0c 77 5d bd c7 c4 9d 3d 55 63 19 bd c4 1f 34 3c
       -0.05406861 0.07703548 -0.037448246 0.010993902
000080 1b ea cc 3b b6 92 4e 3d 48 ae 80 bd a5 da 42 3d
       0.0062534935 0.050432883 -0.062832415 0.047571797
000090 48 76 86 bd 79 fe 86 bd 49 ef 2f bd af a4 c4 3a
       -0.06565529 -0.065915056 -0.04295281 0.0015002693
0000a0 06 8e 86 3d 49 09 ca 3c fc 11 94 3d 9f 3f 1e bd
       0.065700576 0.02466263 0.07229993 -0.038634893
0000b0 76 b6 8e 3c f6 29 ff bc 8e a3 0a 3c c3 c8 6a bd
       0.017420989 -0.031147938 0.008461846 -0.057320368
0000c0 1e aa 2c bd 94 26 53 3c a2 56 20 bd a3 0e 22 bd
       -0.042154424 0.012887616 -0.03914512 -0.03956474
0000d0 f8 43 ae 3d 2a a3 c2 bc 84 09 a2 bd 15 08 a8 3d
       0.08509058 -0.023759443 -0.07911971 0.082046665
0000e0 15 58 b4 bd a9 50 28 3d 88 e6 ae bc 28 1a 89 bd
       -0.08805863 0.04109255 -0.02135016 -0.06694442
0000f0 5d 73 6f bc 8b b9 73 3c 6e eb 32 3d b8 59 a1 bd
       -0.014614907 0.01487578 0.043681554 -0.078784406
000100 2d 9a 8f bd a9 2a 88 3d a8 45 9e bc c9 86 03 ba
       -0.070118286 0.06648762 -0.019320324 -0.0005017338
000110 6e 9b 84 bd 27 d1 af bd 6b 30 96 bd 55 4a 4d bd
       -0.06474958 -0.085848145 -0.07333454 -0.050119717
000120 fa 0b 3a 3c a8 83 28 3c 10 d2 10 bd 23 67 03 3d
       0.0113553945 0.010285296 -0.03535658 0.03208078
000130 bc 9e 6a bc dc 29 a4 3d cb 60 21 3c 01 1e 79 bc
       -0.014320072 0.080157965 0.009849737 -0.015204907
000140 b0 31 83 3d f6 9c b0 bd 96 02 84 3d e2 39 86 3d
       0.064059615 -0.08623688 0.06445806 0.06554009
000150 2a d1 87 3d 92 b0 b9 3d 59 38 b2 3c fa 84 4e 3c
       0.06631692 0.09066881 0.021755384 0.012604946
000160 18 fb da bc a8 69 85 bc 30 28 05 3c 96 f2 9c bd
       -0.026731059 -0.016285732 0.008127257 -0.07663457
000170 5c fc 9c 3d 54 49 5f bd 7f d5 b4 bd 79 94 4e bc
       0.07665321 -0.05451329 -0.08829784 -0.012608641
000180 89 19 5d 3d 4c 26 a8 bd cf db 99 bd 1f fe 1d 3d
       0.05397943 -0.082104295 -0.07512628 0.038572427
000190 6f 98 3c 3d c8 c1 39 bd 0a eb 04 bd 98 31 60 bd
       0.04604381 -0.04535082 -0.032450713 -0.054734796
0001a0 12 2a 05 3d 06 8c ad 3d 2d 7f 47 3d b0 f4 08 3d
       0.032510825 0.08473973 0.04870527 0.033436477
0001b0 6d 02 79 3c ca 26 89 bd a6 7f 5e 3d 8e 0b 30 bd
       0.015198332 -0.066968516 0.054320954 -0.04297977
0001c0 40 0c d9 bc a8 c2 ae bd 0a 0f 92 3d 79 32 1f 3d
       -0.026495099 -0.085332215 0.07131775 0.038866494
0001d0 ac 3b 87 bc 44 82 3c 3d c0 9a 84 bd 36 17 3e bd
       -0.016507946 0.04602267 -0.06474829 -0.046408854
0001e0 d2 71 f4 bc b3 67 20 3d 82 ba 5b 3d 87 69 08 3c
       -0.02983943 0.039161395 0.053644665 0.008325941
0001f0 b6 53 9a 3d 4a 21 5a bd 66 1f 37 bd 6d 37 7f 3c
       0.07535498 -0.053254403 -0.04470768 0.015577179

fc3.weight f4 [2, 128]
000000 95 ba 40 bd f3 31 67 bd 5b 51 88 3c 51 55 65 3d
       -0.04705294 -0.05644412 0.016640356 0.055989567
000010 93 3e a5 bc 8b 65 93 3c b6 1d 74 bd 3a 5d 9a bd
       -0.02017144 0.017992755 -0.059598647 -0.07537313
000020 47 17 22 bd 28 11 31 3d e5 fa 9c 3d c6 22 8c bd
       -0.03957298 0.043229252 0.07665042 -0.0684257
000030 c9 41 61 bd 1e 8d 8b bd b1 f0 af 3d 76 9a 86 3c
       -0.05499438 -0.06814025 0.0859083 0.016431075
000040 78 51 85 3d e8 15 05 3d a8 88 fb 3c cd 71 e4 3c
       0.065096796 0.032491595 0.030704811 0.027886296
000050 2e 8e 96 bc 65 8e df b8 09 92 51 3d 48 67 a0 bd
       -0.018378343 -0.00010659992 0.05116466 -0.07832199
000060 ca 4f 75 3c b4 86 2a bc 8b 76 57 3c d2 d4 86 ba
       0.0149726365 -0.010408092 0.013150821 -0.0010286814
000070 5e 3e 1e 3c d0 50 8f bd 96 19 a0 3d 17 42 22 3d
       0.009658424 -0.06997836 0.0781738 0.03961381
000080 e5 b0 a3 3d 86 90 07 3d 31 d6 1f bc 0b d4 aa 3c
       0.07992724 0.033096813 -0.009755657 0.020853063
000090 ad fe 40 3d 66 81 40 bd 6a e1 21 3c 5f 44 b7 bd
       0.047117878 -0.046998404 0.009880403 -0.089485876
0000a0 34 c1 cd bc 1a a5 8f bd c2 3e a4 bd 61 38 bc bd
       -0.02511654 -0.070139125 -0.080197826 -0.09190441
0000b0 1c d4 8f ba 2c 83 9c 3d 78 05 86 bd 1f dc 99 3d
       -0.0010973248 0.076422065 -0.06544012 0.07512688
0000c0 b9 81 97 3c 57 4c 0f 3d aa 07 51 3d d2 d4 88 bd
       0.018494474 0.034984913 0.0510327 -0.06681217
0000d0 87 c2 49 3d 0c 51 b8 3d 40 66 4e 3c 51 54 d1 bc
       0.04925778 0.089998335 0.0125976205 -0.0255529
0000e0 5c 47 11 3d 5b 1d 7b 3d 37 39 aa 3d 7c cf 7a 3d
       0.035468444 0.061307292 0.08311694 0.06123303
0000f0 a9 c1 a3 3d c8 54 e4 bc dd b8 c3 3c 92 27 7a bc
       0.07995922 -0.027872458 0.02389186 -0.015268223
000100 e3 94 7d bd 8d f6 40 bd d8 ff b0 bc f3 2d ef 3c
       -0.061909568 -0.04711013 -0.02160637 0.029196715
000110 23 d3 98 bc 78 e9 bf bc e2 b1 82 3d 8b 97 a9 bd
       -0.018655365 -0.023426756 0.06381585 -0.08280858
000120 8e 6f 9b bd 7d 1b af bd 14 47 b5 3d 2a 2a 9c bc
       -0.07589637 -0.08550165 0.08851448 -0.019063074
000130 70 2d a9 bc 32 7e 85 3d cb 4f 84 bd e8 fc ef bc
       -0.02065155 0.065182105 -0.06460532 -0.0292954
000140 d7 f8 8a 3b f5 d9 91 bd fa f1 b6 3d a9 39 a6 bd
       0.00424109 -0.0712165 0.08932872 -0.081164666
000150 38 b8 91 bd 75 f9 36 3d fc 71 e0 3c 7e 3b bf bc
       -0.07115215 0.044671495 0.027398102 -0.023343798
000160 62 b4 38 3d 22 a8 ad bd e4 f5 67 bd 72 22 bc bd
       0.0450939 -0.084793344 -0.056630984 -0.091862574
000170 5f b4 19 3b 21 fa 7a bd c0 39 a0 3d 6e a9 46 bd
       0.0023453457 -0.061273698 0.07823515 -0.048501424
000180 7b 73 76 3c 80 13 cb bc 68 09 32 3d 95 9e 98 bd
       0.015042181 -0.024789572 0.043466 -0.07452122
000190 54 65 87 bd fc 65 7b 3d 35 0b 73 3d 0e c2 34 bd
       -0.06611124 0.061376557 0.05933686 -0.044130377
0001a0 4c 0c 61 3c 46 2a 9a 3d e3 31 1e bd 32 e3 aa bd
       0.013735842 0.07527594 -0.038621794 -0.08344115
0001b0 ac 3f 2d bd 4f af fe bb 27 49 b3 3d 63 dc 9c 3d
       -0.04229705 -0.0077723633 0.08754187 0.07659223
0001c0 dd ea 19 bc df bc e3 3c 50 39 80 ba 52 6c 8d bd
       -0.009394375 0.027800022 -0.0009782705 -0.06905426
0001d0 21 4d f0 bc 4e 9c c6 bc f8 03 80 bc ee 09 ae bd
       -0.029333653 -0.024244454 -0.015626892 -0.08497988
0001e0 64 7b 72 bd ec 24 81 bd 94 6a 8b bd be 61 4b bd
       -0.059199706 -0.063058704 -0.068074375 -0.04965376
0001f0 b9 04 4d 3d 85 0d 8e 3d e4 44 87 bd 1e 66 a8 3d
       0.050053332 0.069361724 -0.06604937 0.08222602
000200 f0 83 ba 3d d8 73 4d bd 7b 09 6c 3d d5 db cc bc
       0.09107196 -0.050159305 0.05762623 -0.025007168
000210 6f c6 8e 3d 7e bf a1 bd 1e 0f 93 bc b6 55 98 bd
       0.06971442 -0.07897852 -0.017951544 -0.07438223
000220 71 ef ae 3d 87 a8 63 3d d0 b9 9e 3d 07 a3 5e bd
       0.085417636 0.055580642 0.07750285 -0.054354694
000230 23 7c 08 bc 9f 07 5b bc b8 0b 68 bd 4e 28 a5 3d
       -0.008330378 -0.013368516 -0.0566518 0.08064328
000240 85 87 2c bd 05 bf 65 bc c2 1e 4c bd 3a 76 d1 3c
       -0.04212143 -0.014022593 -0.04983402 0.02556907
000250 5f e7 a2 3d 29 9a a5 3d 31 d6 56 3c 69 36 4b 3d
       0.07954287 0.08086044 0.013112591 0.049612436
000260 54 ae 21 3d f5 0c 58 3d 4e 17 83 bd 5c 11 01 3d
       0.039472893 0.05274673 -0.064009294 0.031510696
000270 dd 39 58 bd f0 0b 9b bd 0b 58 2e bc 67 ca ab bd
       -0.052789558 -0.07570636 -0.010641108 -0.083882146
000280 1e 2b df 3b 82 fb b6 3a 3d 81 85 bd 21 30 8e 3b
       0.00681056 0.0013960453 -0.06518791 0.0043392335
000290 54 21 8b 3d bc a2 65 bb 50 be 4a 3d 34 d0 bd 3d
       0.06793466 -0.0035039624 0.049497902 0.09268227
0002a0 ce 54 a2 bd 72 dc 3f bd 3e 97 97 3d 09 f0 9a 3d
       -0.079263315 -0.046841092 0.07401894 0.07565314
0002b0 4e 09 ac bc 4e d7 27 bd 00 5b c6 bc 71 a8 77 bc
       -0.02100053 -0.040976815 -0.024213314 -0.015115843
0002c0 15 ea be 3d cf 9f 24 3d f9 58 b3 3b 0a 62 97 3d
       0.09321991 0.040191468 0.005473253 0.07391746
0002d0 c0 c1 79 3d cd cd bd 3d fa 72 a4 bd 7e 19 54 3c
       0.06097579 0.09267769 -0.080297425 0.012945531
0002e0 af 56 60 bd 37 9c a2 3d 54 db a4 3d 5c 15 41 3c
       -0.054770168 0.07939952 0.08049646 0.011784878
0002f0 61 17 9d 3c a3 f3 e0 3c d1 6d ae 3d ca 05 e8 3a
       0.019176187 0.027459925 0.085170396 0.0017701921
000300 36 f1 42 bd fe 3b c7 3c e0 fb 70 3d 96 31 4d bd
       -0.047593318 0.024320599 0.058833957 -0.050096117
000310 71 13 3a bd 3e 15 86 3d af 1c ab 3d 60 7b 8e 3d
       -0.045428697 0.065470204 0.0835508 0.06957126
000320 ad f0 34 bd 6d 28 b7 3c d9 c2 9d 3d ec 89 fd bc
       -0.04417484 0.022358144 0.0770318 -0.030949555
000330 0c bf 36 bd 09 94 99 3d cd 48 37 bd 87 1f a4 3d
       -0.04461579 0.074989386 -0.044747163 0.08013826
000340 e2 5a 52 3d b4 dd 45 3d 4e 2e 4c bc 8b 9c a0 3d
       0.051356204 0.048307136 -0.012462212 0.07842358
000350 9f 83 39 3d 67 d8 62 bb 6f 77 a5 3d d6 64 8a 3d
       0.04529154 -0.003461385 0.08079421 0.06757514
000360 03 e7 ea bb 8d 34 b4 bc bb 54 ff bc 1d 34 80 bd
       -0.007168652 -0.021997714 -0.031168332 -0.0625994
000370 eb d5 7d bc 01 3a 87 bd b8 e1 83 bd b6 65 1c 3d
       -0.015492897 -0.0660286 -0.06439537 0.038182937
000380 db e9 c4 3d df 2a da 3c 68 7f 93 3d cf 49 60 bd
       0.09614917 0.02663177 0.07202035 -0.05475789
000390 9f 6b a2 bd d6 09 ef bc bd b1 cc 3b 25 7a af bd
       -0.07930683 -0.029179495 0.006246774 -0.08568219
0003a0 d2 7e e5 3c 9e 93 3b 3d 22 a3 7f 3c 0d 38 aa 3d
       0.028014574 0.045795076 0.015602859 0.08311472
0003b0 a7 5a ea bc 04 d2 a5 bd 42 80 95 bd 67 56 6c 3d
       -0.02860768 -0.08096698 -0.07299854 0.057699587
0003c0 9d 4e 99 3d 61 0e 04 bd 76 5b 8f 3d 23 ae a8 bd
       0.074856974 -0.032240275 0.06999867 -0.08236339
0003d0 2d f1 42 bd 95 b8 e9 3c c4 c6 15 3d 44 64 cc bc
       -0.047593284 0.028530398 0.03656651 -0.024950154
0003e0 67 d0 1f 3c df fd 29 3d b2 cc e1 3c 08 84 00 3d
       0.009754277 0.041501876 0.027563427 0.031375915
0003f0 cc e5 1e bd ad f3 40 bd 8f e1 96 bd ca de bd b8
       -0.03879337 -0.047107387 -0.07367241 -9.05372e-05

fc3.bias f4 [2]
000000 a8 59 a0 bd 0c 15 de ba
       -0.078296006 -0.0016943528

fc1.weight f4 [128, 84]
000000 82 85 9e bd 8f 9e 7e bd a0 f2 7a 3d e7 54 91 bd
       -0.07740308 -0.062162932 0.06126654 -0.07096272
000010 66 5f 11 3d dc ef 50 3c 8b 6c 52 3c f2 cc d0 3d
       0.03549137 0.012752499 0.0128432615 0.1019534
000020 b9 1d 2b 3d 5a 81 b0 3d 12 ff cd 3c b0 d5 9c bd
       0.041776393 0.08618422 0.025146041 -0.07657945
000030 d5 31 6c 3d c3 f0 5b bc 3e 48 d5 3d b2 37 89 3d
       0.05766471 -0.013424101 0.1041417 0.06700076
000040 c4 85 ce 3c 37 f7 b3 3c 85 27 9a 3d f9 9e aa bd
       0.025210269 0.021968467 0.07527069 -0.08331103
000050 c8 df 4d bd ef 2e 8f bd c3 9b 53 bd 5d 3b 90 38
       -0.050262243 -0.06991374 -0.051662218 6.877512e-05
000060 79 a7 b6 bd e5 e1 9b 3c 8a 3c 9f 3d e4 11 bb 3c
       -0.089186616 0.019028613 0.07775219 0.02283568
000070 b1 90 73 3d 10 45 c2 bd c6 b4 b1 bc 10 8e bd bd
       0.05946416 -0.09485829 -0.021692645 -0.09255612
000080 90 68 b1 bd 4f 92 6b 3d a1 a2 91 3d dd ba 78 bc
       -0.08662522 0.057512578 0.07111097 -0.01518127
000090 86 1a 4c 3d 3d 16 89 bd d5 07 48 bb 54 19 de bc
       0.049829982 -0.06693695 -0.0030522246 -0.027111687
0000a0 a3 b2 dc 3d 86 50 c6 bc ec 9d c8 bd 4a 44 d2 3d
       0.1077626 -0.024208318 -0.09795746 0.10266931
0000b0 c2 9c 38 3c 8b 59 b9 3d 61 52 8a 3d 60 31 60 3d
       0.011267843 0.09050282 0.06753994 0.054734588
0000c0 c1 14 b7 3d ec 54 b7 bd 0a 66 3e 3d ad 61 8a bd
       0.08939505 -0.089517444 0.04648403 -0.067569114
0000d0 ca 16 86 bd cc ac de bd a2 40 bb 3c 0e 35 d1 bd
       -0.065473154 -0.10872802 0.022857968 -0.102151975
0000e0 b0 a2 ad bd a1 80 8a 3c 7e 1e b2 3d 99 a8 95 bc
       -0.08478296 0.016907038 0.08697222 -0.01826887
0000f0 f3 ce 83 3c 2e 4c bc bd 92 d4 93 3d 4f 60 c8 bc
       0.016089892 -0.091942176 0.07218279 -0.024459986
000100 6a d4 bb bd 69 ca ce bd 58 db 9c bd 58 90 61 bd
       -0.09171374 -0.100972004 -0.07659024 -0.055069298
000110 ad 30 b3 3d ea 60 7c 3d e1 d8 95 bd f4 5e d3 3d
       0.087495185 0.061615862 -0.07316757 0.10320845
000120 72 62 be 3d e2 7b 02 bd 74 fe 7f bd 66 c8 b1 bd
       0.09296121 -0.031856425 -0.062498525 -0.08680801
000130 4c 29 b7 bd a4 63 c7 3d bd d9 ab 3b 6c 0c 44 3b
       -0.08943424 0.09735802 0.0052444623 0.002991463
000140 73 d4 b5 bd bf 96 cf 3d ad 76 b4 bc 78 c3 87 3b
       -0.08878412 0.101361744 -0.022029245 0.0041431747
000150 84 df 60 bc 73 0f ce 3d ac e5 7e 3d a1 a0 3e 3d
       -0.013725165 0.100615405 0.06223075 0.046539906
000160 9b 69 ef bc 78 c2 c4 bc 66 a3 bf bd 81 5b 41 bd
       -0.029225161 -0.024018511 -0.09357338 -0.047206406
000170 e1 6b b7 3d c1 92 d5 bd 62 39 d2 bc b5 33 bf 3c
       0.08956123 -0.10428382 -0.025662128 0.023340086
000180 fa 53 49 bc f2 3c 3c 3d 1a b0 ef 3c 43 7d a0 bd
       -0.012288088 0.04595656 0.029258776 -0.07836392
000190 b0 5b a6 bd 25 cb 16 3d b6 3c 82 bd 3d d5 8e 3d
       -0.08122957 0.036814827 -0.06359236 0.06974266
0001a0 d9 e3 95 bc 4d fd a7 3c bc 40 cc bd 64 2c da bd
       -0.018297123 0.020506525 -0.099732846 -0.10652998
0001b0 ad ba a9 3d 15 05 a7 bd eb 43 a5 bd 52 d0 ca 3d
       0.08287559 -0.08155266 -0.08069595 0.09903015
0001c0 11 16 8c 3d 72 2d ca 3d 88 88 2a 3d 66 6f 89 bd
       0.06840146 0.09871949 0.041634113 -0.06710701
0001d0 a1 d9 94 3d f0 99 20 3c f5 71 e2 bd 6b 87 13 bd
       0.07268072 0.009802327 -0.11056892 -0.036017817
0001e0 0c ba 81 3d e5 64 94 3d 52 3b 78 3d 26 94 c6 3d
       0.06334314 0.072458066 0.060603447 0.09696226
0001f0 b1 b8 11 3d e0 9d 34 3c b8 48 87 bb 08 88 d6 bd
       0.035576526 0.011023968 -0.004128542 -0.10475165
000200 96 be eb bc 08 94 35 3d e9 13 c2 bd ab 91 fe 3c
       -0.028777402 0.044330627 -0.09476454 0.03107532
000210 02 a8 49 3d 5b f2 34 bd 56 11 8a bd 62 56 34 bd
       0.04923249 -0.04417644 -0.06741588 -0.044027694
000220 35 b3 cc ba 1e c0 a4 bb 9c b5 68 bd 8a 9e 3d 3d
       -0.0015617373 -0.005027785 -0.05681382 0.046293773
000230 e0 40 33 bd 6c 5d 73 3a 76 29 4b 3d 96 d5 2c bd
       -0.04376304 0.00092836353 0.049600087 -0.04219588
000240 43 ae 41 3d 9a fd fc 3c 92 d2 b9 bd c5 12 57 bd
       0.04728533 0.030882645 -0.09073366 -0.052508134
000250 a0 d6 ae 3d b8 47 49 3c 1d 43 bb bd e0 d5 1f 3d
       0.0853703 0.0122851655 -0.0914366 0.039022326
000260 77 e7 97 3b 42 78 81 3d 79 78 16 bd b0 76 50 3d
       0.004635747 0.063217655 -0.036735985 0.05089444
000270 6a bf 7e 3d ff 9e 44 bd a6 a4 83 3c 21 63 32 bd
       0.062194265 -0.048003193 0.016069721 -0.043551568
000280 93 db c6 bd 28 73 8d bd f4 89 c6 3d 3a 31 67 3c
       -0.09709849 -0.0690673 0.09694281 0.014110858
000290 c0 9d 98 3d 28 a4 a8 bd 91 19 99 bd d9 83 a7 3d
       0.074519634 -0.08234435 -0.074755795 0.08179445
0002a0 d5 95 7b 3d 96 71 81 3d d1 ba 9c bd 2f 0b b4 bc
       0.061422188 0.06320493 -0.0765282 -0.021977989
0002b0 0f d4 72 bd 10 7a dd bd 71 cb 98 3d eb 50 59 3d
       -0.059284266 -0.10814297 0.07460678 0.053055685
0002c0 eb 96 3b 3c 76 0b 92 bd 4e 39 8f bd c9 a6 98 bd
       0.011449556 -0.07131092 -0.06993352 -0.07453687
0002d0 49 e9 8d bc 08 cb de bd 85 af 5f 3d 48 f6 81 3d
       -0.017323153 -0.10878569 0.054610748 0.063458025
0002e0 37 01 7b 3d f3 e3 ac 3d f9 74 36 bd a9 99 43 bc
       0.061280455 0.08441915 -0.044545148 -0.011938491
0002f0 6b 4b 61 bd 00 2b 4f 3d ac a6 77 bd fd bd 83 3d
       -0.055003565 0.050578117 -0.060461685 0.06432722
000300 4b 86 a4 bb 17 11 3a 3d 66 da 03 bd 1f 65 87 3d
       -0.005020892 0.045426454 -0.032190703 0.06611084
000310 ca 3d ae 3c 39 36 09 bd f2 6a 46 3d 3b 43 65 bd
       0.021269698 -0.033498976 0.048441835 -0.05597232
000320 ec a4 3e 3d 77 d4 bf 3d 8c 5f 91 3c 51 c2 6f bd
       0.046544 0.09366696 0.017745756 -0.058534924
000330 a2 5e 5b bd 5c 6c 5b 3c 9b b2 c1 bd 46 5e 7b 3d
       -0.053557046 0.013392534 -0.094578944 0.061369203
000340 0a 25 d4 bd 87 f0 17 3d 95 83 84 3c ac 3a 36 3c
       -0.10358627 0.03709462 0.016176024 0.011122387
000350 52 15 b8 3d ee 34 d5 bc c2 7d 3c 3d 71 59 8b 3d
       0.089884415 -0.026026215 0.04601837 0.06804169
000360 5a eb f1 3c 55 dc 5e 3d 2b 57 ab 3d a2 49 4c 3d
       0.02953117 0.054409344 0.08366235 0.04987491
000370 ac bd 4b bd 7c 9b 2b bd 10 d5 55 bd da 0f 78 3d
       -0.049741432 -0.04189633 -0.052205145 0.060561992
000380 03 f4 b6 bd 42 64 01 3d ff 6b dc bd b6 3b 78 bd
       -0.0893326 0.031589754 -0.10762786 -0.06060382
000390 6f c9 d1 bd 6a da ce 3c dd c4 a4 bc 2b 93 9e 3c
       -0.102434985 0.025250632 -0.020113403 0.019357285
0003a0 76 31 3a bd d1 c3 bd bd 3b 94 b0 bd 99 9a 41 bd
       -0.045457326 -0.09265865 -0.08622023 -0.047266576
0003b0 2f ea b2 bd c0 d0 e9 bc d9 cb d3 bc b5 a2 a8 bd
       -0.08736073 -0.028541923 -0.025854038 -0.08234159
0003c0 cf ac 14 bc 8b 1f 80 3d 51 35 94 3d e0 a2 d3 3c
       -0.009074404 0.06256016 0.07236732 0.0258345
0003d0 f7 1a 95 3d d0 d6 a4 bd aa d2 b6 bd 6f a1 6b bc
       0.07280534 -0.08048785 -0.089269 -0.0143817505
0003e0 5a 65 c5 bc 0f d8 81 bd c4 49 88 bc c3 dc 81 3c
       -0.02409618 -0.06340038 -0.016636737 0.015852338
0003f0 14 f7 2c 3d ba ab 27 3d b0 ba 0b bc 96 a5 8c 3b
       0.04222782 0.040935256 -0.0085283965 0.0042922003

fc1.bias f4 [128]
000000 d5 a3 1d bd 19 44 d4 bd 5e 26 aa 3c b1 8a 5c 3c
       -0.03848632 -0.10364551 0.020770248 0.013460801
000010 fc 92 4b bc ae 4d b9 bd a8 36 ff bb 4b 3b c9 bd
       -0.0124251805 -0.09048019 -0.007788498 -0.09825762
000020 95 87 b2 3d ca 4f a4 3d 68 a1 8b 3d 1c 14 a3 bd
       0.087172665 0.08023031 0.06817895 -0.0796282
000030 12 3e e7 bc b9 b4 c4 3d e3 9b 19 bd 81 84 63 3d
       -0.02822784 0.096047826 -0.03750218 0.055546287
000040 a2 0c 7c 3d 96 2b 70 bd f6 39 94 3d 38 18 cf 3c
       0.061535485 -0.058635317 0.07237618 0.025280103
000050 3a 9f b9 bd 3e 3e a3 bd d6 ce 93 3d 67 0f d5 bd
       -0.09063573 -0.07970856 0.07217185 -0.104033284
000060 56 86 af bb 4b d2 63 3c 93 22 26 3d 69 03 5a b9
       -0.0053565903 0.013905118 0.040560316 -0.0002079137
000070 84 c4 30 3c 4c 3e c4 bd 36 c2 9f bd c1 e3 8b 3c
       0.0107890405 -0.09582195 -0.07800715 0.017076375
000080 a1 92 39 bc 52 05 c6 3d d1 89 c4 3c eb e2 21 3d
       -0.011326463 0.096689835 0.023991497 0.039523046
000090 8f 7c 7d bd 7d 6e b9 3d af 8f 45 3d ce e6 d2 3d
       -0.061886366 0.09054277 0.04823273 0.10297929
0000a0 e6 29 25 bc 7b a1 bc 3d 8c bb 88 bd c0 e1 88 bd
       -0.01008079 0.092104875 -0.06676397 -0.066836834
0000b0 9e da 78 bd e7 13 a0 3d cc 3c 58 bd 97 94 b7 3c
       -0.060755365 0.07816296 -0.052792355 0.02240972
0000c0 35 fd 9f 3d 27 10 20 bd 7e bf b2 3d 37 de 97 3d
       0.07811967 -0.039077904 0.087279305 0.07415431
0000d0 64 a0 41 3d 93 85 86 3d 8c f7 ca 3c 3a bc 4d bd
       0.0472721 0.06568446 0.024776243 -0.050228335
0000e0 7b af be 3d 96 e8 94 bd 3e 57 26 bd b0 0e 33 bd
       0.09310814 -0.07270925 -0.040610544 -0.04371518
0000f0 c0 ec 4f bd cf 94 cf 3d 92 8b 7a 3d 87 4e 9e bd
       -0.05076289 0.10135805 0.06116826 -0.07729822
000100 cb 24 41 3d a4 ea cd bd 0b 10 8e bd bb 78 be 3d
       0.04715423 -0.1005452 -0.06936654 0.09300371
000110 e2 d0 a5 bd 9c b2 60 bd 36 3a d6 bd c9 7b 8e 3d
       -0.08096482 -0.054857835 -0.104603216 0.06957204
000120 16 41 7a bd 42 83 a1 3b 8d 5d cc 3d 97 a2 85 3b
       -0.061097227 0.004928977 0.09978781 0.00407822
000130 ed 37 b6 bd c7 29 a2 bd 27 d7 93 bd 35 66 38 bd
       -0.08897386 -0.07918125 -0.072187714 -0.045019347
000140 4a 94 95 3d 0a d0 90 3d 7b f4 88 3d b1 4c ed bd
       0.073036745 0.0707093 0.06687256 -0.11586893
000150 e9 c9 9c bb 35 d5 71 3d 50 a5 52 bd 46 c9 79 bc
       -0.0047848118 0.05904122 -0.051427186 -0.015245741
000160 d2 a0 cc 3d d5 37 97 3c 85 1d 9a 3d 19 4e 52 bd
       0.099916115 0.01845924 0.07525162 -0.05134401
000170 5c 15 d0 3d ad 1e 61 bd 77 02 87 bd 11 62 9b 3d
       0.10160324 -0.054960895 -0.06592267 0.07587064
000180 5e a2 b9 bd 66 75 70 3c 11 d9 60 bd cd d2 43 bd
       -0.09064172 0.0146764275 -0.05489451 -0.047808457
000190 c6 5d 73 bd d8 46 af 3d aa 1f 84 3c 10 b6 9d 3d
       -0.0594156 0.08558434 0.01612838 0.07700741
0001a0 59 15 ca 3d f7 a8 25 3d 86 70 ea 3c fe f4 37 bc
       0.09867353 0.04044434 0.028618108 -0.011227844
0001b0 97 76 37 bd b2 fd e5 3c e2 2b a1 3d 7b 8e 86 3d
       -0.04479083 0.028075073 0.07869698 0.06570145
0001c0 a8 b5 84 bd d0 79 aa bd 77 f8 a7 3d e7 fd a3 bd
       -0.06479961 -0.08324015 0.08201688 -0.080074124
0001d0 ec 29 9e 3c 44 cb c8 bd bc 8f a2 3c 73 b6 2a 3d
       0.0193071 -0.09804395 0.019843929 0.041677903
0001e0 99 e7 55 3a 2a 87 b3 3d 95 f7 52 bd 8c fd cc bd
       0.0008159816 0.08766015 -0.051505644 -0.10009298
0001f0 1e 55 5e bc e8 ea b4 ba b2 64 87 3c 91 c3 59 bd
       -0.013570098 -0.0013802918 0.016527507 -0.053165022

fc2.weight f4 [128, 128]
000000 a1 f1 2d bd 52 b1 d1 3c 54 bf b3 bd 57 b1 24 bd
       -0.042466763 0.025597248 -0.08776727 -0.040208187
000010 ed a0 41 bd 15 45 84 3d 96 b1 50 3c 5e c6 a6 bd
       -0.04727261 0.06458489 0.012737652 -0.08143304
000020 3e 7a 5f bc 72 bd 9c bc c7 30 a2 3b 73 f0 37 bd
       -0.013639985 -0.019133303 0.0049496624 -0.044907045
000030 50 08 eb 3c cf e1 89 3d 3f 3b 83 3d 1b 70 42 bd
       0.028690487 0.06732523 0.06407785 -0.047470193
000040 7e 80 70 3d 4d de 5c 3d 87 dd b0 bd da 5f 38 3a
       0.05871629 0.05392294 -0.08636003 0.0007033326
000050 81 c6 a0 bc a1 a9 2a 3d 77 80 84 3b 16 56 78 3d
       -0.019625904 0.041665677 0.0040436345 0.060628973
000060 b9 6b b3 bd 0c 35 98 bd f4 8e 9c bc b6 c3 a5 bc
       -0.08760781 -0.07431993 -0.019111134 -0.020234924
000070 cf af ed bc db 68 a2 3d b0 22 a5 3d 04 6a 08 bc
       -0.029014496 0.07930156 0.08063257 -0.008326057
000080 5d 96 36 bd fc de 4e bc d7 8f b1 3d 04 81 a2 3d
       -0.04457699 -0.012626406 0.086700134 0.07934764
000090 ed d3 a7 bd 37 45 8d 3d 58 9a 85 bd 2a e7 16 3d
       -0.081947185 0.06897967 -0.06523579 0.03684155
0000a0 6f 51 73 bc 94 86 8f 3d 16 7e b5 bc 12 88 22 bd
       -0.014850958 0.070080906 -0.022154849 -0.039680548
0000b0 e0 24 5e bd 7c 11 3c 3a fc 04 2d 3d 2c 9b ef 3c
       -0.054234385 0.0007174236 0.04224108 0.029248796
0000c0 6d 94 a4 3d 0e 49 95 bd 7f 07 3b 3d 04 86 ee bc
       0.080361225 -0.07289325 0.045661446 -0.029116638
0000d0 91 b1 4e 3d 32 73 8d 3d 00 de 69 3d b0 cd 05 bd
       0.05046231 0.069067374 0.05709648 -0.032666862
0000e0 f9 c1 a3 3c c0 e6 7b bd 33 dc fb bc 21 76 8b bc
       0.019989954 -0.061499357 -0.030744648 -0.017024102
0000f0 54 49 b4 bd 03 6b a7 bd 4f cb 86 bd c0 9d ec bc
       -0.08803049 -0.08174708 -0.06581747 -0.028883815
000100 f9 c7 ba ba ef 9b 54 bd 43 d0 16 3d c4 2d 53 bd
       -0.001425027 -0.051906522 0.036819708 -0.051557317
000110 21 36 0f 3d 27 63 32 3d 8c 79 7b 3c 3d e5 12 3d
       0.03496373 0.04355159 0.015348803 0.03586315
000120 35 ed 16 3b a9 96 a5 3d ac 0b 3d 39 37 5c 60 3d
       0.002302957 0.08085377 0.00018028793 0.054775443
000130 ee f6 85 bd 3a 62 8a 3d fc 24 a0 3d a3 81 96 3d
       -0.06541239 0.067570165 0.07819554 0.07348945
000140 0b 0c 8a 3d 64 92 0f bd 7d b5 38 bc fc f4 e0 3c
       0.06740578 -0.03505172 -0.011273739 0.027460568
000150 89 b7 6e bd ce fa 97 3c 50 c1 75 bd db 54 9b 3d
       -0.0582805 0.01855221 -0.05999881 0.07584544
000160 7e 6f 8c bd d4 c9 bf bc 15 3c 05 3d 85 ae 59 bc
       -0.06857203 -0.023411669 0.032528 -0.013286238
000170 cc 4b a1 3d 53 c5 68 bd 0e bd 6b 3c 10 dd 77 bd
       0.07875785 -0.056828808 0.014388336 -0.060513556
000180 05 b3 90 bd 20 21 39 39 f3 21 a7 bd 8f 50 9a 3d
       -0.07065395 0.00017655315 -0.08160772 0.075348966
000190 25 07 95 3d 6c 39 7e bd 49 1b a9 bb bd a9 5b 3d
       0.07276753 -0.06206648 -0.0051607233 0.053628672
0001a0 c7 a7 c7 3c 12 0d a7 bd 79 92 2c 3d 31 06 03 bb
       0.024371995 -0.0815679 0.042131875 -0.0019992704
0001b0 30 83 0f bc 19 60 18 bd 4c 90 71 bd 5c aa a9 3d
       -0.008759305 -0.03720102 -0.058975503 0.082844466
0001c0 5f f3 9a bd 64 df ae bd 79 b7 65 3d 5f 1a ae bd
       -0.075659506 -0.08538702 0.056083176 -0.08501124
0001d0 8c 76 cf bc 72 2c 89 ba 1b b1 12 bd 86 30 4d b8
       -0.025325082 -0.0010465516 -0.035813432 -4.8921e-05
0001e0 fd 6b 9e 3d dd 8e b4 3d 44 7b 46 3d f4 c8 6d 3d
       0.07735441 0.088163115 0.0484574 0.058052972
0001f0 1e 71 ab bd 8f 63 5f 3d c7 b0 a7 bc 52 60 a1 bd
       -0.08371185 0.054538306 -0.020470036 -0.078797
000200 ba 4e a2 bd 74 14 ef bc 0d b6 5b 3d 94 24 23 3d
       -0.07925172 -0.029184557 0.053640414 0.039829805
000210 b5 c7 b3 bd e9 06 b9 bc 5b d7 14 3d 1b 47 5a 3a
       -0.087783255 -0.022586303 0.03633819 0.00083266356
000220 77 b8 ec 3b 77 eb 37 3d eb 99 0d bd 47 3c af 3d
       0.0072241384 0.04490229 -0.034570616 0.08556419
000230 b9 b8 63 bd 2d f4 8e 3d d4 0f 81 bc 8c d5 3b 3d
       -0.055596087 0.069801666 -0.015754618 0.04585795
000240 9d 9b 9f 3c af a9 1c 3a 19 3e 6f 3d d5 48 81 3a
       0.019483382 0.00059762126 0.05840883 0.0009863625
000250 5b 8b a1 bd 6c 2e 3e 3c 57 c7 80 3d 1a e0 50 bd
       -0.07887908 0.0116077475 0.06288021 -0.05099497
000260 bb 5a 89 bd e5 f1 2d 3d b9 2f 94 3d 55 95 a0 3c
       -0.067067586 0.042467017 0.07235665 0.019602457
000270 b7 0a e5 3c 30 78 5d 3d 39 63 b2 39 76 5d 95 3d
       0.02795921 0.054069698 0.00034024732 0.07293217
000280 33 ff 46 bd 5d 3a 5c 3d 12 2a 6c bd fb 7e ba bd
       -0.04858322 0.053766597 -0.05765731 -0.09106251
000290 c7 0d 29 bb b5 23 ae 3d e0 2f 79 3d ce 48 0c bd
       -0.0025795565 0.08502904 0.060836673 -0.03424912
0002a0 51 b0 41 bd d4 c3 94 3d b7 c1 c7 3c 32 62 9c bd
       -0.04728729 0.07263914 0.024384363 -0.07635917
0002b0 68 17 e1 3c 73 37 aa bd 98 90 5a 3d 28 00 52 bd
       0.027476981 -0.08311357 0.05336055 -0.05126968
0002c0 3f d6 4b bd d6 58 4b bd 23 fa dd 3c 71 6b b9 bd
       -0.049764868 -0.049645267 0.027096814 -0.09053696
0002d0 04 cc b2 bd 39 d4 a1 3c 5c af 20 3b 3a db ca bc
       -0.08730319 0.019754516 0.0024518585 -0.024762738
0002e0 0d 38 58 bc d4 93 2d 3c 0f b6 83 bc 3a 53 b2 3d
       -0.013196957 0.010594327 -0.016078023 0.087072805
0002f0 39 a2 35 3b b2 1c 91 bc 52 4e 6a 3d 56 91 b3 3d
       0.00277151 -0.017713878 0.0572036 0.08767955
000300 34 9c 07 3d c5 8d bb bd e4 76 ac 3d 2f 04 62 3b
       0.03310795 -0.091579 0.08421114 0.0034487357
000310 4e 3e 9c 3d 7e 7f 47 3c 72 7b 1d 3d dd fc 00 3d
       0.07629071 0.012176393 0.038447805 0.03149115
000320 01 31 18 3d 1a 35 59 3d 63 f4 ed bc de 17 9a 3d
       0.03715611 0.053029157 -0.029047197 0.075240836
000330 18 b8 8b bd e4 2f 32 bd 5b d7 84 bd ed 40 8d bd
       -0.068222225 -0.043502703 -0.06486388 -0.06897149
000340 17 c4 f0 bc 8e e1 26 bd 6d 1f 98 3d dd 7e 66 bd
       -0.029390378 -0.04074245 0.07427869 -0.05627333
000350 86 d2 eb bc 1e f7 b8 bc 7e 81 7d 3c ce 3e 1b bd
       -0.028786909 -0.022578772 0.015472768 -0.037901692
000360 ad 21 77 bd 75 89 d8 bb 4c 13 3b bd 6f cb 91 3c
       -0.06033485 -0.006608183 -0.0456727 0.0177972
000370 4d 7c 2e 3d 21 4a 0c 3d b5 bb 0c 3d b6 a7 72 3d
       0.04259901 0.034250382 0.0343587 0.059241973
000380 a0 9a 67 3d 8f 60 56 3b 49 b0 a5 3d 23 f7 ef bc
       0.056543946 0.0032711362 0.08090264 -0.029292649
000390 42 29 09 3d d8 45 46 bc 1a dc b2 3d e9 4c 83 bd
       0.033486612 -0.012101613 0.08733387 -0.06411154
0003a0 89 1a 87 bd 0f 4e b4 bc de a1 d1 3b f5 eb 53 3d
       -0.06596858 -0.022009877 0.00639747 0.051738698
0003b0 53 1e ac bd e2 6a 86 3c 73 3b b2 bd d7 9e 4d 3d
       -0.084042214 0.016408388 -0.08702745 0.05020031
0003c0 da 0f 41 3c 79 a2 8a bd 6a 16 24 bc 3f 3e 4e bd
       0.011783564 -0.067692704 -0.01001511 -0.05035233
0003d0 73 c6 3e 3d 10 d8 b3 3b a9 c5 65 bd a1 f7 02 3c
       0.046575975 0.005488403 -0.056096707 0.00799361
0003e0 40 a9 ab bd 2d eb 80 3d 48 4c e7 bc 3b 82 6d bc
       -0.08381891 0.06294856 -0.028234616 -0.014496381
0003f0 1b 94 50 bc a5 49 04 bd 38 6b 70 3d d9 f6 a4 bb
       -0.012730624 -0.032296795 0.058696 -0.0050343093

fc2.bias f4 [128]
000000 61 82 98 bc 58 91 76 bb 06 0d c3 bc aa 5d 22 bd
       -0.018616857 -0.0037623253 -0.023809921 -0.039640106
000010 c2 c2 88 bd c6 b6 e1 3a ad 6b 45 3d 62 23 4d bc
       -0.06677772 0.0017220608 0.04819839 -0.012520643
000020 e0 d8 d5 3c 57 34 c8 3c 3d 54 94 bd 64 e7 e5 bc
       0.02610439 0.02443902 -0.0724263 -0.028064437
000030 6b 4c 4d 3d 6b ad 88 bd 47 5f 02 bd 93 56 05 3c
       0.050121706 -0.06673702 -0.031829145 0.008138317
000040 60 af 9d bd d5 84 29 bd fb 04 bd bc 53 0e ac 3d
       -0.07699466 -0.041386444 -0.023073664 0.0840117
000050 11 0c 4a bc 0b 0e 8e 3c 26 87 85 3d 4a 82 90 bd
       -0.012331978 0.01734068 0.06519918 -0.07056101
000060 b8 27 a3 bd 14 7a 98 bd 97 3d 2d bd 77 d0 b3 3d
       -0.0796656 -0.074451596 -0.042295065 0.08779996
000070 ee 05 f8 3c 12 77 5c 3c 1c 96 0a 3d 95 42 d0 39
       0.030276265 0.013456123 0.03383456 0.0003972246
000080 12 c1 92 bd f8 3c c1 3b d8 e6 af bc 84 6f 93 bd
       -0.071657315 0.0058971606 -0.02147238 -0.07199004
000090 b3 f0 19 bc 1c c1 50 3d d4 45 28 bb 75 b5 50 3d
       -0.009395766 0.050965413 -0.0025676386 0.0509543
0000a0 ea d5 2a bd 39 7b 6c 3d e5 41 90 3d d2 3d bd bd
       -0.04170791 0.0577347 0.070438184 -0.09240307
0000b0 2a b3 05 bc c0 aa 47 3d 45 30 41 bd 56 2f 8c 3d
       -0.008160392 0.048746824 -0.047165174 0.06844966
0000c0 4b d1 a4 39 c1 a2 91 bd 60 b5 89 3d 65 40 82 3c
       0.00031436453 -0.07111121 0.06724048 0.015899846
0000d0 ae 2a 64 3d c2 eb 93 3d c6 d4 74 3d 65 22 38 3c
       0.055704765 0.072227016 0.05977323 0.011238669
0000e0 21 2b b0 bc 0b 9a 93 bc 56 d0 e2 3c 27 eb 6a 3c
       -0.02150494 -0.01801779 0.027687233 0.014338291
0000f0 54 9b 26 3c 0a b6 aa bd e0 8d 93 bd f8 2c 22 3d
       0.010168869 -0.083355024 -0.07204795 0.039593667
000100 74 bb 95 3c 6a 60 34 bd de aa 56 bd 8f 9c ae 3c
       0.018277861 -0.04403726 -0.052409045 0.021314887
000110 c0 d7 32 3b 5e 0e 73 bd a6 c0 b4 bd b8 35 05 bd
       0.0027289242 -0.059339873 -0.08825807 -0.032521933
000120 d3 49 c2 bc a4 4f a1 bd da 65 16 3d 9c a1 f9 bb
       -0.023716843 -0.07876518 0.036718227 -0.0076181423
000130 35 8b b0 3d d1 3a 50 bc 4c 07 ff 3c de 58 8d bd
       0.08620302 -0.012709335 0.03113141 -0.06901716
000140 97 25 7c 3d 39 ca 9e bc 37 d4 28 bd 86 ed 8e 3d
       0.061559286 -0.019383537 -0.04121801 0.06978898
000150 19 b5 89 bd e1 e5 34 bd a2 31 12 3c aa 4e d3 bc
       -0.06723995 -0.044164542 0.008922966 -0.025794346
000160 f0 08 59 3d 84 a5 4a bd 80 28 3d bd d7 3b f1 bc
       0.05298704 -0.049474254 -0.046181202 -0.02944748
000170 cf 19 2b 3d 39 69 a7 bd c6 9e 53 bd a1 fe 04 3c
       0.04177266 -0.081743665 -0.05166509 0.008117349
000180 f6 87 2d bd 80 ab 0c bd 3a e2 9a 3c 38 07 82 3d
       -0.04236599 -0.034343243 0.018906701 0.06349033
000190 ac 07 f4 bc 28 4c 33 3d 14 37 d2 bc 60 b0 62 bd
       -0.029788814 0.0437738 -0.025661029 -0.055343986
0001a0 b4 9c a0 bb a4 c7 a7 3c ed 48 40 bd 01 a3 54 bd
       -0.004901493 0.020480938 -0.046944547 -0.051913265
0001b0 6d b7 14 3d 99 c1 9d 3d c5 3e 8c bd 1c 8a 9b bc
       0.03630774 0.077029414 -0.0684791 -0.018986754
0001c0 92 1a 11 3d fa fb 5d 3d ec 5f 1c bd 12 7a 3a 3d
       0.03542573 0.05419538 -0.038177416 0.04552657
0001d0 d6 97 a7 3d 42 7d 50 3c 32 dc 01 3c 2a 90 31 3d
       0.08183257 0.012725176 0.007926034 0.043350376
0001e0 e3 ce 2c bd 77 a1 e3 bc 96 c1 5a 3d 48 50 7e bd
       -0.04218949 -0.027786953 0.053407274 -0.06208828
0001f0 a6 10 09 3d fc 19 ec bb 3b 2e b2 bd 54 72 19 3d
       0.033463143 -0.007205246 -0.08700224 0.037462547
