saved_models/episode_0/agent_7.pth (torch, 738018 bytes, 44 tensors)

fc1.weight f4 [128, 5]
000000 0b 11 1d 3e ab df 68 be cc 6e 2f be f1 17 67 be
       0.15338533 -0.22741573 -0.1713211 -0.22567727
000010 77 90 09 3e 1f d4 5e be 3c f8 1f 3e 6d 1d 0c 3e
       0.13434015 -0.21760605 0.15622038 0.136831
000020 c1 d5 97 3e b8 15 21 3e 59 41 56 be 0f 9c bf 3b
       0.2965527 0.15730941 -0.20923366 0.005847461
000030 79 7a 3e be 43 31 da 3e a1 69 df 3e a8 53 e5 bd
       -0.18601407 0.4261571 0.43635276 -0.11197597
000040 16 5c 41 be 24 17 7b 3e d7 ee 8e 3e b7 2d a1 3d
       -0.18882784 0.24520546 0.27916595 0.078700475
000050 89 d5 7d 3e 3d 4f 84 be f2 f3 91 3e 7c 75 df 3e
       0.24788488 -0.25841704 0.28506428 0.4364432
000060 45 8a a3 be 8e 31 bb be 94 f2 e3 3e 1d 0b 8c 3d
       -0.3194143 -0.36561245 0.4452101 0.06838057
000070 52 01 bb 3d 9e ef e2 bc 01 ca b5 3e fd 0e 4b bd
       0.09131111 -0.027702149 0.3550568 -0.04957484
000080 10 32 e8 bd 23 05 a7 bb 4a 15 81 3e 84 b5 13 be
       -0.11337674 -0.005097048 0.25211555 -0.14424711
000090 3d 40 91 3e 5a 75 02 3d fe aa bd be 4c bd 38 be
       0.28369322 0.031850196 -0.3704452 -0.18040961
0000a0 e3 b1 16 3e d2 68 9a 3d 53 f9 0c 3e 5b 5f 72 be
       0.14716296 0.07539524 0.13766985 -0.23669188
0000b0 91 95 a8 3d bb 52 49 be 15 e0 6f 3e 05 b5 67 be
       0.082316525 -0.19660465 0.23425324 -0.22627647
0000c0 0b ab d3 bc 05 e6 dd 3d ad fe 5f 3e a3 eb 9e be
       -0.025838396 0.10834888 0.21874495 -0.31039152
0000d0 0e 3a 89 be 41 4f ab be 98 5c 85 be 4b 4a 8a bd
       -0.26802105 -0.33458903 -0.26047206 -0.067524515
0000e0 5e 1a cc bd 62 80 9c be 83 72 55 be 75 a5 02 be
       -0.09965967 -0.30566698 -0.20844464 -0.1275843
0000f0 f6 06 03 be cd 23 97 be a6 b0 81 be 3d cc d7 be
       -0.12795624 -0.295195 -0.25330085 -0.4214801
000100 85 5c e3 3e c8 19 a0 3e 17 8d 3f bd 56 52 cf bd
       0.44406524 0.3126967 -0.046765413 -0.10123126
000110 1c 9b 29 be 45 00 af 3e 2f c1 90 3e 9e 78 8a be
       -0.16563076 0.34179893 0.28272387 -0.2704515
000120 5b aa c8 3c e4 9f 85 3e 00 b1 cb 3e 1c 6f bd 3e
       0.024495294 0.2609855 0.39783478 0.36998832
000130 61 6e bb be 8b 61 d7 3e 52 cf 05 3a e7 ac dc be
       -0.3660765 0.42066607 0.00051044405 -0.43100664
000140 e3 ca 03 3e 27 51 be 3e af b4 1a be bd cc 44 be
       0.12870364 0.3717129 -0.15107988 -0.19218726
000150 ad 5a 04 be 74 39 03 be 3a b5 e2 3b f9 17 96 bd
       -0.12925215 -0.12814885 0.0069185765 -0.07328791
000160 b9 1e b2 3e c1 5f 6a be 7f 17 be be 92 f3 e2 3e
       0.34789065 -0.2288809 -0.371273 0.44326454
000170 74 75 42 be b7 eb 7f be 80 ae 6e 3e da 57 b1 3e
       -0.18990117 -0.24992262 0.23308754 0.34637338
000180 40 ec eb 3d 54 cd 39 be b5 e7 4a be 25 5a 8c 3d
       0.115196705 -0.18144733 -0.19814952 0.06853131
000190 61 f2 c0 3e 68 4d e4 3e b1 af 0d be 81 12 6c 3e
       0.3768492 0.44590306 -0.13836552 0.23053934
0001a0 31 c8 43 3e 9e a8 83 bd f2 1a 8a 3d 06 62 99 be
       0.19119336 -0.064286456 0.06743421 -0.29957598
0001b0 bd d9 b7 bd 7c 95 a5 be 10 db 5c be aa 0e b1 3c
       -0.08977077 -0.3234061 -0.2156794 0.021613438
0001c0 25 52 5c 3e a1 c3 d7 be 3f 27 67 3e 27 79 6d 3d
       0.2151571 -0.4214144 0.22573565 0.057976868
0001d0 a0 a7 8b be 72 12 f4 bd 4d 53 61 be b3 25 dd 3e
       -0.27276325 -0.11917581 -0.22004433 0.43192825
0001e0 d2 4e 89 bc b4 58 5b bc 2d 7c c4 be 64 ff a2 3e
       -0.016761217 -0.013387848 -0.3837599 0.31835473
0001f0 83 ba c4 3c 6b 7c 1e be 1a 89 a8 3e 95 ff 36 be
       0.024014717 -0.15477149 0.329171 -0.17870934
000200 d2 57 ac 3e ea 43 70 3e 8d 4e 53 be d9 ea b2 be
       0.33660752 0.23463407 -0.20635433 -0.349448
000210 fa 8e f8 3d 4b bc ef bd 25 cb 10 be c6 d9 d6 3e
       0.121366456 -0.11705836 -0.14139993 0.41963023
000220 e3 07 8b be f2 80 52 be b1 7f e4 be 56 18 4a be
       -0.27154455 -0.20557001 -0.4462867 -0.19735846
000230 f6 43 38 3e 2b 69 db be bc b0 1f 3e 15 93 62 be
       0.17994675 -0.42853674 0.15594763 -0.2212642
000240 40 ec 6b bd df b8 7a 3e b4 2e da bd 7b 28 d0 3e
       -0.057598352 0.24484585 -0.10653439 0.40655884
000250 3f bb 88 be d8 0f 35 3e 7e 12 84 3d bb 0c bf 3c
       -0.26705357 0.17681825 0.064488396 0.0233215
000260 96 66 ba bd 95 99 81 be fb d8 94 be 2f b6 c1 3e
       -0.09101598 -0.25312486 -0.29071793 0.37834308
000270 fc 10 6b be 88 d1 40 3e 5a f6 3f be f9 34 86 be
       -0.22955698 0.1882993 -0.1874632 -0.2621229
000280 84 74 bd 3e 4d 17 8c be 8f 52 a9 be ae db d8 3e
       0.37002957 -0.27361527 -0.330708 0.42355102
000290 92 6b 83 3d 73 eb ff 3b b1 90 d1 bd c1 66 e8 3d
       0.06417002 0.00781005 -0.10232676 0.11347724
0002a0 e8 91 c0 be 26 42 d0 3d 80 a3 a7 be 44 c5 04 3e
       -0.37611318 0.10168867 -0.32741928 0.12965876
0002b0 86 3b 63 3e c9 10 e8 3e 59 99 d7 be 98 d8 ba 3e
       0.22190675 0.45325306 -0.42109182 0.36493373
0002c0 bd 91 b4 3e e8 be 4b be 78 c8 e3 3e 0b e3 73 bc
       0.3526744 -0.19897044 0.44488883 -0.014885674
0002d0 48 5a a6 3e 7b 46 32 3e 6c 34 04 be cc 95 19 be
       0.32490754 0.17409699 -0.12910622 -0.14998549
0002e0 f5 18 44 bd 69 48 d7 be 90 93 25 3e c3 62 3e be
       -0.047875363 -0.42047432 0.16169572 -0.18592362
0002f0 65 d0 96 be 4a 8c 48 3d 51 33 e7 3c c9 27 cf 3d
       -0.29455867 0.048961915 0.028222712 0.1011501
000300 24 e3 d1 3e 5d df 86 be 00 52 e4 be a3 7e e3 3e
       0.40993607 -0.26342288 -0.4459381 0.44432554
000310 bb af bd 3d 9a 39 39 3e 1d a9 a5 3e 09 22 94 bd
       0.092620336 0.1808838 0.32355586 -0.07233054
000320 24 2f 82 3e 4f 49 9a 3e 52 69 c1 3e 91 87 c1 bd
       0.2542659 0.30134055 0.37775666 -0.09449685
000330 8c e4 06 bd fe 1b 12 3e 63 75 c3 3e 09 77 b4 3d
       -0.032932803 0.1426849 0.38175496 0.08811767
000340 26 94 1a 3e 7a 86 ab bd bd ec 98 3e d7 7b 40 3e
       0.15095577 -0.08375259 0.29868117 0.18797241
000350 6b 4d d2 3e 41 91 d5 3e df 00 9c bd a0 f1 6d be
       0.4107469 0.41712382 -0.07617354 -0.23236704
000360 9c 2c 9f bd dd e3 b4 3d ce 45 98 3e 07 8b 0a 3e
       -0.077721804 0.08832524 0.29740757 0.13529597
000370 28 b5 8d 3e dd d5 4c be 8b 61 9a be 2e 3a 8e be
       0.27677274 -0.20003457 -0.30152544 -0.27778763
000380 95 9a 94 3e 3e 31 ea bb e2 f7 5e 3e ac f3 80 3e
       0.29024187 -0.0071469834 0.21774247 0.25185907
000390 dc fb e3 3e 6a 02 88 3e 70 8d 8c 3d cd 07 aa 3d
       0.4452809 0.26564342 0.068629146 0.08302269
0003a0 ec 0f 83 3d 46 21 d1 be 66 01 b0 3e 13 ce 60 3d
       0.06399521 -0.40845698 0.34376067 0.054884028
0003b0 cd b8 a0 be b1 be a2 3e e2 da 99 be 51 8b ea bd
       -0.31390992 0.3178611 -0.30049807 -0.11452354
0003c0 f5 f6 af bd 15 91 32 be 1c 8b 74 3e d3 bd c4 be
       -0.08592025 -0.17438157 0.23881191 -0.38426074
0003d0 0f a6 6e be 68 2c c2 3e 62 48 90 be d8 46 e7 bd
       -0.23305534 0.37924504 -0.28180224 -0.11292809
0003e0 4d ee e6 3e db 4d ae 3c 02 a2 38 3e 2d d9 a3 3e
       0.45103684 0.021277359 0.18030551 0.3200163
0003f0 d6 6e a6 bd f0 28 89 be 7d 1e 06 be 4c 4c 29 3e
       -0.08126609 -0.26789045 -0.13097568 0.16533011

fc1.bias f4 [128]
000000 3c fe 98 be f0 a7 b8 be 58 de 73 be 71 f3 39 bd
       -0.29881465 -0.36065626 -0.23815286 -0.04539818
000010 6c 4f c0 3e be 00 b8 3e 0c 39 c8 3e 35 51 4d be
       0.37560594 0.35938066 0.39106023 -0.2005051
000020 8e 9d 69 3e 60 7c 6b 3d eb e6 d0 be f3 bc 57 3e
       0.22814009 0.05749166 -0.40801176 0.21068172
000030 57 ad 21 3e fc d0 ce 3d 7f f0 83 be a2 94 a7 bd
       0.1578878 0.10098454 -0.2576942 -0.08182646
000040 1b 74 cf be be 97 f5 3d 19 1a 43 be 62 31 ba 3e
       -0.4051827 0.11991833 -0.19052924 0.363658
000050 e4 27 3f 3b 99 fe a4 3d 0d ca 95 3e 3e 97 d5 3d
       0.0029168064 0.08056373 0.29255715 0.10429238
000060 2e 0b c8 3e 45 ac 96 3c 1e 39 bb 3e 61 fc 6b be
       0.3907103 0.018392691 0.36567014 -0.23045494
000070 b7 48 a1 be 04 28 00 be 5d 62 23 3e 1e 13 97 bd
       -0.3150079 -0.12515265 0.15955491 -0.07376693
000080 3a 5b c2 3b 72 2e d0 bc 05 bd a2 be 58 77 e2 3d
       0.005931285 -0.025412772 -0.31784835 0.11057919
000090 2f 50 20 3e a5 0a 1d be bc 20 be be a2 0b f9 bd
       0.15655588 -0.15336092 -0.3713435 -0.12160422
0000a0 ab 20 d7 bd 7b d7 21 be 93 35 11 bd 3a d5 27 bd
       -0.10504278 -0.15804856 -0.035451483 -0.040974833
0000b0 65 a8 90 be 74 f2 f7 3d b7 a3 bb 3e f0 44 a5 3e
       -0.28253475 0.12106791 0.36648342 0.32279158
0000c0 d7 79 a9 3e 60 cc 8d be aa 0c 68 be 33 12 9a 3e
       0.3310077 -0.27694988 -0.22661081 0.3009201
0000d0 84 2d b2 be a8 7b b3 3e fe 88 c1 be 45 38 8f 3e
       -0.3480035 0.3505528 -0.3779983 0.27972618
0000e0 36 a1 54 be 86 67 53 3e 75 8c 85 be 39 71 97 3e
       -0.20764622 0.2064496 -0.26083723 0.2957857
0000f0 c4 bb 8d bd 78 79 87 bd a8 b7 b1 3d 2e 44 cc be
       -0.06920579 -0.06614965 0.08677608 -0.39895767
000100 ec 08 91 3e ea 88 8f be f3 72 69 3e e6 97 d8 be
       0.2832712 -0.28034145 0.22797756 -0.4230339
000110 62 07 13 3e 5f 1d a8 3e f1 99 38 3e ec 58 6b 3e
       0.14358285 0.32834908 0.18027474 0.2298314
000120 56 15 c6 3d 10 de a0 be ed 52 4e bc 93 54 95 be
       0.09672038 -0.3141942 -0.012593013 -0.29166088
000130 25 c4 fc bd 09 bb 82 be b3 83 61 be b0 1d d7 bd
       -0.12342099 -0.25533321 -0.22022896 -0.10503709
000140 98 38 8f 3e 5e eb 53 3e b7 ed 83 bb 4e 96 d4 be
       0.27972865 0.20695254 -0.0040261406 -0.41520923
000150 a1 47 33 3e f0 79 48 3e 0a b1 09 3d 07 41 74 3e
       0.17507793 0.19577765 0.033616103 0.23852931
000160 55 e0 b6 bc c1 a5 c7 be d4 72 cb be 6e dd 93 be
       -0.022323767 -0.38993648 -0.39736044 -0.28879875
000170 29 8e c4 be 70 2d 97 be a0 59 09 be fc d7 52 3e
       -0.3838971 -0.29526854 -0.13413095 0.20590204
000180 28 95 9e bb 11 a4 3d be a1 d8 a7 be 15 2c 6b 3e
       -0.004839558 -0.18519618 -0.32782462 0.22966035
000190 4b f2 82 be 33 93 ba 3e 0e c7 86 be 97 7b d1 3e
       -0.2557548 0.3644043 -0.26323742 0.40914604
0001a0 a4 84 29 be 58 70 84 be cc 81 3b 3e fb 2e ac be
       -0.16554505 -0.2586696 0.18311232 -0.33629593
0001b0 09 c4 c6 3e 5d 3e bb 3e ea c9 c4 be aa 64 01 3d
       0.38821438 0.36571017 -0.38435298 0.03159014
0001c0 50 5e b6 3e f8 f1 f4 bd 3d 14 83 be e9 30 de 3e
       0.3561883 -0.119602144 -0.25601378 0.4339669
0001d0 e4 b8 da be 85 be 7a 3c 58 43 d2 3d 1a ec 6b 3e
       -0.42719185 0.015304212 0.10266751 0.23039284
0001e0 1b ba e8 3e a7 89 a9 3e d6 10 c5 be dc c0 70 3b
       0.45454487 0.33112833 -0.38489407 0.0036736047
0001f0 a0 d5 54 be 71 c9 d1 3e 61 b3 3d 3e f7 a8 de 3e
       -0.20784616 0.40974 0.18525459 0.43488285

fc2.weight f4 [128, 128]
000000 a6 49 8e 3d a8 03 51 bd bf bd af bd 75 f1 1f 3d
       0.06947641 -0.051028877 -0.08581113 0.03904863
000010 3b 74 7a 3d b8 be 64 3d e4 77 40 3d 0d 5d 59 3d
       0.061146002 0.055845946 0.046989337 0.053067256
000020 0e 7a ad 3d c9 9e 0a bd d0 df 78 bd a8 5f 05 bd
       0.08470546 -0.033842836 -0.06076032 -0.032561928
000030 4c bf 65 3d 99 09 85 bd 25 b8 03 bd d4 cb 17 bd
       0.056090638 -0.06495971 -0.032158036 -0.03705962
000040 f6 b6 27 bb f3 e8 92 3d 75 f4 46 3c 66 6f 8b bc
       -0.002559123 0.07173338 0.012143244 -0.017020892
000050 5e 9e da bb 68 e5 3c 3d bd d9 34 bd b4 f1 b4 bd
       -0.006671711 0.046117216 -0.044152964 -0.08835164
000060 27 d3 85 bd 86 02 9b bd 5c 0f f4 bc d1 0f 47 3d
       -0.06534415 -0.07568841 -0.02979248 0.048599068
000070 38 a9 76 3c c6 59 54 bd 2e 20 77 bc fa 91 9e 3c
       0.015054993 -0.051843427 -0.015083356 0.019356716
000080 57 da fa 3c ec 22 ab 3a 90 22 0d bd e7 d5 93 3d
       0.03062169 0.0013056672 -0.03445679 0.07218533
000090 53 cc 0b 3d 22 45 fa 3c ea ba f9 3c 58 c3 1a 3c
       0.034130406 0.030550543 0.030484635 0.009445988
0000a0 23 31 39 3d 8f 26 d4 3b 20 53 92 3d 3c 0c ae 3c
       0.045212876 0.006474323 0.07144761 0.021246068
0000b0 e5 7b a2 bd 02 62 e1 3c a3 2a 28 bd 7f 8b 22 3d
       -0.07933787 0.027512554 -0.041056287 0.039683815
0000c0 e7 51 92 bd 14 04 52 3d fe 82 a5 3c 21 1c e8 bc
       -0.07144528 0.05127342 0.020204064 -0.028333725
0000d0 fe 09 d6 3c 3a e4 53 3d aa af 19 3b 8c 79 40 bd
       0.026127812 0.051731326 0.0023450651 -0.046990916
0000e0 ce 51 cf bc 7b 01 3b bd 90 24 66 3d 2c e8 90 bc
       -0.025307562 -0.04565571 0.056187212 -0.017688833
0000f0 56 6c d4 3c c0 49 00 bd 14 b8 2d 3c 35 73 75 bd
       0.025930565 -0.031320333 0.01060297 -0.059924323
000100 31 5f 18 bd 80 99 2e 3c a6 d9 78 bd 6d 9b fb 3c
       -0.037200157 0.010656714 -0.06075444 0.030713761
000110 f7 f3 d8 3b b0 5a d6 bc 30 7f 51 bd aa 50 b3 3c
       0.0066208798 -0.02616629 -0.051146686 0.02188905
000120 f9 6f 98 bc ad 75 21 bb 41 cc a7 3a 14 8f 6a 3d
       -0.01860808 -0.002463679 0.0012801961 0.057265356
000130 68 fe 02 bc a5 20 12 bd 71 cb 47 3d ce 42 69 3d
       -0.0079952255 -0.035675664 0.048778 0.056948476
000140 c4 5c 10 3d 64 a2 ae bd fb 57 29 bc a8 14 a2 bc
       0.03524472 -0.08527067 -0.010335918 -0.01978524
000150 c0 33 ad bc 00 6b cd bc 75 58 3d 3d 59 ef 4c bc
       -0.02114284 -0.025075436 0.046226937 -0.012508237
000160 33 a9 86 bd 6e ac a9 3c c6 75 4e ba 4d 8c 73 bd
       -0.06575241 0.020712104 -0.0007875826 -0.059459973
000170 96 98 88 3b ac 55 11 3d 29 11 d4 3c fe 15 f3 3a
       0.0041685803 0.035482094 0.025887089 0.0018545983
000180 8a dc ff 3b ff db 84 3d f7 43 cc 3c 8b 50 6c 3d
       0.0078082727 0.064872734 0.024934752 0.057694
000190 33 20 73 bd 2e 5d a9 3c 16 84 cb bc 51 a8 8b 3d
       -0.05935688 0.020674314 -0.024843257 0.06819213
0001a0 47 6a 5f 3d d7 ac e7 bc 15 01 a7 bd 32 74 a3 bd
       0.054544713 -0.028280659 -0.08154503 -0.07981147
0001b0 98 02 af bc 27 2f 70 3d dd bc 87 3c d7 b0 31 3c
       -0.021363541 0.058638718 0.01656955 0.010845385
0001c0 cd e1 19 3d ac a4 8a 3d 99 00 82 3b fb 88 b3 3d
       0.037568856 0.0676969 0.0039673564 0.08766361
0001d0 69 40 4e 3d b5 e3 73 3d 96 3f 52 bd 45 e5 39 3d
       0.050354395 0.05954333 -0.05133017 0.045384664
0001e0 60 c7 a4 3d 57 8c b7 3d a4 e1 a4 bd ec 8f 7c 3b
       0.0804584 0.089623146 -0.0805085 0.0038537933
0001f0 d2 67 3d bc f7 ba d9 bc ad 63 83 3d dc f5 05 bd
       -0.011560397 -0.02657841 0.06415496 -0.032705173
000200 a6 1e f8 3c e8 62 58 3d 93 61 9a bd 7a 5f ed bb
       0.030288052 0.0528287 -0.07538142 -0.0072440477
000210 14 91 5b bd cc 6b 7c 3d cc aa 31 bd 89 c9 99 bd
       -0.053605154 0.06162624 -0.043375775 -0.07509143
000220 69 5c f4 3c 48 6c 32 3d d4 be f0 3c 41 ce ca bc
       0.02982922 0.043560296 0.029387869 -0.024756553
000230 dd e6 2c 3d 88 13 00 bd 1e 40 17 3d be 90 23 3d
       0.042212356 -0.031268626 0.03692638 0.03993296
000240 66 0b ca 3d 62 af a4 3d 8a 16 3b 3d 8f 12 48 3d
       0.09865455 0.08041264 0.04567579 0.048845824
000250 7f 5d 63 bd 2c f5 cd 3c 75 40 a0 3c ba 8c 80 3c
       -0.055509087 0.025141321 0.019561986 0.015692104
000260 ce 1c 24 3d ef c7 fe bc 04 21 84 3d d9 b8 88 bd
       0.040066533 -0.031101195 0.0645161 -0.06675882
000270 eb 5b 72 3c 74 28 41 3d f8 8a 89 bd a7 31 bc 3d
       0.014792423 0.04715772 -0.06715959 0.09189158
000280 1f 60 c4 3c 29 0a 01 3d ac 2c cb bc b3 e6 23 3c
       0.023971615 0.03150383 -0.024801575 0.010003733
000290 ba 9a ba 3d 66 ec 06 bd c6 57 4c 3c 2a 13 3e 3d
       0.09111543 -0.03294029 0.012472099 0.046404995
0002a0 e4 37 c1 3d fa 1c f9 3c 92 ad 1d 3d d5 21 bb 3c
       0.094344884 0.030409325 0.038495608 0.02284328
0002b0 da 18 15 3d 1f 53 17 3d 40 35 60 3d 38 bb 8a 3d
       0.036400653 0.036944505 0.054738283 0.067739904
0002c0 72 db c2 3c ee 3d dc bc 79 35 d0 bc 56 16 ab 3d
       0.02378628 -0.026885 -0.025416123 0.083538696
0002d0 76 58 51 bc a5 6d 4d bd 32 17 9c 3d 46 d7 a7 3d
       -0.012777438 -0.050153393 0.07621612 0.08195357
0002e0 7b 3c 43 bd 9e 9f 6e bd 20 fd 84 3d 44 19 64 bc
       -0.0476651 -0.05825769 0.06493592 -0.013922039
0002f0 6e c2 a4 3c a2 67 82 3d ec d5 b6 3d 2a 54 97 3d
       0.020112243 0.06367423 0.08927521 0.073891
000300 e6 a8 63 bd c4 30 ec 3c 2c be b7 3d f9 cf 89 bc
       -0.055580996 0.028831847 0.08971819 -0.016822802
000310 65 57 95 bd 1c 52 4f bd 49 4f a4 bc d7 fd 28 bd
       -0.0729206 -0.050615415 -0.020057337 -0.041257706
000320 78 43 c4 bb 24 36 5f bd d0 96 78 bd 18 20 a8 bc
       -0.005989488 -0.054494992 -0.0606907 -0.020523116
000330 08 e8 a8 bd 67 28 53 bc 31 b2 3d bd 80 9a 93 3b
       -0.082473814 -0.012888051 -0.046312515 0.004504502
000340 0f 8c 7d 3d 92 2e b3 3d 1e 7e b0 3d 89 a5 99 3c
       0.06190115 0.08749117 0.08617805 0.018755691
000350 d6 1a 5d bc 62 6b 80 3d fa f7 06 3d 95 f8 0f 3d
       -0.013495168 0.06270482 0.032951333 0.035149176
000360 f7 6d a4 3b ee 0c b0 3d 5d 7f 5d bd 3f 24 29 3d
       0.0050179916 0.08596216 -0.05407654 0.041294333
000370 72 2b 45 bc d0 99 a3 3d 11 a9 ac bd b8 d2 96 3d
       -0.012034284 0.07988322 -0.08430684 0.0736441
000380 0e 90 a2 bd 5a 59 06 3d 3a 9f 9f bd af 4f 6c bd
       -0.079376325 0.032800056 -0.07794042 -0.05769318
000390 85 42 c4 bc e6 a2 61 3d 4b 41 08 bd 45 c9 55 bd
       -0.0239575 0.055086993 -0.033265393 -0.0521939
0003a0 cc b0 e2 bc 90 56 31 3d de 40 a7 3d 92 30 b2 bb
       -0.027672194 0.043295443 0.08166669 -0.005437919
0003b0 53 ab 91 3d 16 d7 4a 3d 2d 7e 2e bc 5b f9 37 3d
       0.071127556 0.04952153 -0.0106502 0.04491554
0003c0 a2 ce b0 bc df d6 ad 3d b3 70 9b 3d b3 92 d4 bc
       -0.021582905 0.08488249 0.07589855 -0.025948858
0003d0 60 43 6e 3b 9c 7c b6 3a f6 9a db 3b bc 40 e5 3c
       0.0036356077 0.0013922635 0.0067018224 0.02798497
0003e0 c7 ae 62 bc ae f5 87 bd a5 c6 ad 3d 1c 8d 52 bd
       -0.0138356155 -0.066386566 0.08485154 -0.051404104
0003f0 63 c6 88 bd a8 d9 a6 3c 8d 4b b7 3d 69 ce 22 3d
       -0.06678464 0.020367458 0.08949957 0.03974763

fc2.bias f4 [128]
000000 49 6e 9e bc b8 c8 dd ba 47 e6 5c bd a4 fa aa 3d
       -0.019339697 -0.0016920781 -0.053930547 0.08348587
000010 3f 04 0c bd 33 ed fc 3c c4 bd a5 3d ea 8c 7c 3d
       -0.034183737 0.030874824 0.080928355 0.061657824
000020 52 1b 9b bd 48 bc 6e bd 6a 45 1c bc af 95 d7 ba
       -0.0757357 -0.058285028 -0.009538034 -0.0016447807
000030 08 3c 18 bd 96 cd 32 3c 8f ad 48 bd 69 44 01 bc
       -0.037166625 0.010913273 -0.048993643 -0.007889845
000040 bd 78 a0 3d 56 b1 c8 3c 43 f3 3e 3c ef 1d a6 bd
       0.07835529 0.024498623 0.011654678 -0.08111178
000050 30 64 d7 bb 6b ca 70 bd bc b6 86 bd 64 b6 bd 3b
       -0.0065732226 -0.05878679 -0.065778226 0.005789565
000060 0f e1 35 3d a9 f3 98 3c d0 90 82 bc b3 c3 91 bd
       0.044404086 0.018670874 -0.015938193 -0.07117405
000070 22 8d 03 3c f4 76 ae bd ef 06 b8 bc 9e 75 94 3c
       0.008029254 -0.08518782 -0.022464244 0.01812249
000080 4e c2 8d bd 05 e7 dc bc ea 9e e7 3b 53 b8 9c 3d
       -0.06921826 -0.026965627 0.0070685046 0.076523446
000090 e5 62 a5 bd 1f ef 44 bb 24 09 00 bd 1a cc fd 3a
       -0.08075503 -0.0030049754 -0.031258717 0.0019363195
0000a0 19 a2 38 3d d3 90 a4 3d 21 47 ba bd d3 dd 20 bd
       0.045076463 0.080354355 -0.09095598 -0.039274048
0000b0 3f ca 93 bd 2d 1f 59 3d 18 8d 06 bd 2c 55 a1 3d
       -0.0721631 0.053008247 -0.0328494 0.07877573
0000c0 5c da f3 bb 2e d9 a1 bd 8f 36 a0 bd 29 8d 46 bd
       -0.007441802 -0.07902752 -0.07822906 -0.048474465
0000d0 3c 8d 5b 3c 41 27 ce bc a6 6b 85 bd bd e4 ee bc
       0.013400372 -0.025165202 -0.06514673 -0.029161805
0000e0 bf bd 9c bb 5b 51 4f 3d d1 32 b9 bc b7 03 08 bd
       -0.0047833617 0.050614696 -0.022607239 -0.033206668
0000f0 04 ed 90 3d d9 62 24 3c 28 9a 14 3d fb b3 c4 bd
       0.07076457 0.010033333 0.036279827 -0.09604641
000100 0c 38 af 3d 84 30 24 3d b7 3e e7 3c a9 26 92 bd
       0.08555612 0.04008533 0.028228147 -0.0713628
000110 22 98 26 3d be 0e 95 bd ad 8f 95 bd 5f 07 a2 bc
       0.04067243 -0.072782025 -0.073027946 -0.019778905
000120 eb 37 a4 3c 0a db 3d 3d c5 4e 28 3c c4 1f 85 3d
       0.020046195 0.04635147 0.010272686 0.065001994
000130 c4 dc 29 bd 9a a6 ca bc 2f b0 93 bd 1e 98 e0 bc
       -0.041470304 -0.024737645 -0.07211339 -0.027416285
000140 5d e2 e7 3c ba cf 13 bd 5c 06 92 3d 0b b7 b2 3c
       0.02830618 -0.036086775 0.07130119 0.021815797
000150 ee f7 ab 3d 65 1b 3f bd 24 0f a1 3d b9 53 47 3d
       0.08396898 -0.046656985 0.07864216 0.04866383
000160 68 50 de bc 2c 4e a0 3c 6e bd 08 bd 68 14 b7 bc
       -0.02713795 0.019568525 -0.03338378 -0.022348598
000170 8d 14 bd 3b d5 62 57 bc 44 cf 81 3c 02 1f b4 3c
       0.005770272 -0.013146122 0.015845902 0.021987442
000180 cc b9 86 bd 05 5e 11 3d 43 ba 60 3d aa f4 b0 bc
       -0.06578407 0.035490055 0.054865133 -0.02160104
000190 94 41 1f 3d 3c 33 6d 3c a1 6b b3 bd ad 1d 0f bc
       0.0388809 0.014477547 -0.08760763 -0.008735103
0001a0 21 48 90 3d ca cd e8 3c c5 b9 39 bd d2 2c a5 bd
       0.070450075 0.02841844 -0.04534318 -0.080651894
0001b0 26 c8 dc 3c a4 56 ca 3c 95 9a 2a 3c d7 57 1c bd
       0.026950907 0.024699517 0.010412832 -0.038169708
0001c0 fd 14 55 3d 46 13 10 bd 1f 82 30 bc ed 20 9a 3d
       0.05202197 -0.03517463 -0.010773211 0.07525811
0001d0 cc 1b 87 bb 29 c2 62 3d ab 6f ba bd 1e fa 8b 3c
       -0.0041231867 0.055360947 -0.0910333 0.017087039
0001e0 f2 13 68 3b 32 e0 f2 bc 1b 5f 39 3b c5 99 3c bd
       0.003541228 -0.02964792 0.0028285447 -0.046045084
0001f0 4f b3 26 b7 ff 35 b9 bd e7 59 48 3c fd 32 20 3c
       -9.93612e-06 -0.09043502 0.012228466 0.009777782

fc3.weight f4 [2, 128]
000000 15 cd 51 bb 14 39 30 3d 05 52 61 bb 43 43 fe bc
       -0.0032013108 0.043023184 -0.0034381163 -0.031037932
000010 37 4f 18 3d e2 12 9b bd 6e 97 a5 3d c0 72 46 3d
       0.03718492 -0.07571961 0.080855235 0.048449278
000020 06 ec 9f 3c 9f 80 66 3d 7e 8f 58 bd 3c 08 ab bd
       0.019521724 0.056275006 -0.05287122 -0.0835118
000030 58 2c 41 3d bc df c4 bc e3 62 85 3d 43 99 ac 3c
       0.04716143 -0.024032466 0.06513002 0.021069175
000040 73 9f 35 3d be 64 bb 3d a3 b4 9b 3d 52 f6 8e bd
       0.044341516 0.091500744 0.07602813 -0.069805756
000050 0d 46 45 bd 48 73 4e bc bb 74 21 bd 99 1c 8a bd
       -0.04816251 -0.012600727 -0.039417963 -0.06743736
000060 b2 21 b3 bd a0 4c 04 bd 36 0d bb ba 54 14 b2 bd
       -0.08746661 -0.032299638 -0.0014270905 -0.086952835
000070 c6 20 09 bc 03 7d 31 3d fb e3 39 bd 94 7c 82 bd
       -0.00836963 0.04333211 -0.045383435 -0.06371418
000080 ab 9a 31 3d 79 3c 5a bd e5 a0 94 bd b1 5d 94 bd
       0.043360393 -0.053280327 -0.07257251 -0.07244433
000090 d9 07 94 bd 65 a9 1a 3d 8a b6 a1 bc e2 20 00 3d
       -0.07228059 0.037759203 -0.019740362 0.03128136
0000a0 6c ac d9 bc 42 01 37 bc 45 f9 dd 3c cc 57 05 bd
       -0.026571475 -0.0111697335 0.0270964 -0.032554433
0000b0 f9 fe 09 bd 81 33 74 bc 40 16 07 3d 37 98 d1 bc
       -0.033690426 -0.014904858 0.032980204 -0.025585277
0000c0 4a cc 2c bc 47 75 26 bd 18 39 10 3d 45 e6 54 bd
       -0.010546753 -0.04063919 0.0352107 -0.051977415
0000d0 9b 04 95 bd f6 b3 94 bd 2f 9b 40 bd 86 9b 1b 3c
       -0.07276269 -0.07260887 -0.047022995 0.009497529
0000e0 bf 76 95 3d 57 31 29 bd 93 cf 2b 3d d7 13 4f bc
       0.0729804 -0.04130682 0.041946005 -0.0126390075
0000f0 1c 30 9b 3d 87 7f 99 bd f6 76 96 bd eb 71 5d bd
       0.075775355 -0.07495027 -0.07346909 -0.05406372
000100 62 42 a7 bd 15 41 36 3d cd 02 a6 bd 44 d9 7e 3d
       -0.081669584 0.04449566 -0.08106003 0.06221892
000110 04 06 c6 3c 43 4c a4 bd ba 59 50 bc 97 27 71 bd
       0.02417279 -0.08022358 -0.012716705 -0.058875646
000120 8b 61 21 bd d0 f8 8b 3c 9c 0f 52 3d bf 1e b8 bc
       -0.039399665 0.017086416 0.051284418 -0.022475598
000130 7a ba 81 bd a1 8b c3 bb e2 73 99 3d fc c8 65 bd
       -0.06334396 -0.005967573 0.07492806 -0.056099877
000140 5f 7d c7 3a cd 83 a6 bd ab 83 50 bd 02 5e 35 3d
       0.0015219859 -0.08130608 -0.05090682 0.044279106
000150 af 2d 9f 3d c0 5d a7 3d 31 c4 40 bd f9 5d 96 3d
       0.07772385 0.08172178 -0.047062103 0.073421426
000160 65 ff cb 3c 2a 51 af 3d 21 6d 1d 3d d6 f7 25 3c
       0.024902055 0.08560403 0.03843415 0.0101298895
000170 d1 81 2f 3d 7e 6a 9d bd e3 1f 1c 3d 83 2f 06 bd
       0.042848412 -0.076863274 0.038116347 -0.032760154
000180 2e 2a 05 3d 44 83 d1 3c 07 8e cc 3b 98 59 99 bc
       0.03251093 0.025575288 0.006242517 -0.01871948
000190 28 31 02 3d 01 e4 a8 bc dc 82 00 bd f5 c6 50 bd
       0.03178516 -0.020616533 -0.031374797 -0.05097099
0001a0 fa 0f e3 3b 21 62 62 3d e3 6a 97 3d 0b 29 e2 ba
       0.006929395 0.055269364 0.07393434 -0.0017254663
0001b0 90 1a 13 bc 3f ee 03 bd 84 4f ef 3c 5d 8b 4c bd
       -0.008978501 -0.03220963 0.02921272 -0.049937595
0001c0 08 45 15 bd ef 42 0f 3d 16 3b c6 3d dc 7d b9 3d
       -0.036442786 0.034975942 0.096792385 0.09057209
0001d0 28 66 c5 3b 9e ce 0d 3d 88 a1 dc b8 f3 88 0a bd
       0.006024141 0.034620874 -0.00010520505 -0.03382201
0001e0 ed 9e 0a 3d 2f 29 bb 3d 72 73 0b 3d 25 13 7b bd
       0.03384297 0.091387145 0.034045644 -0.061297555
0001f0 53 58 52 bd d2 db 9a bd de 06 5c bd 4a 46 84 3d
       -0.051353764 -0.07561459 -0.053717487 0.06458719
000200 25 1b 51 3d ac 46 59 3d a4 f2 27 bd ec 4b a3 3d
       0.051051278 0.053045914 -0.041002885 0.07973465
000210 e7 84 50 39 7f 88 ef bc 4f 22 0d 3d 2e 11 44 bc
       0.00019885936 -0.029239891 0.034456547 -0.011966987
000220 e8 8d 44 bd 47 f1 1e bd 97 c0 41 3d 5c 58 88 bc
       -0.047986895 -0.03880432 0.04730281 -0.016643696
000230 ea f8 bc 3b 7d 02 99 3c 64 46 93 3d 0e 0c 7b 3d
       0.0057669776 0.018677944 0.0719116 0.061290793
000240 a9 a1 29 3c ed fd 95 bd 2b a1 85 3d d4 d5 84 bd
       0.010353484 -0.07323823 0.06524881 -0.06486097
000250 52 a0 8d bd ab 89 ac bc cf 6f c9 3c 63 a5 52 3d
       -0.06915344 -0.021061739 0.024589447 0.051427256
000260 2c 3e 26 bd 9f bd a7 3d 24 2f 1f 3d ac a3 1c 3c
       -0.040586635 0.08190464 0.038863316 0.009560507
000270 13 f0 32 ba f3 11 09 bc 20 dc 0d 3c 62 79 36 3d
       -0.0006825935 -0.008366096 0.008658439 0.044549353
000280 fd b5 03 3c 49 71 47 3d d4 86 bd 3d ab ef 23 bd
       0.008038995 0.04869202 0.09254232 -0.040023487
000290 a5 ac 24 3c 5e 91 fe bc d9 9f 58 bc ca 2a 82 3d
       0.010050927 -0.031075176 -0.013221704 0.063558176
0002a0 b4 a2 b1 3d 88 d4 7c 3d ec e9 19 bd ed e6 03 bd
       0.08673611 0.061726123 -0.0375766 -0.03220265
0002b0 aa de 30 3d 14 e8 8b 3d cd 03 b9 bc ee 97 a6 bd
       0.0431811 0.06831375 -0.02258482 -0.08134447
0002c0 c2 e5 76 ba 80 8d 33 bc 89 46 7e bd 54 0c 8e 3b
       -0.0009418392 -0.010959029 -0.062078986 0.0043349657
0002d0 1b 98 98 bc 7a a7 bb 3d 5d a0 56 3c 86 05 a6 bd
       -0.018627217 0.09162803 0.013099757 -0.08106522
0002e0 8e cc 30 bd dd fc 55 bd f8 ff 5a bc 6e 25 ab bd
       -0.04316383 -0.052243102 -0.013366692 -0.083567485
0002f0 5e ed f5 bc 57 e4 af 3d ee 91 22 3c 2f ae 62 bc
       -0.030020412 0.08588474 0.009922488 -0.013835474
000300 d8 d1 c0 3c 36 d4 67 3d ba 41 ea bb 64 f9 1d bd
       0.023537561 0.056598864 -0.0071489485 -0.038567916
000310 26 72 45 3d 9b 6f 38 3d 21 66 a8 3d 53 4b f5 bb
       0.048204564 0.04502831 0.082226045 -0.007485786
000320 12 ae 39 3d 65 1b 93 bd 6b 23 1c bd ba 1e d8 3b
       0.045332022 -0.071829595 -0.038119715 0.0065954598
000330 8d f2 06 3d a4 3a 0f bc 58 64 ce 3c 1b 40 80 bd
       0.03294616 -0.008742008 0.025194332 -0.06262227
000340 4d 2a 97 bd f2 1a b1 bd 2c 65 80 bd 04 a5 51 3d
       -0.07381115 -0.086477175 -0.06269297 0.05118276
000350 0b 2a 91 3d 86 48 3d 3b fb 66 2d 3d a9 f9 ab 3d
       0.07088097 0.0028882339 0.042334538 0.08397228
000360 0c 0b b1 3d 22 e7 96 3c 74 8b 6c 3d 5f 82 33 bd
       0.08644685 0.01842076 0.05775018 -0.043825503
000370 e5 26 82 3c fd 33 4b 3d 54 5c 4a bc 01 da 6f bd
       0.015887687 0.049610127 -0.012351114 -0.058557514
000380 2d 6f 30 bd f3 46 05 bc 13 00 ae bd d7 fb db bc
       -0.043074775 -0.008134591 -0.08496108 -0.026853485
000390 ea 27 7b bd 04 30 b8 3d eb 51 b0 bd 29 46 17 bd
       -0.061317362 0.08993533 -0.086093746 -0.036932144
0003a0 81 e2 c8 bc 7b 15 8c bd b2 b9 d2 3c 78 1f 90 3c
       -0.024522068 -0.068400346 0.025723312 0.01759313
0003b0 d9 3a 97 3d 6e 4d 56 bd 16 42 a0 3d df 33 85 3c
       0.07384271 -0.052319936 0.07825105 0.016260086
0003c0 16 d0 cf 3c fe e0 92 3d e0 1b 4f 3c b9 bb b7 3d
       0.025367778 0.0717182 0.012640923 0.08971352
0003d0 28 04 9f 3c ed 33 1b bd 2e 2f 82 bd 2b 7e 71 3b
       0.019411162 -0.037891317 -0.06356655 0.0036848884
0003e0 c8 ba 9b 39 d5 67 ac 3c 6c 5f 73 bd 33 31 89 3d
       0.00029703067 0.021045605 -0.059417173 0.06698837
0003f0 8d 40 c9 3c 12 a8 cf bc 59 7f 17 3d 71 5c 81 3d
       0.024566913 -0.025348697 0.036986683 0.0631646

fc3.bias f4 [2]
000000 cf 7f ab bc e5 86 d6 3c
       -0.020934967 0.02618737

fc1.weight f4 [128, 84]
000000 4b 7b cd 3d 7b 4f 1e bc 34 f8 bd bd 8f 78 8d bc
       0.10033282 -0.009662504 -0.092758566 -0.0172694
000010 43 12 2a 3d c7 29 bb 3b 14 8c 8b bd 0c 8c 8a 3d
       0.041521322 0.0057117674 -0.06813827 0.06764993
000020 53 0f 64 bb 6d ff fc 3c 30 97 a0 3c 42 c7 67 3d
       -0.0034799173 0.030883515 0.019603342 0.05658651
000030 c9 24 80 bd c9 3e 3e bd 3e 89 1e bd 75 54 2c 3b
       -0.06257016 -0.046446595 -0.038705103 0.0026295458
000040 1e 08 77 3d 1e 11 02 bd 81 4d a2 3c 39 f9 a2 bd
       0.060310476 -0.031754605 0.019812347 -0.07957692
000050 6e 50 ab bd e6 10 3f 3d f1 3c ad bc 97 15 a1 bd
       -0.0836495 0.046646975 -0.021147223 -0.07865446
000060 39 19 ab bd 36 1d 86 bd af 44 d1 3d 63 69 cf 3d
       -0.0835442 -0.0654854 0.102181785 0.10127523
000070 7d 0f ae 3d bc 23 8b bd ac 13 a4 3b 70 bb 6f 3c
       0.08499048 -0.06793925 0.005007228 0.014632091
000080 66 e3 32 bd 96 ee 97 bd 22 04 9f bd dd d0 6b bd
       -0.043673895 -0.074185535 -0.0776446 -0.057572234
000090 59 e7 e0 bc 70 7f f4 3a 94 dd b1 3d aa 97 d9 3c
       -0.027454065 0.0018653702 0.08684841 0.026561577
0000a0 8c ad 9e bd 13 2b ce bd 5e 46 99 3d ac a2 97 3c
       -0.07747945 -0.100668095 0.074841246 0.018510185
0000b0 86 db b8 3d 3a 4b 04 3d e2 f2 de bd e7 87 90 bd
       0.09026246 0.032298304 -0.1088617 -0.07057171
0000c0 a0 e4 9f 3d f8 f7 dd bc 00 57 07 3c ae d3 68 3d
       0.07807279 -0.02709578 0.0082604885 0.0568425
0000d0 61 99 26 bc 80 37 dd 3d f5 a6 1b bd ff f3 eb 3c
       -0.010168404 0.108016014 -0.03800102 0.02880287
0000e0 2b c1 90 bd d0 a7 73 bd 08 c9 c0 3b 38 a7 11 3d
       -0.07068094 -0.05948621 0.00588334 0.035559863
0000f0 9f d5 26 bd 83 27 a9 bd ac 1a d9 3d cc ec c1 bd
       -0.04073107 -0.082594894 0.106007904 -0.094689935
000100 85 c2 24 3c 5f 32 a7 3d 03 5a 3c 3d fa 03 e4 ba
       0.010056143 0.081639044 0.04598428 -0.0017396205
000110 44 1c a5 bd 90 24 38 bd d8 d3 82 bd da 0b 21 3d
       -0.08062032 -0.044956744 -0.06388062 0.039317943
000120 ca f5 84 bd c5 b2 b7 bd 4b 39 1e bd e6 d1 3b bd
       -0.06492193 -0.089696445 -0.038628858 -0.04585447
000130 b9 5e a9 3d cb 0b e0 bc 2c a6 37 3b ee 9d 23 bd
       0.0827002 -0.027349373 0.002802263 -0.039945535
000140 86 3a f8 3c b9 1b 57 38 fe d8 9c bc 6e 3d d0 3c
       0.030301344 5.1285813e-05 -0.019146439 0.025419917
000150 fd c7 12 3d d7 52 c0 bd b4 5d 09 bc b6 d2 d1 3d
       0.035835255 -0.093908004 -0.008384157 0.10245268
000160 7c 94 8b 3d ef bd 21 3d cb 0e 2b 3d cb 36 cd bd
       0.068154305 0.039487775 0.041762155 -0.100202166
000170 dd 3d a6 bc 4f 6d b6 bd 42 73 c9 bd 95 43 43 3d
       -0.02029317 -0.08907568 -0.09836437 0.047671873
000180 95 86 27 bb db a7 7f bc 46 20 dd 3d b2 00 5e bd
       -0.0025562395 -0.015603985 0.10797171 -0.05419988
000190 07 ab 78 bd 51 c3 99 bd 1a 9b dd 3d f9 e9 bf bd
       -0.06070998 -0.07507957 0.10820599 -0.093707986
0001a0 f3 8a 37 bd aa 88 12 3d 7c ca 2c bd ad 76 8e bd
       -0.044810247 0.035774864 -0.04218529 -0.06956229
0001b0 74 ac 9f 3d 45 20 59 bd 49 fa 47 3d 9a db 5c bd
       0.07796565 -0.05300929 0.048822675 -0.053920366
0001c0 cb 90 5c 3d a5 c8 ff ba 9f e6 de bd 31 28 d6 3b
       0.053849023 -0.0019514753 -0.10883831 0.006535553
0001d0 f2 14 22 3d 8a e7 e8 3c 21 83 a5 bd 86 2d 33 3d
       0.039570756 0.028430719 -0.080816515 0.043744586
0001e0 07 ce 20 bd 82 c8 8d 3c 99 df f2 bc 8f f3 26 bc
       -0.039258983 0.017307524 -0.029647635 -0.010189905
0001f0 36 c6 18 bc a7 90 b7 3d ed d5 13 3d 56 19 ca bd
       -0.009324601 0.08963137 0.036092687 -0.09868114
000200 63 eb 95 bd 7a d6 ad 3d f7 a4 6d 3b ce 67 78 3d
       -0.07320287 0.08488174 0.0036261657 0.06064587
000210 92 61 07 bd c6 0c b6 3d 48 72 d6 bd 26 20 c5 bd
       -0.033052035 0.08889155 -0.10471016 -0.096252725
000220 9d 8d c3 bd ea 21 b2 3d 43 93 2d bd 27 51 62 bd
       -0.09548495 0.08697875 -0.042376768 -0.055253174
000230 14 92 dd 3d ff a1 fd 3c 1d c2 1a bd 36 b1 06 3d
       0.10818878 0.030961035 -0.037782777 0.032883845
000240 86 98 8f bd 83 3a f3 bb cf 9c b5 3d c4 0f 7d 3d
       -0.070115134 -0.0074227466 0.088677995 0.061782613
000250 14 29 88 3d 88 6e 59 bd 4f 5b c2 3d d4 f8 42 bd
       0.0664846 -0.053083926 0.09490072 -0.047600582
000260 9a 6a 6b bc 4d 3d 82 bd 34 b9 6e bd 3d ac 15 bd
       -0.0143686775 -0.063593484 -0.058282092 -0.036541212
000270 69 bd 86 3d bb a7 7c bd 4c f5 16 bd e0 3a cd 3c
       0.06579096 -0.061683398 -0.036855027 0.025052488
000280 5d 52 10 3c c1 d0 02 bc 15 1a 13 3c bd d2 b2 bd
       0.008808699 -0.007984341 0.008978386 -0.087316014
000290 4c 52 b4 3d db 2a ad bb 71 75 78 3c 0b 3d 70 3d
       0.088047594 -0.00528465 0.015164719 0.058651965
0002a0 2b 48 8e bd 39 8d 9f 3d e6 08 95 3d dc f5 b0 3c
       -0.06947359 0.07790608 0.07277088 0.02160161
0002b0 0f be b7 bd 83 d9 77 bd bc 51 e4 bd 85 57 3f bd
       -0.08971798 -0.06051017 -0.11148402 -0.046714325
0002c0 4c 40 ce bc 8b 29 a5 bc fe 6f d6 b9 b9 73 89 3c
       -0.025177144 -0.02016141 -0.000409007 0.016778814
0002d0 f7 09 8d bd bf 63 d9 3c d8 d9 81 bd 4c 5b 72 3d
       -0.06886666 0.02653682 -0.063403785 0.0591691
0002e0 c1 76 70 bd 81 fd 70 bd bb 14 b7 3d f2 f6 dc bd
       -0.058707003 -0.05883551 0.08939501 -0.107892886
0002f0 1e 7f b0 3c 75 88 44 bd 7e 3d c5 bd cd ad 14 3d
       0.02154499 -0.047981698 -0.09630869 0.03629856
000300 54 db 92 bd d3 5d fd 3c 4e f9 33 bd 70 67 c3 3d
       -0.0717074 0.030928528 -0.043938927 0.095412135
000310 1d eb c5 bc 5d 64 b6 bc f1 12 84 3d 32 9e 3d 3d
       -0.024159962 -0.022264654 0.06448925 0.046293445
000320 f3 12 1a 3d 7c ae 33 3d e9 30 53 bd 3c 23 1d bd
       0.037615728 0.043867573 -0.051560316 -0.03836368
000330 f5 21 b9 bc 73 0b 79 bc e8 f6 9c bc 26 b4 57 bd
       -0.0225992 -0.015200484 -0.019160703 -0.052662037
000340 a7 da 60 bd 18 a7 b3 3d ab a1 5d 3d f0 f2 3e 3d
       -0.054896023 0.08772105 0.054109257 0.046618402
000350 9b c8 8b bd e7 ec 11 bc 89 49 53 bd e4 37 83 3d
       -0.06825372 -0.00890658 -0.0515838 0.06407145
000360 66 de d1 bd 9e 51 66 bd a0 92 d5 bd f5 be 5a 3d
       -0.10247497 -0.05623018 -0.10428357 0.053404767
000370 51 83 47 bb 97 15 98 3d b9 92 a6 bc 39 7d 00 3d
       -0.003044326 0.07425993 -0.020333635 0.03136942
000380 1f 0f 07 3c 6d 31 68 bd 17 73 a6 bd 95 47 89 3c
       0.008243351 -0.05668776 -0.081274204 0.016757766
000390 ae 5c 93 3d cc 21 ef bc 56 f1 e6 bd 69 29 be 3d
       0.071954116 -0.02919092 -0.112765 0.09285242
0003a0 46 2b 94 3d fc 54 0f bc 59 7b de 3c 5c bd 9b 3d
       0.07234816 -0.008748289 0.027158426 0.07604477
0003b0 11 40 d5 bd 3e 61 7d 3c a3 27 a8 bd 84 dd df 3c
       -0.1041261 0.015465079 -0.08210685 0.027327307
0003c0 63 da d3 bd 03 5c 88 bd b8 a3 e4 3c 1d 10 ec bc
       -0.10344388 -0.06658175 0.027910098 -0.028816277
0003d0 69 a1 ae 3c 6f a6 10 bd bb 4e 03 bd ad c8 8a bc
       0.0213172 -0.035314973 -0.032057505 -0.016941393
0003e0 5f 23 9d 3d b9 c9 69 3d be f5 8f 3d af d7 e5 3d
       0.07672762 0.057077143 0.070292935 0.11222779
0003f0 21 b6 2b 3d d2 16 ab bd 5b 6f 8a 3c ce 69 96 3d
       0.04192174 -0.08353962 0.016898802 0.073443994

fc1.bias f4 [128]
000000 ea 8e c6 bb 3f e4 83 3d 20 16 b0 bd d4 14 2b 3d
       -0.006059517 0.06440019 -0.0859797 0.04176791
000010 eb cf ce bc 3e 67 af bd 9a e0 b4 3d 4a a4 d3 3d
       -0.025245627 -0.08564614 0.08831902 0.1033407
000020 38 dc 68 3d ec c5 83 3d ed af c6 bd 05 bc ae 3d
       0.056850642 0.06434235 -0.09701524 0.08531956
000030 58 41 86 3c 50 06 8a bc 97 2f ad bd 8c 51 20 ba
       0.01638858 -0.016848713 -0.08456343 -0.0006115667
000040 48 31 cd 3d 58 91 d8 3d a6 64 7e bd 70 fd dc bd
       0.10019165 0.10574597 -0.062107705 -0.10790527
000050 5c 11 97 3c c6 5f 28 3d 27 09 77 3c fd b2 75 bd
       0.018440895 0.04110696 0.015077866 -0.05998515
000060 d1 fb 67 3c 2f 4f 08 bb ef ed 66 bd 10 ad d4 3d
       0.014159159 -0.002079915 -0.056379255 0.103845716
000070 1a e5 63 bd a8 23 b1 3d 5c 9e 76 3d f7 10 fd 3a
       -0.05563841 0.08649379 0.060209617 0.0019307424
000080 37 23 e2 bc c1 e3 c4 bd b5 3e d2 bd c7 8e b7 bc
       -0.027604682 -0.09613753 -0.10265867 -0.022406949
000090 d0 ff 57 bd dc 1a 8b bd 74 e6 8d bb a6 ea ee bc
       -0.052734196 -0.067922324 -0.0043304507 -0.029164623
0000a0 94 54 25 bd 73 54 dc 3c 66 70 88 3d b9 c0 a5 bd
       -0.040363863 0.026895737 0.06662063 -0.080933996
0000b0 ff fc a0 bd 09 8f 58 bd 63 87 51 3d a7 14 04 3d
       -0.07860755 -0.052870784 0.051154505 0.032246258
0000c0 2d c6 a8 bd f1 77 d1 bd 10 67 f1 3c cd c6 50 3d
       -0.08240924 -0.10227955 0.02946809 0.05097084
0000d0 39 d4 b1 bd a2 74 d1 3d 7b 7c f8 bb f8 c3 ae bd
       -0.086830564 0.10227324 -0.0075831986 -0.08533472
0000e0 36 59 cc bd 0d 23 ab bb 46 31 c3 3d af 20 df bd
       -0.09977953 -0.0052226842 0.095308825 -0.10894906
0000f0 c4 95 b5 3d c2 f1 72 bd a2 22 d8 bd c1 56 b7 3d
       0.08866456 -0.05931259 -0.10553481 0.08952094
000100 03 2e 94 3d a5 4a 7c bd 58 8f ec bd 15 8f 3b 3c
       0.072353385 -0.061594624 -0.11550778 0.011447688
000110 ae ee 0e bd 35 f0 bf 3d 78 c1 83 3d be c2 b2 bd
       -0.03489559 0.09371988 0.064333856 -0.087285504
000120 dc 1e 5c 3c 95 ad a9 3c dc 57 b7 bd 79 e1 87 3d
       0.013435092 0.020712653 -0.08952305 0.06634802
000130 34 2d 8c 3d e6 d6 e0 bc ea cd c8 bd 7c 56 35 3c
       0.06844559 -0.027446222 -0.098049 0.011067983
000140 21 26 95 3b 4e 09 84 3c 3e 3e e3 3b a1 cb aa 3d
       0.0045516645 0.016117718 0.00693491 0.083396204
000150 16 c7 e8 bb 19 c3 b3 bc 25 12 ce 3d f9 93 46 3d
       -0.007103811 -0.021943616 0.100620545 0.04848096
000160 7f 66 25 bd 4a 78 52 3c f1 42 8c 3d 1b 77 c4 bd
       -0.04038095 0.012846062 0.068487056 -0.0959303
000170 1b 08 ab bc 53 13 36 bd 30 51 bd bd 43 19 c3 3d
       -0.020877888 -0.044452023 -0.09244001 0.09526303
000180 8a 28 c7 3c 24 04 c4 bd 4c ba 27 3b 92 e6 97 bd
       0.024311323 -0.09571102 0.002559322 -0.07417025
000190 bc 54 a2 3d 24 41 da 3d 79 5b 3a 3d 76 d9 c4 bd
       0.07926318 0.10656956 0.04549739 -0.0961179
0001a0 46 7e 95 bd ef 3b d8 bd 65 ec 5f bd be ce ae 3d
       -0.07299475 -0.105583064 -0.054668803 0.08535527
0001b0 c0 80 d2 bd b7 5a eb 3b 9c 85 66 bd ac 5d 94 bd
       -0.10278463 0.007182445 -0.056279764 -0.07244429
0001c0 4d d2 fc bc d3 d5 5a bd 89 73 b0 3d 73 bf bd 3d
       -0.030861998 -0.053426575 0.086157866 0.09265032
0001d0 5c 4f 96 3c 6e 03 a7 3c cf f4 9c 3d a8 e6 2e 3c
       0.018348388 0.020387378 0.07663881 0.01067511
0001e0 83 c5 47 3d d3 39 77 bd c6 b6 2e bd 93 7b 34 3d
       0.048772346 -0.06035788 -0.042654775 0.044063162
0001f0 24 fc 6f 3c 76 f4 04 bc ac 45 bc bd 79 80 c3 3d
       0.014647517 -0.008114925 -0.09192976 0.095459886

fc2.weight f4 [128, 128]
000000 60 83 3c bc f5 e0 a1 3d 0d d3 41 3d 00 71 c9 3c
       -0.011505932 0.07904235 0.047320414 0.024590015
000010 a2 65 3d bd d9 e5 32 3d 9c 44 a8 bd 02 d9 3f bd
       -0.046239503 0.04367623 -0.08216211 -0.046837814
000020 aa d3 99 3d eb b9 90 3c f9 d2 8c bc fc 28 2b bd
       0.07511075 0.017666778 -0.017190443 -0.041787133
000030 47 70 2e 3c 3a c1 48 bd dd 46 b4 3b d6 e8 6a 3d
       0.010646886 -0.0490124 0.0055016116 0.057350956
000040 42 3b 50 bc 6b ef fd 3c 7f fc 2e bc 98 5b c7 bc
       -0.012709441 0.030997952 -0.010680317 -0.024335667
000050 49 77 43 3d e8 9f ad bd d4 f4 be 3c 64 30 31 bd
       0.04772118 -0.08477765 0.023310103 -0.04325904
000060 e6 91 56 bc 94 1c 10 b9 1b 39 38 3d 9a 5f 51 bd
       -0.013096308 -0.00013743556 0.044976335 -0.051116563
000070 b9 19 46 3b bf df 63 bd 73 14 35 3d da 4a d1 bc
       0.0030227734 -0.055633303 0.044208955 -0.025548387
000080 e7 c1 9d 3d 65 dc 08 3d 3b 32 b4 bc 4d 4e 96 bd
       0.077029996 0.03341331 -0.021996608 -0.073391534
000090 77 61 14 3d 25 15 7a bd d1 ba cf 3c c6 cf 90 bd
       0.036225762 -0.06105532 0.025357636 -0.0707088
0000a0 b1 18 16 3d 89 4a 99 bc f2 ec de 3c 7b df a2 ba
       0.03664464 -0.018712299 0.027212594 -0.0012426222
0000b0 2b fa 83 bd d0 b7 55 bd af 16 74 bd f3 24 90 bc
       -0.064442 -0.05217725 -0.059591945 -0.017595744
0000c0 f0 15 8f 3c c4 84 35 ba 39 b1 86 3c 68 15 f1 3c
       0.017466515 -0.00069243857 0.016441928 0.029429153
0000d0 b0 49 36 bb 66 27 79 3d 5a 4a cf bc 47 c1 6d 3c
       -0.0027814917 0.06082859 -0.025304008 0.014511413
0000e0 df 2d 93 bc 2f 04 1d 3d a8 39 7d 3d b5 55 5c bd
       -0.017966209 0.038334068 0.061822563 -0.053792674
0000f0 f3 a6 94 bd 53 74 81 39 c2 f5 f9 bc 6a b1 10 bd
       -0.072584055 0.00024691466 -0.030512694 -0.035325445
000100 bf 1b 39 bd 12 45 8f 3d 62 b2 a9 3c 25 02 56 bc
       -0.045192476 0.06995596 0.020714942 -0.013062035
000110 1e 32 df bc e6 ab 8c 3d a3 f4 a4 bd 75 29 93 3d
       -0.027245577 0.068687245 -0.08054473 0.07185642
000120 dd 8a 78 3d ce 6e 4c 3d 6e 8d 5a bb e9 09 cc 3c
       0.060679305 0.04991036 -0.0033348459 0.02490707
000130 a8 01 8f 3b ba 75 73 3d 05 d1 94 3c 2c 45 00 3d
       0.004364211 0.059438445 0.018166075 0.031315967
000140 15 18 83 3b d1 26 85 3d 81 80 10 3d 88 7b 87 3d
       0.0040006735 0.06501544 0.0352788 0.066153586
000150 74 79 6f bd 36 3c a4 3d ec 99 04 3d 5c 5e a4 3d
       -0.058465436 0.08019297 0.032373354 0.0802581
000160 f3 18 4e 3b db 95 2e 3d 92 6e 94 bd 4a c3 a8 3c
       0.0031447976 0.042623382 -0.07247652 0.020600934
000170 77 64 61 bc e9 96 46 bd 8f 4b d5 3c 85 a1 a0 3d
       -0.013756863 -0.048483763 0.026037006 0.078433074
000180 1a af 4d bd 6b 14 c3 3c 0c 4d 66 3d 87 55 5d 3c
       -0.050215818 0.023813447 0.05622582 0.013509161
000190 61 af 63 bd 13 8c 49 bc 99 87 08 bd 84 5f 4e bd
       -0.055587176 -0.012301463 -0.03333244 -0.05038406
0001a0 a8 38 9b bd 14 14 3c ba 90 0b 92 ba 36 bd 8c 3a
       -0.07579166 -0.0007174623 -0.0011142362 0.0010737542
0001b0 3a f7 c9 ba c6 89 6f bd 03 7a 30 bb 20 6b d5 3c
       -0.0015408762 -0.058481 -0.0026928193 0.026052058
0001c0 b1 f0 49 3c 1c c5 2c 3d 05 4e b0 3d d2 45 bd bc
       0.012325452 0.042180166 0.08608631 -0.023104582
0001d0 1e 99 85 3b 6b e0 7c bd 9b 11 88 bd d7 95 5d bd
       0.004077091 -0.06173746 -0.06643983 -0.054097977
0001e0 15 12 96 bd 4d 10 19 3d b1 1f 08 3d 00 10 13 bc
       -0.073276676 0.03736906 0.03323335 -0.008975983
0001f0 bd 51 70 3d 12 3e ec 3c db 9b 8f bc 9b 92 7f bd
       0.0586717 0.028838191 -0.017530372 -0.062395673
000200 1c ce 6c 3d 2b 2f 43 bc 90 83 77 bd a7 2a b9 3c
       0.05781375 -0.011913101 -0.060428202 0.022603346
000210 30 6c 59 3d f3 65 af bd c6 33 ee 3c 99 81 9d 3d
       0.05308169 -0.08564367 0.029077422 0.076907344
000220 a1 16 ff 3c 2c de 7f 3c d5 3d ec bb 35 f7 34 3d
       0.03113872 0.015616935 -0.0072095194 0.044181067
000230 a8 4b 71 3d ab 14 4f bd 21 89 c9 ba a2 c3 3a bd
       0.058910042 -0.05055682 -0.0015375951 -0.045596726
000240 9a 1b 09 bd a4 72 6d 3d bb 52 c0 3c 83 63 6d bd
       -0.03347359 0.057970658 0.023476949 -0.05795623
000250 26 3f f5 bc af 3e b7 bd f5 a3 36 bd 10 b4 58 bb
       -0.029937338 -0.08947503 -0.044589955 -0.003306631
000260 ee 4c 85 bd 5b 9e 52 bd 41 23 00 bd 5d b5 b8 bc
       -0.06508814 -0.05142055 -0.03128362 -0.022547418
000270 c3 17 2b 3d e3 fb 65 bd b7 44 49 3d dd c7 0c bd
       0.041770708 -0.05614842 0.049137797 -0.034370292
000280 a2 9f b0 bd 8c 4c 8a 3d d0 77 8f 3c 2a 1c 50 3c
       -0.086241975 0.067528814 0.017513186 0.012702027
000290 14 46 e6 b8 20 8d c2 bd 3f 40 b7 bd 70 78 94 bc
       -0.00010980308 -0.09499574 -0.08947801 -0.018123835
0002a0 78 2b 79 bd 5d dd 70 3b 86 56 80 bd e2 0c b7 3c
       -0.06083247 0.0036753037 -0.06266503 0.02234501
0002b0 98 a9 a2 bc 8c 8c 6a 3c 2e 13 5d 3c d9 24 84 3d
       -0.01985626 0.014315736 0.013493342 0.06452341
0002c0 da 87 14 3d 91 99 99 bd f8 ad 6e 3d 73 dd 71 bb
       0.03626237 -0.074999936 0.05827138 -0.0036905676
0002d0 b5 8f dd 3c cf da 40 bb 32 bf 7a bd cc ed b3 bc
       0.027046064 -0.0029427295 -0.061217494 -0.021963976
0002e0 da 90 54 3d 46 47 85 3d 86 24 d3 bc f9 cb 45 3d
       0.051895954 0.06507735 -0.025774252 0.048290227
0002f0 52 be 85 bd ca 51 0f 3d fa 64 94 3d 4c 26 84 3d
       -0.06530441 0.03499011 0.07245822 0.06452617
000300 31 66 34 3d 9a 36 6d 3d 70 f6 a0 3d 4c 3d 8e bd
       0.04404277 0.0579134 0.07859504 -0.06945285
000310 06 e3 ab bd f4 2d ab 3d 07 04 10 bd 82 34 05 bd
       -0.08392911 0.08358374 -0.03516009 -0.03252078
000320 8a f5 5e bc 8a c7 52 3c b6 ae a1 3d d8 97 8a 3d
       -0.013608346 0.012864957 0.078946516 0.06767243
000330 10 5d 5f bd 06 05 b8 bc e6 14 64 3d 85 8f 6a bd
       -0.05453211 -0.022463333 0.055683993 -0.057265777
000340 76 07 80 bb cf a9 b0 bd 9b 07 fc 3c 8e 69 a7 bd
       -0.0039071394 -0.086261384 0.030765345 -0.0817443
000350 a3 31 a8 3c a7 5c 8b bc 39 50 66 bc 41 95 24 3c
       0.020531481 -0.017011954 -0.0140572125 0.0100453505
000360 a9 06 9c bd 3c f6 12 3d 1b 00 be 3c 4e a3 ba 3c
       -0.07618458 0.03587936 0.02319341 0.022782948
000370 d4 4a 10 3d 7b 6e 07 bd ea 62 07 bd 70 a5 9f bd
       0.03522761 -0.033064347 -0.033053316 -0.077952266
000380 79 ae 86 3d 12 bd 90 bd 10 b4 5c bd 37 08 3e bd
       0.06576247 -0.07067312 -0.05388266 -0.046394553
000390 ed 12 52 bd 0f 69 4e 3d 50 11 ce bc 5f 8f 64 bd
       -0.05128758 0.05039316 -0.02515474 -0.05580079
0003a0 0f 15 b0 3c f7 5e 91 3d 03 92 23 3d 1d c6 a5 3d
       0.021494417 0.07098191 0.03993417 0.08094428
0003b0 de 36 5e 3d 64 06 6a 3c cf 07 87 bd 65 10 e2 3c
       0.054251544 0.01428375 -0.06593286 0.027595708
0003c0 c2 8d 8f 3d 0e 61 57 bd db 52 d6 bb 59 a9 98 3c
       0.0700946 -0.052582793 -0.006540639 0.018635439
0003d0 f3 7d 97 3d 30 13 53 bd 38 89 cb 3c 08 be 60 bd
       0.0739707 -0.05153197 0.024845704 -0.054868728
0003e0 86 2a aa bd cd bd c3 3c b2 a6 01 3d c8 f5 9a bd
       -0.08308892 0.023894215 0.031653114 -0.0756641
0003f0 f6 79 9f 3d 71 7e 65 bd 49 99 99 bd 23 6b 67 bd
       0.07786934 -0.056028787 -0.0749994 -0.056498658

fc2.bias f4 [128]
000000 ea 6f 8d 3c 1f 96 c6 3c 54 8e e9 3c 38 ab 01 bb
       0.017265279 0.024241505 0.02851025 -0.0019785892
000010 60 e9 b2 3d ae 8d 77 bd 07 50 13 bd 2a 8f b1 bd
       0.08735919 -0.06043785 -0.035964992 -0.086698845
000020 09 99 43 3d be 5a 3a bc db b8 00 bc b2 8e 8f bd
       0.047753368 -0.011374174 -0.007856573 -0.07009639
000030 cb 58 4c bd f7 80 a0 3d af 8b 9d 3c 99 28 7c bd
       -0.049889367 0.07837098 0.019231645 -0.061562154
000040 52 bf 86 3d fe 73 1b 3d e0 a8 94 bc 93 1c 15 3d
       0.0657946 0.037952416 -0.018146932 0.036404204
000050 93 74 7c 3c 5a f8 ac 3d 03 2f a2 3b a0 37 8b 3d
       0.015408653 0.08445807 0.004949452 0.06797719
000060 ee 5e 0b 3d 15 67 aa 3d 87 1c 27 bd 7a 40 18 3d
       0.03402608 0.083204426 -0.04079869 0.037170865
000070 8c 6f e2 bc e0 23 5b 3d 0a 08 1e bd 01 b1 64 3d
       -0.02764108 0.05350101 -0.038581885 0.055832867
000080 ba fa 86 3d ac 12 73 bd 0b df 99 3d 84 61 ab bd
       0.06590791 -0.05934398 0.07513245 -0.08368209
000090 5a de 84 3c 8c 9d b5 39 e4 71 a0 3d b1 12 01 3d
       0.016219307 0.00034640392 0.07834223 0.031511966
0000a0 bb 07 37 3d e5 bd 8f bd 8d c6 0c 3d 05 d7 e3 bc
       0.044685107 -0.070186414 0.03436904 -0.02781249
0000b0 85 2f 96 bd cd c8 ab 3c 50 aa c0 bc aa 89 2f 3a
       -0.073332824 0.020969773 -0.023518711 0.0006696234
0000c0 bb 37 09 3d c9 df 85 3c c9 7e 0e bd 2d 53 b0 3d
       0.033500414 0.01634206 -0.03478888 0.086096145
0000d0 a3 74 a3 3b 3e ea c8 3c 79 46 f3 bc 41 3a 72 bd
       0.0049882694 0.024525758 -0.02969669 -0.059137587
0000e0 d3 8c ca bc b9 dc 64 3d 0f 82 0e bc 2e 07 a3 3d
       -0.024725353 0.05587456 -0.008698001 0.07960354
0000f0 2f d6 a9 3c ec 2c af bd 59 b6 a0 bb d0 92 a3 bd
       0.020732014 -0.0855349 -0.00490455 -0.07986987
000100 4e 2a 68 bc 97 e1 16 3d cb b6 42 bd 86 9a 16 3d
       -0.0141702425 0.036836233 -0.047537606 0.03676846
000110 10 06 9a 3c 8b fc f5 bc 1d f3 b7 bc a5 74 51 bc
       0.018801719 -0.030027648 -0.022454793 -0.012784158
000120 94 8d 41 3d ee 38 e5 bc 4e 63 9e 3c 65 ee 9a 3d
       0.04725416 -0.027981248 0.019334462 0.075650014
000130 25 fe 3c bd 45 63 62 3c 29 f7 3c bc 05 63 5e bd
       -0.04614081 0.013817613 -0.011533537 -0.05429365
000140 a0 88 4a 3d ab 38 10 3d 14 57 93 3c 2e 25 50 3c
       0.049446702 0.035210293 0.017985858 0.012704177
000150 8e 79 12 bc dc f4 ca bc 5a 1e 9f bc 20 e6 49 bd
       -0.008940114 -0.024774961 -0.019423652 -0.04929173
000160 62 ea 95 bb d6 0b 6d bd 1a bf 3a 3d a2 cc 7b bd
       -0.0045750597 -0.057872616 0.045592405 -0.06147445
000170 cc d8 21 bc c3 4e e4 bc 13 ad ad bd 91 f2 3f 3c
       -0.009878349 -0.027869588 -0.08480277 0.011715547
000180 92 55 9a bd 42 82 fe bc 9f 48 a4 3d 64 8c db 3a
       -0.075358525 -0.031067971 0.08021664 0.0016750214
000190 b6 fe 91 3c b9 ab ab 3d d9 6e 95 3d 44 d5 2c bd
       0.017821651 0.08382363 0.07296533 -0.042195573
0001a0 9d 68 54 bd b8 f9 f6 bc 96 c2 32 3d e6 75 6f bd
       -0.05185758 -0.030148372 0.043642603 -0.058462046
0001b0 31 f7 b2 3c 5b a5 92 bd ab ce 1d 3d 4b 8c db bb
       0.021846386 -0.07160445 0.038527172 -0.006700074
0001c0 a0 9a 39 bd 55 86 8d bd 26 e4 ae bd 06 79 99 3d
       -0.045313478 -0.069103874 -0.085396096 0.074937865
0001d0 92 13 a8 bd 40 44 9e bc 74 c3 43 bd d7 45 96 bd
       -0.08206858 -0.019319654 -0.04779382 -0.0733754
0001e0 31 a5 a9 bd d7 40 8e 3d 34 7e 56 3d b4 17 ce ba
       -0.08283461 0.06945961 0.05236645 -0.0015723617
0001f0 bb 4b a7 3d 9f f2 79 3b a3 24 20 bc 89 25 55 3d
       0.08168741 0.0038138998 -0.00977436 0.05203775
