saved_models/episode_0/agent_9.pth (torch, 738018 bytes, 44 tensors)

fc1.weight f4 [128, 5]
0.1870773 0.070748985 -0.31569535 -0.1941469 0.06957463 -0.03644031 0.0318559 -0.20556377
-0.19340314 0.28510007 -0.2966626 -0.2570928 0.22351883 0.17552288 0.24588493 0.08890669
0.063975744 0.43496123 -0.122734495 0.0807041 -0.20544851 -0.112270035 -0.075659454 -0.073699385
-0.075324595 0.4048796 -0.031358324 -0.07307573 0.1259128 -0.36275575 0.30141062 0.31447786
-0.29752573 -0.06119442 -0.11886287 0.20861278 -0.029459814 0.10896145 0.20299375 0.015875092
-0.32273525 -0.32023686 -0.14927843 0.19993722 0.07363967 0.4030457 0.20053843 -0.041060686
0.24727589 -0.14944664 0.0146173015 0.12385639 0.29492325 -0.33508772 0.09981566 -0.31159237
0.04946404 0.03136442 0.33612752 -0.06654624 -0.36927393 -0.26584637 0.21775542 -0.055281468
0.13368681 0.4306269 -0.42721406 0.26262873 0.029327845 -0.095285684 -0.063235566 -0.2205615
-0.30714315 -0.36553815 0.1668399 -0.38779256 0.35071415 0.22615784 -0.28878132 -0.392657
0.19481628 0.41856784 -0.34519163 -0.16083066 -0.25361294 0.044719502 -0.35846245 0.017914405
0.3816035 -0.377977 0.1334044 -0.13443719 0.11472025 0.036484923 0.3705121 0.42573163
0.13720405 0.38837945 -0.3211927 0.11193359 0.32693964 -0.050451744 0.3709291 -0.18593444
0.22324555 -0.39209628 0.006837639 -0.3923266 -0.39486006 0.042730168 0.024902621 0.0013320447
0.31580257 -0.032914374 0.409807 -0.0056030927 -0.2434548 -0.41215375 0.03685097 0.42108282
0.36919165 0.007874572 -0.20087403 -0.03336909 -0.4422389 -0.23358668 0.004608188 -0.38906065
0.0939534 -0.4439809 0.37674016 0.40538177 0.39551893 0.03327228 0.43800038 0.2969647
-0.15300095 -0.054213572 -0.03560139 -0.2849322 -0.034071654 -0.29921886 0.032263737 0.046319503
0.13836281 -0.34566805 0.33676898 0.40714985 -0.30503651 0.09396546 0.12419593 0.2077477
-0.13297482 -0.43629998 -0.18491918 0.3120018 -0.36820987 -0.36374798 -0.16789623 0.10255104
0.2188089 -0.0006478039 -0.1626539 0.41535962 -0.11291868 0.44119415 -0.070171885 0.039584618
0.010972409 0.06938196 0.380087 0.12753125 -0.0066631897 0.38479197 -0.07399771 0.40021262
0.41496345 0.11210781 0.1780868 0.18766384 -0.39851296 0.0775597 0.25712666 -0.18453981
-0.25449246 0.139574 0.17515098 -0.16081372 -0.22366235 -0.33336446 -0.0688417 0.20813444
-0.083464816 0.13546622 0.013855953 -0.3050784 0.34351385 0.31069672 0.40983328 0.069764264
-0.1269849 -0.24891235 -0.09953812 0.19555327 0.43087596 -0.24178086 -0.25754207 -0.093801156
-0.09758551 -0.27497813 -0.2673956 -0.2522188 -0.26388568 -0.39923587 -0.3215238 -0.37172607
-0.13496634 0.34755355 -0.3363053 -0.40627328 0.05715325 -0.30583316 -0.13875875 -0.13300309
-0.2608671 -0.06749621 -0.0068264967 0.004790458 -0.0069602034 -0.32224688 -0.36164892 0.17766115
-0.047081772 0.15888862 -0.23227511 -0.23136075 0.33961186 0.012810913 0.074939094 -0.3687946
0.26954162 0.23288622 0.10220088 0.014841163 0.39497223 -0.17404598 0.1726756 0.16169827
-0.23148008 0.15616518 0.074448146 -0.36401278 0.43187168 -0.14478429 0.17957571 0.3146015
00000000: 3191 3f3e d8e4 903d d2a2 a1be 72ce 46be
00000010: 257d 8e3d 6f42 15bd 557b 023d 4f7f 52be
00000020: 790b 46be a3f8 913e 29e4 97be aba1 83be
00000030: 1fe2 643e 45bc 333e 42c9 7b3e b614 b63d
00000040: b705 833d 3db3 de3e 395c fbbd 3148 a53d
00000050: 1861 52be d5ed e5bd 58f3 9abd b4ef 96bd
00000060: c843 9abd 614c cf3e 9671 00bd baa8 95bd
00000070: 49ef 003e 1fbb b9be 7e52 9a3e 3e03 a13e
00000080: 4b55 98be 00a7 7abd 606e f3bd 979e 553e
00000090: b555 f1bc 2e27 df3d 98dd 4f3e 7b0c 823c
000000a0: 8e3d a5be 16f6 a3be 72dc 18be 58bc 4c3e
000000b0: 65d0 963d 025c ce3e f259 4d3e 402f 28bd
000000c0: e435 7d3e 8a08 19be 687d 6f3c 6ba8 fd3d
000000d0: 2e00 973e 9e90 abbe 276c cc3d 0989 9fbe
000000e0: ce9a 4a3d fa77 003d e818 ac3e 6549 88bd
000000f0: 7911 bdbe 041d 88be 47fb 5e3e d26e 62bd
00000100: 32e5 083e 217b dc3e cdbb dabe 4677 863e
00000110: f340 f03c 2425 c3bd a681 81bd e0da 61be
00000120: de41 9dbe d127 bbbe 14d8 2a3e bf8c c6be
00000130: ce90 b33e ec95 673e 25db 93be 570a c9be
00000140: eb7d 473e 864e d63e f5bc b0be cbb0 24be
00000150: 8ed9 81be cc2b 373d 6488 b7be 3bc1 923c
00000160: 8961 c33e 3486 c1be 2a9b 083e e7a9 09be
00000170: 73f2 ea3d 3771 153d c3b3 bd3e 7ff9 d93e
00000180: 387f 0c3e acd9 c63e 5f73 a4be 703d e53d
00000190: a264 a73e 7da6 4ebd 6bea bd3e 9965 3ebe
000001a0: 7b9a 643e d8c0 c8be 460e e03b 08df c8be
000001b0: 192b cabe d405 2f3d 9500 cc3c 0198 ae3a
000001c0: e0b0 a13e 39d1 06bd 39d2 d13e 269a b7bb
000001d0: 374c 79be d105 d3be 0bf1 163d 2b98 d73e
000001e0: b006 bd3e 5904 013c ecb1 4dbe 07ae 08bd
000001f0: 236d e2be 5931 6fbe 4800 973b f532 c7be
00000200: a46a c03d 7751 e3be 16e4 c03e 338e cf3e
00000210: 7581 ca3e 8448 083d 9641 e03e c20b 983e
00000220: 48ac 1cbe 0d0f 5ebd c3d2 11bd a2e2 91be
00000230: b88e 0bbd 3733 99be fb26 043d 85b9 3d3d
00000240: fbae 0d3e 67fb b0be fc6c ac3e f275 d03e
00000250: bf2d 9cbe f770 c03d 705a fe3d d0bb 543e
00000260: 8d2a 08be b662 dfbe 745b 3dbe b3be 9f3e
00000270: 0186 bcbe 2d3d babe fdec 2bbe 4806 d23d
00000280: 710f 603e 62d1 29ba be8e 26be 04aa d43e
00000290: e941 e7bd 33e4 e13e 47b6 8fbd 7b23 223d
000002a0: 9ec5 333c 2118 8e3d c39a c23e 8d97 023e
000002b0: e356 dabb 7403 c53e 1d8c 97bd abe8 cc3e
000002c0: 1776 d43e c898 e53d 635c 363e f32a 403e
000002d0: e409 ccbe 9fd7 9e3d 1ba6 833e 01f8 3cbe
000002e0: d64c 82be 7dec 0e3e c75a 333e 5aac 24be
000002f0: be07 65be bfae aabe e1fc 8cbd 3221 553e
00000300: 9aef aabd a8b7 0a3e 1404 633c 3c33 9cbe
00000310: 0ce1 af3e a413 9f3e abd5 d13e 91e0 8e3d
00000320: 5408 02be e1e2 7ebe a4da cbbd 1e3f 483e
00000330: c69b dc3e 6795 77be 8edc 83be d21a c0bd
00000340: e9da c7bd efc9 8cbe 13e8 88be d322 81be
00000350: 061c 87be a568 ccbe c49e a4be e152 bebe
00000360: 9e34 0abe 8af2 b13e 3530 acbe 0d03 d0be
00000370: 8719 6a3d 2a96 9cbe c616 0ebe f631 08be
00000380: 5f90 85be 743b 8abd ceb0 dfbb 46f9 9c3b
00000390: 6b12 e4bb 8bfd a4be 0c2a b9be ceec 353e
000003a0: d1d8 40bd b3b3 223e 87d9 6dbe d5e9 6cbe
000003b0: 9be1 ad3e dde4 513c ab79 993d a5d2 bcbe
000003c0: 5c01 8a3e ba79 6e3e b24e d13d 5928 733c
000003d0: cd39 ca3e 1c39 32be dfd1 303e 3b94 253e
000003e0: 1d09 6dbe c4e9 1f3e 4578 983d e25f babe
000003f0: 491e dd3e 5542 14be b2e2 373e 7313 a13e

fc1.bias f4 [128]
0.24366122 -0.3208058 -0.14876457 0.10335014 0.33732495 0.3321996 -0.031467073 -0.016839031
-0.31357577 -0.42886174 -0.009301241 0.13156864 0.19459173 -0.2983806 0.056649134 0.20108916
0.23129275 -0.14483564 0.18261313 0.0201165 -0.08757284 0.3647672 -0.1461615 -0.0028099697
0.0832998 0.30075514 -0.12271012 0.34579575 0.15407269 -0.27424482 -0.06379481 0.37662667
-0.27680922 -0.17906803 -0.19688384 0.09655806 -0.06879702 -0.15240124 -0.0008670323 0.34104812
-0.05887283 -0.2601881 0.1637058 -0.24082679 -0.40276635 -0.14155923 0.052664988 0.27587688
0.3650367 0.40900454 0.2076263 0.240391 -0.3515181 -0.24986254 0.20556015 0.20702447
-0.2577757 -0.19124427 -0.34530002 0.07797274 -0.38388756 -0.3415438 0.24462053 -0.40172315
-0.048214905 0.030419035 0.1434864 -0.12448366 -0.10679747 0.06930632 0.2568476 0.07747159
-0.14517118 0.22580175 -0.069040015 -0.32893094 -0.25427234 -0.12952879 -0.24198413 0.2262495
-0.12920617 -0.009791832 -0.052696154 0.4163061 0.10929668 0.27437854 0.14782076 0.10009624
-0.013703533 -0.18728766 0.11238722 -0.17508198 -0.023296388 0.22665682 0.1764745 -0.40379414
-0.25187406 0.27518287 -0.41063014 -0.23703101 0.4063098 0.21895917 0.32286054 -0.0602687
0.104101904 -0.1936926 -0.3919805 -0.22831549 -0.42261714 -0.050266307 -0.12763014 0.30773836
-0.038993075 0.15261401 0.04338121 0.05571529 -0.044723663 -0.106373206 0.4152203 0.14887743
0.1961262 -0.427915 -0.3040846 0.2803751 0.07070366 -0.23969588 0.20612733 -0.22748338
00000000: 5482 793e a840 a4be bd55 18be 3da9 d33d
00000010: dbb5 ac3e 1116 aa3e 9ee3 00bd 02f2 89bc
00000020: 018d a0be c493 dbbe 3b64 18bc eeb9 063e
00000030: 0e43 473e 58c5 98be ec08 683d 51ea 4d3e
00000040: 02d8 6c3e cb4f 14be f0fe 3a3e 5ccb a43c
00000050: 6459 b3bd c4c2 ba3e 5cab 15be 7827 38bb
00000060: 1699 aa3d 94fc 993e 724f fbbd 240c b13e
00000070: 3bc5 1d3e d169 8cbe daa6 82bd 36d5 c03e
00000080: f0b9 8dbe 9c5d 37be eb9b 49be 3bc0 c53d
00000090: 74e5 8cbd 120f 1cbe 8d49 63ba dc9d ae3e
000000a0: a324 71bd 6037 85be 7ea2 273e 4c9b 76be
000000b0: 6437 cebe e7f4 10be 3eb7 573d bc3f 8d3e
000000c0: 17e6 ba3e 0b69 d13e fd9b 543e 0f29 763e
000000d0: 2efa b3be f7db 7fbe 5c7e 523e 39fe 533e
000000e0: 2dfb 83be 8ad5 43be 2acb b0be 2cb0 9f3d
000000f0: e98c c4be d4de aebe ce7d 7a3e a8ae cdbe
00000100: fe7c 45bd 5731 f93c 19ee 123e 4af1 febd
00000110: a2b8 dabd 79f0 8d3d 8781 833e 6da9 9e3d
00000120: c1a7 14be 9338 673e da64 8dbd a369 a8be
00000130: fc2f 82be 32a3 04be b0ca 77be f3ad 673e
00000140: 9f4e 04be ec6d 20bc ecd7 57bd 1326 d53e
00000150: f0d6 df3d 587b 8c3e 535e 173e 42ff cc3d
00000160: c984 60bc 56c8 3fbe 452b e63d b148 33be
00000170: 11d8 bebc ba18 683e bbb5 343e 1bbe cebe
00000180: a3f5 80be c5e4 8c3e 1d3e d2be 42b8 72be
00000190: d707 d03e d536 603e fa4d a53e 50dc 76bd
000001a0: 6133 d53d 5a57 46be abb1 c8be 89cb 69be
000001b0: 4661 d8be 0be4 4dbd 7ab1 02be e28f 9d3e
000001c0: 34b7 1fbd d946 1c3e 7fb0 313d b735 643d
000001d0: 2930 37bd 32da d9bd c197 d43e 5373 183e
000001e0: 4ed5 483e ad17 dbbe fab0 9bbe 538d 8f3e
000001f0: 15cd 903d d672 75be 0b13 533e 67f1 68be

fc2.weight f4 [128, 128]
0.040968202 0.07170413 -0.024675062 -0.09542086 0.077954926 0.025371052 -0.08728074 0.015623856
-0.050056577 -0.04870763 0.025591513 0.07924616 -0.028988507 -0.07454129 0.056177005 -0.031046163
0.07093345 -0.039938167 0.07625457 -0.035305787 0.05101848 -0.006974987 -0.062196083 -0.04086045
-0.067057 -0.05314711 0.06745193 -0.030367257 -0.03886523 -0.09627081 -0.085898444 -0.0838184
-0.06887296 0.08701731 0.0028279184 0.054744687 0.044079546 -0.050724257 0.009359538 0.009779823
0.081393614 0.0063791783 -0.01624665 -0.006072381 -0.0003261534 -0.008713207 -0.06916935 -0.019049276
-0.09464441 0.018307948 0.030944373 -0.0022664194 -0.06712531 -0.014313565 0.047755286 0.044757493
-0.057940334 -0.019084008 -0.0037418425 0.07932778 -0.0027831914 -0.007702427 -0.04286989 0.015419182
0.085578114 -0.025680043 0.05774841 -0.0052500116 -0.07171431 -0.046202097 -0.004398108 0.018111177
0.035975624 -0.057248395 0.07379225 -0.056899585 -0.07024029 0.05907714 -0.008805854 0.02157034
-0.06052655 -0.06537972 -0.046911992 0.04828938 0.0029657688 0.0046367617 -0.08755285 0.024055747
-0.0044638254 0.0016694472 -0.03636375 -0.010824996 0.028107062 0.06746408 0.013246965 0.047347695
0.040703766 -0.056830138 0.08650399 -0.023404881 -0.030156711 0.07374094 -0.02747625 0.012748168
-0.008246336 0.0074322554 -0.06851044 -0.054393414 0.028269777 -0.032902084 -0.08125625 0.05180875
0.023803359 -0.02695452 -0.005503894 -0.041018616 0.004914122 -0.026549675 0.029272793 0.0343291
-0.0005969701 0.06345845 -0.07451054 -0.045077227 -0.040658146 0.03683528 0.027082738 -0.0678056
0.08098734 0.009997896 -0.08334049 0.07563962 0.041379176 -0.03221896 -0.041436274 -0.06033826
0.05464205 -0.05913211 0.08501453 0.066401124 -0.029734727 -0.062152985 0.056093283 0.08780274
-0.056867447 0.022209007 -0.064446375 0.05460316 -0.066410884 0.05694936 -0.03260007 -0.010859346
0.07661218 -0.086567305 -0.08818884 -0.07404335 0.057577357 -0.021880157 0.0840648 -0.013664704
0.012764415 0.040763967 0.014621795 0.003133007 -0.026212147 -0.04615356 -0.028600914 -0.0054200636
0.05199687 -0.010118025 0.060141224 0.040678218 0.021672742 -0.004278906 0.07603265 0.05784266
-0.034360524 0.030447137 -0.059117783 0.035309248 -0.07863778 -0.060675435 -0.08120804 -0.08190663
0.020300124 -0.03845922 0.030246306 0.06302729 0.08097342 0.0369839 0.057760622 -0.07130285
-0.06119738 0.081158705 0.057955403 0.024660857 0.016379561 0.022014573 0.014851432 -0.0053097126
0.022513751 -0.01507872 -0.00035454982 0.018450668 0.03381527 -0.027677055 -0.06773729 0.030375201
0.022392135 -0.07392742 -0.045837384 -0.012237052 -0.0044855624 0.085676976 -0.040365152 0.05370971
-0.07929125 -0.07058633 0.05133189 -0.042675264 -0.046974644 -0.021537451 -0.052465376 -0.037965376
-0.069027215 0.05201688 -0.01572914 0.07473528 -0.018921448 0.08806935 -0.05520588 0.07455714
0.08089636 -0.06469792 0.043429956 0.054233417 0.04099289 -0.023199826 -0.048639085 -0.0017249229
0.0392209 0.03421477 -0.005646687 0.087585226 -0.023388013 0.03907329 0.08808044 0.05629019
0.03889036 -0.025768235 -0.023765154 -0.05739621 -0.04340377 -0.030702936 -0.03059483 -0.010243496
00000000: 46ce 273d 9dd9 923d 5b23 cabc 036c c3bd
00000010: d5a6 9f3d f4d6 cf3c 3fc0 b2bd 34fb 7f3c
00000020: 2008 4dbd a781 47bd 4ba5 d13c d04b a23d
00000030: 4e79 edbc 1ba9 98bd dc19 663d 8654 febc
00000040: 8e45 913d 3496 23bd 5b2b 9c3d cd9c 10bd
00000050: c1f8 503d 6f8e e4bb 52c1 7ebd 4a5d 27bd
00000060: 2e55 89bd c9b0 59bd 3d24 8a3d c1c4 f8bc
00000070: 2631 1fbd a129 c5bd 86eb afbd fba8 abbd
00000080: 440d 8dbd 2236 b23d 9954 393b f73b 603d
00000090: c18c 343d 3dc4 4fbd bf58 193c 8d3b 203c
000000a0: b2b1 a63d 6d08 d13b b217 85bc d3fa c6bb
000000b0: 91ff aab9 d7c1 0ebc a9a8 8dbd 3a0d 9cbc
000000c0: eed4 c1bd 8dfa 953c 0e7f fd3c 3588 14bb
000000d0: ff78 89bd 7183 6abc 0c9b 433d a253 373d
000000e0: d852 6dbd 1156 9cbc b339 75bb 9a76 a23d
000000f0: 3466 36bb a464 fcbb 5698 2fbd bda0 7c3c
00000100: 9443 af3d f45e d2bc 9989 6c3d 4a08 acbb
00000110: f4de 92bd 693e 3dbd 011e 90bb e45d 943c
00000120: 2d5b 133d 4b7d 6abd 6420 973d 8a0f 69bd
00000130: 24da 8fbd dffa 713d 6e46 10bc 48b4 b03c
00000140: b0ea 77bd cde5 85bd ca26 40bd 16cb 453d
00000150: 585d 423b faef 973b e94e b3bd 8f10 c53c
00000160: 4845 92bb 5ad1 da3a 28f2 14bd 535b 31bc
00000170: c840 e63c 9c2a 8a3d cc09 593c a8ef 413d
00000180: feb8 263d b8c6 68bd 0129 b13d 98bb bfbc
00000190: 350b f7bc 7d05 973d df15 e1bc b1dd 503c
000001a0: a41b 07bc 478a f33b 344f 8cbd a1cb 5ebd
000001b0: 0596 e73c 56c4 06bd ad69 a6bd 6935 543d
000001c0: 43ff c23c bacf dcbc 025a b4bb 2303 28bd
000001d0: a506 a13b b47e d9bc 7fcd ef3c ac9c 0c3d
000001e0: fc7d 1cba 81f6 813d fb98 98bd e6a2 38bd
000001f0: 2889 26bd 97e0 163d 9edc dd3c aadd 8abd
00000200: b1dc a53d 37ce 233c 6bae aabd f2e8 9a3d
00000210: 367d 293d 07f8 03bd 15b9 29bd 4025 77bd
00000220: 58d0 5f3d 8334 72bd 191c ae3d 50fd 873d
00000230: 3e96 f3bc 2194 7ebd 12c2 653d ecd1 b33d
00000240: d7ed 68bd aaef b53c 76fc 83bd 90a7 5f3d
00000250: 6e02 88bd bb43 693d a787 05bd 66eb 31bc
00000260: d9e6 9c3d 334a b1bd 5a9c b4bd 0aa4 97bd
00000270: 3cd6 6b3d 043e b3bc 2a2a ac3d ece1 5fbc
00000280: d621 513c 1ef8 263d 4190 6f3c 2353 4d3b
00000290: dbba d6bc 840b 3dbd 774c eabc ca9a b1bb
000002a0: acfa 543d 13c6 25bc a556 763d 349e 263d
000002b0: 098b b13c 1136 8cbb 02b7 9b3d 6dec 6c3d
000002c0: 9fbd 0cbd 466c f93c 7d25 72bd 6ea0 103d
000002d0: d80c a1bd ce86 78bd 6750 a6bd aabe a7bd
000002e0: 724c a63c 6a87 1dbd 1ac7 f73c 7414 813d
000002f0: 64d5 a53d 6e7c 173d 6796 6c3d 3b07 92bd
00000300: 1baa 7abd 8936 a63d a562 6d3d 9105 ca3c
00000310: 6e2e 863c e857 b43c 6c53 733c 19fd adbb
00000320: c26e b83c bc0c 77bc dfe2 b9b9 db25 973c
00000330: e181 0a3d feba e2bc d9b9 8abd 6ad5 f83c
00000340: b66f b73c 4267 97bd fbbf 3bbd eb7d 48bc
00000350: a0fb 92bb 6977 af3d ee55 25bd b6fe 5b3d
00000360: 7363 a2bd 918f 90bd 6341 523d 42cc 2ebd
00000370: 7c68 40bd 4f6f b0bc efe5 56bd 9581 1bbd
00000380: 245e 8dbd a70f 553d 66da 80bc cf0e 993d
00000390: 2701 9bbc b45d b43d 901f 62bd 6ab1 983d
000003a0: feac a53d 5880 84bd 9ce3 313d dc23 5e3d
000003b0: 29e8 273d 900d bebc c739 47bd cf16 e2ba
000003c0: 18a6 203d c924 0c3d d807 b9bb e25f b33d
000003d0: 3898 bfbc 500b 203d 8563 b43d 8b90 663d
000003e0: 804b 1f3d e817 d3bc 24af c2bc 4a18 6bbd
000003f0: 27c8 31bd b984 fbbc 02a2 fabc 56d4 27bc

fc2.bias f4 [128]
-0.09150971 0.029028863 0.06670177 -0.020159844 -0.053929716 0.020993492 0.021838332 0.03214802
0.060582004 0.07116508 0.014387026 0.05488331 -0.08177633 -0.007659947 0.0023763946 -0.052821606
0.070595935 0.08683377 0.010256099 -0.040759288 -0.01475264 0.07073438 0.089504816 0.02018452
0.024988597 0.012073562 0.06895244 0.030883683 0.056182455 -0.034025762 -0.017791707 0.042992264
-0.009527517 0.08656308 -0.0075119836 -0.046945654 0.08479076 -0.009776761 0.06877974 0.0507838
0.035750117 -0.027043788 -0.074085094 -0.04864854 0.04390341 -0.06220995 0.08116761 0.07917769
0.03687102 -0.07294415 -0.056487944 -0.072814554 -0.062040057 0.024920989 -0.061250165 0.07047448
0.04032778 0.0016166603 -0.06566317 -0.014872168 0.04114686 0.06927145 -0.051067334 -0.058086984
0.04242255 -0.08346097 0.071140096 -0.07435195 -0.05628952 0.044894505 -0.0046210764 -0.025824096
0.009267698 0.019981556 0.06339186 -0.011440304 -0.041951403 -0.047955167 0.075116694 -0.06211086
0.0579904 -0.08577852 0.077526025 -0.02981254 -0.074957795 0.055455714 0.06115415 -0.063391715
0.09149341 0.024981007 -0.026897771 -0.013030836 0.075101204 -0.082123995 0.001496365 0.013639257
-0.05688556 -0.04492029 0.07067094 0.004045297 -0.08180546 -0.046804644 0.062057156 0.0040283552
0.010833984 0.063433155 -0.0037272354 -0.036842942 0.022024794 -0.05297978 -0.04641754 0.03498074
0.079152584 -0.06866933 0.062461417 -0.0399452 0.062113162 -0.0054927743 -0.08887319 0.08152129
-0.041831147 -0.044808894 -0.05715231 -0.052143995 0.04521866 -0.08338959 0.06322948 -0.05052898
00000000: 7169 bbbd f0cd ed3c f09a 883d 4226 a5bc
00000010: 68e5 5cbd 8bfa ab3c 4de6 b23c a4ad 033d
00000020: d624 783d ffbe 913d 90b7 6b3c 52cd 603d
00000030: 597a a7bd 4b00 fbbb 49bd 1b3b 785b 58bd
00000040: 9a94 903d e7d5 b13d 3209 283c 36f3 26bd
00000050: 0fb5 71bc 30dd 903d 4d4e b73d 025a a53c
00000060: e3b4 cc3c 30d0 453c f036 8d3d c7ff fc3c
00000070: 931f 663d 995e 0bbd eabf 91bc a818 303d
00000080: 4d19 1cbc fc47 b13d 1627 f6bb 164a 40bd
00000090: c7a6 ad3d b52e 20bc 64dc 8c3d ad02 503d
000000a0: b76e 123d ef8a ddbc edb9 97bd b143 47bd
000000b0: 10d4 333d dccf 7ebd 343b a63d ea27 a23d
000000c0: 1106 173d be63 95bd e75f 67bd cc1f 95bd
000000d0: b71d 7ebd 1a27 cc3c 74e1 7abd ed54 903d
000000e0: be2e 253d 1ee6 d33a 697a 86bd 65aa 73bc
000000f0: 9c89 283d 31de 8d3d fb2b 51bd 9eec 6dbd
00000100: 45c3 2d3d 96ed aabd e6b1 913d d645 98bd
00000110: d78f 66bd 4de3 373d 666c 97bb 0e8d d3bc
00000120: 8bd7 173c 5cb0 a33c 97d3 813d 1d70 3bbc
00000130: 3cd5 2bbd a36c 44bd c8d6 993d f567 7ebd
00000140: 5787 6d3d a6ac afbd f7c5 9e3d 6e39 f4bc
00000150: 7983 99bd 8825 633d c67c 7a3d 84d3 81bd
00000160: e660 bb3d f8a4 cc3c b758 dcbc 4a7f 55bc
00000170: a9ce 993d a030 a8bd ad21 c43a 3177 5f3c
00000180: d500 69bd 57fe 37bd edbb 903d 698e 843b
00000190: 9f89 a7bd 3ab6 3fbd a52f 7e3d 4b00 843b
000001a0: 0681 313c 3ee9 813d a244 74bb a0e8 16bd
000001b0: 576d b43c 5301 59bd 5220 3ebd f747 0f3d
000001c0: c01a a23d 81a2 8cbd 8bd7 7f3d 949d 23bd
000001d0: 5f6a 7e3d bbfc b3bb 2603 b6bd a2f4 a63d
000001e0: 2357 2bbd 8889 37bd 8a18 6abd f194 55bd
000001f0: 3437 393d 29c8 aabd 757e 813d 7af7 4ebd

fc3.weight f4 [2, 128]
0.0023153198 0.06361995 0.07296891 0.05985747 0.020721972 0.064530194 -0.0722655 -0.0016667275
0.087476976 0.033128727 -0.018545404 -0.027091658 0.030234145 -0.06362426 -0.027463866 0.029225588
-0.06781053 0.06459485 0.012494222 0.050731685 -0.044334058 0.06414606 -0.09339591 -0.036885563
0.014643535 -0.0194126 -0.06826867 0.086112134 -0.034396105 -0.054383025 0.07898875 -0.0034677288
-0.0719289 -0.0670829 -0.029648341 -0.07576513 0.023121933 -0.05993654 0.068098634 -0.011738624
0.07245248 0.041075118 -0.050781168 0.050593935 -0.0436521 -0.053230252 -0.077654526 0.058199707
-0.043728955 -0.07522453 0.06164302 0.0039638868 0.04732154 -0.016581234 -0.06569464 -0.045829777
0.02544599 -0.021887047 0.08550557 -0.051326293 0.05524985 -0.04653704 0.045379225 -0.023986107
-0.04838885 -0.07314141 0.04892502 0.022921342 -0.07843564 -0.025317738 0.040294535 -0.07432625
-0.05395333 0.014823571 0.06971468 -0.08523725 -0.014247067 0.013118639 -0.010188263 -0.0021511856
0.023510238 -0.017070232 0.079321146 -0.011302067 -0.08013523 -0.07398941 0.057697345 0.017778141
-0.014574142 0.06704746 0.0865774 0.08713331 -0.051693767 -0.019030934 0.07893052 0.0457235
0.014496313 -0.054321077 0.009599375 0.041283924 0.056887656 -0.039248787 0.004667932 -0.007425625
0.02369325 -0.059340443 -0.010070895 0.07300729 0.08122097 0.07149669 0.04357243 -0.07551794
0.07168815 0.049698297 0.056505814 0.05303419 0.012552098 -0.04105137 0.06297833 -0.0047639925
0.04169789 0.06572949 0.02585528 0.0716123 -0.08620905 0.032776766 -0.038507458 0.009578314
0.018813476 -0.07006058 6.241388e-05 0.0007994296 0.060001455 -0.031001609 -0.017389333 -0.05489504
0.017895594 0.06383363 0.08009738 0.057407904 -0.0086176125 -0.06760362 0.053651914 -0.0239276
-0.03299245 0.07297701 0.0395983 -0.010152206 -0.08809326 -0.068158194 -0.05911562 0.0358661
0.0051857703 0.02207505 0.019978661 -0.011311139 0.08493743 0.08692582 0.070261925 0.03153714
-0.06293788 0.016693123 -0.036609475 0.006079078 0.0836664 0.060020804 -0.027708612 0.054588366
-0.05260681 -0.048440184 -0.044197723 -0.032657467 0.075648375 -0.07872072 -0.011526427 0.014489606
-0.0039533637 -0.08745258 0.05488157 -0.027112287 0.051888872 0.061824907 0.026465336 -0.017066354
0.06441561 0.03976626 0.08794347 -0.06888121 -0.025972204 0.030365845 0.05268316 0.052693874
0.07836625 0.05512871 -0.04730067 -0.007103735 0.03205203 -0.06341059 0.034307573 -0.051172897
0.030838644 -0.047450606 -0.08072112 -0.024397574 0.07114347 0.08165367 -0.072719835 -0.015202494
0.066671774 -0.029257577 -0.028887503 0.08756848 0.046436645 -0.062085226 0.03686913 0.03483007
0.04813482 -0.05686469 0.076474026 0.02377001 -0.045020252 0.0037810358 0.03482491 0.0686988
-0.04888225 0.043249723 -0.022196416 0.024579363 -0.06642283 -0.08629753 0.00012440696 0.004164859
-0.0060227215 -0.06486185 0.013634294 -0.051083222 -0.027159482 -0.048912007 -0.030811701 -0.075384624
0.057844725 0.090939395 -0.010084897 -0.009854786 -0.07935766 -0.054657422 0.019257536 -0.01367812
0.042021323 0.08407687 0.021859974 0.039689213 -0.07408113 0.08692369 -0.087933235 -0.018887341
00000000: 9fbc 173b 2d4b 823d b970 953d 1b2d 753d
00000010: 20c1 a93c 6828 843d efff 93bd 1876 daba
00000020: 2127 b33d fdb1 073d 88ec 97bc 53ef ddbc
00000030: 99ad f73c 704d 82bd e7fb e0bc 806a ef3c
00000040: 3fe0 8abd 4e4a 843d 91b4 4c3c 07cc 4f3d
00000050: a197 35bd 025f 833d 5b46 bfbd 5115 17bd
00000060: 70eb 6f3c 2c07 9fbc 72d0 8bbd 8f5b b03d
00000070: eee2 0cbd bcc0 5ebd dbc4 a13d d642 63bb
00000080: 764f 93bd c262 89bd 14e1 f2bc c02a 9bbd
00000090: 356a bd3c 0480 75bd 4c77 8b3d 5c53 40bc
000000a0: f761 943d 623e 283d eaff 4fbd 963b 4f3d
000000b0: 8bcc 32bd f707 5abd 5609 9fbd d162 6e3d
000000c0: 221d 33bd 520f 9abd 647d 7c3d 7ee3 813b
000000d0: 3bd4 413d 5ed5 87bc e98a 86bd 01b8 3bbd
000000e0: 1c74 d03c 774c b3bc 8b1d af3d 853b 52bd
000000f0: ab4d 623d a09d 3ebd 91df 393d 837e c4bc
00000100: 6333 46bd 2acb 95bd 9a65 483d 8ac5 bb3c
00000110: dda2 a0bd 2567 cfbc e20b 253d 5c38 98bd
00000120: 2bfe 5cbd 90de 723c 92c6 8e3d de90 aebd
00000130: 886c 69bc 8fef 563c acec 26bc e8fa 0cbb
00000140: 8b98 c03c dfd6 8bbc 2073 a23d 4e2c 39bc
00000150: f11d a4bd c387 97bd 0d54 6c3d 77a3 913c
00000160: 62c8 6ebc 2e50 893d 7e4f b13d f372 b23d
00000170: d8bc 53bd c3e6 9bbc 53a6 a13d 9148 3b3d
00000180: f281 6d3c c77f 5ebd b246 1d3c 5519 293d
00000190: 0803 693d 56c3 20bd 74f5 983b a852 f3bb
000001a0: 5918 c23c f70e 73bd 6500 25bc d984 953d
000001b0: 2e57 a63d db6c 923d 0179 323d 26a9 9abd
000001c0: 3dd1 923d 7190 4b3d a472 673d 613a 593d
000001d0: 51a7 4d3c 7b25 28bd c8fa 803d 441b 9cbb
000001e0: 68cb 2a3d 2f9d 863d 74ce d33c 78a9 923d
000001f0: 5f8e b0bd ee40 063d ffb9 1dbd 5cee 1c3c
00000200: b81e 9a3c ec7b 8fbd 32e4 8238 d090 513a
00000210: 16c4 753d 16f7 fdbc 1374 8ebc 9fd9 60bd
00000220: c899 923c 35bb 823d 180a a43d 8d24 6b3d
00000230: e330 0dbc c473 8abd 1cc2 5b3d d003 c4bc
00000240: 1723 07bd f874 953d d431 223d 7055 26bc
00000250: 3d6a b4bd 8696 8bbd 3823 72bd 55e8 123d
00000260: 65ed a93b bcd6 b43c 4aaa a33c 5b52 39bc
00000270: adf3 ad3d 2a06 b23d 7ce5 8f3d 172d 013d
00000280: 93e5 80bd 04c0 883c d1f3 15bd 0133 c73b
00000290: 4a59 ab3d 60d8 753d 2cfd e2bc 0d98 5f3d
000002a0: 3d7a 57bd 3769 46bd ac08 35bd d6c3 05bd
000002b0: 89ed 9a3d 5438 a1bd 57d9 3cbc d065 6d3c
000002c0: 388b 81bb 571a b3bd 7fcb 603d 961a debc
000002d0: 6d89 543d 1d3c 7d3d d5cd d83c bdce 8bbc
000002e0: 55ec 833d f2e1 223d b51b b43d 9811 8dbd
000002f0: a9c3 d4bc cbc1 f83c 4cca 573d 88d5 573d
00000300: 7c7e a03d a4ce 613d 59be 41bd 73c6 e8bb
00000310: fd48 033d 69dd 81bd 1986 0c3d ac9a 51bd
00000320: 53a1 fc3c 915b 42bd 1d51 a5bd 6cdd c7bc
00000330: abb3 913d 0a3a a73d 23ee 94bd e213 79bc
00000340: 368b 883d 96ad efbc 7ca5 ecbc 1a57 b33d
00000350: 5a34 3e3d 144d 7ebd 1604 173d faa9 0e3d
00000360: 0429 453d f3ea 68bd 6a9e 9c3d 53b9 c23c
00000370: 2867 38bd 41cb 773b 91a4 0e3d f5b1 8c3d
00000380: c138 48bd 9f26 313d 42d5 b5bc a95a c93c
00000390: b108 88bd c2bc b0bd 3d73 0239 5f79 883b
000003a0: 405a c5bb 4ad6 84bd 6062 5f3c a43c 51bd
000003b0: 907d debc f557 48bd d268 fcbc 4163 9abd
000003c0: 97ee 6c3d 6f3e ba3d 203b 25bc f875 21bc
000003d0: 4586 a2bd 76e0 5fbd fbc1 9d3c 321a 60bc
000003e0: 8d1e 2c3d 7e30 ac3d b013 b33c 2891 223d
000003f0: d9b7 97bd 0c05 b23d 5716 b4bd a0b9 9abc

fc3.bias f4 [2]
0.037852757 -0.060937267
00000000: 7e0b 1b3d 5b99 79bd

fc1.weight f4 [128, 84]
0.013629008 -0.07677864 0.041453343 0.0180825 0.058510818 0.007851147 -0.0042873337 0.05766451
0.030825952 0.029850606 -0.07778161 -0.03870805 -0.10756159 0.04728887 -0.0669897 0.041344922
0.044984207 -0.069263205 0.019872889 -0.010236575 0.10755146 0.07958518 -0.10103303 0.078586645
-0.0704224 -0.062269095 0.08247622 -0.03988515 0.019367846 -0.068314716 -0.10192578 0.014173157
0.05812879 -0.030113649 0.076514974 0.0025428336 0.043485034 -0.061109904 0.105022624 0.0764679
0.017613728 -0.045396645 -0.065060236 -0.011439319 -0.092844844 -0.049955882 -0.02925464 -0.012890526
0.09140781 -0.010870199 0.06921823 0.01086194 -0.10039043 0.032439977 -0.026771441 0.09993464
0.10254896 -0.11115184 0.044274338 -0.032029234 0.101834655 0.04612697 0.030018361 -0.08104763
-0.01930183 0.0032010644 0.07351226 0.092491485 0.09392566 0.08387242 -0.0018797859 0.012525309
-0.029627372 0.046117656 -0.092852786 -0.073717915 0.06254216 0.019749828 -0.109815925 0.045309227
0.0019103376 0.015460668 0.0013852266 0.08674201 -0.0155792665 -0.0072098724 0.08880145 0.06568269
-0.07334952 0.06962466 -0.040812213 -0.0047610453 -0.086433895 0.052269932 0.081165306 -0.027715893
0.024065735 0.09110768 -0.06223431 0.07833149 -0.044093516 0.10658948 0.037622992 0.042471357
0.10676311 0.09388062 -0.0485261 -0.09776153 -0.10013175 -0.0682037 0.08788451 0.013737568
-0.025128838 -0.021442926 0.030841488 -0.08566529 -0.074394226 -0.0066054347 0.09155018 -0.017706402
-0.056568984 0.07909844 0.04475859 -0.07761147 -0.07968936 -0.037094202 -0.008796105 0.002639146
0.038213965 -0.043328777 0.00045056443 -0.009301952 0.06833734 0.045736488 -0.024946315 -0.056406047
0.07926248 -0.026876075 0.02139261 0.049568 0.07150425 -0.07071751 0.0059061004 0.062611826
-0.07217041 0.08707057 -0.07262002 -0.09650567 -0.0810876 0.05521369 0.0029874777 -0.06242911
-0.081902 -0.08780859 0.08308692 0.072714806 -0.06708269 -0.054779876 0.02154733 0.06551985
0.023081115 0.017197903 0.019051326 -0.029753793 -0.017788503 -0.003972814 -0.07641933 0.053975444
0.05117106 0.0091767395 0.00075851724 0.009801728 0.10825466 -0.038175248 -0.09874348 0.05632233
0.008030647 -0.033318337 0.088813595 0.055613622 0.06950034 0.012189674 -0.09804601 0.036796197
0.039489634 -0.033840336 0.0034347714 0.06499804 -0.06530438 -0.116009474 -0.033083282 0.031573705
-0.040219247 -0.06992135 0.099830344 0.08119864 0.08601877 -0.08592255 -0.05983269 0.035586655
-0.008398346 -0.10540563 -0.07434255 0.06480829 0.03405534 -0.047324378 0.09230941 -0.079203166
0.007004018 -0.090333916 -0.012825314 -0.069923006 -0.070161305 0.041703913 0.099012814 -0.04635618
0.046334025 -0.06932963 0.025666408 0.0066307285 0.005361833 -0.054473635 -0.043075453 0.04207792
-0.1118711 -0.005172632 0.06379572 0.04447216 -0.058092766 -0.032757737 0.0056213387 -0.06897098
0.05478167 0.09343223 0.07392552 0.013430594 0.019985495 -0.05555601 0.06862902 -0.11928703
0.05363077 -0.09284789 0.089475274 0.044896863 0.081213884 0.05971044 0.03723637 -0.04555977
0.09084677 -0.02169361 0.07020582 0.07783466 0.03416783 -0.08627518 0.090724304 -0.08744687
00000000: 344c 5f3c 1f3e 9dbd fbca 293d c021 943c
00000010: 0aa9 6f3d 19a2 003c c37c 8cbb 9f31 6c3d
00000020: b586 fc3c 4289 f43c f74b 9fbd 558c 1ebd
00000030: 4049 dcbd f9b1 413d e531 89bd 4b59 293d
00000040: 5c41 383d ded9 8dbd 78cc a23c 4fb7 27bc
00000050: f143 dc3d 8efd a23d 68ea cebd 09f2 a03d
00000060: 9f39 90bd e10d 7fbd 4be9 a83d 9c5e 23bd
00000070: 51a9 9e3c 96e8 8bbd 77be d0bd 8736 683c
00000080: 7418 6e3d e6b0 f6bc e2b3 9c3d aba5 263b
00000090: 5d1d 323d 614e 7abd 1a16 d73d 349b 9c3d
000000a0: aa4a 903c d5f1 39bd 4d3e 85bd fb6b 3bbc
000000b0: 7025 bebd 8a9e 4cbd 6da7 efbc c932 53bc
000000c0: 0534 bb3d eb18 32bc 4ac2 8d3d 47f6 313c
000000d0: 7f99 cdbd c8df 043d c84f dbbc 88aa cc3d
000000e0: 3005 d23d 93a3 e3bd 0259 353d 1631 03bd
000000f0: b08e d03d a2ef 3c3d 11e9 f53c 4dfc a5bd
00000100: df1e 9ebc f3c8 513b 998d 963d 2d6c bd3d
00000110: 195c c03d 4ec5 ab3d 2663 f6ba f436 4d3c
00000120: 1ab5 f2bc dee5 3c3d 9a29 bebd 6bf9 96bd
00000130: 1b16 803d 64ca a13c 2ce7 e0bd 2b96 393d
00000140: 4b64 fa3a be4e 7d3c 7e90 b53a cca5 b13d
00000150: 2e40 7fbc cb40 ecbb 89dd b53d a584 863d
00000160: 4638 96bd 6097 8e3d b52a 27bd 8b02 9cbb
00000170: 4104 b1bd ff18 563d ff39 a63d 710c e3bc
00000180: 8125 c53c aa96 ba3d 67e9 7ebd 436c a03d
00000190: 679b 34bd 964b da3d 911a 1a3d 72f6 2d3d
000001a0: 9ea6 da3d 7c44 c03d 4ec3 46bd 3237 c8bd
000001b0: e011 cdbd 62ae 8bbd cbfc b33d 8913 613c
000001c0: feda cdbc 13a9 afbc 4aa7 fc3c 4971 afbd
000001d0: 005c 98bd 6772 d8bb a97e bb3d 040d 91bc
000001e0: e1b4 67bd 5dfe a13d c954 373d c3f2 9ebd
000001f0: 2d34 a3bd 17f0 17bd 8a1d 10bc 86f5 2c3b
00000200: 3f86 1c3d 8479 31bd bc39 ec39 3767 18bc
00000210: 73f4 8b3d 2f56 3b3d 375c ccbc 070a 67bd
00000220: 5e54 a23d 372b dcbc 8e3f af3c d107 4b3d
00000230: d270 923d 58d4 90bd f687 c13b a13a 803d
00000240: 14ce 93bd 0e52 b23d ceb9 94bd c4a4 c5bd
00000250: 4111 a6bd c027 623d 8fc9 433b abb5 7fbd
00000260: 3cbc a7bd fdd4 b3bd 7a29 aa3d 80eb 943d
00000270: a662 89bd dd60 60bd 0784 b03c 452f 863d
00000280: 9b14 bd3c 9ee2 8c3c 8711 9c3c 3abe f3bc
00000290: 32b9 91bc 612e 82bb bd81 9cbd 5b15 5d3d
000002a0: bf98 513d 095a 163c 3bd7 463a 6d97 203c
000002b0: 9fb4 dd3d a65d 1cbd 063a cabd 3eb2 663d
000002c0: fa92 033c cf78 08bd e7e3 b53d 1ccb 633d
000002d0: 3256 8e3d 33b7 473c 59cc c8bd 9cb7 163d
000002e0: e2bf 213d 2a9c 0abd e719 613b b11d 853d
000002f0: 4ebe 85bd 6096 edbd 5682 07bd 6e53 013d
00000300: f0bc 24bd ed32 8fbd da73 cc3d 794b a63d
00000310: 9c2a b03d 29f8 afbd 1f13 75bd 50c3 113d
00000320: 3799 09bc e8de d7bd e840 98bd 35ba 843d
00000330: 9d7d 0b3d 35d7 41bd b70c bd3d 4535 a2bd
00000340: f681 e53b fd00 b9bd 4421 52bc cb33 8fbd
00000350: bbb0 8fbd b9d1 2a3d 3bc7 ca3d fadf 3dbd
00000360: bfc8 3d3d b1fc 8dbd 5c42 d23c 9546 d93b
00000370: 51b2 af3b bf1f 5fbd e36f 30bd e659 2c3d
00000380: ad1c e5bd 2f7f a9bb 55a7 823d 7128 363d
00000390: aef2 6dbd fa2c 06bd 3533 b83b a840 8dbd
000003a0: bf62 603d 6659 bf3d 4366 973d fe0b 5c3c
000003b0: 9fb8 a33c b38e 63bd 5f8d 8c3d c24c f4bd
000003c0: f0ab 5b3d 0927 bebd d03e b73d c6e5 373d
000003d0: 7753 a63d ef92 743d 2a85 183d e29c 3abd
000003e0: df0d ba3d ccb6 b1bc 12c8 8f3d c767 9f3d
000003f0: 91f3 0b3d 0bb1 b0bd aacd b93d 5817 b3bd

fc1.bias f4 [128]
0.012198028 -0.07580654 -0.041569114 0.031712357 0.06828498 0.01664475 0.031559832 0.0030861464
-0.092986435 -0.03733617 -0.10371094 -0.026203 -0.03706384 0.050530188 0.030683136 -0.04285858
-0.046127345 0.06946478 -0.07551923 -0.05785999 -0.086611085 0.10547093 0.06803127 0.1021986
0.08062943 0.037833977 -0.02564001 -0.09284725 0.014195598 -0.06505657 0.04265515 -0.077012554
0.016234796 0.019803395 0.04027074 -0.059178144 0.054864474 -0.049026906 0.07230675 0.043551214
-0.07339278 0.025777526 0.08186869 -0.052054822 -0.034201015 -0.0413078 0.053333394 0.02336613
-0.022521717 0.030687772 0.062222973 -0.06533078 -0.012752974 -0.052378416 0.089564785 0.05971076
-0.086474866 0.042373527 -0.09605925 -0.071594656 -0.09148894 -0.0064417524 -0.04207116 -0.09450354
0.021456528 -0.06272095 -0.05931924 0.02149824 -0.049762826 0.008498175 -0.098203294 0.079578094
-0.05091237 -0.06404513 0.076457664 0.06423808 0.10725704 0.05338555 0.097865865 0.093960255
0.035060883 -0.10056456 -0.0077881822 0.01882003 0.05938468 0.062406812 0.036786254 -0.069114976
0.06842408 0.06316574 0.02818892 -0.081830926 0.024525844 -0.08488386 -0.036961682 0.08608011
-0.05032797 -0.039346606 -0.08707726 -0.022216942 -0.04114677 -0.043642472 -0.008405779 0.10836501
0.044135362 -0.0005672916 0.037803713 -0.04686917 0.0023157562 -0.101383165 -0.086049266 -0.058206886
-0.021750325 -0.05336817 0.038465668 0.1031531 0.092437886 -0.05967742 -0.08743815 -0.046905138
0.032301623 -0.025581544 -0.055385817 0.08199289 -0.077731885 0.02620448 -0.05744362 -0.031221846
00000000: 3dda 473c 7640 9bbd 6044 2abd d1e4 013d
00000010: ffd8 8b3d 925a 883c e244 013d f240 4a3b
00000020: ac6f bebd d0ed 18bd 6766 d4bd ada7 d6bc
00000030: 41d0 17bd bef8 4e3d 335b fb3c 7a8c 2fbd
00000040: 07f0 3cbd 8d43 8e3d d3a9 9abd 99fe 6cbd
00000050: 2761 b1bd 2501 d83d fa53 8b3d 804d d13d
00000060: 0b21 a53d cdf7 1a3d 000b d2bc b326 bebd
00000070: a794 683c 613c 85bd 2bb7 2e3d c2b8 9dbd
00000080: d6fe 843c bb3a a23c eef2 243d c864 72bd
00000090: 92b9 603d 70d0 48bd 9015 943d c262 323d
000000a0: f44e 96bd 642b d33c c6aa a73d 7037 55bd
000000b0: 5d16 0cbd 5e32 29bd 1e74 5a3d 546a bf3c
000000c0: 777f b8bc ec64 fb3c 84dd 7e3d 25cc 85bd
000000d0: daf1 50bc c08a 56bd be6d b73d 4593 743d
000000e0: bc19 b1bd dd8f 2d3d b6ba c4bd 38a0 92bd
000000f0: 8e5e bbbd 5615 d3bb cf52 2cbd 128b c1bd
00000100: 9ac5 af3c d773 80bd bbf8 72bd 141d b03c
00000110: 1bd4 4bbd ee3b 0b3c cf1e c9bd d7f9 a23d
00000120: 7d89 50bd 182a 83bd d695 9c3d 418f 833d
00000130: 94a9 db3d ceaa 5a3d e66d c83d 3c6e c03d
00000140: 009c 0f3d cbf4 cdbd 0234 ffbb 772c 9a3c
00000150: 5a3d 733d 499e 7f3d 2fad 163d 278c 8dbd
00000160: ed21 8c3d 0a5d 813d 73ec e63c f996 a7bd
00000170: 6cea c83c 97d7 adbd 2265 17bd c54a b03d
00000180: b424 4ebd e829 21bd 9055 b2bd 4e00 b6bc
00000190: 8489 28bd 73c2 32bd 64b8 09bc 79ee dd3d
000001a0: 48c7 343d 4bb6 14ba 11d8 1a3d e3f9 3fbd
000001b0: f1c3 173b faa1 cfbd 993a b0bd 586a 6ebd
000001c0: bd2d b2bc 9598 5abd 2d8e 1d3d ef41 d33d
000001d0: 1350 bd3d 4f70 74bd c612 b3bd 9a1f 40bd
000001e0: b54e 043d 6390 d1bc 3ddc 62bd e3eb a73d
000001f0: e531 9fbd c7aa d63c 004a 6bbd f5c4 ffbc

fc2.weight f4 [128, 128]
-0.05418994 0.014120954 -0.029178074 -0.07731795 -0.07352253 0.016664706 0.0562483 -0.08394582
-0.06863403 -0.03940268 0.032800626 0.06516282 0.08279916 -0.025902063 0.07606932 -0.03892194
-0.044058703 -0.029965429 0.058930334 0.040093012 -0.031057369 -0.015322002 0.08070123 0.01425555
-0.015940085 0.03593532 -0.02401832 -0.011728277 -0.06974492 0.059592176 0.072294235 -0.07348183
-0.057746165 -0.07324332 0.052308306 0.07722524 0.011867783 0.07744915 -0.019181969 -0.026643097
0.024026874 -0.04719723 -0.0035391762 0.06869265 -0.023338774 -0.036820665 -0.015319094 -0.055913378
0.0695808 0.0038740644 0.055038534 0.07420213 0.036107764 0.021481838 0.043888967 0.018860452
0.033064697 -0.0031427008 0.07365003 0.03786341 0.060655076 0.055275466 -0.079042986 -0.00678265
0.04787217 0.0031734153 0.04536457 -0.03474385 0.080645844 0.011970379 -0.08250709 -0.047104612
-0.022784807 -0.032401465 -0.05763281 0.07869534 0.06490064 -0.011264135 0.062351648 -0.06341438
0.067615084 0.06147814 -0.0550062 -0.062333398 -0.012976498 0.08507473 0.05426607 -0.06999872
0.06712053 -0.019031473 -0.086599275 -0.03900949 -0.05409492 -0.078285314 0.027040975 -0.055974953
0.013360888 -0.07338048 0.053325363 -0.06475043 0.038016688 0.020307647 -0.08428319 0.05995624
0.043886162 -0.040848874 -0.046960272 0.026454786 0.024498245 -0.07849574 0.034090266 0.005829288
0.05123137 -0.0822353 -0.062838696 -0.003727952 -0.04567971 0.08350423 -0.05833268 0.02845869
-0.050904773 0.034712575 -0.07642215 -0.022759793 -0.061686307 0.07855004 0.0109182885 0.0467535
-0.035545114 0.014046269 -0.009302265 0.050304066 0.06973217 0.003813826 -0.034041043 -0.056569986
0.01866784 0.03031157 0.07164108 0.0059184795 -0.066138364 -0.07466119 -0.053142242 -0.063657574
-0.042376753 0.07241399 -0.02287899 -0.031496372 -0.013701793 -0.042555254 0.07947139 -0.03772793
0.06222745 0.030931702 -0.0028830238 0.017433714 -0.07871182 0.0005629133 -0.020355936 0.036957875
-0.04493342 -0.07752368 0.047082245 -0.033832334 0.049999695 -0.0053568203 0.047748238 -0.009166592
0.00606073 0.053091194 -0.04093347 0.02166396 0.08833879 -0.052108303 -0.05962027 -0.024562009
0.038339082 -0.040471394 -0.039740715 0.037057627 0.020808958 0.031120451 0.02236239 -0.08733415
-0.0016762596 -0.021045417 0.014961467 0.038820986 -0.07001738 -0.036924068 0.05337351 0.030725848
-0.065030396 -0.0073316297 0.046391208 -0.0708166 -0.025625821 0.038803224 0.0018172957 0.027264092
-0.045206215 0.020308608 0.04238057 -0.071624756 0.012249844 -0.017026871 0.025207197 -0.06652423
-0.014831241 0.022455135 0.014393675 0.062452566 -0.035858385 -0.02213556 0.073703766 0.025790583
-0.0485449 0.049893573 -0.010332821 0.079031646 -0.024864016 0.021391474 -0.06020061 0.020208044
-0.057988822 -0.008203192 0.054038107 0.019333635 -0.075374484 -0.029481905 0.06892963 -0.08760748
-0.028320763 -0.061799787 -0.04306158 -0.007827545 0.081688896 -0.020530509 0.0008220848 -0.070929095
-0.014561169 -0.010502312 -0.044046126 0.07173264 0.074980706 -0.068752974 0.078029014 0.046014473
0.0809655 0.021539474 -0.020511437 -0.031479027 -0.031968523 -0.0856398 0.06264244 0.053117394
00000000: 45f6 5dbd 935b 673c db06 efbc e058 9ebd
00000010: fb92 96bd 6c84 883c 9e64 663d c9eb abbd
00000020: 0090 8cbd b464 21bd f359 063d 1674 853d
00000030: 9b92 a93d 9030 d4bc 3bca 9b3d 9d6c 1fbd
00000040: e676 34bd 0f7a f5bc ef60 713d 9238 243d
00000050: 066c febc 2209 7bbc b046 a53d 1c90 693c
00000060: c894 82bc ea30 133d 11c2 c4bc f627 40bc
00000070: 6dd6 8ebd ed16 743d 000f 943d a47d 96bd
00000080: 3e87 6cbd 9800 96bd 3c41 563d 4428 9e3d
00000090: 1771 423c a99d 9e3d 8123 9dbc a042 dabc
000000a0: 02d4 c43c e251 41bd 86f1 67bb bbae 8c3d
000000b0: f530 bfbc 44d1 16bd f0fc 7abc 6d05 65bd
000000c0: 6180 8e3d 04e4 7d3b 1670 613d 49f7 973d
000000d0: bce5 133d aefa af3c ebc4 333d 3c81 9a3c
000000e0: d96e 073d c5f5 4dbb d4d5 963d aa16 1b3d
000000f0: 7571 783d 8768 623d 4ae1 a1bd fe40 debb
00000100: 9c15 443d 13f9 4f3b 33d0 393d 914f 0ebd
00000110: a629 a53d 691f 443c 7af9 a8bd c4f0 40bd
00000120: 34a7 babc 66b7 04bd 6210 6cbd 062b a13d
00000130: a0ea 843d 358d 38bc 7164 7f3d 66df 81bd
00000140: c779 8a3d 81d0 7b3d 2e4e 61bd 4e51 7fbd
00000150: 619b 54bc a93b ae3d 1946 5e3d 7d5b 8fbd
00000160: 7d76 893d e4e7 9bbc f65a b1bd 6ac8 1fbd
00000170: a392 5dbd 0d54 a0bd 0985 dd3c fe45 65bd
00000180: a0e7 5a3c 8148 96bd b26b 5a3d e09b 84bd
00000190: 63b7 1b3d 395c a63c aa9c acbd ad94 753d
000001a0: fac1 333d 2651 27bd 6a59 40bd b5b7 d83c
000001b0: 8bb0 c83c 60c2 a0bd 3ca2 0b3d 9d03 bf3b
000001c0: fcd7 513d fb6a a8bd 93b1 80bd a850 74bb
000001d0: a61a 3bbd 4404 ab3d 40ee 6ebd 3322 e93c
000001e0: 8681 50bd c62e 0e3d 3783 9cbd bf72 babc
000001f0: c8aa 7cbd d8de a03d 9fe2 323c 9980 3f3d
00000200: c197 11bd 5222 663c 8768 18bc a30b 4e3d
00000210: bdcf 8e3d 62f1 793b 9f6e 0bbd eeb5 67bd
00000220: 4ced 983c f84f f83c 8fb8 923d ceef c13b
00000230: 8d73 87bd f7e7 98bd aeab 59bd e75e 82bd
00000240: 3f93 2dbd c94d 943d b86c bbbc 5702 01bd
00000250: 7c7d 60bc 6b4e 2ebd e5c1 a23d 9a88 1abd
00000260: 36e2 7e3d 7b64 fd3c 1df1 3cbb 26d1 8e3c
00000270: aa33 a1bd 7990 133a 7ec1 a6bc 2461 173d
00000280: 1b0c 38bd bcc4 9ebd 50d9 403d c693 0abd
00000290: 7bcc 4c3d 4488 afbb a893 433d 792f 16bc
000002a0: 1799 c63b 2776 593d dba9 27bd 9e78 b13c
000002b0: f8ea b43d 846f 55bd 6234 74bd 4436 c9bc
000002c0: 7109 1d3d 55c5 25bd 29c7 22bd bdc9 173d
000002d0: 8c77 aa3c 51f0 fe3c 5531 b73c 3fdc b2bd
000002e0: f0b5 dbba 7067 acbc f120 753c c102 1f3d
000002f0: 4665 8fbd b13d 17bd 2e9e 5a3d c6b4 fb3c
00000300: a82e 85bd 2b3e f0bb b504 3e3d 4b08 91bd
00000310: 3eed d1bc 21f0 1e3d 5332 ee3a f258 df3c
00000320: 272a 39bd 3d5e a63c 4097 2d3d 00b0 92bd
00000330: 92b3 483c f07b 8bbc 537f ce3c db3d 88bd
00000340: bcfe 72bc d5f3 b73c 73d3 6b3c 43ce 7f3d
00000350: 3ee0 12bd a255 b5bc 00f2 963d c646 d33c
00000360: 04d7 46bd 345d 4c3d fe4a 29bc 58db a13d
00000370: 9faf cbbc 2c3d af3c ea94 76bd 578b a53c
00000380: b085 6dbd ae66 06bc 1057 5d3d 9261 9e3c
00000390: f05d 9abd 0984 f1bc fa2a 8d3d 8d6b b3bd
000003a0: f200 e8bc c621 7dbd 5761 30bd 1a3f 00bc
000003b0: 824c a73d 992f a8bc 2d81 573a 4643 91bd
000003c0: f891 6ebc e411 2cbc b669 34bd 90e8 923d
000003d0: 7c8f 993d 5cce 8cbd adcd 9f3d ac79 3c3d
000003e0: 3dd1 a53d 8d73 b03c 9a07 a8bc 27f0 00bd
000003f0: 6df1 02bd eb63 afbd ae4a 803d a091 593d

fc2.bias f4 [128]
0.07774575 -0.070967756 -0.057532996 0.002294414 -0.05036211 0.061172903 0.0023271176 0.021800984
-0.040197335 -0.08439829 0.07386524 0.049547326 -0.058554124 -0.06169715 0.06409803 -0.07658333
-0.058635414 -0.037721112 0.050383363 0.021552466 0.032614253 0.06832089 -0.073164694 -0.0113183195
0.009411707 0.08790847 0.02435757 -0.047410667 0.07212653 -0.03730643 0.06388076 0.07868866
-0.05156709 -0.077875696 0.055952806 0.071154855 0.05594637 -0.0034918503 0.018344805 -0.0084583135
-0.024068052 0.015408166 0.039848216 0.069423415 0.077319324 -0.07529009 0.06447234 -0.017254742
0.012047178 0.03250196 -0.063887425 -0.0659497 -0.00048768288 -0.0839983 -0.06778962 0.0040497244
-0.089951485 -0.039618656 0.02884977 0.05115914 0.048176013 0.07656555 0.007534289 0.0013331505
-0.0120756095 -0.08938712 0.060052708 -0.01065759 0.013455434 -0.03073051 -0.0038697654 -0.02543289
0.028386632 0.027198859 0.048451383 0.014073405 -0.012148744 -0.026775187 -0.0053336844 0.042509627
-0.0421946 0.020050246 0.050173536 0.01509816 0.020792494 0.05755207 -0.018447777 -0.041047405
-0.03396639 -0.07483295 -0.011043587 0.0117551265 -0.000230185 -0.06383838 -0.04825246 0.034465652
0.07136351 0.057612203 0.07424916 -0.05873795 -0.031171935 0.04020307 0.022345347 -0.02508178
-0.06690239 -0.07480474 0.06614307 0.0011862273 0.061615877 -0.026633782 0.08058422 0.038923666
-0.004518304 -0.07182722 -0.06850726 0.006843417 -0.00717993 0.029113423 0.016339226 0.0002156022
-0.034753308 -0.02001179 0.0015171729 -0.053461224 0.044619303 -0.0036337064 -0.043514814 -0.048332084
00000000: 2a39 9f3d 8b57 91bd b8a7 6bbd e15d 163b
00000010: 8048 4ebd 7090 7a3d 8e82 183b fa97 b23c
00000020: f6a5 24bd 03d9 acbd a946 973d 23f2 4a3d
00000030: 73d6 6fbd 27b6 7cbd d445 833d b9d7 9cbd
00000040: b02b 70bd 7481 1abd c95e 4e3d cc8e b03c
00000050: 8696 053d d3eb 8b3d 5fd7 95bd 7970 39bc
00000060: 8f33 1a3c 5b09 b43d 8789 c73c b031 42bd
00000070: 13b7 933d a1ce 18bd ead3 823d 8527 a13d
00000080: 0338 53bd 4b7d 9fbd c52e 653d a3b9 913d
00000090: 0528 653d 87d7 64bb d847 963c bd94 0abc
000000a0: 5d2a c5bc 8872 7c3c e237 233d dd2d 8e3d
000000b0: 9859 9e3d b131 9abd 130a 843d d159 8dbc
000000c0: 8761 453c c620 053d 69d7 82bd a310 87bd
000000d0: b0af ffb9 4d07 acbd 49d5 8abd 8db3 843b
000000e0: 7c38 b8bd 2c47 22bd 5a56 ec3c 3f8c 513d
000000f0: 3654 453d 66ce 9c3d 32e2 f63b 1cbd ae3a
00000100: c7d8 45bc 9810 b7bd d4f9 753d 2c9d 2ebc
00000110: 2e74 5c3c 8dbe fbbc e49b 7dbb a358 d0bc
00000120: 158b e83c 24d0 de3c f574 463d 2494 663c
00000130: 870b 47bc a357 dbbc 30c6 aebb 931e 2e3d
00000140: 3fd4 2cbd 6a40 a43c c482 4d3d 465e 773c
00000150: 0555 aa3c b8bb 6b3d cb1f 97bc 5321 28bd
00000160: 5720 0bbd 0542 99bd 29f0 34bc 9398 403c
00000170: d15d 71b9 b2bd 82bd 5fa4 45bd db2b 0d3d
00000180: 0827 923d c6fa 6b3d f20f 983d 3497 70bd
00000190: 495c ffbc f9ab 243d 970d b73c 4e78 cdbc
000001a0: 1f04 89bd 3a33 99bd 0576 873d 2f7b 9b3a
000001b0: ee60 7c3d 172f dabc 5709 a53d 6c6e 1f3d
000001c0: 480e 94bb 261a 93bd 894d 8cbd be3e e03b
000001d0: 9e45 ebbb 467f ee3c d7d9 853c 4613 6239
000001e0: 7c59 0ebd c4ef a3bc e0db c63a 28fa 5abd
000001f0: bbc2 363d 7a23 6ebb 973c 32bd ddf7 45bd

fc3.weight f4 [1, 128]
0.03654789 -0.037465226 0.0076272003 -0.02837119 -0.03287118 0.07283625 -0.0040330472 -0.017655862
0.08024376 0.06501635 0.020171225 0.02480904 0.07734377 0.022497013 -0.044078033 -0.0028395134
0.054613575 -0.0006498022 -0.056820955 0.040342573 0.006692698 0.026452648 -0.0671841 0.031030782
0.061094876 -0.061519627 0.047095563 0.06348722 0.06751935 -0.07317643 -0.00073291623 -0.005281945
-0.04961316 0.046566643 -0.06804934 -0.037960526 0.035255723 -0.042412717 0.08182187 -0.04473379
0.07113892 -0.052616473 -0.07627181 0.07643263 0.026793147 0.025339995 -0.046411205 -0.0622217
0.013591138 -0.059960444 0.010757981 -0.051404577 0.029938765 0.029152282 0.055484623 -0.06093805
-0.05862101 -0.067195795 0.06846256 0.008690375 -0.0007986332 -0.031727113 -0.009391656 0.024688376
-0.05548953 -0.0006303844 -0.027780574 0.059894804 0.034118842 0.039234363 -0.011667259 -0.035042338
-0.050477333 -0.0076305005 0.010624903 0.04713312 -0.040363755 -0.040297747 -0.0011588603 0.045537878
-0.083818994 0.0817023 0.008517079 -0.05955257 0.0066876356 0.08633093 0.07226443 0.08411498
-0.019300045 0.026817152 0.026568845 0.053604633 -0.0043987297 0.028535796 -0.05150181 0.004183321
0.06470445 0.017053088 -0.026610224 0.05361525 -0.004414482 0.07333945 -0.02360858 -0.02090467
-0.0727908 0.01483745 -0.017562248 -0.019866476 0.01858695 -0.07213839 -0.02213396 0.0049651833
-0.06260224 -0.06541196 0.013875263 0.036998186 -0.031156993 0.046015225 0.023132319 -0.0792389
-0.020752985 -0.020211382 0.00050921587 -0.058670536 0.0066330456 0.0024419627 0.018853286 -0.0054295794
00000000: 3eb3 153d 2375 19bd 98ed f93b b36a e8bc
00000010: eea3 06bd 2c2b 953d a727 84bb 07a3 90bc
00000020: d756 a43d 4b27 853d 203e a53c 543c cb3c
00000030: 6966 9e3d a84b b83c 2b8b 34bd 2117 3abb
00000040: 7cb2 5f3d 7d57 2aba 17bd 68bd 413e 253d
00000050: 6c4e db3b 39b3 d83c d197 89bd 4434 fe3c
00000060: 9f3e 7a3d 01fc 7bbd 47e7 403d 9605 823d
00000070: 9647 8a3d 86dd 95bd 2d21 40ba 2b14 adbb
00000080: 2b37 4bbd aabc 3e3d 745d 8bbd 7f7c 1bbd
00000090: 4e68 103d f5b8 2dbd 3992 a73d c73a 37bd
000000a0: 48b1 913d 5f84 57bd 6534 9cbd b688 9c3d
000000b0: 4d7d db3c d295 cf3c ad19 3ebd 2edc 7ebd
000000c0: 5dad 5e3c 1599 75bd 3e42 303c 9b8d 52bd
000000d0: 2442 f53c c4d0 ee3c d843 633d 2d9a 79bd
000000e0: 961c 70bd f39d 89bd 1936 8c3d 1362 0e3c
000000f0: 5e5b 51ba 4af4 01bd 76df 19bc 473f ca3c
00000100: fd48 63bd 6240 25ba 1694 e3bc 4154 753d
00000110: 33c0 0b3d 36b4 203d 0828 3fbc 8e88 0fbd
00000120: 52c1 4ebd 4709 fabb 1314 2e3c a90e 413d
00000130: 7754 25bd 400f 25bd e6e4 97ba ed85 3a3d
00000140: 4ba9 abbd 8953 a73d 388b 0b3c 65ed 73bd
00000150: f423 db3b 45ce b03d 60ff 933d 7a44 ac3d
00000160: 211b 9ebc a5af db3c e8a6 d93c 8890 5b3d
00000170: 3823 90bb e7c3 e93c 90f3 52bd 3d14 893b
00000180: c483 843d ebb2 8b3c affd d9bc aa9b 5b3d
00000190: 5ca7 90bb fe32 963d c866 c1bc 4540 abbc
000001a0: 5813 95bd c718 733c b4de 8fbc 05bf a2bc
000001b0: a943 983c 4bbd 93bd 4752 b5bc fab2 a23b
000001c0: 9a35 80bd b5f6 85bd 1255 633c 698b 173d
000001d0: f33c ffbc 767a 3c3d fd7f bd3c 0148 a2bd
000001e0: 2a02 aabc 5792 a5bc e67c 053a 8450 70bd
000001f0: 055a d93b 5609 203b 3572 9a3c 9dea b1bb
