saved_models/episode_0/agent_0.pth (torch, 738018 bytes, 44 tensors)

fc1.weight f4 [128, 5]
000000 a0 78 2d 3e 8d 61 aa 3d af 6a 38 3e 2b d9 00 3d
       0.16940546 0.083193876 0.18009447 0.031457108
000010 29 02 9e be 6d b7 bb 3e c3 da b8 3c df 1f 26 3e
       -0.30861023 0.3666338 0.022565251 0.16223095
000020 66 82 e5 3e 46 02 a2 be 1b 72 1b 3e 11 25 e4 bd
       0.4482605 -0.3164236 0.15180247 -0.11139882
000030 de ef 04 be 7f ea bd 3e 45 e6 9e 3d 58 80 61 bd
       -0.12982127 0.3709297 0.07758764 -0.05505404
000040 ee 45 97 be f6 b4 3c 3d 5b d7 8b be 6f 50 85 3d
       -0.2954554 0.046071015 -0.2731274 0.06509482
000050 97 de b9 3e 34 36 18 3e 09 bd 71 3e 9d 3d 7e be
       0.36302635 0.14864427 0.23607267 -0.24828191
000060 e8 91 9a bb 89 23 d3 be 46 d2 b1 bc 1b 49 b9 bb
       -0.0047171004 -0.4123805 -0.021706712 -0.005654467
000070 15 23 dd 3e d8 7e a5 3e 96 53 4d bd 12 5d 43 3d
       0.43190828 0.32323337 -0.050128542 0.04769618
000080 cd 0b a8 be 42 a7 65 3d bb 84 a7 3e d7 07 67 3d
       -0.32821503 0.056067713 0.32718453 0.05640396
000090 34 91 6c 3e fe 5c 2e be 81 1f 5e 3e b1 3f 6f bc
       0.23102266 -0.17027661 0.21691705 -0.014602588
0000a0 ce f9 e6 3e 2f f3 24 be 4b af 90 3e 72 87 8b 3c
       0.4511246 -0.16108392 0.28258738 0.017032359
0000b0 9e 2f 21 be 99 84 89 3e 17 58 8b be ea 85 c7 3d
       -0.15740821 0.26858976 -0.27215645 0.09742339
0000c0 66 89 a8 be c4 98 46 3e 88 5a bf be 9d 34 b9 3d
       -0.32917327 0.19394213 -0.37373757 0.09043238
0000d0 93 04 c4 bc 8b 53 94 3e 35 cd 14 be 8e c4 c1 3d
       -0.023927962 0.28969988 -0.14531405 0.09461318
0000e0 fc 78 63 bd 2b 3b 7a be e4 aa d5 3e 29 ba ca be
       -0.0555353 -0.24436633 0.41731942 -0.39595154
0000f0 88 27 2e 3e 3c 00 76 bd 4b ae b7 3e cb 9b c9 be
       0.17007267 -0.060058817 0.35875162 -0.39376673
000100 7e 05 b7 3e 43 68 1c 3b 95 fb 3e 3e ec e6 92 3d
       0.35746378 0.0023865856 0.18650658 0.07172951
000110 db f9 aa 3e 25 99 c8 3d df 8f 94 be 62 46 22 3e
       0.3339375 0.09794835 -0.29016015 0.15847161
000120 5d 7a 7c be 98 cd b0 3e 68 5b dd 3e 7f fb cb be
       -0.24656053 0.34531856 0.432338 -0.39840314
000130 93 22 86 be e3 68 20 be fb cf 11 be 72 54 dd be
       -0.26198253 -0.15665011 -0.14239495 -0.4322849
000140 71 a3 ba be 8e f1 b9 bd 92 0e de 3e a4 d4 c1 be
       -0.3645282 -0.09079276 0.4337049 -0.37857544
000150 89 b5 06 bc 90 87 d3 3e 34 c5 82 be 45 22 03 3e
       -0.008221992 0.41314363 -0.2554108 0.12806042
000160 3c 8f ba be 87 95 8b 3e c1 3b a4 3d 6d 22 3f be
       -0.36437404 0.27262518 0.0801921 -0.18665476
000170 fe 89 c6 be 82 89 e5 3e 24 6e 6d bc b9 1a 20 3e
       -0.38777155 0.44831473 -0.014491592 0.15635194
000180 d1 79 e2 3d c7 05 44 3e da df 26 3e 1f 56 c9 3e
       0.11058391 0.19142829 0.1629633 0.39323518
000190 c1 e5 8f be dd f8 95 bd b7 0b ae 3d b4 40 14 3d
       -0.28104976 -0.073228575 0.08498328 0.03619452
0001a0 23 13 42 be fc 0d bc 3e 7d b8 f8 3d 25 40 81 bd
       -0.18952613 0.3672942 0.12144563 -0.06311063
0001b0 d1 1c 9d bd fb 90 8d 3e f9 8a 1e 3c c3 fc bf 3d
       -0.07671512 0.27649674 0.009676688 0.09374382
0001c0 cb 48 01 be 77 95 29 3e df 2c a1 3e 44 9d 84 3e
       -0.12625425 0.16560923 0.31479546 0.25901234
0001d0 fc 5c 8a 3e 80 d3 ce 3d 34 72 23 be d0 31 98 be
       0.27024066 0.10098934 -0.15961534 -0.29725504
0001e0 a2 7b 0c be 78 03 21 be ce 74 01 be eb 1a a1 be
       -0.13719037 -0.1572398 -0.12642214 -0.3146585
0001f0 43 c0 76 be c5 a4 3e 3e 4d f8 91 bd 68 09 b1 bd
       -0.2409678 0.18617542 -0.07127438 -0.08644372
000200 d6 ca 96 be 01 bc 89 3e 01 e0 99 bd 21 fe 40 be
       -0.29451627 0.26901248 -0.075134285 -0.18846942
000210 b5 81 74 bd 64 4d 31 3e ff 00 d0 3d 05 44 1c 3e
       -0.05969401 0.17314678 0.1015644 0.15260322
000220 fb c2 eb 3d ad b0 9e 3e b2 7b 0a be 9b ff 1e 3e
       0.11511799 0.30994168 -0.13523749 0.15527193
000230 a2 a3 2d 3d 1c 8a 7b 3d d7 37 13 be 39 61 5d 3e
       0.04239238 0.06141101 -0.1437677 0.21619119
000240 b1 66 40 be c1 bc 13 3e d1 9e 05 3e c6 1b 38 bd
       -0.18789174 0.14427473 0.13048865 -0.04494836
000250 1a ff dc 3e a3 0f ec 3d 4d 1e 87 3e 7c aa b3 bc
       0.43163377 0.1152642 0.26390305 -0.02193188
000260 8d 2a 91 be ea 30 d3 3e ad 42 1f be 88 82 6e be
       -0.28352776 0.41248256 -0.15552779 -0.23291981
000270 11 88 99 3e 3f 39 c0 be f2 b4 d1 be 00 ed ae be
       0.29986623 -0.37543675 -0.40958363 -0.34165192
000280 fd 77 5b bd 2b 2b d6 3d 45 71 80 3e f0 85 4b 3e
       -0.053581227 0.104574524 0.25086418 0.19875312
000290 c7 bb 58 3e 7d 71 d4 3e a8 36 e4 be 2a 6d 42 be
       0.21165381 0.41492835 -0.4457295 -0.18986955
0002a0 f6 76 8a 3e 5d 06 22 be 78 08 55 be 87 fa 9b 3d
       0.27043885 -0.1582274 -0.20804012 0.07616144
0002b0 01 86 a9 be ad 84 c2 be b9 c3 83 3e 87 c6 84 3e
       -0.3311005 -0.3799185 0.25735262 0.25932714
0002c0 df a1 97 3e 67 47 a4 3e 1e 02 af 3e a4 03 da be
       0.29615685 0.32085726 0.34181303 -0.42580903
0002d0 66 79 8f 3e 2f 68 2b 3c 1c 4d 81 3e 65 01 ae be
       0.28022307 0.010461851 0.25254142 -0.3398544
0002e0 e2 d7 d0 bd b9 15 ba 3e 05 81 6b be 81 9d 0a 3b
       -0.101974264 0.36344698 -0.22998436 0.0021151009
0002f0 14 1a c7 be c9 9f 2b be 1b c6 41 bd 89 a6 e4 be
       -0.38887084 -0.16760172 -0.04730807 -0.44658306
000300 bd 7b 0a 3d bf f9 c9 bd 98 21 63 3c f0 c8 f4 3d
       0.033809412 -0.098620884 0.01386299 0.11952388
000310 4d b0 7c 3e 07 ad 85 be 16 09 8f be 0f 01 c5 3e
       0.24676628 -0.26108572 -0.2793662 0.3847737
000320 8d 20 2e be 36 5f e5 be f3 24 67 3e 1a 87 54 3e
       -0.17004605 -0.44799203 0.22572689 0.20754662
000330 7d 35 94 be 03 1a 94 be f4 04 22 3e 21 fa 63 be
       -0.28947058 -0.28926095 0.15822202 -0.22263385
000340 4c bb f3 3d b9 4e 9f be b6 a2 7a be cf b6 dc 3e
       0.119009584 -0.31114748 -0.24476132 0.43108222
000350 42 7c d0 be b9 5e cc be 06 85 94 3e d2 ed ef bb
       -0.407198 -0.39916018 0.2900774 -0.0073220516
000360 b6 6e e3 be 08 b4 50 be f3 ef 10 3e 4b 1d 0a be
       -0.44420403 -0.20381176 0.14154033 -0.13487737
000370 9a 0e 37 be 29 df 58 3e 84 ce df 3e 36 14 33 be
       -0.17876664 0.21178879 0.43712246 -0.17488179
000380 02 41 de be d6 a5 96 be 0e 1f cf be a4 39 95 be
       -0.43408972 -0.29423398 -0.4045338 -0.2914554
000390 76 ee 6c 3c 15 1b c6 3d 17 d2 4c 3e fa e6 c1 3d
       0.01446115 0.09673134 0.20002018 0.094678834
0003a0 25 c2 c5 bc a0 51 73 3d ac 74 67 3c 6c 8a da be
       -0.024140427 0.059404016 0.014126938 -0.42683733
0003b0 60 cb 02 3e 51 e0 ee bd 4e ee c7 3e e8 f5 93 3e
       0.12772894 -0.11663879 0.39049 0.2889855
0003c0 ec 80 98 be 41 03 ab 3e cc ac 36 be 5e f2 b5 bd
       -0.2978586 0.3340092 -0.17839354 -0.088841185
0003d0 39 15 a8 3e 04 68 7b 3e eb ba 35 be ed 69 c3 bd
       0.32828692 0.24551398 -0.17747085 -0.09541688
0003e0 c0 cd 58 be 56 8f 9a bd 29 4f 2e be 08 3f ab 3e
       -0.21172237 -0.075468704 -0.17022385 0.33446527
0003f0 70 ea de 3d ae fb ba bd c5 9f 8a 3d 03 7f 54 be
       0.10884559 -0.09130035 0.06768755 -0.20751576

fc1.bias f4 [128]
000000 12 75 b1 be e4 3b a9 3e db a6 56 be d9 29 4a 3d
       -0.3465963 0.33053505 -0.20962088 0.049356315
000010 6f e7 fb bd 06 65 57 bd f2 c4 93 be 23 af 93 bb
       -0.12300002 -0.052586578 -0.28861195 -0.004506962
000020 6a 05 94 bd b3 c1 a8 3e d4 b0 f4 3d 16 9a b2 bd
       -0.07227595 0.3296028 0.1194779 -0.08720796
000030 20 76 68 be 54 98 21 be 8c e0 dd 3e 5a e9 42 bd
       -0.22701311 -0.15780765 0.43335378 -0.047585823
000040 e6 69 81 be 89 b1 92 be 59 94 cc 3e a3 31 d0 be
       -0.25276107 -0.28651074 0.3995693 -0.4066287
000050 95 8e d2 3e 24 5a b6 be f9 f2 77 3c ae 35 20 be
       0.41124406 -0.35615647 0.015133613 -0.15645477
000060 0d 97 14 be 5c c8 bb 3e af 82 b6 be 37 c9 bf be
       -0.14510746 0.366763 -0.3564658 -0.37458202
000070 4c 3c b2 be 33 07 9a bd ac cc 1e be 18 c6 8d be
       -0.34811628 -0.075209044 -0.15507764 -0.27690196
000080 26 c5 e1 3e 3d 1c c4 be c5 8c d7 3e 92 04 97 be
       0.44095725 -0.38302794 0.42099586 -0.29495674
000090 d6 e0 aa bd 59 28 a1 3d 00 34 20 bd ac 8a b7 be
       -0.08343665 0.07869024 -0.03911209 -0.35847986
0000a0 b8 af 0f be b2 b2 93 3e 73 c3 fd 3d b5 10 65 3e
       -0.14031875 0.2884727 0.123907946 0.22369654
0000b0 6e 86 9c 3e 2e 86 30 3e a1 a9 5e bd 3f 85 06 bc
       0.30571312 0.17238685 -0.05436099 -0.008210479
0000c0 42 cd d0 be 83 62 7b 3e 09 1d 8d bd 65 00 b9 3e
       -0.407816 0.24549298 -0.06890304 0.36133114
0000d0 66 5d bf 3e 58 61 d2 bd 9f c3 15 bc 19 95 b7 3e
       0.37375945 -0.10272473 -0.009140878 0.3585594
0000e0 fd 6a e1 bc 40 10 90 be 2b 2d 4e 3e 3f 69 d9 3c
       -0.027516836 -0.28137398 0.20134418 0.026539443
0000f0 37 21 89 be 93 80 bc 3e 24 c5 cc be ac c0 d9 3d
       -0.26783153 0.36816844 -0.39994156 0.10632452
000100 8a 0b 32 3d bf 72 33 3c 00 c3 5e be 77 d9 8d be
       0.043468036 0.010952651 -0.21754074 -0.27704975
000110 c0 c8 4f 3e 45 34 82 3e cd fb 1c be de 2f 87 be
       0.20291424 0.25430503 -0.1533043 -0.26403707
000120 72 95 cc 3e 1b 3e 9a bd 55 a4 a3 3d 81 dc 6d be
       0.39957768 -0.07531377 0.07990328 -0.23228647
000130 a5 0f 29 be 18 f7 60 be e5 ea c5 be 2c 86 12 be
       -0.16509874 -0.21969259 -0.38655773 -0.14308995
000140 c2 ce d5 3e c4 a0 dd be df 79 a4 be 07 8d ea bd
       0.41759306 -0.43286717 -0.3212423 -0.1145268
000150 6d 09 b6 be cb e0 2e 3e d6 3b c7 be fd 80 c0 be
       -0.35554066 0.17077939 -0.3891284 -0.3759841
000160 7b 3f 68 3c 60 7f d0 be a5 b7 f2 bd 2c a0 63 3e
       0.014175291 -0.4072218 -0.11851434 0.2222907
000170 87 93 de be 81 e0 cb 3e ce 84 a1 3e 54 9f c1 3e
       -0.4347193 0.3981972 0.31546634 0.3781687
000180 e0 89 40 bc a6 89 5b be bf 31 90 be bc cd 65 3e
       -0.011751622 -0.21439227 -0.28162953 0.22441763
000190 11 bf d2 bc 14 16 bb be bf 72 b1 3e e4 09 a0 3e
       -0.025725873 -0.36540282 0.34657857 0.31257546
0001a0 6f c0 95 be fe 03 e2 be dd 12 d0 3e ba 8c b5 3e
       -0.29248378 -0.4414367 0.40639392 0.35458928
0001b0 0f 93 7e be fc f4 c1 be db b2 37 bd 09 e0 c6 bc
       -0.24860786 -0.3788222 -0.044848304 -0.02427675
0001c0 23 42 94 3e 17 2c 6b bd 59 6f d4 3e 59 08 6f 3e
       0.28956708 -0.057415094 0.41491202 0.23343028
0001d0 7e 88 c0 be da da ac 3e d3 78 1c 3e 62 cd b3 be
       -0.37604135 0.3376072 0.15280466 -0.35117632
0001e0 17 dd 85 3e 85 3f a2 3d 67 ef 48 bd 58 08 b6 3e
       0.2614524 0.07922272 -0.049056437 0.3555324
0001f0 a1 79 d2 be a0 b0 7c 3e 64 e6 05 3e 79 38 8c 3e
       -0.4110842 0.24676752 0.13076168 0.27386835

fc2.weight f4 [128, 128]
000000 89 4f 7b 3d b9 59 09 bc f2 3c ca 3a 1c 99 70 bd
       0.061355148 -0.008383208 0.001542954 -0.058739766
000010 96 72 06 3d f7 6b 99 bd 53 32 1e bd 17 b8 1c 3d
       0.03282412 -0.07491296 -0.03862221 0.0382615
000020 4c 02 a0 bc 51 9f 83 bd 6e dc 8c bd 3c 01 ec bb
       -0.019532345 -0.064268716 -0.06877981 -0.0072022956
000030 ba e7 14 3c 16 90 26 3d 06 e5 46 3d 82 7a e7 bc
       0.009088451 0.040664755 0.048558258 -0.028256658
000040 23 66 82 3c b4 f7 38 bd 38 fc 52 bd be 3c 7d bc
       0.015917843 -0.045158103 -0.051510066 -0.015456377
000050 ee 84 8b 3d ba d8 b5 ba 7d 0b 05 3d 4d 15 ae 3d
       0.06812464 -0.0013873794 0.03248166 0.085001566
000060 87 06 66 3c 8d 30 86 3c 94 9f 08 3c 43 02 14 3d
       0.014039642 0.016380573 0.008338828 0.03613497
000070 81 07 8f 3d c7 3f a0 3d 09 14 08 3d 1a 10 6d 3d
       0.06983853 0.078246646 0.033222232 0.057876684
000080 38 12 65 3d b7 bd 6e 3c 70 fe ac 3d 58 74 32 bd
       0.055925578 0.014571599 0.084469676 -0.043567985
000090 df d2 7d bd b8 aa 84 3d ee 64 bf bc 6d 91 9e 3d
       -0.06196868 0.064778745 -0.023363557 0.077425815
0000a0 54 7a d7 3c 28 4b 41 3c c5 57 a3 3d 54 6d 2e 3d
       0.026303448 0.011797704 0.07975725 0.042584732
0000b0 59 39 73 bb b3 b6 e7 3c a7 63 89 bd 95 88 28 3d
       -0.003711304 0.02828536 -0.0670846 0.04114588
0000c0 de 92 0b bd 05 84 8d 3c dc e7 3e bb 42 ac 70 3d
       -0.03407561 0.017274866 -0.0029129898 0.058758028
0000d0 f0 6d c9 3c b5 d0 11 3d 30 60 9e 3d 94 2d 19 bd
       0.024588555 0.03559943 0.0773319 -0.037396982
0000e0 61 84 7b 3d 45 91 e7 bb 95 8c 82 3d 86 90 70 bd
       0.061405543 -0.007066878 0.0637447 -0.05873158
0000f0 33 cd f7 bc 2e e4 0e bd 0f 15 63 bd 43 d6 95 3d
       -0.030249214 -0.034885578 -0.055440005 0.07316258
000100 2c f0 e8 bb 78 14 38 bd d0 a8 69 bd 7d eb 88 bd
       -0.007108709 -0.044941396 -0.057045758 -0.06685541
000110 67 85 39 3c 15 f9 43 bd 34 0b a4 bc 95 37 9a 3d
       0.0113233095 -0.047844965 -0.020024873 0.07530133
000120 d5 74 f7 bc d1 99 b1 bd f7 b5 21 bc bf b9 01 3d
       -0.030207077 -0.08671916 -0.009870044 0.031671282
000130 f8 d0 a4 bd de 67 89 3d 31 08 89 bd 32 38 39 3c
       -0.0804767 0.06709264 -0.066910155 0.011304902
000140 0c d7 5f bc 34 ce 8c 3c d3 6f a3 bd 7c 0c e3 bc
       -0.013662111 0.017188169 -0.07980313 -0.027715914
000150 20 bb 85 bc 25 47 a0 bd b3 af b0 bd 1b b0 87 3d
       -0.01632458 -0.0782607 -0.08627262 0.06625386
000160 48 c8 7e bc 8d e9 3a 3d 0d 20 cc bc ac ef 9a 3c
       -0.01555068 0.045632888 -0.024917627 0.018913113
000170 2c ed de 3b 82 e3 a5 bd 83 9a c0 3c f7 b3 a1 bd
       0.0068031754 -0.08100034 0.023511177 -0.07895654
000180 3b 71 b4 3d 90 5b b3 bd 7b 91 8a bd 5e 93 a5 bd
       0.088106595 -0.087576985 -0.067660294 -0.08084749
000190 fe cb d8 3c f8 5e 98 bc fe ac 88 bc d3 81 97 3c
       0.026464459 -0.018599972 -0.016684052 0.018494522
0001a0 f8 6c 9c bd 88 2b 5f 3d 06 c8 69 3d c2 d9 92 bd
       -0.07637972 0.054484874 0.057075523 -0.0717044
0001b0 75 1c e8 bc fa 71 44 3d b9 4e 50 3c 85 69 64 bd
       -0.028333882 0.04796026 0.012714081 -0.055764694
0001c0 d6 c7 20 bd ef 8c 33 3d e5 9c 10 3d 60 2c 82 3d
       -0.03925308 0.043835577 0.035305876 0.0635612
0001d0 67 ee a9 bd 21 04 29 bc 7f 75 8a bd 69 4c 7d 3d
       -0.08297425 -0.010315926 -0.06760692 0.06184045
0001e0 89 43 55 bd 89 3c 1e bd 3a 28 b2 3d ff 0c 15 3d
       -0.05206636 -0.03863195 0.08699079 0.036389347
0001f0 fe 95 07 bd 14 4e 22 3c f1 da aa 3d ee ff f4 bb
       -0.033102028 0.009906311 0.08342541 -0.0074767983
000200 e2 7e a4 3c 84 33 aa 3d ea d9 15 bd e1 b0 26 bc
       0.020080034 0.08310607 -0.036584772 -0.010174007
000210 9e 83 81 bd 1f 0d ad bd c3 61 38 3c 2b 1f 95 3d
       -0.06323932 -0.08449768 0.011253777 0.072813354
000220 36 eb ab 3b 70 97 49 bd 84 3a 7c 3c 47 1b 8b bd
       0.005246545 -0.049216688 0.015394811 -0.06792312
000230 cc 21 70 3d 74 5d af bd 2b f5 a0 bc 94 e2 b2 3d
       0.05862598 -0.08562747 -0.019648155 0.087346226
000240 81 08 31 bc f9 98 8b bd 24 9e a6 3d a1 39 a8 39
       -0.01080525 -0.068162866 0.08135632 0.00032086394
000250 25 9d 4c 3c d9 1c e1 bc 8a 00 a9 bd 9d 70 0e bc
       0.012488638 -0.027479576 -0.08252056 -0.008693841
000260 50 74 1b 3d 69 61 b3 3d 82 80 ad bd c9 0a 5f 3d
       0.03795272 0.08758814 -0.084717765 0.054453645
000270 e6 6d 5f 3d 71 35 1e bd 17 be 26 3d f4 a7 83 bd
       0.054548167 -0.038625184 0.040708628 -0.06428519
000280 5c d9 41 3d 48 b4 3d 3d 17 76 2a 3d 26 1d 08 bd
       0.04732643 0.046314508 0.041616526 -0.033230923
000290 48 5e 9d 3d e4 0e 8a bd ad 68 82 bc a8 11 82 3d
       0.07683998 -0.067411214 -0.015919054 0.06351024
0002a0 2d a2 30 bd a9 f6 26 3b 8c d8 14 3d 43 b1 d7 3b
       -0.043123413 0.002547661 0.036339328 0.0065824105
0002b0 e3 2f 11 3d ed ec 93 3d a9 fa 28 3d 88 ff 52 bb
       0.03544606 0.072229244 0.041254673 -0.0032195766
0002c0 d1 9b ff 3c c8 34 54 3d 69 6b 87 bb ce 35 83 bc
       0.031202229 0.05180815 -0.0041326773 -0.016016867
0002d0 fe c1 88 bd 68 de 8c 3d 20 b9 b4 bd 33 2b 4a 3d
       -0.06677626 0.06878358 -0.08824372 0.049357604
0002e0 92 48 ac 3d 27 ec 97 bc cf 49 a2 bd 26 54 ac bd
       0.08412279 -0.018545223 -0.07924234 -0.084144875
0002f0 29 ad 53 bd 73 d1 ab bd 1f f3 1a 3d c1 4d 45 bd
       -0.05167881 -0.08389559 0.037829515 -0.048169855
000300 5e 63 93 3d 1d 85 9e bd c2 c4 8c bd b7 c0 8a bb
       0.07196687 -0.07740233 -0.06873466 -0.004234399
000310 53 62 2a 3d 7f c9 69 3d 73 b1 99 3d f2 f0 b1 3c
       0.041597676 0.057076927 0.07504549 0.021721337
000320 85 e6 19 bd 82 18 7a bd 3f 44 78 3d c9 b9 af 3d
       -0.037573356 -0.06105853 0.06061196 0.085803576
000330 46 13 77 bd 49 05 3f 3d 58 d9 db bc dd be 37 ba
       -0.060321115 0.0466359 -0.026837036 -0.0007009337
000340 84 7b 9e 3d 90 3c 4d bd 26 cd 76 bd 03 26 6f 3a
       0.077384025 -0.050106585 -0.06025424 0.00091227907
000350 ac 09 30 3d 3b 65 84 bd 96 c8 65 bd ee 14 87 bd
       0.042977974 -0.06464621 -0.056099497 -0.06595789
000360 53 5b 92 3d 1f c5 5c bd 0f ac 65 bc ff 7b ab bd
       0.07146325 -0.053898927 -0.014018073 -0.0837326
000370 cf b5 ae bd a7 b9 1d 3d 21 6f 4e bd c7 58 67 3d
       -0.08530771 0.03850713 -0.05039895 0.05648115
000380 7a 2f 50 3c 87 3e f1 3b 55 6c 80 bc c2 d4 c0 bc
       0.012706632 0.00736219 -0.015676657 -0.02353895
000390 ea f5 f5 bc 33 d3 25 bd 48 c2 02 3d b8 5d 87 3d
       -0.030024488 -0.04048462 0.031923562 0.06609672
0003a0 78 8e 96 bd d3 3b 66 bd 77 47 67 ba d7 9f 8d ba
       -0.073513925 -0.056209397 -0.00088226 -0.0010805082
0003b0 67 ba 69 3c 53 0d 39 ba 53 5a 15 bb ff 6b 07 3d
       0.014265633 -0.00070591754 -0.0022789433 0.033061977
0003c0 67 fd b3 bd 3e ba 81 3d 9b 56 af 3c 74 93 f0 bc
       -0.08788567 0.06334351 0.021403601 -0.029367186
0003d0 ae 2f 71 3c 49 23 7b bd f0 db da 3c 3f 08 8e 3c
       0.01472084 -0.061312947 0.026716202 0.017337916
0003e0 80 f0 7b bd d8 7e 8c bd 66 10 a8 3d 2e de 9b bd
       -0.061508656 -0.06860131 0.08206253 -0.07610737
0003f0 8e 60 b7 bb 06 dc e7 3c 11 83 9f 3d 58 4c 5d bd
       -0.005596227 0.028303158 0.07788671 -0.054027885

fc2.bias f4 [128]
000000 69 75 fb 3c b1 d5 11 bd 63 91 87 3d aa f9 32 bc
       0.030695634 -0.035604183 0.06619527 -0.010923782
000010 1e b1 17 bd cc ff be bd 2b e9 a4 bd 60 31 85 bc
       -0.037034146 -0.09326133 -0.08052286 -0.016258895
000020 ba 3d 29 3d 66 94 8f bd 86 e7 9f 3d b2 3b 81 bd
       0.041318633 -0.07010727 0.078078315 -0.06310214
000030 01 e3 93 bd 3e 9f 09 3d 40 24 52 3c 96 7f 9c 3c
       -0.07221032 0.03359913 0.0128260255 0.019103806
000040 c0 fd cc 3c 0a c7 ef 3b a3 5b ae bd e7 a1 80 3d
       0.025023341 0.0073174285 -0.08513572 0.062808804
000050 c8 4d db bc 6d cc bc 3d c9 a3 3b bd ad 41 21 3d
       -0.026770487 0.092186786 -0.045810495 0.039369274
000060 46 13 8a 3c c2 7c f8 3c e5 14 31 3d bb d3 4c 3d
       0.016854893 0.030332927 0.043232817 0.05000661
000070 a5 72 b6 bd af a2 93 bd e9 a7 4a bc 83 b6 98 bd
       -0.089085855 -0.07208764 -0.012369134 -0.07456686
000080 be d1 10 3d 7c d5 57 3d fc 14 88 3c 4e 27 43 3d
       0.035356276 0.05269383 0.016611569 0.047644906
000090 0b f3 63 ba d1 5a 66 bd 73 69 a1 3d 90 19 0e bd
       -0.0008695579 -0.056238953 0.07881441 -0.034692347
0000a0 2a 17 76 bd 63 03 34 3c db ec a6 bd 8d 45 61 3c
       -0.060080685 0.010987136 -0.08150645 0.013749492
0000b0 2a 51 ed 3c 64 0f 1e bb f1 bd 43 bd d1 15 2d bd
       0.028969366 -0.002411806 -0.047788564 -0.042257134
0000c0 e5 52 b3 3d 5d 13 c7 bc 84 db c9 bc 0c 12 85 bd
       0.08756045 -0.024301225 -0.024640806 -0.06497583
0000d0 e2 24 56 3d dd d2 8e 3d f6 ed ad bc 2a d8 1c bd
       0.052281268 0.06973813 -0.021231633 -0.038292088
0000e0 d8 94 f4 ba 27 b6 73 3d 7a 08 97 bd 15 58 74 bc
       -0.0018660082 0.059499886 -0.07374664 -0.0149135785
0000f0 a9 04 1c 3c 3c b4 9d bd 9f 42 81 3c 9a 0b 11 bd
       0.009522595 -0.077003926 0.015778838 -0.035411455
000100 b6 fc 40 3d 2e 61 99 bd f5 c5 5d 3d dc ba 37 bd
       0.047116004 -0.07489239 0.054143865 -0.044855937
000110 16 cf 88 3c a3 9a a1 bd a0 eb 89 3d 0a ea c4 3c
       0.016700309 -0.07890823 0.06734395 0.02403738
000120 18 29 8f 3d 2c e8 7f 3d d1 73 8a ba d7 19 0a bb
       0.0699026 0.062477276 -0.001056308 -0.002107253
000130 20 45 a3 3d 44 95 33 3d fd 21 d1 3c e1 38 a1 3d
       0.07972169 0.043843523 0.025528902 0.07872177
000140 fa 6e 0c 3c 89 78 01 3d 4d c0 16 bb 4b cc 79 bd
       0.008571381 0.031609092 -0.0023002804 -0.060985845
000150 b8 15 7b 3d 8c 0b 52 3d 47 09 fc bb 59 1c 98 3c
       0.06130001 0.051280543 -0.0076915356 0.018568205
000160 71 c0 a5 3d ad 87 87 3c c6 bc 4a 3d ed 6c b7 3c
       0.08093346 0.016544187 0.049496435 0.022390807
000170 84 44 90 bd 10 76 b1 bc e3 9f a9 bd d6 c8 af 3d
       -0.07044318 -0.021662742 -0.08282449 0.08583228
000180 be 3b e9 3a 7d 7f f6 bc 89 31 6c bd fa 6d 8c bd
       0.0017794294 -0.030090088 -0.057664428 -0.06856914
000190 b3 b0 78 3d 37 82 93 bd 85 e8 ba bb 92 78 ba 3d
       0.06071539 -0.07202571 -0.005703988 0.09105028
0001a0 38 6c 06 bd be 48 57 bd 9c 77 7f 3d 67 6c 1a bd
       -0.03281805 -0.052559607 0.062369928 -0.037701037
0001b0 a0 5c 24 3d c1 52 a6 bd 9c 0b 7e bd 3f 4d ab bd
       0.040127397 -0.08121253 -0.06202279 -0.08364343
0001c0 0e 9f 81 3d 09 62 e4 3b 43 5e da bc 89 87 8a bd
       0.063291654 0.0069696945 -0.026656276 -0.067641325
0001d0 6e 78 5c 3d a0 a4 83 3d 3e 99 e4 3c e5 0c 5f bd
       0.05382579 0.06427884 0.027905103 -0.054455657
0001e0 6d 90 3e 3d 7e 47 87 3c 43 d8 ab 3d 67 f8 e5 3c
       0.046524454 0.016513582 0.08390858 0.028072549
0001f0 18 28 97 3d b5 1c 04 bd 7d 82 85 3c d9 8b a1 3d
       0.07380694 -0.03225394 0.016297573 0.07888002

fc3.weight f4 [2, 128]
000000 31 4a 50 3d 51 5e a5 bd f4 5d b9 3c 0a 2a 69 bd
       0.050852004 -0.0807463 0.022627808 -0.056924857
000010 18 f7 68 3d 9b bb 96 3d 0a e6 96 bc d4 3d ab bd
       0.056876272 0.07360002 -0.018420238 -0.08361402
000020 ad 0c ad bb 74 6d 7c bd 05 80 8c bc 7c 96 94 bd
       -0.005281052 -0.06162782 -0.017150888 -0.07255265
000030 ca d3 1c 3d 42 f9 82 3d 9d ef 75 bd d3 3f 18 3d
       0.038287915 0.063951984 -0.060042966 0.037170243
000040 6b d4 f4 bc 25 ea a1 3c c4 bd 07 3d 05 f6 00 3d
       -0.029886445 0.01976497 0.03313996 0.031484623
000050 5b bb 30 3d 31 ff 59 bd 44 e8 08 3b 65 42 85 3a
       0.043147426 -0.053221885 0.0020890394 0.0010166882
000060 ca 4a bb 3a a5 4f ea 3c ec 08 fb 3c a1 02 33 3c
       0.0014289257 0.02860243 0.030643903 0.01092592
000070 d4 20 87 3c c0 1d 8a bd df eb 82 bd 02 9a e2 bc
       0.016495146 -0.067439556 -0.06392645 -0.027661327
000080 56 e6 5e bd 74 d8 4a 3d 11 74 29 3d 42 c5 8f 3d
       -0.054418884 0.049522832 0.041370455 0.07020046
000090 e5 03 12 bd 3e a8 71 3b 54 ca 89 bc 52 07 a2 bd
       -0.035648245 0.0036873962 -0.01682011 -0.079115525
0000a0 12 fe b3 bd 0b 7d 38 3d 3a 84 a8 bd 96 d4 28 3d
       -0.087886944 0.045041125 -0.08228345 0.041218363
0000b0 9a b9 3b bd f5 9d a7 bc c9 cb 38 3d fb 47 ff 3c
       -0.0458313 -0.020461062 0.04511622 0.031162253
0000c0 ef ad 81 3d 33 9c 92 bd ad 86 92 3d 4b 93 81 3d
       0.06332003 -0.07158699 0.071545936 0.06326922
0000d0 80 8d b5 bd 6f 71 9a 3d 5a 55 9b bd 59 6d aa bc
       -0.088648796 0.07541167 -0.07584639 -0.020804094
0000e0 74 4d 6b bd d2 03 53 3d c7 24 3e 3d f6 49 63 bd
       -0.057446912 0.051517315 0.046421792 -0.055490457
0000f0 f0 d7 ae bd f6 8c 05 3d 3d e4 04 bd 96 bb 05 bd
       -0.085372806 0.032605134 -0.032444227 -0.0326496
000100 5b 6b 40 bd 60 c8 df ba b3 df 84 bd 9a b7 ad bd
       -0.046977382 -0.0017073266 -0.0648798 -0.08482285
000110 b9 62 9d bd 67 30 60 3d c5 1d d5 3c fe de 5b 3d
       -0.076848455 0.05473366 0.026015172 0.05367946
000120 ce 5e 45 3d 96 6e aa bd e4 1e 81 3d ab 4e 1d 3d
       0.048186116 -0.08321874 0.0630472 0.0384051
000130 bb 45 b0 3d 9f de 0c bd c3 5b 28 3d fe 9e 6b bd
       0.0860705 -0.034391996 0.041103136 -0.057524674
000140 1b 29 21 bd f5 07 fc ba d7 8e bb bd 55 84 27 3d
       -0.03934584 -0.0019228446 -0.09158104 0.040897686
000150 de da 03 bd a7 36 7e 3d c1 d4 ac 3d 20 f7 ab 3d
       -0.03219115 0.06206384 0.08439017 0.08396745
000160 c8 d2 c3 ba 01 11 b7 bc be d8 98 bd f5 d7 b1 3d
       -0.0014940137 -0.022346975 -0.07463215 0.08683769
000170 c5 1a 08 3c 47 11 5b 3d 05 c7 2c 3d 5d ac 46 bd
       0.008307164 0.053483274 0.042181987 -0.048504222
000180 c2 af 9a bd f6 b8 40 bd 44 8f 7f bc 10 ac 92 3d
       -0.075530544 -0.047051392 -0.015598122 0.071617246
000190 24 09 00 3d 88 54 88 bd aa 11 1c 3d a8 30 7b bd
       0.031258717 -0.06656748 0.038102783 -0.0613257
0001a0 29 02 21 bd 4f 61 82 3d e2 34 45 bd fd c7 70 bc
       -0.0393087 0.063662164 -0.048146136 -0.014696118
0001b0 a0 f3 17 3c 9f bd 04 3d f8 35 de 3b b0 41 e0 3c
       0.009274393 0.0324074 0.006781336 0.027375072
0001c0 17 cc f5 3c 86 cb 83 bc 96 47 44 3d 7c 7a 13 bc
       0.030004544 -0.016088258 0.047919832 -0.0090013705
0001d0 28 81 83 bd 40 2c b2 3d 6b 7c dd bc c1 df ca bc
       -0.06421119 0.08699846 -0.027036866 -0.024764897
0001e0 53 d4 a5 bd 06 30 c8 bc 7d 73 b3 bb 3a 9f d5 3c
       -0.08097138 -0.024436962 -0.0054764138 0.026076902
0001f0 01 fc 88 3d 2f 9d ad bc 98 e5 25 3d bf 7c 3a bd
       0.06688691 -0.021193115 0.04050216 -0.045529123
000200 a4 d9 e2 bc 38 eb 73 3d ff 4d f1 3c ee 00 b5 3c
       -0.02769167 0.059550494 0.029456137 0.02209517
000210 ad c3 83 bd a8 de 82 bd 83 06 bf 3c c0 51 99 3c
       -0.064338066 -0.063901246 0.023318535 0.01871574
000220 a1 24 2a bd a0 bc 8e 3d 85 94 11 bd 1e 1e 8b bd
       -0.04153884 0.06969571 -0.03554203 -0.06792854
000230 4b ae 03 bd 96 b7 ac 3c 97 8e 96 3d db ec b0 3d
       -0.03214864 0.021083634 0.073514156 0.086389266
000240 38 f7 8b bd 50 77 52 bd fb 7e a8 bd 16 32 a1 bd
       -0.068342626 -0.051383317 -0.082273446 -0.07870881
000250 cd 6a 34 3b 18 d4 c0 bd ae ac 47 bd 12 13 90 bd
       0.0027529479 -0.09415454 -0.048748665 -0.070348874
000260 b5 f7 83 3c aa 99 a1 3d 67 41 89 3d 41 87 f1 bc
       0.016109327 0.07890637 0.06701928 -0.02948344
000270 8b 6a 9a 3b 69 72 27 3d fe f3 8a b9 1b fe 51 bd
       0.004712408 0.040880594 -0.000265032 -0.051267724
000280 9d 0e a4 3d 61 58 8d bd ac 3a 12 3d d7 b8 f3 bc
       0.080106 -0.069016226 0.035700485 -0.029751224
000290 0a f0 d5 bc c3 2d 98 bc 74 21 99 bb 34 22 9c 3d
       -0.026115436 -0.018576508 -0.0046731774 0.07623711
0002a0 a9 94 b4 bd cb 41 19 3c 78 84 ac bd 2c 68 9f 3d
       -0.08817417 0.009354065 -0.08423704 0.07783541
0002b0 54 63 9a bd 9d ab 20 bc 3e 16 c4 bd 67 b9 2b 3d
       -0.075384766 -0.009806541 -0.09574555 0.04192486
0002c0 90 af 82 3d 8f f3 47 bc fa 06 27 bd 80 dc 0f bd
       0.06381142 -0.012204065 -0.040778138 -0.035122395
0002d0 4b 51 10 3d 99 86 a7 bd c8 0e 5d bd 39 36 6c bc
       0.035233777 -0.08179969 -0.053969175 -0.014417225
0002e0 c5 0b 6f bd 8c b1 f9 bc 70 94 67 3d 87 3b 0d bd
       -0.058360834 -0.030480169 0.056538045 -0.034480598
0002f0 5e 7f 1a bd dd df e1 3c 6f 94 ba bd 2d 96 1d bd
       -0.037719123 0.027572567 -0.09110343 -0.038473297
000300 45 65 9f bd 80 f3 5d 3d cb b5 0c bd cc 04 a4 ba
       -0.077829875 0.054187298 -0.03435306 -0.0012513637
000310 f4 6b 75 3d 50 3d a9 bd d9 b0 28 bc ce 69 88 bd
       0.059917405 -0.082636476 -0.01029607 -0.06660806
000320 a7 7e 08 3d ec 83 8d bd 96 e2 d3 3c 63 af 83 3d
       0.03332391 -0.06909928 0.02586488 0.06429937
000330 d7 7a 78 3d 66 d8 ac 3c 52 cc b3 bd c6 ab 37 ba
       0.060664024 0.02109928 -0.087792054 -0.0007006492
000340 75 50 8d bd 71 57 b4 bc d8 60 7b bd 78 97 18 3d
       -0.069001116 -0.022014352 -0.061371654 0.037253827
000350 40 b1 98 3d bc 8b 88 3c 29 fe 94 bd cb 57 8f 3d
       0.07455683 0.016668193 -0.0727504 0.06999167
000360 c0 d0 64 bc 65 98 4e 3d cc 20 a0 bd d0 69 a7 bd
       -0.0139657855 0.050438304 -0.078187555 -0.08174479
000370 92 50 86 bd 40 9c 8f 3a 2d 50 c4 3c b3 1c cc bd
       -0.06558336 0.00109566 0.023964012 -0.099664114
000380 f1 8d e9 bb a0 2e e3 3c e1 81 70 3d ea 08 2a bd
       -0.0071275164 0.027732193 0.058717612 -0.041512407
000390 34 8c 84 3d 0a 9b 7d 3d 0a b8 e9 39 60 31 72 bd
       0.06472054 0.061915435 0.00044578343 -0.05912912
0003a0 5d 16 15 3b 97 2b 87 3d 42 85 86 3c 71 6d c2 3c
       0.0022748925 0.06600111 0.016420964 0.023733826
0003b0 4e c3 96 bd b5 87 1d bd b7 10 9d 3c 4c bb 4b 3c
       -0.0736147 -0.0384595 0.01917301 0.012434792
0003c0 a4 e9 a2 bd e7 1e 0a bd 7f 5f f0 3b e9 05 87 3d
       -0.0795472 -0.033720877 0.007335603 0.06592924
0003d0 17 f7 56 3c d5 55 05 3d 0a 28 a1 3b 30 a8 a7 3c
       0.013120434 0.03255256 0.004918103 0.02046594
0003e0 87 7d 6b bc 21 02 49 3d f6 1d a0 bd cb 3f ff bb
       -0.01437319 0.049074296 -0.078182146 -0.007789587
0003f0 b0 d2 06 bd 78 bc a1 bd 9a ff 4f bb 1d 86 36 bd
       -0.03291577 -0.07897276 -0.0031738044 -0.044561494

fc3.bias f4 [2]
000000 c9 f3 ef bc e3 2f 23 3d
       -0.02929105 0.03984059

fc1.weight f4 [128, 84]
000000 a2 9e b6 bd fb f0 8c bd 49 fd 5d 3c b4 7f 06 3d
       -0.089169756 -0.06881901 0.013549157 0.03283663
000010 60 e5 9d 3d f2 70 1b 3d 6e 36 e7 bc bb 75 6b bd
       0.077097654 0.03794951 -0.028224196 -0.057485323
000020 37 cd 92 bd 52 46 37 bc 51 1c c7 bd 8f e3 99 bc
       -0.07168048 -0.011186199 -0.09722198 -0.018785266
000030 d4 73 a7 bd db 39 cc bd f4 89 10 3d a8 0f fd ba
       -0.08176389 -0.099719726 0.035287812 -0.0019307034
000040 f5 10 c3 bd 94 4a d5 3d e5 50 20 bc a3 61 97 bd
       -0.09524719 0.10414615 -0.009784912 -0.073916696
000050 6f 99 14 bc 8b 9f a6 bd ae 5e b5 bd 33 50 1c bc
       -0.009069785 -0.08135899 -0.08855949 -0.009540605
000060 63 31 91 bd cb 50 22 3d a6 3f 2f bd 26 5e 3f bd
       -0.07089498 0.03962783 -0.04278531 -0.046720646
000070 b5 d5 c0 bd a9 cf af 3b be 1c a8 3d c5 a3 40 bd
       -0.094157614 0.005365331 0.08208607 -0.047031183
000080 bb 76 7b bd d9 d3 d6 bc f3 c3 9a 3d 81 93 8a bd
       -0.061392527 -0.026224064 0.075569056 -0.067664154
000090 45 c6 b1 bd 67 8f c6 bc 78 1c ff 3c 20 75 68 bd
       -0.08680395 -0.024238301 0.031141505 -0.056752324
0000a0 b8 d3 96 bd 56 6e c2 3d ee 96 7f bd 0d 8a eb bc
       -0.07364601 0.09493701 -0.062399797 -0.028752351
0000b0 07 49 e1 3b 57 6a b5 bd d5 ae 2a 3d cd 73 b0 bd
       0.0068751606 -0.08858173 0.04167064 -0.08615837
0000c0 8e 9a 25 bc 21 f8 d7 bd bf 3b b2 3d c3 33 ce 3d
       -0.0101076495 -0.10545374 0.08702802 0.100684665
0000d0 51 e6 92 3d 78 83 83 3d cf 40 dd bd 6b 75 32 bd
       0.071728356 0.0642156 -0.10803377 -0.04356901
0000e0 f0 af 10 3d bb ce 2b 3d a8 35 77 3d be 60 4c 3c
       0.035324037 0.0419452 0.060353905 0.012474237
0000f0 42 bf a0 bc 9a 68 0d bd 13 2c d7 3d 83 b5 6d bd
       -0.019622449 -0.034523584 0.10506453 -0.05803443
000100 a9 41 2d 3b 76 1b 9d bd 5e 1a 91 bd b0 7e 22 bd
       0.0026436842 -0.076712534 -0.07085107 -0.0396716
000110 b1 bc b0 3d a6 79 c2 bd 2f 02 b7 3c 03 f0 e3 3c
       0.0862974 -0.09495859 0.022339908 0.027824407
000120 ad 19 91 bd e6 ca 9b 3d 46 40 d9 3d ff a8 d8 bd
       -0.070849754 0.07607059 0.10607962 -0.105791084
000130 2a e3 f4 3b 1c 81 24 bc a0 56 42 3b 72 a9 c0 3c
       0.007473369 -0.010040548 0.0029653683 0.023518298
000140 58 89 20 bd 5e ef a7 3d 2e 5e 65 3c f3 b9 55 3d
       -0.03919348 0.081999525 0.013999505 0.052179288
000150 bd 9f 21 bd c1 72 f1 3c 67 9b 25 bd cb 03 93 3d
       -0.03945898 0.029473664 -0.040431406 0.07178458
000160 cb cf 68 bd 63 3e 0b bd cc 24 84 bc 3b 24 4a bd
       -0.05683879 -0.033995043 -0.016130827 -0.04935096
000170 22 8e 6b 3d bb 5f 73 3d 89 7a cf bd d7 83 3b 3d
       0.057508595 0.059417468 -0.101307936 0.04578003
000180 03 2c 13 bd 1c d7 2a 3a 1e 81 9d 3d 11 44 dd 3d
       -0.035930645 0.0006517039 0.07690643 0.10803998
000190 b0 36 0b bd e0 1f bd 3d a4 44 3f bd 81 02 64 3d
       -0.0339877 0.09234595 -0.04669632 0.05566645
0001a0 ac da 93 bc b0 14 97 bd dc 61 06 3c b6 64 19 bc
       -0.018048607 -0.07376993 0.008202042 -0.00936239
0001b0 ed c7 6c 3d 35 8f e7 bc 89 ab dc bd b8 a6 02 3d
       0.05780785 -0.028266529 -0.10774905 0.031897277
0001c0 a0 c1 72 bd d1 10 f8 bc b3 c8 72 bc 1d a1 79 3d
       -0.059266686 -0.030281456 -0.014818358 0.060944665
0001d0 a0 38 dc 3d 7f 9c 97 3d 92 73 45 3d 10 0b b4 bd
       0.10752988 0.07402896 0.04820592 -0.087911725
0001e0 76 f1 4f bd 05 a1 c4 3d c7 e4 b6 3d ba 9e bb 3d
       -0.050767384 0.096010245 0.089303546 0.09161134
0001f0 82 ef 52 bd e6 fc b5 3d 6b 89 95 3d 2a dc 74 3d
       -0.051497944 0.08886127 0.07301601 0.059780277
000200 4e e9 36 3c 33 7c 67 3d 33 57 46 3c b1 f7 df 3d
       0.011164023 0.05651493 0.012105751 0.10935915
000210 5b dc d8 bd fe 43 dd bd 72 09 d4 3c 35 0e d8 bd
       -0.105889045 -0.10803984 0.02588341 -0.10549585
000220 80 a4 a7 bd a2 b7 23 bc 43 d8 cf bc 6f 15 7a bd
       -0.08185673 -0.009992512 -0.025371676 -0.061055597
000230 28 80 36 bd 44 df a5 3d 7e a1 32 bd c5 78 ca 3d
       -0.044555813 0.08099225 -0.043611042 0.09886316
000240 cf ac ca bc 44 4c b1 bd 09 f4 e6 3c d9 32 7a 3d
       -0.024740605 -0.08657125 0.028192537 0.06108365
000250 f5 d1 ca 3d f8 91 3a bd 61 83 92 3d 33 19 60 bd
       0.099033274 -0.045549363 0.07153965 -0.05471153
000260 e5 06 2a bc 7d 4c a5 bc a9 c7 b4 bc d3 74 62 bb
       -0.01037762 -0.020178074 -0.022067862 -0.0034554496
000270 37 6e 25 3d 61 f8 d0 bd 84 20 6b 3c b8 01 d5 3d
       0.040388312 -0.102036245 0.014351014 0.104007185
000280 38 71 ad 3d 7d 13 6f bc 99 b0 d0 3c 94 ee c0 bd
       0.084688604 -0.014592049 0.025474833 -0.09420505
000290 76 dc 7a bd d0 2d c5 3c 3f fa 10 bd 67 b7 d6 3c
       -0.061245404 0.024069697 -0.035394903 0.0262105
0002a0 d3 e4 98 bd 36 54 14 3d 45 c1 03 3c 24 1f 95 3d
       -0.0746552 0.036213122 0.0080416845 0.0728133
0002b0 87 28 27 bd 01 87 af bd 4e 26 bb 3d aa 6f 8b bd
       -0.040810134 -0.08570672 0.091381654 -0.068084076
0002c0 b5 fe da 3b 32 7e da 3d 50 d8 0e bd 5d 97 2a 3d
       0.0066831955 0.10668601 -0.03487426 0.041648258
0002d0 db 56 cc bd 17 d8 d1 bb 30 a7 86 3d fd ec bf 3c
       -0.09977504 -0.0064039337 0.06574857 0.023428435
0002e0 61 5e de 3c 17 47 6e bd 5d 8d 39 3c a6 69 dd 3b
       0.027144613 -0.058173265 0.011325208 0.006756979
0002f0 38 f2 94 bd c6 c2 c0 bc b8 25 aa 3d 83 91 68 bd
       -0.07272762 -0.023530375 0.083079755 -0.056779396
000300 75 4e b5 bc b2 d9 97 bd 9b b0 b2 3c 7b f7 cc bd
       -0.022132138 -0.07414569 0.021812728 -0.10008141
000310 a9 b8 b9 3d 4a 7a e7 bb 6d 19 55 3c e0 ae 6c 3d
       0.09068424 -0.0070641385 0.01300655 0.05778396
000320 57 eb 36 bd 18 86 a9 3d f6 04 54 3d 4e f5 30 bd
       -0.04465803 0.082775295 0.051762544 -0.04320269
000330 86 c9 8d bc 2f 11 9f bd 3a 8b 90 3d 7b ae bd 3d
       -0.017308008 -0.077669494 0.07057805 0.09261795
000340 a9 fa 89 bd 25 6c 68 bd b2 de cd 3d 40 ab ce 3d
       -0.06737263 -0.05674376 0.100522414 0.10091257
000350 98 f6 e9 3c ef ae 3e 3c ec 3e d2 3d 83 56 2a bb
       0.028559968 0.011638387 0.10265908 -0.0025991506
000360 20 7a 11 3d 34 9f 33 3c f4 5d bf 3d f2 d4 2a bd
       0.035516858 0.01096325 0.09344092 -0.041706987
000370 2a 3c 75 3d 24 3b c8 bb 1f df 76 bc 01 a1 4d bd
       0.05987183 -0.0061105657 -0.015067845 -0.050202373
000380 4b 3d c6 3c e4 65 84 bd 1b 5a d4 3d e7 06 a5 bc
       0.024199149 -0.064647466 0.10368749 -0.020144893
000390 59 a0 88 bd 57 c7 9e 3d 06 a8 2f bd 64 b3 d5 3d
       -0.06671209 0.07752865 -0.04288485 0.10434607
0003a0 8d b8 0b bd 97 fc a1 3d 90 8f dc 3d fc 3b 26 bd
       -0.03411155 0.07909506 0.1076957 -0.04058455
0003b0 81 23 cd bd a1 99 ce bd f6 2c 45 3d 09 6a c9 bd
       -0.100165375 -0.10087896 0.04813858 -0.09834678
0003c0 40 30 3b bd 3f b2 87 bd 11 e9 c6 bd d8 bd a9 3d
       -0.04570031 -0.066257946 -0.09712423 0.08288163
0003d0 f0 fe de 3c 4d e8 71 3d ba 42 cf 3d 85 bf a4 3d
       0.027221173 0.05905943 0.10120149 0.08044342
0003e0 f4 73 a8 3d e9 53 39 3d 09 62 0f 3c fb db 9f 3d
       0.08225241 0.04524604 0.008751401 0.0780563
0003f0 5b 44 51 bd eb 67 a2 3d 60 84 b1 3d e3 be aa 3d
       -0.05109058 0.07929977 0.08667827 0.0833719

fc1.bias f4 [128]
000000 b7 e1 d4 bd b0 31 bd bd 75 e3 b5 bd e2 5c 59 bd
       -0.10394614 -0.09237993 -0.088812746 -0.053067096
000010 85 dd ab bd 5c fd bb 3d f3 39 14 bd 8c 1d d9 bd
       -0.08391861 0.09179184 -0.036188077 -0.10601339
000020 7b 14 0d 3d e5 a9 51 3d c7 0f b5 bd 89 a9 9d bd
       0.03444336 0.051187415 -0.088409 -0.07698352
000030 0d 0f 36 bc 84 fb e4 bc 8e 95 ac bd 50 72 35 bd
       -0.011111987 -0.027951963 -0.08426963 -0.04429847
000040 97 95 87 bd 12 ff c8 3c 1e ba d1 3c 63 50 87 bd
       -0.06620329 0.02453569 0.025601443 -0.066071294
000050 1c 5d c8 3d 60 1e a1 3d c7 ca bd bd a6 21 c5 3d
       0.09783384 0.07867122 -0.09267192 0.096255586
000060 5e 66 52 3b 0a 90 7d bc 2b 56 27 3d 96 d9 84 bd
       0.0032104473 -0.015476236 0.04085366 -0.06486814
000070 be ef 2c 39 4b 14 c3 3c cc 87 30 bb bd a4 8e 3d
       0.00016492509 0.023813387 -0.002693641 0.06965015
000080 94 de 9e bd b0 18 2d bd c2 f3 de bd 22 b7 b0 3d
       -0.07757297 -0.042259872 -0.10886337 0.0862868
000090 82 83 98 3d 37 96 bb 3d 4e 12 24 bd 1b 60 4e bd
       0.07446958 0.091595106 -0.04005652 -0.050384622
0000a0 d1 bd ca 3d 55 22 a9 3d 0e c8 20 3d 9f 0a b4 bd
       0.09899486 0.082585014 0.039253287 -0.08791088
0000b0 ea fa 9d 3d bd d5 3d 3d 53 52 9c 3b 13 0b d1 3c
       0.07713874 0.046346415 0.004770556 0.025517976
0000c0 01 81 00 bb 89 2d bc 3d 22 77 90 ba 23 93 d7 bd
       -0.0019608142 0.09188373 -0.0011021832 -0.10526111
0000d0 52 ac c8 3c 38 8f 5c 3d c5 d6 78 bd a3 46 59 3d
       0.024496231 0.05384752 -0.060751695 0.05304588
0000e0 d2 d3 6f 3d 9e fe 9e 3d 0c 94 cd 3d 8d 3f dd bc
       0.058551617 0.07763408 0.10038003 -0.027007842
0000f0 4f 4e 22 3d f7 13 b8 3b f3 c0 a8 bd 01 f7 90 bd
       0.039625462 0.0056176144 -0.08239927 -0.07078362
000100 11 41 2b 3c 87 ef 1f 3d 30 e8 b5 3c b4 27 66 3b
       0.010452525 0.03904679 0.022205442 0.003511888
000110 5a 9b b7 3d cd 6b f3 3c 3b bd e1 bd 3a 4a 87 3d
       0.08965178 0.02971449 -0.11022421 0.066059545
000120 34 60 08 3d a2 02 2e bd 8f a5 0b 3d 70 e9 de bd
       0.03329487 -0.04248298 0.034093436 -0.108843684
000130 f9 25 93 bb 36 01 be 3d 02 07 8c 3d 92 b4 32 bd
       -0.0044906107 0.09277575 0.06837274 -0.043629237
000140 35 31 a5 3c a4 41 b5 3d 6c f6 2e 3d 0c 65 be 3d
       0.020165065 0.088504106 0.042715475 0.09296617
000150 c7 75 12 bd b4 97 8c bd 13 d6 b2 bd c4 9d 2d bd
       -0.035756852 -0.068648726 -0.08732238 -0.042386785
000160 b9 58 98 3d 72 28 9b bc ce c7 96 3d be a1 91 3c
       0.074387975 -0.018940184 0.073623285 0.01777732
000170 7f 30 fa ba 6f 09 c8 bd 7d f5 bb bd d5 df d3 3d
       -0.0019087939 -0.09767424 -0.091776825 0.10345427
000180 bc 08 ef bc e0 ba 43 3c 73 32 73 bd 96 7d 6d 3d
       -0.02917897 0.01194641 -0.059374284 0.057981096
000190 0c d2 26 3d d7 38 69 3d 10 fa 91 bd 65 a2 8b 3a
       0.04072766 0.056938972 -0.07127774 0.0010653256
0001a0 7b 4e 17 3d cd 62 ae 3d bd e7 91 3d 34 fb 9a bc
       0.03694008 0.085149385 0.07124279 -0.018918611
0001b0 25 b2 8d 3c d0 f0 c5 3d 05 e6 95 bd bb f6 b2 bd
       0.01729686 0.09665072 -0.07319263 -0.08738466
0001c0 22 a8 a8 bd 1c cd 9b bd 2c 0f 66 3d 44 03 10 bd
       -0.08235194 -0.07607481 0.056166813 -0.035159364
0001d0 5e b8 ac bd 12 75 b3 3c 37 3b 00 3d d4 51 3c 3d
       -0.08433603 0.02190641 0.03130647 0.045976475
0001e0 e4 ad be bc d6 d2 89 bc dc 52 8c bd 2a 55 18 bc
       -0.023276277 -0.016824167 -0.06851742 -0.009297648
0001f0 7a 9e 34 bd 0a 79 9e bd 36 b1 b1 bd 41 c1 8f 3c
       -0.044096448 -0.0773793 -0.086763784 0.017548205

fc2.weight f4 [128, 128]
000000 ad c3 5e 3c 2f b2 6b bc 12 69 0e bd 68 2e 5a 3c
       0.013596457 -0.014385744 -0.03476817 0.013316728
000010 ad c2 9d bd 5e c7 92 3d bc b9 50 bd a7 9d 89 bb
       -0.07703147 0.071669325 -0.05095838 -0.004199702
000020 67 c5 ab bc 3b fc 43 bc 92 1c 44 bd ad ed 50 bd
       -0.020968152 -0.011961992 -0.04787881 -0.051007915
000030 d1 4b eb bb 2e 15 6d 3d 97 d8 62 bd b6 09 07 bd
       -0.007180669 0.057881527 -0.055382337 -0.032968245
000040 86 af a7 3d 1d 2d 56 bd e7 17 4b 3d 5c 50 49 bd
       0.08187775 -0.052289117 0.049583342 -0.049148902
000050 a7 96 84 3d 4d f0 69 3d f5 b8 e1 3b 91 4a a6 bb
       0.06474047 0.057113934 0.0068885037 -0.005074807
000060 1d 97 65 bd 61 4c 44 bd f9 44 98 bd 50 1b 11 bd
       -0.056052316 -0.047924403 -0.074350305 -0.035426438
000070 26 38 bc 3b de 31 8d bd 49 7a 9c 3d 13 1f 92 3c
       0.005743998 -0.06894277 0.076405115 0.017837083
000080 3b fa 86 3d c0 e3 1d 3d 18 96 9d 3c f2 78 94 bc
       0.065906964 0.038547277 0.01923661 -0.018124077
000090 6d af 91 bd e2 cc 9e bd ad a6 14 3d 91 b5 90 bc
       -0.07113538 -0.07753922 0.036291767 -0.017664703
0000a0 5a c5 7e 3d 82 a2 47 3d 92 42 58 3b 64 62 36 3d
       0.062199928 0.048738964 0.0032998663 0.044527426
0000b0 ab 1d 41 3d 6e 12 69 3c 60 6b 12 bb 1c 6f 34 3d
       0.047147434 0.014225585 -0.0022341833 0.044051275
0000c0 3e 99 11 bd c7 62 92 3d 3b 11 10 bd 91 2b f6 3c
       -0.035546534 0.071477465 -0.035172682 0.030050071
0000d0 00 09 75 3c ef 68 ab 3d 4c ab ab 3c 71 21 a7 3b
       0.014955759 0.08369624 0.020955704 0.005100422
0000e0 e9 e3 9a bc 20 b1 cf bb 76 1d 84 3d 93 8e 02 3d
       -0.018907504 -0.0063382536 0.06450932 0.03187425
0000f0 8f 5a 8c bd b0 d8 7b 3d 61 c8 95 3c 2a 4e 9b 3d
       -0.0685321 0.061485946 0.018284025 0.07583268
000100 95 05 99 3c 82 f6 cb 3c a6 9f 4a 3d 06 59 d8 bc
       0.01867942 0.024897818 0.04946866 -0.026409637
000110 f6 85 55 bd e3 c4 ae bd 1b b6 75 bd 11 69 47 3d
       -0.05212971 -0.08533647 -0.059988122 0.048684184
000120 88 91 7a 3d 08 7f 15 3d d7 c3 f5 bc d9 da 97 bd
       0.061173946 0.0364981 -0.03000061 -0.07414789
000130 b4 26 8e 3d a8 3e 33 bc 6b 86 a7 bd 37 40 db bc
       0.06940976 -0.010940231 -0.08179935 -0.026764018
000140 43 d8 1e bd 5c 23 9b 3a 23 05 43 bd ec dd ac ba
       -0.038780462 0.00118361 -0.04761232 -0.0013188696
000150 6c a7 83 3c 01 a1 8a bd 2a d8 8f 3d 47 75 af 3d
       0.016071044 -0.0676899 0.07023652 0.08567291
000160 b0 b2 37 bd 4d 96 49 bd 76 c3 ae bd ae 89 82 3d
       -0.044848144 -0.049215604 -0.08533375 0.063739166
000170 3a da 84 3d ef 9c 45 bd e6 e2 88 bd 0e 45 21 bd
       0.06486936 -0.048245367 -0.066839024 -0.039372496
000180 3b 92 0f bd b1 c6 63 bd a5 d7 9e bd 44 65 df bc
       -0.035051566 -0.05560941 -0.07755975 -0.027269967
000190 2d 6e 20 3d 8a ec 64 3d c9 dc 28 bd 3d b7 da 3c
       0.03916757 0.055889644 -0.041226182 0.026698703
0001a0 58 e8 3b bc 62 a4 86 3d 9e 88 b0 3d 99 db ae 3d
       -0.011468969 0.06574322 0.08619808 0.08537979
0001b0 70 fe 8f bd c6 af 90 bd 55 43 02 3c 7f fa 86 3d
       -0.07030952 -0.07064776 0.0079506235 0.06590747
0001c0 ed 9a c6 bb d8 3d 93 3a 03 6e 98 3c e2 65 fd 3c
       -0.006060949 0.0011233641 0.018607145 0.03093237
0001d0 bf ae aa 3d 0c f0 02 3d 6f c2 76 bd ac 97 29 bd
       0.083341114 0.031967208 -0.06024402 -0.04140441
0001e0 d2 dc 75 3d 6e 9e 61 bb 0a 0e b0 bb 79 d4 84 3d
       0.060025044 -0.0034426707 -0.0053727673 0.064858384
0001f0 95 85 3a bd 5c 55 2a bd a8 f8 ad bc 42 2d e7 3c
       -0.04553755 -0.04158531 -0.021236733 0.028219823
000200 30 81 98 bd b9 78 32 3d 74 33 e3 bc 09 12 56 3d
       -0.074465156 0.04357216 -0.027734496 0.052263293
000210 bd de 30 3d 28 5d 66 bd 9d e3 96 3d bb 0b 22 bd
       0.04318117 -0.056241184 0.073676325 -0.03956197
000220 89 a7 03 38 32 42 08 bd 63 38 23 3d 2a 4b fa 3c
       3.1388863e-05 -0.033266254 0.039848696 0.03055342
000230 15 58 38 bd 13 de 50 3d 74 ae 94 bc c8 91 92 bc
       -0.045005877 0.050993036 -0.018149592 -0.01789178
000240 d7 24 73 3b 65 6d ad bd 28 54 37 3d fd 8a 85 3d
       0.0037100816 -0.08468131 0.044757992 0.065206505
000250 95 34 a1 3d 10 6a 71 3d 35 43 0d bb 70 02 ea bc
       0.07871357 0.05893904 -0.002155495 -0.028565615
000260 9f bd 1b 3a 81 f7 6d bd da fb 7f 3d 66 56 80 3d
       0.00059410365 -0.058097366 0.062496044 0.06266479
000270 6c 91 5b bd a2 5f 6d 3d b8 b8 6b 3d 2f 4e 1d 3d
       -0.053605482 0.05795253 0.05754921 0.03840464
000280 d4 3f a0 3d 12 65 43 3c 97 eb 8b bd 01 23 78 3c
       0.07824674 0.0119259525 -0.068320446 0.015145064
000290 dc a4 73 bd 49 16 3b bb 91 e7 62 3c cc af b2 3b
       -0.059483394 -0.0028547219 0.013849155 0.0054530855
0002a0 47 f9 ce ba f2 f8 a2 bd e6 16 1d 3d 31 a3 8f 3d
       -0.0015790843 -0.07957639 0.038351916 0.07013548
0002b0 42 cc 65 bd 34 07 9e bd a9 d3 7a 3d f4 da 87 bd
       -0.056103 -0.07716218 0.06123701 -0.06633559
0002c0 c2 b3 84 bd 83 d7 c1 bc 72 c1 75 bd ca b8 24 3d
       -0.064795986 -0.023662334 -0.059998937 0.04021529
0002d0 01 23 90 3d 1f d5 53 3d 65 a3 6a 3c bb fa 8e 3d
       0.070379265 0.05171692 0.014321183 0.06981417
0002e0 73 b8 85 3d 95 2d f5 3c 62 e0 88 3c e1 68 83 bd
       0.065293215 0.029928962 0.016708557 -0.064164884
0002f0 b2 fb 62 bd e0 0b 16 3d 65 fa 46 3d db b0 3c 3c
       -0.055415817 0.03663242 0.04857864 0.011516775
000300 e6 03 48 bd a2 04 67 3d c6 65 32 3d 85 b6 98 bb
       -0.048831843 0.056400903 0.04355409 -0.00466043
000310 32 b2 1b 38 da 48 44 3d fa 70 8c 3d ce b9 76 3d
       3.7120837e-05 0.04792104 0.06857486 0.06023579
000320 c8 c7 6b bd c7 22 1b bd 54 d3 99 3d 40 f7 c9 bc
       -0.057563573 -0.037874963 0.07511011 -0.02465403
000330 c1 78 ae bd cc 98 93 bc 5e 52 76 3a d7 70 1e 3d
       -0.08519126 -0.018017195 0.0009396429 0.03868183
000340 f3 3e 95 bc e7 4f b9 bc ac 1a 7b 3d fc 4d 5e bc
       -0.018218493 -0.022621108 0.061304733 -0.013568398
000350 ba cb 79 bd 54 76 17 bb 86 9c 42 bd 55 2c 33 bd
       -0.060985304 -0.00231113 -0.047512554 -0.04374345
000360 7c c2 2b 3d 98 7b 1d 3c cc e3 a0 bd a3 81 ac bb
       0.04193352 0.009611987 -0.07855949 -0.0052644773
000370 9f 08 d0 bc f9 77 20 3d 10 32 ac bd 22 c0 1f 3d
       -0.025394736 0.039176915 -0.08407986 0.03900159
000380 5b c7 83 3d c2 1a 7d 3d 22 c2 ab bd 4e aa 9a bd
       0.064345084 0.061793096 -0.08386637 -0.07552014
000390 0d a1 82 bd ec 4a 41 3d 52 0a 26 3d bc 13 45 3d
       -0.06378374 0.04719059 0.040537186 0.048114523
0003a0 bb 3c 0e 3b b3 ab 02 bc bc bf 07 bd 11 d4 e7 3c
       0.0021703679 -0.007975507 -0.033141837 0.028299363
0003b0 33 5b 85 3d 2b 71 0d bd 0d 2e 8b 3d ad c0 87 bd
       0.065115355 -0.034531754 0.06795893 -0.06628547
0003c0 9b 09 83 3d c7 a2 b3 3c e4 5a 05 bd 88 0b a7 3c
       0.063983165 0.021928204 -0.032557383 0.02039124
0003d0 2f 7f c0 bc 0b bd 92 3d ab 37 47 bd 77 ee 8a bd
       -0.023498146 0.07164963 -0.048637073 -0.06783765
0003e0 6d a7 a3 bc 5d 07 06 bb 98 b5 16 bd 4f f9 81 bc
       -0.019977296 -0.0020451166 -0.036794275 -0.01586595
0003f0 f5 61 02 3c 83 f8 8e bd f1 f9 39 bc 20 2c a4 bd
       0.007957925 -0.069809936 -0.011351095 -0.08016229

fc2.bias f4 [128]
000000 b7 ec a5 bd 10 c1 14 bd 85 a9 bf 3c f7 7b 78 3d
       -0.081017904 -0.03631693 0.023396263 0.060665097
000010 48 c0 8a bd 57 30 c8 bc 4a 96 3a 3d 37 5d 7f 3d
       -0.06774956 -0.024437113 0.045553483 0.062344756
000020 88 6e c6 bc ee e9 92 3d b3 72 9c bd 4b d3 93 3d
       -0.024222627 0.07173525 -0.07639065 0.07218035
000030 cd 54 8f bd 17 0d ef 3c 5f 86 4c 3d cd e6 90 3d
       -0.06998596 0.029181046 0.049932834 0.07075272
000040 a6 d1 b3 bd f9 b6 57 bd 60 0d 51 3d cf 10 9c bd
       -0.08780222 -0.05266473 0.051038146 -0.076203935
000050 dc 6f 6c bd e1 0f af bd 7d e2 2b 3d 75 56 ae ba
       -0.057723865 -0.085479505 0.041964043 -0.0013300913
000060 f5 a9 03 3d f9 71 85 bd e3 5d 25 bd 25 28 54 3d
       0.032144506 -0.06515879 -0.04037274 0.051796097
000070 ca 4a 85 3d b7 60 93 bc e9 af 8a bd 1e 96 57 3d
       0.065084055 -0.017990453 -0.067718334 0.052633397
000080 3c d1 a9 bd dd 9f be 3c 79 f4 21 3d 1a e8 ac 3b
       -0.082918614 0.023269588 0.039539788 0.005276692
000090 ed e8 00 bd b0 ad 3f 3d 3a 1e b8 bd e0 ca 0f bd
       -0.031472135 0.0467965 -0.0899014 -0.035105586
0000a0 84 4c 92 3c 93 29 68 bc 64 34 b0 3d 41 94 47 bd
       0.017858751 -0.014170068 0.08603743 -0.04872537
0000b0 85 d2 1a bd e7 f0 b2 bd a8 ab 83 bd 77 4e b5 3c
       -0.037798423 -0.08737355 -0.06429225 0.022132142
0000c0 6e 00 80 bd 92 48 f5 bc a4 fb 91 3d a1 9d 3b bd
       -0.06250082 -0.02994183 0.07128075 -0.045804624
0000d0 81 a8 80 bc 94 dc 10 bd a2 7d 1f 3d 01 df 9e bc
       -0.015705349 -0.03536661 0.038938172 -0.019393446
0000e0 a1 08 00 bd 07 63 9e 3d 2a ff 3c b8 ab 4e 73 3d
       -0.03125823 0.07733732 -4.5060333e-05 0.059401195
0000f0 52 fb 56 bd 37 2c fd 3c 80 62 85 bd 95 09 92 bc
       -0.05248577 0.030904872 -0.06512928 -0.017826835
000100 0d 3d e8 3b 9e d6 19 bc d1 9b ad bd 87 cd e4 3b
       0.007087356 -0.009389548 -0.08476985 0.0069825086
000110 ab a7 ba bc c4 c3 a9 bc 76 fe 40 bd de c3 aa bc
       -0.022785028 -0.020723231 -0.047117673 -0.02084535
000120 fe fd bd 3b 76 68 51 bb 63 13 78 bd e4 48 c6 3c
       0.0057981005 -0.0031953133 -0.060565364 0.024204679
000130 07 df a6 bc 11 84 88 3d 96 b5 81 3d 8c 9b 33 3d
       -0.02037002 0.06665815 0.06333463 0.043849513
000140 92 f8 02 bd 0f 46 64 3d ae fb 1e b9 8d 50 bf 3c
       -0.031975336 0.055730876 -0.00015161812 0.02335384
000150 41 19 83 3c 1b 55 b8 bc d8 fb 04 bd 80 f5 3d bd
       0.016003253 -0.022501519 -0.03246674 -0.046376705
000160 3a ec 6f 3d cf d2 4f 3d 1c 8f b0 3d ee f4 32 bd
       0.058574893 0.050738152 0.08621046 -0.043690614
000170 61 38 aa 3d d4 df 45 3d d7 31 78 3d e0 fb b2 bc
       0.08311535 0.048309162 0.060594406 -0.021848619
000180 f0 6f 96 3d 9d 13 a3 bd d0 7d 6d 3c 8c ff b3 3d
       0.07345569 -0.07962725 0.014495328 0.08788976
000190 c5 44 2d bd 2e 54 14 3d a2 aa 74 3b 28 b1 ad 3d
       -0.04230191 0.036213093 0.003733315 0.084810555
0001a0 0c 43 a1 3d 2f 87 25 3d db 27 92 3d 79 77 6f bc
       0.07874116 0.040412124 0.07136508 -0.014615887
0001b0 f9 c1 1e 3d 07 94 89 bd ae 62 b1 3d 0f a3 ef 3c
       0.038759205 -0.06717687 0.086614 0.029252557
0001c0 24 9b 25 3a 57 04 86 bd e2 6b 83 bc cb cc 02 3d
       0.0006317368 -0.065437965 -0.016042653 0.031933587
0001d0 c1 6f 00 bd 3f 36 68 3d 82 57 c5 3c 0e b0 9e bd
       -0.031356577 0.056692358 0.024089579 -0.077484235
0001e0 e8 57 a1 bc d1 94 8a bd e9 2e 5f 3d 73 c4 dc bb
       -0.019695237 -0.06766666 0.054488096 -0.0067372858
0001f0 ee f4 ae 3d 27 9a 55 bd f1 1b a7 bd 39 a5 01 bd
       0.085428104 -0.052148964 -0.08159626 -0.03165171
