saved_models/episode_800/agent_0.pth (torch, 738018 bytes, 44 tensors)

fc1.weight f4 [128, 5]
00000000: db51 2f3e 3eca b43d cc91 3d3e c3f3 1b3d
00000010: 2902 9ebe 0669 bd3e 7497 013d c4ad 2e3e
00000020: df51 eb3e 4602 a2be ddfa 1d3e a64b d8bd
00000030: 93a8 fcbd c66c c23e 45e6 9e3d 5880 61bd
00000040: ee45 97be f6b4 3c3d 5bd7 8bbe 6f50 853d
00000050: d1de ba3e b6f3 1d3e 82aa 773e 5512 78be
00000060: e891 9abb a1eb d2be 0eb8 a9bc 64e6 85bb
00000070: 34fd dd3e d87e a53e f8ab 4dbd 851a 423d
00000080: 9f0f a8be 07b8 5e3d bb84 a73e ab41 683d
00000090: 9434 6e3e 1c3e 2dbe bada 5f3e b13f 6fbc
000000a0: 3e99 e83e 56ca 1dbe b014 953e 3bfe e33c
000000b0: 9e2f 21be 5a3f 873e 157c 8bbe 3dc9 bf3d
000000c0: 38cf a8be c498 463e 3cac bfbe b7c2 b23d
000000d0: c476 d6bc c2a1 923e 35cd 14be 8881 c13d
000000e0: 8c65 66bd 680b 7bbe f10f d53e 29ba cabe
000000f0: b36a 2f3e 809d 6fbd 1631 b93e 77a1 c8be
00000100: 7e05 b73e de1c 813b a17c 443e 640c 9c3d
00000110: 9f19 ae3e 2599 c83d f739 94be 7f63 243e
00000120: f10d 7bbe 99b1 b13e 685b dd3e 7ffb cbbe
00000130: 9322 86be e368 20be fbcf 11be 7254 ddbe
00000140: 935b bbbe a477 babd e2c1 dc3e fb46 c2be
00000150: 89b5 06bc fe35 e13e 9711 81be 0cc3 183e
00000160: b519 b4be 8795 8b3e 96e8 ab3d aae5 38be
00000170: a284 c3be 3325 eb3e 246e 6dbc 3219 223e
00000180: 8e84 ed3d fe48 493e a08d 2d3e 1f56 c93e
00000190: 86ff 8fbe d0a2 95bd 7ab9 ae3d 020b 173d
000001a0: 2313 42be be35 bc3e 1a46 fb3d e50d 80bd
000001b0: be3c 9bbd fb90 8d3e e45e 2c3c 7735 c83d
000001c0: 2375 fcbd 01ac 2d3e df2c a13e c7a3 853e
000001d0: 76cc 8d3e 00aa db3d 9c2c 1cbe d031 98be
000001e0: a27b 0cbe 7803 21be ce74 01be eb1a a1be
000001f0: 43c0 76be 2bc0 383e 710b 93bd 6b55 b7bd
00000200: 6c3a 98be 01bc 893e 4e2d 99bd aa85 40be
00000210: a947 73bd bd30 323e ff00 d03d 5078 1e3e
00000220: d9f8 f83d bff3 a13e 2c87 03be 9bff 1e3e
00000230: 8aa4 2b3d 2f12 743d 6e62 14be 2eed 5a3e
00000240: b166 40be 4b2c 153e a7dd 093e b177 29bd
00000250: da5f df3e a30f ec3d 2bb5 873e 0438 a1bc
00000260: 29d3 8fbe a8f1 d43e ad42 1fbe c989 6ebe
00000270: 605a 993e e745 c0be 53b7 d1be 00ed aebe
00000280: 198e 4ebd f62e e93d 7998 843e b772 563e
00000290: c7bb 583e 1589 d43e 604a e4be 1546 42be
000002a0: 3088 8a3e 5d06 22be 7808 55be 87fa 9b3d
000002b0: 0186 a9be ad84 c2be b9c3 833e f48d 853e
000002c0: 6798 9a3e 4a96 a63e b515 b23e a403 dabe
000002d0: 885a 8f3e c175 243c 0ae1 803e c030 aebe
000002e0: e2d7 d0bd 1a40 c43e e6fb 68be a189 833c
000002f0: a882 c2be c99f 2bbe 1bc6 41bd 89a6 e4be
00000300: bd7b 0a3d bff9 c9bd 9821 633c 21b0 f43d
00000310: fce9 7c3e a7ab 85be 2907 8fbe 0f01 c53e
00000320: bd1d 2ebe e26e e5be be76 673e 65d5 543e
00000330: 7d35 94be f922 94be 3202 203e 9e86 64be
00000340: 5c43 ef3d b94e 9fbe eba2 7abe b1b8 dc3e
00000350: 497c d0be dd5c ccbe 0685 943e 74b6 f3bb
00000360: 285d e3be 2be9 50be 69aa 113e 4b1d 0abe
00000370: 23ef 36be e11c 5a3e c323 e03e dcee 31be
00000380: 0241 debe d6a5 96be 0e1f cfbe a439 95be
00000390: 76ee 6c3c 151b c63d 8ca9 4d3e f308 c93d
000003a0: 4f6c afbc 3ab0 813d ac74 673c b22e dabe
000003b0: 4d60 053e 3d8d ebbd d469 c93e e8f5 933e
000003c0: 3da7 98be 15f7 a93e 6fc7 37be 8bba b8bd
000003d0: 3915 a83e 486a 8d3e 7565 31be 0d4c 99bd
000003e0: 1e3c 4abe 568f 9abd 6cfe 2dbe 96b1 ab3e
000003f0: fb91 e03d 4728 b9bd c59f 8a3d 2abc 54be
0.17121069 0.08827637 0.18512648 0.038074266 -0.30861023 0.3699419 0.031638578 0.17058474
0.459609 -0.3164236 0.15427728 -0.10561304 -0.123368405 0.37973613 0.07758764 -0.05505404
-0.2954554 0.046071015 -0.2731274 0.06509482 0.3649812 0.15425 0.24186137 -0.24225743
-0.0047171004 -0.41195396 -0.020717647 -0.0040863026 0.4335724 0.32323337 -0.05021283 0.047388572
-0.32824418 0.05437472 0.32718453 0.05670325 0.23262244 -0.16918224 0.21860781 -0.014602588
0.45429415 -0.15409216 0.29117346 0.027831187 -0.15740821 0.2641552 -0.27243105 0.09364555
-0.32970595 0.19394213 -0.37436092 0.08728545 -0.026179679 0.28639036 -0.14531405 0.09448534
-0.056249186 -0.2451607 0.41613725 -0.39595154 0.17130546 -0.058499813 0.36170262 -0.39185688
0.35746378 0.003940209 0.19188167 0.07619551 0.34003922 0.09794835 -0.28950474 0.1605358
-0.24517037 0.3470581 0.432338 -0.39840314 -0.26198253 -0.15665011 -0.14239495 -0.4322849
-0.36593303 -0.09104851 0.4311667 -0.3794478 -0.008221992 0.43986505 -0.25208732 0.14918154
-0.35175863 0.27262518 0.083939716 -0.1805636 -0.38187128 0.45926818 -0.014491592 0.15829924
0.115975484 0.1965675 0.16948557 0.39323518 -0.28124636 -0.07306445 0.085314706 0.036875732
-0.18952613 0.36759752 0.1226923 -0.0625265 -0.07579945 0.27649674 0.010520671 0.097758226
-0.123270296 0.16960146 0.31479546 0.26101515 0.27695054 0.10725784 -0.15251392 -0.29725504
-0.13719037 -0.1572398 -0.12642214 -0.3146585 -0.2409678 0.18042056 -0.07179917 -0.08951839
-0.29732072 0.26901248 -0.07479344 -0.18800989 -0.059394512 0.17401405 0.1015644 0.15475583
0.12156839 0.31631276 -0.12844533 0.15527193 0.041904964 0.059587654 -0.14490673 0.2137954
-0.18789174 0.14567678 0.1346346 -0.041373912 0.43627816 0.1152642 0.26505408 -0.01968003
-0.2809079 0.4159062 -0.15552779 -0.23294748 0.29951763 -0.3755333 -0.40960178 -0.34165192
-0.050428484 0.1138591 0.25897577 0.20942198 0.21165381 0.41510835 -0.44587994 -0.18972047
0.27057028 -0.1582274 -0.20804012 0.07616144 -0.3311005 -0.3799185 0.25735262 0.26084864
0.301944 0.32536536 0.34782186 -0.42580903 0.27998757 0.01003784 0.2517169 -0.34021568
-0.101974264 0.38330156 -0.22752342 0.016056838 -0.37990308 -0.16760172 -0.04730807 -0.44658306
0.033809412 -0.098620884 0.01386299 0.119476564 0.24698633 -0.26107523 -0.2793515 0.3847737
-0.17003532 -0.4481116 0.2260389 0.20784529 -0.28947058 -0.28932932 0.15625837 -0.22316977
0.1168277 -0.31114748 -0.24476211 0.43109658 -0.40719822 -0.399146 0.2900774 -0.0074375216
-0.4440701 -0.20401447 0.14225163 -0.13487737 -0.17864661 0.21300079 0.43777284 -0.17376274
-0.43408972 -0.29423398 -0.4045338 -0.2914554 0.01446115 0.09673134 0.20084208 0.0981616
-0.02141395 0.06332441 0.014126938 -0.4261375 0.13025017 -0.115015484 0.39338553 0.2889855
-0.29815093 0.3319632 -0.17947172 -0.09019955 0.32828692 0.2762015 -0.17323859 -0.07485209
-0.19749495 -0.075468704 -0.16991585 0.33533925 0.109653436 -0.090408854 0.06768755 -0.20774904

fc1.bias f4 [128]
00000000: c48c b0be 80f5 aa3e 4ecb 53be d929 4a3d
00000010: 2aed f7bd b665 55bd d4d6 93be daad 8abb
00000020: edf5 8cbd a2a0 a83e df7e f23d 5f01 b3bd
00000030: 4759 67be 2cdb 1fbe 392c de3e 5ae9 42bd
00000040: bb86 81be 3242 91be 1d03 ce3e 4521 cfbe
00000050: d771 d23e 7c44 b6be 8d7f 863c a21b 1ebe
00000060: 0d97 14be 8a7a bb3e f559 b6be c3ab bebe
00000070: 1d9f b2be c8ff 96bd 91a8 1dbe 54ca 8dbe
00000080: f479 e33e 4612 c4be c58c d73e 0735 96be
00000090: b22f acbd 586f a53d 0034 20bd 2988 b7be
000000a0: 18c9 0fbe 2e9a 933e c8c2 fd3d 8300 653e
000000b0: 0191 9c3e 2e86 303e 4f6d 5abd 497a f3bb
000000c0: 7304 d1be 31f2 7e3e 567d 8cbd afdb b83e
000000d0: 8248 c03e 5f81 d2bd 9fc3 15bc 169a b83e
000000e0: fd6a e1bc 174d 8fbe 921b 503e 9b25 f93c
000000f0: bd0b 88be 34c0 bc3e f905 ccbe 280d da3d
00000100: 657a 353d 9eb6 653c d0d7 5ebe 77d9 8dbe
00000110: cfc0 503e e9dd 823e cdfb 1cbe de2f 87be
00000120: 9727 cd3e 89fc 9abd 91a7 a43d 81dc 6dbe
00000130: 7b0d 27be 83a5 60be 08c6 c4be 0644 0ebe
00000140: 0412 d63e 5764 dcbe 5890 a4be 50de eabd
00000150: 4011 b6be cbe0 2e3e ecbf c6be c564 c0be
00000160: 8114 9b3c e075 d0be 845a efbd 9b1f 643e
00000170: a531 ddbe 3275 cc3e 96f6 a13e f2ce c33e
00000180: ff2e 3dbc a30a 5cbe a251 8fbe b75b 683e
00000190: 11bf d2bc 4490 bbbe ae77 b13e 11dd a03e
000001a0: 2b6c 95be dbbd e0be 2273 d03e bcf3 b53e
000001b0: 3510 7dbe f809 c2be dbb2 37bd ee33 abbc
000001c0: 443e 943e bbdb 69bd 7682 d43e f824 703e
000001d0: b080 c0be 72a8 ad3e 6295 1e3e d606 b3be
000001e0: 24e9 853e 0d48 aa3d a49d 48bd 385b b63e
000001f0: 708c d1be 17c9 7f3e 01ab 0a3e b923 8c3e
-0.34482396 0.33390427 -0.20683023 0.049356315 -0.12105782 -0.052098952 -0.28874838 -0.0042321505
-0.06882844 0.32935053 0.11840605 -0.08740496 -0.2259265 -0.15610951 0.43393114 -0.047585823
-0.25298104 -0.28370816 0.4023675 -0.4045507 0.41102478 -0.35599124 0.016418243 -0.15440229
-0.14510746 0.36616927 -0.35615507 -0.3724042 -0.3488702 -0.07373005 -0.15396334 -0.27693427
0.4442898 -0.38295192 0.42099586 -0.29337332 -0.08407535 0.08077878 -0.03911209 -0.3584607
-0.14041555 0.28828567 0.12390667 0.22363476 0.3057938 0.17238685 -0.0533269 -0.007430349
-0.40823707 0.24897076 -0.068598434 0.36105105 0.3755532 -0.10278582 -0.009140878 0.36055058
-0.027516836 -0.27988502 0.20323017 0.03041344 -0.26571456 0.3686539 -0.39848307 0.106470406
0.044306178 0.01402059 -0.21762013 -0.27704975 0.2038605 0.2555993 -0.1533043 -0.26403707
0.40069267 -0.075676985 0.08039773 -0.23228647 -0.16313736 -0.21938138 -0.38432336 -0.13893136
0.4181062 -0.43045303 -0.32141376 -0.11468184 -0.35560036 0.17077939 -0.388183 -0.3757688
0.018930675 -0.4071493 -0.11687186 0.22277682 -0.43201938 0.39933163 0.31633443 0.38243824
-0.011546849 -0.21488433 -0.27991968 0.22691236 -0.025725873 -0.36633503 0.3466162 0.3141866
-0.29184088 -0.43894848 0.4071284 0.35537517 -0.24713214 -0.3789823 -0.044848304 -0.020898785
0.28953755 -0.057094317 0.41505784 0.23451602 -0.3759818 0.33917576 0.15486673 -0.34966153
0.26154435 0.08314524 -0.048978463 0.3561647 -0.40927458 0.24979053 0.13541795 0.27371004

fc2.weight f4 [128, 128]
00000000: 4f38 7b3d 8be2 09bc f23c ca3a 1c99 70bd
00000010: ec46 063d f76b 99bd 5332 1ebd 4c90 1c3d
00000020: 4c02 a0bc 519f 83bd 5ce4 8cbd 3c01 ecbb
00000030: 02e1 143c 2965 263d 76ca 463d 827a e7bc
00000040: 2366 823c b4f7 38bd 38fc 52bd d2b4 7dbc
00000050: ee84 8b3d 0416 b8ba 29fd 043d eff7 ad3d
00000060: 8706 663c 8d30 863c 949f 083c 19e0 133d
00000070: 8107 8f3d ec30 a03d 0914 083d 60f9 6c3d
00000080: 8ae2 643d b7bd 6e3c 70fe ac3d d4c4 32bd
00000090: 30e1 7dbd b8aa 843d ee64 bfbc 6b85 9e3d
000000a0: 547a d73c 01f5 403c 313c a33d 546d 2e3d
000000b0: 8a89 77bb b3b6 e73c a06d 89bd 8c77 283d
000000c0: dfbb 0bbd 0584 8d3c b425 43bb e987 703d
000000d0: b9c5 c83c b5d0 113d 3060 9e3d ba58 19bd
000000e0: 6184 7b3d 4591 e7bb 9579 823d 8690 70bd
000000f0: 52fd f7bc 2ee4 0ebd 0f15 63bd b5c0 953d
00000100: 0ea9 e9bb 7c6b 38bd d0a8 69bd 7deb 88bd
00000110: 6785 393c 723f 44bd 340b a4bc 9537 9a3d
00000120: 7c36 f8bc d199 b1bd f7b5 21bc bfb9 013d
00000130: f8d0 a4bd c45a 893d f015 89bd 3238 393c
00000140: 322a 60bc 4941 8c3c fe6f a3bd 9761 e3bc
00000150: 20bb 85bc 2547 a0bd b3af b0bd 619d 873d
00000160: d655 7fbc 1ae4 3a3d af5d ccbc 09d8 9a3c
00000170: 91cb db3b 82e3 a5bd 839a c03c 14f0 a1bd
00000180: 8d5d b43d 8076 b3bd 4f96 8abd 5e93 a5bd
00000190: fecb d83c c6a1 98bc b2cb 88bc 0036 973c
000001a0: ea7f 9cbd 882b 5f3d 1c9c 693d c2d9 92bd
000001b0: 8fbd e8bc 594d 443d b94e 503c 17c3 64bd
000001c0: d6c7 20bd ef8c 333d e59c 103d 602c 823d
000001d0: c7f2 a9bd 4ff0 29bc 7f75 8abd 854c 7d3d
000001e0: 1659 55bd 893c 1ebd 3a28 b23d 35c0 143d
000001f0: 3fb1 07bd fc81 213c 2ccb aa3d eeff f4bb
00000200: e27e a43c 8433 aa3d ead9 15bd e1b0 26bc
00000210: 9e83 81bd 1f0d adbd c361 383c 2b1f 953d
00000220: 36eb ab3b 7097 49bd 843a 7c3c 471b 8bbd
00000230: cc21 703d 745d afbd 2bf5 a0bc 94e2 b23d
00000240: 8108 31bc f998 8bbd 249e a63d a139 a839
00000250: 259d 4c3c d91c e1bc 8a00 a9bd 9d70 0ebc
00000260: 5074 1b3d 6961 b33d 8280 adbd c90a 5f3d
00000270: e66d 5f3d 7135 1ebd 17be 263d f4a7 83bd
00000280: 5cd9 413d 48b4 3d3d 1776 2a3d 261d 08bd
00000290: 485e 9d3d e40e 8abd ad68 82bc a811 823d
000002a0: 2da2 30bd a9f6 263b 8cd8 143d 43b1 d73b
000002b0: e32f 113d edec 933d a9fa 283d 88ff 52bb
000002c0: d19b ff3c c834 543d 696b 87bb ce35 83bc
000002d0: fec1 88bd 68de 8c3d 20b9 b4bd 332b 4a3d
000002e0: 9248 ac3d 27ec 97bc cf49 a2bd 2654 acbd
000002f0: 29ad 53bd 73d1 abbd 1ff3 1a3d c14d 45bd
00000300: 5e63 933d 1d85 9ebd c2c4 8cbd b7c0 8abb
00000310: 5362 2a3d 7fc9 693d 73b1 993d f2f0 b13c
00000320: 85e6 19bd 8218 7abd 3f44 783d c9b9 af3d
00000330: 4613 77bd 4905 3f3d 58d9 dbbc ddbe 37ba
00000340: 847b 9e3d 903c 4dbd 26cd 76bd 0326 6f3a
00000350: ac09 303d 3b65 84bd 96c8 65bd ee14 87bd
00000360: 535b 923d 1fc5 5cbd 0fac 65bc ff7b abbd
00000370: cfb5 aebd a7b9 1d3d 216f 4ebd c758 673d
00000380: 7a2f 503c 873e f13b 556c 80bc c2d4 c0bc
00000390: eaf5 f5bc 33d3 25bd 48c2 023d b85d 873d
000003a0: 788e 96bd d33b 66bd 7747 67ba d79f 8dba
000003b0: 67ba 693c 530d 39ba 535a 15bb ff6b 073d
000003c0: 67fd b3bd 3eba 813d 9b56 af3c 7493 f0bc
000003d0: ae2f 713c 4923 7bbd f0db da3c 3f08 8e3c
000003e0: 80f0 7bbd d87e 8cbd 6610 a83d 2ede 9bbd
000003f0: 8e60 b7bb 06dc e73c 1183 9f3d 584c 5dbd
0.061332997 -0.008415828 0.001542954 -0.058739766 0.03278248 -0.07491296 -0.03862221 0.03822355
-0.019532345 -0.064268716 -0.068794936 -0.0072022956 0.009086849 0.040623818 0.048532926 -0.028256658
0.015917843 -0.045158103 -0.051510066 -0.015485005 0.06812464 -0.0014044647 0.032467995 0.08494555
0.014039642 0.016380573 0.008338828 0.036102388 0.06983853 0.07821831 0.033222232 0.05785501
0.055880107 0.014571599 0.084469676 -0.04364474 -0.061982334 0.064778745 -0.023363557 0.07740291
0.026303448 0.0117771635 0.07970465 0.042584732 -0.0037771189 0.02828536 -0.067103624 0.041129634
-0.034114715 0.017274866 -0.0029777111 0.058723364 0.024508344 0.03559943 0.0773319 -0.037438132
0.061405543 -0.007066878 0.06370846 -0.05873158 -0.03027216 -0.034885578 -0.055440005 0.073121466
-0.0071307486 -0.04502438 -0.057045758 -0.06685541 0.0113233095 -0.04791207 -0.020024873 0.07530133
-0.030299418 -0.08671916 -0.009870044 0.031671282 -0.0804767 0.06706765 -0.06693637 0.011304902
-0.013681935 0.017120974 -0.07980345 -0.027756495 -0.01632458 -0.0782607 -0.08627262 0.066218145
-0.01558443 0.04562769 -0.024947016 0.018901842 0.0067076166 -0.08100034 0.023511177 -0.079071194
0.08806906 -0.087628365 -0.0676695 -0.08084749 0.026464459 -0.018631827 -0.016698692 0.018458366
-0.07641585 0.054484874 0.057033643 -0.0717044 -0.028410701 0.047925327 0.012714081 -0.055850115
-0.03925308 0.043835577 0.035305876 0.0635612 -0.08298259 -0.010372235 -0.06760692 0.061840553
-0.052086912 -0.03863195 0.08699079 0.036316115 -0.03312802 0.009857651 0.08339533 -0.0074767983
0.020080034 0.08310607 -0.036584772 -0.010174007 -0.06323932 -0.08449768 0.011253777 0.072813354
0.005246545 -0.049216688 0.015394811 -0.06792312 0.05862598 -0.08562747 -0.019648155 0.087346226
-0.01080525 -0.068162866 0.08135632 0.00032086394 0.012488638 -0.027479576 -0.08252056 -0.008693841
0.03795272 0.08758814 -0.084717765 0.054453645 0.054548167 -0.038625184 0.040708628 -0.06428519
0.04732643 0.046314508 0.041616526 -0.033230923 0.07683998 -0.067411214 -0.015919054 0.06351024
-0.043123413 0.002547661 0.036339328 0.0065824105 0.03544606 0.072229244 0.041254673 -0.0032195766
0.031202229 0.05180815 -0.0041326773 -0.016016867 -0.06677626 0.06878358 -0.08824372 0.049357604
0.08412279 -0.018545223 -0.07924234 -0.084144875 -0.05167881 -0.08389559 0.037829515 -0.048169855
0.07196687 -0.07740233 -0.06873466 -0.004234399 0.041597676 0.057076927 0.07504549 0.021721337
-0.037573356 -0.06105853 0.06061196 0.085803576 -0.060321115 0.0466359 -0.026837036 -0.0007009337
0.077384025 -0.050106585 -0.06025424 0.00091227907 0.042977974 -0.06464621 -0.056099497 -0.06595789
0.07146325 -0.053898927 -0.014018073 -0.0837326 -0.08530771 0.03850713 -0.05039895 0.05648115
0.012706632 0.00736219 -0.015676657 -0.02353895 -0.030024488 -0.04048462 0.031923562 0.06609672
-0.073513925 -0.056209397 -0.00088226 -0.0010805082 0.014265633 -0.00070591754 -0.0022789433 0.033061977
-0.08788567 0.06334351 0.021403601 -0.029367186 0.01472084 -0.061312947 0.026716202 0.017337916
-0.061508656 -0.06860131 0.08206253 -0.07610737 -0.005596227 0.028303158 0.07788671 -0.054027885

fc2.bias f4 [128]
00000000: 2f4b fb3c b1d5 11bd c20b 873d 45ca 20bc
00000010: 56c7 17bd 5035 bfbd 2be9 a4bd 6031 85bc
00000020: dfce 313d 2df2 8ebd 28c8 a23d b23b 81bd
00000030: 1e4c 94bd 3e9f 093d 9b19 553c 967f 9c3c
00000040: 0086 743d 60ba e93b efbd aebd 9c3a 803d
00000050: a7b7 dbbc 4396 c23d ea2d 3abd cb96 203d
00000060: 4613 8a3c fcb4 f63c 2f2c 2f3d 6e76 4c3d
00000070: ad38 b7bd f517 92bd c597 30bc 2d32 95bd
00000080: 6550 0b3d 9536 583d bb3a 863c 6045 423d
00000090: f912 243c d15a 66bd 3a2f a33d c548 0ebd
000000a0: 4170 6abd 17d7 2c3c dbec a6bd 8d45 613c
000000b0: 34b1 ff3c 4fe4 1dbb 97a9 44bd 4622 2dbd
000000c0: db79 b23d 0f66 b9bc 84db c9bc 018d 85bd
000000d0: 5afb 593d ad62 8e3d fd78 05bc 2ad8 1cbd
000000e0: 4393 a939 8bab 7e3d 7a08 97bd 5b02 53bc
000000f0: b524 213c df28 9ebd e114 973c 9c67 0abd
00000100: bffd 403d 1489 99bd 6e8f 673d b422 31bd
00000110: 8658 8e3c 8b03 a2bd e47f 893d 991a c53c
00000120: 17b6 8e3d cd2f 853d 0ceb a0ba 5ddc 17bb
00000130: 462b a33d 906d 333d aad2 cf3c e138 a13d
00000140: f1cd 293c 2bbb 013d c198 9739 03a7 7abd
00000150: b815 7b3d 01f9 503d 90a4 00bc 1c20 953c
00000160: 94e2 a53d ad87 873c c6bc 4a3d f455 173d
00000170: 7da2 90bd 1076 b1bc e39f a9bd 1a63 b53d
00000180: 2e67 553c 7d7f f6bc 6883 6dbd 15a1 8dbd
00000190: b3b0 783d 4d9f 92bd b264 c7bb 4df8 be3d
000001a0: fbb8 02bd dde3 59bd e5d5 813d 1be0 1abd
000001b0: 5eca 233d 5789 a6bd 2fb5 7fbd b7b2 abbd
000001c0: 1345 813d f388 073c bde8 e1bc c1f4 8cbd
000001d0: b0e4 603d a0a4 833d 6e21 eb3c e50c 5fbd
000001e0: 93e7 453d ef12 873c ff9d b13d 51cb e23c
000001f0: 1828 973d 3c77 f6bc 9285 833c 6959 a53d
0.030675499 -0.035604183 0.065940395 -0.00981385 -0.037055336 -0.093363404 -0.08052286 -0.016258895
0.04341018 -0.06979785 0.07948333 -0.06310214 -0.07241081 0.03359913 0.013006593 0.019103806
0.059698105 0.0071328133 -0.08532321 0.06261179 -0.02682097 0.095013164 -0.045453943 0.039206307
0.016854893 0.030115597 0.042766746 0.04991763 -0.08946357 -0.07133476 -0.010778372 -0.07284961
0.034012217 0.05278643 0.016385427 0.047429442 0.010014289 -0.056238953 0.07967992 -0.034737367
-0.05723596 0.010549328 -0.08150645 0.013749492 0.031212427 -0.0024092381 -0.048013296 -0.042269014
0.08714648 -0.022631673 -0.024640806 -0.06521035 0.053218223 0.06952415 -0.008146522 -0.038292088
0.0003234391 0.062175315 -0.07374664 -0.01287898 0.009835412 -0.07722639 0.018442573 -0.033790216
0.04711699 -0.07496849 0.05653327 -0.043245986 0.017376196 -0.07910832 0.06713846 0.024060534
0.06968325 0.06503258 -0.0012277081 -0.0023172118 0.07967238 0.04380566 0.025369007 0.07872177
0.010364042 0.031672638 0.00028914775 -0.06119443 0.06130001 0.05101872 -0.007851735 0.018203788
0.08099857 0.016544187 0.049496435 0.036947206 -0.07062242 -0.021662742 -0.08282449 0.08856793
0.013025088 -0.030090088 -0.057986647 -0.069154896 0.06071539 -0.071592905 -0.006085002 0.09324703
-0.031914692 -0.053195823 0.06339625 -0.03781138 0.039987914 -0.08131664 -0.06242865 -0.083836965
0.06312003 0.008272397 -0.027576799 -0.068826206 0.054905593 0.06427884 0.028702464 -0.054455657
0.04831655 0.01648852 0.086727135 0.02768484 0.07380694 -0.030086152 0.016054902 0.08073694

fc3.weight f4 [2, 128]
00000000: 39a8 4f3d 515e a5bd 56b7 b73c 8ceb 97bd
00000010: 3ccd 573d 6cc9 933d 0ae6 96bc d43d abbd
00000020: 3ca0 8abc dddd 95bd 0cb0 05bd 7c96 94bd
00000030: a715 1c3d 42f9 823d ed3b 8abd d33f 183d
00000040: c166 d4be 0f2e a03c 5407 073d 640b 003d
00000050: 8147 303d 8b9c 8cbd 7e91 a836 28d9 69b9
00000060: ca4a bb3a cbcd e83c ad02 f83c 06c2 273c
00000070: ff95 823c 89a9 9bbd a494 97bd 66cc 28bd
00000080: 1666 6abd c21d 303d 939a 283d 2359 8f3d
00000090: 0bdf 28be 3ea8 713b 30c6 eabc e121 a3bd
000000a0: 4438 c3bd 96e8 343d 3a84 a8bd 96d4 283d
000000b0: f93a 60bd f59d a7bc 2491 353d 5c47 ff3c
000000c0: 6e82 803d 623a acbd ad86 923d c4ae 803d
000000d0: e93e cabd 06fb 993d 9791 5bbe 596d aabc
000000e0: aa83 97bd c0f9 e33b c724 3e3d 4419 89bd
000000f0: d6c7 afbd 42be 043d de22 37bd 3a5a 4dbd
00000100: 5b6b 40bd a339 e3ba 8dc2 a8bd 8839 c4bd
00000110: ce1e b2bd fd79 5f3d bd0a d23c 20a0 5b3d
00000120: 937a 443d 3902 c2bd 96c4 803d 4894 1c3d
00000130: 2c17 573d 95f8 0dbd ce8d 273d fe9e 6bbd
00000140: 66ff 48bd ea06 44bb c762 dbbd 12c5 263d
00000150: deda 03bd b7c8 783d 59aa 443d aa94 ab3d
00000160: 24f6 12bb 0111 b7bc bed8 98bd 14d2 00be
00000170: 4ebd 043c 4711 5b3d 05c7 2c3d f448 80bd
00000180: 1572 4fbe f6b8 40bd fcfd 83bc ef8a 903d
00000190: 2409 003d a844 97bd a8ac 193d 57cd 98bd
000001a0: 1519 4bbd e0fc 7f3d 9963 90bd ac1a 75bc
000001b0: 486a 153c 82aa 033d 371b ae3b 8e79 de3c
000001c0: 8d62 f43c 261d d2bc 7bab 303d d1b4 77bc
000001d0: 59a2 8cbd 402c b23d 49f0 29bd c1df cabc
000001e0: b1ad c2bd e722 0fbd 481b d1bc a212 c33c
000001f0: 01fc 883d 29b8 12bd 20e4 243d 93b9 81bd
00000200: 4255 e4bc 38eb 733d e905 ef3c 1ccb 02bb
00000210: 668d 92bd f370 89bd 8306 bf3c c051 993c
00000220: 4898 7bbd d687 483d d4eb 7cbd 1e1e 8bbd
00000230: 25bf 04bd 96b7 ac3c 81f7 913d dbec b03d
00000240: 5042 bebe f577 52bd 20c8 a8bd dd32 a1bd
00000250: 5215 2c3b 873f f9bd 69e7 51bd de85 91bd
00000260: b5f7 833c 2110 a13d 5c8e 883d ea65 03bd
00000270: 0751 053b 224b cb3c ae98 67bc d15b 9bbd
00000280: 1af4 873d 96fe a1bd b83a 113d 34b0 f5bc
00000290: a1fd 2fbe c32d 98bc 489d 03bd 645c 993d
000002a0: e726 e0bd 269f 003c 7884 acbd 2c68 9f3d
000002b0: 210a c1bd 06b1 21bc a1d4 c5bd 719c 2b3d
000002c0: 3cf1 813d 6d0b 20bd fa06 27bd ccea 10bd
000002d0: a44d fd3c b387 a7bd e6b3 51be 3936 6cbc
000002e0: 2673 a6bd 675a abbd 7094 673d 4af4 5abd
000002f0: 1ddd 1dbd 2020 e03c e185 02be 51b7 8ebd
00000300: 0766 9fbd 2d20 5c3d 33b7 65bd a2ab a8bc
00000310: d4ed 1f3d 4889 a9bd b602 2cbc 0c8d 88bd
00000320: 0161 073d b106 b3bd 10e4 d53c ec3e 833d
00000330: f102 8e3d 4a63 9c3c 0735 b4bd c6ab 37ba
00000340: 137e b7bd 3cc2 b9bc 8f13 b2bd 029a 173d
00000350: 40b1 983d 8377 7a3c a189 d4bd fc49 883d
00000360: 468b 88bc 6598 4e3d cc20 a0bd 4874 8fbe
00000370: 6dc6 86bd 409c 8f3a 2d50 c43c 2766 04be
00000380: 02fd 13be a02e e33c b042 6e3d dad9 30bd
00000390: 348c 843d 2cde 393d 1754 4fba 9ddf aebd
000003a0: 8f0d 6dbc 3cca 853d a248 c7bc 959b bf3c
000003b0: d910 97bd 85ac 22bd bc13 893c eeba 4b3c
000003c0: 0868 a2bd 5645 52bd fe40 56ba 2901 5d3d
000003d0: 9edb 8dbb d555 053d 1e05 9cbc 30a8 a73c
000003e0: f632 23bd f60c e13c 0c9f eabd ee02 4bbc
000003f0: b0d2 06bd 87fe d0bd c559 6fbb 0eca 9bbd
0.05069754 -0.0807463 0.022426289 -0.07417974 0.05268596 0.072161525 -0.018420238 -0.08361402
-0.016922109 -0.07317708 -0.032638595 -0.07255265 0.038106587 0.063951984 -0.06749711 0.037170243
-0.41484645 0.019553212 0.032965973 0.031260863 0.04303694 -0.06865796 5.0237277e-06 -0.00022301509
0.0014289257 0.028418442 0.030274713 0.01023913 0.015940664 -0.07600696 -0.07401398 -0.041210555
-0.057226263 0.04299713 0.04116304 0.06999423 -0.16491334 0.0036873962 -0.028658956 -0.07965446
-0.09532216 0.044167124 -0.08228345 0.041218363 -0.05474374 -0.020461062 0.04432787 0.031161956
0.062748775 -0.08409573 0.071545936 0.06283334 -0.098752804 0.07518582 -0.21442257 -0.020804094
-0.0739816 0.0069572628 0.046421792 -0.06694272 -0.085830376 0.032408006 -0.044710986 -0.050134875
-0.046977382 -0.0017335903 -0.082402326 -0.09581286 -0.08697282 0.054559696 0.025639886 0.053619504
0.04796846 -0.0947308 0.06287496 0.03822735 0.052512333 -0.034660894 0.04090672 -0.057524674
-0.049071692 -0.0029911348 -0.107122 0.040715285 -0.03219115 0.06073829 0.04801402 0.08377965
-0.0022424543 -0.022346975 -0.07463215 -0.12580138 0.008101774 0.053483274 0.042181987 -0.06263915
-0.20258363 -0.047051392 -0.01611232 0.070577495 0.031258717 -0.07386142 0.037518173 -0.074610405
-0.049584467 0.06249702 -0.07050247 -0.014959972 0.009119578 0.03214503 0.005313303 0.027157571
0.029832149 -0.025648665 0.043132287 -0.015118794 -0.06866903 0.08699846 -0.04148892 -0.024764897
-0.09505785 -0.034945395 -0.025525704 0.023812596 0.06688691 -0.03582016 0.04025662 -0.063342236
-0.027872685 0.059550494 0.029177623 -0.0019957488 -0.07155876 -0.067109965 0.023318535 0.01871574
-0.061424524 0.04895767 -0.06174834 -0.06792854 -0.032408852 0.021083634 0.07127286 0.086389266
-0.37159967 -0.05138393 -0.08241296 -0.078710295 0.0026257825 -0.1217032 -0.05124608 -0.07105611
0.016109327 0.078644045 0.06667778 -0.032079615 0.0020342486 0.0248161 -0.014135523 -0.07585872
0.066383556 -0.079098865 0.03545639 -0.029991247 -0.17186595 -0.018576508 -0.032132417 0.07488325
-0.1094492 0.007850444 -0.08423704 0.07783541 -0.0942576 -0.009868866 -0.09659696 0.04189724
0.0634484 -0.039073396 -0.040778138 -0.03538017 0.030920811 -0.081801794 -0.20478782 -0.014417225
-0.081274316 -0.08366852 0.056538045 -0.05345563 -0.03854095 0.027359068 -0.12746383 -0.069685586
-0.07783132 0.053741623 -0.056082916 -0.020589653 0.03904517 -0.082781374 -0.010498693 -0.066675276
0.033051495 -0.08741511 0.026109725 0.06408486 0.06934155 0.019090313 -0.08799177 -0.0007006492
-0.089595936 -0.022675626 -0.08695137 0.037012108 0.07455683 0.015287283 -0.10377813 0.066547364
-0.016667973 0.050438304 -0.078187555 -0.28018403 -0.065808155 0.00109566 0.023964012 -0.12929593
-0.14451984 0.027732193 0.058169067 -0.04317651 0.06472054 0.045377895 -0.00079089537 -0.085387446
-0.014468565 0.06532714 -0.024326626 0.023389617 -0.0737626 -0.03971531 0.016733043 0.012434704
-0.07929999 -0.051335655 -0.0008173137 0.053956185 -0.004329159 0.03255256 -0.019045409 0.02046594
-0.039843522 0.027472 -0.11456117 -0.012390835 -0.03291577 -0.10204797 -0.0036522013 -0.07606898

fc3.bias f4 [2]
00000000: 4f6c 26bd 9435 c33c
-0.040630635 0.023829259

fc1.weight f4 [128, 84]
00000000: a29e b6bd fbf0 8cbd 49fd 5d3c b47f 063d
00000010: 60e5 9d3d f270 1b3d 6e36 e7bc bb75 6bbd
00000020: 37cd 92bd 5246 37bc 511c c7bd 8fe3 99bc
00000030: d473 a7bd db39 ccbd f489 103d a80f fdba
00000040: f510 c3bd 944a d53d e550 20bc a361 97bd
00000050: 6f99 14bc 8b9f a6bd ae5e b5bd 3350 1cbc
00000060: 6331 91bd cb50 223d a63f 2fbd 265e 3fbd
00000070: b5d5 c0bd a9cf af3b be1c a83d c5a3 40bd
00000080: bb76 7bbd d9d3 d6bc f3c3 9a3d 8193 8abd
00000090: 45c6 b1bd 678f c6bc 781c ff3c 2075 68bd
000000a0: b8d3 96bd 566e c23d ee96 7fbd 0d8a ebbc
000000b0: 0749 e13b 576a b5bd d5ae 2a3d cd73 b0bd
000000c0: 8e9a 25bc 21f8 d7bd bf3b b23d c333 ce3d
000000d0: 51e6 923d 7883 833d cf40 ddbd 6b75 32bd
000000e0: f0af 103d bbce 2b3d a835 773d be60 4c3c
000000f0: 42bf a0bc 9a68 0dbd 132c d73d 83b5 6dbd
00000100: a941 2d3b 761b 9dbd 5e1a 91bd b07e 22bd
00000110: b1bc b03d a679 c2bd 2f02 b73c 03f0 e33c
00000120: ad19 91bd e6ca 9b3d 4640 d93d ffa8 d8bd
00000130: 2ae3 f43b 1c81 24bc a056 423b 72a9 c03c
00000140: 5889 20bd 5eef a73d 2e5e 653c f3b9 553d
00000150: e88d 49be 7336 a4be 9b72 cb3d ba6f 61be
00000160: cbcf 68bd de33 20bf 636a 123e 2a66 cbbe
00000170: 5de8 913e bb5f 733d 8d7e 26bf 419d acbd
00000180: fa88 973e 3461 c33d 09af 523e 2ae3 88bd
00000190: ea93 27bd 3014 11be 98a6 5dbe 25ef 3c3e
000001a0: b7a5 0a3d 4f6c 97be 95c6 7abc a96a 89be
000001b0: 7920 3f3e 2efe 103f 654f f8bd 53da 493e
000001c0: e267 07bd 09d8 c93d f821 2e3e ef57 983c
000001d0: e372 8bbd 9d5c 84bb 6d4b 353e d41b c8be
000001e0: a469 103d 1be8 0a3e 3e6a 9a3d ba9e bb3d
000001f0: bc5f 54bf f8db 6b3d 9343 55be ec89 5c3e
00000200: 4ee9 363c 7745 ea3e 43bf 95be 2027 c73e
00000210: 8727 7fbe fe43 ddbd f20c 87be 4180 10bf
00000220: d065 2a3d 4833 babe 43d8 cfbc 94b3 1bbb
00000230: 540a 05bf 3038 d23d a8db a6be c578 ca3d
00000240: cd84 69bd f018 52bd ef5d 293d 6abd 6cbe
00000250: 2871 eb3d 746a 39bd f4aa b13d 33d0 07be
00000260: cec5 a8bd 0a48 85bd 3284 973d c3a8 6abd
00000270: 8a6f bb3d 1c67 2dbe cabd 28bd ae48 1c3e
00000280: d6c3 863d c1dd 98be 2f96 493d b509 9dbd
00000290: a8e6 97bd 3cb9 573d a2c3 933e 7b63 9f3c
000002a0: 3b7d 8bbe df10 7a3d 24f3 04be f4a9 af3d
000002b0: 8728 27bd 82fc 87be c92c a33d 0305 14be
000002c0: 5c74 1dbc 327e da3d a638 e6bb 7faa 8bbd
000002d0: 6f71 82bd 9fe3 1ebe 1e93 ed3c e54e 12bc
000002e0: a0d0 1c3b 5bca a4bd a452 2cbc ddae f5bc
000002f0: 2512 93bd 360b 74bd f011 9b3d bdba a7bd
00000300: de2b 71bd 0ed0 8fbd 75e5 d6bb 333f 71bd
00000310: de39 933d db73 33bd a383 3cbd 105c 343b
00000320: 17e5 a0bd fff5 3eb9 9b01 763c eee3 28be
00000330: 3464 92bc e7cd 35be cf50 fa3c 7bae bd3d
00000340: 5934 d0bd c264 47bd 25e0 ec3c 9974 cb3d
00000350: 98f6 e93c 1e26 6bbd 36fd 903d b4da 97bd
00000360: 8b13 53bc 349f 333c 41b1 a13d 8552 d93c
00000370: 820b 783d 582d 2a3d 1fdf 76bc 0cb8 c4bd
00000380: 80ec 6fbd 61cc f3bd aa00 8a3d e706 a5bc
00000390: 80d6 f9bc 874a f33d 95a1 32bd a484 543e
000003a0: 6bb2 d6bc 30d1 e23d 0801 9e3d ea7c b0bd
000003b0: cd75 f3bd 0cf6 12be 8076 5a3d 046f 0abe
000003c0: 904c beba 4d45 dcbd fef2 9abd 3e21 703d
000003d0: 20f0 5c3d 673b 293e c4ce 8a3d 40b8 3e3d
000003e0: c8f5 813e fba5 b53d 9307 c5bd 6bf1 323d
000003f0: 44b4 ff3c eeb1 303e 7218 a4bd fcbf b2bd
-0.089169756 -0.06881901 0.013549157 0.03283663 0.077097654 0.03794951 -0.028224196 -0.057485323
-0.07168048 -0.011186199 -0.09722198 -0.018785266 -0.08176389 -0.099719726 0.035287812 -0.0019307034
-0.09524719 0.10414615 -0.009784912 -0.073916696 -0.009069785 -0.08135899 -0.08855949 -0.009540605
-0.07089498 0.03962783 -0.04278531 -0.046720646 -0.094157614 0.005365331 0.08208607 -0.047031183
-0.061392527 -0.026224064 0.075569056 -0.067664154 -0.08680395 -0.024238301 0.031141505 -0.056752324
-0.07364601 0.09493701 -0.062399797 -0.028752351 0.0068751606 -0.08858173 0.04167064 -0.08615837
-0.0101076495 -0.10545374 0.08702802 0.100684665 0.071728356 0.0642156 -0.10803377 -0.04356901
0.035324037 0.0419452 0.060353905 0.012474237 -0.019622449 -0.034523584 0.10506453 -0.05803443
0.0026436842 -0.076712534 -0.07085107 -0.0396716 0.0862974 -0.09495859 0.022339908 0.027824407
-0.070849754 0.07607059 0.10607962 -0.105791084 0.007473369 -0.010040548 0.0029653683 0.023518298
-0.03919348 0.081999525 0.013999505 0.052179288 -0.19683039 -0.3207279 0.09933969 -0.22015277
-0.05683879 -0.62579143 0.14298396 -0.39726382 0.28497592 0.059417468 -0.6503685 -0.08428431
0.29596692 0.095400244 0.20574583 -0.06683953 -0.040912546 -0.14167857 -0.21645582 0.18450601
0.033849444 -0.2957482 -0.015306135 -0.26839188 0.18664731 0.5663785 -0.12124518 0.1971219
-0.033058055 0.098556586 0.17005146 0.018596618 -0.06809022 -0.0040393607 0.17704554 -0.3908373
0.035256997 0.13565104 0.07539795 0.09161134 -0.8295858 0.057582825 -0.20826559 0.21536988
0.011164023 0.45756122 -0.29247484 0.38897038 -0.24917422 -0.10803984 -0.26377064 -0.564457
0.041601002 -0.3636725 -0.025371676 -0.002375816 -0.51968884 0.10264623 -0.3258946 0.09886316
-0.057011414 -0.051293314 0.041349348 -0.2311913 0.11496192 -0.045267537 0.08675185 -0.13263015
-0.08240853 -0.06507881 0.07398261 -0.05728985 0.09152134 -0.16933864 -0.041196622 0.152621
0.065803215 -0.29856685 0.04921549 -0.07667867 -0.07417041 0.052666888 0.28860193 0.019456616
-0.2724398 0.061051246 -0.12983376 0.08577338 -0.040810134 -0.26559836 0.079675265 -0.14455037
-0.009610262 0.10668601 -0.007025796 -0.06819629 -0.06369292 -0.15516518 0.029000815 -0.008929943
0.002392806 -0.08046409 -0.01051775 -0.029990608 -0.07181195 -0.059581004 0.07571781 -0.081899144
-0.058879726 -0.07022105 -0.006558115 -0.058898162 0.07188772 -0.04381166 -0.046023976 0.0027520694
-0.078561954 -0.00018211453 0.015015031 -0.16493198 -0.017870046 -0.17754327 0.03055611 0.09261795
-0.101662345 -0.048680075 0.028915474 0.099343486 0.028559968 -0.0574094 0.07079546 -0.07414761
-0.012883077 0.01096325 0.078951366 0.026528606 0.06055785 0.04154715 -0.015067845 -0.09605417
-0.058575153 -0.119042166 0.06738408 -0.020144893 -0.03049779 0.11879449 -0.043611128 0.20753723
-0.026208123 0.110750556 0.077150404 -0.086175755 -0.11887703 -0.14351672 0.053335667 -0.13518912
-0.0014518667 -0.107554056 -0.07565878 0.058625452 0.05393994 0.16526566 0.06777719 0.046562433
0.2538283 0.08869549 -0.09620585 0.043687265 0.031213887 0.17255375 -0.08012475 -0.08728024

fc1.bias f4 [128]
00000000: b7e1 d4bd 7fe1 0abe ffe2 05be bb1a 1b3e
00000010: c599 d9bd eaac 9f3d 0beb 7bbd 04ff e2bd
00000020: 7b14 0d3d 62ae a23c 54d2 00be 84f3 f7bd
00000030: a4e0 63bd b088 8ebd b2ac dbbd 378f e3bd
00000040: 275f cfbd 74bc 9e3e 9843 fa3b dec5 9abd
00000050: d5ca e33c 9be8 5c3d ea01 eebd a621 c53d
00000060: 0236 8bbc a346 c0bc e19d fd3c aefe 8ebd
00000070: 7183 febc b043 273c b3ef 44bd 78e9 333d
00000080: cbc7 13be 5456 5e3d a476 e0bd ce6a 993d
00000090: 1de2 06be 85c5 ab3d 24e1 be3d 9c92 8dbd
000000a0: 2d6c 9d3d 8c9b 8c3d 1bb2 573c a171 ddbd
000000b0: 6fbb 4a3d e3e2 9a3d 9507 9ebc a280 b63a
000000c0: b59e 06bc e1ac 833d b784 07bd d672 fcbd
000000d0: 9ea0 063d 3da9 3a3e 18e1 a7bd 6e3e 0d3d
000000e0: 36b3 293d dcb1 453d 5ede 823e d21f 783d
000000f0: 1d61 de3c 605c 85bb 15b0 18be 302d 49be
00000100: 4e86 abbc 7729 1e3c 40b2 8abd b427 663b
00000110: 425c 833d 1cd2 8ab9 1955 0bbe decb 0cbc
00000120: b76c be3c 13ef a8bd 8fa5 0b3d a36f 00be
00000130: e2ae c9bd a2e0 833d 0544 f33c d993 30be
00000140: e8e1 e0bb fdaf 383d 057c 2d3c e24e 943d
00000150: b206 2dbd 38f8 823d 13d6 b2bd ab5d fdbd
00000160: 6391 983c 576a 6dbd ad0d 103d 0577 8abd
00000170: 5f64 64bc 34b1 13be 443b f9bd 939b 9f3d
00000180: 66a7 66bd b16a debc bf08 283e 1bba 1fba
00000190: 215f 7e3c 0bad 9fbe 4c56 b8bd 32fc a93b
000001a0: 2f58 ec3c 4ff4 5c3d 49f3 4a3d cf74 13bd
000001b0: 8762 a0be a846 a13d 1439 c4bd edbc a8be
000001c0: 06da 21be ffd9 43bd 2019 5ebd 44c5 81bd
000001d0: b9ce 80bd cdeb 49bc 291d 833b cd81 fbbb
000001e0: 3ed9 71bb 36f5 ebbc d13a bdbd 9716 113e
000001f0: 8542 a3bd e733 a03e 4ee7 cbbd 5961 83bc
-0.10394614 -0.13562582 -0.13074873 0.15146916 -0.10625032 0.077966526 -0.06150345 -0.110837966
0.03444336 0.019858543 -0.12580234 -0.12106994 -0.055634156 -0.06959665 -0.107262984 -0.111113004
-0.10125571 0.31003153 0.0076374523 -0.075572714 0.027806679 0.053932767 -0.11621459 0.096255586
-0.016993526 -0.023471182 0.030959072 -0.0698217 -0.031068536 0.010209009 -0.048080157 0.043923825
-0.14431684 0.054281548 -0.10960129 0.074910745 -0.13172193 0.08387283 0.09320286 -0.06912729
0.076866485 0.06865606 0.013165022 -0.108126886 0.049495157 0.075628065 -0.019290725 0.0013923834
-0.00821655 0.064294584 -0.03308555 -0.12326591 0.03286802 0.18228622 -0.0819723 0.034483366
0.041430674 0.048265323 0.25560278 0.06057722 0.027145917 -0.00406985 -0.1491092 -0.19646144
-0.020938065 0.009653441 -0.0677228 0.003511888 0.06414081 -0.00026477955 -0.13606681 -0.008593528
0.023245199 -0.08248725 0.034093436 -0.12542586 -0.098478094 0.0643933 0.02969552 -0.172439
-0.0068628676 0.04508971 0.010588651 0.07241608 -0.042242713 0.06395 -0.08732238 -0.12371381
0.018624013 -0.05796274 0.035169292 -0.067609824 -0.013939946 -0.14423066 -0.12169507 0.07793345
-0.056311987 -0.027150484 0.16409586 -0.00060931005 0.01552561 -0.3118671 -0.09000835 0.0051875347
0.028850643 0.05394393 0.04954842 -0.03600007 -0.3132517 0.07874805 -0.09581199 -0.3295664
-0.15805826 -0.04781532 -0.05422318 -0.063364536 -0.06289429 -0.012324286 0.004001279 -0.0076753856
-0.0036903168 -0.02880345 -0.09239734 0.14168774 -0.07971672 0.31289598 -0.09956227 -0.01603763

fc2.weight f4 [128, 128]
00000000: adc3 5e3c f7f6 1dbf b22b 5fbd b07d 9dbe
00000010: 93f2 64bd 5715 b13d 6b9e 9dbc 7b9b 92bb
00000020: 67c5 abbc 5e7b fbbc be4a 77bd dd6c 18bd
00000030: e7fd 98bd 9354 603d 694c 9fbd 6114 3dbe
00000040: b11c c03d c62f f0bc 93ca 2e3d b0ac 0cbd
00000050: 8fa8 5fbe fc8c b03c 6df4 1ebf 914a a6bb
00000060: 2ba0 0fbd a83e 1ebd 6b1e 91bd 0311 e0bc
00000070: 2b1c ba3b f9d2 a5bd 2034 9b3d ee63 ca3c
00000080: 6d74 093e ed3c 8ebe 48a6 a33c 7adc 38bc
00000090: 412c c6be 74af b9bd 449f b8bc ccfc f13a
000000a0: 5346 303d 41d6 2d3d 6803 0c3d 306b 853d
000000b0: 42f7 903c 92d4 eb3d 5efe e0bc 2874 983d
000000c0: 1117 2ebd d285 773d 13ac 95bd 9ad0 6d3d
000000d0: ae33 4c3a 365f 643e f70c ab3c 5497 f93c
000000e0: 18ca 9bbc a14c 89bc 08a5 203e 145c c43d
000000f0: 58af 6dbd 5b2d 8a3d 76ef babc abad 9c3d
00000100: b349 61bb bb3f 493d c0a4 3d3e 0659 d8bc
00000110: b60e 06bd 3567 debd bfa7 e9bd 380f 24bd
00000120: c785 613d c7f8 b43c d7c3 f5bc 7c0f a0bd
00000130: 486a 143e 3422 3fbb b2cb 7bbd a1d1 d7be
00000140: fbc6 8ebd 5583 9abd ad37 58bd c4e4 923c
00000150: 62ed 143d c585 a4bf 2ad8 8f3d a9d8 fcbc
00000160: b1f0 a7be fdf3 bbbd 5595 03bd 4ad9 eabe
00000170: 6a37 4f3d 8903 2bbf e04a 9abd 5078 3bbd
00000180: 7e84 14ba 412f 34be c872 5dbe 2f17 373d
00000190: 7a42 923c c287 343e c0aa eb3e 6874 68be
000001a0: 683b 9dbb ec8a 253c bf42 df3d 8f11 0f3e
000001b0: 0b51 12bf 907a b2bd a291 1c3d 7524 333e
000001c0: 4170 7fbd 7f17 58bf e6b5 24be 66ec 073d
000001d0: d6ef 833d ab41 223d 9299 b0bd e12f 3bbe
000001e0: 3c1f 2ebd d490 723b f8e8 febc 5411 af3e
000001f0: 1288 99bd 6af9 f4bc 9c2b 48bd f53d c13c
00000200: 3081 98bd 01c2 1f3d 2755 e5bc 16f6 583c
00000210: 1e5d 2b3d 285d 66bd 2215 8d3d 126c 22bd
00000220: 89a7 0338 3242 08bd c8e5 003d c652 96bb
00000230: f936 f6bc 7fc3 4b3d 74ae 94bc 8f82 e3bc
00000240: 8340 963c f713 f8bd c75c 4e3d fd8a 853d
00000250: a91b a13d 438c 473d 8999 353c 7002 eabc
00000260: 0929 04bb f7d2 70bd 1c0f 703d 4ec5 803d
00000270: 9c6e 5bbd acc6 703d 1bbb 543d 2f4e 1d3d
00000280: 5171 983d b586 fa3b 7371 8dbd a4f6 743c
00000290: 2207 cbbd e3da 57bb b690 dabc ccaf b23b
000002a0: 49d4 8f3c c5c3 adbd e616 1d3d 31a3 8f3d
000002b0: a396 85bd 122a c0bd a9d3 7a3d 8fdc 9cbd
000002c0: f467 6abd 631b dcbc 72c1 75bd cab8 243d
000002d0: 588d 823d 73a3 383d 95d5 303c bbfa 8e3d
000002e0: 65cd 833d e452 7d3c eef8 c53b 59cd 96bd
000002f0: 5ab7 4ebd 5d00 473d a762 3d3d d211 6e3a
00000300: ca5b 55bd a204 673d a170 3c3d 85b6 98bb
00000310: 3e3e 263c da48 443d b84d c33c 5066 e53b
00000320: 3eec 4dbd e8f6 25bd 54d3 993d 2c2f 85bd
00000330: eecf b4bd 386b b8bb 5e52 763a ef1a fe3c
00000340: ac72 96bc 7b71 a2bc 311f 823d fc4d 5ebc
00000350: 713e 79bd 7dc5 13bd 869c 42bd 2bb6 8cbd
00000360: e972 4b3d 528c 653c 1159 b3bd cfe2 8239
00000370: 5110 d7bc d688 3fbb 635a adbd 3df6 373d
00000380: 5577 833d 417a 623d 7edd b4bd de14 a6bd
00000390: 0da1 82bd db87 b53a 020d 1b3d cd54 643c
000003a0: d57a 24bc dd68 fbbb bcbf 07bd 11d4 e73c
000003b0: 1265 f33c b613 0ebd 0d2e 8b3d 60fc a2bd
000003c0: bad0 6a3d 2acd 7ebc 86ef 7fbd a3ca 923c
000003d0: 38de c9bc 78c9 733d ab37 47bd 0779 95bd
000003e0: 12e3 71bd 330c a0bd 0c58 17bd 2306 51bd
000003f0: f561 023c 6c1a dfbd f1f9 39bc f83e b4bd
0.013596457 -0.61704963 -0.05448503 -0.30759954 -0.0558954 0.086466484 -0.019240579 -0.004474101
-0.020968152 -0.030698474 -0.060374014 -0.037213195 -0.07470303 0.054768156 -0.07778246 -0.18464805
0.093804725 -0.029319655 0.04267366 -0.034344375 -0.21841644 0.021551602 -0.62091714 -0.005074807
-0.035064857 -0.038633972 -0.0708588 -0.027351862 0.0056796274 -0.080968805 0.075783014 0.024705853
0.13423319 -0.27780858 0.01997675 -0.011283034 -0.38705638 -0.09066668 -0.022536881 0.001846218
0.043035816 0.042440657 0.034182936 0.06514585 0.017696027 0.11515154 -0.027465042 0.0744403
-0.042502467 0.060430355 -0.07308211 0.058060266 0.00077896833 0.22301945 0.020880206 0.030467667
-0.019017264 -0.016760172 0.15687954 0.09587875 -0.05802855 0.06746932 -0.022819262 0.07650312
-0.0034376204 0.049133044 0.18519878 -0.026409637 -0.032728873 -0.10859529 -0.11408948 -0.040053576
0.05505922 0.022091283 -0.03000061 -0.078154534 0.14493668 -0.0029164674 -0.061473556 -0.42152122
-0.06971546 -0.07544581 -0.05278747 0.01793135 0.0363592 -1.2853323 0.07023652 -0.03086503
-0.3280082 -0.091773964 -0.032124836 -0.45868903 0.050589956 -0.6680227 -0.075338125 -0.045769036
-0.0005665495 -0.17596151 -0.21625817 0.044699844 0.017853964 0.17629912 0.4602871 -0.22700655
-0.0047983415 0.010103922 0.10901403 0.13971542 -0.5715491 -0.08714783 0.038224824 0.17494376
-0.062362913 -0.8441085 -0.16085014 0.03318443 0.064422294 0.039613407 -0.08623041 -0.18279983
-0.042510256 0.0037012594 -0.031116948 0.34192908 -0.074966565 -0.029904086 -0.048869714 0.023589114
-0.074465156 0.039003376 -0.027994705 0.013242265 0.04183685 -0.056241184 0.068887964 -0.039653845
3.1388863e-05 -0.033266254 0.031469136 -0.004587504 -0.03005551 0.049746986 -0.018149592 -0.027772216
0.018341308 -0.12113183 0.050381448 0.065206505 0.07866604 0.04871775 0.011083969 -0.028565615
-0.002016606 -0.05879494 0.05860816 0.06287633 -0.053572282 0.05878322 0.05193625 0.03840464
0.074434884 0.007645453 -0.06906404 0.014951382 -0.0991347 -0.0032936863 -0.026680332 0.0054530855
0.01755728 -0.08484606 0.038351916 0.07013548 -0.06522872 -0.09383024 0.06123701 -0.07659256
-0.057228044 -0.026868528 -0.059998937 0.04021529 0.063746154 0.045077752 0.010793109 0.06981417
0.0643566 0.015461657 0.0060416376 -0.07363386 -0.050467826 0.04858433 0.04623666 0.0009081635
-0.05208949 0.056400903 0.04600585 -0.00466043 0.010146676 0.04792104 0.02384077 0.007000722
-0.050274126 -0.04051867 0.07511011 -0.06503138 -0.08828722 -0.005628016 0.0009396429 0.031018702
-0.018365227 -0.019829502 0.063536055 -0.013568398 -0.060850564 -0.03607701 -0.047512554 -0.06870683
0.049670134 0.014010506 -0.087572224 0.00024964518 -0.026252897 -0.0029225848 -0.084645055 0.044912565
0.06419245 0.05529237 -0.08831309 -0.08109449 -0.06378374 0.0013849692 0.037854202 0.013936234
-0.010039051 -0.007672413 -0.033141837 0.028299363 0.02971128 -0.034686767 0.06795893 -0.07958293
0.057327963 -0.015551845 -0.062484287 0.01791889 -0.024642095 0.059518307 -0.048637073 -0.07298475
-0.05905444 -0.07814827 -0.036949202 -0.051031243 0.007957925 -0.108937114 -0.011351095 -0.08801073

fc2.bias f4 [128]
00000000: 46b6 17be be70 9ebd cb18 2bbd 68cf 39bb
00000010: 8374 1dbe 72da 2cbe 8c5d d53c 27b5 a63e
00000020: 1969 37be 63cd 9a3e f3f9 12be 48f3 153e
00000030: 8090 75be 2a69 93be f7b1 19be 0cdc 333d
00000040: f48c 05be d9c6 96bd 12be 2fbd b19c a43c
00000050: 428e f2bd 46dd ffbd b456 15bd 5bf1 96bd
00000060: 509e 2dbd cbf3 ccbd 8c7f a8bd 27be c4be
00000070: 19fc bebe deb4 35bd e6cf cfbd 6a50 253e
00000080: e8d7 cabd 5967 23bd c066 d6bc 2390 d0bd
00000090: cc48 13be 36e1 853c 34d0 d8bd 6076 1c3f
000000a0: ca3f 8dbd ccf6 9abd 05fd 623d 5de8 abbd
000000b0: 2636 16be bfdc c1bd 200b f2bd 68db 0cbd
000000c0: 74e7 00be f3d6 04be a8c7 ea3c d326 e2bd
000000d0: 412d b8bd 6574 a6bd c6b9 593c 49fa 93bd
000000e0: 18e1 95bd fab5 493e 1617 883e 69c6 debb
000000f0: 9f13 d5bd 5a19 1e3c 1f96 12be 90c3 50be
00000100: daac 52be 8ff1 b4bd b779 1bbe 30c1 41bd
00000110: 9388 99bd 35e2 023f 967d 52be 737b 87bd
00000120: 531a 2cbe 3723 a4bc e0e6 91bd a9dc c1bc
00000130: 478f c6bd dcc3 463c 9cd6 973d 8975 8bbc
00000140: 3f2d 83be 6a39 703c 15a8 55bd cb59 5fbd
00000150: 557c 97bd 9cc4 15bf 05b0 9fbd 7ba0 d0bd
00000160: 51b0 4f3d 65aa 143f d33d 263d bdfd a4bd
00000170: b3de 013d e49d 8d3e 1a71 853c 2861 f1bd
00000180: 0413 3f3e 1b93 38be 7221 bbbe 323a d6bc
00000190: a2ea 663e 9796 cdbb be65 f3bc 39d8 343c
000001a0: c612 853c 82be b2bd c730 57bd 57f3 97be
000001b0: 320e 0bbf 4e3e 60be 0deb f23c d9e6 553c
000001c0: 4922 953d dd4f b9bd de41 76bd 1315 b83b
000001d0: e737 66bd 448b 03bd 3ce1 bcbe 0dc2 dabd
000001e0: 3a0a 14bd 94d5 c8be ef42 debc 8986 5bbd
000001f0: 3571 163f f00c 423f 7a40 f0bd 4570 b63e
-0.14815626 -0.077363476 -0.04177169 -0.0028352384 -0.15376477 -0.16880205 0.026045583 0.32560083
-0.17911185 0.30234823 -0.1435316 0.14643586 -0.23980904 -0.2879117 -0.15009294 0.043911025
-0.1304205 -0.07362146 -0.042905875 0.020094248 -0.1184354 -0.124933764 -0.03645964 -0.07370254
-0.042387307 -0.10007437 -0.08227453 -0.38426325 -0.3730171 -0.04436194 -0.10147075 0.16143957
-0.09904462 -0.039893482 -0.026172042 -0.10183742 -0.14383239 0.01634274 -0.105865866 0.61118126
-0.068969324 -0.07566604 0.05541708 -0.08393929 -0.14669093 -0.09465932 -0.11818528 -0.03438893
-0.12588292 -0.12972622 0.028659657 -0.110425614 -0.089930065 -0.08127669 0.013288921 -0.072254725
-0.07318324 0.19698325 0.26580113 -0.0067985547 -0.10404133 0.009649599 -0.14315079 -0.20387101
-0.2057375 -0.08835136 -0.1518315 -0.04730338 -0.074967526 0.51126415 -0.2055572 -0.06615343
-0.16806917 -0.020036323 -0.07124114 -0.02366479 -0.09695297 0.012131657 0.0741398 -0.017023819
-0.25620458 0.014662126 -0.05216225 -0.054528993 -0.07396761 -0.5850313 -0.07797245 -0.10186859
0.050705258 0.580725 0.040586304 -0.08056209 0.031706523 0.27659523 0.016289283 -0.11786109
0.18659598 -0.18024866 -0.36548954 -0.026150797 0.22550443 -0.006274055 -0.0297116 0.01103788
0.016244303 -0.08727743 -0.052536752 -0.2967784 -0.54318535 -0.21898767 0.029653097 0.013055527
0.0728193 -0.09048436 -0.06012141 0.0056177466 -0.056205656 -0.032115236 -0.3689059 -0.106815435
-0.036142565 -0.39225447 -0.027131526 -0.0535951 0.5876649 0.7580099 -0.11731048 0.3563253

fc3.weight f4 [1, 128]
00000000: 1445 e8bc fac8 af3b 2641 e13b 51ef cc3b
00000010: 0471 633b 01ed 293c e577 9d3d fa00 693d
00000020: 6c3f 06bc 213b e13c 5ee1 a63c c912 eabd
00000030: 238b 02bd 1218 0abd ff76 08be 8d00 5e3c
00000040: 5c76 c6bc 9bd7 123d f8cb 8bbd af5d 37bd
00000050: 10e0 293b e09d bcbc e24d c33b da0e ed3c
00000060: f1ee dd3c 35b7 f83b 026d e63b 0269 5abd
00000070: 3b66 e8bc 4eda 523b 2120 e53b 1387 423d
00000080: a4bf 21bd d9a6 8d3c ab3a 8f3d be59 193c
00000090: c1bf acbc 3c16 2f3d 9d27 583b 428f f33c
000000a0: 39fe b23b c57e 94bc 3e92 e8ba f504 b2bc
000000b0: f4f0 583c 3e50 76bd 729d 98bc b62e 91bc
000000c0: 5c01 6dbb 3b05 903c 196f 87bc fc24 5b3c
000000d0: 47ba 77bc f02e 1b3c 389b 60bc b856 e6bb
000000e0: 3dec 8abd 4cfa 083d 5741 cb3c 379d d93a
000000f0: 1d18 debb c557 7b3c b7af f43c 4503 d9bb
00000100: e062 73bd 668d 5d3c a269 3b3a b6a4 cf3a
00000110: 7102 3b3c b328 403d a305 a4bc 3287 81bc
00000120: 0528 45bc 0e39 3b3d 5b6b 38bb ea1d fbbb
00000130: 31b2 cbbc b640 dabc 5d7b d93a 80fc 9ebd
00000140: 7e94 0bbd af24 4a3d a907 8abb d884 883c
00000150: 5e01 2b3c f2c3 a4bc 1d92 033c 8810 023b
00000160: a01e 553d 9fc0 663d 7ffd fdbc 55d3 aabc
00000170: 8ddc 993c d85a 093d 80e8 f33c 1868 64bc
00000180: 17f4 643d 182f b7bc ff1b 60bd c1a7 c9b9
00000190: 4cda ea3c 9d6d 36ba 42ff a0bb e5c5 3fbc
000001a0: 57b7 103c 5fb5 de3c cbeb 74bd 7b09 dcbb
000001b0: bc19 d7bc 7d2d d6b9 1cc8 3ebc 6c1e 833d
000001c0: f7c4 d33c 4cfd 0bbd f7e7 163a 39e0 0cbb
000001d0: 3986 0dba eac0 7cbc f714 abbc 065a 1e3d
000001e0: a373 6c3d 7741 73bd 5b36 153d 2593 acbc
000001f0: cbce 143c ca2e b73d 7a88 9bbd 396f 213d
-0.028353252 0.0053645344 0.0068742214 0.0062541147 0.0034704814 0.010371448 0.07688884 0.056885697
-0.008193832 0.027494015 0.020371135 -0.11429364 -0.031870972 -0.03371436 -0.13326643 0.013549936
-0.02422636 0.03585015 -0.06826013 -0.044767078 0.0025920905 -0.0230245 0.005960212 0.028937746
0.027091475 0.0075901994 0.0070320377 -0.0533228 -0.02836906 0.0032173577 0.0069923555 0.047492098
-0.039489403 0.017291473 0.06993612 0.009359775 -0.02108753 0.042745814 0.0032982596 0.029731397
0.0054624346 -0.018126855 -0.0017743779 -0.02173088 0.013241041 -0.06013512 -0.018629763 -0.017722469
-0.003616414 0.01758062 -0.016532468 0.013375517 -0.015120096 0.00947164 -0.013708882 -0.0070293806
-0.0678334 0.033441827 0.02481143 0.001660264 -0.006777777 0.01534075 0.029868944 -0.006622704
-0.059420466 0.013522482 0.00071492244 0.0015841934 0.011414156 0.046913814 -0.020022219 -0.015811536
-0.012033467 0.04570871 -0.002814016 -0.007663478 -0.024865242 -0.026642185 0.0016592551 -0.07763004
-0.03407716 0.04935139 -0.004212339 0.016664907 0.010437338 -0.020112965 0.008030442 0.001984628
0.05203116 0.05633604 -0.031004665 -0.020852724 0.018781925 0.0335339 0.02977395 -0.0139408335
0.055896845 -0.022361323 -0.0547142 -0.00038462694 0.028668545 -0.00069590827 -0.0049132416 -0.011704897
0.008832774 0.027186094 -0.059795182 -0.0067149973 -0.026257388 -0.00040851152 -0.0116443895 0.06402287
0.025850756 -0.03417711 0.00057566114 -0.0021495952 -0.0005398724 -0.015426854 -0.02088402 0.03866007
0.057727467 -0.059388604 0.03642879 -0.021066258 0.009082506 0.08944471 -0.0759439 0.03941271
