saved_models/episode_400/agent_10.pth (torch, 738530 bytes, 44 tensors)

fc1.weight f4 [128, 5]
0	0x3ec46f2a	0.3836606
1	0xbed388ac	-0.4131521
2	0x3ebb1bf3	0.3654476
3	0x3d202fb8	0.03910801
4	0x3db1e7a5	0.08686761
5	0x3ebcad1d	0.36850825
6	0xbe5efbad	-0.21775694
7	0xbe7e97eb	-0.2486264
8	0x3eb1bc45	0.3471395
9	0x3ed58060	0.41699505
10	0x3e47a67f	0.19497107
11	0xbe9cc897	-0.30621788
12	0x3dfde38a	0.12396915
13	0xbeac7bc3	-0.33688173
14	0xbe29a4b7	-0.1656674
15	0xbea4f964	-0.3222152
16	0xbe940710	-0.28911638
17	0x3ebeaa39	0.37239245
18	0x3eb5ab26	0.35482138
19	0x3d7f0e5c	0.062269554
20	0x3e262a09	0.16226973
21	0x3db29db5	0.087214865
22	0xbe1a4bf9	-0.15068044
23	0xbe2a1d1d	-0.16612668
24	0x3eb0a8aa	0.3450368
25	0x3c8a0124	0.016846247
26	0x3eabea23	0.3357707
27	0x3eddf463	0.43350515
28	0xbd98f212	-0.07468046
29	0xbe742a95	-0.23844369
30	0x3e973e5a	0.29539758
31	0x3eab7d9a	0.33494264
32	0x3e6d8023	0.23193412
33	0x3edb5b65	0.42843166
34	0xbe5ad180	-0.2136898
35	0x3e31baaa	0.17356363
36	0xbd4f0320	-0.05054009
37	0xbd9bb76c	-0.07603344
38	0x3d8d691d	0.069048144
39	0x3db00f55	0.08596674
40	0xbe96aac7	-0.29427168
41	0x3ea02ca2	0.31284052
42	0x3d2039c5	0.039117593
43	0x3c34155b	0.01099142
44	0xbdb067a1	-0.08613516
45	0x3e1220b4	0.14270288
46	0x3eae7153	0.34070835
47	0xbdc1744e	-0.094460115
48	0xbdabb3ed	-0.083839275
49	0xbe8feb1b	-0.2810906
50	0x3ec5c25f	0.38624856
51	0xbed35ac3	-0.41280183
52	0x3dafd261	0.085850485
53	0xbeb367ab	-0.3504003
54	0x3e3e4ba9	0.1858355
55	0x3e565169	0.20929493
56	0x3d9fee18	0.07809085
57	0x3d5503b8	0.0520055
58	0x3eadc05e	0.33935827
59	0x3edb8307	0.42873403
60	0x3e97c4bb	0.2964228
61	0xbdee52f4	-0.11636916
62	0xbed8b4da	-0.4232548
63	0xbeb0dd4b	-0.34543833
64	0xbeb94456	-0.3618495
65	0xbe73d7f5	-0.2381285
66	0xbe6f3a50	-0.23362088
67	0x3e6f4705	0.23366936
68	0x3ed297e4	0.41131508
69	0xbeb0195e	-0.34394354
70	0x3e0365d7	0.12831818
71	0xbeab3d70	-0.3344531
72	0xbd221272	-0.039568372
73	0x3d196833	0.037452888
74	0x3e85893f	0.26081273
75	0x3e3024aa	0.17201486
76	0xbe621ed9	-0.2208208
77	0x3e3ce5ae	0.18446991
78	0xbea7f83e	-0.3280658
79	0x3eb575ca	0.35441428
80	0x3e664b74	0.2248972
81	0xbe9d3a6b	-0.30708632
82	0x3e1b0a92	0.15140751
83	0xbec9da19	-0.39424208
84	0x3e176477	0.14784418
85	0xbd963ace	-0.07335435
86	0x3e201eea	0.15636793
87	0x3d8a3db7	0.067500524
88	0xbed3dfd0	-0.41381693
89	0xbe95c379	-0.29250696
90	0xbe73db19	-0.23814048
91	0x3ead85e6	0.3389122
92	0x3ea46384	0.32107174
93	0x3ebdbf04	0.37059796
94	0x3e69be73	0.22826557
95	0xbde2874f	-0.11060964
96	0x3ecb5dbc	0.3971995
97	0x3ed0bb12	0.40767723
98	0x3e3d3782	0.18478206
99	0xbd094294	-0.03351076
100	0xbe9e43b9	-0.30911043
101	0x3e7b564e	0.24544641
102	0x3dfac400	0.12244415
103	0xbd09a364	-0.033603087
104	0xbe9e82fb	-0.30959305
105	0x3d73879a	0.05945549
106	0x3e389b8a	0.18028083
107	0x3e1d0fb1	0.15338017
108	0x3d7d18b9	0.061791155
109	0x3e84861e	0.25883573
110	0x3ead04b0	0.3379264
111	0xbe4faf38	-0.20281684
112	0xbe98ebb3	-0.29867324
113	0xbecf4c96	-0.40488118
114	0x3e89636a	0.2683366
115	0xbd83f3ef	-0.06443011
116	0xbeb1e573	-0.34745368
117	0x3da473de	0.080299124
118	0x3ed99052	0.4249292
119	0xbec232a2	-0.37929255
120	0xbedf99d9	-0.43672064
121	0xbd23c157	-0.039979305
122	0xbe8bebc5	-0.27328315
123	0x3eaab92c	0.333444
124	0x3daf96a4	0.08573654
125	0x3e1884fd	0.14894481
126	0xbda92c03	-0.08260348
127	0x3df5bcb8	0.11998886
128	0xbe83a171	-0.25709108
129	0x3cf2b785	0.029628525
130	0xbe96c760	-0.29448986
131	0xbcb69c94	-0.02229146
132	0x3d49091e	0.04908096
133	0xbe4c3fc8	-0.19946206
134	0x3ea321c7	0.31861708
135	0xbd9d1e97	-0.0767185
136	0xbea0d72f	-0.31414172
137	0xbc4b734b	-0.012417625
138	0x3ec5b0f9	0.38611582
139	0xbea44390	-0.32082796
140	0x3eaf9817	0.34295723
141	0xbc4fc5ec	-0.012681466
142	0xbe6387a9	-0.22219719
143	0xbea44893	-0.3208662
144	0xbecd75bc	-0.40128887
145	0x3d0943e1	0.033512
146	0xbdbed892	-0.09318651
147	0x3e91929c	0.28432167
148	0xbe9a4c51	-0.3013635
149	0xbe61bbe8	-0.22044337
150	0x3eaabb67	0.33346102
151	0xbe989e39	-0.29808214
152	0x3d99b0cd	0.07504425
153	0x3e22dfb1	0.15905644
154	0x3c2ab911	0.0104201
155	0x3e30b480	0.17256355
156	0x3e6e37cd	0.23263474
157	0x3e84fe2b	0.25975165
158	0x3eb2063f	0.3477039
159	0xbbae2325	-0.005314248
160	0xbda4e35c	-0.08051178
161	0x3ebb15db	0.36540112
162	0x3d858bd4	0.06520811
163	0xbdeea1a5	-0.11651925
164	0x3e8d9350	0.27651453
165	0x3b5beeae	0.0033559012
166	0x3e2efcdc	0.17088646
167	0x3eddce8a	0.4332164
168	0xbe19f057	-0.15033089
169	0xbed57e7f	-0.4169807
170	0xbe67ec25	-0.22648676
171	0xbedb6eb1	-0.42857888
172	0xbee638fd	-0.44965354
173	0x3ecad291	0.39613774
174	0x3ee1a5c7	0.4407179
175	0xbe91b493	-0.2845808
176	0x3d2da034	0.04238911
177	0x3e4761a9	0.19470848
178	0x3e4f26da	0.20229664
179	0xbee25627	-0.44206354
180	0xbd3e7696	-0.04649981
181	0xbe8ce163	-0.27515706
182	0x3ee8ecd0	0.45493174
183	0x3c9bd487	0.01902224
184	0xbdb3174e	-0.087446794
185	0x3e9862d4	0.297629
186	0x3dd0af5c	0.10189697
187	0x3ea59e25	0.32347217
188	0xbeb4723b	-0.352434
189	0x3ed11e77	0.40843555
190	0xbe763f6c	-0.24047631
191	0xbe026792	-0.12734821
192	0x3e9c2b46	0.30501765
193	0x3e8ba891	0.27277043
194	0xbe62699b	-0.22110598
195	0x3e1bd7e3	0.15219073
196	0xbe8a2f47	-0.26989195
197	0x3e6cf8fb	0.23141854
198	0x3ec091ef	0.37611338
199	0x3ea0b380	0.31386948
200	0xbec64e3c	-0.38731563
201	0x3e9edf0b	0.31029543
202	0xbe1e6f39	-0.15472116
203	0x3ec856a3	0.391286
204	0xbe91c40e	-0.2846989
205	0xbebf356f	-0.37345454
206	0xbee178e1	-0.44037536
207	0xbea313f8	-0.31851172
208	0x3e3c6835	0.18399127
209	0xbed6c83a	-0.41949636
210	0x3eb8ca76	0.36091965
211	0x3e4f416b	0.20239799
212	0x3e19bfb9	0.15014543
213	0xbdaea51d	-0.085275866
214	0xbea247af	-0.31695315
215	0x3bee8226	0.0072786985
216	0x3e571764	0.21005017
217	0xbe674c2e	-0.22587654
218	0x3eb05867	0.34442446
219	0xbe1845ab	-0.14870326
220	0xbea43187	-0.32069036
221	0x3e787235	0.24262317
222	0xbdc82333	-0.09772339
223	0xbedaba7d	-0.42720404
224	0x3e8bc1f1	0.27296403
225	0x3d975d05	0.07390789
226	0x3ea7f811	0.32806447
227	0x3efb326c	0.49061906
228	0xbd8cb969	-0.06871302
229	0xbe74b086	-0.23895463
230	0x3e8bcd8a	0.2730525
231	0xbe5e622b	-0.21717136
232	0x3e9d80be	0.30762285
233	0x3e58b5da	0.21163121
234	0x3d949038	0.0725407
235	0xbed443a5	-0.4145786
236	0xbee2aad5	-0.4427096
237	0xbe072f77	-0.132017
238	0x3e127f7f	0.14306448
239	0x3ec2f504	0.38077557
240	0x3e62bc58	0.2214216
241	0x3de2ced6	0.11074607
242	0x3ebd4b7f	0.3697166
243	0x3d366775	0.044532258
244	0x3e1fa8cb	0.15591733
245	0x3eb50086	0.35351962
246	0x3ecee836	0.40411538
247	0x3efa02c8	0.48830247
248	0x3dd3eef1	0.10348309
249	0xbe4031a8	-0.18768942
250	0x3e9b13ed	0.3028864
251	0xbe4cb678	-0.19991481
252	0xbc1952e8	-0.009358145
253	0x3e4a2c1e	0.19743392
254	0xbe73546c	-0.23762673
255	0x3e842c40	0.2581501

fc1.bias f4 [128]
0	0xbe5ec6d9	-0.21755542
1	0x3dcc08d5	0.09962622
2	0xbea0f0a2	-0.31433588
3	0xbeb29398	-0.3487823
4	0x3e928c89	0.28622845
5	0xbeaf61eb	-0.34254393
6	0xbd3d6b06	-0.046244644
7	0xbed7cbcf	-0.4214768
8	0x3eb6d884	0.35712063
9	0xbb920d48	-0.0044571497
10	0x3db4d386	0.088294074
11	0xbe2edf66	-0.17077407
12	0xbcbdb0e2	-0.023155633
13	0x3e138d1f	0.14409302
14	0xbedf6c48	-0.436373
15	0xbeb394ef	-0.35074565
16	0x3e12aad7	0.14322983
17	0xbebfbf95	-0.37450853
18	0x3d4471ab	0.047959965
19	0x3e20dd6f	0.1570947
20	0x3dcf1a82	0.10112478
21	0xbe3532cb	-0.17695157
22	0xbecf22da	-0.40456277
23	0x3eb30a3a	0.3496874
24	0xbe7a6a50	-0.24454618
25	0xbda92a60	-0.082600355
26	0xbea9253a	-0.33036214
27	0x3ecb6389	0.39724377
28	0xbe35920f	-0.17731498
29	0xbeda8b91	-0.42684606
30	0x3ebbc836	0.36676186
31	0xbeccbc30	-0.39987326
32	0x3df939fb	0.12169262
33	0xbd8ce390	-0.068793416
34	0xbe95fada	-0.29292947
35	0xbe8370ba	-0.2567194
36	0xbed0ccd9	-0.40781286
37	0x3dae57d6	0.08512847
38	0x3ed69619	0.4191139
39	0x3db23090	0.08700669
40	0x3eb4af6c	0.35290086
41	0xbe96839a	-0.2939728
42	0x3d9b7f96	0.075926945
43	0x3dc31fb6	0.09527533
44	0x3e1140d7	0.1418489
45	0xbe28b480	-0.16475105
46	0xbe9bdfc9	-0.30444172
47	0xbeb35c39	-0.35031298
48	0x3ede0cf9	0.43369272
49	0xbe9d4b7b	-0.3072165
50	0x3e23b268	0.15986025
51	0xbe22bcbb	-0.15892307
52	0x3e32913d	0.17438217
53	0xbe2d1cb3	-0.16905479
54	0xbe6ad5eb	-0.22933166
55	0x3e45dfd5	0.19323666
56	0xbe7e446e	-0.24830791
57	0x3d3a1cf2	0.04543776
58	0x3f00e363	0.50346965
59	0x3e3949ca	0.18094555
60	0x3d4ae029	0.049530182
61	0xbe0e0fb3	-0.13873176
62	0xbe49c1ca	-0.19702831
63	0x3ee386e0	0.4443884
64	0x3ed4b7be	0.41546434
65	0x3e14bbf5	0.14524825
66	0xbec6a0c2	-0.38794523
67	0xbea0b3cc	-0.31387174
68	0xbd31ca4f	-0.043405827
69	0x3c4ffed1	0.01269503
70	0x3ece9acd	0.4035248
71	0x3db9e610	0.09077084
72	0x3e85338a	0.26015884
73	0xbd866489	-0.06562144
74	0x3e807b5f	0.25094125
75	0xbe1179de	-0.14206645
76	0xbde471c9	-0.11154515
77	0x3ee1b996	0.44086903
78	0xbc85d577	-0.01633714
79	0xbdc86490	-0.09784806
80	0xbead8ce4	-0.33896554
81	0xbe858da3	-0.26084623
82	0xbe122f00	-0.14275742
83	0x3ee1a641	0.44072154
84	0xbd9c3f99	-0.07629318
85	0xbc1512c3	-0.009098711
86	0x3e62435b	0.22096007
87	0x3ca3ab7a	0.019979227
88	0xbe6ab9ef	-0.2292249
89	0x3d936b03	0.07198145
90	0x3ec312a0	0.38100147
91	0xbe9d859a	-0.30765992
92	0xb9edde6c	-0.0004536988
93	0xbe0a1c44	-0.13487345
94	0x3dcb5e23	0.099300645
95	0x3ebedd7a	0.37278348
96	0x3ce55e52	0.027999077
97	0xbdc0c7cb	-0.094131075
98	0x3e6e5c86	0.23277482
99	0xbc5f03fb	-0.013611789
100	0x3e8fba30	0.28071737
101	0xbeaf49a3	-0.34235868
102	0xbeddb700	-0.4330368
103	0x3d689300	0.056780815
104	0x3ee855d8	0.45377994
105	0xbcac2643	-0.021014338
106	0xbe64dbec	-0.22349519
107	0xbe985115	-0.2974936
108	0xbe9fc318	-0.31203532
109	0x3df87ad4	0.121328026
110	0x3eb8f71c	0.3612603
111	0x3ebbe119	0.36695173
112	0xbe860ad5	-0.2618014
113	0x3d643311	0.055712763
114	0x3e952d72	0.29136235
115	0xbdeca684	-0.11555198
116	0xbda96001	-0.082702644
117	0x3e8a891f	0.2705774
118	0x3ec9367c	0.3929938
119	0xbe256e7a	-0.16155425
120	0xbe41539c	-0.1887955
121	0x3eabdd5d	0.33567324
122	0xbe242c21	-0.16032459
123	0xbe7a6669	-0.24453129
124	0xbe6df9cb	-0.2323982
125	0xbe0190b3	-0.12652855
126	0xbdf943b5	-0.12171117
127	0x3ed88245	0.42286888

fc2.weight f4 [128, 128]
0	0x3d84696a	0.06465419
1	0xbc90993e	-0.017651197
2	0x3debaf7a	0.11508079
3	0x3dbbc4d7	0.091684036
4	0xbd4b54d7	-0.049641456
5	0x3cff6824	0.031177588
6	0x3df65a75	0.12028972
7	0x3de561d8	0.11200303
8	0xbd443d03	-0.047909748
9	0x3d6afab4	0.057367995
10	0x3cd7685b	0.026294878
11	0x3ded1237	0.1157574
12	0x3dcebd65	0.10094718
13	0x3bbdc458	0.0057912283
14	0x3c51123c	0.012760695
15	0x3dcc0a09	0.099628516
16	0xbd06f3e8	-0.03294745
17	0x3db14d18	0.086572826
18	0x3d684b43	0.0567124
19	0x3d44a761	0.048011187
20	0x3c5b9c45	0.013403957
21	0x3d54192d	0.051781822
22	0x3d663a34	0.05620785
23	0x3d98f550	0.07468665
24	0x3d33409b	0.043762784
25	0x3dee4953	0.11635079
26	0x3d399163	0.045304667
27	0x3dd649de	0.10463308
28	0xbc0d4893	-0.00862326
29	0x3aaadfb5	0.0013036641
30	0x3d97fde6	0.07421474
31	0x3dbe5379	0.09293265
32	0x3dcd2505	0.100168265
33	0xbb8a12cd	-0.004213667
34	0x3d8e3e24	0.06945446
35	0x3cd1e81f	0.02562338
36	0x3daa6e88	0.083218634
37	0xbc981f7b	-0.018569699
38	0x3dd7ca02	0.10536577
39	0x3db5c093	0.08874621
40	0x3dd6e57e	0.10492991
41	0xbcbb72ad	-0.02288183
42	0xbd27002a	-0.04077164
43	0x3dcf2757	0.10114925
44	0xbd136e29	-0.03599373
45	0x3db0c81c	0.08631918
46	0x3dcf8247	0.1013227
47	0x3da51030	0.08059728
48	0x3d169a8f	0.036768492
49	0x3dc7a083	0.09747412
50	0x3dd77096	0.10519521
51	0xbbeae3a1	-0.0071682488
52	0xbda16bde	-0.07881902
53	0x3cbe3431	0.023218246
54	0xbcbdf68b	-0.02318885
55	0x3da5f0de	0.081025824
56	0x3dc52de9	0.09627897
57	0x3dc803eb	0.09766372
58	0x3e0025c4	0.12514406
59	0x3c8b7e5d	0.017028028
60	0x3c8d9f87	0.017287983
61	0xbcbc8b73	-0.023015713
62	0xbcc509cb	-0.024052521
63	0x3dbfdf9c	0.09368822
64	0x3dcbb5a4	0.099467546
65	0x3c3cc8c8	0.011522479
66	0xba10f223	-0.0005529245
67	0x3c6f10f0	0.014591441
68	0xbb0896cc	-0.0020841835
69	0x3b70ee18	0.0036763009
70	0x3d3a35f8	0.045461625
71	0x3dd76419	0.10517139
72	0x3d8331d1	0.06405986
73	0x3bb5a5c3	0.005543442
74	0x3da6501d	0.08120749
75	0xbd94c1eb	-0.072635494
76	0x3b7949cd	0.0038038373
77	0x3d3edb06	0.046595596
78	0xbcccdcce	-0.025007632
79	0xbce3663d	-0.027758712
80	0x3dc9d9d3	0.09856
81	0x3dd11734	0.10209504
82	0x3d1049d7	0.03522667
83	0x3d7cfe24	0.061765805
84	0x3cd090fb	0.025459757
85	0xbd2c7c50	-0.04211074
86	0x3df60dd1	0.12014354
87	0x3e005e70	0.12536025
88	0x3d9672b9	0.073461
89	0xbcdeca7c	-0.027196161
90	0x3dcfeb6f	0.10152327
91	0xbd602589	-0.054723296
92	0x3db58574	0.08863345
93	0xbd4c40c2	-0.049866445
94	0xbd19e013	-0.03756721
95	0x3ceb35b4	0.028712131
96	0x3de928e0	0.113847494
97	0x3d39d723	0.045371186
98	0xbd3230e4	-0.043503657
99	0xbb55795b	-0.0032573554
100	0xbd3d6e8c	-0.046248004
101	0xbc2b7cdb	-0.01046678
102	0xbb04c535	-0.0020259146
103	0x3d3684eb	0.044560354
104	0x3b205c35	0.0024469022
105	0xbd263576	-0.040578328
106	0x3d06c41e	0.032901876
107	0x3c4e5b92	0.012595074
108	0x3c5dbab0	0.013533279
109	0x3c0454d6	0.008076867
110	0xb96036f1	-0.00021382772
111	0xbd0faed2	-0.03507883
112	0xbcb08b92	-0.021550927
113	0x3d77c149	0.060487065
114	0x3de7dbc9	0.113212176
115	0xbc6ef786	-0.014585381
116	0x3d64462e	0.05573099
117	0x3d267bd5	0.04064544
118	0x3d79f051	0.0610202
119	0xbb6a5e63	-0.0035761825
120	0xbc65bef3	-0.014022577
121	0xbd989e99	-0.07452125
122	0xbbce0c24	-0.0062880684
123	0xbca6ad4d	-0.020346308
124	0xbbd5c816	-0.0065240962
125	0x3dcd2b0d	0.10017977
126	0xbcd7082c	-0.026249014
127	0xbd71e6df	-0.059058066
128	0x3d5884e8	0.052861124
129	0xbc9544af	-0.018221227
130	0xbcbbb8c9	-0.02291526
131	0x3d325ded	0.043546606
132	0xbccb2fcb	-0.024803063
133	0x3dcca8c7	0.09993129
134	0x3dee5691	0.11637605
135	0xbd1c8c24	-0.038219586
136	0x3cb682da	0.022279192
137	0x3defb4fa	0.117044404
138	0x3dbf114b	0.0932947
139	0x3c943403	0.018091207
140	0x3d23d719	0.040000055
141	0x3c74a9ab	0.01493303
142	0x3ddc021e	0.10742591
143	0x3ce40ba0	0.027837574
144	0xbcef9dff	-0.029250143
145	0x3db054be	0.08609913
146	0xbd4a9d3e	-0.049466364
147	0x3d8c2639	0.06843228
148	0x3e010dd3	0.1260293
149	0x3df711c4	0.120639354
150	0x3d6ae796	0.057349764
151	0x3e0e6d42	0.13908866
152	0x3d5447df	0.051826354
153	0xbd37dc1d	-0.04488765
154	0xbc81b233	-0.015832042
155	0xbc41d97e	-0.011831639
156	0x3ccc5f23	0.024947708
157	0x3c4b319d	0.012401965
158	0xbb34a7c0	-0.0027565807
159	0xbce80d0d	-0.028326536
160	0x3c7d7299	0.015469217
161	0x3d3b7a68	0.045771033
162	0x3cf0db12	0.029401336
163	0xbd4cba62	-0.049982436
164	0x3b19f41e	0.0023491452
165	0x3d80425a	0.062626556
166	0xbd1edd33	-0.03878517
167	0xbd14e008	-0.036346465
168	0x3e0c93de	0.13728282
169	0xbd78f0f7	-0.060776677
170	0x3dbe14ba	0.09281297
171	0xbc4c3e0e	-0.012465967
172	0xbae9b84d	-0.0017831415
173	0x3de8d4cc	0.11368713
174	0x3c358fab	0.011081616
175	0xbd55b8ad	-0.052178074
176	0x3d48ee2e	0.04905527
177	0x3dbf7ca6	0.09349947
178	0x3b5e64ee	0.003393467
179	0xbc7da323	-0.015480789
180	0x3cabcf09	0.020972745
181	0xbcd22871	-0.02565405
182	0xbd3c9e3e	-0.04604935
183	0xbcdead1a	-0.02718215
184	0x3dfa3183	0.12216475
185	0x3ca58861	0.020206632
186	0xbbc08dff	-0.0058763023
187	0x3da0505b	0.078278266
188	0x3da364cd	0.079782106
189	0x3cdbf3e3	0.026849693
190	0x3d9eabc2	0.07747604
191	0x3d2bfe3e	0.04199051
192	0x3d9cd058	0.07656926
193	0xbd60aff9	-0.05485532
194	0xbd0265dc	-0.031835422
195	0xbdaaba90	-0.08336365
196	0xbd629fa9	-0.055328045
197	0x3d5b3eec	0.053526804
198	0xbcece125	-0.028915951
199	0x3c7d57ee	0.015462859
200	0xbce2afbf	-0.027671693
201	0x3c494cdd	0.012286392
202	0x3c6febf4	0.014643658
203	0x3bcb7747	0.0062092873
204	0xbd687f0b	-0.056761783
205	0xbd15f5c1	-0.036611322
206	0x39a887a2	0.0003214451
207	0x3d02b17a	0.031907536
208	0xbc7c6c5a	-0.015406692
209	0x3dc21317	0.09476297
210	0x3d4d2678	0.050085515
211	0xbd33e7cd	-0.043922234
212	0xbcb726e2	-0.022357408
213	0x3d8c22a5	0.068425454
214	0x3de0c27d	0.10974596
215	0x3b27ddae	0.002561431
216	0x3db42a01	0.08797074
217	0x3ca5721b	0.020196011
218	0x3dc5bbb5	0.09654943
219	0xbd4b6dea	-0.04966537
220	0x3de1ea1e	0.110309824
221	0x3daf4dce	0.08559762
222	0x3cfb74af	0.030695288
223	0x3d7293bd	0.059222925
224	0x3d4d642e	0.050144367
225	0x3cf29270	0.029610842
226	0x3d5008cb	0.050789636
227	0x3dcf6234	0.10126153
228	0x3dec5e49	0.11541421
229	0x3da19e56	0.07891528
230	0xbd2a1ca1	-0.04153121
231	0x3d1b0795	0.037849028
232	0xbc08e5a4	-0.008355532
233	0xbd486d1b	-0.048932176
234	0xbc4d7e2b	-0.012542288
235	0x3d03f7e0	0.032218814
236	0xbbfa715d	-0.0076429085
237	0x3d1f21f9	0.03885076
238	0x3da9ab91	0.08284677
239	0x3d9ce9af	0.07661759
240	0xbc7a160f	-0.015264048
241	0xbd415ca6	-0.047207497
242	0x3d7b3497	0.06132945
243	0x3d579c60	0.052639365
244	0xbce09eab	-0.027419409
245	0x3d9aaccd	0.075524904
246	0x3d5a433e	0.053286783
247	0x3d9f5642	0.07780124
248	0x3cb7fb21	0.022458615
249	0x3da229d6	0.07918136
250	0xbc65c09b	-0.0140229715
251	0x3d2804ee	0.041020326
252	0xbcb3101c	-0.021858267
253	0x3c49eb11	0.012324111
254	0xbd12e13e	-0.03585934
255	0xbd85b365	-0.065283574

fc2.bias f4 [128]
0	0xbd263ec5	-0.040587205
1	0x3e0b1d6a	0.1358544
2	0x3d284b8a	0.041087665
3	0xbdddb2d9	-0.10825128
4	0xbda6befb	-0.081418954
5	0x3be6ec7e	0.007047235
6	0x3db11477	0.086464815
7	0x3d9f52fc	0.077795
8	0x3d00682b	0.031349342
9	0x3c75b483	0.014996651
10	0x3d20ef58	0.039290756
11	0x3c835d9c	0.016035847
12	0x3d6e50e5	0.058182616
13	0xbb4d7f27	-0.0031356306
14	0x3b06b369	0.0020553714
15	0xbdb8494d	-0.08998356
16	0x3d78d984	0.060754314
17	0xbd92e846	-0.07173209
18	0xbbcc8211	-0.006241091
19	0xbd9cde94	-0.07659641
20	0xbc0d02c6	-0.008606618
21	0xbd7a3222	-0.061082967
22	0xbda83b09	-0.08214385
23	0xbcfb101a	-0.030647326
24	0xbd45916b	-0.048234385
25	0xbbba4a96	-0.005685161
26	0x3da5767d	0.080792405
27	0x3d276c36	0.040874682
28	0xbd749622	-0.05971349
29	0xbc749280	-0.014927506
30	0xbdde07e5	-0.108413495
31	0xbd8ee2a0	-0.06976819
32	0x39662700	0.00021949038
33	0xbd6b39dd	-0.05742823
34	0x3da5a6d0	0.080884576
35	0x3b96e045	0.0046043717
36	0xbc6ca628	-0.014443912
37	0x3c2c6637	0.010522417
38	0x3d6bee65	0.057600398
39	0x3dfc60a8	0.12323123
40	0x3d2ec905	0.042672176
41	0x3d0d7383	0.03453399
42	0x3e11d15f	0.14240025
43	0xbd6e075d	-0.05811249
44	0x3cc210c7	0.02368964
45	0xbdc11105	-0.09427074
46	0xbd0a8df4	-0.033826783
47	0x3d05506f	0.03254741
48	0xbdb6b241	-0.08920718
49	0x3d0c706a	0.034286894
50	0xbd33f640	-0.043936014
51	0xbdcd8b82	-0.10036375
52	0xbd17778c	-0.036979243
53	0xbd2693f5	-0.040668447
54	0x3d1f0280	0.038820744
55	0x3d51412c	0.051087543
56	0xbd88cc49	-0.06679589
57	0xbcbe6f59	-0.023246454
58	0xbc61b452	-0.013775902
59	0xbc90c439	-0.017671691
60	0xbd087e7f	-0.03332376
61	0xbdd70faa	-0.105010346
62	0xbdc2ae7a	-0.09505935
63	0x3d51b965	0.051202197
64	0x3d6ffee2	0.058592685
65	0xbd273fd6	-0.040832363
66	0xbb8914c1	-0.0041833823
67	0x3df6ee4f	0.120571725
68	0xbd807e85	-0.06274132
69	0x3d5dd31a	0.0541564
70	0xbd277359	-0.04088149
71	0x3c7d0d8c	0.015445124
72	0xbc17f4f8	-0.009274714
73	0x3e025e16	0.12731203
74	0xbdea6355	-0.11444727
75	0xbddba4e8	-0.10724813
76	0xbd82dc9f	-0.063897364
77	0xbda3d0aa	-0.07998784
78	0xbd76836e	-0.060183935
79	0xbd9e5353	-0.077307366
80	0xbad8ab0e	-0.001653047
81	0xbd942f76	-0.07235615
82	0x3d6cdafa	0.05782602
83	0xbc609a90	-0.013708726
84	0xbd581463	-0.052753817
85	0xbcdbdb78	-0.02683805
86	0xbd8d01ba	-0.06885095
87	0x3d8af01f	0.06784081
88	0xbd8c366c	-0.06846318
89	0x3aaffa25	0.0013425989
90	0xbbb61b5a	-0.00555746
91	0xbda8a665	-0.08234862
92	0x3d4b8ea5	0.049696583
93	0xbda8a1de	-0.08233999
94	0x3d251e4d	0.0403121
95	0x3ce7953f	0.028269408
96	0xbdc8e9f9	-0.09810252
97	0xbcb8ce2e	-0.022559252
98	0xbd238587	-0.039922263
99	0xbdc6a91a	-0.09700222
100	0x3d0c7815	0.034294207
101	0xbd822e95	-0.06356541
102	0xbd839cdf	-0.06426405
103	0x3b522b7b	0.0032069373
104	0x3d85bcda	0.06530161
105	0xbda4e5ae	-0.080516204
106	0xbd9b57c8	-0.07585102
107	0xbd577319	-0.0526
108	0xbd889e8a	-0.06670864
109	0xbcd53a9c	-0.026028924
110	0x3c0817ba	0.008306438
111	0x3b7fb139	0.0039015545
112	0xbdbafbb0	-0.09130037
113	0x3d7fd218	0.06245622
114	0x3d077f9b	0.03308068
115	0xbda2e34f	-0.07953512
116	0xbce1f774	-0.027583815
117	0x3d375033	0.04475422
118	0x3cb5173f	0.022105811
119	0xbd6df6a8	-0.058096558
120	0xbd796710	-0.060889304
121	0x3d1fcc8c	0.03901343
122	0x3baab6b0	0.0052097663
123	0x3d183d93	0.037168097
124	0xbc3c5ad0	-0.011496261
125	0x3d3f2796	0.04666861
126	0x3d857ef6	0.065183565
127	0x3dded798	0.10880965

fc3.weight f4 [2, 128]
0	0xbd8d2015	-0.06890885
1	0xbd818179	-0.06323523
2	0x3bd0df8a	0.006374304
3	0x3d178de8	0.037000567
4	0x3bd20ba0	0.006410077
5	0xbb089dd3	-0.0020846024
6	0xbce8b78c	-0.028407834
7	0xbe1aef06	-0.15130243
8	0x3d3dfa72	0.04638142
9	0xbccd9a35	-0.025097946
10	0xbb31c80b	-0.0027127292
11	0x3d10a15a	0.035310127
12	0x3d5d6a23	0.054056298
13	0xbd1aa75f	-0.037757274
14	0xbe9fd723	-0.31218824
15	0xbc1e0696	-0.009645125
16	0xbc23a031	-0.009986923
17	0x3d79749b	0.06090222
18	0x3ccb3f69	0.02481051
19	0x3d90587b	0.07048126
20	0x3ce2c721	0.027682843
21	0xbdfb01c2	-0.12256195
22	0x3c8d776d	0.01726886
23	0xbc7cd8ac	-0.015432518
24	0x3d218af9	0.039439175
25	0x3b6c8234	0.003608835
26	0xbd5c9f18	-0.05386266
27	0x3dabc10b	0.083864294
28	0x3d923981	0.07139874
29	0xbc09015e	-0.008362142
30	0x3d1f7f82	0.03893996
31	0x3d31834d	0.04333811
32	0xbd9f3de5	-0.07775477
33	0xbdac63d2	-0.08417477
34	0xbdd61fab	-0.10455259
35	0xbda3cbe5	-0.07997874
36	0xbea7733d	-0.32705107
37	0x3ce3aeeb	0.027793368
38	0xbcd92b10	-0.026509792
39	0xbd570878	-0.05249831
40	0x3ce700e8	0.028198674
41	0xbb1c6d02	-0.0023868685
42	0xbe138ecf	-0.14409946
43	0xbdaba737	-0.08381503
44	0x3cbc338d	0.0229738
45	0xbd8adef5	-0.06780807
46	0xbc9ac193	-0.018891132
47	0xbbe2f51a	-0.006926191
48	0x3c07afdd	0.008281675
49	0x3cb9307f	0.022606133
50	0x3d3f6ae8	0.046732813
51	0xbc0918a0	-0.008367687
52	0xbd749a8c	-0.0597177
53	0x3caf9774	0.021434523
54	0xbad89bce	-0.0016525926
55	0xbe395527	-0.1809889
56	0x3cb52ade	0.022115167
57	0x3cfea514	0.031084575
58	0xbdbc40ff	-0.091920845
59	0xbd43169b	-0.04762898
60	0xbd99741e	-0.07492851
61	0xb9f7ba4d	-0.00047250316
62	0x3d25738e	0.040393405
63	0x3c8b41e1	0.016999187
64	0xbd5d98c8	-0.05410078
65	0xbce03797	-0.027370257
66	0x3d13e35c	0.0361055
67	0xbea9758d	-0.33097497
68	0x3d2fbf9d	0.042907346
69	0x3ba606e0	0.0050667375
70	0x3ca2fb36	0.019895177
71	0xbdcb60cb	-0.09930571
72	0xbc38dc7a	-0.011283034
73	0xbd98d770	-0.074629664
74	0xbcbaf8e7	-0.022823764
75	0x3d0007e8	0.03125754
76	0x3d53faa1	0.05175269
77	0xbb83cc53	-0.00402216
78	0x3d3f1029	0.04664627
79	0x3ce0a1c3	0.027420884
80	0x3afdd9c0	0.0019367263
81	0x3d6f8d07	0.058484104
82	0x3d876e43	0.06612828
83	0xbcb7f1b6	-0.022454124
84	0x3cb60d68	0.02222319
85	0xbd905b95	-0.07048718
86	0x3d3348ce	0.043770604
87	0xbe098568	-0.13429797
88	0x3cfceed6	0.030875605
89	0xbaf03720	-0.0018326975
90	0xbe55c9bf	-0.20877741
91	0xbd0b0e64	-0.03394927
92	0x3c828b96	0.0159357
93	0xb990fd5b	-0.00027654585
94	0xbede0f32	-0.43370968
95	0xbacc795f	-0.0015600136
96	0x3b81c562	0.0039602974
97	0xbd628899	-0.05530605
98	0xbd24d968	-0.040246397
99	0xbc8ba401	-0.017045977
100	0x3d895c66	0.06707077
101	0xbcb1d8df	-0.021709858
102	0xbd3c018b	-0.04589991
103	0x3d8ecde5	0.06972865
104	0x3d3f0ca3	0.04664291
105	0xbb6249ae	-0.003452878
106	0xbbbc57ae	-0.005747757
107	0xbcc88cab	-0.024481138
108	0xbd2276b0	-0.03966397
109	0xbd69713a	-0.056992747
110	0xbcb2de72	-0.021834586
111	0xbe8495dd	-0.25895587
112	0x3d46392e	0.048394375
113	0xbcaa05cb	-0.020754715
114	0xbe2fb2c3	-0.17158036
115	0xba508b00	-0.0007955283
116	0xbb70c305	-0.0036737334
117	0xbbaf76d9	-0.005354744
118	0xbb0e2ead	-0.0021695301
119	0x3cdba0cb	0.02681007
120	0xbda1085f	-0.07862925
121	0x3c1243ba	0.00892728
122	0x3d074b68	0.033030897
123	0x3d0074f7	0.031361546
124	0xbb50aa45	-0.003183977
125	0xbdba3fdc	-0.090942115
126	0xbd6e639a	-0.058200456
127	0xbdb7ac61	-0.089684255
128	0xbdc38b57	-0.09548061
129	0xbdc2caf9	-0.0951137
130	0x3d01aa24	0.0316564
131	0x3cbcb2b1	0.023034425
132	0xbdac2cad	-0.08406959
133	0x3d95c4b3	0.07312908
134	0xbdb727c0	-0.089431286
135	0xbdb3e1ff	-0.0878334
136	0x3c32b771	0.010907994
137	0x3b8a572d	0.004221818
138	0xbcfcf3ef	-0.030878035
139	0x3c1b71db	0.0094875945
140	0xbd8d19f1	-0.068897136
141	0x3bc50af7	0.00601327
142	0xbe3f9266	-0.1870819
143	0xbc031312	-0.008000152
144	0x3cc4ea5c	0.024037533
145	0xbce7e36a	-0.028306682
146	0xbc8094f2	-0.015696023
147	0x3d5e40a5	0.05426087
148	0x3cfbcdc6	0.030737769
149	0xbdb5cce9	-0.08876974
150	0xbdb26aa5	-0.08711747
151	0xbd851820	-0.06498742
152	0x3cc6c26d	0.024262631
153	0x3cb8150e	0.022470977
154	0x3b82edd8	0.0039956383
155	0x3d8e7a0c	0.06956872
156	0xbd844228	-0.06457931
157	0xbd3b7f3f	-0.04577565
158	0x3cf7a64b	0.030230662
159	0xbca84fd8	-0.020545885
160	0xb9b311f3	-0.00034154914
161	0x3d8e6b00	0.069540024
162	0xbd98c10e	-0.07458697
163	0x3c8fddd4	0.01756183
164	0xbe64ce57	-0.22344337
165	0x3c8063fc	0.015672676
166	0xbe30d421	-0.17268421
167	0xbdf47844	-0.11937001
168	0xbd2f955a	-0.042867042
169	0xbbde4203	-0.0067827716
170	0xbec491d2	-0.38392502
171	0xbda346f3	-0.07972517
172	0xbc805e96	-0.015670102
173	0x3c62dbcd	0.01384635
174	0xbc282394	-0.010262389
175	0x3d865cc5	0.06560663
176	0x3d7e9b8c	0.06216006
177	0xbb051f54	-0.0020312862
178	0x3cbc89ed	0.023014987
179	0xbd22393c	-0.039605364
180	0xbb14cd17	-0.002270525
181	0x3d76fd4e	0.060300164
182	0xbc05369e	-0.0081306975
183	0xbd858e1c	-0.06521246
184	0x3d886047	0.066589884
185	0x3d48a94d	0.048989583
186	0x3c2b0ba1	0.010439784
187	0x3b38bbbf	0.0028188077
188	0x3ac64304	0.0015126173
189	0x3ce56912	0.028004203
190	0xbd9df144	-0.077120334
191	0x3d881b4f	0.06645834
192	0xbd63d78e	-0.05562549
193	0x3d9b0dbe	0.075709805
194	0x3d8f8aaa	0.0700887
195	0xbd235a3a	-0.03988097
196	0x3d8af79e	0.067855105
197	0x3d96f167	0.073702626
198	0xbd099ec6	-0.033598684
199	0x3d658ac4	0.05604054
200	0x3b818ca2	0.0039535323
201	0xbddeb6c1	-0.10874701
202	0xbd9d9264	-0.076939374
203	0xbceec6c8	-0.02914752
204	0x3d79c03d	0.06097435
205	0xbd8f592d	-0.06999431
206	0x3bc864e5	0.006115543
207	0xbd846ef2	-0.06466474
208	0x3d8db66c	0.0691956
209	0xbd780e6d	-0.060560632
210	0xbd6e8d5c	-0.05824028
211	0x3ce2e7c8	0.027698413
212	0x3d5c7f86	0.053832553
213	0x3d22e42a	0.039768375
214	0x3d8ef61e	0.06980537
215	0xbd1098a2	-0.035301812
216	0x3a775279	0.00094345916
217	0x3d685670	0.05672306
218	0xbdbc6197	-0.09198301
219	0x3d9034fb	0.07041355
220	0x3c384524	0.011246953
221	0xbd0a977e	-0.03383588
222	0xbea88a1b	-0.32917866
223	0xbdabf408	-0.08396155
224	0xbce18a0e	-0.02753165
225	0x3d758834	0.059944347
226	0x3d4163cd	0.047214318
227	0xbd7dbc3c	-0.061947092
228	0xbb80bf65	-0.003929066
229	0xbd75b0fb	-0.059983235
230	0x3d210ce2	0.039318927
231	0xbd56a139	-0.052399848
232	0x3d7d1ff4	0.06179805
233	0xbc8183f1	-0.015809985
234	0xbd4d5146	-0.050126337
235	0x3d5cbc25	0.053890366
236	0xbd81ff60	-0.06347537
237	0xbd466811	-0.04843909
238	0xbd1fafee	-0.03898614
239	0xbd76918b	-0.060197394
240	0xbca2c0c8	-0.019867316
241	0x3bda5fc9	0.0066642505
242	0xbd32d577	-0.043660607
243	0xbdae1f68	-0.08502084
244	0xbdbe426f	-0.09290015
245	0xbd32ba52	-0.04363472
246	0xbd97a077	-0.07403653
247	0x3c9133a8	0.017724827
248	0xbbcc781d	-0.0062399046
249	0xbcd23b24	-0.025662966
250	0xbcbe5375	-0.023233155
251	0x3d73a916	0.059487425
252	0xbd58ef2c	-0.052962467
253	0xbdc44c79	-0.095848985
254	0xbd05b847	-0.032646444
255	0xbeedbd5a	-0.46433526

fc3.bias f4 [2]
0	0x3d695cb4	0.056973174
1	0xbd4b31f8	-0.0496082

fc1.weight f4 [128, 84]
0	0xbd8f39cf	-0.06993448
1	0xbd1f996d	-0.038964678
2	0x3c1a4275	0.009415259
3	0x3db630a7	0.088959984
4	0xbd7d75d3	-0.061879944
5	0xbdb8028e	-0.08984862
6	0xbddcb801	-0.107772835
7	0x3d968338	0.07349247
8	0xbb62301e	-0.0034513543
9	0x3d9c9ff8	0.07647699
10	0x3d6a5d1a	0.057217695
11	0x3da8f05f	0.08248972
12	0xbdd388cf	-0.103288285
13	0xbdbe0f72	-0.0928029
14	0xbdb46e2f	-0.08810078
15	0xbd532837	-0.051552024
16	0xbd62d051	-0.055374447
17	0xbdb5e1c6	-0.088809535
18	0xbd091e7d	-0.03347634
19	0xbcc940d6	-0.024567049
20	0xbd77aa79	-0.06046531
21	0xbcaead75	-0.021322945
22	0xbddec4aa	-0.108773544
23	0xbdc98746	-0.098402545
24	0x3cd491f3	0.0259485
25	0xbd5c6178	-0.05380389
26	0xbdc14f58	-0.09438962
27	0x3d0c293e	0.03421902
28	0xbdcd241a	-0.100166515
29	0x3c37090e	0.011171592
30	0x3db6c367	0.08923989
31	0xbce446c8	-0.027865782
32	0xbdbd9ce3	-0.092584394
33	0xbd5f5a57	-0.054529514
34	0x3cb0de5c	0.021590404
35	0x3d80eb2a	0.06294854
36	0xbdbebc1a	-0.09313221
37	0xbd07eb44	-0.03318335
38	0x3cd5917c	0.026070349
39	0x3dbc0b0d	0.09181795
40	0xbd311f39	-0.043242667
41	0x3dcc5657	0.099774055
42	0xbd78c427	-0.06073394
43	0xbdd04a8f	-0.10170471
44	0xbcdccc00	-0.026952744
45	0xbd518220	-0.051149487
46	0x3daaae0e	0.083339795
47	0xbd3c2d6e	-0.045941763
48	0xbdad3ac6	-0.08458476
49	0xbdae6b84	-0.08516601
50	0x3d8c1fda	0.06842013
51	0x3dc1a318	0.09454936
52	0x3d01f39b	0.03172646
53	0x3d8887d3	0.066665314
54	0xbd5d2148	-0.053986818
55	0x3d063d41	0.03277326
56	0xbd577a16	-0.052606665
57	0xbc7731a9	-0.0150875235
58	0x3d5cc91c	0.05390273
59	0x3da18dfe	0.07888411
60	0x3d095c26	0.033535145
61	0x3ddd4efa	0.10806079
62	0x3cf9be68	0.0304863
63	0x3d3a9532	0.04555244
64	0xbd7e92e9	-0.062151823
65	0xbcc19423	-0.023630207
66	0x3b0602b1	0.0020448382
67	0x3da7182f	0.081589095
68	0x3d682644	0.056677118
69	0x3c00849a	0.007844115
70	0x3d7a69bc	0.061135992
71	0xbdac5e34	-0.08416405
72	0x3d96a9f0	0.07356632
73	0xbd2f1a71	-0.042749826
74	0xbdaebce9	-0.085321255
75	0x3d6fc6bb	0.058539134
76	0x3d96580f	0.073410146
77	0xbc67bf8e	-0.014144791
78	0x3c958554	0.018252052
79	0x3c9465b8	0.01811491
80	0xbd76051f	-0.060063478
81	0x3d92b415	0.07163254
82	0x3d614a91	0.055002753
83	0x3c81c5b6	0.015841346
84	0x3e67f253	0.22651033
85	0x3d18bc3e	0.037288897
86	0xbd75499e	-0.05988466
87	0x3e10d2d0	0.14142919
88	0x3d582776	0.052772008
89	0x3d8d640d	0.06903849
90	0x3c92d91d	0.017925793
91	0x37e8c7f8	2.7749673e-05
92	0xbd3a6956	-0.045510612
93	0x3d4854fc	0.048909172
94	0xbcdf2105	-0.027237425
95	0x3e6a6153	0.22888689
96	0xbe51d5a2	-0.2049165
97	0xbcabee3b	-0.02098762
98	0x3dd45ac7	0.10368877
99	0x3d2e17b0	0.04250306
100	0xbe806cfa	-0.25083143
101	0xbcaab3b1	-0.020837637
102	0xbdbc38d3	-0.09190526
103	0xbb7eb8e0	-0.0038867518
104	0xbe676844	-0.22598368
105	0x3ddfa76b	0.10920604
106	0xbe8f53e5	-0.27993694
107	0xbc40d61a	-0.011769796
108	0x3e1d9a94	0.15390998
109	0xbe8d5b71	-0.27608827
110	0x3d55f384	0.052234188
111	0xbdf3c307	-0.11902433
112	0x3d344b6d	0.044017244
113	0x3e09ff36	0.13476261
114	0xbe9baf07	-0.30406973
115	0xbdd16772	-0.10224809
116	0xbe0fa3dc	-0.14027351
117	0x3cbd19bf	0.023083566
118	0x3e06cae2	0.13163331
119	0x3ea2f581	0.3182793
120	0xbc218f40	-0.009860814
121	0x3e1d5f58	0.15368402
122	0x3dc0c15a	0.09411879
123	0x3950dc9f	0.00019918614
124	0xbdfeb39d	-0.12436602
125	0x3dc14891	0.09437669
126	0x3d15fda1	0.036618832
127	0x3d92682e	0.07148777
128	0xbdcdb4c6	-0.100442454
129	0x3e339df8	0.17540729
130	0xbebb9423	-0.36636457
131	0xbc4a9280	-0.01236403
132	0xbe6cb650	-0.23116422
133	0x3daf1ae1	0.085500486
134	0x3e91a53c	0.28446376
135	0xbbd0471d	-0.0063561336
136	0xbd20add9	-0.039228294
137	0xbd6be2c9	-0.057589326
138	0xbb233dd1	-0.0024908672
139	0x3e70c9aa	0.23514429
140	0x3d8330b8	0.06405777
141	0x3db78dca	0.08962591
142	0xbd81a35d	-0.06329987
143	0x3ddbbfd4	0.10729948
144	0x3d64f164	0.05589427
145	0x3cbba966	0.022907924
146	0xbdc000da	-0.093751624
147	0xbd496228	-0.049165875
148	0xbcdf1a69	-0.027234273
149	0xbc9f2dec	-0.019431077
150	0x3df96f9d	0.12179492
151	0xbd5c28d4	-0.053749874
152	0xbe656f81	-0.22405817
153	0x3d95cd42	0.073145404
154	0x3d8fc379	0.07019705
155	0xbdc5b9da	-0.09654589
156	0x3dcbd599	0.0995285
157	0x3cea5117	0.02860312
158	0xbbd1a756	-0.006398122
159	0x3d26b40b	0.040699046
160	0xbdabb4f5	-0.08384124
161	0x3e7ebe23	0.24877219
162	0x3d1ffbb4	0.039058402
163	0x3d043c94	0.032284334
164	0x3dc3df2d	0.09564052
165	0xbdcfd1c8	-0.101474345
166	0xbc126b56	-0.008936724
167	0xbd4b5490	-0.049641192
168	0x3dbdfb7b	0.09276482
169	0xbe35a7ec	-0.17739838
170	0x3e26b7a7	0.16280995
171	0xbe6c08a6	-0.23050174
172	0xbdae77d4	-0.08518949
173	0xbd90ff03	-0.070798896
174	0x3ce10e1b	0.027472546
175	0xbd9a4ad7	-0.07533806
176	0x3e283b30	0.16428828
177	0xbd5b071a	-0.05347357
178	0x3ce6d76c	0.028178893
179	0x3df67d8e	0.120356664
180	0xbcee5c67	-0.029096795
181	0xbd7e548d	-0.062092353
182	0x3da6d4a8	0.0814603
183	0xbdc0a7b4	-0.09406987
184	0xbe2a7df1	-0.16649605
185	0x3ba456b9	0.005015221
186	0xbc537a26	-0.01290754
187	0xbc8a797e	-0.016903635
188	0xbe99c2af	-0.30031344
189	0xbe207b6a	-0.15672079
190	0xbe0c6a48	-0.13712418
191	0xbdf7fd51	-0.12108863
192	0x3cbd1c06	0.023084652
193	0xbde5e754	-0.11225763
194	0xbe3fe9f8	-0.18741596
195	0xbe05e4b6	-0.13075528
196	0xbd72e9c8	-0.059304982
197	0xbd69ea1e	-0.057108037
198	0x3e719d97	0.23595272
199	0xbdac394e	-0.084093675
200	0x3e2b7fb9	0.16747941
201	0xbdd61fb2	-0.10455264
202	0x3d4d932e	0.05018919
203	0x3d566759	0.052344654
204	0xbd427708	-0.0474768
205	0x3cb4f66f	0.022090165
206	0xbe56f0bc	-0.2099027
207	0xbd19052b	-0.037358444
208	0xbd2281fa	-0.039674737
209	0xbe745d41	-0.23863699
210	0x3de9cd36	0.11416094
211	0xbddf26ed	-0.108960964
212	0x3d901913	0.070360325
213	0xbde66cd3	-0.11251225
214	0x3d0c30ab	0.0342261
215	0x3c9ce99a	0.019154359
216	0x3dadda77	0.084889345
217	0xbc3edda9	-0.011649528
218	0x399b1e35	0.0002958641
219	0xbc027680	-0.007962823
220	0xbe1f4560	-0.15553808
221	0xbe061c44	-0.1309672
222	0x3cb65a43	0.022259837
223	0x3d03c67f	0.032171723
224	0xbe284bde	-0.16435191
225	0xbdfa4633	-0.12220421
226	0xbe8bd41f	-0.27310273
227	0xbdc1128b	-0.09427365
228	0xbd52b9bb	-0.051446658
229	0xbd73c9d8	-0.059518665
230	0xbd7ce076	-0.0617375
231	0x3dbeb8fc	0.09312627
232	0x3d37dda8	0.044889122
233	0xbd47d9be	-0.04879164
234	0x3ccd329e	0.02504855
235	0x3daec9b5	0.08534566
236	0xbe5ba27d	-0.21448703
237	0x3aef6bbc	0.001826636
238	0x3e1f974a	0.15585056
239	0x3d8d9e5d	0.06914971
240	0x3c3a1a46	0.011358803
241	0x3d423d3c	0.04742168
242	0x3dbde5b1	0.09272326
243	0x3d24d0a0	0.040238023
244	0x3cdd1fdb	0.026992729
245	0x3ebb0c46	0.365328
246	0x3d815693	0.06315341
247	0x3d3ccf31	0.04609603
248	0x3e672c90	0.22575593
249	0x3a5f3c47	0.0008515757
250	0xbdfac8aa	-0.12245305
251	0xbd2d45ea	-0.042303003
252	0xbc8cab57	-0.017171545
253	0xbd9686fb	-0.07349964
254	0xbc4874c4	-0.01223487
255	0xbdda4ca3	-0.106591485

fc1.bias f4 [128]
0	0xbdc4ccf4	-0.09609404
1	0xbcc2cbcb	-0.023778817
2	0xbc1cfb1a	-0.009581352
3	0x3df1a7ba	0.117995694
4	0xbc35225d	-0.011055556
5	0x3d1bd33b	0.038043242
6	0xbcb2683c	-0.021778218
7	0xbdcccc69	-0.09999926
8	0xbcab1975	-0.020886162
9	0xbd8ee1c1	-0.06976653
10	0x3dbf5375	0.0934209
11	0x3d568859	0.052376125
12	0x3dd71bd1	0.105033524
13	0xbd6e02a4	-0.058107987
14	0x3ad01d5b	0.0015877889
15	0x3c083690	0.00831379
16	0xbdd7581b	-0.10514852
17	0x3c8e23f5	0.01735113
18	0x3d4258b5	0.04744788
19	0x3d9501bf	0.07275724
20	0x3d6a9f5f	0.057280894
21	0xbe02b8e8	-0.12765849
22	0xbd1faea9	-0.03898493
23	0x3d11b6b2	0.035574622
24	0x3d12b23d	0.035814513
25	0xbd848b43	-0.064718746
26	0xbdd5b74b	-0.10435351
27	0xbdfcbf83	-0.123412155
28	0xbdd5e31e	-0.1044371
29	0xbda26a3a	-0.07930417
30	0xbce56682	-0.028002981
31	0xbdee437a	-0.11633964
32	0x3df8fb2d	0.12157283
33	0x3c396463	0.011315438
34	0xbdb3c148	-0.087771
35	0xbd5e853a	-0.054326274
36	0xbd04c9bc	-0.03241895
37	0xbc51089d	-0.012758401
38	0x3cdd50ab	0.027016005
39	0xbdbcc893	-0.09217944
40	0xbd6157cc	-0.05501537
41	0xbdb90dfb	-0.0903587
42	0xbc2ad252	-0.010426121
43	0xbd7b3cdc	-0.061337337
44	0xbb5e0641	-0.003387824
45	0xbdf13ddd	-0.117793776
46	0x3d912f1d	0.07089064
47	0x3d8fa2ad	0.0701345
48	0x3d86f165	0.06589011
49	0x3d276d86	0.040875934
50	0x3cbdcaba	0.023167957
51	0x3c94210a	0.01808216
52	0x3d8f909a	0.070100024
53	0x3da82071	0.08209313
54	0xbdbb4f06	-0.09145932
55	0xbd230366	-0.039798163
56	0xbd6a099b	-0.057138067
57	0x3db97ef7	0.0905742
58	0xbd25629a	-0.040377237
59	0xbd9e1aae	-0.077199325
60	0xbdae2c48	-0.0850454
61	0x3d3d4212	0.046205588
62	0x3c6c025f	0.014404862
63	0x3d687889	0.056755576
64	0xbd9d2115	-0.076723255
65	0xbd0dda8a	-0.034632243
66	0x3d76045c	0.06006275
67	0xbd69e8d0	-0.057106793
68	0x3d99985c	0.07499763
69	0x3db93f4a	0.090452746
70	0x3b4bbfe5	0.003108972
71	0xbd745635	-0.059652526
72	0x3b5223a8	0.003206471
73	0x3d3a00b4	0.045410827
74	0xbd828f5b	-0.06374999
75	0xbdeda19b	-0.116030894
76	0xbbd4886c	-0.0064859893
77	0x3dbcd57c	0.092204064
78	0xbd8535ed	-0.06504426
79	0xbd63072c	-0.05542676
80	0xbb64fab0	-0.003493946
81	0xbd3cbe5b	-0.046079975
82	0xbdf00898	-0.11720389
83	0x3d0671a5	0.032823224
84	0xbd63a390	-0.055575907
85	0x3dabc7cd	0.08387718
86	0x3d0f8ab2	0.03504438
87	0xbda1713d	-0.078829266
88	0x3d4acb1a	0.0495101
89	0xbddf917c	-0.10916421
90	0x3c351fbf	0.011054932
91	0x3d816292	0.06317629
92	0x3dd3221a	0.10309239
93	0xbdbf1225	-0.09329633
94	0x3dcc8c63	0.09987714
95	0x3d6324ce	0.05545502
96	0x3b149d0f	0.0022676622
97	0xbd8655b9	-0.06559319
98	0xbdbb5ab2	-0.09148158
99	0x3ca2adee	0.019858327
100	0xbd3b264b	-0.045690816
101	0x3d9461f3	0.07245245
102	0xbdef15e5	-0.11674098
103	0x3d00cbe8	0.03144446
104	0x3c7d06c7	0.01544351
105	0x3d4e24e7	0.05032816
106	0x3d99f4dc	0.07517406
107	0x3cbfa4d1	0.02339402
108	0xbd91cab0	-0.07118738
109	0xbc43c7ec	-0.011949521
110	0xbdc6165a	-0.09672232
111	0xbdd0dacd	-0.10197983
112	0x3dff5cf1	0.12468899
113	0xbd0f3938	-0.034966677
114	0xbd07e170	-0.03317398
115	0xbcde307c	-0.027122729
116	0xbd5eff2c	-0.05444257
117	0xbd84b46d	-0.06479726
118	0x3d2ef081	0.04270983
119	0xbd8ea5e2	-0.069652334
120	0xbd8ead84	-0.06966689
121	0xbd3a415c	-0.045472488
122	0xbd71e8e8	-0.059060007
123	0xbde5e2d0	-0.11224902
124	0xbc041d9e	-0.008063702
125	0x3dc7dc88	0.0975886
126	0xbda518d1	-0.08061374
127	0x3d850b34	0.064962775

fc2.weight f4 [128, 128]
0	0x3d99f711	0.07517827
1	0x3ba23f92	0.004951426
2	0xbc65bc45	-0.014021938
3	0x3d58c011	0.052917544
4	0x3d6ee2cc	0.05832176
5	0x3ce4096f	0.02783653
6	0xbbeff5c3	-0.0073229983
7	0x3d339fa7	0.04385343
8	0xbdde16f9	-0.108442254
9	0x3d4a37b4	0.04936953
10	0x3e1f51d7	0.15558563
11	0xbd15b93b	-0.036553603
12	0xbd08ab58	-0.03336653
13	0x3d855ed0	0.06512225
14	0x3d39dbc2	0.045375593
15	0x3cf580e4	0.029968686
16	0x3db5018c	0.08838186
17	0xbdf82142	-0.121157184
18	0x3d10fb01	0.035395626
19	0x3d0985db	0.03357492
20	0xbd061305	-0.032732982
21	0x3d814fd1	0.06314052
22	0x3dbf4840	0.093399525
23	0xbd57a3b7	-0.052646365
24	0xbda4c5ab	-0.08045515
25	0x3d80cea8	0.062894166
26	0x3d12601c	0.03573619
27	0x39af7749	0.00033467475
28	0x3d48dc1e	0.049038045
29	0x3d34ac87	0.044109847
30	0x3d34e7c7	0.044166353
31	0xbcdce880	-0.026966333
32	0xbe69d31b	-0.22834437
33	0xbef7fd46	-0.4843542
34	0xbcc1269b	-0.023577979
35	0xbd84cc18	-0.0648424
36	0x3d991512	0.07474722
37	0xbd898c74	-0.067162424
38	0xbd26a31d	-0.0406829
39	0xbd938e46	-0.07204871
40	0xbd8befde	-0.068328604
41	0x3d9f2090	0.07769883
42	0xbda80d44	-0.08205655
43	0x3da4017e	0.08008097
44	0x3d94d141	0.072664745
45	0xbd4daaed	-0.050211836
46	0x3d8e8edb	0.06960841
47	0xbd26865d	-0.040655483
48	0xbd38016e	-0.04492324
49	0xba62f11f	-0.00086571457
50	0xbd9a83a8	-0.07544643
51	0xbd84ea6f	-0.06490027
52	0x3d0e3b4f	0.03472453
53	0xbce877b0	-0.028377384
54	0xbd889819	-0.06669635
55	0x3d5a64b7	0.053318705
56	0x3d942763	0.07234075
57	0xbd29410d	-0.041321803
58	0x3cc6d0b9	0.024269449
59	0x3d401e55	0.046903927
60	0x3d94e7bb	0.072707616
61	0xbcaa6d4f	-0.020804076
62	0xbd742ba2	-0.059611924
63	0x3d7298f0	0.059227884
64	0x3db7dccf	0.08977663
65	0xbd15b976	-0.036553822
66	0xbdc03df4	-0.093868166
67	0x3c3db061	0.011577697
68	0x3d6bd3c5	0.057575006
69	0xbe37e80c	-0.17959613
70	0x3b4167bd	0.0029511296
71	0x3da6ce4e	0.08144818
72	0x3d5ca651	0.05386955
73	0x3c881074	0.016609408
74	0x3d858b7a	0.06520744
75	0x3bba6808	0.005688671
76	0x3b626848	0.003454702
77	0xbee7ded4	-0.45287192
78	0xbcdecbff	-0.027196882
79	0xbbd2cb83	-0.006432952
80	0x3d761497	0.06007823
81	0x3d097b3a	0.033564784
82	0xbd0c5957	-0.03426489
83	0xbdeab15c	-0.1145961
84	0x3d860ed5	0.06545798
85	0x3d458973	0.048226785
86	0x3d3a9c26	0.04555907
87	0x3b614eb2	0.0034379181
88	0x3cacd800	0.02109909
89	0x3d1011f0	0.035173357
90	0xbcbe0348	-0.023194924
91	0x3d3d9c95	0.046291906
92	0x3e343a5e	0.1760039
93	0x3e826289	0.254658
94	0x3dd7e37c	0.10541436
95	0x3d4f950e	0.05067926
96	0x3e05aa83	0.13053326
97	0xbd8385f3	-0.06422033
98	0x3d665942	0.056237467
99	0x3d5e7a41	0.05431581
100	0x3c799fd5	0.015235861
101	0xbe700675	-0.23439963
102	0xbb8e3b3b	-0.004340557
103	0xbe97e9dc	-0.29670608
104	0x3d896f4c	0.06710681
105	0x3c821685	0.015879879
106	0x3cea725e	0.028618988
107	0x3e2e7a4b	0.17038839
108	0xbd4e3a43	-0.05034853
109	0x3c3ffdfe	0.011718271
110	0xbcbb35e2	-0.022852842
111	0xbd28db02	-0.041224487
112	0x3d973726	0.073835656
113	0xbd9a115d	-0.07522843
114	0xbd9468f8	-0.07246584
115	0x3c984647	0.018588198
116	0x3d1366bf	0.03598666
117	0x3d396c94	0.045269564
118	0xbce81c1b	-0.028333714
119	0x3c8a157e	0.016855951
120	0x3d08bb8d	0.033381987
121	0x3d4b5b38	0.04964754
122	0xbd06964b	-0.032858174
123	0xbded2214	-0.115787655
124	0x3d31241d	0.04324733
125	0xbd92aca2	-0.07161833
126	0x3dccad33	0.09993973
127	0xbc9354ea	-0.017984826
128	0xbcd93c78	-0.026518092
129	0xbd2f6dc9	-0.04282931
130	0x3d5731e5	0.052537818
131	0xbd2fe01a	-0.04293833
132	0xbd337391	-0.043811385
133	0xbd947c5b	-0.072502814
134	0x3cfeeb1b	0.031117966
135	0x3cb74c01	0.022375109
136	0xbd4d4b28	-0.050120503
137	0x3c0fc9ee	0.008776171
138	0xbdca099f	-0.09865116
139	0xbd84f808	-0.06492621
140	0xbd2038a2	-0.03911651
141	0x3c28563f	0.010274469
142	0xbd9641f6	-0.073368
143	0xbdb9bed7	-0.09069603
144	0x3b6c125e	0.003602169
145	0x3ca2ec91	0.019888194
146	0x3d74d30a	0.059771575
147	0xbd8e38d1	-0.069444306
148	0x3d5fdc90	0.054653704
149	0xbda232b0	-0.07919824
150	0xbd84c1ec	-0.064823
151	0xbd7d5038	-0.06184408
152	0x3da2fc3d	0.07958267
153	0xbd60a0fe	-0.054841034
154	0x3c876536	0.016527753
155	0x3d6cc507	0.057805087
156	0x3d0d2c10	0.03446585
157	0xbd728c0f	-0.0592156
158	0xbcb761e7	-0.02238555
159	0x3d11b3a9	0.035571728
160	0x3d103a18	0.035211653
161	0x3d3eb547	0.0465596
162	0xbd9d0f79	-0.07668967
163	0xbce88478	-0.028383479
164	0x3b97779d	0.0046224133
165	0xbc86c845	-0.016452918
166	0x3cbee818	0.02330403
167	0xbc2a70e9	-0.010402896
168	0x3d530acd	0.051523972
169	0xbb4f36fa	-0.0031618462
170	0xbd9a54db	-0.07535716
171	0x38bee0ec	9.101801e-05
172	0x3d061889	0.032738242
173	0xbb7df1fb	-0.0038748968
174	0x3bad2f27	0.005285162
175	0xbdbf091b	-0.093279086
176	0xbc187035	-0.009304096
177	0xbdd0fb3c	-0.10204169
178	0x3bedfb57	0.007262628
179	0x3b3a6582	0.002844185
180	0x3d8490cb	0.064729296
181	0xbd3962c8	-0.04526022
182	0x3d44f6e2	0.04808701
183	0x3ccc7b8b	0.024961254
184	0x3d853706	0.065046355
185	0x3da242ef	0.07922923
186	0xbb96f7b3	-0.0046071648
187	0x3cec82c6	0.028870951
188	0xbda4f24d	-0.08054028
189	0xbd040d9f	-0.032239553
190	0xbd61f4e9	-0.055165205
191	0xbd073817	-0.033012476
192	0x3d33ef88	0.043929607
193	0xbc7e8400	-0.015534401
194	0x3c8c2bfd	0.017110819
195	0xbdb0e063	-0.08636548
196	0x3d0d04d1	0.03442842
197	0xbd9af097	-0.0756542
198	0x3ce93fb8	0.028472766
199	0xbd1149ca	-0.03547076
200	0x3d3063fa	0.043064095
201	0x3d3e10fd	0.04640292
202	0xbd05addc	-0.03263651
203	0x3d7fbe66	0.062437437
204	0x3ca3d1ec	0.01999756
205	0xbd1d8bfc	-0.038463578
206	0xbd94e63a	-0.07270475
207	0xbc7e9f01	-0.015540839
208	0xbd8d2a36	-0.06892817
209	0xbd200bd9	-0.0390738
210	0x3cdbe78e	0.026843812
211	0xbd2832c1	-0.041064028
212	0x3d8c89dd	0.06862233
213	0xbc987bad	-0.01861366
214	0xbd86f2d5	-0.06589285
215	0xbd51f3d7	-0.051257934
216	0xbd803643	-0.062603496
217	0x3d8ae270	0.06781471
218	0x3d728438	0.059208125
219	0xbd82c4be	-0.06385182
220	0xbdb95bfb	-0.09050747
221	0xbdb0d2c7	-0.086339526
222	0xbd8139f6	-0.06309883
223	0xbdbd8395	-0.09253613
224	0xbda0c85b	-0.07850715
225	0x3d900145	0.07031492
226	0x3d726e0b	0.059186976
227	0xbbe856ca	-0.007090424
228	0xbd961c9e	-0.07329677
229	0x3d4d3449	0.05009869
230	0xbd9d5bc3	-0.07683518
231	0xbd97df0c	-0.0741559
232	0x3d5a0999	0.05323181
233	0x3db1b14a	0.08676393
234	0x3d77bae3	0.060480963
235	0x3d6781ab	0.056520145
236	0x3d79caa0	0.060984254
237	0x3d9be7e3	0.07612588
238	0xbd2c68fc	-0.04209231
239	0x3d90d6b2	0.070722
240	0xbd94dc4b	-0.0726858
241	0x3d377613	0.04479034
242	0x3b20241b	0.0024435583
243	0x3c2a05c8	0.010377355
244	0xbdc1ea9b	-0.094685756
245	0xbd8ba569	-0.06818659
246	0xbd2282f2	-0.03967566
247	0x3cba2f0c	0.022727512
248	0x3d999080	0.07498264
249	0xbdaff6b3	-0.08591976
250	0x3d16844e	0.03674727
251	0xbd18c02b	-0.03729264
252	0xbd2bd8f5	-0.041954953
253	0x3d7980ca	0.06091384
254	0xbda633dd	-0.08115361
255	0xbc38cd33	-0.011279392

fc2.bias f4 [128]
0	0x3eaaec26	0.33383292
1	0xbdacbc83	-0.08434393
2	0xbd026745	-0.031836767
3	0xbd964881	-0.07338048
4	0xbdfbfe83	-0.12304404
5	0xbe11a424	-0.14222771
6	0x3e9fd834	0.31219637
7	0xbe19e7ea	-0.15029874
8	0x3eaa7cb8	0.33298278
9	0xbdabc2bb	-0.08386751
10	0xbe187b51	-0.14890791
11	0xbe8c7d40	-0.27439308
12	0xbc5eaad1	-0.0135905305
13	0x3eb20d63	0.34775838
14	0x3e4f1c48	0.20225632
15	0xbb7b16b3	-0.003831309
16	0xbcdcd24b	-0.026955744
17	0xbd79ae2b	-0.060957115
18	0xbde8001a	-0.11328144
19	0x3eb7a5cd	0.35868683
20	0xbdc13da3	-0.094355844
21	0xbd92a5f6	-0.07160561
22	0xbc82de28	-0.015975073
23	0xbd761f8d	-0.060088683
24	0x3d4cdfc7	0.0500181
25	0xbdb1e8e3	-0.08686998
26	0xbc50a535	-0.012734701
27	0xbde48e68	-0.11159974
28	0xbd81b4c1	-0.06333304
29	0xbbd8d2a9	-0.0066169095
30	0xbd94113b	-0.07229849
31	0x3ba6585a	0.0050764503
32	0xbd750bbc	-0.059825644
33	0xbccc076e	-0.024905887
34	0x3ea8b729	0.3295224
35	0xbd5de681	-0.054174904
36	0xbdef8db4	-0.116969496
37	0x3e3775f9	0.17916097
38	0x3db8e445	0.09027914
39	0xbcb13ca4	-0.021635361
40	0xbdbd2de1	-0.09237266
41	0xbe13adf7	-0.14421831
42	0xbdd9d2c3	-0.10635903
43	0x3daa1047	0.08303886
44	0x3cabf38b	0.020990154
45	0xbe280aad	-0.16410322
46	0xbdf42033	-0.11920204
47	0xbd90b98d	-0.07066641
48	0xbdb3a543	-0.087717555
49	0xbd957739	-0.072981305
50	0xbdd7314a	-0.10507448
51	0x3e85c53b	0.26127037
52	0x3c155974	0.009115566
53	0x3e669850	0.2251904
54	0xbd12eb20	-0.035868764
55	0xbe054bcb	-0.13017194
56	0xbd4ddd14	-0.050259665
57	0xbd6fbda9	-0.058530483
58	0xbd9836e6	-0.07432346
59	0xbd1f6295	-0.038912375
60	0xbe90f383	-0.28310785
61	0x3c91877d	0.017764801
62	0xbdd9f680	-0.10642719
63	0xbe0426ee	-0.12905475
64	0xbdf72501	-0.12067605
65	0xbe6503a4	-0.2236467
66	0x3ccf0fbf	0.025276063
67	0xbe301721	-0.17196323
68	0x3e3708a2	0.17874387
69	0xbdb1142d	-0.08646426
70	0x3dddf083	0.108368896
71	0xbc957b90	-0.018247396
72	0xbd84404a	-0.06457575
73	0x3c91b060	0.017784297
74	0xbe05fe8a	-0.1308538
75	0xbdc9763b	-0.09837004
76	0x3e9f7a0b	0.311478
77	0x3d3e3cb0	0.046444595
78	0x3e3ae4bc	0.18251318
79	0xbdcab139	-0.09897084
80	0x3eddb003	0.4329835
81	0x3c2a531a	0.0103957895
82	0x3c9b697d	0.0189712
83	0x3bde90cb	0.006792163
84	0xbc317c84	-0.0108329095
85	0x3d839ea0	0.0642674
86	0xbdc1be11	-0.094600804
87	0x3d0dfa07	0.034662273
88	0x3e95f974	0.2929188
89	0x3c92ce6b	0.017920693
90	0x3a7ab0e3	0.00095631013
91	0xbe721fc2	-0.23644927
92	0xbce2e31d	-0.027696187
93	0x3e0da3e6	0.13832054
94	0xbe8408cf	-0.2578797
95	0xbc50a255	-0.0127340155
96	0xbe76d846	-0.2410594
97	0xbd7a81de	-0.061159007
98	0xbdc8a4c4	-0.097970515
99	0xbd7c2df3	-0.061567258
100	0xbcf7132a	-0.030160505
101	0x3d039214	0.032121733
102	0x3e4924b3	0.19642906
103	0x3d74196d	0.05959456
104	0xbe2a9d7f	-0.16661642
105	0xbdb4fd96	-0.0883743
106	0xbbe2d28a	-0.006922071
107	0xbe803445	-0.25039878
108	0x3c95c369	0.018281655
109	0xbd4a2a07	-0.049356487
110	0x3e37b9d0	0.17941976
111	0xbda852c7	-0.082189135
112	0xbe9af0e4	-0.3026191
113	0xbd115cb8	-0.035488814
114	0xbd1a58cd	-0.037682343
115	0x3ec197a7	0.37811014
116	0xbdb4569f	-0.08805584
117	0xbdd8a836	-0.10578959
118	0xbe3500f1	-0.1767614
119	0xbac84bde	-0.0015281399
120	0xbe8aa0ad	-0.2707571
121	0x3c15e31a	0.0091483835
122	0xbd2077e0	-0.03917682
123	0xbd9cbbc7	-0.07653003
124	0xbddada1a	-0.10686131
125	0x3d4f33c4	0.050586477
126	0xbe2b3c66	-0.16722259
127	0x3badcf7c	0.005304275
