saved_models/episode_500/agent_0.pth (torch, 738018 bytes, 44 tensors)

fc1.weight f4 [128, 5]
0	0x3e2ebaff	0.17063521
1	0x3dae43aa	0.08509
2	0x3e3c6504	0.1839791
3	0x3d133e51	0.0359481
4	0xbe9e0229	-0.30861023
5	0x3ebcebb7	0.36898586
6	0x3cd7f56a	0.02636214
7	0x3e2cb976	0.16867623
8	0x3ee98421	0.4560862
9	0xbea20246	-0.3164236
10	0x3e1d4b05	0.15360649
11	0xbddda1f9	-0.108219095
12	0xbdfedf1f	-0.12444901
13	0x3ec0e8a4	0.3767749
14	0x3d9ee645	0.07758764
15	0xbd618058	-0.05505404
16	0xbe9745ee	-0.2954554
17	0x3d3cb4f6	0.046071015
18	0xbe8bd75b	-0.2731274
19	0x3d85506f	0.06509482
20	0x3eba857d	0.36429968
21	0x3e1a17bb	0.15048115
22	0x3e76447b	0.2404956
23	0xbe7aaa64	-0.24479061
24	0xbb9a91e8	-0.0047171004
25	0xbed2f7f5	-0.412048
26	0xbcacf3da	-0.021112371
27	0xbb8b481a	-0.0042505385
28	0x3eddc2d9	0.4331272
29	0x3ea57ed8	0.32323337
30	0xbd4dabf8	-0.05021283
31	0x3d421a85	0.047388572
32	0xbea80f9f	-0.32824418
33	0x3d5eb807	0.05437472
34	0x3ea784bb	0.32718453
35	0x3d674ed3	0.056471657
36	0x3e6cfedd	0.23144098
37	0xbe2daf35	-0.16961367
38	0x3e5ef203	0.21772008
39	0xbc6f3fb1	-0.014602588
40	0x3ee82428	0.45340085
41	0xbe215a5d	-0.15757127
42	0x3e945560	0.28971386
43	0x3cc37f08	0.023864284
44	0xbe212f9e	-0.15740821
45	0x3e873f5a	0.2641552
46	0xbe8b7c15	-0.27243105
47	0x3dbfc775	0.09364215
48	0xbea8cf54	-0.3297068
49	0x3e4698c4	0.19394213
50	0xbebf8654	-0.37407172
51	0x3db664f3	0.08905973
52	0xbcd161cf	-0.025559334
53	0x3e9326ca	0.2874053
54	0xbe14cd35	-0.14531405
55	0x3dc1af1a	0.09457226
56	0xbd64fe0a	-0.055906333
57	0xbe7ae704	-0.24502188
58	0x3ed5425d	0.41652194
59	0xbecaba29	-0.39595154
60	0x3e2f538f	0.17121719
61	0xbd73ebb8	-0.05955097
62	0x3eb908ab	0.36139426
63	0xbec8aa4e	-0.39192432
64	0x3eb7057e	0.35746378
65	0x3b57cecb	0.0032929655
66	0x3e40e7b8	0.18838394
67	0x3d997214	0.07492462
68	0x3eace374	0.33767283
69	0x3dc89925	0.09794835
70	0xbe945311	-0.28969625
71	0x3e232589	0.15932287
72	0xbe7b7bc3	-0.2455893
73	0x3eb15645	0.3463613
74	0x3edd5b68	0.432338
75	0xbecbfb7f	-0.39840314
76	0xbe862293	-0.26198253
77	0xbe2068e3	-0.15665011
78	0xbe11cffb	-0.14239495
79	0xbedd5472	-0.4322849
80	0xbebb5b93	-0.36593303
81	0xbdba77a4	-0.09104851
82	0x3edcc24e	0.43116993
83	0xbec246e0	-0.37944698
84	0xbc06b589	-0.008221992
85	0x3ee135fe	0.43986505
86	0xbe811197	-0.25208732
87	0x3e18bf8e	0.14916822
88	0xbeb41a38	-0.35176253
89	0x3e8b9587	0.27262518
90	0x3daaa869	0.08332903
91	0xbe3b523e	-0.18293092
92	0xbec404b4	-0.38284838
93	0x3ee9c474	0.45657694
94	0xbc6d6e24	-0.014491592
95	0x3e218213	0.15772276
96	0x3de71b8d	0.11284552
97	0x3e481ec8	0.19542992
98	0x3e2b58e5	0.1673313
99	0x3ec9561f	0.39323518
100	0xbe90046a	-0.28128368
101	0xbd95fe1a	-0.07323857
102	0x3dae9253	0.08524003
103	0x3d163721	0.03667367
104	0xbe421323	-0.18952613
105	0x3ebc1860	0.36737347
106	0x3df89ea5	0.12139634
107	0xbd80ff34	-0.06298676
108	0xbd9cf951	-0.07664741
109	0x3e8d90fb	0.27649674
110	0x3c258b03	0.010103944
111	0x3dc333b2	0.095313445
112	0xbdfe34cb	-0.12412413
113	0x3e2c30fc	0.16815561
114	0x3ea12cdf	0.31479546
115	0x3e85392a	0.26020175
116	0x3e8b7e27	0.27244684
117	0x3dd852c1	0.10562659
118	0xbe1f3de6	-0.15550956
119	0xbe9831d0	-0.29725504
120	0xbe0c7ba2	-0.13719037
121	0xbe210378	-0.1572398
122	0xbe0174ce	-0.12642214
123	0xbea11aeb	-0.3146585
124	0xbe76c043	-0.2409678
125	0x3e38c02b	0.18042056
126	0xbd930b71	-0.07179917
127	0xbdb7556b	-0.08951839
128	0xbe983a6c	-0.29732072
129	0x3e89bc01	0.26901248
130	0xbd992d4e	-0.07479344
131	0xbe4085b2	-0.18801
132	0xbd7347b8	-0.05939457
133	0x3e3230ac	0.1740138
134	0x3dd000ff	0.1015644
135	0x3e1da994	0.1539672
136	0x3defd69f	0.117108576
137	0x3ea12458	0.3147304
138	0xbe066eb4	-0.13128167
139	0x3e1eff9b	0.15527193
140	0x3d2c65ed	0.04208939
141	0x3d770626	0.060308598
142	0xbe141551	-0.14461257
143	0x3e5bc0ea	0.2146031
144	0xbe4066b1	-0.18789174
145	0x3e14b030	0.14520335
146	0x3e0736d5	0.1320451
147	0xbd2d507b	-0.04231308
148	0x3ede794d	0.4345192
149	0x3dec0fa3	0.1152642
150	0x3e87908d	0.2647747
151	0xbcaa593c	-0.020794503
152	0xbe900ef6	-0.28136414
153	0x3ed44bd7	0.4146411
154	0xbe1f42ad	-0.15552779
155	0xbe6e8288	-0.23291981
156	0x3e998811	0.29986623
157	0xbec0393f	-0.37543675
158	0xbed1b4f2	-0.40958363
159	0xbeaeed00	-0.34165192
160	0xbd52cf89	-0.051467452
161	0x3ddd6945	0.10811094
162	0x3e838a10	0.2569127
163	0x3e529919	0.20566215
164	0x3e58bbc7	0.21165381
165	0x3ed48915	0.41510835
166	0xbee44a60	-0.44587994
167	0xbe424615	-0.18972047
168	0x3e8a8830	0.27057028
169	0xbe22065d	-0.1582274
170	0xbe550878	-0.20804012
171	0x3d9bfa87	0.07616144
172	0xbea98601	-0.3311005
173	0xbec284ad	-0.3799185
174	0x3e83c3b9	0.25735262
175	0x3e852cca	0.26010734
176	0x3e987c3f	0.29782292
177	0x3ea5d418	0.32388377
178	0x3eb0aebf	0.3450832
179	0xbeda03a4	-0.42580903
180	0x3e8f5e11	0.28001454
181	0x3c2a7b66	0.010405397
182	0x3e80eea0	0.25182056
183	0xbeae2e32	-0.3401962
184	0xbdd0d7e2	-0.101974264
185	0x3ec4401a	0.38330156
186	0xbe68fbe6	-0.22752342
187	0x3c8389a1	0.016056838
188	0xbec282a8	-0.37990308
189	0xbe2b9fc9	-0.16760172
190	0xbd41c61b	-0.04730807
191	0xbee4a689	-0.44658306
192	0x3d0a7bbd	0.033809412
193	0xbdc9f9bf	-0.098620884
194	0x3c632198	0.01386299
195	0x3df4a502	0.11945535
196	0x3e7ca66f	0.24672864
197	0xbe85b4bc	-0.26114452
198	0xbe8f08b5	-0.2793633
199	0x3ec5010f	0.3847737
200	0xbe2e1dbd	-0.17003532
201	0xbee56ee2	-0.4481116
202	0x3e6774f5	0.2260321
203	0x3e54d4de	0.20784327
204	0xbe94357d	-0.28947058
205	0xbe940bc5	-0.2891523
206	0x3e212463	0.15736537
207	0xbe642200	-0.22278595
208	0x3df09dfe	0.117488846
209	0xbe9f4eb9	-0.31114748
210	0xbe7aa2b6	-0.24476132
211	0x3edcba50	0.43110895
212	0xbed07bb7	-0.40719387
213	0xbecc5cd3	-0.3991457
214	0x3e948506	0.2900774
215	0xbbf3b674	-0.0074375216
216	0xbee35d28	-0.4440701
217	0xbe50e92b	-0.20401447
218	0x3e11aa69	0.14225163
219	0xbe0a1d4b	-0.13487737
220	0xbe371d80	-0.17882347
221	0x3e592cf0	0.21208549
222	0x3edff7f2	0.43743855
223	0xbe32a4e4	-0.17445713
224	0xbede4102	-0.43408972
225	0xbe96a5d6	-0.29423398
226	0xbecf1f0e	-0.4045338
227	0xbe9539a4	-0.2914554
228	0x3c6cee76	0.01446115
229	0x3dc61b15	0.09673134
230	0x3e4d40c4	0.20044237
231	0x3dc482d9	0.0959527
232	0xbcb5e906	-0.02220584
233	0x3d7d5666	0.061849974
234	0x3c6774ac	0.014126938
235	0xbeda4b2c	-0.42635477
236	0x3e043e97	0.12914501
237	0xbdec6977	-0.11543553
238	0x3ec8f52d	0.39249554
239	0x3e93f5e8	0.2889855
240	0xbe989d66	-0.29807585
241	0x3eaa7083	0.33288965
242	0xbe3781f7	-0.17920671
243	0xbdb89ae5	-0.09013919
244	0x3ea81539	0.32828692
245	0x3e8d6a48	0.2762015
246	0xbe316575	-0.17323859
247	0xbd994c0d	-0.07485209
248	0xbe4a3c1e	-0.19749495
249	0xbd9a8f56	-0.075468704
250	0xbe2e1553	-0.17000322
251	0x3eab6701	0.33477023
252	0x3de02ad4	0.10945669
253	0xbdb9cb36	-0.090719625
254	0x3d8a9fc5	0.06768755
255	0xbe54bf4e	-0.20776102

fc1.bias f4 [128]
0	0xbeb0d990	-0.34540987
1	0x3eaa74d7	0.33292267
2	0xbe547653	-0.20748262
3	0x3d4a29d9	0.049356315
4	0xbdf960a7	-0.12176638
5	0xbd55cd11	-0.05219752
6	0xbe93d6d4	-0.28874838
7	0xbb926543	-0.0044676377
8	0xbd8ec1a5	-0.069705285
9	0x3ea8a09f	0.32935044
10	0x3df32077	0.118714266
11	0xbdb2d50f	-0.08732044
12	0xbe67761f	-0.22603653
13	0xbe20875d	-0.15676637
14	0x3ede11e0	0.43373013
15	0xbd42e95a	-0.047585823
16	0xbe8186b9	-0.25298098
17	0xbe914263	-0.28370962
18	0x3ecdb5e9	0.4017785
19	0xbecf6df1	-0.40513566
20	0x3ed26cda	0.41098672
21	0xbeb66267	-0.3562195
22	0x3c82f396	0.015985291
23	0xbe1ef805	-0.155243
24	0xbe14970d	-0.14510746
25	0x3ebb7a8a	0.36616927
26	0xbeb659f5	-0.35615507
27	0xbebf1592	-0.37321144
28	0xbeb288a6	-0.3486988
29	0xbd97fff7	-0.07421868
30	0xbe1df127	-0.15424024
31	0xbe8dc618	-0.27690196
32	0x3ee2ef1f	0.4432306
33	0xbec41246	-0.38295192
34	0x3ed78cc5	0.42099586
35	0xbe9698f0	-0.29413557
36	0xbdac1bcb	-0.084037386
37	0x3da56f58	0.08077878
38	0xbd203400	-0.03911209
39	0xbeb78b0b	-0.3584827
40	0xbe0fc94a	-0.1404163
41	0x3e93b26a	0.28847057
42	0x3dfdc39c	0.12390825
43	0x3e650083	0.22363476
44	0x3e9c7a9b	0.3056229
45	0x3e30862e	0.17238685
46	0xbd5c1dda	-0.053739406
47	0xbbfb0093	-0.0076599806
48	0xbed0f83c	-0.40814388
49	0x3e7ef231	0.24897076
50	0xbd8cafa8	-0.06869441
51	0x3eb8da45	0.36104026
52	0x3ebff541	0.374918
53	0xbdd2815f	-0.10278582
54	0xbc15c39f	-0.009140878
55	0x3eb8410f	0.35987136
56	0xbce16afd	-0.027516836
57	0xbe8f4d68	-0.27988744
58	0x3e4f67ec	0.20254487
59	0x3cf106cb	0.029422184
60	0xbe886e51	-0.26646665
61	0x3ebca7dc	0.36846817
62	0xbecc3279	-0.39882258
63	0x3dd9e2a3	0.10638931
64	0x3d340010	0.043945372
65	0x3c5451e3	0.012958976
66	0xbe5ed76e	-0.21761867
67	0xbe8dd977	-0.27704975
68	0x3e5065c5	0.20351322
69	0x3e8292f4	0.2550274
70	0xbe1cfbcd	-0.1533043
71	0xbe872fde	-0.26403707
72	0x3eccedb2	0.40025097
73	0xbd9ad602	-0.0756035
74	0x3da4a791	0.08039773
75	0xbe6ddc81	-0.23228647
76	0xbe27aa06	-0.16373453
77	0xbe60c764	-0.21951061
78	0xbec53103	-0.38513955
79	0xbe0e448b	-0.13893335
80	0x3ed5e31b	0.4177483
81	0xbedcd175	-0.43128553
82	0xbea4862f	-0.32133624
83	0xbdeaeb1b	-0.11470624
84	0xbeb61140	-0.35560036
85	0x3e2ee0cb	0.17077939
86	0xbec6c20f	-0.3881993
87	0xbec07148	-0.37586427
88	0x3c8ee2cb	0.017442128
89	0xbed07e1d	-0.40721217
90	0xbdf09762	-0.11747624
91	0x3e63ceb8	0.22246826
92	0xbeddacb4	-0.43295825
93	0x3ecc7521	0.39933112
94	0x3ea1f68f	0.31633422
95	0x3ec31b17	0.38106605
96	0xbc3d6e08	-0.011561878
97	0xbe5bd8d3	-0.2146943
98	0xbe8fb197	-0.28065178
99	0x3e685b4a	0.22691074
100	0xbcd2bf11	-0.025725873
101	0xbebb7dc2	-0.36619383
102	0x3eb172bf	0.34657857
103	0x3ea08b3b	0.31356224
104	0xbe959ffa	-0.29223615
105	0xbee0bddb	-0.43894848
106	0x3ed05ba6	0.40694922
107	0x3eb5dbee	0.35519356
108	0xbe7daf0b	-0.24773805
109	0xbec211e9	-0.3790429
110	0xbd37b2db	-0.044848304
111	0xbcb3481e	-0.021884974
112	0x3e943e44	0.28953755
113	0xbd69dbd0	-0.057094395
114	0x3ed48276	0.41505784
115	0x3e7024f8	0.23451602
116	0xbec0887e	-0.37604135
117	0x3ead5406	0.33853167
118	0x3e1e10cf	0.154361
119	0xbeb3579e	-0.35027784
120	0x3e85e4a2	0.26150995
121	0x3daa480d	0.08314524
122	0xbd489da4	-0.048978463
123	0x3eb624d6	0.3557498
124	0xbed1e9c8	-0.40998673
125	0x3e7ec15f	0.24878453
126	0x3e092965	0.13394697
127	0x3e8c23b9	0.27371004

fc2.weight f4 [128, 128]
0	0x3d7b4f89	0.061355148
1	0xbc0959b9	-0.008383208
2	0x3aca3cf2	0.001542954
3	0xbd70991c	-0.058739766
4	0x3d067296	0.03282412
5	0xbd996bf7	-0.07491296
6	0xbd1e3253	-0.03862221
7	0x3d1cb817	0.0382615
8	0xbca0024c	-0.019532345
9	0xbd839f51	-0.064268716
10	0xbd8cdc6e	-0.06877981
11	0xbbec013c	-0.0072022956
12	0x3c14e7ba	0.009088451
13	0x3d269016	0.040664755
14	0x3d46e506	0.048558258
15	0xbce77a82	-0.028256658
16	0x3c826623	0.015917843
17	0xbd38f7b4	-0.045158103
18	0xbd52fc38	-0.051510066
19	0xbc7d3cbe	-0.015456377
20	0x3d8b84ee	0.06812464
21	0xbab5d8ba	-0.0013873794
22	0x3d050b7d	0.03248166
23	0x3dae154d	0.085001566
24	0x3c660687	0.014039642
25	0x3c86308d	0.016380573
26	0x3c089f94	0.008338828
27	0x3d140243	0.03613497
28	0x3d8f0781	0.06983853
29	0x3da03fc7	0.078246646
30	0x3d081409	0.033222232
31	0x3d6d101a	0.057876684
32	0x3d651238	0.055925578
33	0x3c6ebdb7	0.014571599
34	0x3dacfe70	0.084469676
35	0xbd327458	-0.043567985
36	0xbd7dd2df	-0.06196868
37	0x3d84aab8	0.064778745
38	0xbcbf64ee	-0.023363557
39	0x3d9e916d	0.077425815
40	0x3cd77a54	0.026303448
41	0x3c414b28	0.011797704
42	0x3da357c5	0.07975725
43	0x3d2e6d54	0.042584732
44	0xbb733959	-0.003711304
45	0x3ce7b6b3	0.02828536
46	0xbd8963a7	-0.0670846
47	0x3d288895	0.04114588
48	0xbd0b92de	-0.03407561
49	0x3c8d8405	0.017274866
50	0xbb3ee7dc	-0.0029129898
51	0x3d70ac42	0.058758028
52	0x3cc96df0	0.024588555
53	0x3d11d0b5	0.03559943
54	0x3d9e6030	0.0773319
55	0xbd192d94	-0.037396982
56	0x3d7b8461	0.061405543
57	0xbbe79145	-0.007066878
58	0x3d828c95	0.0637447
59	0xbd709086	-0.05873158
60	0xbcf7cd33	-0.030249214
61	0xbd0ee42e	-0.034885578
62	0xbd63150f	-0.055440005
63	0x3d95d643	0.07316258
64	0xbbe8f02c	-0.007108709
65	0xbd381478	-0.044941396
66	0xbd69a8d0	-0.057045758
67	0xbd88eb7d	-0.06685541
68	0x3c398567	0.0113233095
69	0xbd43f915	-0.047844965
70	0xbca40b34	-0.020024873
71	0x3d9a3795	0.07530133
72	0xbcf774d5	-0.030207077
73	0xbdb199d1	-0.08671916
74	0xbc21b5f7	-0.009870044
75	0x3d01b9bf	0.031671282
76	0xbda4d0f8	-0.0804767
77	0x3d8967de	0.06709264
78	0xbd890831	-0.066910155
79	0x3c393832	0.011304902
80	0xbc5fd70c	-0.013662111
81	0x3c8cce34	0.017188169
82	0xbda36fd3	-0.07980313
83	0xbce30c7c	-0.027715914
84	0xbc85bb20	-0.01632458
85	0xbda04725	-0.0782607
86	0xbdb0afb3	-0.08627262
87	0x3d87b01b	0.06625386
88	0xbc7ec848	-0.01555068
89	0x3d3ae98d	0.045632888
90	0xbccc200d	-0.024917627
91	0x3c9aefac	0.018913113
92	0x3bdeed2c	0.0068031754
93	0xbda5e382	-0.08100034
94	0x3cc09a83	0.023511177
95	0xbda1b3f7	-0.07895654
96	0x3db4713b	0.088106595
97	0xbdb35b90	-0.087576985
98	0xbd8a917b	-0.067660294
99	0xbda5935e	-0.08084749
100	0x3cd8cbfe	0.026464459
101	0xbc985ef8	-0.018599972
102	0xbc88acfe	-0.016684052
103	0x3c9781d3	0.018494522
104	0xbd9c6cf8	-0.07637972
105	0x3d5f2b88	0.054484874
106	0x3d69c806	0.057075523
107	0xbd92d9c2	-0.0717044
108	0xbce81c75	-0.028333882
109	0x3d4471fa	0.04796026
110	0x3c504eb9	0.012714081
111	0xbd646985	-0.055764694
112	0xbd20c7d6	-0.03925308
113	0x3d338cef	0.043835577
114	0x3d109ce5	0.035305876
115	0x3d822c60	0.0635612
116	0xbda9ee67	-0.08297425
117	0xbc290421	-0.010315926
118	0xbd8a757f	-0.06760692
119	0x3d7d4c69	0.06184045
120	0xbd554389	-0.05206636
121	0xbd1e3c89	-0.03863195
122	0x3db2283a	0.08699079
123	0x3d150cff	0.036389347
124	0xbd0795fe	-0.033102028
125	0x3c224e14	0.009906311
126	0x3daadaf1	0.08342541
127	0xbbf4ffee	-0.0074767983
128	0x3ca47ee2	0.020080034
129	0x3daa3384	0.08310607
130	0xbd15d9ea	-0.036584772
131	0xbc26b0e1	-0.010174007
132	0xbd81839e	-0.06323932
133	0xbdad0d1f	-0.08449768
134	0x3c3861c3	0.011253777
135	0x3d951f2b	0.072813354
136	0x3babeb36	0.005246545
137	0xbd499770	-0.049216688
138	0x3c7c3a84	0.015394811
139	0xbd8b1b47	-0.06792312
140	0x3d7021cc	0.05862598
141	0xbdaf5d74	-0.08562747
142	0xbca0f52b	-0.019648155
143	0x3db2e294	0.087346226
144	0xbc310881	-0.01080525
145	0xbd8b98f9	-0.068162866
146	0x3da69e24	0.08135632
147	0x39a839a1	0.00032086394
148	0x3c4c9d25	0.012488638
149	0xbce11cd9	-0.027479576
150	0xbda9008a	-0.08252056
151	0xbc0e709d	-0.008693841
152	0x3d1b7450	0.03795272
153	0x3db36169	0.08758814
154	0xbdad8082	-0.084717765
155	0x3d5f0ac9	0.054453645
156	0x3d5f6de6	0.054548167
157	0xbd1e3571	-0.038625184
158	0x3d26be17	0.040708628
159	0xbd83a7f4	-0.06428519
160	0x3d41d95c	0.04732643
161	0x3d3db448	0.046314508
162	0x3d2a7617	0.041616526
163	0xbd081d26	-0.033230923
164	0x3d9d5e48	0.07683998
165	0xbd8a0ee4	-0.067411214
166	0xbc8268ad	-0.015919054
167	0x3d8211a8	0.06351024
168	0xbd30a22d	-0.043123413
169	0x3b26f6a9	0.002547661
170	0x3d14d88c	0.036339328
171	0x3bd7b143	0.0065824105
172	0x3d112fe3	0.03544606
173	0x3d93eced	0.072229244
174	0x3d28faa9	0.041254673
175	0xbb52ff88	-0.0032195766
176	0x3cff9bd1	0.031202229
177	0x3d5434c8	0.05180815
178	0xbb876b69	-0.0041326773
179	0xbc8335ce	-0.016016867
180	0xbd88c1fe	-0.06677626
181	0x3d8cde68	0.06878358
182	0xbdb4b920	-0.08824372
183	0x3d4a2b33	0.049357604
184	0x3dac4892	0.08412279
185	0xbc97ec27	-0.018545223
186	0xbda249cf	-0.07924234
187	0xbdac5426	-0.084144875
188	0xbd53ad29	-0.05167881
189	0xbdabd173	-0.08389559
190	0x3d1af31f	0.037829515
191	0xbd454dc1	-0.048169855
192	0x3d93635e	0.07196687
193	0xbd9e851d	-0.07740233
194	0xbd8cc4c2	-0.06873466
195	0xbb8ac0b7	-0.004234399
196	0x3d2a6253	0.041597676
197	0x3d69c97f	0.057076927
198	0x3d99b173	0.07504549
199	0x3cb1f0f2	0.021721337
200	0xbd19e685	-0.037573356
201	0xbd7a1882	-0.06105853
202	0x3d78443f	0.06061196
203	0x3dafb9c9	0.085803576
204	0xbd771346	-0.060321115
205	0x3d3f0549	0.0466359
206	0xbcdbd958	-0.026837036
207	0xba37bedd	-0.0007009337
208	0x3d9e7b84	0.077384025
209	0xbd4d3c90	-0.050106585
210	0xbd76cd26	-0.06025424
211	0x3a6f2603	0.00091227907
212	0x3d3009ac	0.042977974
213	0xbd84653b	-0.06464621
214	0xbd65c896	-0.056099497
215	0xbd8714ee	-0.06595789
216	0x3d925b53	0.07146325
217	0xbd5cc51f	-0.053898927
218	0xbc65ac0f	-0.014018073
219	0xbdab7bff	-0.0837326
220	0xbdaeb5cf	-0.08530771
221	0x3d1db9a7	0.03850713
222	0xbd4e6f21	-0.05039895
223	0x3d6758c7	0.05648115
224	0x3c502f7a	0.012706632
225	0x3bf13e87	0.00736219
226	0xbc806c55	-0.015676657
227	0xbcc0d4c2	-0.02353895
228	0xbcf5f5ea	-0.030024488
229	0xbd25d333	-0.04048462
230	0x3d02c248	0.031923562
231	0x3d875db8	0.06609672
232	0xbd968e78	-0.073513925
233	0xbd663bd3	-0.056209397
234	0xba674777	-0.00088226
235	0xba8d9fd7	-0.0010805082
236	0x3c69ba67	0.014265633
237	0xba390d53	-0.00070591754
238	0xbb155a53	-0.0022789433
239	0x3d076bff	0.033061977
240	0xbdb3fd67	-0.08788567
241	0x3d81ba3e	0.06334351
242	0x3caf569b	0.021403601
243	0xbcf09374	-0.029367186
244	0x3c712fae	0.01472084
245	0xbd7b2349	-0.061312947
246	0x3cdadbf0	0.026716202
247	0x3c8e083f	0.017337916
248	0xbd7bf080	-0.061508656
249	0xbd8c7ed8	-0.06860131
250	0x3da81066	0.08206253
251	0xbd9bde2e	-0.07610737
252	0xbbb7608e	-0.005596227
253	0x3ce7dc06	0.028303158
254	0x3d9f8311	0.07788671
255	0xbd5d4c58	-0.054027885

fc2.bias f4 [128]
0	0x3cfb7569	0.030695634
1	0xbd11d5b1	-0.035604183
2	0x3d870bc2	0.065940395
3	0xbc25718f	-0.010097875
4	0xbd183cd3	-0.03716738
5	0xbdbf3ca6	-0.0933774
6	0xbda4e92b	-0.08052286
7	0xbc853160	-0.016258895
8	0x3d306fe3	0.043075453
9	0xbd8f0ce1	-0.06984878
10	0x3da1f990	0.079089284
11	0xbd813bb2	-0.06310214
12	0xbd944c1e	-0.07241081
13	0x3d099f3e	0.03359913
14	0x3c564c01	0.013079644
15	0x3c9c7f96	0.019103806
16	0x3d671226	0.056413792
17	0x3be9ba60	0.0071328133
18	0xbdaebdef	-0.08532321
19	0x3d803a9c	0.06261179
20	0xbcdb4dc8	-0.026770487
21	0x3dc0ed2c	0.09420237
22	0xbd3a7284	-0.045519367
23	0x3d20956c	0.039205
24	0x3c8a1346	0.016854893
25	0x3cf6b4fc	0.030115597
26	0x3d2f2c2f	0.042766746
27	0x3d4c58ca	0.049889363
28	0xbdb71ccf	-0.08941042
29	0xbd9274d7	-0.07151192
30	0xbc34e88f	-0.011041774
31	0xbd96340a	-0.073341444
32	0x3d0b5065	0.034012217
33	0x3d577cf7	0.05260941
34	0x3c863abb	0.016385427
35	0x3d424560	0.047429442
36	0x3c0c8eef	0.008579
37	0xbd665ad1	-0.056238953
38	0x3da2b0d8	0.079438865
39	0xbd0e4080	-0.03472948
40	0xbd6e0dfc	-0.058118805
41	0x3c2cd7b1	0.010549472
42	0xbda6ecdb	-0.08150645
43	0x3c61458d	0.013749492
44	0x3cfa615c	0.030564003
45	0xbb1de44f	-0.0024092381
46	0xbd44ab78	-0.048015088
47	0xbd2d2246	-0.042269014
48	0x3db279db	0.08714648
49	0xbcbd7cc9	-0.023130791
50	0xbcc9db84	-0.024640806
51	0xbd8580c1	-0.065186985
52	0x3d58ffb2	0.052978225
53	0x3d8e62ad	0.06952415
54	0xbc22c686	-0.009935027
55	0xbd1cd82a	-0.038292088
56	0xb9acb103	-0.0003293828
57	0x3d7d9660	0.061910987
58	0xbd97087a	-0.07374664
59	0xbc5b496d	-0.013384205
60	0x3c1ecd03	0.009692433
61	0xbd9e28df	-0.07722639
62	0x3c90d401	0.017679216
63	0xbd0c6591	-0.03427655
64	0x3d40fdbf	0.04711699
65	0xbd998914	-0.07496849
66	0x3d652e03	0.055952083
67	0xbd3309a7	-0.043710377
68	0x3c8d10aa	0.01721986
69	0xbda2038b	-0.07910832
70	0x3d89873b	0.06715246
71	0x3cc4ea0a	0.02403738
72	0x3d8eb617	0.06968325
73	0x3d8397df	0.064254515
74	0xbaa0eb0c	-0.0012277081
75	0xbb17dc5d	-0.0023172118
76	0x3da32bef	0.07967364
77	0x3d336deb	0.043805998
78	0x3ccfcf38	0.025367364
79	0x3da138e1	0.07872177
80	0x3c1ff634	0.009763289
81	0x3d01babd	0.031672228
82	0xba09c340	-0.000525523
83	0xbd7aa703	-0.06119443
84	0x3d7b15b8	0.06130001
85	0x3d51545d	0.051105846
86	0xbc00acc2	-0.007853689
87	0x3c959baa	0.018262703
88	0x3da5e26d	0.08099828
89	0x3c8787ad	0.016544187
90	0x3d4abcc6	0.049496435
91	0x3d101a45	0.035181303
92	0xbd90a27d	-0.07062242
93	0xbcb17610	-0.021662742
94	0xbda99fe3	-0.08282449
95	0x3db3adc7	0.0877338
96	0x3c3d5fdf	0.011558502
97	0xbcf67f7d	-0.030090088
98	0xbd6d4863	-0.05793036
99	0xbd8d95ff	-0.06913375
100	0x3d78b0b3	0.06071539
101	0xbd92c229	-0.07165939
102	0xbbc764cb	-0.0060850135
103	0x3dbd9881	0.092576034
104	0xbd037e6f	-0.032103
105	0xbd59e3dd	-0.053195823
106	0x3d8121ec	0.06305298
107	0xbd1ae01b	-0.03781138
108	0x3d23ca5e	0.039987914
109	0xbda68965	-0.08131675
110	0xbd7f9997	-0.062402334
111	0xbdabb2b7	-0.083836965
112	0x3d814513	0.06312003
113	0x3c022821	0.007944138
114	0xbce0711d	-0.027397687
115	0xbd8c8ba5	-0.068625726
116	0x3d6002ae	0.054690056
117	0x3d83a4a0	0.06427884
118	0x3ce9412e	0.028473463
119	0xbd5f0ce5	-0.054455657
120	0x3d43ab5f	0.047770854
121	0x3c872dda	0.016501356
122	0x3db06783	0.08613493
123	0x3ce328aa	0.027729351
124	0x3d972818	0.07380694
125	0xbcfb6372	-0.030687068
126	0x3c838592	0.016054902
127	0x3da42cc4	0.08016351

fc3.weight f4 [2, 128]
0	0x3d504a31	0.050852004
1	0xbda55e51	-0.0807463
2	0x3cb7b756	0.022426289
3	0xbd8b509d	-0.06802485
4	0x3d5ff8b1	0.05468053
5	0x3d95ac8e	0.07308303
6	0xbc96e60a	-0.018420238
7	0xbdab3dd4	-0.08361402
8	0xbc562ce6	-0.013072228
9	0xbd8e59ac	-0.06950697
10	0xbcd87ec8	-0.026427642
11	0xbd94967c	-0.07255265
12	0x3d1c15a7	0.038106587
13	0x3d82f942	0.063951984
14	0xbd82cebf	-0.0638709
15	0x3d183fd3	0.037170243
16	0xbec3953f	-0.38199803
17	0x3ca02e0f	0.019553212
18	0x3d070754	0.032965973
19	0x3d000b64	0.031260863
20	0x3d30bb5b	0.043147426
21	0xbd7972c4	-0.060900465
22	0x395f1ada	0.0002127694
23	0xb969d928	-0.00022301509
24	0x3abb4aca	0.0014289257
25	0x3ce8cdcb	0.028418442
26	0x3cf802ad	0.030274713
27	0x3c294624	0.010331664
28	0x3c83047f	0.015993355
29	0xbd965f58	-0.07342404
30	0xbd94052f	-0.07227551
31	0xbd0c365e	-0.034231536
32	0xbd6a6616	-0.057226263
33	0x3d4455b1	0.047933284
34	0x3d289a93	0.04116304
35	0x3d8f5923	0.06999423
36	0xbe1e082c	-0.15432805
37	0x3b71a83e	0.0036873962
38	0xbcb81e92	-0.022475515
39	0xbda31a47	-0.079639964
40	0xbdbb0c95	-0.09133259
41	0x3d34e896	0.044167124
42	0xbda8843a	-0.08228345
43	0x3d28d496	0.041218363
44	0xbd51d25f	-0.051226016
45	0xbca79df5	-0.020461062
46	0x3d359124	0.04432787
47	0x3cff475c	0.031161956
48	0x3d80826e	0.062748775
49	0xbd9e6bbf	-0.07735395
50	0x3d9286ad	0.071545936
51	0x3d812131	0.06305159
52	0xbdc22d34	-0.09481278
53	0x3d99fb06	0.07518582
54	0xbe50d210	-0.20392632
55	0xbcaa6d59	-0.020804094
56	0xbd8da513	-0.06916251
57	0x3bf3ab57	0.007436197
58	0x3d3e24c7	0.046421792
59	0xbd806992	-0.06270136
60	0xbdaf2383	-0.08551695
61	0x3d04be42	0.032408006
62	0xbd258b95	-0.04041632
63	0xbd25c00e	-0.04046636
64	0xbd406b5b	-0.046977382
65	0xbae339a3	-0.0017335903
66	0xbda134b4	-0.078713804
67	0xbdbb3aef	-0.091421
68	0xbdab9da3	-0.08379676
69	0x3d5f79fd	0.054559696
70	0x3cd37fce	0.025817778
71	0x3d5bdefe	0.05367946
72	0x3d447a93	0.04796846
73	0xbdbb36fd	-0.091413476
74	0x3d80c496	0.06287496
75	0x3d1c9448	0.03822735
76	0x3d57172c	0.052512333
77	0xbd0df895	-0.034660894
78	0x3d278dce	0.04090672
79	0xbd6b9efe	-0.057524674
80	0xbd32f936	-0.043694697
81	0xbb4406ea	-0.0029911348
82	0xbdce7cfb	-0.10082432
83	0x3d26c512	0.040715285
84	0xbd03dade	-0.03219115
85	0x3d7d81c3	0.06189133
86	0x3d44aa59	0.04801402
87	0x3dab96c6	0.08378367
88	0xbb12f624	-0.0022424543
89	0xbcb71101	-0.022346975
90	0xbd98d8be	-0.07463215
91	0xbde595f2	-0.112102404
92	0x3c04bd4e	0.008101774
93	0x3d5b1147	0.053483274
94	0x3d2cc705	0.042181987
95	0xbd654055	-0.055969555
96	0xbe46d441	-0.19416906
97	0xbd40b8f6	-0.047051392
98	0xbc81d18b	-0.015846988
99	0x3d90dd5e	0.070734724
100	0x3d000924	0.031258717
101	0xbd8efc65	-0.06981734
102	0x3d19aca8	0.037518173
103	0xbd89ca80	-0.06728077
104	0xbd40e5f5	-0.047094304
105	0x3d7ffce0	0.06249702
106	0xbd72446a	-0.059147276
107	0xbc751aac	-0.014959972
108	0x3c156a48	0.009119578
109	0x3d03aa82	0.03214503
110	0x3baedb76	0.0053362204
111	0x3cde798e	0.027157571
112	0x3cf4628d	0.029832149
113	0xbcb5dec0	-0.022200942
114	0x3d381e98	0.04495105
115	0xbc52432d	-0.012833399
116	0xbd8a6c9a	-0.06758995
117	0x3db22c40	0.08699846
118	0xbd0e857e	-0.034795277
119	0xbccadfc1	-0.024764897
120	0xbdb67d14	-0.089105755
121	0xbcefa26b	-0.029252252
122	0xbc8376e7	-0.016047908
123	0x3ccbea41	0.024891974
124	0x3d88fc01	0.06688691
125	0xbcfc704e	-0.03081527
126	0x3d24e420	0.04025662
127	0xbd618913	-0.055062365
128	0xbce2d9a4	-0.02769167
129	0x3d73eb38	0.059550494
130	0x3cef05e9	0.029177623
131	0x3ba6fc9f	0.0050960327
132	0xbd8dcd3e	-0.069239125
133	0xbd8740a9	-0.0660413
134	0x3cbf0683	0.023318535
135	0x3c9951c0	0.01871574
136	0xbd697082	-0.05699206
137	0x3d5a1b06	0.053248428
138	0xbd5f6f0e	-0.05454927
139	0xbd8b1e1e	-0.06792854
140	0xbd04bf25	-0.032408852
141	0x3cacb796	0.021083634
142	0x3d9a8512	0.075449124
143	0x3db0ecdb	0.086389266
144	0xbeaada46	-0.33369654
145	0xbd5277f5	-0.05138393
146	0xbda8c820	-0.08241296
147	0xbda132dd	-0.078710295
148	0x3b346acd	0.0027529479
149	0xbde6fa7d	-0.112782456
150	0xbd50e0b8	-0.05099556
151	0xbd9182c1	-0.071050175
152	0x3c83f7b5	0.016109327
153	0x3da11021	0.078644045
154	0x3d888e5c	0.06667778
155	0xbd02ed13	-0.031964373
156	0x3b095e50	0.0020960756
157	0x3ce3ecbb	0.027822843
158	0xbc46e493	-0.012139457
159	0xbd8adbcd	-0.06780205
160	0x3d87f41a	0.066383556
161	0xbd96515d	-0.073397376
162	0x3d113ab8	0.03545639
163	0xbcf5b034	-0.029991247
164	0xbe236cb9	-0.15959443
165	0xbc982dc3	-0.018576508
166	0xbccc64d7	-0.024950428
167	0x3d996988	0.074908316
168	0xbdd6b924	-0.104845315
169	0x3c00c06e	0.007858379
170	0xbdac8478	-0.08423704
171	0x3d9f682c	0.07783541
172	0xbdb8b2ba	-0.090184644
173	0xbc21b106	-0.009868866
174	0xbdc5cf9c	-0.09658739
175	0x3d2b9c71	0.04189724
176	0x3d81f13c	0.0634484
177	0xbd000de5	-0.03126325
178	0xbd2706fa	-0.040778138
179	0xbd0fdd84	-0.035123363
180	0x3d114774	0.035468534
181	0xbda787b3	-0.081801794
182	0xbe453efd	-0.1926231
183	0xbc6c3639	-0.014417225
184	0xbd9b1e07	-0.07574087
185	0xbdaa3925	-0.08311681
186	0x3d679470	0.056538045
187	0xbd46e53f	-0.04855847
188	0xbd1c5b64	-0.038173094
189	0x3ce02020	0.027359068
190	0xbdfad8bb	-0.12248369
191	0xbd6fd938	-0.058556765
192	0xbd9f6607	-0.07783132
193	0x3d5c202d	0.053741623
194	0xbd543ab2	-0.05181379
195	0xbc7e7368	-0.015530445
196	0x3d2efe25	0.04272284
197	0xbda98948	-0.082781374
198	0xbc28b2a4	-0.0102964975
199	0xbd8869ce	-0.06660806
200	0x3d076101	0.033051495
201	0xbdab33aa	-0.083594635
202	0x3cd5e410	0.026109725
203	0x3d833eec	0.06408486
204	0x3d8e08d9	0.06935281
205	0x3c9c73b8	0.019098148
206	0xbdb434b6	-0.08799116
207	0xba37abc6	-0.0007006492
208	0xbdaabdbb	-0.083369695
209	0xbcb9a716	-0.02266268
210	0xbda339fd	-0.07970045
211	0x3d179a02	0.037012108
212	0x3d98b140	0.07455683
213	0x3c883e06	0.016631138
214	0xbdd48884	-0.10377601
215	0x3d884c54	0.066551834
216	0xbc8889df	-0.016667305
217	0x3d4e9865	0.050438304
218	0xbda020cc	-0.078187555
219	0xbe8755da	-0.26432687
220	0xbd86c66d	-0.065808155
221	0x3a8f9c40	0.00109566
222	0x3cc4502d	0.023964012
223	0xbdf8fb28	-0.12157279
224	0xbe09ff08	-0.13476193
225	0x3ce32ea0	0.027732193
226	0x3d6f866e	0.05847781
227	0xbd3014da	-0.042988636
228	0x3d848c34	0.06472054
229	0x3d4d0a13	0.050058436
230	0xba4de33f	-0.00078539917
231	0xbd9d8477	-0.07691281
232	0xbc3dee05	-0.011592393
233	0x3d85ca3c	0.06532714
234	0xbc37e4f8	-0.011224024
235	0x3cbf9b95	0.023389617
236	0xbd9710d9	-0.0737626
237	0xbd22ac22	-0.03971494
238	0x3c896270	0.016770571
239	0x3c4bbaee	0.012434704
240	0xbda26808	-0.07929999
241	0xbd41ed55	-0.047345478
242	0x3aaac6fa	0.001302927
243	0x3d67f19b	0.056626897
244	0xbb492e33	-0.0030697703
245	0x3d0555d5	0.03255256
246	0xbc3949cc	-0.011309098
247	0x3ca7a830	0.02046594
248	0xbd06f68e	-0.032949977
249	0x3d0b8781	0.034064773
250	0xbdd4426c	-0.103642315
251	0xbc369a90	-0.011145249
252	0xbd06d2b0	-0.03291577
253	0xbdc5231b	-0.096258365
254	0xbb6f59c5	-0.0036522013
255	0xbd883925	-0.066515245

fc3.bias f4 [2]
0	0xbd15bddf	-0.03655803
1	0x3ce9ab83	0.028524166

fc1.weight f4 [128, 84]
0	0xbdb69ea2	-0.089169756
1	0xbd8cf0fb	-0.06881901
2	0x3c5dfd49	0.013549157
3	0x3d067fb4	0.03283663
4	0x3d9de560	0.077097654
5	0x3d1b70f2	0.03794951
6	0xbce7366e	-0.028224196
7	0xbd6b75bb	-0.057485323
8	0xbd92cd37	-0.07168048
9	0xbc374652	-0.011186199
10	0xbdc71c51	-0.09722198
11	0xbc99e38f	-0.018785266
12	0xbda773d4	-0.08176389
13	0xbdcc39db	-0.099719726
14	0x3d1089f4	0.035287812
15	0xbafd0fa8	-0.0019307034
16	0xbdc310f5	-0.09524719
17	0x3dd54a94	0.10414615
18	0xbc2050e5	-0.009784912
19	0xbd9761a3	-0.073916696
20	0xbc14996f	-0.009069785
21	0xbda69f8b	-0.08135899
22	0xbdb55eae	-0.08855949
23	0xbc1c5033	-0.009540605
24	0xbd913163	-0.07089498
25	0x3d2250cb	0.03962783
26	0xbd2f3fa6	-0.04278531
27	0xbd3f5e26	-0.046720646
28	0xbdc0d5b5	-0.094157614
29	0x3bafcfa9	0.005365331
30	0x3da81cbe	0.08208607
31	0xbd40a3c5	-0.047031183
32	0xbd7b76bb	-0.061392527
33	0xbcd6d3d9	-0.026224064
34	0x3d9ac3f3	0.075569056
35	0xbd8a9381	-0.067664154
36	0xbdb1c645	-0.08680395
37	0xbcc68f67	-0.024238301
38	0x3cff1c78	0.031141505
39	0xbd687520	-0.056752324
40	0xbd96d3b8	-0.07364601
41	0x3dc26e56	0.09493701
42	0xbd7f96ee	-0.062399797
43	0xbceb8a0d	-0.028752351
44	0x3be14907	0.0068751606
45	0xbdb56a57	-0.08858173
46	0x3d2aaed5	0.04167064
47	0xbdb073cd	-0.08615837
48	0xbc259a8e	-0.0101076495
49	0xbdd7f821	-0.10545374
50	0x3db23bbf	0.08702802
51	0x3dce33c3	0.100684665
52	0x3d92e651	0.071728356
53	0x3d838378	0.0642156
54	0xbddd40cf	-0.10803377
55	0xbd32756b	-0.04356901
56	0x3d10aff0	0.035324037
57	0x3d2bcebb	0.0419452
58	0x3d7735a8	0.060353905
59	0x3c4c60be	0.012474237
60	0xbca0bf42	-0.019622449
61	0xbd0d689a	-0.034523584
62	0x3dd72c13	0.10506453
63	0xbd6db583	-0.05803443
64	0x3b2d41a9	0.0026436842
65	0xbd9d1b76	-0.076712534
66	0xbd911a5e	-0.07085107
67	0xbd227eb0	-0.0396716
68	0x3db0bcb1	0.0862974
69	0xbdc279a6	-0.09495859
70	0x3cb7022f	0.022339908
71	0x3ce3f003	0.027824407
72	0xbd9119ad	-0.070849754
73	0x3d9bcae6	0.07607059
74	0x3dd94046	0.10607962
75	0xbdd8a8ff	-0.105791084
76	0x3bf4e32a	0.007473369
77	0xbc24811c	-0.010040548
78	0x3b4256a0	0.0029653683
79	0x3cc0a972	0.023518298
80	0xbd208958	-0.03919348
81	0x3da7ef5e	0.081999525
82	0x3c655e2e	0.013999505
83	0x3d55b9f3	0.052179288
84	0xbd858ad3	-0.06520619
85	0xbdcf45b2	-0.10120715
86	0xbcf59930	-0.029980272
87	0xbe03825f	-0.12842701
88	0xbd68cfcb	-0.05683879
89	0xbe780bdb	-0.24223273
90	0xbd8c1405	-0.06839756
91	0xbe2014f0	-0.15632987
92	0xbbcb2e90	-0.006200619
93	0x3d735fbb	0.059417468
94	0xbf3f01f1	-0.7461234
95	0x3d6d380f	0.05791479
96	0xbd45c58a	-0.04828409
97	0x3f1d9bb4	0.6156571
98	0x3e3e4e12	0.18584469
99	0x3db3f83c	0.08787581
100	0xbca06b9d	-0.019582564
101	0x3c8c099c	0.017094426
102	0xbdef1472	-0.116738215
103	0x3e288e2e	0.16460487
104	0x3c82c189	0.015961425
105	0xbe350fbf	-0.17681788
106	0x3bcd4f55	0.0062655606
107	0xbe6c62ce	-0.23084566
108	0x3e2abf82	0.16674617
109	0x3e8431a9	0.25819138
110	0xbe04f2a1	-0.1298318
111	0xbda87916	-0.0822622
112	0x3d662aa4	0.05619301
113	0x3da116d8	0.07865685
114	0x3cb02e1c	0.021506362
115	0x3e00217b	0.12512772
116	0xbe391e2f	-0.1807792
117	0x3e16f3d6	0.14741454
118	0x3e20ea76	0.1571444
119	0xbea5befa	-0.32372266
120	0x3e419e9c	0.18908161
121	0x3d352fd2	0.044235058
122	0x3e4448dd	0.1916842
123	0x3dbb9eba	0.09161134
124	0xbf34eb10	-0.70671177
125	0x3d82a33a	0.06378789
126	0xbdc3ec6c	-0.09566578
127	0x3e818b97	0.2530181
128	0x3c36e94e	0.011164023
129	0x3e918419	0.28421095
130	0xbe073d73	-0.13207035
131	0x3e70eebb	0.23528568
132	0xbd5a1d4e	-0.053250603
133	0xbddd43fe	-0.10803984
134	0xbee564c3	-0.44803438
135	0xbf23b839	-0.63952976
136	0xbe2db55d	-0.16963716
137	0xbd25c00d	-0.040466357
138	0xbccfd843	-0.025371676
139	0x3d02aa30	0.031900585
140	0xbebdc825	-0.3706676
141	0x3e47182a	0.19442812
142	0xbe2c3298	-0.16816175
143	0x3dca78c5	0.09886316
144	0xbdc38036	-0.09545939
145	0xbda064a5	-0.078316964
146	0xbc47e126	-0.012199676
147	0xbe85bf24	-0.2612239
148	0x3d923ae2	0.07140137
149	0xbde0f42f	-0.10984074
150	0x3e148fa4	0.1450792
151	0xbdb9f173	-0.09079256
152	0xbd2d6d75	-0.042340714
153	0xbcefb73d	-0.02926218
154	0x3d27d64f	0.040975865
155	0xbc2e2dc5	-0.0106310295
156	0x3d0773c5	0.03306939
157	0xbe04b1c9	-0.12958445
158	0xbd8e5266	-0.0694931
159	0x3e455bfb	0.19273369
160	0x3cde7176	0.027153712
161	0xbe840d57	-0.25791427
162	0x3db95aa1	0.09050489
163	0xbcd049c5	-0.025425801
164	0xbe0631aa	-0.13104883
165	0x3c2653d0	0.010151818
166	0x3ea60820	0.32428074
167	0x3d89f639	0.06736416
168	0xbe8b7d3b	-0.2724398
169	0x3d7a10df	0.061051246
170	0xbe04f324	-0.12983376
171	0x3dafa9f4	0.08577338
172	0xbd272887	-0.040810134
173	0xbe87fc82	-0.26559836
174	0x3da32cc9	0.079675265
175	0xbe140503	-0.14455037
176	0xbc1d745c	-0.009610262
177	0x3dda7e32	0.10668601
178	0xbbe638a6	-0.007025796
179	0xbd8baa7f	-0.06819629
180	0xbd82716f	-0.06369292
181	0xbe1ee39f	-0.15516518
182	0x3ced931e	0.029000815
183	0xbc124ee5	-0.008929943
184	0x3b1cd0a0	0.002392806
185	0xbda4ca5b	-0.08046409
186	0xbc2c52a4	-0.01051775
187	0xbcf5aedd	-0.029990608
188	0xbd931225	-0.07181195
189	0xbd740b36	-0.059581004
190	0x3d9b11f0	0.07571781
191	0xbda7babd	-0.081899144
192	0xbd712bde	-0.058879726
193	0xbd8fd00e	-0.07022105
194	0xbbd6e575	-0.006558115
195	0xbd713f33	-0.058898162
196	0x3d9339de	0.07188772
197	0xbd3373db	-0.04381166
198	0xbd3c83a3	-0.046023976
199	0x3b345c10	0.0027520694
200	0xbda0e517	-0.078561954
201	0xb93ef5ff	-0.00018211453
202	0x3c76019b	0.015015031
203	0xbe28e3ee	-0.16493198
204	0xbc926434	-0.017870046
205	0xbe35cde7	-0.17754327
206	0x3cfa50cf	0.03055611
207	0x3dbdae7b	0.09261795
208	0xbdd03459	-0.101662345
209	0xbd4764c2	-0.048680075
210	0x3cece025	0.028915474
211	0x3dcb7499	0.099343486
212	0x3ce9f698	0.028559968
213	0xbd6b261e	-0.0574094
214	0x3d90fd36	0.07079546
215	0xbd97dab4	-0.07414761
216	0xbc53138b	-0.012883077
217	0x3c339f34	0.01096325
218	0x3da1b141	0.078951366
219	0x3cd95285	0.026528606
220	0x3d780b82	0.06055785
221	0x3d2a2d58	0.04154715
222	0xbc76df1f	-0.015067845
223	0xbdc4b80c	-0.09605417
224	0xbd6fec80	-0.058575153
225	0xbdf3cc61	-0.119042166
226	0x3d8a00aa	0.06738408
227	0xbca506e7	-0.020144893
228	0xbcf9d680	-0.03049779
229	0x3df34a87	0.11879449
230	0xbd32a195	-0.043611128
231	0x3e5484a4	0.20753723
232	0xbcd6b26b	-0.026208123
233	0x3de2d130	0.110750556
234	0x3d9e0108	0.077150404
235	0xbdb07cea	-0.086175755
236	0xbdf375cd	-0.11887703
237	0xbe12f60c	-0.14351672
238	0x3d5a7680	0.053335667
239	0xbe0a6f04	-0.13518912
240	0xbabe4c90	-0.0014518667
241	0xbddc454d	-0.107554056
242	0xbd9af2fe	-0.07565878
243	0x3d70213e	0.058625452
244	0x3d5cf020	0.05393994
245	0x3e293b67	0.16526566
246	0x3d8acec4	0.06777719
247	0x3d3eb840	0.046562433
248	0x3e81f5c8	0.2538283
249	0x3db5a5fb	0.08869549
250	0xbdc50793	-0.09620585
251	0x3d32f16b	0.043687265
252	0xbcd51549	-0.026011126
253	0x3df5a0fa	0.119935945
254	0x3d0411ce	0.032243542
255	0x3be357dd	0.0069379644

fc1.bias f4 [128]
0	0xbdd4e1b7	-0.10394614
1	0xbdb9195d	-0.09038041
2	0xbe05e2ff	-0.13074873
3	0x3d3ddb2e	0.046351604
4	0xbdd999c5	-0.10625032
5	0x3d9facea	0.077966526
6	0xbd7beb0b	-0.06150345
7	0xbde2ff04	-0.110837966
8	0x3d0d147b	0.03444336
9	0x3ca2ae62	0.019858543
10	0xbe00d254	-0.12580234
11	0xbdc96ea3	-0.098355554
12	0xbb4232e5	-0.0029632386
13	0xbd8e88b0	-0.06959665
14	0xbddbacb2	-0.107262984
15	0xbd41b4fd	-0.047291745
16	0xbdcf5f27	-0.10125571
17	0x3e165c78	0.14683712
18	0x3bfa4398	0.0076374523
19	0xbd9ac5de	-0.075572714
20	0x3de968e3	0.11396959
21	0x3d5ce89b	0.053932767
22	0xbdb4c72a	-0.0882705
23	0x3dc521a6	0.096255586
24	0xbc8b3602	-0.016993526
25	0xbcc046a3	-0.023471182
26	0x3cfd9de1	0.030959072
27	0xbd8efeae	-0.0698217
28	0xb9d078ec	-0.00039762945
29	0x3c2743b0	0.010209009
30	0xbd44efb3	-0.048080157
31	0x3d33e978	0.043923825
32	0xbe13c7cb	-0.14431684
33	0x3db8c36a	0.09021647
34	0xbde076a4	-0.10960129
35	0x3d996ace	0.074910745
36	0xbd367416	-0.044544302
37	0x3dabc585	0.08387283
38	0x3d23a1f7	0.039949384
39	0xbd8d929c	-0.06912729
40	0x3d9d6c2d	0.076866485
41	0x3d8c9b8c	0.06865606
42	0x3c57b21b	0.013165022
43	0xbddd71a1	-0.108126886
44	0x3d89081a	0.066909984
45	0x3d100e4d	0.03516989
46	0xbc9e0795	-0.019290725
47	0x3ab680a2	0.0013923834
48	0xbc069eb5	-0.00821655
49	0x3d83ace1	0.064294584
50	0xbd0784b7	-0.03308555
51	0xbdfc72d6	-0.12326591
52	0x3d06a09e	0.03286802
53	0x3e25cef7	0.16192232
54	0xbda7e118	-0.0819723
55	0x3d0d3e6e	0.034483366
56	0x3d29b336	0.041430674
57	0x3d45b1dc	0.048265323
58	0x3e85395b	0.2602032
59	0x3c718248	0.014740534
60	0x3cde611d	0.027145917
61	0xbb855c60	-0.00406985
62	0xbe18b015	-0.1491092
63	0xbd9bda9e	-0.07610057
64	0xbcab864e	-0.020938065
65	0x3c1e2977	0.009653441
66	0xbd8ab240	-0.0677228
67	0x3b6627b4	0.003511888
68	0x3d835c42	0.06414081
69	0xb98ad21c	-0.00026477955
70	0xbe0b0e56	-0.13579687
71	0x3cda62ad	0.02665838
72	0x3cbe6cb7	0.023245199
73	0xbda8ef13	-0.08248725
74	0x3d0ba58f	0.034093436
75	0xbe006fa3	-0.12542586
76	0xbd4d0f20	-0.050063252
77	0x3d83e0a2	0.0643933
78	0x3cf34405	0.02969552
79	0xbdf1d39f	-0.11807942
80	0xbbe0e1e8	-0.0068628676
81	0x3d38affd	0.04508971
82	0x3ce3a2b6	0.027787548
83	0x3d944ee2	0.07241608
84	0xbd2d06b2	-0.042242713
85	0x3b4e03d8	0.0031435397
86	0xbdb2d613	-0.08732238
87	0xbdab84b5	-0.08374921
88	0x3c868cb8	0.016424522
89	0xbcdb9c32	-0.026807878
90	0x3d100dad	0.035169292
91	0xbd50c533	-0.050969314
92	0xbc64645f	-0.013939946
93	0xbe00b5df	-0.12569378
94	0xbdf93b44	-0.12169507
95	0x3d9f9b93	0.07793345
96	0xbd66a766	-0.056311987
97	0xbcde6ab1	-0.027150484
98	0x3dcbd452	0.09952606
99	0xba1fba1b	-0.00060931005
100	0x3c7e5f21	0.01552561
101	0xbe17c043	-0.14819436
102	0xbd8e5249	-0.069492884
103	0x3b8421bc	0.0040323418
104	0x3cec582f	0.028850643
105	0x3d5cf44f	0.05394393
106	0x3d4af349	0.04954842
107	0xbd1374cf	-0.03600007
108	0xbdbc43ee	-0.09192644
109	0x3da146a8	0.07874805
110	0xbdc43914	-0.09581199
111	0xbe708c39	-0.2349099
112	0xbe0c125a	-0.13678876
113	0xbcda9d3f	-0.026686309
114	0x3aaed1f6	0.001333772
115	0xbd39eceb	-0.04539196
116	0xbd8a9d39	-0.06768269
117	0xbc49ebcd	-0.012324286
118	0x3b831d29	0.004001279
119	0x3c956932	0.018238638
120	0xbc731d71	-0.014838562
121	0xbd2ec490	-0.042667925
122	0xbdbd3ad1	-0.09239734
123	0x3db1bf43	0.086790584
124	0xbda34285	-0.07971672
125	0x3e2a94d7	0.1665834
126	0xbdcbe74e	-0.09956227
127	0xbc836159	-0.01603763

fc2.weight f4 [128, 128]
0	0x3c5ec3ad	0.013596457
1	0xbf0bf27d	-0.5466688
2	0xbd5f2bb2	-0.05448503
3	0xbdc8eb76	-0.098105356
4	0xbd64f293	-0.0558954
5	0x3db11557	0.086466484
6	0xbc9d9e6b	-0.019240579
7	0xbb929b7b	-0.004474101
8	0xbcabc567	-0.020968152
9	0xbcfb7b5e	-0.030698474
10	0xbd774abe	-0.060374014
11	0xbd186cdd	-0.037213195
12	0x3c2b1b96	0.010443589
13	0x3d605493	0.054768156
14	0xbd9f4c69	-0.07778246
15	0x3c2c5d62	0.010520311
16	0x3dc01cb1	0.093804725
17	0x3dfa2705	0.12214474
18	0x3d2eca93	0.04267366
19	0xbd0cacb0	-0.034344375
20	0xbed1d2e9	-0.40981224
21	0x3cb08cfc	0.021551602
22	0xbf1ef46d	-0.62091714
23	0xbba64a91	-0.005074807
24	0xbd0fa02b	-0.035064857
25	0xbd1e3ea8	-0.038633972
26	0xbd911e6b	-0.0708588
27	0xbce01103	-0.027351862
28	0x3bba1c2b	0.0056796274
29	0xbda5d2f9	-0.080968805
30	0x3d9b3420	0.075783014
31	0x3cca63ee	0.024705853
32	0x3e09746d	0.13423319
33	0xbee9b79a	-0.4564789
34	0x3ca3a648	0.01997675
35	0xbc38dc7a	-0.011283034
36	0xbf3b66fe	-0.7320403
37	0xbdb9af74	-0.09066668
38	0x3cd32337	0.025773628
39	0x3af1fccc	0.001846218
40	0x3d304653	0.043035816
41	0x3d2dd641	0.042440657
42	0x3d0c0368	0.034182936
43	0x3d856b30	0.06514585
44	0x3d6644d0	0.05621797
45	0xbdb17e27	-0.0866664
46	0xbce0fe5e	-0.027465042
47	0x3d987428	0.0744403
48	0xbd2e1711	-0.042502467
49	0x3d7785d2	0.060430355
50	0xbd95ac13	-0.07308211
51	0x3d6dd09a	0.058060266
52	0x3a4c33ae	0.00077896833
53	0x3d9349dd	0.07191823
54	0x3cab0cf7	0.020880206
55	0x3cf99754	0.030467667
56	0xbc9bca18	-0.019017264
57	0xbc894ca1	-0.016760172
58	0x3dd35281	0.10318471
59	0xbed2771d	-0.411065
60	0xbd6daf58	-0.05802855
61	0x3d8a2d5b	0.06746932
62	0xbcbaef76	-0.022819262
63	0x3e0c4cc8	0.13701165
64	0xbb6149b3	-0.0034376204
65	0x3d493fbb	0.049133044
66	0x3e3da4c0	0.18519878
67	0xbcd85906	-0.026409637
68	0xbd060eb6	-0.032728873
69	0xbdde6735	-0.10859529
70	0x3c525a7e	0.012838958
71	0xbde8b9e6	-0.11363582
72	0x3d6185c7	0.05505922
73	0x3cb4f8c7	0.022091283
74	0xbcf5c3d7	-0.03000061
75	0xbda00f7c	-0.078154534
76	0x3e3b8ba2	0.18314984
77	0xbb3f2234	-0.0029164674
78	0xbd7bcbb2	-0.061473556
79	0xbe8e01df	-0.27735803
80	0xbd8ec6fb	-0.06971546
81	0xbd9a8355	-0.07544581
82	0xbd5837ad	-0.05278747
83	0x3c92e4c4	0.01793135
84	0x3d14ed62	0.0363592
85	0xbf39f5d9	-0.7264076
86	0x3d8fd82a	0.07023652
87	0x3daff993	0.085925244
88	0xbe929fff	-0.28637692
89	0xbe0ac332	-0.13551024
90	0xbd039555	-0.032124836
91	0xbeead94a	-0.45868903
92	0x3d4f376a	0.050589956
93	0xbf11382f	-0.56726354
94	0xbd9a4ae0	-0.075338125
95	0xbd3b7850	-0.045769036
96	0xba14847e	-0.0005665495
97	0xbe342f41	-0.17596151
98	0x3d82e587	0.06391435
99	0x3d37172f	0.044699844
100	0x3c92427a	0.017853964
101	0x3db2aa21	0.08723856
102	0x3e7f9b9e	0.24961707
103	0xbdd0b0a7	-0.10189944
104	0xbb9d3b68	-0.0047983415
105	0x3c258aec	0.010103922
106	0x3ddf42bf	0.10901403
107	0x3e0f118f	0.13971542
108	0xbf14d0ca	-0.58131087
109	0xbdb27a90	-0.08714783
110	0x3d1c91a2	0.038224824
111	0x3c09f7f6	0.008420935
112	0xbd7f7041	-0.062362913
113	0xbee2d1a1	-0.4430056
114	0xbda9c906	-0.08290295
115	0x3d07ec66	0.03318443
116	0x3dcfc169	0.10144312
117	0x3d2241ab	0.039613407
118	0xbdb09992	-0.08623041
119	0xbe133c5e	-0.14378497
120	0x3d8ae35f	0.06781649
121	0x3dab381b	0.08360311
122	0xbcfee8f8	-0.031116948
123	0x3e4a355c	0.19746917
124	0xbd998812	-0.074966565
125	0xbd4667b6	-0.04843875
126	0xbd482b9c	-0.048869714
127	0x3cc13df5	0.023589114
128	0xbd988130	-0.074465156
129	0x3d1fc201	0.039003376
130	0xbce55527	-0.027994705
131	0x3c58f616	0.013242265
132	0x3d2b5d1e	0.04183685
133	0xbd665d28	-0.056241184
134	0x3d8d1522	0.068887964
135	0xbd226c12	-0.039653845
136	0x3803a789	3.1388863e-05
137	0xbd084232	-0.033266254
138	0x3d00e5c8	0.031469136
139	0xbb9652c6	-0.004587504
140	0xbcf636f9	-0.03005551
141	0x3d4bc37f	0.049746986
142	0xbc94ae74	-0.018149592
143	0xbce3828f	-0.027772216
144	0x3c964083	0.018341308
145	0xbdf813f7	-0.12113183
146	0x3d4e5cc7	0.050381448
147	0x3d858afd	0.065206505
148	0x3da11ba9	0.07866604
149	0x3d478c43	0.04871775
150	0x3c359989	0.011083969
151	0xbcea0270	-0.028565615
152	0xbb042909	-0.002016606
153	0xbd70d2f7	-0.05879494
154	0x3d700f1c	0.05860816
155	0x3d80c54e	0.06287633
156	0xbd5b6e9c	-0.053572282
157	0x3d70c6ac	0.05878322
158	0x3d54bb1b	0.05193625
159	0x3d1d4e2f	0.03840464
160	0x3d987151	0.074434884
161	0x3bfa86b5	0.007645453
162	0xbd8d7173	-0.06906404
163	0x3c74f6a4	0.014951382
164	0xbdcb0722	-0.0991347
165	0xbb57dae3	-0.0032936863
166	0xbcda90b6	-0.026680332
167	0x3bb2afcc	0.0054530855
168	0x3c8fd449	0.01755728
169	0xbdadc3c5	-0.08484606
170	0x3d1d16e6	0.038351916
171	0x3d8fa331	0.07013548
172	0xbd8596a3	-0.06522872
173	0xbdc02a12	-0.09383024
174	0x3d7ad3a9	0.06123701
175	0xbd9cdc8f	-0.07659256
176	0xbd6a67f4	-0.057228044
177	0xbcdc1b63	-0.026868528
178	0xbd75c172	-0.059998937
179	0x3d24b8ca	0.04021529
180	0x3d828d58	0.063746154
181	0x3d38a373	0.045077752
182	0x3c30d595	0.010793109
183	0x3d8efabb	0.06981417
184	0x3d83cd65	0.0643566
185	0x3c7d52e4	0.015461657
186	0x3bc5f8ee	0.0060416376
187	0xbd96cd59	-0.07363386
188	0xbd4eb75a	-0.050467826
189	0x3d47005d	0.04858433
190	0x3d3d62a7	0.04623666
191	0x3a6e11d2	0.0009081635
192	0xbd555bca	-0.05208949
193	0x3d6704a2	0.056400903
194	0x3d3c70a1	0.04600585
195	0xbb98b685	-0.00466043
196	0x3c263e3e	0.010146676
197	0x3d4448da	0.04792104
198	0x3cc34db8	0.02384077
199	0x3be56650	0.007000722
200	0xbd4dec3e	-0.050274126
201	0xbd25f6e8	-0.04051867
202	0x3d99d354	0.07511011
203	0xbd852f2c	-0.06503138
204	0xbdb4cfee	-0.08828722
205	0xbbb86b38	-0.005628016
206	0x3a76525e	0.0009396429
207	0x3cfe1aef	0.031018702
208	0xbc9672ac	-0.018365227
209	0xbca2717b	-0.019829502
210	0x3d821f31	0.063536055
211	0xbc5e4dfc	-0.013568398
212	0xbd793e71	-0.060850564
213	0xbd13c57d	-0.03607701
214	0xbd429c86	-0.047512554
215	0xbd8cb62b	-0.06870683
216	0x3d4b72e9	0.049670134
217	0x3c658c52	0.014010506
218	0xbdb35911	-0.087572224
219	0x3982e2cf	0.00024964518
220	0xbcd71051	-0.026252897
221	0xbb3f88d6	-0.0029225848
222	0xbdad5a63	-0.084645055
223	0x3d37f63d	0.044912565
224	0x3d837755	0.06419245
225	0x3d627a41	0.05529237
226	0xbdb4dd7e	-0.08831309
227	0xbda614de	-0.08109449
228	0xbd82a10d	-0.06378374
229	0x3ab587db	0.0013849692
230	0x3d1b0d02	0.037854202
231	0x3c6454cd	0.013936234
232	0xbc247ad5	-0.010039051
233	0xbbfb68dd	-0.007672413
234	0xbd07bfbc	-0.033141837
235	0x3ce7d411	0.028299363
236	0x3cf36512	0.02971128
237	0xbd0e13b6	-0.034686767
238	0x3d8b2e0d	0.06795893
239	0xbda2fc60	-0.07958293
240	0x3d6ad0ba	0.057327963
241	0xbc7ecd2a	-0.015551845
242	0xbd7fef86	-0.062484287
243	0x3c92caa3	0.01791889
244	0xbcc9de38	-0.024642095
245	0x3d73c978	0.059518307
246	0xbd4737ab	-0.048637073
247	0xbd957907	-0.07298475
248	0xbd71e312	-0.05905444
249	0xbda00c33	-0.07814827
250	0xbd17580c	-0.036949202
251	0xbd510623	-0.051031243
252	0x3c0261f5	0.007957925
253	0xbddf1a6c	-0.108937114
254	0xbc39f9f1	-0.011351095
255	0xbdb43ef8	-0.08801073

fc2.bias f4 [128]
0	0xbdd5a6d6	-0.10432212
1	0xbd9e70be	-0.077363476
2	0xbd2b18cb	-0.04177169
3	0xbb39cf68	-0.0028352384
4	0xbe1d7483	-0.15376477
5	0xbe2cda72	-0.16880205
6	0x3cd55d8c	0.026045583
7	0x3e8ae304	0.27126324
8	0xbe1cc1ce	-0.15308306
9	0x3e75d304	0.24006277
10	0xbe12f9f3	-0.1435316
11	0x3e342190	0.17590928
12	0xbe54b245	-0.2077113
13	0xbe2ca068	-0.16858065
14	0xbe19b1f7	-0.15009294
15	0x3d33dc0c	0.043911025
16	0xbe058cf4	-0.1304205
17	0xbd96c6d9	-0.07362146
18	0xbd2fbe12	-0.042905875
19	0x3b341b97	0.0027482265
20	0xbdf28e42	-0.1184354
21	0xbdffdd46	-0.124933764
22	0xbd1556b4	-0.03645964
23	0xbd4d3aeb	-0.050105017
24	0xbd2d9e50	-0.042387307
25	0xbdccf3cb	-0.10007437
26	0xbda87f8c	-0.08227453
27	0xbe8b5e13	-0.2722021
28	0xbe91594f	-0.2838845
29	0xbd35b4de	-0.04436194
30	0xbdcfcfe6	-0.10147075
31	0x3e39a18b	0.1812803
32	0xbdcad7e8	-0.09904462
33	0xbcadbbfc	-0.021207802
34	0x3c885d8f	0.016646175
35	0xbdd09023	-0.10183742
36	0xbdf9d50a	-0.12198837
37	0x3c85e136	0.01634274
38	0xbdd8d034	-0.105865866
39	0x3ecc1813	0.39862117
40	0xbd8d3fca	-0.068969324
41	0xbd9af6cc	-0.07566604
42	0x3d62fd05	0.05541708
43	0xbdabe85d	-0.08393929
44	0xbe0118f3	-0.12607174
45	0xbdb3421e	-0.08752845
46	0xbdf20b20	-0.11818528
47	0xbd0cdb68	-0.03438893
48	0xbe00e774	-0.12588292
49	0xbde159b4	-0.11003438
50	0x3ceac7a8	0.028659657
51	0xbda02653	-0.0781981
52	0xbdb82d41	-0.089930065
53	0xbda67465	-0.08127669
54	0x3c59b9c6	0.013288921
55	0xbd93fa49	-0.072254725
56	0xbd95e118	-0.07318324
57	0x3e954976	0.2915761
58	0x3e3e0d00	0.18559647
59	0xbbdec669	-0.0067985547
60	0xbdd5139f	-0.10404133
61	0x3c54cc1e	0.012988118
62	0xbe05d423	-0.13069205
63	0xbdd156fe	-0.102216706
64	0xbe1e33f1	-0.15449502
65	0xbd90ea97	-0.070759945
66	0xbddb9829	-0.107223816
67	0xbd41c130	-0.04730338
68	0xbd998893	-0.074967526
69	0x3eb06972	0.34455448
70	0xbe527d96	-0.2055572
71	0xbd4f1e4f	-0.050566014
72	0xbe2c1a53	-0.16806917
73	0xbca42337	-0.020036323
74	0xbd91e6e0	-0.07124114
75	0xbbbafa27	-0.00570609
76	0xbdc68f47	-0.09695297
77	0x3c46c3dc	0.012131657
78	0x3dc0d55a	0.094156936
79	0xbc8b7589	-0.017023819
80	0xbe3977a5	-0.18112047
81	0x3c70396a	0.014662126
82	0xbd55a815	-0.05216225
83	0xbcccf487	-0.025018943
84	0xbd799a5d	-0.060938228
85	0xbea5e34e	-0.32399982
86	0xbd9fb005	-0.07797245
87	0xbdd0a07b	-0.10186859
88	0x3da776de	0.08176969
89	0x3ed95b8d	0.4245266
90	0x3d263dd3	0.040586304
91	0xbda4fdbd	-0.08056209
92	0x3d01deb3	0.031706523
93	0x3e9bf3f9	0.30459574
94	0x3c85711a	0.016289283
95	0xbdf16128	-0.11786109
96	0x3e281398	0.16413724
97	0xbe38931b	-0.18024866
98	0xbe91224d	-0.28346482
99	0x3acaf8e6	0.0015485554
100	0x3e10c3a7	0.14137135
101	0xbbcd9697	-0.006274055
102	0xbcf365be	-0.0297116
103	0x3c34d839	0.01103788
104	0x3c8512c6	0.016244303
105	0xbdc62f3e	-0.096769795
106	0xbcb1000f	-0.021606473
107	0xbe38c5c9	-0.18044199
108	0xbea36490	-0.3191266
109	0xbe523e6a	-0.20531622
110	0x3cf2eb0d	0.029653097
111	0x3c55e6d9	0.013055527
112	0x3dac481f	0.084121935
113	0xbdb94fdd	-0.09048436
114	0xbd24619f	-0.04013216
115	0x3bb81513	0.0056177466
116	0xbd6637e7	-0.056205656
117	0xbd038b44	-0.032115236
118	0xbe461a91	-0.19346072
119	0xbddac20d	-0.106815435
120	0xbd140a3a	-0.036142565
121	0xbebbd205	-0.3668367
122	0xbcde42ef	-0.027131526
123	0xbd5b8689	-0.0535951
124	0x3ed28c9a	0.41122895
125	0x3efc2643	0.4924794
126	0xbdf0407a	-0.11731048
127	0x3e228223	0.15869956
