saved_models/episode_500/agent_10.pth (torch, 738530 bytes, 44 tensors)

fc1.weight f4 [128, 5]
00000000: 6882 c43e ac88 d3be bc37 bb3e b331 203d
00000010: a5e7 b13d e1b3 bc3e adfb 5ebe 1987 7ebe
00000020: 45bc b13e 6080 d53e 07ad 473e 97c8 9cbe
00000030: b9f6 fd3d c37b acbe b7a4 29be 5cdf a4be
00000040: 1007 94be ffda be3e 3bab b53e 5c0e 7f3d
00000050: 9837 263e b59d b23d 343a 1abe 1d1d 2abe
00000060: aaa8 b03e e174 8c3c 23ea ab3e b42d de3e
00000070: 0bf0 98bd 952a 74be 8f5d 973e 9a7d ab3e
00000080: 1edb 6d3e 665b db3e 80d1 5abe aaba 313e
00000090: 2003 4fbd 6cb7 9bbd 1d69 8d3d 550f b03d
000000a0: 6da6 96be a22c a03e fa92 203d 1019 343c
000000b0: a167 b0bd ff27 123e 5371 ae3e a864 c1bd
000000c0: edb3 abbd 1beb 8fbe 5bba c53e c35a d3be
000000d0: e7a1 af3d ab67 b3be a94b 3e3e 6d88 563e
000000e0: 18ee 9f3d 2344 563d 5ec0 ad3e 0783 db3e
000000f0: bbc4 973e f452 eebd dab4 d8be 4bdd b0be
00000100: 5644 b9be 6c6d 73be 503a 6fbe 45df 6f3e
00000110: 0498 d23e 5e19 b0be d765 033e 703d abbe
00000120: 7212 22bd 3368 193d 3f89 853e 3a2b 303e
00000130: d91e 62be 42ef 3c3e 3ef8 a7be ca75 b53e
00000140: 8048 663e 6b3a 9dbe 1405 1b3e 19da c9be
00000150: 7764 173e ce3a 96bd ea1e 203e b73d 8a3d
00000160: d0df d3be 79c3 95be 966f 73be e685 ad3e
00000170: 98b0 a43e 25bf bd3e 73be 693e eae5 e1bd
00000180: bc5d cb3e e1f5 d03e 2238 3d3e 9442 09bd
00000190: c342 9ebe 4e56 7b3e c8cf fa3d 63a3 09bd
000001a0: fb82 9ebe fb05 743d 8a9b 383e f93c 1d3e
000001b0: 2e1a 7d3d 1e86 843e b004 ad3e 38af 4fbe
000001c0: b3eb 98be 964c cfbe 6a63 893e 6e46 83bd
000001d0: 73e5 b1be 3670 a53d 5e90 d93e a232 c2be
000001e0: d999 dfbe 57c1 23bd c5eb 8bbe 2cb9 aa3e
000001f0: a496 af3d 7c92 183e 032c a9bd 05e4 f53d
00000200: 71a1 83be 85b7 f23c 60c7 96be 949c b6bc
00000210: 1e09 493d c83f 4cbe c721 a33e 537b 9cbd
00000220: 2fd7 a0be 1403 44bc 03b1 c53e 9043 a4be
00000230: f397 af3e ecc5 4fbc 4388 63be 9348 a4be
00000240: bc75 cdbe 4338 093d 92d8 bebd 0e91 913e
00000250: 514c 9abe e8bb 61be 7ed4 aa3e 399e 98be
00000260: 0f42 9a3d c9df 223e 11b9 2a3c f4dc 303e
00000270: cd37 6e3e 401b 853e 3f06 b23e 2523 aebb
00000280: 63bc a4bd db15 bb3e 71c3 853d 9fa1 eebd
00000290: 5093 8d3e 76f8 6c3b dcfc 2e3e 0300 de3e
000002a0: f2ef 19be 7f7e d5be 25ec 67be b16e dbbe
000002b0: fd38 e6be 91d2 ca3e c7a5 e13e 1db2 91be
000002c0: 34a0 2d3d fe71 473e da26 4f3e 2756 e2be
000002d0: d4c5 3dbd 63e1 8cbe d50c e93e d2d9 9b3c
000002e0: 4e17 b3bd d276 983e 5caf d03d f2ba a53e
000002f0: 3b72 b4be 771e d13e 6dc1 75be 9267 02be
00000300: 7985 9c3e d9a8 8b3e 9b69 62be 7029 1c3e
00000310: 472f 8abe db6f 6d3e f991 c03e 80b3 a03e
00000320: 3c4e c6be 0bdf 9e3e 396f 1ebe a356 c83e
00000330: 0ec4 91be 6f35 bfbe e178 e1be f813 a3be
00000340: 3568 3c3e 3ac8 d6be 46ca b83e 6b41 4f3e
00000350: f0bd 193e 1da5 aebd af47 a2be 2682 ee3b
00000360: 6417 573e 2e4c 67be 6758 b03e ab45 18be
00000370: 8731 a4be 3572 783e 3323 c8bd 7dba dabe
00000380: f1c1 8b3e 9bf6 973d 11f8 a73e 476a fb3e
00000390: 72b7 8cbd 86b0 74be 36e7 8b3e 2b62 5ebe
000003a0: 19a6 9d3e f8b5 583e 3890 943d a543 d4be
000003b0: d5aa e2be 772f 07be 7f7f 123e 04f5 c23e
000003c0: e5e7 623e d6ce e23d eb6a bd3e c469 363d
000003d0: cba8 1f3e 9e24 b53e 36e8 ce3e 8037 fa3e
000003e0: c0f0 d33d a831 40be c428 9b3e 78b6 4cbe
000003f0: 6780 15bc 292c 4a3e 6c54 73be 092f 843e
0.38380742 -0.4131521 0.3656596 0.039109897 0.08686761 0.36855987 -0.21775694 -0.24856223
0.3471395 0.41699505 0.19499598 -0.30621788 0.12400574 -0.33688173 -0.1656674 -0.3220166
-0.28911638 0.37276456 0.354822 0.062269554 0.16232145 0.087214865 -0.15061265 -0.16612668
0.3450368 0.017145576 0.3357707 0.43394244 -0.074676596 -0.23844369 0.29563567 0.33494264
0.23228118 0.4284317 -0.2136898 0.17356363 -0.05054009 -0.07603344 0.069048144 0.08596674
-0.29423848 0.31284052 0.039202668 0.0109923035 -0.08613516 0.1427307 0.34070835 -0.09443027
-0.083839275 -0.2810906 0.3861874 -0.41280183 0.08575802 -0.3504003 0.1858355 0.2095048
0.07809085 0.052311074 0.33935827 0.42873403 0.2964228 -0.11636916 -0.4232548 -0.34543833
-0.3618495 -0.2377221 -0.23362088 0.23425014 0.41131604 -0.34394354 0.12831818 -0.3344531
-0.039568372 0.037452888 0.26081273 0.1720399 -0.2208208 0.18450645 -0.3280658 0.35441428
0.22488594 -0.30708632 0.15138656 -0.39424208 0.14784418 -0.07335435 0.15636793 0.067500524
-0.41381693 -0.29250696 -0.23773035 0.3389122 0.3216598 0.37059894 0.22826557 -0.11030181
0.3971995 0.4081259 0.18478444 -0.03351076 -0.3091031 0.24544641 0.122466624 -0.033603083
-0.30959305 0.059576016 0.18028083 0.1535529 0.061792545 0.25883573 0.3379264 -0.20281684
-0.29867324 -0.40488118 0.2683366 -0.06409918 -0.34745368 0.08078043 0.42492956 -0.37929255
-0.43672064 -0.039979305 -0.27328315 0.333444 0.08573654 0.1489963 -0.08260348 0.12006382
-0.25709108 0.029628525 -0.29448986 -0.02229146 0.04908096 -0.19946206 0.31861708 -0.0764071
-0.31414172 -0.0119636245 0.38611612 -0.32082796 0.34295616 -0.012681466 -0.22219948 -0.3208662
-0.40128887 0.03350092 -0.09318651 0.2843098 -0.3013635 -0.22044337 0.33365244 -0.29808214
0.07532131 0.1590568 0.0104201 0.17271787 0.23263474 0.25997353 0.3477039 -0.005314248
-0.080437444 0.36540112 0.06531418 -0.116519205 0.27651453 0.0036158836 0.17088646 0.43359384
-0.15032938 -0.4169807 -0.22648676 -0.42857888 -0.44965354 0.39613774 0.4407179 -0.28456202
0.04238911 0.19477078 0.20229664 -0.44206354 -0.04633124 -0.27515706 0.45517603 0.019024763
-0.087446794 0.29778153 0.10189697 0.3236919 -0.352434 0.40843555 -0.23999567 -0.12734821
0.30570582 0.27277258 -0.22110598 0.15250182 -0.26989195 0.231872 0.37611368 0.31386948
-0.38731563 0.31029543 -0.15472116 0.391286 -0.2846989 -0.37345454 -0.44037536 -0.31851172
0.18399127 -0.41949636 0.36091822 0.20239799 0.15013862 -0.085275866 -0.31695315 0.0072786985
0.21005017 -0.22587654 0.34442446 -0.14870326 -0.32069036 0.24262317 -0.09772339 -0.42720404
0.27296403 0.07420083 0.32806447 0.4910452 -0.06870927 -0.23895463 0.27324837 -0.21717136
0.30790785 0.21163166 0.0725407 -0.4145786 -0.4427096 -0.132017 0.14306448 0.38077557
0.22158773 0.11074607 0.36995634 0.04453446 0.15591733 0.353795 0.40411538 0.48870468
0.10348654 -0.18768942 0.3030454 -0.19991481 -0.009124852 0.19743408 -0.23762673 0.25817135

fc1.bias f4 [128]
00000000: 9eb3 5ebe 6414 cc3d 94ef a0be d582 b2be
00000010: 4c8f 923e 024e afbe 2aec 3cbd cfcb d7be
00000020: 29dc b63e 1eb5 91bb cec2 b43d b1c3 2ebe
00000030: e2b0 bdbc f0c1 133e 486c dfbe d293 b3be
00000040: 3da9 123e 95bf bfbe 9448 453d 6806 213e
00000050: 6b1e cf3d 4223 35be da22 cfbe 0920 b33e
00000060: 506a 7abe e81c a9bd 3a25 a9be 1778 cb3e
00000070: 1c92 35be a18b dabe 92d4 bb3e 54b2 ccbe
00000080: 1f4d f93d 819e 8cbd dafa 95be 046e 83be
00000090: eac1 d0be fa7f ae3d 4fb5 d63e 8a83 b23d
000000a0: 6caf b43e 9a83 96be 7e7e 9b3d b61f c33d
000000b0: d740 113e 878d 28be fad2 9bbe 395c b3be
000000c0: a217 de3e 3f39 9dbe 75c7 233e e6b9 22be
000000d0: 3d91 323e b31c 2dbe ffe4 6abe d5df 453e
000000e0: 6e44 7ebe 8167 3a3d cdf8 003f 6b3b 393e
000000f0: be67 4b3d c8d9 0dbe cac1 49be 0c90 e33e
00000100: beb7 d43e f5bb 143e c2a0 c6be ccb3 a0be
00000110: 03cc 31bd d1fe 4f3c bca2 ce3e ea2c ba3d
00000120: c63e 853e f55c 86bd d27a 803e de79 11be
00000130: c971 e4bd 96b9 e13e 77d5 85bc 374d c8bd
00000140: 338b adbe f087 85be 0b2f 12be 3aa6 e13e
00000150: 1f33 9cbd 3930 12bc 7956 623e 04e2 a33c
00000160: efb9 6abe 036b 933d 9620 c33e 5981 9dbe
00000170: 6cde edb9 6b05 0abe 265b cb3d 93f5 be3e
00000180: 9b86 e53c 1d8f c0bd 865c 6e3e fb03 5fbc
00000190: d4bd 8f3e a349 afbe 00b7 ddbe 0093 683d
000001a0: 7957 e83e 4326 acbc ecdb 64be 1551 98be
000001b0: 18c3 9fbe 8894 f83d cbfb b83e bedf bb3e
000001c0: a60a 86be 646f 643d 0643 953e 174f ecbd
000001d0: 0160 a9bd 1f89 8a3e 034a c93e 1e66 25be
000001e0: 6a35 41be 5ddd ab3e 180f 24be 5e61 7abe
000001f0: 73fd 6dbe 7d8b 01be b543 f9bd e77f d83e
-0.21748206 0.09964827 -0.31432784 -0.34865442 0.28624952 -0.34239203 -0.04612366 -0.4214768
0.35714844 -0.0044466397 0.088262185 -0.17066838 -0.023155633 0.1442945 -0.436373 -0.35073715
0.14322372 -0.37450853 0.04816492 0.157251 0.10113224 -0.17689231 -0.40456277 0.34985378
-0.24454618 -0.082574666 -0.33036214 0.3974006 -0.17731518 -0.42684653 0.36685616 -0.39979804
0.12172913 -0.0686617 -0.29292947 -0.25669873 -0.40772945 0.08520503 0.41935202 0.08716495
0.35290086 -0.2939728 0.07592486 0.09527533 0.1418489 -0.16460238 -0.304344 -0.35031298
0.43377405 -0.30707738 0.15994056 -0.15891227 0.17438217 -0.16905479 -0.22938918 0.19323666
-0.24830791 0.045508865 0.5037964 0.18089072 0.049659483 -0.13852608 -0.19702831 0.44445837
0.41546434 0.14524825 -0.38794523 -0.31387174 -0.04340745 0.01269503 0.4035853 0.09090598
0.26024455 -0.06560699 0.25093704 -0.14206645 -0.11154515 0.44086903 -0.01633714 -0.097803526
-0.33895263 -0.26080275 -0.14275758 0.44072133 -0.07626938 -0.00892263 0.22103299 0.020005234
-0.2292249 0.07198145 0.381108 -0.30762747 -0.0004536988 -0.1347863 0.099294946 0.37296733
0.028018286 -0.09402297 0.23277482 -0.013611789 0.28074515 -0.34235868 -0.4330368 0.056780815
0.45379236 -0.021014338 -0.22349519 -0.2974936 -0.31203532 0.12137705 0.36129603 0.3669414
-0.2618 0.055770293 0.29152697 -0.11538523 -0.082702644 0.2705774 0.3931428 -0.16152236
-0.18868032 0.33567324 -0.16021383 -0.24451205 -0.23241214 -0.12650867 -0.12171117 0.42285082

fc2.weight f4 [128, 128]
00000000: b68f 843d 8487 90bc 5fb9 eb3d ecc7 bb3d
00000010: cb4c 4bbd 16c2 ff3c a877 f63d d861 e53d
00000020: 813b 44bd 70fc 6a3d b0d1 d73c c21b ed3d
00000030: 65bd ce3d 924b be3b 3c12 513c 2c16 cc3d
00000040: 56c3 06bd 184d b13d 4e63 683d cedc 443d
00000050: 04a1 5b3c 842b 543d 343a 663d 2d00 993d
00000060: 9b40 333d 5756 ee3d 6391 393d c44e d63d
00000070: b940 0dbc 7492 ad3a e61b 983d 2164 be3d
00000080: 0328 cd3d 4d4d 88bb 243e 8e3d 9de8 d13c
00000090: b481 aa3d c285 97bc 8cdd d73d 0eda b53d
000000a0: 7ee5 d63d ad72 bbbc 62c5 26bd 5727 cf3d
000000b0: 296e 13bd 6ee9 b03d 669d cf3d 3010 a53d
000000c0: a0f7 163d b2cb c73d 4782 d73d c81d eabb
000000d0: de6b a1bd 3134 be3c 7e83 bdbc def0 a53d
000000e0: e92d c53d 0019 c83d d22c 003e 4ba6 8b3c
000000f0: b028 8e3c cd71 bcbc cb09 c5bc 28ee bf3d
00000100: a4b5 cb3d c8c8 3c3c 23f2 10ba f010 6f3c
00000110: 7295 08bb 18ee 703b f785 3a3d 8c81 d73d
00000120: 643d 833d e7ba b53b ad50 a63d ebc1 94bd
00000130: cd49 793b 06db 3e3d cedc ccbc 6955 e3bc
00000140: d3d9 c93d da3a d13d d749 103d 3011 7d3d
00000150: efa1 d03c cf70 2cbd e43e f63d 7b5e 003e
00000160: b972 963d 7cca debc 9d0a d03d 0d25 60bd
00000170: 7485 b53d 7b00 4cbd cfbc 19bd dbdc eb3c
00000180: 412f e93d be0f 3a3d e430 32bd 5b79 55bb
00000190: 2914 3dbd db7c 2bbc 35c5 04bb eb84 363d
000001a0: a578 233b 7635 26bd 1ec4 063d 925b 4e3c
000001b0: b0ba 5d3c 2e32 053c 5b47 55b9 11ae 0fbd
000001c0: 5f80 b0bc 24e6 773d cf10 e83d 12ea 6ebc
000001d0: 2e46 643d d57b 263d 0229 7a3d 114e 68bb
000001e0: dd86 65bc 999e 98bd da59 ccbb a924 a6bc
000001f0: 1762 d5bb e32f cd3d 2c08 d7bc 72e3 71bd
00000200: 9ecb 583d 7434 95bc 9d93 bbbc f563 323d
00000210: a520 cbbc 38bd cc3d 8171 ee3d 248c 1cbd
00000220: d785 b63c 8bb5 ef3d 5c29 bf3d 0d58 943c
00000230: 19d7 233d b2e7 743c 1e02 dc3d f738 e43c
00000240: 5044 efbc be54 b03d 2087 4abd a23e 8c3d
00000250: d80d 013e fe19 f73d 96e7 6a3d 0372 0e3e
00000260: df47 543d cfc3 37bd 33b2 81bc c8b2 41bc
00000270: a162 cc3c d180 4b3c 3f30 31bb edce e7bc
00000280: ce8b 7d3c 4cae 3b3d 12db f03c 4dba 4cbd
00000290: 822f 1c3b 8465 803d 0eb9 1ebd ecb0 14bd
000002a0: de93 0c3e f7f0 78bd ab2f be3d 0e3e 4cbc
000002b0: 4db8 e9ba 58f3 e83d 2658 363c adb8 55bd
000002c0: b443 493d 6ba4 bf3d c974 603b 4148 7dbc
000002d0: 09cf ab3c 7128 d2bc 7169 3cbd 1aad debc
000002e0: 8331 fa3d b7d6 a53c 16b4 bfbb 4259 a03d
000002f0: 2784 a33d 670b dc3c c2ab 9e3d 3c19 2c3d
00000300: 58d0 9c3d f9af 60bd dc65 02bd 90ba aabd
00000310: a99f 62bd ec3e 5b3d c14d ecbc 1832 7e3c
00000320: 4084 e2bc 6a56 493c b3f1 6f3c 4777 cb3b
00000330: 0b7f 68bd c1f5 15bd a287 a839 08b9 023d
00000340: 5a6c 7cbc e933 c23d 7826 4d3d 46d6 33bd
00000350: 5e17 b7bc b327 8c3d a2ef e03d e2ed 273b
00000360: 012a b43d 1b72 a53c 52d8 c53d 7c6d 4bbd
00000370: 1eea e13d 356b af3d b4b5 fb3c 86e0 723d
00000380: 3b70 4d3d a9fa f23c cb08 503d 3462 cf3d
00000390: d187 ec3d 569e a13d a11c 2abd 9507 1b3d
000003a0: c72e 08bc 1b6d 48bd 2b7e 4dbc e0f7 033d
000003b0: 5d71 fabb bd54 1f3d 33b0 a93d b6e9 9c3d
000003c0: 3801 7abc c23a 41bd 5696 7b3d 289f 573d
000003d0: ab9e e0bc cdac 9a3d 4577 5a3d 3065 9f3d
000003e0: c714 b83c d629 a23d 2ff9 64bc bb43 283d
000003f0: ecf8 b2bc 5111 4a3c 3ee1 12bd 00b2 85bd
0.06472723 -0.017642744 0.11509966 0.091689914 -0.049633782 0.031220477 0.12034541 0.11200303
-0.04790831 0.05736965 0.026345104 0.1157756 0.10094718 0.0058073485 0.012760695 0.099651664
-0.03290113 0.086572826 0.05673533 0.04806214 0.013405088 0.051799312 0.05620785 0.07470737
0.043762784 0.11637562 0.045304667 0.10464242 -0.008621388 0.0013242499 0.07427196 0.09296442
0.10017397 -0.0041596056 0.06945446 0.025623614 0.0832552 -0.018496398 0.105403036 0.08879481
0.10492991 -0.02288183 -0.040715583 0.10114925 -0.03599373 0.08638273 0.10137443 0.08059728
0.036857247 0.09755649 0.10522895 -0.0071446635 -0.07881902 0.023218246 -0.02313399 0.081025824
0.09627897 0.09770393 0.12517098 0.017047068 0.017353386 -0.023003483 -0.024052521 0.093715966
0.099467546 0.011522479 -0.0005529245 0.014591441 -0.002084103 0.0036763009 0.045537915 0.10522756
0.06408194 0.005545962 0.081208564 -0.072635494 0.0038038373 0.046595596 -0.025007632 -0.027750688
0.09856 0.10216303 0.03522667 0.06178397 0.025467841 -0.04209977 0.12023714 0.12536041
0.073461 -0.027196161 0.10158274 -0.054722834 0.08863345 -0.049805146 -0.037533578 0.028791836
0.11385966 0.04542517 -0.043503657 -0.0032573554 -0.046161804 -0.01046678 -0.0020259146 0.044560354
0.0024943736 -0.040578328 0.032901876 0.012595074 0.013533279 0.00812964 -0.00020339845 -0.035078112
-0.021545587 0.060522214 0.11331331 -0.014582174 0.05573099 0.04064544 0.061074264 -0.0035446922
-0.014009205 -0.07452125 -0.006236297 -0.020281153 -0.0065119374 0.10018899 -0.026249014 -0.0590548
0.05292856 -0.018213488 -0.022897536 0.043552358 -0.02479584 0.09997028 0.11642743 -0.038219586
0.022280617 0.117045484 0.093340605 0.018108392 0.040000055 0.014947819 0.10742591 0.027859194
-0.029207379 0.08609913 -0.04944527 0.06847884 0.12602937 0.120655045 0.057349764 0.1391068
0.051826354 -0.044864472 -0.015832042 -0.01182241 0.024949374 0.012420849 -0.0027036814 -0.028296912
0.015475227 0.04582052 0.029401336 -0.049982358 0.0023832028 0.062693626 -0.0387507 -0.03630154
0.13728282 -0.060776677 0.09286436 -0.012465967 -0.0017831415 0.11374539 0.011129415 -0.052178074
0.049136832 0.09357532 0.0034249297 -0.015459121 0.020972745 -0.02565405 -0.045998994 -0.02718215
0.12216475 0.020243986 -0.0058503253 0.078295246 0.079841904 0.026860906 0.07747604 0.042016253
0.07656926 -0.05485532 -0.031835422 -0.08336365 -0.055328045 0.053526804 -0.02884567 0.015514873
-0.027650952 0.012288669 0.014645028 0.0062092873 -0.056761783 -0.036611322 0.0003214451 0.03191474
-0.015406692 0.09482557 0.050085515 -0.04390552 -0.02235001 0.068435095 0.10983206 0.0025623967
0.08797074 0.020196011 0.096604005 -0.04966496 0.110309824 0.0856537 0.030726291 0.059296153
0.05015586 0.02966054 0.050789636 0.10126153 0.115493424 0.07891528 -0.04153121 0.037849028
-0.008311934 -0.048932176 -0.012542288 0.032218814 -0.0076429085 0.038899172 0.082855605 0.07661764
-0.01525908 -0.047175176 0.06142267 0.052642018 -0.027419409 0.075524904 0.0533364 0.07782972
0.022470845 0.07918136 -0.013975426 0.041080218 -0.02184721 0.01233323 -0.03585934 -0.065280914

fc2.bias f4 [128]
00000000: f30e 26bd 2328 0b3e 8a4b 283d d9b2 ddbd
00000010: fbbe a6bd 7eec e63b 0b1a b13d fc86 9f3d
00000020: 2b68 003d 83b4 753c 58ef 203d 9c5d 833c
00000030: e550 6e3d 277f 4dbb c817 143b 4d49 b8bd
00000040: 84d9 783d 46e8 92bd 1182 ccbb 94de 9cbd
00000050: c602 0dbc d5dd 79bd 093b a8bd 1a10 fbbc
00000060: 6b91 45bd 964a babb 4e85 a53d 366c 273d
00000070: 2296 74bd 8092 74bc e507 debd a0e2 8ebd
00000080: 0027 6639 dd39 6bbd a6ca a53d 039c 983b
00000090: c723 69bc 3766 2c3c a400 6c3d bd72 fc3d
000000a0: 05c9 2e3d 8373 0d3d 25ea 113e a8d5 6dbd
000000b0: c710 c23c 0511 c1bd f48d 0abd 5c53 053d
000000c0: 41b2 b6bd 6a70 0c3d 40f6 33bd 828b cdbd
000000d0: 8c77 17bd f593 26bd 8002 1f3d d2bd 513d
000000e0: 49cc 88bd 596f bebc 37b5 60bc ff81 90bc
000000f0: 0e4b 08bd aa0f d7bd 7aae c2bd 65b9 513d
00000100: e2fe 6f3d d63f 27bd c114 89bb 2060 f73d
00000110: 857e 80bd 1ad3 5d3d 5973 27bd 0cec 7d3c
00000120: f8f4 17bc c56a 023e 5563 eabd e8a4 dbbd
00000130: 9fdc 82bd e2cf a3bd 6e83 76bd 5353 9ebd
00000140: 8cd4 d8ba 762f 94bd fada 6c3d 909a 60bc
00000150: 6314 58bd 78db dbbc ba01 8dbd 3b1e 8b3d
00000160: 6c36 8cbd 25fa af3a 689d b1bb 65a6 a8bd
00000170: a58e 4b3d dea1 a8bd dd46 263d 3f95 e73c
00000180: f9e9 c8bd 2ece b8bc 8785 23bd 1aa9 c6bd
00000190: 1578 0c3d 952e 82bd df9c 83bd 7b2b 523b
000001a0: dabc 853d aee5 a4bd c857 9bbd 1973 57bd
000001b0: 9896 88bd 9c3a d5bc ba17 083c 676b 853b
000001c0: b0fb babd 18d2 7f3d aaf5 073d 4fe3 a2bd
000001d0: abf2 e1bc 3350 373d 3f17 b53c a8f6 6dbd
000001e0: 1067 79bd 8ccc 1f3d b0b6 aa3b 933d 183d
000001f0: f453 3cbc 9627 3f3d f67e 853d aef6 de3d
-0.0405416 0.1358953 0.041087665 -0.10825128 -0.081418954 0.007047235 0.086475454 0.07789418
0.031349342 0.014996651 0.039290756 0.016035847 0.058182616 -0.0031356306 0.0022597183 -0.08998356
0.060754314 -0.07173209 -0.006241091 -0.07659641 -0.008606618 -0.06100257 -0.08214385 -0.030647326
-0.048234385 -0.005685161 0.080820665 0.040874682 -0.05971349 -0.014927506 -0.108413495 -0.06976819
0.00021949038 -0.05742823 0.08095293 0.00465727 -0.014229721 0.010522417 0.0576178 0.12326572
0.042672176 0.03453399 0.14249475 -0.058065087 0.02368964 -0.09427074 -0.033826783 0.0325502
-0.08920718 0.034286894 -0.043936014 -0.10036375 -0.036979243 -0.040668447 0.038820744 0.051206417
-0.06679589 -0.023246454 -0.01371508 -0.017640112 -0.033274703 -0.105010346 -0.09505935 0.051202197
0.058592685 -0.040832363 -0.0041833823 0.12078881 -0.06274132 0.0541564 -0.04088149 0.0154981725
-0.009274714 0.12736042 -0.11444727 -0.10724813 -0.063897364 -0.07998635 -0.060183935 -0.077307366
-0.0016542836 -0.07235615 0.05782602 -0.013708726 -0.052753817 -0.02683805 -0.06885095 0.067928754
-0.06846318 0.0013425989 -0.0054203756 -0.08234862 0.049696583 -0.08233999 0.040594924 0.028269408
-0.09810252 -0.022559252 -0.039922263 -0.09700222 0.034294207 -0.06356541 -0.06426405 0.0032069373
0.06530161 -0.080516204 -0.07585102 -0.0526 -0.066693485 -0.026028924 0.008306438 0.0040716412
-0.09130037 0.06245622 0.033193268 -0.07953512 -0.027581533 0.04475422 0.022105811 -0.058096558
-0.060889304 0.03901343 0.0052097663 0.037168097 -0.011494625 0.04666861 0.065183565 0.10886894

fc3.weight f4 [2, 128]
00000000: 0b9c 90bd fdff 84bd 8adf d03b e88d 173d
00000010: a00b d23b d39d 08bb 7ed7 e8bc 0081 1bbe
00000020: 72fa 3d3d 359a cdbc 0bc8 31bb 5aa1 103d
00000030: 236a 5d3d 5fa7 1abd ea16 a1be 9606 1ebc
00000040: 31a0 23bc 9b74 793d 693f cb3c 7b58 903d
00000050: 21c7 e23c b478 fbbd 6d77 8d3c acd8 7cbc
00000060: f98a 213d 3482 6c3b 94cb 5cbd 0bc1 ab3d
00000070: 8139 923d 5e01 09bc 827f 1f3d 4d83 313d
00000080: e53d 9fbd d263 acbd b606 d7bd 12c2 a6bd
00000090: a090 a8be ebae e33c 1fdf debc 5411 5dbd
000000a0: e800 e73c 026d 1cbb 104d 16be d3bc abbd
000000b0: 8d33 bc3c f5de 8abd 93c1 9abc 7a6a e3bb
000000c0: ddaf 073c 7f30 b93c e86a 3f3d a018 09bc
000000d0: 8c9a 74bd 7497 af3c ce9b d8ba 690b 3abe
000000e0: de2a b53c 14a5 fe3c 7be1 bfbd ae68 48bd
000000f0: 20d6 99bd 4dba f7b9 8e73 253d e141 8b3c
00000100: c898 5dbd 9737 e0bc 5ce3 133d 8ae5 a9be
00000110: 9dbf 2f3d e006 a63b 36fb a23c 6a75 cbbd
00000120: 7adc 38bc 9aec 9bbd e7f8 babc e807 003d
00000130: a1fa 533d aae2 8ebb 2910 3f3d c3a1 e03c
00000140: 6703 f23a 078d 6f3d 436e 873d b6f1 b7bc
00000150: 680d b63c 955b 90bd ce48 333d 2d0c 0abe
00000160: d6ee fc3c 2037 f0ba a32c 56be 640e 0bbd
00000170: 968b 823c 5bfd 90b9 5f91 dfbe 5f79 ccba
00000180: 62c5 813b 9988 62bd 68d9 24bd 01a4 8bbc
00000190: 665c 893d dfd8 b1bc 8b01 3cbd e5cd 8e3d
000001a0: a30c 3f3d ae49 62bb ae57 bcbb ab8c c8bc
000001b0: 7a95 22bd 3a71 69bd 72de b2bc 80f4 84be
000001c0: 2e39 463d cb05 aabc 3426 30be 008b 50ba
000001d0: c310 7dbb d976 afbb ad2e 0ebb cba0 db3c
000001e0: 5f08 a1bd ba43 123c 684b 073d f774 003d
000001f0: c151 53bb dc3f babd 9a63 6ebd 4295 bdbd
00000200: 578b c3bd f9ca c2bd 24aa 013d b1b2 bc3c
00000210: ad2c acbd b3c4 953d c027 b7bd ffe1 b3bd
00000220: 71b7 323c 2d57 8a3b eff3 fcbc db71 1b3c
00000230: f119 8dbd f70a c53b 6692 3fbe 1213 03bc
00000240: 5cea c43c 6ae3 e7bc f294 80bc a540 5e3d
00000250: c6cd fb3c e9cc b5bd a56a b2bd 2018 85bd
00000260: 6dc2 c63c 0e15 b83c d8ed 823b 0c7a 8e3d
00000270: 2842 84bd 3f7f 3bbd 4ba6 f73c d84f a8bc
00000280: f311 b3b9 006b 8e3d 0ec1 98bd d4dd 8f3c
00000290: 57ce 64be fc63 803c 21d4 30be 4478 f4bd
000002a0: 5a95 2fbd 0342 debb d291 c4be f346 a3bd
000002b0: 965e 80bc cddb 623c 9423 28bc c55c 863d
000002c0: 8c9b 7e3d 541f 05bb ed89 bc3c 3c39 22bd
000002d0: 17cd 14bb 4efd 763d 9e36 05bc 1c8e 85bd
000002e0: 4760 883d 4da9 483d a10b 2b3c bfbb 383b
000002f0: 0443 c63a 1269 e53c 44f1 9dbd 4f1b 883d
00000300: 8ed7 63bd be0d 9b3d aa8a 8f3d 3a5a 23bd
00000310: 9ef7 8a3d 67f1 963d c69e 09bd c48a 653d
00000320: a28c 813b c1b6 debd 6492 9dbd c8c6 eebc
00000330: 3dc0 793d 2d59 8fbd e564 c83b f26e 84bd
00000340: 6cb6 8d3d 6d0e 78bd 5c8d 6ebd c8e7 e23c
00000350: 867f 5c3d 2ae4 223d 1ef6 8e3d a298 10bd
00000360: 7952 773a 7056 683d 9761 bcbd fb34 903d
00000370: 2445 383c 7e97 0abd 1b8a a8be 08f4 abbd
00000380: 0e8a e1bc 3488 753d cd63 413d 3cbc 7dbd
00000390: 65bf 80bb fbb0 75bd e20c 213d 39a1 56bd
000003a0: f41f 7d3d f183 81bc 4651 4dbd 25bc 5c3d
000003b0: 60ff 81bd 1168 46bd eeaf 1fbd 8b91 76bd
000003c0: c8c0 a2bc c95f da3b 77d5 32bd 681f aebd
000003d0: 6f42 bebd 52ba 32bd 77a0 97bd a833 913c
000003e0: 1d78 ccbb 243b d2bc 7553 bebc 16a9 733d
000003f0: 2cef 58bd 794c c4bd 47b8 05bd 5abd edbe
-0.07061013 -0.064941384 0.006374304 0.037000567 0.006410077 -0.0020846024 -0.028423067 -0.15185928
0.04638142 -0.025097946 -0.0027127292 0.035310127 0.054056298 -0.037757274 -0.31462795 -0.009645125
-0.009986923 0.06090222 0.02481051 0.07048126 0.027682843 -0.12278882 0.01726886 -0.015432518
0.039439175 0.003608835 -0.053905085 0.083864294 0.07139874 -0.008362142 0.03893996 0.04333811
-0.07775477 -0.08417477 -0.10499327 -0.08142485 -0.3292284 0.027793368 -0.027206002 -0.053971604
0.028198674 -0.0023868685 -0.14677835 -0.08385625 0.0229738 -0.06780807 -0.018891132 -0.006940183
0.008281675 0.022606133 0.046732813 -0.008367687 -0.0597177 0.021434523 -0.0016525926 -0.18168415
0.022115167 0.031084575 -0.09369179 -0.048927955 -0.07511544 -0.00047250316 0.040393405 0.016999187
-0.05410078 -0.027370257 0.0361055 -0.33182937 0.042907346 0.0050667375 0.019895177 -0.09934504
-0.011283034 -0.076134875 -0.022823764 0.03125754 0.05175269 -0.0043605166 0.04664627 0.027420884
0.0018464149 0.058484104 0.06612828 -0.022454124 0.02222319 -0.07048718 0.043770604 -0.13481207
0.030875605 -0.0018326975 -0.20915465 -0.03394927 0.0159357 -0.00027654585 -0.43665597 -0.0015600136
0.0039602974 -0.05530605 -0.040246397 -0.017045977 0.06707077 -0.021709858 -0.04589991 0.06972865
0.04664291 -0.003452878 -0.005747757 -0.024481138 -0.039693333 -0.056992747 -0.021834586 -0.2596779
0.048394375 -0.020754715 -0.17202073 -0.0007955283 -0.0038614727 -0.005354744 -0.0021695301 0.02681007
-0.07862925 0.00892728 0.033030897 0.031361546 -0.0032244774 -0.090942115 -0.058200456 -0.09256984
-0.09548061 -0.0951137 0.0316564 0.023034425 -0.08406959 0.07312908 -0.089431286 -0.0878334
0.010907994 0.004221818 -0.030878035 0.0094875945 -0.068897136 0.00601327 -0.1870819 -0.008000152
0.024037533 -0.028306682 -0.015696023 0.05426087 0.030737769 -0.08876974 -0.08711747 -0.06498742
0.024262631 0.022470977 0.0039956383 0.06956872 -0.06457931 -0.04577565 0.030230662 -0.020545885
-0.00034154914 0.069540024 -0.07458697 0.01756183 -0.22344337 0.015672676 -0.17268421 -0.11937001
-0.042867042 -0.0067827716 -0.38392502 -0.07972517 -0.015670102 0.01384635 -0.010262389 0.06560663
0.06216006 -0.0020312862 0.023014987 -0.039605364 -0.002270525 0.060300164 -0.0081306975 -0.06521246
0.066589884 0.048989583 0.010439784 0.0028188077 0.0015126173 0.028004203 -0.077120334 0.06645834
-0.05562549 0.075709805 0.0700887 -0.03988097 0.067855105 0.073702626 -0.033598684 0.05604054
0.0039535323 -0.10874701 -0.076939374 -0.02914752 0.06097435 -0.06999431 0.006115543 -0.06466474
0.0691956 -0.060560632 -0.05824028 0.027698413 0.053832553 0.039768375 0.06980537 -0.035301812
0.00094345916 0.05672306 -0.09198301 0.07041355 0.011246953 -0.03383588 -0.32917866 -0.08396155
-0.02753165 0.059944347 0.047214318 -0.061947092 -0.003929066 -0.059983235 0.039318927 -0.052399848
0.06179805 -0.015809985 -0.050126337 0.053890366 -0.06347537 -0.04843909 -0.03898614 -0.060197394
-0.019867316 0.0066642505 -0.043660607 -0.08502084 -0.09290015 -0.04363472 -0.07403653 0.017724827
-0.0062399046 -0.025662966 -0.023233155 0.059487425 -0.052962467 -0.095848985 -0.032646444 -0.46433526

fc3.bias f4 [2]
00000000: 27be 663d f831 4bbd
0.056333687 -0.0496082

fc1.weight f4 [128, 84]
00000000: cf39 8fbd 6d99 1fbd 7542 1a3c a730 b63d
00000010: d375 7dbd 8e02 b8bd 01b8 dcbd 3883 963d
00000020: 1e30 62bb f89f 9c3d 1a5d 6a3d 5ff0 a83d
00000030: cf88 d3bd 720f bebd 2f6e b4bd 3728 53bd
00000040: 51d0 62bd c6e1 b5bd 7d1e 09bd d640 c9bc
00000050: 79aa 77bd 75ad aebc aac4 debd 4687 c9bd
00000060: f391 d43c 7861 5cbd 584f c1bd 3e29 0c3d
00000070: 1a24 cdbd 0e09 373c 67c3 b63d c846 e4bc
00000080: e39c bdbd 575a 5fbd 5cde b03c 2aeb 803d
00000090: 1abc bebd 44eb 07bd 7c91 d53c 0d0b bc3d
000000a0: 391f 31bd 5756 cc3d 27c4 78bd 8f4a d0bd
000000b0: 00cc dcbc 2082 51bd 0eae aa3d 6e2d 3cbd
000000c0: c63a adbd 846b aebd da1f 8c3d 18a3 c13d
000000d0: 9bf3 013d d387 883d 4821 5dbd 413d 063d
000000e0: 167a 57bd a931 77bc 1cc9 5c3d fe8d a13d
000000f0: 265c 093d fa4e dd3d 68be f93c 3295 3a3d
00000100: e992 7ebd 2394 c1bc b102 063b 2f18 a73d
00000110: 4426 683d 9a84 003c bc69 7a3d 345e acbd
00000120: f0a9 963d 711a 2fbd e9bc aebd bbc6 6f3d
00000130: 0f58 963d 8ebf 67bc 5485 953c b865 943c
00000140: 1f05 76bd 15b4 923d 914a 613d b6c5 813c
00000150: 9890 593e f1b9 cd3d 52b8 59bd 0b20 493e
00000160: 7627 583d bc49 5e3d daa3 0f3d 4478 70bd
00000170: df4c c43c fc54 483d 2cbf fa3d 6cd6 943e
00000180: 6408 07be cddc a6bc 559a 083d 1d09 163d
00000190: 6447 63be c13e 8dbc 7a68 1ebd 6f03 98bd
000001a0: c2e6 7cbe e5f5 de3d 1491 81be f093 30b9
000001b0: a327 ab3d c0de 91be 4240 1c3c 20e8 f7bd
000001c0: ffb0 313d 07f1 833d f793 b2bd 712f 34be
000001d0: 149b a13d 23fa 9c3c bd10 7b3d 13e1 dd3e
000001e0: 22bb b8bd 9ece a53e f1a1 8f3d 9fdc 5039
000001f0: 0722 87be 8131 ea3d 4c57 87bd 37aa c03d
00000200: c6b4 cdbd 8027 0b3e d2b9 f4be 6145 053d
00000210: e939 69be e11a af3d 12ac 9e3e 2c76 90bb
00000220: d399 89bc 41db 06bd d13d 23bb 81a7 863e
00000230: 323e 45bb 9185 183e 2d1c 0bbe d4bf db3d
00000240: baf0 2a3d ce5a ae3c 23f3 cabd c62c 48bd
00000250: b872 e8bc cadc e9bc 5f25 f23d daa5 63bd
00000260: c2a6 66be fa9a 7f3d b357 983d 52b6 bfbd
00000270: 2faf ca3d e66f bb3c 0bdb b13b aee4 2c3d
00000280: 79ad a5bd 4be8 833e b683 3c3d aa7e b03c
00000290: 3843 b43d c1d8 cfbd afdf c0b9 18bf 69bd
000002a0: 7bfb bd3d eca7 35be a7b7 263e a608 6cbe
000002b0: d477 aebd 03ff 90bd 1b0e e13c d74a 9abd
000002c0: 303b 283e 1a07 5bbd 6cd7 e63c 8e7d f63d
000002d0: 675c eebc 8d54 7ebd a8d4 a63d b4a7 c0bd
000002e0: f17d 2abe b956 a43b 267a 53bc 7e79 8abc
000002f0: afc2 99be 6a7b 20be 486a 0cbe 51fd f7bd
00000300: 061c bd3c 54e7 e5bd f8e9 3fbe b6e4 05be
00000310: c8e9 72bd 1eea 69bd 979d 713e 4e39 acbd
00000320: b97f 2b3e b21f d6bd 2e93 4d3d 5967 563d
00000330: 0877 42bd 6ff6 b43c bcf0 56be 2b05 19bd
00000340: fa81 22bd 415d 74be 36cd e93d ed26 dfbd
00000350: 1319 903d d36c e6bd ab30 0c3d 9ae9 9c3c
00000360: 77da ad3d a9dd 3ebc 351e 9b39 8076 02bc
00000370: 6045 1fbe 441c 06be 435a b63c 7fc6 033d
00000380: de4b 28be 3346 fabd 1fd4 8bbe 8b12 c1bd
00000390: bbb9 52bd d8c9 73bd 76e0 7cbd fcb8 be3d
000003a0: a8dd 373d bed9 47bd 9e32 cd3c b5c9 ae3d
000003b0: 7da2 5bbe bc6b ef3a 4a97 1f3e 5d9e 8d3d
000003c0: 461a 3a3c 3c3d 423d b1e5 bd3d a0d0 243d
000003d0: db1f dd3c 460c bb3e 9356 813d 31cf 3c3d
000003e0: 902c 673e 473c 5f3a aac8 fabd ea45 2dbd
000003f0: 9b68 4c3c 0b65 bcbd 98d9 5e3c 7b45 26be
-0.06993448 -0.038964678 0.009415259 0.088959984 -0.061879944 -0.08984862 -0.107772835 0.07349247
-0.0034513543 0.07647699 0.057217695 0.08248972 -0.103288285 -0.0928029 -0.08810078 -0.051552024
-0.055374447 -0.088809535 -0.03347634 -0.024567049 -0.06046531 -0.021322945 -0.108773544 -0.098402545
0.0259485 -0.05380389 -0.09438962 0.03421902 -0.100166515 0.011171592 0.08923989 -0.027865782
-0.092584394 -0.054529514 0.021590404 0.06294854 -0.09313221 -0.03318335 0.026070349 0.09181795
-0.043242667 0.099774055 -0.06073394 -0.10170471 -0.026952744 -0.051149487 0.083339795 -0.045941763
-0.08458476 -0.08516601 0.06842013 0.09454936 0.03172646 0.066665314 -0.053986818 0.03277326
-0.052606665 -0.0150875235 0.05390273 0.07888411 0.033535145 0.10806079 0.0304863 0.04555244
-0.062151823 -0.023630207 0.0020448382 0.081589095 0.056677118 0.007844115 0.061135992 -0.08416405
0.07356632 -0.042749826 -0.085321255 0.058539134 0.073410146 -0.014144791 0.018252052 0.01811491
-0.060063478 0.07163254 0.055002753 0.015841346 0.21246564 0.10045231 -0.053154297 0.1964113
0.052772008 0.054269537 0.03506837 -0.058708444 0.023962436 0.048909172 0.122434944 0.2906984
-0.13186795 -0.020368958 0.033350307 0.036629785 -0.22195202 -0.017241837 -0.038673855 -0.0742253
-0.24697402 0.108867444 -0.25305998 -0.00016839779 0.083571695 -0.28490257 0.009536805 -0.12104821
0.043381687 0.06442457 -0.08719628 -0.17596222 0.07890907 0.019162243 0.06129526 0.4333578
-0.09020068 0.323842 0.0701331 0.00019918614 -0.26393148 0.11435223 -0.066084474 0.09407466
-0.100442454 0.13589287 -0.4779802 0.032536868 -0.22775997 0.085500486 0.30990654 -0.0044086184
-0.016796982 -0.03292394 -0.0024908672 0.2629967 -0.0030096886 0.14894702 -0.13584967 0.10729948
0.04173348 0.021283533 -0.09909656 -0.048870824 -0.028375015 -0.028547663 0.11823534 -0.05557809
-0.2252455 0.062403657 0.07438602 -0.09360947 0.09896695 0.022880506 0.0054277233 0.042210273
-0.08089728 0.25763163 0.046024047 0.021544773 0.088018835 -0.101487644 -0.0003678775 -0.057067007
0.09276482 -0.17739838 0.16280995 -0.23050174 -0.08518949 -0.070798896 0.027472546 -0.07533806
0.16428828 -0.05347357 0.028178893 0.120356664 -0.029096795 -0.062092353 0.0814603 -0.09406987
-0.16649605 0.005015221 -0.01290754 -0.016903635 -0.30031344 -0.15672079 -0.13712418 -0.12108863
0.023084652 -0.11225763 -0.18741596 -0.13075528 -0.059304982 -0.057108037 0.23595272 -0.084093675
0.16747941 -0.10455264 0.05018919 0.052344654 -0.0474768 0.022090165 -0.2099027 -0.037358444
-0.039674737 -0.23863699 0.11416094 -0.108960964 0.070360325 -0.11251225 0.0342261 0.019154359
0.084889345 -0.011649528 0.0002958641 -0.007962823 -0.15553808 -0.1309672 0.022259837 0.032171723
-0.16435191 -0.12220421 -0.27310273 -0.09427365 -0.051446658 -0.059518665 -0.0617375 0.09312627
0.044889122 -0.04879164 0.02504855 0.08534566 -0.21448703 0.001826636 0.15585056 0.06914971
0.011358803 0.04742168 0.09272326 0.040238023 0.026992729 0.365328 0.06315341 0.04609603
0.22575593 0.0008515757 -0.12245305 -0.042303003 0.012476112 -0.0919896 0.013601683 -0.16237442

fc1.bias f4 [128]
00000000: f4cc c4bd 1a4a b8bc 1afb 1cbc c251 113e
00000010: 5d22 35bc 3bd3 1b3d a83b 13bd 69cc ccbd
00000020: 7519 abbc ef69 3dbd ebc6 063e 5988 563d
00000030: 92f2 f93d a402 6ebd 33c0 56bc 9036 083c
00000040: 1b58 d7bd 9131 4cbc 21ed 823c bf01 953d
00000050: 5f9f 6a3d eb86 ffbd a9ae 1fbd b2b6 113d
00000060: 3db2 123d 438b 84bd 4bb7 d5bd 83bf fcbd
00000070: 1ee3 d5bd 3a6a a2bd 8266 e5bc 7a43 eebd
00000080: 9109 ed3d 6364 393c 48c1 b3bd 3a85 5ebd
00000090: bcc9 04bd 9d08 51bc ab50 dd3c 6241 bebd
000000a0: cc57 61bd b1b1 e4bd 52d2 2abc dc3c 7bbd
000000b0: 4106 5ebb dd3d f1bd b8d6 1e3d ada2 8f3d
000000c0: 65f1 863d b0b0 bb3d baca bd3c 0a21 943c
000000d0: 9a90 8f3d 6804 a23d 064f bbbd 6603 23bd
000000e0: 9b09 6abd f77e b93d d7e3 a9bd ae1a 9ebd
000000f0: 482c aebd 4a8e 153c a2bb 593c 8978 683d
00000100: 1521 9dbd 8ada 0dbd 5c04 763d d0e8 69bd
00000110: 5c98 993d b13c 023e e5bf 4b3b 3556 74bd
00000120: a823 523b b400 3a3d 5b8f 82bd 9ba1 edbd
00000130: ecb4 b8bc 155d 9e3d cb48 8cbd 2c07 63bd
00000140: a16f efbc 5bbe 3cbd 9808 f0bd a571 063d
00000150: d7a4 82bd cdc7 ab3d b28a 0f3d 3d71 a1bd
00000160: 1acb 4a3d 0c47 08be bf1f 353c 9262 813d
00000170: 04b7 ec3d 02b4 fbbd 638c cc3d ce24 633d
00000180: 0f9d 143b b955 86bd b25a bbbd eead a23c
00000190: 4b26 3bbd 10c3 c93d e515 efbd f09e 5a3d
000001a0: c706 7d3c e724 4e3d b505 dd3d 230f 523d
000001b0: b0ca 91bd ecc7 43bc 3cf6 e2bd cdda d0bd
000001c0: c580 133e 08dd 86bd 70e1 07bd 7c30 debc
000001d0: 2cff 5ebd 6db4 84bd 81f0 2e3d d499 86bd
000001e0: 84ad 8ebd 8d09 7fbd 1514 a7bd 92b7 f0bd
000001f0: 9e1d 04bc 88dc c73d f311 d9bd 340b 853d
-0.09609404 -0.022496272 -0.009581352 0.14191344 -0.011055556 0.038043242 -0.035945565 -0.09999926
-0.020886162 -0.046243604 0.13161819 0.052376125 0.1220447 -0.058107987 -0.013107347 0.00831379
-0.10514852 -0.012462989 0.015982212 0.07275724 0.057280894 -0.124769054 -0.03898493 0.035574622
0.035814513 -0.064718746 -0.10435351 -0.123412155 -0.1044371 -0.07930417 -0.028002981 -0.11633964
0.1157409 0.011315438 -0.087771 -0.054326274 -0.03241895 -0.012758401 0.027016005 -0.092898145
-0.05501537 -0.111667044 -0.010426121 -0.061337337 -0.003387824 -0.117793776 0.03877899 0.0701345
0.06589011 0.0916456 0.023167957 0.01808216 0.070100024 0.07910997 -0.09145932 -0.039798163
-0.057138067 0.0905742 -0.0829541 -0.077199325 -0.0850454 0.009128163 0.013289364 0.056755576
-0.076723255 -0.034632243 0.06006275 -0.057106793 0.07499763 0.12718464 0.003108972 -0.059652526
0.003206471 0.045410827 -0.06374999 -0.116030894 -0.022547208 0.07732598 -0.06849822 -0.05542676
-0.029228033 -0.046079975 -0.11720389 0.032823224 -0.06379097 0.08387718 0.03504438 -0.078829266
0.0495101 -0.13308352 0.011054932 0.06317629 0.11558345 -0.12290193 0.09987714 0.05545502
0.0022676622 -0.06559319 -0.09148158 0.019858327 -0.045690816 0.09851658 -0.11674098 0.05337423
0.01544351 0.05032816 0.10792104 0.051283967 -0.07118738 -0.011949521 -0.11082122 -0.10197983
0.1440459 -0.06585127 -0.03317398 -0.027122729 -0.05444257 -0.06479726 0.04270983 -0.06572309
-0.06966689 -0.062264968 -0.08158127 -0.11753763 -0.008063702 0.0975886 -0.10599127 0.064962775

fc2.weight f4 [128, 128]
00000000: 11f7 993d bef7 643d 45bc 65bc 25a0 0b3d
00000010: cce2 6e3d 6f09 e43c 865f b33c a79f 333d
00000020: f916 debd ac2b 133d 6563 1f3e 3bb9 15bd
00000030: 226a c2bd d05e 853d 12b1 d63c e480 f53c
00000040: 8c01 b53d ff95 80bd f5bf 363d db85 093d
00000050: 0513 06bd 2be7 833c 4048 bf3d b7a3 57bd
00000060: abc5 a4bd a8ce 803d 1c60 123d 4977 af39
00000070: 1edc 483d 87ac 343d c7e7 343d 80e8 dcbc
00000080: 82e4 3ebe 46fd f7be 9b26 c1bc 18cc 84bd
00000090: 1215 993d 748c 89bd 1da3 26bd a3da 6cbd
000000a0: deef 8bbd 14af 3e3d 440d a8bd 7e01 a43d
000000b0: 41d1 943d edaa 4dbd cb70 063d 5d86 26bd
000000c0: 6e01 38bd 3db6 8abb a883 9abd 6fea 84bd
000000d0: 4f3b 0e3d c794 513d 1998 88bd b764 5a3d
000000e0: 6327 943d 0d41 29bd 7f4d b83c 551e 403d
000000f0: bbe7 943d f9ad 38be de38 dcbd f098 723d
00000100: cfdc b73d 76b9 15bd f43d c0bd 61b0 3d3c
00000110: c5d3 6b3d dab4 bdbe bd67 413b 4ece a63d
00000120: 51a6 5c3d 7410 883c 7a8b 853d 0868 ba3b
00000130: 5544 a8bc be87 bbbe 0891 15be 83cb d2bb
00000140: 7518 e93c 3a7b 093d 5759 0cbd 5cb1 eabd
00000150: fa5d 1d3d 7389 453d 269c 3a3d b24e 613b
00000160: 00d8 ac3c daa9 013d 4803 bebc 959c 3d3d
00000170: 2877 80be 4508 253e 7ce3 d73d 0e95 4f3d
00000180: 83aa 053e f385 83bd 4259 663d 417a 5e3d
00000190: d59f 793c 21b1 dbbe 3b3b 8ebb 40a4 b9be
000001a0: 4c6f 893d 8516 823c 6b7a 80bc d422 c63d
000001b0: 433a 4ebd fefd 3f3c 86cd 0ebd 02db 28bd
000001c0: 2bd9 8dbb 777d 7abd f868 94bd 4746 983c
000001d0: bf66 133d 946c 393d 1b1c e8bc 1551 a63c
000001e0: 8dbb 083d ca9b 993c e516 d2bd 9d24 22be
000001f0: 1d24 313d a2ac 92bd 22c0 f3bd ea54 93bc
00000200: 783c d9bc c96d 2fbd e531 573d 1ae0 2fbd
00000210: 9173 33bd 5b7c 94bd 1beb fe3c 014c b73c
00000220: 284b 4dbd eec9 0f3c 9f09 cabd 08f8 84bd
00000230: a238 20bd 3f56 283c f641 96bd d7be b9bd
00000240: 5e12 6c3b 91ec a23c 0ad3 743d d138 8ebd
00000250: 90dc 5f3d b032 a2bd ecc1 84bd 3850 7dbd
00000260: 3dfc a23d fea0 60bd 3665 873c 07c5 6c3d
00000270: 102c 0d3d 0f8c 72bd e761 b7bc a9b3 113d
00000280: 183a 103d 47b5 3e3d 790f 9dbd 7884 e8bc
00000290: 9d77 973b 45c8 86bc 18e8 be3c e970 2abc
000002a0: cd0a 533d fa36 4fbb db54 9abd ece0 be38
000002b0: 8918 063d fbf1 7dbb 272f ad3b 1b09 bfbd
000002c0: 3570 18bc 3cfb d0bd 57fb ed3b 8265 3a3b
000002d0: cb90 843d c862 39bd e2f6 443d 8b7b cc3c
000002e0: 0637 853d ef42 a23d b3f7 96bb c682 ec3c
000002f0: 4df2 a4bd 9f0d 04bd e9f4 61bd 1738 07bd
00000300: 88ef 333d 0084 7ebc fd2b 8c3c 63e0 b0bd
00000310: d104 0d3d 97f0 9abd b83f e93c ca49 11bd
00000320: fa63 303d fd10 3e3d dcad 05bd 66be 7f3d
00000330: ecd1 a33c fc8b 1dbd 3ae6 94bd 019f 7ebc
00000340: 362a 8dbd d90b 20bd 8ee7 db3c c132 28bd
00000350: dd89 8c3d ad7b 98bc d5f2 86bd d7f3 51bd
00000360: 4336 80bd 70e2 8a3d 3884 723d bec4 82bd
00000370: fb5b b9bd c7d2 b0bd f639 81bd 9583 bdbd
00000380: 5bc8 a0bd 4501 903d 0b6e 723d ca56 e8bb
00000390: 9e1c 96bd 4934 4d3d c35b 9dbd 0cdf 97bd
000003a0: 9909 5a3d 4ab1 b13d e3ba 773d ab81 673d
000003b0: a0ca 793d e3e7 9b3d fc68 2cbd b2d6 903d
000003c0: 4bdc 94bd 1376 373d 1b24 203b c805 2a3c
000003d0: 9bea c1bd 69a5 8bbd f282 22bd 0c2f ba3c
000003e0: 8090 993d b3f6 afbd 4e84 163d 2bc0 18bd
000003f0: f5d8 2bbd ca80 793d dd33 a6bd 33cd 38bc
0.07517827 0.055900328 -0.014021938 0.034088273 0.05832176 0.02783653 0.021896135 0.04385343
-0.108442254 0.03593032 0.1556526 -0.036553603 -0.094928995 0.06512225 0.02620748 0.029968686
0.08838186 -0.062786095 0.04461666 0.03357492 -0.032732982 0.01610144 0.093399525 -0.052646365
-0.08045515 0.062894166 0.03573619 0.00033467475 0.049038045 0.044109847 0.044166353 -0.026966333
-0.18641856 -0.4843542 -0.023577979 -0.0648424 0.07474722 -0.067162424 -0.0406829 -0.057825696
-0.068328604 0.046553686 -0.08205655 0.08008097 0.072664745 -0.050211836 0.03282241 -0.040655483
-0.04492324 -0.0042331503 -0.07544643 -0.06490027 0.03472453 0.051167276 -0.06669635 0.053318705
0.07234075 -0.041321803 0.02249789 0.046903927 0.072707616 -0.18035115 -0.10753034 0.059227884
0.08977663 -0.036553822 -0.093868166 0.011577697 0.057575006 -0.3705204 0.0029511296 0.08144818
0.05386955 0.016609408 0.06520744 0.005688671 -0.020540396 -0.36627 -0.14606106 -0.006432952
0.028454045 0.033564784 -0.03426489 -0.1145961 0.0384197 0.048226785 0.04555907 0.0034379181
0.02109909 0.031656124 -0.023194924 0.046291906 -0.2509091 0.16116436 0.10541436 0.05067926
0.13053326 -0.06422033 0.056237467 0.05431581 0.015235861 -0.42908576 -0.004340557 -0.36258125
0.06710681 0.015879879 -0.015683373 0.09674612 -0.05034853 0.011718271 -0.03486397 -0.041224487
-0.004328867 -0.06115481 -0.07246584 0.018588198 0.03598666 0.045269564 -0.028333714 0.020302335
0.033381987 0.018751044 -0.10258273 -0.1583428 0.04324733 -0.07161833 -0.11901881 -0.017984826
-0.026518092 -0.04282931 0.052537818 -0.04293833 -0.043811385 -0.072502814 0.031117966 0.022375109
-0.050120503 0.008776171 -0.09865116 -0.06492621 -0.03911651 0.010274469 -0.073368 -0.09069603
0.003602169 0.019888194 0.059771575 -0.069444306 0.054653704 -0.07919824 -0.064823 -0.06184408
0.07958267 -0.054841034 0.016527753 0.057805087 0.03446585 -0.0592156 -0.02238555 0.035571728
0.035211653 0.0465596 -0.07668967 -0.028383479 0.0046224133 -0.016452918 0.02330403 -0.010402896
0.051523972 -0.0031618462 -0.07535716 9.101801e-05 0.032738242 -0.0038748968 0.005285162 -0.093279086
-0.009304096 -0.10204169 0.007262628 0.002844185 0.064729296 -0.04526022 0.04808701 0.024961254
0.065046355 0.07922923 -0.0046071648 0.028870951 -0.08054028 -0.032239553 -0.055165205 -0.033012476
0.043929607 -0.015534401 0.017110819 -0.08636548 0.03442842 -0.0756542 0.028472766 -0.03547076
0.043064095 0.04640292 -0.03263651 0.062437437 0.01999756 -0.038463578 -0.07270475 -0.015540839
-0.06892817 -0.0390738 0.026843812 -0.041064028 0.06862233 -0.01861366 -0.06589285 -0.051257934
-0.062603496 0.06781471 0.059208125 -0.06385182 -0.09050747 -0.086339526 -0.06309883 -0.09253613
-0.07850715 0.07031492 0.059186976 -0.007090424 -0.07329677 0.05009869 -0.07683518 -0.0741559
0.05323181 0.08676393 0.060480963 0.056520145 0.060984254 0.07612588 -0.04209231 0.070722
-0.0726858 0.04479034 0.0024435583 0.010377355 -0.094685756 -0.06818659 -0.03967566 0.022727512
0.07498264 -0.08591976 0.03674727 -0.03729264 -0.041954953 0.06091384 -0.08115361 -0.011279392

fc2.bias f4 [128]
00000000: 38c3 a73e 83bc acbd 4567 02bd 8148 96bd
00000010: 83fe fbbd 24a4 11be b01d cb3e eae7 19be
00000020: ab8f e23e 4369 e5bd 706b 78be 1c0c b4be
00000030: d1aa 5ebc 6515 cf3e 364b 863e b316 7bbb
00000040: 4bd2 dcbc 2bae 79bd 1a00 e8bd 40a7 e73e
00000050: a33d c1bd f6a5 92bd b471 41bd 8d1f 76bd
00000060: 7d15 ab3c e3e8 b1bd 35a5 50bc b28c d4bd
00000070: ba29 8bbd a9d2 d8bb 3b11 94bd 5a9b ccbc
00000080: bc0b 75bd 6e07 ccbc 508e dd3e 81e6 5dbd
00000090: 9630 24be c1f8 503e 4b43 483e be98 07bd
000000a0: c168 c8bd f7ad 13be c3d2 d9bd 2de6 513d
000000b0: 8bf3 ab3c ad0a 28be 0bec 50bd 8db9 90bd
000000c0: 43a5 b3bd 3977 95bd 4a31 d7bd 6171 b63e
000000d0: 7459 153c e265 a93e 20eb 12bd cb80 25be
000000e0: 14dd 4dbd a9bd 6fbd 1b69 cbbd 4978 9fbd
000000f0: 7690 90be 7d87 913c 80f6 d9bd ee26 04be
00000100: 78ca 42be b9e6 56be bf0f cf3c 0fd5 46be
00000110: 75de 1f3e 0858 bfbd 8e6c 123e 907b 95bc
00000120: 4a40 84bd 60b0 913c 8afe 05be 3b76 c9bd
00000130: 1648 d43e b03c 3e3d f9ee 463e b8e2 03be
00000140: af41 033f bb52 3ebd 7d69 9b3c c355 cabc
00000150: 847c 31bc a29c ba3d 11be c1bd 07fa 0d3d
00000160: 2b2d b73e 6bce 923c 110b bdbc f996 9fbe
00000170: 1de3 e2bc 767f 0f3e 85fc a6be 55a2 50bc
00000180: 6308 6ebe de81 7abd c4a4 c8bd f32d 7cbd
00000190: 352f 6ebd 1492 033d cf3b 353e 6d19 743d
000001a0: 33dd 46be 96fd b4bd 9e66 d6bc edc5 93be
000001b0: 69c3 953c 072a 4abd 889b 403e 3e49 62bd
000001c0: 4bc0 a0be b85c 11bd 6a72 51bd ece9 f03e
000001d0: 32d8 0dbe 36a8 d8bd 8d98 74be de4b c8ba
000001e0: 6ea5 75be 5025 55bc 79e5 86bd c656 42be
000001f0: 1ada dabd c433 4f3d 4ebe 2bbe e81f 1cbd
0.32766128 -0.08434393 -0.031836767 -0.07338048 -0.12304404 -0.14222771 0.39671087 -0.15029874
0.44250235 -0.11201718 -0.24259734 -0.3516549 -0.0135905305 0.4044601 0.26229256 -0.003831309
-0.026955744 -0.060957115 -0.11328144 0.4524479 -0.094355844 -0.07160561 -0.047227576 -0.060088683
0.02088427 -0.08686998 -0.012734701 -0.10378398 -0.06795068 -0.0066169095 -0.07229849 -0.024976421
-0.059825644 -0.024905887 0.43272638 -0.054174904 -0.16034159 0.20407392 0.1955692 -0.03310465
-0.09785605 -0.14421831 -0.10635903 0.051244903 0.020990154 -0.16410322 -0.051006358 -0.07066641
-0.087717555 -0.072981305 -0.10507448 0.35633376 0.009115566 0.33085543 -0.035868764 -0.16162412
-0.050259665 -0.058530483 -0.09932157 -0.077866144 -0.28235215 0.017764801 -0.10642719 -0.12905475
-0.19022548 -0.20986451 0.025276063 -0.19417213 0.15612204 -0.093429625 0.14299223 -0.018247396
-0.06457575 0.017784297 -0.1308538 -0.09837004 0.41461247 0.046444595 0.19427098 -0.12879455
0.512721 -0.046465617 0.0189712 -0.024699097 -0.0108329095 0.091119066 -0.094600804 0.034662273
0.35776648 0.017920693 -0.023076566 -0.3116987 -0.027696187 0.14013466 -0.32614532 -0.0127340155
-0.23245387 -0.061159007 -0.097970515 -0.061567258 -0.05815049 0.032121733 0.17698596 0.05959456
-0.19420318 -0.0883743 -0.026171979 -0.28861943 0.018281655 -0.049356487 0.1880933 -0.05524563
-0.31396708 -0.035488814 -0.051134504 0.47053468 -0.13852003 -0.10578959 -0.23886319 -0.0015281399
-0.23988888 -0.013009384 -0.06586737 -0.18978414 -0.10686131 0.050586477 -0.16771814 -0.038116366

fc3.weight f4 [1, 128]
00000000: 4c38 763d 04a4 ad3c c243 c13a 2d4d d63c
00000010: a31a 6439 8f4e f4bc 9243 833d 2670 4b3c
00000020: f610 813d 4aab 213c 6e6a 6bbd 3279 35bd
00000030: 4273 11bd feac 3a3c d5b8 fd3c f2c1 8c3c
00000040: 933b fb3c 9e70 e1bc b258 edbc c4db 693d
00000050: f0e1 b73c d7b4 87bb ef2e 263c b7a1 e7bc
00000060: 7580 c2bc 5fda e7bc 4b71 df3c 623a 6dbd
00000070: 91d2 72bd c642 71bd 8643 97bc d5f8 a4bc
00000080: 3d4a 8bbd ffc6 87bc a871 4c3d 9e5d 46bc
00000090: 7e7a 1ebd 76e6 563d e462 3e3d f356 efbc
000000a0: 2f28 2dbb 0bdd f13c 3db9 ecbc 601f 943d
000000b0: 722e 99bc 8b50 89bc d526 16bd b2ec 3f3c
000000c0: bf2d a7bd c604 833c b7fb ccbc 290a c03c
000000d0: 809e 41bb abcf a63d 6524 d4ba 3375 1b3c
000000e0: 86a5 813c fd03 2bbc f54c fdbb bc0a 17bc
000000f0: 0100 b8bc c832 7b3b 0970 1d3d 177b de3c
00000100: 527b 99bc 4b1a 57bd e08e 903c 8cfc 16bd
00000110: c714 2abb 0a89 febc b647 ba3d 419f 74bc
00000120: d9a1 8ebc 0989 00bd f010 afbc 8da2 2d3c
00000130: 64f2 2f3d c881 3a3d ead0 823d 07a9 ec3b
00000140: 78de a93c 4a69 f43c 70b6 243d 5454 84bd
00000150: c4f1 cfbb 1eb4 ae3d d00e dfbc 9a74 16bc
00000160: cd68 6b3d e19d d43c b413 1cbc 3b78 00bd
00000170: f68a 513c 18b6 b63c 2ff0 33bd f86b 10bd
00000180: 1980 2abd b1cb be3c 82af bf3a 1fc9 50bb
00000190: f266 a13c d0ac f0bc 80a6 0e3d ef4f e73c
000001a0: bc5d a4bd a025 6dba 0a43 263b a4cf e3bc
000001b0: ef37 17bd 679a 1f3c 8bec 563d 17fb 08bd
000001c0: b2f8 1ebd 3eb5 98bb 4624 1c3c 58bf ed3c
000001d0: a601 8dbc 9382 15bc 4486 babd 6b65 1bbd
000001e0: 6ffa 7dbd 84d5 a43c 0dbb 6abc 1d0c 07bd
000001f0: 300e a23c a5c6 5fbc 0f1d 59bd 482c 083d
0.060112283 0.021196373 0.0014744925 0.026159847 0.00021753697 -0.029822616 0.064093724 0.012416875
0.06302063 0.009867499 -0.057474546 -0.044305034 -0.03551031 0.011393784 0.030971924 0.017182324
0.030668056 -0.02751952 -0.028972957 0.05709435 0.022446603 -0.004141431 0.010143026 -0.028275354
-0.023742894 -0.02830237 0.027275702 -0.057917006 -0.059282843 -0.05890157 -0.018464815 -0.020138184
-0.06801269 -0.01657438 0.04991308 -0.012107281 -0.038691036 0.05246588 0.04648103 -0.029216265
-0.0026421656 0.029524347 -0.028896922 0.07232547 -0.018698905 -0.016762039 -0.036658127 0.011714147
-0.08163022 0.015993487 -0.02502237 0.023442345 -0.0029543936 0.08145078 -0.0016185163 0.009488392
0.015825998 -0.010437963 -0.0077301213 -0.009218868 -0.02246094 0.0038329829 0.038436923 0.027158303
-0.018735562 -0.05251531 0.017646253 -0.03686194 -0.0025952326 -0.031071205 0.09095709 -0.014930547
-0.01741116 -0.031380687 -0.021370381 0.010597837 0.04295577 0.045533925 0.063875034 0.007222298
0.020735964 0.029835362 0.04021305 -0.06461397 -0.0063459594 0.085304484 -0.027228743 -0.009183073
0.057472993 0.025954189 -0.009526182 -0.03136466 0.0127894785 0.022303626 -0.04393023 -0.035259217
-0.04162607 0.023290487 0.0014624449 -0.0031858159 0.019702408 -0.029379278 0.034826756 0.028236357
-0.08025691 -0.0009046439 0.0025369548 -0.027808972 -0.036918577 0.009741402 0.05247168 -0.033442583
-0.038811393 -0.0046602776 0.009530133 0.029021904 -0.0172127 -0.00912537 -0.091076404 -0.037938517
-0.06200641 0.020121343 -0.014326823 -0.032970537 0.019782156 -0.0136582 -0.053006228 0.033245355
