saved_models/episode_700/agent_10.pth (torch, 738530 bytes, 44 tensors)

fc1.weight f4 [128, 5]
0.38380742 -0.4131521 0.3656596 0.039109897 0.08686761 0.36855987 -0.21746686 -0.24626754
0.35502636 0.41699505 0.19499598 -0.30621788 0.12400574 -0.33688173 -0.1656674 -0.3220166
-0.2884809 0.3796043 0.37782812 0.062269554 0.16232145 0.08749 -0.15051156 -0.16577181
0.3450368 0.017145576 0.33691958 0.4342731 -0.07352318 -0.23844369 0.29563567 0.3360559
0.23728025 0.44543085 -0.2136898 0.17356363 -0.05054009 -0.07603344 0.069048144 0.08596674
-0.29423848 0.31362784 0.04228146 0.021537745 -0.08613516 0.1427307 0.3410026 -0.09434125
-0.08352859 -0.2810906 0.3861874 -0.41280183 0.08575802 -0.3504003 0.1858355 0.2095048
0.079037726 0.056237184 0.35276228 0.42873403 0.2964228 -0.11636916 -0.4232548 -0.34543833
-0.3618495 -0.2377221 -0.2318922 0.24007057 0.43098184 -0.34394354 0.12831818 -0.3344531
-0.039568372 0.037452888 0.26081273 0.1720399 -0.2208208 0.18450645 -0.3280658 0.35441428
0.22488594 -0.30708632 0.15138656 -0.39424208 0.14784418 -0.07335435 0.15636793 0.067500524
-0.41381693 -0.29250696 -0.23773035 0.34075662 0.32905915 0.39549324 0.22826557 -0.11030181
0.39859965 0.4132708 0.20224236 -0.03351076 -0.3091031 0.24566144 0.12388699 -0.028705744
-0.30959305 0.059576016 0.18083794 0.15377271 0.0625586 0.25883573 0.3379264 -0.20281684
-0.29867324 -0.40488118 0.2683366 -0.06409918 -0.34602243 0.08633803 0.4437582 -0.37929255
-0.43672064 -0.039806187 -0.27228785 0.33688176 0.08573654 0.1489963 -0.08260348 0.12006382
-0.25709108 0.029628525 -0.29448986 -0.02229146 0.04908096 -0.19946206 0.31861708 -0.0764071
-0.31272817 -0.006292154 0.40534335 -0.32082796 0.34295616 -0.012681466 -0.22219948 -0.3208662
-0.40128887 0.03350092 -0.09318651 0.2843098 -0.3013635 -0.22044337 0.33365244 -0.29747358
0.078175634 0.1688289 0.0104201 0.17271787 0.23332524 0.26307788 0.35833663 -0.005314248
-0.080437444 0.36567158 0.06542326 -0.116139084 0.27651453 0.0036158836 0.17190038 0.43388224
-0.14932255 -0.4169807 -0.22648676 -0.42857888 -0.4494422 0.3968702 0.4407179 -0.28456202
0.043720543 0.19932295 0.21776249 -0.44206354 -0.04633124 -0.27515706 0.45517603 0.019024763
-0.087446794 0.29778153 0.10196966 0.32370147 -0.352399 0.40843555 -0.23999567 -0.12524532
0.31256503 0.2958339 -0.22110598 0.15250182 -0.26864937 0.23707163 0.3937593 0.31386948
-0.38731563 0.3119326 -0.14848721 0.41236714 -0.2846989 -0.37345454 -0.44037536 -0.31851172
0.18399127 -0.41949636 0.36091822 0.20248105 0.15211745 -0.07848355 -0.31695315 0.0072786985
0.21101154 -0.22152962 0.35924143 -0.14870326 -0.32069036 0.24255045 -0.09773471 -0.42724305
0.27296403 0.07420083 0.32935986 0.49153143 -0.0670189 -0.23895463 0.27324837 -0.2170843
0.31134492 0.22337602 0.0725407 -0.4145786 -0.4427096 -0.132017 0.14306448 0.38077557
0.22158773 0.11147095 0.3727052 0.053965252 0.15591733 0.353795 0.4053373 0.4936852
0.1204028 -0.18768942 0.3030454 -0.19941288 -0.006366109 0.20689651 -0.23762673 0.25817135
00000000: 6882 c43e ac88 d3be bc37 bb3e b331 203d
00000010: a5e7 b13d e1b3 bc3e a2af 5ebe 8f2d 7cbe
00000020: 04c6 b53e 6080 d53e 07ad 473e 97c8 9cbe
00000030: b9f6 fd3d c37b acbe b7a4 29be 5cdf a4be
00000040: c5b3 93be 7f5b c23e b072 c13e 5c0e 7f3d
00000050: 9837 263e f52d b33d b41f 1abe 16c0 29be
00000060: aaa8 b03e e174 8c3c b980 ac3e 0b59 de3e
00000070: 5293 96bd 952a 74be 8f5d 973e 850f ac3e
00000080: 98f9 723e 830f e43e 80d1 5abe aaba 313e
00000090: 2003 4fbd 6cb7 9bbd 1d69 8d3d 550f b03d
000000a0: 6da6 96be d493 a03e 532f 2d3d ed6f b03c
000000b0: a167 b0bd ff27 123e e597 ae3e fc35 c1bd
000000c0: 0a11 abbd 1beb 8fbe 5bba c53e c35a d3be
000000d0: e7a1 af3d ab67 b3be a94b 3e3e 6d88 563e
000000e0: 88de a13d f658 663d 429d b43e 0783 db3e
000000f0: bbc4 973e f452 eebd dab4 d8be 4bdd b0be
00000100: 5644 b9be 6c6d 73be 2675 6dbe 0fd5 753e
00000110: a7a9 dc3e 5e19 b0be d765 033e 703d abbe
00000120: 7212 22bd 3368 193d 3f89 853e 3a2b 303e
00000130: d91e 62be 42ef 3c3e 3ef8 a7be ca75 b53e
00000140: 8048 663e 6b3a 9dbe 1405 1b3e 19da c9be
00000150: 7764 173e ce3a 96bd ea1e 203e b73d 8a3d
00000160: d0df d3be 79c3 95be 966f 73be a777 ae3e
00000170: 717a a83e 177e ca3e 73be 693e eae5 e1bd
00000180: 4115 cc3e 3b98 d33e 9f18 4f3e 9442 09bd
00000190: c342 9ebe ac8e 7b3e 76b8 fd3d 4f28 ebbc
000001a0: fb82 9ebe fb05 743d 952d 393e 9876 1d3e
000001b0: b91e 803d 1e86 843e b004 ad3e 38af 4fbe
000001c0: b3eb 98be 964c cfbe 6a63 893e 6e46 83bd
000001d0: da29 b1be fed1 b03d 4634 e33e a232 c2be
000001e0: d999 dfbe d00b 23bd 5069 8bbe c47b ac3e
000001f0: a496 af3d 7c92 183e 032c a9bd 05e4 f53d
00000200: 71a1 83be 85b7 f23c 60c7 96be 949c b6bc
00000210: 1e09 493d c83f 4cbe c721 a33e 537b 9cbd
00000220: e81d a0be 6a2e cebb 2a89 cf3e 9043 a4be
00000230: f397 af3e ecc5 4fbc 4388 63be 9348 a4be
00000240: bc75 cdbe 4338 093d 92d8 bebd 0e91 913e
00000250: 514c 9abe e8bb 61be 7ed4 aa3e 754e 98be
00000260: 8c1a a03d 7ce1 2c3e 11b9 2a3c f4dc 303e
00000270: d0ec 6e3e 25b2 863e e677 b73e 2523 aebb
00000280: 63bc a4bd 4e39 bb3e a1fc 853d 54da edbd
00000290: 5093 8d3e 76f8 6c3b a706 303e d025 de3e
000002a0: 03e8 18be 7f7e d5be 25ec 67be b16e dbbe
000002b0: 4a1d e6be 9232 cb3e c7a5 e13e 1db2 91be
000002c0: 5014 333d 511b 4c3e 21fd 5e3e 2756 e2be
000002d0: d4c5 3dbd 63e1 8cbe d50c e93e d2d9 9b3c
000002e0: 4e17 b3bd d276 983e 78d5 d03d 33bc a53e
000002f0: a46d b4be 771e d13e 6dc1 75be 4f40 00be
00000300: 8608 a03e 8a77 973e 9b69 62be 7029 1c3e
00000310: 698c 89be e8c2 723e d29a c93e 80b3 a03e
00000320: 3c4e c6be a1b5 9f3e 080d 18be c921 d33e
00000330: 0ec4 91be 6f35 bfbe e178 e1be f813 a3be
00000340: 3568 3c3e 3ac8 d6be 46ca b83e 3157 4f3e
00000350: adc4 1b3e fcbb a0bd af47 a2be 2682 ee3b
00000360: 6913 583e a9d8 62be 7eee b73e ab45 18be
00000370: 8731 a4be 255f 783e 2329 c8bd 9abf dabe
00000380: f1c1 8b3e 9bf6 973d dba1 a83e 02aa fb3e
00000390: 3441 89bd 86b0 74be 36e7 8b3e 594b 5ebe
000003a0: 9a68 9f3e afbc 643e 3890 943d a543 d4be
000003b0: d5aa e2be 772f 07be 7f7f 123e 04f5 c23e
000003c0: e5e7 623e e24a e43d 37d3 be3e ab0a 5d3d
000003d0: cba8 1f3e 9e24 b53e 5f88 cf3e 4ec4 fc3e
000003e0: be95 f63d a831 40be c428 9b3e e432 4cbe
000003f0: cb9a d0bb aedc 533e 6c54 73be 092f 843e

fc1.bias f4 [128]
-0.21748206 0.10526594 -0.31432784 -0.33212504 0.2864993 -0.34157437 -0.03396343 -0.4214768
0.36467007 -0.004225745 0.088262185 -0.16109511 -0.023155633 0.1583987 -0.436373 -0.35073715
0.14322372 -0.37450853 0.06604771 0.16975027 0.10461574 -0.17634942 -0.40456277 0.36334267
-0.24210322 -0.082574666 -0.33036214 0.41117102 -0.17731518 -0.42684653 0.37382707 -0.39221373
0.12199884 -0.06794647 -0.29240975 -0.24563181 -0.40772945 0.08523024 0.43592262 0.09979754
0.3680141 -0.2939728 0.08076497 0.10586397 0.14182082 -0.163402 -0.29595962 -0.35031298
0.44049725 -0.29497248 0.16668558 -0.15891227 0.17438217 -0.16905479 -0.22938918 0.19539142
-0.24834512 0.05394746 0.52814007 0.1793433 0.0609786 -0.123176545 -0.19702831 0.44850403
0.42379862 0.14524825 -0.38794523 -0.31387174 -0.04340745 0.01269503 0.40887222 0.10258542
0.26710978 -0.06560699 0.25096714 -0.14208424 -0.11154515 0.44491172 -0.013590933 -0.09080821
-0.32872173 -0.26080275 -0.14079513 0.44420007 -0.07603739 0.008514879 0.2279981 0.03803956
-0.22911792 0.076762825 0.38998216 -0.2989796 -0.000118541786 -0.1347863 0.099294946 0.38988027
0.028018286 -0.08405279 0.23278587 -0.0009121413 0.28499973 -0.34235868 -0.4330368 0.056780815
0.45857304 -0.011551528 -0.22349519 -0.2974936 -0.3119906 0.12565573 0.3659762 0.36582732
-0.2618 0.056250837 0.30490237 -0.09604375 -0.07846436 0.2705774 0.40274885 -0.16150875
-0.17767365 0.3324662 -0.16021383 -0.24451205 -0.23241214 -0.12650867 -0.12171117 0.420464
00000000: 9eb3 5ebe ab95 d73d 94ef a0be 4b0c aabe
00000010: 09b0 923e d6e2 aebe 3d1d 0bbd cfcb d7be
00000020: 09b6 ba3e 1e78 8abb cec2 b43d 1ef6 24be
00000030: e2b0 bdbc 4533 223e 486c dfbe d293 b3be
00000040: 3da9 123e 95bf bfbe 0644 873d 04d3 2d3e
00000050: c740 d63d f194 34be da22 cfbe 0d08 ba3e
00000060: e8e9 77be e81c a9bd 3a25 a9be 0285 d23e
00000070: 1c92 35be a18b dabe 4366 bf3e 3dd0 c8be
00000080: 87da f93d 8527 8bbd bbb6 95be e886 7bbe
00000090: eac1 d0be 318d ae3d 4031 df3e a762 cc3d
000000a0: 586c bc3e 9a83 96be 1b68 a53d 36cf d83d
000000b0: 7a39 113e db52 27be 0588 97be 395c b3be
000000c0: db88 e13e a206 97be a0af 2a3e e6b9 22be
000000d0: 3d91 323e b31c 2dbe ffe4 6abe b014 483e
000000e0: 2f4e 7ebe 03f8 5c3d 3034 073f c5a5 373e
000000f0: b2c4 793d fc43 fcbd cac1 49be 52a2 e53e
00000100: 22fc d83e f5bb 143e c2a0 c6be ccb3 a0be
00000110: 03cc 31bd d1fe 4f3c b357 d13e 4e18 d23d
00000120: 9dc2 883e f55c 86bd c47e 803e 887e 11be
00000130: c971 e4bd 78cb e33e 81ac 5ebc a8f9 b9bd
00000140: 374e a8be f087 85be 992c 10be 316e e33e
00000150: 7eb9 9bbd fe81 0b3c 5578 693e 5fcf 1b3d
00000160: e39d 6abe d435 9d3d beab c73e db13 99be
00000170: a399 f8b8 6b05 0abe 265b cb3d 639e c73e
00000180: 9b86 e53c df23 acbd 6b5f 6e3e c41c 6fba
00000190: 7ceb 913e a349 afbe 00b7 ddbe 0093 683d
000001a0: 16ca ea3e 9f42 3dbc ecdb 64be 1551 98be
000001b0: 3bbd 9fbe e5ab 003e 3c61 bb3e b84d bb3e
000001c0: a60a 86be 4767 663d 2a1c 9c3e 96b2 c4bd
000001d0: ecb1 a0bd 1f89 8a3e 1935 ce3e 8d62 25be
000001e0: 15f0 35be 0339 aa3e 180f 24be 5e61 7abe
000001f0: 73fd 6dbe 7d8b 01be b543 f9bd 0f47 d73e

fc2.weight f4 [128, 128]
0.06472723 -0.0151550425 0.11509966 0.09329521 -0.049600106 0.031274773 0.12396303 0.11200303
-0.04569864 0.057455793 0.026345104 0.117592834 0.10094718 0.010048964 0.012760695 0.099651664
-0.03290113 0.086572826 0.06064924 0.051350966 0.014079228 0.05186585 0.05620785 0.07973159
0.044361435 0.11637562 0.045304667 0.10945642 -0.008621388 0.0013242499 0.07742199 0.09414424
0.10032427 -0.0041223275 0.06985347 0.026284108 0.0832552 -0.01849624 0.11026586 0.09246002
0.109530486 -0.02288183 -0.04049586 0.10385995 -0.03598845 0.086498946 0.102014266 0.08059728
0.040306814 0.09801918 0.1074534 -0.0071446635 -0.07881902 0.023218246 -0.02313399 0.08112541
0.09630231 0.101177454 0.13214687 0.017159157 0.019432412 -0.020707803 -0.024052521 0.094025746
0.101633325 0.01152251 -0.0005529245 0.014591441 -0.002084103 0.0036763009 0.047954913 0.10907464
0.06678817 0.005545962 0.082379274 -0.072623394 0.0038038373 0.05025869 -0.024471778 -0.027419595
0.099524416 0.10216303 0.03587754 0.0643135 0.025538221 -0.03810563 0.12131522 0.12949088
0.073490225 -0.025255729 0.10380998 -0.05389964 0.08873415 -0.049805146 -0.037533578 0.035375852
0.11385966 0.04571718 -0.04347916 -0.00086148526 -0.045299962 -0.01046678 -0.0020259146 0.044560354
0.0031568678 -0.03730275 0.032901876 0.012595074 0.013555322 0.008443097 0.0012481516 -0.035056803
-0.021545587 0.060593963 0.11600105 -0.010445772 0.057478044 0.04064544 0.062635034 -0.0035443758
-0.011445602 -0.073412254 -0.006236297 -0.020281153 -0.0065119374 0.10018899 -0.026249014 -0.058546655
0.05292856 -0.015931759 -0.022897536 0.045023054 -0.024765572 0.10001834 0.119738676 -0.038219586
0.024301833 0.11712201 0.093340605 0.019771704 0.040000055 0.018836558 0.10742591 0.027859194
-0.029207379 0.08609913 -0.04586342 0.07148778 0.12664382 0.120713905 0.057349764 0.14371467
0.052375052 -0.044864472 -0.015832042 -0.007407931 0.024949374 0.012420849 0.00018583983 -0.027219178
0.0156101445 0.045853473 0.029767735 -0.049379382 0.0023832028 0.06269368 -0.034293503 -0.03294084
0.14149557 -0.060776677 0.093062826 -0.009984898 -0.0017780967 0.113849275 0.011715479 -0.052178074
0.05229715 0.09399329 0.0054648607 -0.015459121 0.020972745 -0.02565405 -0.045998994 -0.02709298
0.12218559 0.023425376 0.00054423604 0.07839851 0.081743665 0.028964257 0.07747604 0.04230017
0.0785489 -0.05485532 -0.031835422 -0.08336365 -0.055328045 0.053526804 -0.026627827 0.019036101
-0.025170038 0.012288669 0.015720306 0.0062209615 -0.056761783 -0.033251565 0.0008129922 0.03221658
-0.014523066 0.09482557 0.050678607 -0.0415899 -0.022287091 0.07209409 0.11081662 0.006347109
0.0879968 0.021970665 0.09864371 -0.048910588 0.11039975 0.0856537 0.030726291 0.06532803
0.05015586 0.029923383 0.050811537 0.10345344 0.11628425 0.07891528 -0.04153121 0.037849028
-0.007708148 -0.045928705 -0.012542288 0.032218814 -0.0076230136 0.039186377 0.08418793 0.07663559
-0.01525908 -0.04711108 0.063884154 0.056434877 -0.025816219 0.075524904 0.054767657 0.07782983
0.024817575 0.08020004 -0.013975426 0.041080218 -0.02184721 0.01233323 -0.03585934 -0.064813465
00000000: b68f 843d db4c 78bc 5fb9 eb3d 8f11 bf3d
00000010: 7b29 4bbd fa19 003d 54e0 fd3d d861 e53d
00000020: 7f2e 3bbd c456 6b3d b0d1 d73c 83d4 f03d
00000030: 65bd ce3d 69a4 243c 3c12 513c 2c16 cc3d
00000040: 56c3 06bd 184d b13d 566b 783d 6455 523d
00000050: 90ac 663c 4971 543d 343a 663d 514a a33d
00000060: 56b4 353d 5756 ee3d 6391 393d b02a e03d
00000070: b940 0dbc 7492 ad3a 6c8f 9e3d b2ce c03d
00000080: d076 cd3d 9714 87bb 560f 8f3d c551 d73c
00000090: b481 aa3d 6d85 97bc 11d3 e13d ae5b bd3d
000000a0: 8551 e03d ad72 bbbc fdde 25bd 87b4 d43d
000000b0: a068 13bd 5c26 b13d dbec d03d 3010 a53d
000000c0: c218 253d 48be c83d 8710 dc3d c81d eabb
000000d0: de6b a1bd 3134 be3c 7e83 bdbc 1425 a63d
000000e0: 253a c53d 2036 cf3d 8251 073e 5c91 8c3c
000000f0: b930 9f3c 69a3 a9bc cb09 c5bc 9290 c03d
00000100: 2225 d03d e9c8 3c3c 23f2 10ba f010 6f3c
00000110: 7295 08bb 18ee 703b 5f6c 443d 8662 df3d
00000120: 3cc8 883d e7ba b53b 77b6 a83d 93bb 94bd
00000130: cd49 793b 0edc 4d3d 0a79 c8bc 0f9f e0bc
00000140: 75d3 cb3d da3a d13d 54f4 123d ccb6 833d
00000150: 8835 d13c a614 1cbd 1d74 f83d 4299 043e
00000160: 0b82 963d 1ae5 cebc 549a d43d dec5 5cbd
00000170: 40ba b53d 7b00 4cbd cfbc 19bd 45e6 103d
00000180: 412f e93d f041 3b3d 3417 32bd 4cd5 61ba
00000190: 748c 39bd db7c 2bbc 35c5 04bb eb84 363d
000001a0: 74e3 4e3b c5ca 18bd 1ec4 063d 925b 4e3c
000001b0: 2417 5e3c ea54 0a3c 0599 a33a b997 0fbd
000001c0: 5f80 b0bc 6031 783d f591 ed3d be24 2bbc
000001d0: 196e 6b3d d57b 263d cc46 803d c248 68bb
000001e0: 5686 3bbc 2a59 96bd da59 ccbb a924 a6bc
000001f0: 1762 d5bb e32f cd3d 2c08 d7bc 9ece 6fbd
00000200: 9ecb 583d 5283 82bc 9d93 bbbc 186a 383d
00000210: 2be1 cabc 6ad6 cc3d 8d39 f53d 248c 1cbd
00000220: a314 c73c aadd ef3d 5c29 bf3d 45f8 a13c
00000230: 19d7 233d 204f 9a3c 1e02 dc3d f738 e43c
00000240: 5044 efbc be54 b03d 48db 3bbd 2f68 923d
00000250: ebae 013e da38 f73d 96e7 6a3d f029 133e
00000260: 3987 563d cfc3 37bd 33b2 81bc 3bbe f2bb
00000270: a162 cc3c d180 4b3c 00de 4239 c1fa debc
00000280: b1c1 7f3c dad0 3b3d 77db f33c 0942 4abd
00000290: 822f 1c3b 8b65 803d 5877 0cbd f9ec 06bd
000002a0: 37e4 103e f7f0 78bd b997 be3d b397 23bc
000002b0: 060f e9ba cf29 e93d 48f2 3f3c adb8 55bd
000002c0: 8935 563d 8e7f c03d 9312 b33b 4148 7dbc
000002d0: 09cf ab3c 7128 d2bc 7169 3cbd 19f2 ddbc
000002e0: 703c fa3d 93e6 bf3c 10ab 0e3a 668f a03d
000002f0: 3969 a73d 7346 ed3c c2ab 9e3d f142 2d3d
00000300: 3fde a03d f9af 60bd dc65 02bd 90ba aabd
00000310: a99f 62bd ec3e 5b3d 9a22 dabc 99f1 9b3c
00000320: 6531 cebc 6a56 493c dfc7 803c 35d9 cb3b
00000330: 0b7f 68bd cb32 08bd fc1e 553a 88f5 033d
00000340: 27f2 6dbc e933 c23d 5f94 4f3d 2c5a 2abd
00000350: 6b93 b6bc 11a6 933d d3f3 e23d 69fb cf3b
00000360: ab37 b43d d3fb b33c b705 ca3d 7856 48bd
00000370: 4419 e23d 356b af3d b4b5 fb3c b4ca 853d
00000380: 3b70 4d3d e221 f53c c21f 503d 66df d33d
00000390: 7026 ee3d 569e a13d a11c 2abd 9507 1b3d
000003a0: a294 fcbb bd1f 3cbd 2b7e 4dbc e0f7 033d
000003b0: 79ca f9bb e581 203d b96a ac3d 1ff3 9c3d
000003c0: 3801 7abc 8cf7 40bd b2d5 823d 4228 673d
000003d0: 897c d3bc cdac 9a3d 0d54 603d 3f65 9f3d
000003e0: 3a4e cb3c eb3f a43d 2ff9 64bc bb43 283d
000003f0: ecf8 b2bc 5111 4a3c 3ee1 12bd ecbc 84bd

fc2.bias f4 [128]
-0.0353736 0.14063412 0.041087665 -0.10825128 -0.081418954 0.007047235 0.09002255 0.08388239
0.031349342 0.014996651 0.039290756 0.016035847 0.058182616 -0.0031356306 0.014732689 -0.089542314
0.060754314 -0.07179498 -0.006241091 -0.07659641 -0.008606618 -0.055750873 -0.08214385 -0.030647326
-0.049477186 -0.005685161 0.080820665 0.040874682 -0.059729878 -0.014927506 -0.108413495 -0.06976819
0.00021949038 -0.05742823 0.08540912 0.005947811 -0.00047732115 0.010522417 0.064385206 0.12869312
0.042672176 0.03453399 0.15862669 -0.058065087 0.02368964 -0.093809485 -0.033826783 0.032554395
-0.08920718 0.034286894 -0.043936014 -0.10036375 -0.036979243 -0.040668447 0.038820744 0.056901723
-0.06679589 -0.024971312 -0.01189216 -0.016592557 -0.031767238 -0.105010346 -0.09505935 0.051202197
0.058592685 -0.040832363 -0.0041833823 0.12845524 -0.06274132 0.0541564 -0.04088149 0.015571923
-0.009204248 0.1330136 -0.11444727 -0.10724813 -0.063897364 -0.07741502 -0.060183935 -0.077307366
-0.0016542836 -0.07235615 0.05782602 -0.013708726 -0.052753817 -0.02683805 -0.06920956 0.0716378
-0.06846318 0.0013425989 0.0017220925 -0.084044546 0.049146365 -0.08233999 0.05988445 0.028269408
-0.09810252 -0.022559252 -0.039922263 -0.09700222 0.034294207 -0.06129417 -0.06426405 0.0032069373
0.06530161 -0.080516204 -0.07585102 -0.052594505 -0.06383608 -0.026028924 0.008306438 0.010844654
-0.09130037 0.06245622 0.037985336 -0.07953512 -0.024081204 0.04475422 0.022105811 -0.058096558
-0.060889304 0.03901343 0.005182632 0.037168097 -0.009568138 0.051642697 0.06706204 0.12656204
00000000: e8e3 10bd 6402 103e 8a4b 283d d9b2 ddbd
00000010: fbbe a6bd 7eec e63b be5d b83d 88ca ab3d
00000020: 2b68 003d 83b4 753c 58ef 203d 9c5d 833c
00000030: e550 6e3d 277f 4dbb 6061 713c f661 b7bd
00000040: 84d9 783d 3f09 93bd 1182 ccbb 94de 9cbd
00000050: c602 0dbc 075b 64bd 093b a8bd 1a10 fbbc
00000060: 97a8 4abd 964a babb 4e85 a53d 366c 273d
00000070: 51a7 74bd 8092 74bc e507 debd a0e2 8ebd
00000080: 0027 6639 dd39 6bbd faea ae3d dbe5 c23b
00000090: f640 fab9 3766 2c3c 64dc 833d 21c8 033e
000000a0: 05c9 2e3d 8373 0d3d 096f 223e a8d5 6dbd
000000b0: c710 c23c 301f c0bd f48d 0abd c257 053d
000000c0: 41b2 b6bd 6a70 0c3d 40f6 33bd 828b cdbd
000000d0: 8c77 17bd f593 26bd 8002 1f3d c811 693d
000000e0: 49cc 88bd a390 ccbc 56d7 42bc 1ded 87bc
000000f0: 5d1e 02bd aa0f d7bd 7aae c2bd 65b9 513d
00000100: e2fe 6f3d d63f 27bd c114 89bb c589 033e
00000110: 857e 80bd 1ad3 5d3d 5973 27bd 6121 7f3c
00000120: 6acd 16bc b834 083e 5563 eabd e8a4 dbbd
00000130: 9fdc 82bd c48b 9ebd 6e83 76bd 5353 9ebd
00000140: 8cd4 d8ba 762f 94bd fada 6c3d 909a 60bc
00000150: 6314 58bd 78db dbbc bebd 8dbd d7b6 923d
00000160: 6c36 8cbd 25fa af3a d6b7 e13a 8c1f acbd
00000170: b34d 493d dea1 a8bd 6649 753d 3f95 e73c
00000180: f9e9 c8bd 2ece b8bc 8785 23bd 1aa9 c6bd
00000190: 1578 0c3d 980f 7bbd df9c 83bd 7b2b 523b
000001a0: dabc 853d aee5 a4bd c857 9bbd 566d 57bd
000001b0: 7ebc 82bd 9c3a d5bc ba17 083c c7ad 313c
000001c0: b0fb babd 18d2 7f3d 8396 1b3d 4fe3 a2bd
000001d0: f245 c5bc 3350 373d 3f17 b53c a8f6 6dbd
000001e0: 1067 79bd 8ccc 1f3d 11d3 a93b 933d 183d
000001f0: aec3 1cbc 4b87 533d d357 893d 7b99 013e

fc3.weight f4 [2, 128]
-0.0954134 -0.08134617 0.006374304 0.037000567 0.006410077 -0.0020846024 -0.032675035 -0.16945545
0.04638142 -0.025097946 -0.0027127292 0.035310127 0.054056298 -0.037757274 -0.3520513 -0.010287402
-0.009986923 0.05994571 0.02481051 0.07048126 0.027682843 -0.13158405 0.01726886 -0.015432518
0.03934042 0.003608835 -0.053905085 0.083864294 0.07139146 -0.008362142 0.03893996 0.04333811
-0.07775477 -0.08417477 -0.11271124 -0.09454825 -0.36407277 0.027793368 -0.047001157 -0.07228592
0.028198674 -0.0023868685 -0.18984452 -0.08385625 0.0229738 -0.06901652 -0.018891132 -0.0070432774
0.008281675 0.022606133 0.046732813 -0.008367687 -0.0597177 0.021434523 -0.0016525926 -0.19720215
0.022115167 0.031037724 -0.110840335 -0.057722975 -0.08351639 -0.00047250316 0.040393405 0.016999187
-0.05410078 -0.027370257 0.0361055 -0.35868993 0.042907346 0.0050667375 0.019895177 -0.10623207
-0.011293742 -0.09975698 -0.022823764 0.03125754 0.05175269 -0.010556499 0.04664627 0.027420884
0.0018464149 0.058484104 0.06612828 -0.022454124 0.02222319 -0.07048718 0.043772828 -0.14332458
0.030875605 -0.0018326975 -0.22855192 -0.034992013 0.015633002 -0.00027654585 -0.48810434 -0.0015600136
0.0039602974 -0.05530605 -0.040246397 -0.017045977 0.06707077 -0.022865862 -0.04589991 0.06972865
0.04664291 -0.003452878 -0.005747757 -0.02449699 -0.043637756 -0.056992747 -0.021834586 -0.27549857
0.048394375 -0.020754715 -0.18637569 -0.0007955283 -0.015596571 -0.005354744 -0.0021695301 0.02681007
-0.07862925 0.00892728 0.033027083 0.031361546 -0.007439172 -0.09986931 -0.05881354 -0.1353968
-0.14031763 -0.122634165 0.0316564 0.023034425 -0.08406959 0.07312908 -0.09700366 -0.11933047
0.010907994 0.004221818 -0.030878035 0.0094875945 -0.068897136 0.00601327 -0.25698373 -0.009364659
0.024037533 -0.029561829 -0.015696023 0.05426087 0.030737769 -0.10544383 -0.08711747 -0.06498742
0.023663862 0.022470977 0.0039956383 0.06956872 -0.06457936 -0.04577565 0.030230662 -0.020545885
-0.00034154914 0.069540024 -0.08992731 -0.009142308 -0.2877005 0.015672676 -0.20922554 -0.1517755
-0.042867042 -0.0067827716 -0.46074948 -0.07972517 -0.015670102 0.01086576 -0.010262389 0.065602586
0.06216006 -0.0020312862 0.023014987 -0.039605364 -0.002270525 0.060300164 -0.0081306975 -0.09518353
0.066589884 0.04846912 -0.020336254 -0.01365684 -0.0140374135 0.028004203 -0.077120334 0.06645834
-0.05562549 0.075709805 0.0700887 -0.091006294 0.067855105 0.073702626 -0.033598684 0.043271698
0.0039441036 -0.15192348 -0.076939374 -0.02914752 0.06097435 -0.080351606 0.006115543 -0.06466474
0.0691956 -0.060560632 -0.05824028 0.027698413 0.053832553 0.039768375 0.06980016 -0.052145854
0.00094345916 0.05672306 -0.12933852 0.068288505 0.010407537 -0.03383588 -0.42498586 -0.08396155
-0.02753165 0.059944347 0.047214318 -0.061947092 -0.003929066 -0.062177565 0.039318927 -0.052399848
0.06179805 -0.015809985 -0.050126337 0.05389022 -0.07150493 -0.04843909 -0.03898614 -0.08954063
-0.019867316 0.0066642505 -0.071104914 -0.08502084 -0.112972096 -0.04363472 -0.07403653 0.017724827
-0.0062399046 -0.025662966 -0.023234427 0.059487425 -0.05965693 -0.113278374 -0.033755023 -0.5398637
00000000: 1a68 c3bd d298 a6bd 8adf d03b e88d 173d
00000010: a00b d23b d39d 08bb 42d6 05bd bb85 2dbe
00000020: 72fa 3d3d 359a cdbc 0bc8 31bb 5aa1 103d
00000030: 236a 5d3d 5fa7 1abd 1140 b4be 7e8c 28bc
00000040: 31a0 23bc a289 753d 693f cb3c 7b58 903d
00000050: 21c7 e23c f8bd 06be 6d77 8d3c acd8 7cbc
00000060: 6c23 213d 3482 6c3b 94cb 5cbd 0bc1 ab3d
00000070: b035 923d 5e01 09bc 827f 1f3d 4d83 313d
00000080: e53d 9fbd d263 acbd 27d5 e6bd 83a2 c1bd
00000090: bf67 babe ebae e33c 4984 40bd a40a 94bd
000000a0: e800 e73c 026d 1cbb 9a66 42be d3bc abbd
000000b0: 8d33 bc3c 8958 8dbd 93c1 9abc 4bcb e6bb
000000c0: ddaf 073c 7f30 b93c e86a 3f3d a018 09bc
000000d0: 8c9a 74bd 7497 af3c ce9b d8ba 5cef 49be
000000e0: de2a b53c d342 fe3c 4200 e3bd ed6e 6cbd
000000f0: a40a abbd 4dba f7b9 8e73 253d e141 8b3c
00000100: c898 5dbd 9737 e0bc 5ce3 133d 35a6 b7be
00000110: 9dbf 2f3d e006 a63b 36fb a23c 3390 d9bd
00000120: 6309 39bc 634d ccbd e7f8 babc e807 003d
00000130: a1fa 533d 2af5 2cbc 2910 3f3d c3a1 e03c
00000140: 6703 f23a 078d 6f3d 436e 873d b6f1 b7bc
00000150: 680d b63c 955b 90bd 234b 333d aec3 12be
00000160: d6ee fc3c 2037 f0ba 8409 6abe c953 0fbd
00000170: c810 803c 5bfd 90b9 d0e8 f9be 5f79 ccba
00000180: 62c5 813b 9988 62bd 68d9 24bd 01a4 8bbc
00000190: 665c 893d 3051 bbbc 8b01 3cbd e5cd 8e3d
000001a0: a30c 3f3d ae49 62bb ae57 bcbb e9ad c8bc
000001b0: 81bd 32bd 3a71 69bd 72de b2bc 260e 8dbe
000001c0: 2e39 463d cb05 aabc 45d9 3ebe 008b 50ba
000001d0: c388 7fbc d976 afbb ad2e 0ebb cba0 db3c
000001e0: 5f08 a1bd ba43 123c 6847 073d f774 003d
000001f0: 4cc4 f3bb 4888 ccbd 77e6 70bd 75a5 0abe
00000200: 6daf 0fbe 9f27 fbbd 24aa 013d b1b2 bc3c
00000210: ad2c acbd b3c4 953d dba9 c6bd 8963 f4bd
00000220: 71b7 323c 2d57 8a3b eff3 fcbc db71 1b3c
00000230: f119 8dbd f70a c53b 5f93 83be 3a6e 19bc
00000240: 5cea c43c a62b f2bc f294 80bc a540 5e3d
00000250: c6cd fb3c eff2 d7bd a56a b2bd 2018 85bd
00000260: b7da c13c 0e15 b83c d8ed 823b 0c7a 8e3d
00000270: 2f42 84bd 3f7f 3bbd 4ba6 f73c d84f a8bc
00000280: f311 b3b9 006b 8e3d cf2b b8bd 9ec9 15bc
00000290: 7b4d 93be fc63 803c 383f 56be 096b 1bbe
000002a0: 5a95 2fbd 0342 debb 5be7 ebbe f346 a3bd
000002b0: 965e 80bc 4d06 323c 9423 28bc a65a 863d
000002c0: 8c9b 7e3d 541f 05bb ed89 bc3c 3c39 22bd
000002d0: 17cd 14bb 4efd 763d 9e36 05bc 95ef c2bd
000002e0: 4760 883d 8e87 463d 3798 a6bc f0c0 5fbc
000002f0: 2efd 65bc 1269 e53c 44f1 9dbd 4f1b 883d
00000300: 8ed7 63bd be0d 9b3d aa8a 8f3d 8261 babd
00000310: 9ef7 8a3d 67f1 963d c69e 09bd aa3d 313d
00000320: 8a3d 813b d491 1bbe 6492 9dbd c8c6 eebc
00000330: 3dc0 793d 628f a4bd e564 c83b f26e 84bd
00000340: 6cb6 8d3d 6d0e 78bd 5c8d 6ebd c8e7 e23c
00000350: 867f 5c3d 2ae4 223d 63f3 8e3d e496 55bd
00000360: 7952 773a 7056 683d 5171 04be d8da 8b3d
00000370: 6084 2a3c 7e97 0abd bf97 d9be 08f4 abbd
00000380: 0e8a e1bc 3488 753d cd63 413d 3cbc 7dbd
00000390: 65bf 80bb e7ad 7ebd e20c 213d 39a1 56bd
000003a0: f41f 7d3d f183 81bc 4651 4dbd febb 5c3d
000003b0: 2d71 92bd 1168 46bd eeaf 1fbd 1461 b7bd
000003c0: c8c0 a2bc c95f da3b 749f 91bd 681f aebd
000003d0: ea5d e7bd 52ba 32bd 77a0 97bd a833 913c
000003e0: 1d78 ccbb 243b d2bc 2056 bebc 16a9 733d
000003f0: d35a 74bd 7efe e7bd b542 0abd 8234 0abf

fc3.bias f4 [2]
0.04082302 -0.08013724
00000000: 0a36 273d fe1e a4bd

fc1.weight f4 [128, 84]
-0.06993448 -0.038964678 0.009415259 0.088959984 -0.061879944 -0.08984862 -0.107772835 0.07349247
-0.0034513543 0.07647699 0.057217695 0.08248972 -0.103288285 -0.0928029 -0.08810078 -0.051552024
-0.055374447 -0.088809535 -0.03347634 -0.024567049 -0.06046531 -0.021322945 -0.108773544 -0.098402545
0.0259485 -0.05380389 -0.09438962 0.03421902 -0.100166515 0.011171592 0.08923989 -0.027865782
-0.092584394 -0.054529514 0.021590404 0.06294854 -0.09313221 -0.03318335 0.026070349 0.09181795
-0.043242667 0.099774055 -0.06073394 -0.10170471 -0.026952744 -0.051149487 0.083339795 -0.045941763
-0.08458476 -0.08516601 0.06842013 0.09454936 0.03172646 0.066665314 -0.053986818 0.03277326
-0.052606665 -0.0150875235 0.05390273 0.07888411 0.033535145 0.10806079 0.0304863 0.04555244
-0.062151823 -0.023630207 0.0020448382 0.081589095 0.056677118 0.007844115 0.061135992 -0.08416405
0.07356632 -0.042749826 -0.085321255 0.058539134 0.073410146 -0.014144791 0.018252052 0.01811491
-0.060063478 0.07163254 0.055002753 0.015841346 0.30020458 0.09009111 -0.076259784 0.0944402
0.052772008 -0.00693813 0.06414534 -0.17809474 0.06701818 0.048909172 0.16647425 0.10969491
-0.2020483 -0.15382789 -0.09944603 0.07724577 -0.24187429 0.013194918 -0.054875113 -0.20702106
-0.25568482 0.117860556 -0.17665893 0.034631055 -0.04922445 0.036481816 0.028527407 -0.18794829
0.048206516 -0.06837176 -0.09833995 -0.14567044 -0.1982859 -0.03153132 -0.071500964 0.5004789
-0.07584709 0.43309003 -0.04157205 0.00019918614 -0.035046753 0.11327078 -0.04749439 0.07941025
-0.100442454 0.4194367 -0.58930737 0.3337921 -0.40956822 0.085500486 0.41878593 0.2160968
0.14705239 0.03496002 -0.0024908672 0.28173712 -0.044650596 0.1619826 -0.22750998 0.10729948
0.008230233 0.009194849 -0.12030739 -0.055032145 -0.05552601 -0.04313662 0.1302106 -0.04412976
-0.19002256 0.07507307 0.0581335 -0.082506515 0.078861 0.059812296 -0.0017235352 0.057312235
-0.08582316 0.27587456 0.053205956 0.021164382 0.07776366 -0.12052355 0.010493861 -0.046235856
0.09276482 -0.17739838 0.16280995 -0.23050174 -0.08518949 -0.070798896 0.027472546 -0.07533806
0.16428828 -0.05347357 0.028178893 0.120356664 -0.029096795 -0.062092353 0.0814603 -0.09406987
-0.16649605 0.005015221 -0.01290754 -0.016903635 -0.30031344 -0.15672079 -0.13712418 -0.12108863
0.023084652 -0.11225763 -0.18741596 -0.13075528 -0.059304982 -0.057108037 0.23595272 -0.084093675
0.16747941 -0.10455264 0.05018919 0.052344654 -0.0474768 0.022090165 -0.2099027 -0.037358444
-0.039674737 -0.23863699 0.11416094 -0.108960964 0.070360325 -0.11251225 0.0342261 0.019154359
0.084889345 -0.011649528 0.0002958641 -0.007962823 -0.15553808 -0.1309672 0.022259837 0.032171723
-0.16435191 -0.12220421 -0.27310273 -0.09427365 -0.051446658 -0.059518665 -0.0617375 0.09312627
0.044889122 -0.04879164 0.02504855 0.08534566 -0.21448703 0.001826636 0.15585056 0.06914971
0.011358803 0.04742168 0.09272326 0.040238023 0.026992729 0.365328 0.06315341 0.04609603
0.22575593 0.0008515757 -0.12245305 -0.042303003 0.10882003 -0.030705612 -0.02059972 -0.06529061
00000000: cf39 8fbd 6d99 1fbd 7542 1a3c a730 b63d
00000010: d375 7dbd 8e02 b8bd 01b8 dcbd 3883 963d
00000020: 1e30 62bb f89f 9c3d 1a5d 6a3d 5ff0 a83d
00000030: cf88 d3bd 720f bebd 2f6e b4bd 3728 53bd
00000040: 51d0 62bd c6e1 b5bd 7d1e 09bd d640 c9bc
00000050: 79aa 77bd 75ad aebc aac4 debd 4687 c9bd
00000060: f391 d43c 7861 5cbd 584f c1bd 3e29 0c3d
00000070: 1a24 cdbd 0e09 373c 67c3 b63d c846 e4bc
00000080: e39c bdbd 575a 5fbd 5cde b03c 2aeb 803d
00000090: 1abc bebd 44eb 07bd 7c91 d53c 0d0b bc3d
000000a0: 391f 31bd 5756 cc3d 27c4 78bd 8f4a d0bd
000000b0: 00cc dcbc 2082 51bd 0eae aa3d 6e2d 3cbd
000000c0: c63a adbd 846b aebd da1f 8c3d 18a3 c13d
000000d0: 9bf3 013d d387 883d 4821 5dbd 413d 063d
000000e0: 167a 57bd a931 77bc 1cc9 5c3d fe8d a13d
000000f0: 265c 093d fa4e dd3d 68be f93c 3295 3a3d
00000100: e992 7ebd 2394 c1bc b102 063b 2f18 a73d
00000110: 4426 683d 9a84 003c bc69 7a3d 345e acbd
00000120: f0a9 963d 711a 2fbd e9bc aebd bbc6 6f3d
00000130: 0f58 963d 8ebf 67bc 5485 953c b865 943c
00000140: 1f05 76bd 15b4 923d 914a 613d b6c5 813c
00000150: 6ab4 993e b081 b83d 172e 9cbd dd69 c13d
00000160: 7627 583d 4159 e3bb a25e 833d 785e 36be
00000170: d440 893d fc54 483d 3a78 2a3e baa7 e03d
00000180: c0e5 4ebe 0f85 1dbe 5caa cbbd 0833 9e3d
00000190: e5ad 77be 7f2f 583c bac4 60bd 54fd 53be
000001a0: 1fe9 82be e060 f13d 14e6 34be 4bd9 0d3d
000001b0: 949f 49bd f56d 153d 4fb2 e93c 8475 40be
000001c0: 3274 453d 7e06 8cbd 7566 c9bd a22a 15be
000001d0: 750b 4bbe fc26 01bd 196f 92bd 631f 003f
000001e0: b855 9bbd fabd dd3e 7447 2abd 9fdc 5039
000001f0: 2f8d 0fbd 83fa e73d 7a89 42bd d7a1 a23d
00000200: c6b4 cdbd 68c0 d63e d9dc 16bf cce6 aa3e
00000210: edb2 d1be e11a af3d 1c6b d63e 7b48 5d3e
00000220: e794 163e 3d32 0f3d d13d 23bb d93f 903e
00000230: 8be3 36bd c4de 253e 60f8 68be d4bf db3d
00000240: 19d8 063c fea5 163c b963 f6bd 6369 61bd
00000250: 3e6f 63bd 06b0 30bd ed55 053e 68c1 34bd
00000260: 4695 42be e9bf 993d 651d 6e3d 2df9 a8bd
00000270: e081 a13d bdfd 743d 3fe8 e1ba 3cc0 6a3d
00000280: 0ec4 afbd 6e3f 8d3e 7dee 593d ed60 ad3c
00000290: 8e42 9f3d 0dd5 f6bd 71ee 2b3c cf61 3dbd
000002a0: 7bfb bd3d eca7 35be a7b7 263e a608 6cbe
000002b0: d477 aebd 03ff 90bd 1b0e e13c d74a 9abd
000002c0: 303b 283e 1a07 5bbd 6cd7 e63c 8e7d f63d
000002d0: 675c eebc 8d54 7ebd a8d4 a63d b4a7 c0bd
000002e0: f17d 2abe b956 a43b 267a 53bc 7e79 8abc
000002f0: afc2 99be 6a7b 20be 486a 0cbe 51fd f7bd
00000300: 061c bd3c 54e7 e5bd f8e9 3fbe b6e4 05be
00000310: c8e9 72bd 1eea 69bd 979d 713e 4e39 acbd
00000320: b97f 2b3e b21f d6bd 2e93 4d3d 5967 563d
00000330: 0877 42bd 6ff6 b43c bcf0 56be 2b05 19bd
00000340: fa81 22bd 415d 74be 36cd e93d ed26 dfbd
00000350: 1319 903d d36c e6bd ab30 0c3d 9ae9 9c3c
00000360: 77da ad3d a9dd 3ebc 351e 9b39 8076 02bc
00000370: 6045 1fbe 441c 06be 435a b63c 7fc6 033d
00000380: de4b 28be 3346 fabd 1fd4 8bbe 8b12 c1bd
00000390: bbb9 52bd d8c9 73bd 76e0 7cbd fcb8 be3d
000003a0: a8dd 373d bed9 47bd 9e32 cd3c b5c9 ae3d
000003b0: 7da2 5bbe bc6b ef3a 4a97 1f3e 5d9e 8d3d
000003c0: 461a 3a3c 3c3d 423d b1e5 bd3d a0d0 243d
000003d0: db1f dd3c 460c bb3e 9356 813d 31cf 3c3d
000003e0: 902c 673e 473c 5f3a aac8 fabd ea45 2dbd
000003f0: 09dd de3d 568a fbbc bec0 a8bc 15b7 85bd

fc1.bias f4 [128]
-0.09609404 -0.005286008 -0.009581352 0.170103 -0.011055556 0.038043242 -0.035945565 -0.09999926
-0.020886162 -0.08059768 0.23854981 0.052376125 0.14403978 -0.058107987 -0.01328877 0.00831379
-0.10514852 -0.07557167 -0.011385803 0.07275724 0.057280894 -0.13992485 -0.03898493 0.035574622
0.035814513 -0.064718746 -0.10435351 -0.123412155 -0.1044371 -0.07930417 -0.028002981 -0.11633964
0.082059406 0.011315438 -0.11439916 -0.054326274 -0.03241895 -0.012758401 0.027016005 -0.13316846
-0.05501537 -0.111667044 -0.010426121 -0.061337337 -0.003387824 -0.117793776 0.03877899 0.0701345
0.06589011 0.0812461 0.023167957 0.01808216 0.070100024 0.14750935 -0.09145932 -0.039798163
-0.057138067 0.0905742 -0.135715 -0.077199325 -0.0850454 -0.01022266 0.054858945 0.056755576
-0.076723255 -0.034632243 0.03801762 -0.057106793 0.07499763 0.13585423 0.003108972 -0.059652526
0.003206471 0.045410827 -0.06374999 -0.116030894 -0.027007787 0.101263486 -0.13559043 -0.05542676
-0.029228033 -0.046079975 -0.11720389 0.032823224 -0.06379097 0.08387718 0.03504438 -0.078829266
0.0495101 -0.13308352 0.011054932 0.06317629 0.059629478 -0.1658913 0.09987714 0.05545502
0.0022676622 -0.06559319 -0.09148158 0.019858327 -0.045690816 0.12107575 -0.11674098 0.14598884
0.01544351 0.05032816 0.14646886 0.006560132 -0.07118738 -0.011949521 -0.11082122 -0.10197983
0.23371729 -0.06585127 -0.03317398 -0.027122729 -0.05444257 -0.06479726 0.04270983 -0.08575987
-0.06966689 -0.062264968 -0.11351166 -0.0938036 -0.008063702 0.0975886 -0.124377616 0.064962775
00000000: f4cc c4bd 4036 adbb 1afb 1cbc 7b2f 2e3e
00000010: 5d22 35bc 3bd3 1b3d a83b 13bd 69cc ccbd
00000020: 7519 abbc 6510 a5bd 6746 743e 5988 563d
00000030: 2a7f 133e a402 6ebd 24b9 59bc 9036 083c
00000040: 1b58 d7bd 52c5 9abd 858b 3abc bf01 953d
00000050: 5f9f 6a3d 7648 0fbe a9ae 1fbd b2b6 113d
00000060: 3db2 123d 438b 84bd 4bb7 d5bd 83bf fcbd
00000070: 1ee3 d5bd 3a6a a2bd 8266 e5bc 7a43 eebd
00000080: c30e a83d 6364 393c 1b4a eabd 3a85 5ebd
00000090: bcc9 04bd 9d08 51bc ab50 dd3c 505d 08be
000000a0: cc57 61bd b1b1 e4bd 52d2 2abc dc3c 7bbd
000000b0: 4106 5ebb dd3d f1bd b8d6 1e3d ada2 8f3d
000000c0: 65f1 863d 5b64 a63d baca bd3c 0a21 943c
000000d0: 9a90 8f3d b10c 173e 064f bbbd 6603 23bd
000000e0: 9b09 6abd f77e b93d dff8 0abe ae1a 9ebd
000000f0: 482c aebd f27c 27bc c6b3 603d 8978 683d
00000100: 1521 9dbd 8ada 0dbd 5db8 1b3d d0e8 69bd
00000110: 5c98 993d 5f1d 0b3e e5bf 4b3b 3556 74bd
00000120: a823 523b b400 3a3d 5b8f 82bd 9ba1 edbd
00000130: 6f3f ddbc 3b63 cf3d 38d8 0abe 2c07 63bd
00000140: a16f efbc 5bbe 3cbd 9808 f0bd a571 063d
00000150: d7a4 82bd cdc7 ab3d b28a 0f3d 3d71 a1bd
00000160: 1acb 4a3d 0c47 08be bf1f 353c 9262 813d
00000170: 0a3e 743d 69df 29be 638c cc3d ce24 633d
00000180: 0f9d 143b b955 86bd b25a bbbd eead a23c
00000190: 4b26 3bbd 90f6 f73d e515 efbd 197e 153e
000001a0: c706 7d3c e724 4e3d effb 153e 60f6 d63b
000001b0: b0ca 91bd ecc7 43bc 3cf6 e2bd cdda d0bd
000001c0: 9653 6f3e 08dd 86bd 70e1 07bd 7c30 debc
000001d0: 2cff 5ebd 6db4 84bd 81f0 2e3d dfa2 afbd
000001e0: 84ad 8ebd 8d09 7fbd cd78 e8bd 1a1c c0bd
000001f0: 9e1d 04bc 88dc c73d b1b9 febd 340b 853d

fc2.weight f4 [128, 128]
0.07517827 0.1100751 -0.014021938 0.03680747 0.05832176 0.02783653 0.021896135 0.04385343
-0.108442254 0.044805165 0.03886817 -0.036553603 -0.22456679 0.06512225 0.035779487 0.029968686
0.08838186 -0.07733181 0.04461666 0.03357492 -0.032732982 0.13928795 0.093399525 -0.052646365
-0.08045515 0.062894166 0.03573619 0.00033467475 0.049038045 0.044109847 0.044166353 -0.026966333
-0.08331472 -0.4843542 0.00799788 -0.0648424 0.07474722 -0.067162424 -0.0406829 -0.25034186
-0.068328604 0.046553686 -0.08205655 0.08008097 0.072664745 -0.050211836 0.03282241 -0.040655483
-0.04492324 0.061520413 -0.07544643 -0.06490027 0.03472453 0.099069916 -0.06669635 0.053318705
0.07234075 -0.041321803 -0.031357236 0.046903927 0.072707616 -0.5753713 -0.6778352 0.059227884
0.08977663 -0.036553822 -0.093868166 0.011577697 0.057575006 -0.47680897 0.0029511296 0.08144818
0.05386955 0.016609408 0.06520744 0.005688671 0.19493695 -0.36627 -0.05248648 -0.006432952
0.028454045 0.033564784 -0.03426489 -0.1145961 0.0384197 0.048226785 0.04555907 0.0034379181
0.02109909 0.031656124 -0.023194924 0.046291906 -0.18972017 -0.04457661 0.10541436 0.05067926
0.13053326 -0.06422033 0.056237467 0.05431581 0.015235861 -0.35280028 -0.004340557 -0.1829177
0.06710681 0.015879879 -0.117265545 0.098082684 -0.05034853 0.011718271 -0.03486397 -0.041224487
-0.08637767 -0.06115481 -0.07246584 0.018588198 0.03598666 0.045269564 -0.028333714 -0.027461417
0.033381987 0.018751044 -0.14075997 0.14325635 0.04324733 -0.07161833 -0.120626025 -0.017984826
-0.026518092 -0.04282931 0.052537818 -0.04293833 -0.043811385 -0.072502814 0.031117966 0.022375109
-0.050120503 0.008776171 -0.09865116 -0.06492621 -0.03911651 0.010274469 -0.073368 -0.09069603
0.003602169 0.019888194 0.059771575 -0.069444306 0.054653704 -0.07919824 -0.064823 -0.06184408
0.07958267 -0.054841034 0.016527753 0.057805087 0.03446585 -0.0592156 -0.02238555 0.035571728
0.035211653 0.0465596 -0.07668967 -0.028383479 0.0046224133 -0.016452918 0.02330403 -0.010402896
0.051523972 -0.0031618462 -0.07535716 9.101801e-05 0.032738242 -0.0038748968 0.005285162 -0.093279086
-0.009304096 -0.10204169 0.007262628 0.002844185 0.064729296 -0.04526022 0.04808701 0.024961254
0.065046355 0.07922923 -0.0046071648 0.028870951 -0.08054028 -0.032239553 -0.055165205 -0.033012476
0.043929607 -0.015534401 0.017110819 -0.08636548 0.03442842 -0.0756542 0.028472766 -0.03547076
0.043064095 0.04640292 -0.03263651 0.062437437 0.01999756 -0.038463578 -0.07270475 -0.015540839
-0.06892817 -0.0390738 0.026843812 -0.041064028 0.06862233 -0.01861366 -0.06589285 -0.051257934
-0.062603496 0.06781471 0.059208125 -0.06385182 -0.09050747 -0.086339526 -0.06309883 -0.09253613
-0.07850715 0.07031492 0.059186976 -0.007090424 -0.07329677 0.05009869 -0.07683518 -0.0741559
0.05323181 0.08676393 0.060480963 0.056520145 0.060984254 0.07612588 -0.04209231 0.070722
-0.0726858 0.04479034 0.0024435583 0.010377355 -0.094685756 -0.06818659 -0.03967566 0.022727512
0.07498264 -0.08591976 0.03674727 -0.03729264 -0.041954953 0.06091384 -0.08115361 -0.011279392
00000000: 11f7 993d 0e6f e13d 45bc 65bc 6ec3 163d
00000010: cce2 6e3d 6f09 e43c 865f b33c a79f 333d
00000020: f916 debd 9f85 373d 3b34 1f3d 3bb9 15bd
00000030: d6f4 65be d05e 853d 838d 123d e480 f53c
00000040: 8c01 b53d 2460 9ebd f5bf 363d db85 093d
00000050: 0513 06bd 80a1 0e3e 4048 bf3d b7a3 57bd
00000060: abc5 a4bd a8ce 803d 1c60 123d 4977 af39
00000070: 1edc 483d 87ac 343d c7e7 343d 80e8 dcbc
00000080: e8a0 aabd 46fd f7be 8a09 033c 18cc 84bd
00000090: 1215 993d 748c 89bd 1da3 26bd cf2c 80be
000000a0: deef 8bbd 14af 3e3d 440d a8bd 7e01 a43d
000000b0: 41d1 943d edaa 4dbd cb70 063d 5d86 26bd
000000c0: 6e01 38bd d4fc 7b3d a883 9abd 6fea 84bd
000000d0: 4f3b 0e3d 2be5 ca3d 1998 88bd b764 5a3d
000000e0: 6327 943d 0d41 29bd 7270 00bd 551e 403d
000000f0: bbe7 943d 894b 13bf 9c86 2dbf f098 723d
00000100: cfdc b73d 76b9 15bd f43d c0bd 61b0 3d3c
00000110: c5d3 6b3d 4e20 f4be bd67 413b 4ece a63d
00000120: 51a6 5c3d 7410 883c 7a8b 853d 0868 ba3b
00000130: 8d9d 473e be87 bbbe 10fc 56bd 83cb d2bb
00000140: 7518 e93c 3a7b 093d 5759 0cbd 5cb1 eabd
00000150: fa5d 1d3d 7389 453d 269c 3a3d b24e 613b
00000160: 00d8 ac3c daa9 013d 4803 bebc 959c 3d3d
00000170: 0146 42be f795 36bd 7ce3 d73d 0e95 4f3d
00000180: 83aa 053e f385 83bd 4259 663d 417a 5e3d
00000190: d59f 793c 3da2 b4be 3b3b 8ebb c74e 3bbe
000001a0: 4c6f 893d 8516 823c eb28 f0bd 93df c83d
000001b0: 433a 4ebd fefd 3f3c 86cd 0ebd 02db 28bd
000001c0: c7e6 b0bd 777d 7abd f868 94bd 4746 983c
000001d0: bf66 133d 946c 393d 1b1c e8bc c4f6 e0bc
000001e0: 8dbb 083d ca9b 993c 6223 10be cbb1 123e
000001f0: 1d24 313d a2ac 92bd c70a f7bd ea54 93bc
00000200: 783c d9bc c96d 2fbd e531 573d 1ae0 2fbd
00000210: 9173 33bd 5b7c 94bd 1beb fe3c 014c b73c
00000220: 284b 4dbd eec9 0f3c 9f09 cabd 08f8 84bd
00000230: a238 20bd 3f56 283c f641 96bd d7be b9bd
00000240: 5e12 6c3b 91ec a23c 0ad3 743d d138 8ebd
00000250: 90dc 5f3d b032 a2bd ecc1 84bd 3850 7dbd
00000260: 3dfc a23d fea0 60bd 3665 873c 07c5 6c3d
00000270: 102c 0d3d 0f8c 72bd e761 b7bc a9b3 113d
00000280: 183a 103d 47b5 3e3d 790f 9dbd 7884 e8bc
00000290: 9d77 973b 45c8 86bc 18e8 be3c e970 2abc
000002a0: cd0a 533d fa36 4fbb db54 9abd ece0 be38
000002b0: 8918 063d fbf1 7dbb 272f ad3b 1b09 bfbd
000002c0: 3570 18bc 3cfb d0bd 57fb ed3b 8265 3a3b
000002d0: cb90 843d c862 39bd e2f6 443d 8b7b cc3c
000002e0: 0637 853d ef42 a23d b3f7 96bb c682 ec3c
000002f0: 4df2 a4bd 9f0d 04bd e9f4 61bd 1738 07bd
00000300: 88ef 333d 0084 7ebc fd2b 8c3c 63e0 b0bd
00000310: d104 0d3d 97f0 9abd b83f e93c ca49 11bd
00000320: fa63 303d fd10 3e3d dcad 05bd 66be 7f3d
00000330: ecd1 a33c fc8b 1dbd 3ae6 94bd 019f 7ebc
00000340: 362a 8dbd d90b 20bd 8ee7 db3c c132 28bd
00000350: dd89 8c3d ad7b 98bc d5f2 86bd d7f3 51bd
00000360: 4336 80bd 70e2 8a3d 3884 723d bec4 82bd
00000370: fb5b b9bd c7d2 b0bd f639 81bd 9583 bdbd
00000380: 5bc8 a0bd 4501 903d 0b6e 723d ca56 e8bb
00000390: 9e1c 96bd 4934 4d3d c35b 9dbd 0cdf 97bd
000003a0: 9909 5a3d 4ab1 b13d e3ba 773d ab81 673d
000003b0: a0ca 793d e3e7 9b3d fc68 2cbd b2d6 903d
000003c0: 4bdc 94bd 1376 373d 1b24 203b c805 2a3c
000003d0: 9bea c1bd 69a5 8bbd f282 22bd 0c2f ba3c
000003e0: 8090 993d b3f6 afbd 4e84 163d 2bc0 18bd
000003f0: f5d8 2bbd ca80 793d dd33 a6bd 33cd 38bc

fc2.bias f4 [128]
0.24310876 -0.08434393 -0.07479507 -0.07338048 -0.14282656 -0.17269357 0.3405121 -0.15029874
0.72615045 -0.11201718 -0.36384037 -0.5922979 -0.043816194 0.5707144 0.4921883 -0.003831309
-0.026955744 -0.0901479 -0.11328144 0.44910973 -0.094355844 -0.09546866 -0.047227576 -0.07548419
0.02088427 -0.12475211 -0.012734701 -0.21439308 -0.19907042 -0.0066169095 -0.07229849 -0.055188227
-0.059825644 -0.024905887 0.7005544 -0.072383784 -0.3530869 0.22749163 0.31563392 -0.03310465
-0.1251522 -0.14421831 -0.13780215 0.04188097 0.006877853 -0.16410322 -0.25209767 -0.07066641
-0.14760716 -0.072981305 -0.10507448 0.33631527 -0.013630044 0.48180178 -0.035868764 -0.16162412
-0.050259665 -0.058530483 -0.09932157 -0.13411362 -0.5607303 0.017764801 -0.14437266 -0.14166126
-0.46113923 -0.1851336 -0.00478744 -0.39204186 0.114196934 -0.093429625 0.16320336 -0.018247396
-0.06457575 0.017784297 -0.1308538 -0.09837004 0.5723309 0.046444595 0.24295042 -0.12879455
0.3774141 0.05798045 0.0189712 -0.024699097 -0.0108329095 0.22476017 -0.12658502 0.034662273
0.4615103 0.017920693 -0.023076566 -0.38942268 -0.027696187 0.32601476 -0.4987394 -0.0127340155
-0.30555764 -0.08731505 -0.097970515 -0.061567258 -0.05815049 0.032121733 0.14846925 0.05959456
-0.2690875 -0.0883743 -0.026171979 -0.37712052 0.018281655 -0.049356487 0.24284784 -0.07773946
-0.41160882 -0.05114268 -0.07927299 0.7149041 -0.17801964 -0.13298343 -0.26836792 -0.0015281399
-0.31213108 -0.013009384 -0.10622908 -0.35697165 -0.10686131 0.050586477 -0.42651564 -0.06508688
00000000: 81f1 783e 83bc acbd 282e 99bd 8148 96bd
00000010: 2041 12be 95d6 30be 9a57 ae3e eae7 19be
00000020: ffe4 393f 4369 e5bd 4949 babe d6a0 17bf
00000030: 9c78 33bd 571a 123f 1b00 fc3e b316 7bbb
00000040: 4bd2 dcbc 769f b8bd 1a00 e8bd b6f1 e53e
00000050: a33d c1bd 1385 c3bd b471 41bd 7497 9abd
00000060: 7d15 ab3c 097e ffbd 35a5 50bc dc89 5bbe
00000070: 1ed9 4bbe a9d2 d8bb 3b11 94bd 0d0d 62bd
00000080: bc0b 75bd 6e07 ccbc 8857 333f f33d 94bd
00000090: cec7 b4be 91f3 683e c59a a13e be98 07bd
000000a0: e627 00be f7ad 13be 021c 0dbe 618b 2b3d
000000b0: 9d5f e13b ad0a 28be f212 81be 8db9 90bd
000000c0: 5526 17be 3977 95bd 4a31 d7bd 8431 ac3e
000000d0: 8c50 5fbc b9ae f63e 20eb 12bd cb80 25be
000000e0: 14dd 4dbd a9bd 6fbd 1b69 cbbd 1555 09be
000000f0: 058c 0fbf 7d87 913c 6dd6 13be a60f 11be
00000100: 711a ecbe aa93 3dbe f5df 9cbb b6b9 c8be
00000110: 15e0 e93d 0858 bfbd c81e 273e 907b 95bc
00000120: 4a40 84bd 60b0 913c 8afe 05be 3b76 c9bd
00000130: 4784 123f b03c 3e3d ffc7 783e b8e2 03be
00000140: 6c3c c13e e97c 6d3d 7d69 9b3c c355 cabc
00000150: 847c 31bc 8827 663e 819f 01be 07fa 0d3d
00000160: 144b ec3e 6bce 923c 110b bdbc 6962 c7be
00000170: 1de3 e2bc 68eb a63e c55a ffbe 55a2 50bc
00000180: 0d72 9cbe 3cd2 b2bd c4a4 c8bd f32d 7cbd
00000190: 352f 6ebd 1492 033d 5308 183e 6d19 743d
000001a0: d6c5 89be 96fd b4bd 9e66 d6bc f115 c1be
000001b0: 69c3 953c 072a 4abd 1bad 783e de35 9fbd
000001c0: 64be d2be fd7a 51bd e159 a2bd f503 373f
000001d0: c84a 36be cf2c 08be 8567 89be de4b c8ba
000001e0: a5cf 9fbe 5025 55bc a28e d9bd fdc4 b6be
000001f0: 1ada dabd c433 4f3d 4260 dabe 454c 85bd

fc3.weight f4 [1, 128]
0.06345096 0.021196373 0.018470313 0.026159847 0.023190912 0.0010145647 0.07388571 0.012416875
0.081791595 0.009867499 -0.05217321 -0.031120932 -0.0039083697 0.06362393 0.050717536 0.017182324
0.030668056 0.0029453526 -0.028972957 0.04997642 0.022446603 0.027603773 0.010143026 0.007876173
-0.023742894 0.008140055 0.027275702 -0.02921558 -0.027374847 -0.05890157 -0.018464815 0.011291389
-0.06801269 -0.01657438 0.05008982 0.019518428 -0.03797289 0.08083257 0.08012406 -0.029216265
-0.0024234639 0.029524347 0.0028452456 0.12790075 0.008901624 -0.016762039 -0.06065591 0.011714147
-0.047047667 0.015993487 -0.02502237 -0.027159618 0.028427705 0.041352447 -0.0016185163 0.009488392
0.015825998 -0.010437963 -0.0077301213 -0.018106632 -0.033110168 0.0038329829 -0.015190318 0.013099157
-0.016370729 -0.06272162 -0.014011557 -0.049237806 0.013120739 -0.031071205 0.04113434 -0.014930547
-0.01741116 -0.031380687 -0.021370381 0.010597837 0.044238456 0.045533925 0.09455416 0.007222298
-0.046435453 0.011875222 0.04021305 -0.06461397 -0.0063459594 0.06738018 0.0104624415 -0.009183073
0.031942878 0.025954189 -0.009526182 -0.025174465 0.0127894785 0.019383395 -0.023629874 -0.035259217
-0.027347261 0.013517153 0.0014624449 -0.0031858159 0.019702408 -0.029379278 0.0039087594 0.028236357
-0.12467293 -0.0009046439 0.0025369548 -0.032376625 -0.036918577 0.009741402 0.061110895 -0.025422903
-0.035008345 0.015886903 -0.022074435 0.03324112 0.022078045 0.022015374 -0.06662742 -0.037938517
-0.03595301 0.020121343 0.022850363 -0.040665507 0.019782156 -0.0136582 -0.022654116 0.006682057
00000000: 94f2 813d 04a4 ad3c 0e4f 973c 2d4d d63c
00000010: defa bd3c 24fb 843a 6451 973d 2670 4b3c
00000020: 5a82 a73d 4aab 213c 93b3 55bd 53f1 febc
00000030: c811 80bb 434d 823d 31bd 4f3d f2c1 8c3c
00000040: 933b fb3c d106 413b b258 edbc 13b4 4c3d
00000050: f0e1 b73c 4f21 e23c ef2e 263c 100b 013c
00000060: 7580 c2bc de5d 053c 4b71 df3c 8355 efbc
00000070: 3741 e0bc c642 71bd 8643 97bc 85ff 383c
00000080: 3d4a 8bbd ffc6 87bc fc2a 4d3d 1ce5 9f3c
00000090: 7689 1bbd 8c8b a53d 1518 a43d f356 efbc
000000a0: fad2 1ebb 0bdd f13c 4d77 3a3b 6af8 023e
000000b0: 1ed8 113c 8b50 89bc 5572 78bd b2ec 3f3c
000000c0: 0eb5 40bd c604 833c b7fb ccbc d97d debc
000000d0: 38e1 e83c 2f61 293d 6524 d4ba 3375 1b3c
000000e0: 86a5 813c fd03 2bbc f54c fdbb 5c54 94bc
000000f0: 879e 07bd c832 7b3b d0e0 78bc d99d 563c
00000100: e81b 86bc 3174 80bd bb90 65bc 95ad 49bd
00000110: 5ef8 563c 0a89 febc 7b7c 283d 419f 74bc
00000120: d9a1 8ebc 0989 00bd f010 afbc 8da2 2d3c
00000130: 6233 353d c881 3a3d 9da5 c13d 07a9 ec3b
00000140: 1a33 3ebd 4b90 423c 70b6 243d 5454 84bd
00000150: c4f1 cfbb 9ffe 893d a96a 2b3c 9a74 16bc
00000160: 89d6 023d e19d d43c b413 1cbc ae3a cebc
00000170: f68a 513c edc9 9e3c 7093 c1bc f86b 10bd
00000180: 5d07 e0bc 0d77 5d3c 82af bf3a 1fc9 50bb
00000190: f266 a13c d0ac f0bc 0d15 803b ef4f e73c
000001a0: 8554 ffbd a025 6dba 0a43 263b 5a9d 04bd
000001b0: ef37 17bd 679a 1f3c 6b4f 7a3d b143 d0bc
000001c0: e964 0fbd 4025 823c 72d5 b4bc d727 083d
000001d0: 04dd b43c 9659 b43c f573 88bd 6b65 1bbd
000001e0: 7743 13bd 84d5 a43c af30 bb3c e090 26bd
000001f0: 300e a23c a5c6 5fbc 2095 b9bc 28f5 da3b
