saved_models/episode_100/agent_7.pth (torch, 738018 bytes, 44 tensors)

fc1.weight f4 [128, 5]
000000 33 88 d6 3e d1 f3 ca 3c af 84 12 3d 47 3c f8 3d
       0.41900787 0.024774464 0.03577107 0.12120872
000010 46 73 51 be db fd 07 bf 08 5d 69 be ad 83 bb 3d
       -0.2045413 -0.5312173 -0.22789395 0.091559745
000020 91 a9 9d 3e 0c f7 c8 3e b7 97 69 3e 7c 66 57 be
       0.3079343 0.39250982 0.22811781 -0.21035188
000030 3b f3 a4 3e cc 91 88 3e 26 cd 8e 3e f4 0b b5 3e
       0.3221682 0.26673734 0.2789089 0.35360682
000040 bf ef a3 be a5 92 e3 3d a6 55 d2 be 86 1e 6d 3e
       -0.3201885 0.111119546 -0.4108097 0.23156175
000050 a9 5e 60 be ea 40 f9 3d d4 75 d7 be 1c 5d e9 be
       -0.2191111 0.121705845 -0.42082083 -0.4557885
000060 5c 13 29 be a1 39 fe 3e 0e dd 90 bd 06 52 07 bf
       -0.16511291 0.49653342 -0.07073413 -0.5285953
000070 c5 8a aa 3e 74 d8 b5 3e 17 16 c5 3e de a4 cd be
       0.33308998 0.35516703 0.38493416 -0.40164846
000080 e2 28 6e 3e 71 87 3f 3e 8c e7 8b bb 33 6e e3 be
       0.23257783 0.1870401 -0.004269546 -0.44420013
000090 7d 12 07 3e a2 3c d3 be d7 26 07 be bb f0 a6 be
       0.13190646 -0.41257197 -0.1319841 -0.32605538
0000a0 01 b0 00 3e 98 a3 83 be d8 6d f8 3e 29 f4 4f be
       0.1256714 -0.2571075 0.48521304 -0.20307983
0000b0 67 cb db be f3 6d b0 3e ad 7d bd 3e d0 ae 26 be
       -0.4292862 0.34458885 0.37009946 -0.16277623
0000c0 bf b6 59 bd 9d 3c bf bd 06 1f 05 3f 39 08 c8 3e
       -0.053152796 -0.09337733 0.52000463 0.39068773
0000d0 fd a5 43 be 33 fd 67 be 75 25 df be 2d d7 f5 3d
       -0.19106288 -0.22655182 -0.43583265 0.12003932
0000e0 28 cd 3b be 34 92 11 bf 1e 0c 97 3e 7f 24 a3 be
       -0.1833998 -0.56863713 0.29501432 -0.31863782
0000f0 bb aa c8 3e 78 03 9c be cc 42 18 3d 7e 4b 94 be
       0.39192757 -0.30471396 0.037173077 -0.28963846
000100 67 fe b3 be 79 f0 1c 3e 0d 7c 85 be 89 52 56 be
       -0.3515503 0.15326108 -0.26071206 -0.20929922
000110 22 5e a1 bc f0 54 86 bd 1e 76 9a 3e 34 5d 4b 3e
       -0.019698206 -0.06559169 0.3016824 0.19859773
000120 1f 49 a1 3e 00 1a 9c 3d 9a 93 da be d4 f7 b3 be
       0.315011 0.076221466 -0.42690736 -0.35150015
000130 64 f4 92 be a0 6d 55 be 74 c9 ed 3d ae 79 80 3e
       -0.2870208 -0.208426 0.1161069 0.25092834
000140 9c 49 8e 3e 58 b9 44 bd 31 08 99 be d6 04 8a 3e
       0.27790534 -0.04802832 -0.29889062 0.26956815
000150 14 38 d0 be bb f6 03 3e 37 b6 a5 3e c3 29 cf be
       -0.40667784 0.12887089 0.3236558 -0.4046155
000160 fb bb f2 3c e6 d8 a7 bd 9d fa c5 3e 9e e8 84 be
       0.029630652 -0.08195667 0.38667765 -0.25958723
000170 6a c0 bb be d0 01 a3 3e 60 6c bc bd c9 df a5 be
       -0.36670238 0.3183732 -0.092003584 -0.32397297
000180 67 ff 91 3e 93 43 00 3e a9 1c 38 3e 6e af ad 3e
       0.2851517 0.12525778 0.17979683 0.33922905
000190 b4 c7 50 bd 80 09 92 be 2c 6f 33 3e 05 3d c2 be
       -0.0509717 -0.28522873 0.17522877 -0.3793718
0001a0 1c 29 82 be bf 84 82 be d2 fe 68 be e5 a2 8a 3d
       -0.2542199 -0.25491902 -0.22753456 0.06769351
0001b0 79 33 7d 3e 96 bd 9a be d1 7b c2 3e 68 d0 bf 3e
       0.24726667 -0.30222768 0.3798509 0.3746369
0001c0 76 78 52 3c 5b 9e 96 be e8 6f 04 3e 23 7b 68 3d
       0.012846103 -0.2941769 0.12933314 0.056758057
0001d0 c4 71 bd 3d d6 51 eb 3e a5 f4 a4 be 1a 61 b8 3d
       0.09250215 0.45960873 -0.322179 0.09002896
0001e0 68 ea ce 3d da 67 61 3e 27 35 1d 3d 5e 76 a0 3d
       0.10103303 0.22012272 0.03838077 0.07835077
0001f0 92 53 b9 be c4 ca a2 bd 24 6a a3 3e 9c 9a f5 3d
       -0.36196572 -0.07948831 0.31916916 0.1199238
000200 a0 0c fe be 9b 05 b1 3e 78 5c fb 3d 47 57 86 3e
       -0.49619007 0.3457459 0.122734964 0.26238462
000210 0e 27 3f be ba 3a eb be af b9 33 3e 71 ba 94 3e
       -0.18667242 -0.45943242 0.17551301 0.29048494
000220 95 a6 f3 3e 07 38 a5 bd d4 fe 18 be 9e 70 b5 3e
       0.4758803 -0.08067327 -0.14940959 0.35437483
000230 14 31 d2 3e b9 f0 b9 be ec 26 7e 3e 9d 1d f0 be
       0.4105307 -0.3631647 0.24819535 -0.46897593
000240 f5 d7 6b 3e 64 af f7 be 74 9d 95 3e 85 bb 89 be
       0.230316 -0.48376 0.2922169 -0.2690088
000250 46 45 4f be 26 ac 64 be ca 36 ee 3e 1a b6 79 3d
       -0.2024127 -0.22331294 0.46526176 0.06096468
000260 ea ff 45 3e 75 0a 6f 3e 1c 60 4f bd 95 12 d3 3d
       0.19335905 0.23343833 -0.050628766 0.103062786
000270 d6 cd 61 3d bc 34 02 be a7 dd cf 3e 70 13 45 3e
       0.05512794 -0.12715429 0.40598795 0.19245696
000280 a5 3b 71 3e a4 3e 67 be 51 36 dc 3e 07 1f 56 bd
       0.23557909 -0.22582489 0.4301019 -0.052275684
000290 51 72 b6 3e 43 20 d1 3e 41 be c2 3e a8 c7 62 3e
       0.35634091 0.40844926 0.38035777 0.22146475
0002a0 2b 8d a7 be f3 65 8d be f7 87 3e 3e 14 43 db be
       -0.3272489 -0.27616844 0.18606554 -0.42824614
0002b0 b9 e3 e9 bd c4 11 2b be 79 da e9 bc d0 83 20 3e
       -0.11420388 -0.16705996 -0.028546559 0.15675282
0002c0 b0 24 11 3e e9 78 d0 bd db 6b f4 3d 1d 0d d4 3e
       0.14174151 -0.10179312 0.11934634 0.41416255
0002d0 40 ca 2f 3d fd f6 35 be 49 af d1 3e 0a 50 cd bd
       0.04291749 -0.1777 0.40954044 -0.10025032
0002e0 06 c1 5b 3e 04 cd 80 3e 35 16 65 be 7f 14 8d be
       0.21460351 0.25156415 -0.22371753 -0.275547
0002f0 ef d9 87 3e b9 6c 16 bd e3 00 41 3c 81 fc b2 bd
       0.26533458 -0.03672478 0.011779997 -0.087395675
000300 ee 19 e1 3e 7b 16 ed bd 4e 75 c4 bd b0 fc a0 3d
       0.43965095 -0.115765534 -0.095926866 0.07860696
000310 7a 27 1e be 81 7f b6 be 9b d5 e7 bc 8f 6a 3c be
       -0.15444747 -0.35644153 -0.028300097 -0.18400024
000320 78 e2 d7 be 7a d0 5c 3e c6 d5 9d bd eb 38 2e 3e
       -0.4216497 0.21563902 -0.0770679 0.170139
000330 55 e4 c8 bd ee ca 88 be 4e 7f 69 3e 48 45 64 be
       -0.09809176 -0.26717323 0.22802469 -0.22292054
000340 f6 2b f7 be b3 6a e3 3e b0 42 98 3b 87 94 6b be
       -0.48275727 0.44417343 0.0046466216 -0.23005877
000350 f5 6b 0f bd e5 1f 67 be b1 fc 7e bd ff 2b 96 be
       -0.035015065 -0.2257076 -0.062252704 -0.2933044
000360 c1 1b 7b be 28 73 a8 be a1 5a 90 bd 39 11 d2 be
       -0.24522306 -0.32900357 -0.07048536 -0.41028765
000370 09 8c 34 be 86 91 e1 3d a3 ad b2 be fc 2b 87 3e
       -0.17631544 0.110140845 -0.348981 0.26400745
000380 da 9d ce bd ea 6a 39 3e c2 c6 b8 3e ba 59 73 bc
       -0.100887015 0.1810719 0.3608914 -0.014852935
000390 0d ea 8f be fc c3 a5 3d c0 4f 46 be 0e b8 32 3e
       -0.28108254 0.08094022 -0.1936636 0.17453024
0003a0 69 ea 16 3d 6d ea cf be 69 7e db 3e c6 91 b8 3e
       0.036844645 -0.4060854 0.4286988 0.36048716
0003b0 87 23 72 bd b5 f7 ad be 71 09 99 be bc 5f a1 3e
       -0.059115913 -0.33978048 -0.29890016 0.31518352
0003c0 d0 f3 b9 3e 81 c3 6c be 62 df d3 be a2 cb 93 3e
       0.36318827 -0.23121454 -0.41381365 0.28866297
0003d0 cc a6 e1 be 77 a8 81 3d 6a 91 20 bd 19 bb f3 be
       -0.44072568 0.0633096 -0.039201178 -0.47603682
0003e0 04 57 2c 3e 36 a5 b3 bd 27 ef 00 3f e4 b4 bb 3e
       0.16830069 -0.08771746 0.5036492 0.36661446
0003f0 e4 55 98 3e 11 7e b8 3d 11 80 b6 3c fa 99 c4 be
       0.2975303 0.0900842 0.022277864 -0.38398725

fc1.bias f4 [128]
000000 56 d8 24 be 4a fd 89 3d c8 93 1c bf 49 2f cf 3e
       -0.1609815 0.06737764 -0.61162996 0.40465763
000010 ab c1 24 3e 13 e9 61 bf 79 52 21 bd 7c 8d 04 3d
       0.16089503 -0.8824627 -0.039385293 0.032361493
000020 e5 e4 04 3f e6 2f 27 bf 4d a6 3e bf aa d1 e8 be
       0.51911765 -0.6530746 -0.74472505 -0.4547246
000030 0b 7a 8b 3e 17 3a b4 3e 0e 29 24 be da 48 74 be
       0.2724155 0.3520057 -0.16031286 -0.23855916
000040 95 5f 4a bf 44 60 2c bf a2 5b c9 be af d0 c6 bd
       -0.79052097 -0.6733439 -0.39327723 -0.09707772
000050 b4 d4 ae 3e 51 75 d1 3e 58 d9 b4 be f9 f4 83 3d
       0.34146655 0.40909818 -0.3532207 0.06443209
000060 a4 14 9e be b6 13 96 3e 15 d1 c8 be d4 6b 1c bf
       -0.30875123 0.29311913 -0.39222017 -0.6110203
000070 ff 6a 7f bd 6c 2d 0d 3f d7 d6 8e be 3a cf 62 bf
       -0.0623579 0.55147433 -0.27898285 -0.8859745
000080 1d 52 92 3e ed a9 0d bf 0e d3 4d 3e 6f 87 71 bf
       0.28578272 -0.5533741 0.20100042 -0.9434728
000090 91 88 54 3d 3b 16 a3 be 1e 69 12 be 4e cf cf 3e
       0.051888052 -0.31852898 -0.14297912 0.40587848
0000a0 95 1e 43 bf 7d bc ea bb 79 2f a8 3e 96 cd 9a 3e
       -0.7621854 -0.007163583 0.3284872 0.30234975
0000b0 e4 e9 97 3e cc 2f 7b be 86 e0 25 be 29 07 3d bd
       0.29670632 -0.24529952 -0.1619893 -0.046149407
0000c0 9f 46 1d be 68 e1 2e bf 3f bd d2 be ff 18 4b 3e
       -0.15358971 -0.6831269 -0.41160008 0.19833754
0000d0 30 93 2f bf 3f 59 a7 3e 0a 46 3b be 9b 7f 19 bf
       -0.68583965 0.32685277 -0.18288437 -0.59960335
0000e0 06 d0 4d bf 1b 65 0a be 91 66 21 bd 52 96 6e be
       -0.80395544 -0.13515131 -0.039404456 -0.2329953
0000f0 18 9e 0e 3e 56 04 68 3d 58 fc 9d 3e 14 6b 8b bd
       0.13927495 0.05664476 0.30856586 -0.06807533
000100 a4 6d 97 3e be 5a b1 3e a4 87 f0 bd cf 78 6d be
       0.29575837 0.34639543 -0.117446214 -0.23190616
000110 b4 61 16 3f 04 37 03 3d 7f 38 44 3e 64 90 0a bf
       0.58742833 0.03203489 0.19162177 -0.5412657
000120 ab 31 ef 3e c3 ef 3a 3e fe 34 75 be 4d ec 7b be
       0.4671758 0.18255524 -0.23945996 -0.2460186
000130 4a d4 70 be eb 63 6e be af 72 83 be fc 84 d2 be
       -0.23518482 -0.23280303 -0.25673434 -0.41117084
000140 6f 7d af 3e 66 23 43 3e 06 80 99 3e 74 b9 7b be
       0.34275386 0.19056472 0.29980487 -0.24582464
000150 40 8e 01 bf 3f 0f 0d 3f 83 b6 b7 3e 10 82 31 bf
       -0.5060768 0.5510139 0.35881433 -0.69339085
000160 63 f3 8a 39 08 79 0b be 7a 3a 51 be 72 b9 1e be
       0.00026502748 -0.13620389 -0.20432463 -0.1550043
000170 73 64 18 3f 12 ec 8d 3e 0f 20 d1 be 2f 19 73 be
       0.59528273 0.2771917 -0.4084477 -0.23740076
000180 55 3c 93 bd 28 29 a9 3e bb 9e 2a be a8 d7 dc bd
       -0.07189242 0.33039212 -0.16662113 -0.10783321
000190 48 18 05 bf a1 15 7f bd da 8d 4e 3e 7b de 32 3e
       -0.51990175 -0.062276486 0.201713 0.17467682
0001a0 51 88 12 3f 94 43 ca be c3 b4 55 be 3c 53 f0 be
       0.5723925 -0.39504683 -0.20869736 -0.46938503
0001b0 3c 25 bc be dd 75 36 3f 78 bc de 3d 10 21 21 bf
       -0.36747158 0.71273595 0.10875791 -0.62941074
0001c0 b7 8b 71 bd 13 3e 91 bd f5 3a 93 be 6e 34 78 bd
       -0.058971133 -0.07091918 -0.28755918 -0.060596876
0001d0 9a d6 e3 3e 43 c3 87 be d0 3d 0a be 13 d8 a3 3e
       0.44499665 -0.2651616 -0.13500142 0.3200079
0001e0 75 96 a0 3e c3 68 d6 3c 54 33 60 bf 0f 8a 30 be
       0.3136479 0.026173001 -0.8757832 -0.17240165
0001f0 ab b3 2d 3f 3f ee 4d 3f a2 48 f7 bd 1e 52 1e bf
       0.67852277 0.8044166 -0.120744005 -0.6184405

fc2.weight f4 [128, 128]
000000 7b c8 ec bc e9 37 62 3c c1 9a e5 bc fa b3 3c bd
       -0.02890419 0.013807275 -0.028027894 -0.046070077
000010 c1 c2 4c 3c f9 d6 8e bd 02 a9 86 bd 37 dd 52 bd
       0.012497605 -0.069745965 -0.065752044 -0.0514805
000020 17 ee 39 3c 23 73 4a 3d ff ed 89 3d 3c 1c c7 bc
       0.011348269 0.04942621 0.06734847 -0.024305455
000030 da 89 8c bc 81 0e 9c bd 9f 36 1f bd 01 19 24 bd
       -0.017155576 -0.07619954 -0.03887045 -0.040062908
000040 9b f3 75 3d 5e 24 93 bd 18 d8 8d 3d 91 df a3 bc
       0.060046773 -0.07184671 0.06925982 -0.020004066
000050 5e d3 50 3d 1c e2 9f bd 2c c9 7a bd c0 3e 8f bd
       0.050982825 -0.07806799 -0.06122701 -0.069943905
000060 c9 8f 65 3d d6 c4 a3 3c 22 11 fb bc 7d f2 c2 bd
       0.056045327 0.01999132 -0.030647818 -0.09518907
000070 6e d6 63 3c 45 f5 5c bc 93 f2 bb bc 6c 60 0c bc
       0.0139061045 -0.013486211 -0.022942817 -0.008567911
000080 1d b0 a6 bd 9a 0c 47 3c 80 01 69 3d 65 6c 90 3d
       -0.0813906 0.012149001 0.056886196 0.070519246
000090 e9 cc 90 bd 89 85 ee 3c e3 ae 63 3d 43 9e 93 3a
       -0.070703335 0.029116409 0.055586707 0.0011262376
0000a0 bf 0f bb bc a1 68 ec bc 68 bc 91 bd 98 93 40 3d
       -0.022834657 -0.028858485 -0.07116014 0.047015756
0000b0 af 30 de 3c 4e 2d 8d 3d a4 08 82 3b 85 ba 16 bd
       0.027122824 0.06893407 0.003968315 -0.036798973
0000c0 70 c6 0e 3c 38 a6 b3 bd 03 95 53 3d 0b ca b1 3d
       0.008714303 -0.08771938 0.05165578 0.08681115
0000d0 6a 0a c1 3c 1c 3c 1b 3a 0f 3d 99 bd 0d 97 91 3d
       0.023564536 0.0005921738 -0.07482349 0.07108889
0000e0 38 d6 89 3c d7 f1 c4 bc 22 ed fb 3c e0 cf d9 3b
       0.01682578 -0.0240411 0.030752722 0.006647095
0000f0 7e 6a 7e 3d dd 62 ad 3d aa 39 2b bc 75 6b 20 bd
       0.062113278 0.08466122 -0.01045076 -0.03916498
000100 08 b0 f7 bb 1e f0 33 bd 92 e9 2c 3d 0f b3 82 bd
       -0.0075588264 -0.043930165 0.042214938 -0.06381809
000110 b3 3b dd 3c 27 47 82 bd 8d 62 c4 3c 5a 0a 8b bd
       0.027006006 -0.063612275 0.023972774 -0.06789084
000120 1a 34 62 3c a6 ac 9e 3c c5 80 c4 3c a6 13 72 bd
       0.013806367 0.019369435 0.023987183 -0.05910077
000130 76 e0 97 3d bd 6e 50 bd 8f 3a e3 3c 61 60 08 3d
       0.074158594 -0.05088686 0.027737884 0.03329504
000140 42 24 98 3d f6 3e 98 bd 11 cd 87 bd f0 1d 6c 3d
       0.07428791 -0.07433884 -0.0663091 0.057645738
000150 f2 c2 2f 3a 92 89 91 3d 94 9d ab bc de fd 91 3c
       0.00067047693 0.071063176 -0.020949163 0.017821249
000160 d7 fd 89 bc 9e 7f 90 3d 64 56 08 bd 1f 6f 00 bd
       -0.016844673 0.07055591 -0.033285514 -0.031355973
000170 85 00 93 bd 3f f6 96 3d be 4b 25 bc d5 f0 91 bd
       -0.071778335 0.073711865 -0.010088859 -0.07126013
000180 c5 f3 8c 3c dc d6 6e bd c0 c9 33 3d 0e 0e 85 3d
       0.017206082 -0.058310375 0.043893576 0.06496821
000190 7a b3 a8 bc 7d 80 49 3d 46 d4 2b 3d ae f1 73 3d
       -0.020593394 0.0491948 0.041950487 0.059556656
0001a0 b2 79 9e 3c 57 8c 9b bd e2 1b 9b 3c 59 c5 95 bd
       0.019345138 -0.07595127 0.018934194 -0.07313032
0001b0 5e b6 b0 bd 66 c5 b0 bc 99 2c b8 3c 55 d0 0d 3c
       -0.08628534 -0.021578502 0.022482203 0.008655627
0001c0 4a f1 84 39 05 5f bd 3c b1 3b 61 3d 0b 6d 87 bd
       0.00025356776 0.023116598 0.054988567 -0.06612595
0001d0 25 31 57 3d 49 5a a4 bd 1b 7e 31 3c a5 c4 96 bd
       0.052537102 -0.08025033 0.010833289 -0.07361726
0001e0 27 3c 56 3d 0c f0 92 bb 4f 10 0b 3d e1 5f 72 3d
       0.05230346 -0.004484182 0.0339511 0.05917347
0001f0 9e a0 b2 bd ce 3d 90 ba cb 4d 49 3d 2f 54 9c bd
       -0.087220415 -0.0011004747 0.049146455 -0.07633244
000200 28 6c be bd 49 c9 06 3c af 95 6c 3c a6 a2 58 bd
       -0.09297973 0.008226701 0.014439984 -0.05288949
000210 80 cb 7b 3b ab 00 56 3d 5b e1 a8 3b ac 3c b0 bd
       0.0038420856 0.05224673 0.0051538176 -0.08605322
000220 77 14 39 3c cd 8f b2 bb b3 3b 15 bc 58 3c 5e 3c
       0.011296383 -0.0054492713 -0.009108472 0.013564192
000230 5a 8f 1b 3d 39 c0 16 3d 3c ba 67 bd ad 23 a1 3d
       0.037978508 0.03680441 -0.05657409 0.07868133
000240 8b 39 08 bc 4c f6 b7 bd 55 4c 3e 3b f9 a1 45 bd
       -0.008314501 -0.08982524 0.0029037197 -0.048250172
000250 70 15 04 bc 5f 05 39 bd 2c aa 67 3d cd fe 05 3d
       -0.008061752 -0.045171138 0.056558773 0.0327137
000260 e2 96 e2 3c 45 1f b1 bd 99 4c b5 3c 65 61 85 bc
       0.027659837 -0.08648542 0.022131251 -0.016281793
000270 1e ad 37 bb 3a d0 7b bc b2 92 a5 bd 7c 72 d2 bd
       -0.002802677 -0.015369469 -0.080846205 -0.102757424
000280 0c 0c 8d 3d 58 01 b7 bd e0 f1 9b 3d cb a5 46 bd
       0.068870634 -0.08935803 0.07614493 -0.048497956
000290 66 ce 30 bd 36 c4 da 3c e8 9a 9f bd 3d a6 93 bd
       -0.043165587 0.026704889 -0.07793218 -0.07209442
0002a0 f5 b8 44 3b e8 b8 aa 3d 3a 31 d8 bc e8 49 80 3c
       0.003001747 0.08336049 -0.02639066 0.015660241
0002b0 fe 74 a7 bd a2 fd 2a bd b0 4d 3c bd 8f b7 26 bc
       -0.08176611 -0.04174579 -0.045972526 -0.0101756
0002c0 e7 e7 5e 3d f6 de ba bd 9d ca 17 3d 63 1c 96 3d
       0.054420378 -0.09124558 0.03705846 0.07329633
0002d0 b0 d5 83 bd 9d 56 81 bd da f9 ce 3c 29 18 7f 3c
       -0.06437242 -0.06315348 0.025265623 0.015569725
0002e0 99 f9 2d bd 10 18 24 3c dd 94 79 bd d4 81 ae bd
       -0.042474363 0.010015503 -0.060932983 -0.085208565
0002f0 1a b1 2e bd f4 31 80 3c 95 a1 81 bc f2 71 c5 3c
       -0.042649366 0.01564882 -0.015824119 0.024102185
000300 34 84 87 3c 21 60 49 3d 12 3a c9 3c a3 80 85 bc
       0.016542532 0.04916394 0.024563823 -0.01629669
000310 48 77 44 3d 15 1c b9 bd d9 d2 0a bd d1 15 da bd
       0.047965318 -0.09038559 -0.033892486 -0.106486924
000320 c0 a5 c9 3c cd 27 37 bd 42 c7 9b 3d 02 c8 86 3d
       0.024615169 -0.04471569 0.07606365 0.06581117
000330 fd 66 70 3d 06 05 80 bc 03 fe 8b 3d 8c ac 84 bd
       0.058691967 -0.015627395 0.06835558 -0.06478223
000340 b5 0e 7e bc 82 56 7c bd 41 f2 82 bc 7b 54 97 3d
       -0.015506436 -0.061605938 -0.015984656 0.0738916
000350 f4 c7 f9 bc 6b aa af bc 53 ac 0e bd 65 5c b6 bd
       -0.030490853 -0.021443566 -0.03483231 -0.089043416
000360 bf 17 a8 bd 89 80 1c 3d 46 db 75 3d 16 02 68 bd
       -0.08207654 0.03820852 0.06002357 -0.056642614
000370 b9 c3 8a 3c e9 20 18 bd 72 92 5b 3d 37 a3 6a 3c
       0.016939031 -0.03714076 0.053606458 0.01432114
000380 e0 59 3a bd cd 0d 28 bd 91 b7 88 bd df 0c f4 3a
       -0.045495868 -0.041028786 -0.066756375 0.0018619559
000390 dd 55 dc bd ff c5 be bc 0f ea 95 bd a4 75 42 3c
       -0.107585646 -0.023287771 -0.07320034 0.011868868
0003a0 44 26 ba 3c 09 1f 82 bd 66 c6 fe 3b 12 a8 93 bc
       0.022723325 -0.06353576 0.007775116 -0.018024478
0003b0 ba 29 41 3b 7a 53 87 bc 3f c1 5e 3c a0 44 71 3a
       0.0029474334 -0.016519297 0.013595878 0.00092036463
0003c0 48 07 e8 bb ab d7 72 3d 9e 59 f2 3a 8a f3 85 bd
       -0.007080946 0.05928771 0.0018489843 -0.06540592
0003d0 1c 7b 5e 3c 0f bb 3c 3d 37 1d 1e bd df bc 30 3d
       0.013579156 0.04607683 -0.03860208 0.04314887
0003e0 8d c6 03 3d ec bc fe 3b b2 fd e9 bb b9 0b 9d 3d
       0.032171775 0.007773986 -0.0071408385 0.076682515
0003f0 6e 34 35 3d 71 3f 7c bc 1e 98 ec 3c 86 ac 48 3d
       0.044239454 -0.015395985 0.028881129 0.048992656

fc2.bias f4 [128]
000000 7d e0 c5 bc ad 2e a0 bd 47 d9 9d bd ae a1 b4 be
       -0.024154896 -0.07821403 -0.07707458 -0.35279602
000010 5d be 07 be ba a4 49 bd 93 2d 06 3d 28 18 51 bd
       -0.13256212 -0.04922936 0.032758307 -0.051048428
000020 32 b0 c6 3b 22 db 1b 3d 88 68 5a bd 97 a4 1e 3d
       0.0060634846 0.03805078 -0.053322345 0.038731184
000030 1d 92 bb 3d 7b bb 71 3d 4e 4e 78 3e b5 ed e7 bd
       0.09158728 0.059016686 0.24248621 -0.11324636
000040 8d bf 56 bd 99 eb 9a bd bd 9d 1a 3e 4f 5c 6e bc
       -0.05242877 -0.07564468 0.15099235 -0.014548375
000050 f5 bd 94 bd 55 bf ba be 79 c6 7b 3d c1 b5 49 be
       -0.07262794 -0.364741 0.061468575 -0.1969824
000060 48 6f 90 bd a7 fb 49 3d bc c0 6b be 83 ce ab 3b
       -0.07052475 0.04931226 -0.23022741 0.005243124
000070 c2 68 45 3e 8a c4 37 3e 81 71 36 be a7 cb 44 3d
       0.19278243 0.17946067 -0.17816736 0.04804578
000080 bc 14 2e 3b ca ba 3b bd 50 a1 96 3d a1 8c 15 bd
       0.0026562652 -0.045832433 0.07354987 -0.036511067
000090 32 d0 8b bd d1 72 95 3d 2a 31 1d be ed d0 b9 3c
       -0.068268195 0.0729729 -0.15350786 0.022682631
0000a0 fb 70 19 bd 30 49 bd 3e 29 a5 98 ba e5 00 46 bd
       -0.037461262 0.369699 -0.0011645901 -0.048340697
0000b0 7a 65 ce bd 5e 54 51 3d f2 9f 2b 3c 8e bc b2 3d
       -0.10077949 0.05110585 0.010475146 0.0872737
0000c0 50 84 a1 bd 7e ff 9e 3d ef 20 43 bd d1 16 60 3e
       -0.07886565 0.07763575 -0.04763883 0.21883704
0000d0 41 20 80 bc 62 f7 9c be 0a 4a b6 bd 45 c4 71 bd
       -0.01564038 -0.30657488 -0.089008406 -0.059025068
0000e0 c4 cf aa be 38 f8 af bd e8 9b 84 bd 3a a0 2e 3c
       -0.33361638 -0.08592266 -0.06475049 0.010658318
0000f0 ac ff b4 be 5a 91 a9 be 69 d9 00 bc 86 ed 53 bd
       -0.35351312 -0.33118707 -0.007864335 -0.051740192
000100 fd 2c 4d bd 22 c9 ba bd 36 33 bf 3c d6 92 8f bd
       -0.050091732 -0.09120394 0.023339849 -0.070104286
000110 5f 70 01 3d 1d 0d a0 3c f3 ec 7a bd 65 9a 9d 3d
       0.031601306 0.019537503 -0.06126113 0.07695464
000120 49 33 03 3d 9f cf bb 3e 03 4c 03 3c 19 95 80 bd
       0.03203133 0.3668184 0.008013728 -0.06278438
000130 cc e5 b3 be 3b 84 b2 3c f2 3a 9e bd 32 91 c4 be
       -0.3513626 0.021791568 -0.07726087 -0.38392025
000140 1c 0b b8 bc 14 c4 cb bc 71 10 91 bd df 83 8f 3e
       -0.022466235 -0.02487377 -0.07083214 0.28030297
000150 7f 94 bf be b1 16 8a bd 46 04 ca be b4 2c d0 3a
       -0.3741798 -0.06742609 -0.39456385 0.0015882463
000160 75 a7 9a bd d4 ec 26 3d f0 ba dd bb cd 69 27 3e
       -0.07551471 0.0407532 -0.0067666695 0.16348954
000170 4b 1a ed bc fb ff 22 be 88 e7 73 be 4e 3f 6e 3e
       -0.028943202 -0.15917961 -0.23818791 0.23266336
000180 87 10 33 3d 20 36 f6 ba 12 5b 9e be c0 d5 80 3d
       0.043716934 -0.0018784441 -0.30928856 0.062907696
000190 5e b2 a6 be 27 95 25 3d 74 a6 b9 bd d3 e5 a3 bc
       -0.32557958 0.040425446 -0.090649515 -0.02000705
0001a0 5b f3 fb 3c 51 b4 c7 be 58 dd f2 be 31 84 d0 3d
       0.03075569 -0.39004758 -0.47434497 0.101814635
0001b0 35 87 e6 be 88 c4 89 be fd 48 4b bd 06 ed 32 bd
       -0.4502503 -0.26907754 -0.049630154 -0.043683074
0001c0 bc 87 5e bc 5c ad 9d be ee a1 a8 bd 04 6d 8e bd
       -0.013582166 -0.30796325 -0.08234011 -0.06954387
0001d0 06 e5 3b 3d 6a c1 6c be 4e e5 e2 bc 3f 45 cf bc
       0.04587271 -0.23120657 -0.027697232 -0.025301574
0001e0 5c 3d c0 be b0 1f bd 3b 6a a8 96 bd 5d 06 10 bd
       -0.37546813 0.0057715997 -0.07356341 -0.03516232
0001f0 23 57 42 bd dd 35 67 bd 67 2d 40 bd c7 b1 3d bd
       -0.04744638 -0.056447852 -0.0469183 -0.04631212

fc3.weight f4 [2, 128]
000000 54 19 88 3d f9 b2 f8 3c 76 62 ea 3b 57 cc ae bd
       0.06645456 0.030358778 0.0071528507 -0.085350685
000010 68 7e 25 bd a9 28 2c bd fe 87 90 3d 48 a7 21 3d
       -0.040403754 -0.042030964 0.070571885 0.039466172
000020 a5 06 03 3d 05 b3 96 3d 3e f1 ea 3c 04 f2 9f 3c
       0.03198876 0.07358364 0.028679486 0.019524582
000030 f9 bc a1 3c c6 2d f1 3b 29 0c 26 3e 6b bc 7e bd
       0.01974343 0.007360193 0.16215576 -0.062191408
000040 a2 6c 1b 3d 6c 85 45 bc ae 17 a8 3c 04 64 99 3d
       0.037945397 -0.012055736 0.020519104 0.074897796
000050 d2 74 6a 3d 7a 04 a9 bd 42 7d 02 3d 47 17 ad bc
       0.057240315 -0.08252807 0.031857736 -0.021129264
000060 27 b1 d1 3b b0 59 80 3d d4 8a a8 bd 64 4a 78 3d
       0.006399292 0.062671065 -0.08229604 0.06061782
000070 80 ec 89 3c ae ed 8a 3d 7e 13 0f bd 4a 5c 17 3c
       0.016836405 0.06783615 -0.0349307 0.009238312
000080 16 ca 5c bb 2f 49 c2 bb 7a a6 79 3d 81 b2 1b 3c
       -0.0033689789 -0.0059291343 0.06094978 0.009503008
000090 cc 22 19 3c 18 7f 43 3d 00 f0 d9 bc 5b 85 f1 bb
       0.009346675 0.047728628 -0.026603699 -0.0073706335
0000a0 c4 fa df 39 a8 11 3d 3d c6 cf b2 bc 8e 44 7f 3d
       0.0004272071 0.046159416 -0.02182759 0.06232124
0000b0 b5 3e 57 bd da a6 dd 3b 77 49 93 bd f3 e2 3d bd
       -0.052550036 0.006764275 -0.07191747 -0.046359014
0000c0 10 fa a6 3c 2c db 05 3d 51 6b 04 be 63 0e 1a 3e
       0.020382911 0.03267972 -0.12931563 0.1504455
0000d0 24 45 c2 3c 3f 18 74 bd e9 17 87 3d 8f 70 cb 3c
       0.02371461 -0.059593435 0.065963574 0.024833946
0000e0 cd 29 aa bd d6 2a fd 3b f1 10 5f bc ff 14 37 bd
       -0.08308754 0.0077260537 -0.013614879 -0.044697758
0000f0 26 05 a4 bd 46 f3 03 be c4 51 5d bd 40 0e 73 3d
       -0.080087945 -0.1288577 -0.054033056 0.05933976
000100 4c 23 1c 3d 85 d5 9c 3d e3 91 e5 3c 7b 2a 3d 3b
       0.0381196 0.07657913 0.028023666 0.0028864432
000110 49 db 62 3c 86 0b a1 3d 9e 0a 57 3c 6a d1 9a 3d
       0.013846227 0.07863526 0.01312509 0.07559474
000120 e3 e1 92 3c da eb 0a 3d 95 b1 a2 3d 43 38 b2 bd
       0.017929977 0.03391633 0.07944027 -0.08702137
000130 4f a4 df bd 8a dc 67 3d 22 ec a1 3b f8 b5 02 be
       -0.10920011 0.056606807 0.0049414793 -0.12764728
000140 2f ad 23 bd 80 4b b9 bc 31 2e 8f bd 46 c6 34 3e
       -0.039960083 -0.022619009 -0.06991232 0.1765376
000150 5c 16 b4 bd 8d 12 5b 3d 87 01 ba bd 52 e4 65 3c
       -0.08793327 0.05348449 -0.090823226 0.014031487
000160 30 f2 47 bd 90 3e 91 3d ce a2 38 3b fb ef 74 3c
       -0.048814952 0.07092011 0.002817321 0.014949794
000170 a7 71 0f 3d 77 fd 8b bc 9c 8f bc bc 38 cc e5 3c
       0.035020497 -0.017088635 -0.023017697 0.02805148
000180 97 2d 06 bd 05 47 b3 bd e9 97 b5 bd c6 78 20 bc
       -0.03275832 -0.0875378 -0.08866865 -0.00979442
000190 f3 c6 ed bd 8f ea 31 3c 38 41 d5 bc 44 79 4a 3b
       -0.11610212 0.010859146 -0.026032075 0.0030895034
0001a0 c9 21 94 3c a3 23 ab bd f0 68 ae bd d7 28 83 b8
       0.018082516 -0.083564065 -0.08516109 -6.254174e-05
0001b0 5a 1a d4 bd d3 4f 6d bd 52 91 94 bc 3b 51 8f 3d
       -0.10356589 -0.057937454 -0.0181357 0.06997915
0001c0 7e 98 42 3d 36 d4 86 bd 86 fa c4 3c 64 71 e8 bd
       0.04750871 -0.06583445 0.02404524 -0.113497525
0001d0 c5 61 9d 3c d4 66 a4 bd 17 39 ad bc 1d 66 9a 3d
       0.01921166 -0.080274254 -0.021145387 0.07539008
0001e0 c8 7b ea bd f7 2c 2b 3d 74 0b 49 3d b1 d6 74 bd
       -0.11449391 0.04179093 0.04908319 -0.05977506
0001f0 42 d6 b1 3c 53 26 98 bd 2c a6 95 bc b2 56 8c 3d
       0.021708611 -0.07429185 -0.018267713 0.06852473
000200 4c a1 62 bd 00 95 c5 bc e7 f3 49 bb 80 10 02 bd
       -0.055329606 -0.0241189 -0.0030815543 -0.031754017
000210 19 22 3e 3d 87 8b 4f bd 93 55 b0 3d e1 8b 3d bd
       0.046419237 -0.050670173 0.08610072 -0.046275977
000220 be f1 f7 bc 6c 47 14 bd 90 fd 55 3d ec dc 86 bc
       -0.030266639 -0.036200926 0.05224377 -0.016462766
000230 4e dc 0f 3e 83 db 68 bd 6a 0b a3 3e f1 85 96 bd
       0.14048883 -0.056849968 0.31844646 -0.07349766
000240 bc 38 a2 bb ff f8 a7 bb ad 26 32 3e 57 34 b1 bd
       -0.004950611 -0.005126118 0.17397566 -0.08652561
000250 cd 28 33 bc b9 7e b3 3e 1e 00 c6 3c a2 2b 8b 3e
       -0.010935021 0.3505762 0.024169978 0.27181727
000260 bf ae ac 3d cf d2 70 bd 8b 38 13 3d dc 12 0f 3d
       0.08431768 -0.058794793 0.035942595 0.034930095
000270 39 f9 8a 3c 4f 21 68 3c e1 20 6b bb 33 ce cc 3a
       0.016964542 0.014168098 -0.0035877752 0.0015625417
000280 66 c4 8d bc da a3 0f 3b 92 1c 3a bd 1f 7c a4 bd
       -0.017305564 0.0021917732 -0.045437403 -0.08031487
000290 77 c5 83 bd f7 93 3c bd 17 09 ee bc af 4a 99 bd
       -0.06434148 -0.046039548 -0.029057069 -0.07484948
0002a0 01 a3 44 3d 72 3e 42 3e f4 dc e0 ba 24 a6 71 bd
       0.048007015 0.18969133 -0.0017155693 -0.058996335
0002b0 cf 7b f7 3d 62 00 ef 3b a5 8c a7 3d 63 d7 4d 3d
       0.120841615 0.007293747 0.08181123 0.050254237
0002c0 d6 ba 0e 3d bd 93 1c 3d 4b c8 17 bd d3 27 37 3e
       0.03484615 0.03822683 -0.03705625 0.17886285
0002d0 a8 13 a2 bd d1 f3 ad 3d 79 d0 cc bc b3 21 66 3c
       -0.079139054 0.0849377 -0.025001751 0.01404612
0002e0 12 b6 b6 3c 75 11 96 bd 6c 48 7e bd 93 e1 1b 3d
       0.022303615 -0.073275484 -0.062080786 0.03805692
0002f0 c4 b7 76 3d cd 8a bf 3d e8 f3 3e bd b4 7e b4 bd
       0.060233846 0.09352646 -0.046619326 -0.08813229
000300 df 1f ef bb b5 b0 35 bc 50 b7 f4 bc df 9f 5f bd
       -0.0072975005 -0.0110894935 -0.029872566 -0.054595824
000310 25 e6 69 bd 05 fa d8 3c b2 17 53 bd 6c 74 e3 3c
       -0.05710425 0.026486406 -0.05153627 0.027765475
000320 d7 fb e2 3b 57 6a 8f 3e 19 81 77 bd 80 7c 9e 3d
       0.0069269943 0.28010818 -0.06042585 0.0773859
000330 b8 0b c9 3d 43 ca 80 bd 64 ec 27 3d a0 22 21 bd
       0.09816688 -0.06288578 0.040996924 -0.03933966
000340 e4 e9 c7 bb 32 c2 0e bd 7c e0 4e bd 10 35 3d 3e
       -0.00610088 -0.034853168 -0.050507054 0.18477273
000350 53 f9 3b bd a0 2d 1e bd 95 56 44 bd c9 d9 a1 bd
       -0.04589207 -0.03861773 -0.047934134 -0.07902867
000360 a9 43 6d bd 8c 0b 8a ba 44 84 6f bd 2c cb 6f bc
       -0.057925854 -0.0010532006 -0.058475748 -0.014635842
000370 f6 5e 2b bd 77 f1 15 3d de 1c 80 3d 81 8a 55 3e
       -0.04183861 0.036607232 0.06255506 0.20853616
000380 76 62 af bd 7f c9 6b bd 87 61 d0 3c 4b 14 9e 3e
       -0.08563702 -0.05756521 0.02543713 0.30874857
000390 dc be a5 3d 68 19 32 bc 31 42 2b bb 56 54 26 bd
       0.08093044 -0.010870315 -0.0026131982 -0.040607773
0003a0 af b8 6d 3b 31 a4 a6 3d 1b 36 49 3d 28 b3 9d 3c
       0.003627341 0.08136786 0.049123865 0.019250467
0003b0 73 99 ae 3c a0 f9 09 bd c8 6e 8e bd 3b 20 19 3d
       0.021313405 -0.033685327 -0.069547236 0.037384253
0003c0 a1 77 e8 bc d5 34 9a 3d 2f 97 51 3d da 45 a8 3c
       -0.028377356 0.07529608 0.05116957 0.02054112
0003d0 f1 91 99 3d a6 56 70 bd bf 7e 55 3d 34 59 16 3c
       0.07498539 -0.058676384 0.052122828 0.009176541
0003e0 7a f5 82 3d ff 52 1e bd ce ea 88 3c cc 39 42 3d
       0.06394477 -0.03865337 0.016713526 0.0474184
0003f0 32 01 1b bd c4 82 82 3c 33 27 3d bc 57 bc 0e 3d
       -0.037842937 0.015931495 -0.01154499 0.034847584

fc3.bias f4 [2]
000000 7a f4 d6 3e 7a 52 87 3c
       0.41983396 0.01651882

fc1.weight f4 [128, 84]
000000 1d c9 82 3e f0 dc aa 3d 47 29 5d 3e 08 7f f4 3c
       0.25544062 0.08342922 0.21597777 0.02984573
000010 f8 81 c9 bd 16 d8 80 3b 53 87 fd bb fa 6f c3 bd
       -0.09839243 0.0039320095 -0.007737079 -0.09542842
000020 20 a4 ba 3d 4c 70 41 bc 16 92 8c be ab e2 36 3e
       0.091133356 -0.011806559 -0.27455205 0.17859904
000030 22 7f 23 be cd 9b 98 3c 75 bf 3b 3d 8b 4f 79 bd
       -0.15966466 0.01862898 0.045836885 -0.060866874
000040 99 a1 82 bc ad 06 49 bd a0 a0 38 3b 21 c2 b1 3d
       -0.015946196 -0.049078632 0.0028171912 0.08679605
000050 a9 ed 8a 3d ac 27 80 bd fb 97 0c be 0d 68 b9 3c
       0.06783611 -0.06257567 -0.13729851 0.022632623
000060 cb 73 3e 3c 75 20 62 bd c6 27 1f bd 32 c1 24 be
       0.011624287 -0.055206735 -0.03885629 -0.16089323
000070 1f 90 f3 3d fd 20 e4 bd ad f9 e9 bd d6 f6 b3 bc
       0.11892723 -0.111391045 -0.11424575 -0.021968286
000080 39 bc e7 bd f2 fe e7 3d ab c8 63 bd cb 9b a9 bc
       -0.113151975 0.11327924 -0.055611294 -0.02070417
000090 14 11 e2 3d 8f 8e a1 be d8 df 53 bd 0d 9e be 3c
       0.11038414 -0.31554076 -0.051727146 0.023268724
0000a0 19 2a 46 3d e1 8a 3a be 3a 29 9f 3d 41 43 56 3c
       0.04837999 -0.1821704 0.07771535 0.013077558
0000b0 ad 95 77 bd 0c 08 d8 3d a4 56 f7 bd 6d c2 59 bd
       -0.060445476 0.1054841 -0.12077072 -0.053163934
0000c0 18 c3 2a be 4c 38 08 3d 67 e4 2f be 70 65 7f be
       -0.16675985 0.033256814 -0.17176972 -0.24941039
0000d0 5d 78 2a be c3 a9 d7 bd d3 a5 cf 3d ea ff 23 3e
       -0.16647477 -0.10530426 0.1013905 0.16015592
0000e0 25 2f ea 3d ac 0b 17 3d d0 f5 8f 3d c6 ad 3a 3d
       0.11434773 0.036876366 0.07029307 0.04557588
0000f0 9b a4 01 3d 1d 2e b4 bd 54 09 de 3b 88 0f d3 3d
       0.03165112 -0.08797858 0.0067760143 0.10305697
000100 b3 9f bb 3d b7 ae 82 3d 96 f1 ab bd 31 5a c6 bd
       0.091613196 0.063809805 -0.08395688 -0.096851714
000110 77 1b ab 3d 3e 27 80 bb b2 f4 8d 3d 70 69 09 bd
       0.08354848 -0.003910928 0.069314376 -0.03354782
000120 a3 0f 9e bc 9a 7c cf bd d3 96 fb 3b 92 90 4f 3d
       -0.019294566 -0.10131188 0.0076778918 0.050674982
000130 7e be 26 bd d7 3f ce 3e a9 a2 d4 3d bb ee 12 bd
       -0.04070901 0.4028308 0.103825875 -0.035872202
000140 02 8a 83 3d 85 4b 38 ba 15 e7 c2 bd c3 e5 4c 3d
       0.06422807 -0.0007030296 -0.09516732 0.050023805
000150 bf 2f fd 3c 3c 75 32 bd f2 a3 b2 bc f7 34 d5 3c
       0.030906556 -0.043568835 -0.02180669 0.026026232
000160 fd ec a2 bd 72 8f 92 bc a1 b8 b6 3c 2f c1 66 3c
       -0.07955358 -0.017890666 0.022304835 0.0140841445
000170 86 0e 12 bd ea 94 cc 3d 90 00 5d bd 62 af a9 3d
       -0.035658382 0.099893406 -0.053955615 0.08285405
000180 e3 03 6d bd 69 51 bc 3c fb 55 93 bc aa 19 55 3d
       -0.057865035 0.022988038 -0.017985335 0.05202643
000190 83 f4 f8 bd db e8 c4 3a 25 58 55 3c 72 6f aa bd
       -0.12156012 0.001502301 0.013021504 -0.08322038
0001a0 a4 e6 c7 bd 9f 13 d2 bd ec b9 a8 3c f6 47 9b bc
       -0.09760788 -0.10257649 0.020596467 -0.018955212
0001b0 d4 d5 28 3d c6 66 0b 3d a2 5b e8 bd 0a 8e 1d bd
       0.041219547 0.03403356 -0.113456026 -0.038465537
0001c0 29 6a 6f 3c dc 11 96 bc b4 cb 5b ba bb b3 8c 3d
       0.014612713 -0.018319063 -0.0008384541 0.06870218
0001d0 c4 da 8c bd 3c 8c 1e bd d2 f6 67 3b d3 7a 5e 3b
       -0.06877664 -0.038707957 0.003539492 0.003394772
0001e0 2d b9 a1 3d e6 96 a5 bd 1d bf 8b bc f0 fe 88 3d
       0.078966476 -0.08085422 -0.017058903 0.066892505
0001f0 3e 2d 9f bd 7f 28 a7 bd bc 7c 04 bd 75 6b 94 bd
       -0.07772301 -0.08162021 -0.03234552 -0.07247058
000200 03 d3 de 3d 07 c8 99 bd b4 4c cf bd 95 e7 4f 3c
       0.10880091 -0.07508855 -0.10122052 0.012689491
000210 81 13 81 3d c3 57 c5 bd 93 c8 ea bd 18 3b ca 3c
       0.06302548 -0.0963588 -0.11464038 0.024686381
000220 77 1b a5 bc 3f 2e 91 3d 7f 04 04 bc d3 df db 3c
       -0.020154698 0.07088899 -0.008057713 0.026840126
000230 e7 71 f5 bd a2 1f 21 bd c6 9f 7a 3d 6c 9d ad bb
       -0.11984616 -0.039336808 0.061187528 -0.005298307
000240 55 82 54 bc 2e af 50 bc da a1 86 bd f7 41 cc bc
       -0.012970527 -0.012737079 -0.065738395 -0.024933798
000250 05 1d c2 3c e7 d4 3e 3d 19 a7 cb bd e8 87 f8 bd
       0.023695478 0.04658976 -0.09943981 -0.12135297
000260 88 62 dc bd 15 41 96 3d 75 fd 6a bd 96 3f 8d bd
       -0.10760981 0.07336632 -0.05737062 -0.06896894
000270 71 62 16 bc ab 55 33 bd 94 4d b7 3d 64 04 63 3c
       -0.009178744 -0.04378287 0.08950344 0.013856027
000280 1d 08 d2 3d 74 c2 a2 3d c9 77 62 3d a3 6d 96 3d
       0.10255454 0.07947245 0.055290017 0.0734513
000290 59 71 b0 bc a4 24 58 bc 11 39 8e 3b b0 67 88 bc
       -0.021538423 -0.01319233 0.004340299 -0.016651005
0002a0 c2 ee 8c 3d 43 37 bc 3b b5 9f 7f 3d cb 71 9d 3c
       0.06881477 0.0057438924 0.062408168 0.0192193
0002b0 6d a1 d4 bd 28 f8 5d 3d e5 8d 84 3c dd 1f 44 3c
       -0.10382352 0.05419174 0.016180942 0.011970487
0002c0 fe 48 49 bd ed 0e dd bd f4 84 02 3e a9 5e 53 bd
       -0.049141876 -0.107938625 0.1274603 -0.051603947
0002d0 77 ca 2e 3d 8b 38 58 3b 2c 07 33 3e c4 b3 bb 3d
       0.042673554 0.0032992687 0.17483205 0.09165147
0002e0 5e a8 ed 3b a3 68 d6 3d 70 9f 93 bc c6 68 30 3e
       0.007252737 0.104691766 -0.018020362 0.17227468
0002f0 06 d0 f1 3c cc fe 12 bc 9f 17 5f bd dc d9 09 bd
       0.029518139 -0.008971881 -0.054465886 -0.033655033
000300 c4 da 39 3e 3f 42 35 3d 31 32 38 3b d3 16 1a 3d
       0.18149859 0.04425263 0.0028106088 0.037619423
000310 04 9b 83 bd 16 c0 33 3e 1c f3 0a 3e 92 2d 4f bb
       -0.06426051 0.17553744 0.13569301 -0.0031612855
000320 28 55 c2 bd ee 9a 4c 3d 12 ea 1a 3e a3 dd a5 3d
       -0.094888985 0.04995244 0.15128353 0.080989145
000330 4a 87 90 3d 2e 83 66 bd dc 4a b7 bc a8 42 90 bd
       0.07057054 -0.056277446 -0.022374563 -0.07043964
000340 ec f1 83 bd ed 84 f7 3c c5 44 a2 bd 64 20 86 3d
       -0.06442627 0.030214751 -0.07923273 0.06549147
000350 84 86 38 3d 35 c9 91 3b 73 7f 6e 3d f3 c8 b7 3c
       0.04505016 0.0044490346 0.058227014 0.022434687
000360 5a 9a af 3d 3b 23 df bd 08 3a 00 3e e0 df e0 3d
       0.08574362 -0.108953916 0.12522137 0.10980201
000370 f0 bb 89 3d 3e d7 b8 3d dc 15 57 bd aa bc 2a bd
       0.06725299 0.09025429 -0.05251108 -0.04168383
000380 8d 09 3d bc a5 f7 1e bd 7b dc b9 bc c9 dd 8f bd
       -0.011537922 -0.03881039 -0.022688141 -0.07024724
000390 d4 5b 40 3d 52 4f 9b bd e8 f4 dc bc 47 52 c6 3b
       0.046962574 -0.075834885 -0.02697225 0.0060522887
0003a0 80 5a 13 be 57 a5 f8 bd b4 cf 03 bd 8f c3 ea 3d
       -0.14389992 -0.12140911 -0.032180503 0.11463081
0003b0 86 bb e7 bc 1e e9 1a bd 2b 5c 0b 3e 1c 61 a7 bd
       -0.02828766 -0.037819974 0.13609378 -0.08172819
0003c0 32 51 50 3d 7b 34 11 3e 38 53 89 3c 4f e1 e0 bb
       0.050858684 0.14180176 0.016763315 -0.0068627964
0003d0 53 da c3 bd 0b 1f 10 3d a2 e9 ec 3c 8e f9 68 bd
       -0.095631264 0.035185855 0.028919999 -0.05687862
0003e0 d7 ad 7f bd b7 6d 1d 3d cd f6 80 3e e0 20 cc 3d
       -0.062421646 0.03843471 0.25188294 0.09967208
0003f0 e9 f5 93 bd 4c 13 b8 bd c7 b4 a6 bd 29 9e a7 3c
       -0.07224638 -0.089880556 -0.08139949 0.020461159

fc1.bias f4 [128]
000000 cd 4a 0a 3d c4 20 fa bd f6 62 68 bd 98 70 97 3d
       0.03376274 -0.12213281 -0.056735 0.073945224
000010 e1 0c 3c bb a1 88 5b bd 52 e1 6b bd 89 2a bf 3d
       -0.00286942 -0.053597096 -0.05758793 0.09334285
000020 2c d3 17 bd a7 55 8a bd f8 9a f5 bd 57 8e 27 bd
       -0.037066624 -0.06754618 -0.119924486 -0.04090723
000030 bd f8 6d bd f2 56 c2 bd f6 52 6e bd ff d7 b9 bd
       -0.058098543 -0.0948924 -0.058184586 -0.09074401
000040 07 32 ed 3d e9 6b 97 3d 17 b4 bf 3c 08 e6 85 bd
       0.115818076 0.07393629 0.023401303 -0.065380156
000050 bf e0 18 3d eb c3 80 bc 81 6c 94 bd d6 ab b1 bd
       0.03732371 -0.015718421 -0.07247258 -0.08675353
000060 13 06 04 3d 51 18 e6 bb d7 d0 8b bc 88 85 af 3d
       0.032232355 -0.0070219417 -0.017067356 0.08570391
000070 d5 f7 76 bd 72 47 a4 bd 09 ef 07 bd 2e b4 37 bc
       -0.060294945 -0.080214396 -0.033186946 -0.011212392
000080 cb 62 0a 3d 2e aa d1 bd 2d 48 94 bd 35 45 d4 bd
       0.033785623 -0.10237537 -0.07240329 -0.10364763
000090 f2 2c a7 bc 3f e5 11 bd 77 1b 64 3d 9d 0e 99 3d
       -0.020407174 -0.035619017 0.055690255 0.074734904
0000a0 b5 fd 81 3d a8 53 3d 3d 6c 39 aa 3d 45 84 7f bd
       0.06347219 0.04622236 0.083117336 -0.062382
0000b0 5e 91 96 3c 4a e2 8f 3d fb 29 b3 3d e8 60 d1 3c
       0.018379863 0.07025583 0.087482415 0.025558904
0000c0 6c 10 8d 3c 90 07 3e bd 32 14 01 3d 76 89 37 3c
       0.017219745 -0.04639393 0.0315134 0.011202207
0000d0 e3 73 6c 3d fb 70 84 bc 47 88 1c bd 13 5f ae 3d
       0.057727706 -0.016167155 -0.0382159 0.08514228
0000e0 05 da 9e bc ec 8b 9b 3d 21 98 e3 bc e6 0f c3 bb
       -0.01939107 0.07595047 -0.027782502 -0.005952823
0000f0 54 3c 7f 3d ce 7d df bc 67 bf a1 3d 9d c0 c0 bd
       0.062313393 -0.027281668 0.07897835 -0.09411738
000100 6a 53 40 3c 53 c3 3e 3d 36 6a a6 bd fc 29 38 bd
       0.011738637 0.046572994 -0.08125727 -0.044961914
000110 91 80 0c 3d 3f 68 da bd 59 cf 43 3d 54 8c 26 bd
       0.034302298 -0.106644146 0.047805164 -0.04066117
000120 8c 9a 89 3d 02 2a 3a bd 41 16 99 3d 55 35 07 bd
       0.067189306 -0.045450218 0.07474948 -0.033009846
000130 ca 9a de bd 42 e9 6b bd 63 a0 74 3d 68 b7 9e bc
       -0.108693674 -0.0575955 0.05972327 -0.019374564
000140 6f 68 e8 3c 36 5c 6d 3c 64 f3 6e 3b 3a 3a 82 3c
       0.02837011 0.014487317 0.003646099 0.015896905
000150 fa 32 cd 3c 8b 0d 69 3d f0 ab 93 bd fc 2a 17 3d
       0.025048722 0.05689768 -0.07210529 0.036906227
000160 dd 4c f1 bd ba ed 6f 3c 9a 95 18 bc 95 e5 8d 3d
       -0.11782239 0.014644081 -0.009313012 0.06928555
000170 38 c7 c2 bc 62 8c aa bd 11 5d 2c 3c 34 1e 46 3a
       -0.023776636 -0.08327557 0.010520236 0.0007557601
000180 f4 f7 97 3c 3d f1 7b 3d f8 2f 2a bc 73 1b 7e bc
       0.01855085 0.06150936 -0.010387413 -0.015509474
000190 4f 01 79 bd d8 de 65 bd 57 1e ac bd a7 b4 27 3d
       -0.060792264 -0.056120723 -0.08404224 0.040943768
0001a0 09 f9 de 3d 8f 25 2a 3d 0f cc 75 bd 39 57 8a bd
       0.108873434 0.041539725 -0.06000906 -0.06754918
0001b0 1b 34 dc bd d4 5e e5 bd 50 f6 4b bd 3a f9 24 bd
       -0.10752126 -0.11199728 -0.04979545 -0.040276743
0001c0 c0 c8 87 bd 28 66 86 3d a3 8a 13 bd 35 d4 01 3d
       -0.06630087 0.065624535 -0.036020886 0.031696517
0001d0 ea 73 93 bd 55 e6 e3 bd 0d 02 9a 3d 3c 48 3d 3d
       -0.07199843 -0.11127917 0.075199224 0.046211466
0001e0 21 a2 7b bd db a1 51 b8 a1 89 64 3d ac 95 75 3d
       -0.061433915 -4.9980223e-05 0.055795316 0.05995719
0001f0 d2 84 08 bd 14 09 48 3d 8b ad 9e 3b 3e e1 88 3b
       -0.033329792 0.048836783 0.0048424653 0.0041772416

fc2.weight f4 [128, 128]
000000 8d 52 e6 3c a8 76 66 bb 35 0a 01 bd 52 30 82 bc
       0.028115535 -0.003516594 -0.031503875 -0.015892182
000010 57 26 89 3d a1 29 9f 3d 2f 8b 6d 3d 41 a7 95 bd
       0.06696766 0.07771612 0.057994064 -0.07307292
000020 ca 57 05 bd 94 7e 93 3d 2a 59 8c bc a9 1a 3b bd
       -0.032554425 0.07201877 -0.01713236 -0.045679722
000030 86 4a 5c bc f8 5b 8d bd 20 04 c9 3c 7e cb 86 bd
       -0.013445502 -0.06902307 0.0245381 -0.06581782
000040 b1 44 b4 bd ea 10 f2 3c 10 67 41 bd 8f e1 e6 bc
       -0.08802164 0.02954908 -0.04721743 -0.028183727
000050 e0 15 7c bd de 46 1d bb 56 68 c5 3c e3 71 1f bd
       -0.0615443 -0.002399854 0.024097603 -0.03892697
000060 ee 64 97 bc c8 9e 5f bb 47 97 3a 3d 29 c8 91 3d
       -0.018480744 -0.003412174 0.045554426 0.07118256
000070 d5 05 0e be e6 08 de bc 36 be 97 3d 4c 63 d8 3c
       -0.13869412 -0.027103852 0.07409327 0.026414536
000080 d5 b3 81 bd c8 3e 29 3d 13 67 35 be 2b 28 7f bd
       -0.06333128 0.04131964 -0.17715101 -0.062294167
000090 a4 3f 76 3d 06 c6 3a 3c 59 c0 49 3d a1 b9 8e 3c
       0.060119286 0.0113997515 0.049255703 0.0174225
0000a0 cc 8a 61 3d 9b b1 79 3c c8 69 81 3d 57 6c a7 3b
       0.055064008 0.015240098 0.06319004 0.0051093507
0000b0 ba 21 91 bd 6c d7 76 3d cd 6b 92 3d 03 9e 3b 3c
       -0.07086511 0.060264036 0.071494676 0.011451247
0000c0 66 36 ca bc cc 25 0a bd 40 c7 e7 3d 29 76 9e bc
       -0.024684142 -0.033727452 0.11317301 -0.019343453
0000d0 c4 c3 38 bc 46 02 07 3b 7e 18 c8 3c 70 db 00 bb
       -0.011277143 0.002060072 0.024425741 -0.0019662045
0000e0 26 5d 9d bd 09 d0 ba bc 71 ea de bb e1 73 1b 3d
       -0.07683782 -0.022804277 -0.00680285 0.037952308
0000f0 f2 19 ab bd f6 51 92 3d 01 e5 fe 3c 56 4e 8a 3d
       -0.08354558 0.07144539 0.031115057 0.06753223
000100 ca 8b 97 3d 93 c8 b0 bd 6b c8 83 bd fc 90 2c bd
       0.073997095 -0.086320065 -0.06434711 -0.042130455
000110 9e 27 89 3d 61 68 25 3d 32 05 cf 3d b0 3b 0e bd
       0.066970095 0.040382747 0.10108413 -0.03472489
000120 11 3d 49 3d ce bd bc bc 21 b6 22 bd b2 eb 7c 3d
       0.049130503 -0.023039725 -0.039724473 0.061748214
000130 c0 09 09 3d 16 f5 6f 3d d7 de 5e bd f7 81 60 bd
       0.033456564 0.05858334 -0.054411735 -0.054811444
000140 42 d5 b6 3c b3 6a c9 3b 2b 71 8d bc 9c 07 dd 3c
       0.022318486 0.0061467527 -0.017265877 0.026981167
000150 f4 f8 a0 3c 9a 2a 8a bd 59 5c 94 3d 9d 39 77 bc
       0.01964996 -0.06746407 0.072441764 -0.01508942
000160 22 dc 39 3d 7d cb da 3d eb c2 8f 3c 3c f7 e1 bd
       0.04537595 0.106833436 0.017548999 -0.11033484
000170 ce cf 13 bd 3a eb a6 3d 3c 83 1b bd 51 6d 2c bb
       -0.03608685 0.08150335 -0.03796695 -0.0026310275
000180 b3 9b fa bc 30 2c 37 bc c8 56 ec bd d9 61 4e bd
       -0.030591821 -0.011179969 -0.1153999 -0.050386284
000190 2f a3 da 3c 76 ad ae bd c9 f4 55 bc fb f2 46 bd
       0.02668914 -0.08529179 -0.01305885 -0.048571568
0001a0 86 cf 9a be 7a c5 bc 3d 50 54 cc 3c da 70 c1 bc
       -0.30236453 0.09217353 0.024942547 -0.023613382
0001b0 e9 95 d1 bc 5a 6e 11 3d 7d b8 a5 bb a4 d5 9b bd
       -0.025584178 0.03550563 -0.005057393 -0.07609108
0001c0 d6 22 ca bb d9 90 27 3d 0c 73 ba bd 09 53 7a be
       -0.0061687035 0.040909622 -0.09103975 -0.24445738
0001d0 f8 18 25 bd ca 0e 45 3d 38 0f 7b 3c f9 b5 2d 3d
       -0.040307015 0.048109807 0.015323453 0.04240987
0001e0 cb d3 49 3d b6 75 8e 3c 43 51 7d 3d b9 d9 08 bd
       0.049274247 0.017390113 0.061845075 -0.03341076
0001f0 38 82 80 bc 2e ff 49 bc 07 fc 59 3d 73 f1 83 3a
       -0.015687093 -0.012328906 0.053218868 0.0010066464
000200 a6 bf b7 bc 14 a0 10 bd 2b ba 18 bd 59 ff f7 ba
       -0.022430252 -0.035308912 -0.03728692 -0.0018920704
000210 61 87 c9 3c 48 d7 a1 3d 68 5a 0e 3d ad 83 33 3d
       0.024600687 0.0790239 0.034754187 0.043826748
000220 83 29 8d 3d ed b5 87 3d fe 5c 38 bc 8b 35 6d 3d
       0.06892683 0.066264965 -0.01125264 0.05791239
000230 df 3f a5 bd 39 a5 4f bd c4 29 d6 bc 17 86 28 bd
       -0.08068823 -0.050694678 -0.026142962 -0.041143503
000240 59 ed 48 bc 06 d8 c4 bb 03 2b 9b bd 52 10 46 bd
       -0.012263619 -0.0060071973 -0.07576563 -0.048355408
000250 41 e4 88 3d 35 17 86 3a e8 9e 7e bd e7 d1 4c 3d
       0.06684161 0.0010230305 -0.062163264 0.050004866
000260 25 08 ea 3c 85 35 fd 3c 63 ee 16 bd a4 af 5e bb
       0.028568337 0.03090931 -0.036848437 -0.0033979202
000270 05 26 1a 3d 8b 24 93 3d 5e 96 a0 bd cd 1b a3 3c
       0.037633915 0.071847044 -0.0784118 0.019910717
000280 b5 d9 4f bd d5 c6 ce 3c 83 45 04 bd b0 8e 9f bd
       -0.05074473 0.025241295 -0.032292854 -0.07790887
000290 98 13 60 3d bb 44 85 bd e2 02 71 bc ee 6d c4 bc
       0.054706186 -0.0650725 -0.01471016 -0.0239782
0002a0 19 91 14 3d 3d 10 2c 3d c7 0d 9b ba 14 33 05 3d
       0.03627119 0.042007674 -0.0011829667 0.032519415
0002b0 e9 f9 8d bd 20 43 96 bd 5d 68 ae bc 48 e8 a1 bc
       -0.06932432 -0.07337022 -0.021289999 -0.01976408
0002c0 b3 38 a4 bd 73 d6 27 3b 3f 0d 8b bc 62 58 b5 bd
       -0.08018627 0.002561 -0.01697409 -0.08854748
0002d0 09 9d ff bc d3 3d 38 bd 1a df a2 bc cf 7f 50 3d
       -0.03120281 -0.044980835 -0.019881774 0.050903138
0002e0 30 83 df 3b 45 be 13 3c 13 75 89 3d fd 8e 1e 3d
       0.0068210587 0.009017532 0.06711783 0.038710583
0002f0 98 8a ac 3d 99 af 42 3d ea 77 04 bc 41 83 2b 3d
       0.08424872 0.047530744 -0.00808523 0.04187322
000300 98 40 41 3d fb 39 79 3d 63 8e 94 bc c6 71 d8 3c
       0.047180742 0.06084631 -0.018134302 0.026421439
000310 e5 fe b3 3d 0a 01 ac bd b6 fa d0 bb 8e da 8b bd
       0.08788852 -0.08398636 -0.0063775433 -0.068287954
000320 ae 15 99 bd 71 be 58 bd 5e 5e f3 3c d4 38 2c 3d
       -0.07474838 -0.052915994 0.029708084 0.042046383
000330 3c 1c 18 3d 53 ce c8 bd 92 4e af bd 28 ef 8f 3d
       0.0371363 -0.09804978 -0.08559908 0.07028037
000340 57 b2 6d bd 9f 65 3f bd 18 d8 95 bd a0 b3 12 3b
       -0.058031406 -0.046727773 -0.07316607 0.0022384897
000350 78 29 7e 3d ee b8 75 bb 93 8c fe 3b 97 a5 83 bc
       0.062051266 -0.003749426 0.0077682226 -0.01607017
000360 cd 5a 57 bd 6b 42 b0 bd 09 3b e9 3c f8 0d 68 3d
       -0.05257683 -0.08606418 0.028470533 0.056653947
000370 e3 7a 16 bc 9a da af bd 26 b2 03 3b cc ab 19 3c
       -0.009184572 -0.08586617 0.0020095198 0.0093793385
000380 41 4c 33 3d 0d cd 1c 3d 65 56 69 3c d0 08 ba 3c
       0.043773893 0.03828149 0.0142417895 0.02270928
000390 bc 7c 7a 3d d8 09 8d 3d 91 9a 92 bd 9c 4b 1a 3d
       0.061154112 0.06886643 -0.071583875 0.037669763
0003a0 9c 80 81 bd a9 52 32 3d 47 6f 94 3d f2 af 6c 3d
       -0.063233584 0.043535862 0.07247787 0.057784982
0003b0 c2 e3 af 3b c0 fb 34 bd 38 39 31 bc 12 60 49 bd
       0.005367727 -0.0441854 -0.010816865 -0.049163885
0003c0 9f 3a f2 3b 1e b6 b7 3c e0 98 02 3d a8 42 37 3d
       0.007392242 0.022425707 0.031884074 0.044741303
0003d0 2c 53 84 3d 45 58 03 bd 1c 2f 1d bd 38 cd a7 b9
       0.06461176 -0.032066602 -0.038375005 -0.00032005622
0003e0 88 1f ac bd a1 b2 b0 3d b5 dd 2b bd 73 05 aa 3c
       -0.084044516 0.08627821 -0.041959483 0.020754552
0003f0 1f bd 92 3d b4 24 57 3d a6 ea 17 3d 83 f9 8a 3c
       0.07164978 0.052525237 0.037089013 0.01696468

fc2.bias f4 [128]
000000 a5 96 09 be ca d0 c5 bd f7 f4 f8 3c 8a de c7 3c
       -0.13436373 -0.09658964 0.030390246 0.024398107
000010 ff 49 24 3d 30 fe e5 bc 6d 30 35 3d 0b 0c b6 bd
       0.04010963 -0.028075308 0.044235636 -0.08889016
000020 53 be e3 bc d7 55 ee bd 9d 6f 81 bd fb e3 9e 3c
       -0.027800715 -0.116374664 -0.06320117 0.019395819
000030 f9 d0 64 bd 67 10 0e bd 9c fd c2 3d 5d 40 e6 bd
       -0.055863354 -0.03468361 0.095210284 -0.11242745
000040 87 32 8d bd f8 ad 07 bc f0 d2 b3 bd 3a ac 02 be
       -0.06894403 -0.0082812235 -0.087804675 -0.12761012
000050 4a 36 fc bb 35 6a 07 3e 98 d7 a1 3d 03 48 6e bd
       -0.0076969014 0.13224109 0.07902449 -0.058174144
000060 29 81 de bc 20 94 39 bd 70 cc 9e bd 49 0c 1a 3e
       -0.027161198 -0.04530728 -0.07753837 0.15043749
000070 96 2f 96 bd a5 81 92 bd 2c f1 0f 3d dc d3 a9 bd
       -0.07333295 -0.07153634 0.03514211 -0.08292362
000080 21 2e f5 3c 75 e6 3c 3d b1 ad 84 bd 5e 12 7f 3d
       0.029929223 0.04611822 -0.064784415 0.062273376
000090 5a 5c 14 bd 77 59 03 bd 64 dd f4 bc c2 c5 1b be
       -0.036220886 -0.032067742 -0.029890724 -0.15212157
0000a0 3a d7 57 bb 9d fc 63 3a b8 33 19 3e 1c fe 09 3d
       -0.0032934682 0.0008697005 0.14961135 0.033689603
0000b0 ac 86 96 3d 8d 4d 69 bd 9f 17 a4 bd 42 54 aa bd
       0.07349905 -0.056958724 -0.08012318 -0.08316852
0000c0 bc 02 4e 3d ab bf 2e 3e 5e 83 2f 3e 9c d5 1d bc
       0.050295576 0.17065303 0.17139956 -0.009633448
0000d0 f6 a1 05 3e 3d 51 a7 bd e4 92 ee 3d 1c 6a ba bb
       0.13050064 -0.08169792 0.11649111 -0.0056889188
0000e0 b8 2a 97 3d 61 b8 0d bd cb 36 a9 3c 3e 13 06 be
       0.07381195 -0.034599666 0.02065601 -0.13093278
0000f0 b8 66 1e 3d 1f ca b1 bd 1b 11 9e 3d 00 0a e3 3d
       0.03867218 -0.0868113 0.07718106 0.11085892
000100 eb db 5f bd bd 41 45 bb 74 6a 8a 3c 00 de cd bb
       -0.05465309 -0.0030098998 0.016896464 -0.006282568
000110 9f 19 1b bd 62 31 84 bb 74 20 b5 bd 97 cb 04 be
       -0.03786623 -0.004034207 -0.088440806 -0.12968288
000120 c1 c8 86 3b 20 4b ba 3c 1e 7f a4 bc a4 fa 9f bd
       0.004113287 0.0227409 -0.020080145 -0.07811478
000130 68 dc 8e 3c 62 77 a0 bc e3 ff 17 ba 57 0d 91 3c
       0.017439082 -0.019588176 -0.0005798323 0.017706556
000140 5c c2 a5 bd 81 5d b1 ba c2 93 36 be f1 43 28 3e
       -0.08093712 -0.0013531895 -0.17829803 0.16432168
000150 d8 9c 32 3c 68 5d cf bd 64 d1 96 bc 53 63 ec bd
       0.010901652 -0.10125238 -0.018410392 -0.11542382
000160 dc a7 01 bd 4c dc eb 3d a2 f7 8e bd 53 c0 91 bc
       -0.031654224 0.11516628 -0.06980826 -0.017791903
000170 b8 29 f0 3c a9 b8 86 bd 8a b7 a1 bb af d9 40 bd
       0.029316768 -0.0657819 -0.0049352096 -0.0470826
000180 b2 60 10 3d e4 ce 74 bd 21 f3 2a bd 69 16 bb bd
       0.035248466 -0.05976762 -0.041735772 -0.09135134
000190 32 68 16 3e 9d ba 62 bd c5 e1 7d bc 83 ae 00 3d
       0.14688185 -0.05535375 -0.015495722 0.031416427
0001a0 99 15 dd bd 2b 7c 2b 3a c7 1e e5 bd 12 b0 bf bd
       -0.10795135 0.0006541635 -0.11187511 -0.093597546
0001b0 c4 7a 18 be ee 1e 96 3c c8 23 bc bc e3 92 02 bc
       -0.14890581 0.018325295 -0.02296628 -0.007969591
0001c0 e7 3b 4a 3c 16 63 82 3c 5a de 59 3d 5b f5 4c 3d
       0.012343383 0.015916388 0.053190567 0.050038677
0001d0 50 50 56 3c c4 5a 09 be 98 92 20 3e 49 2a 1a be
       0.013080671 -0.1341353 0.15680921 -0.15055193
0001e0 3a 24 e5 bc a5 41 e8 bc 31 b9 80 bd f3 0a 4c bc
       -0.027971376 -0.028351614 -0.062853225 -0.012453782
0001f0 8f e1 1a 3d 72 ef 97 bd e8 48 8f bd 12 96 9b 3d
       0.037812766 -0.074187174 -0.06996328 0.07596983
