saved_models/episode_100/agent_0.pth (torch, 738018 bytes, 44 tensors)

fc1.weight f4 [128, 5]
000000 2a 4f 2d 3e 82 06 aa 3d 41 43 38 3e 1a 2c 00 3d
       0.1692473 0.083020225 0.17994405 0.03129206
000010 29 02 9e be 77 d2 bb 3e 94 5c ba 3c 77 58 26 3e
       -0.30861023 0.3668401 0.022749223 0.16244684
000020 a8 9b e5 3e 46 02 a2 be cd a3 1b 3e a1 c6 e3 bd
       0.4484532 -0.3164236 0.15199204 -0.1112187
000030 e7 be 04 be e7 03 be 3e 45 e6 9e 3d 58 80 61 bd
       -0.12963448 0.37112352 0.07758764 -0.05505404
000040 ee 45 97 be f6 b4 3c 3d 5b d7 8b be 6f 50 85 3d
       -0.2954554 0.046071015 -0.2731274 0.06509482
000050 16 ca b9 3e 7f 07 18 3e 61 94 71 3e d6 6a 7e be
       0.36286992 0.1484661 0.23591758 -0.24845442
000060 e8 91 9a bb 2c 07 d3 be 3c 45 b0 bc 13 80 b2 bb
       -0.0047171004 -0.4121641 -0.021517389 -0.0054473965
000070 78 3f dd 3e d8 7e a5 3e 96 53 4d bd c1 66 43 3d
       0.43212485 0.32323337 -0.050128542 0.047705416
000080 bf 0b a8 be a5 ac 65 3d bb 84 a7 3e e8 4c 66 3d
       -0.32821462 0.05607285 0.32718453 0.056225687
000090 ce 62 6c 3e 33 8c 2e be b6 ed 5d 3e b1 3f 6f bc
       0.23084566 -0.1704567 0.21672711 -0.014602588
0000a0 02 11 e7 3e 4c c5 24 be d6 c6 90 3e 4d 1b 8d 3c
       0.45130163 -0.16090888 0.282767 0.017224932
0000b0 9e 2f 21 be 96 2b 87 3e 88 7c 8b be 8d 76 bf 3d
       -0.15740821 0.2640044 -0.27243447 0.09348784
0000c0 0f df a8 be c4 98 46 3e c7 71 bf be 2b d7 b8 3d
       -0.3298268 0.19394213 -0.37391493 0.09025415
0000d0 45 80 c5 bc 46 3b 94 3e 35 cd 14 be c2 1e c2 3d
       -0.024109015 0.28951472 -0.14531405 0.09478523
0000e0 3c c4 62 bd 2b 0e 7a be 93 c1 d5 3e 29 ba ca be
       -0.055362925 -0.24419467 0.41749248 -0.39595154
0000f0 19 56 2e 3e f3 4a 75 bd 16 c5 b7 3e 14 85 c9 be
       0.17025031 -0.05988593 0.35892552 -0.39359343
000100 7e 05 b7 3e 23 ce 12 3b 02 cf 3e 3e 8e 90 92 3d
       0.35746378 0.00224007 0.18633655 0.07156478
000110 c2 e2 aa 3e 25 99 c8 3d 08 5b 94 be e4 b1 22 3e
       0.33376127 0.09794835 -0.289757 0.15888172
000120 e3 30 7c be ad f1 b0 3e 68 5b dd 3e 7f fb cb be
       -0.24628024 0.34559384 0.432338 -0.39840314
000130 93 22 86 be e3 68 20 be fb cf 11 be 72 54 dd be
       -0.26198253 -0.15665011 -0.14239495 -0.4322849
000140 b5 4b bb be 20 2d ba bd e3 51 dd 3e d8 e6 c1 be
       -0.36581197 -0.09090638 0.43226537 -0.37871432
000150 89 b5 06 bc b2 3f e0 3e 6a 2c 81 be 96 54 17 3e
       -0.008221992 0.43798596 -0.25229198 0.1477836
000160 13 66 b4 be 87 95 8b 3e 60 67 a7 3d 19 f9 3e be
       -0.35234126 0.27262518 0.08174014 -0.1864971
000170 e9 44 c6 be 4f ba e5 3e 24 6e 6d bc 27 4d 20 3e
       -0.3872445 0.44868705 -0.014491592 0.15654431
000180 78 d8 e2 3d 3d 37 44 3e 67 14 27 3e 1f 56 c9 3e
       0.110764444 0.19161697 0.16316377 0.39323518
000190 01 0b 90 be 65 f9 96 bd 19 4c ad 3d f6 01 13 3d
       -0.28133395 -0.07371787 0.0846178 0.035890542
0001a0 23 13 42 be 4e f7 bb 3e ed 5d f8 3d 4b 9b 81 bd
       -0.18952613 0.36712116 0.1212729 -0.06328448
0001b0 76 7a 9d bd fb 90 8d 3e 8b 88 21 3c 69 5a c0 3d
       -0.07689373 0.27649674 0.009859215 0.09392244
0001c0 61 19 01 be 85 c7 29 3e df 2c a1 3e a9 86 84 3e
       -0.12607338 0.16580017 0.31479546 0.25883988
0001d0 05 46 8a 3e 1b 7c ce 3d 46 a0 23 be d0 31 98 be
       0.27006546 0.10082265 -0.15979108 -0.29725504
0001e0 a2 7b 0c be 78 03 21 be ce 74 01 be eb 1a a1 be
       -0.13719037 -0.1572398 -0.12642214 -0.3146585
0001f0 43 c0 76 be 40 a3 38 3e e9 11 93 bd 70 70 b7 bd
       -0.2409678 0.18031025 -0.071811505 -0.089569926
000200 9c 38 98 be 01 bc 89 3e 3f 47 99 bd 5b be 40 be
       -0.2973069 0.26901248 -0.07484292 -0.18822615
000210 f4 7c 73 bd 4e 93 31 3e ff 00 d0 3d 44 1f 1c 3e
       -0.059445336 0.17341349 0.1015644 0.15246302
000220 6d 6e eb 3d 52 9d 9e 3e be 9f 0a be 9b ff 1e 3e
       0.114956714 0.309794 -0.135375 0.15527193
000230 2c cc 2c 3d 3c c2 7a 3d 4c 6b 13 be 42 29 5d 3e
       0.0421869 0.061220393 -0.143964 0.2159777
000240 b1 66 40 be 0c eb 13 3e a7 cc 05 3e d8 62 37 bd
       -0.18789174 0.14445132 0.1306635 -0.044772
000250 a9 15 dd 3e a3 0f ec 3d 2f 35 87 3e 40 3d b2 bc
       0.43180588 0.1152642 0.26407763 -0.021757722
000260 77 13 91 be a6 48 d3 3e ad 42 1f be 88 82 6e be
       -0.28335163 0.41266364 -0.15552779 -0.23291981
000270 11 88 99 3e 3f 39 c0 be f2 b4 d1 be 00 ed ae be
       0.29986623 -0.37543675 -0.40958363 -0.34165192
000280 ac 96 5a bd 04 8c d6 3d 2c 8b 80 3e bc bd 4b 3e
       -0.05336635 0.104759246 0.2510618 0.19896597
000290 c7 bb 58 3e 5c 5a d4 3e b1 4d e4 be f5 9b 42 be
       0.21165381 0.4147519 -0.44590524 -0.19004805
0002a0 77 5e 8a 3e 5d 06 22 be 78 08 55 be 87 fa 9b 3d
       0.27025196 -0.1582274 -0.20804012 0.07616144
0002b0 01 86 a9 be ad 84 c2 be b9 c3 83 3e 71 af 84 3e
       -0.3311005 -0.3799185 0.25735262 0.259151
0002c0 e7 8a 97 3e 38 30 a4 3e 3b ea ae 3e a4 03 da be
       0.29598162 0.32068038 0.3416308 -0.42580903
0002d0 f5 81 8f 3e 17 9e 2c 3c eb 53 81 3e f1 f9 ad be
       0.28028837 0.010535738 0.25259337 -0.33979753
0002e0 e2 d7 d0 bd 55 4e c3 3e 22 2f 69 be 80 45 71 3c
       -0.101974264 0.381457 -0.22771886 0.014726043
0002f0 14 c9 c2 be c9 9f 2b be 1b c6 41 bd 89 a6 e4 be
       -0.38044035 -0.16760172 -0.04730807 -0.44658306
000300 bd 7b 0a 3d bf f9 c9 bd 98 21 63 3c 49 a2 f4 3d
       0.033809412 -0.098620884 0.01386299 0.11945016
000310 28 a6 7c 3e ef b4 85 be b6 08 8f be 0f 01 c5 3e
       0.24672759 -0.26114604 -0.27936333 0.3847737
000320 f8 51 2e be 33 7e e5 be a1 e6 66 3e c2 4b 54 3e
       -0.17023456 -0.44822845 0.22548915 0.20732024
000330 7d 35 94 be 71 01 94 be c5 f1 21 3e 6b c0 63 be
       -0.28947058 -0.2890735 0.15814884 -0.2224137
000340 4c 2e f4 3d b9 4e 9f be b6 a2 7a be 50 ba dc 3e
       0.11922893 -0.31114748 -0.24476132 0.43110895
000350 b7 7b d0 be d3 5c cc be 06 85 94 3e 2c 57 f7 bb
       -0.40719387 -0.3991457 0.2900774 -0.0075482335
000360 36 8c e3 be 95 ef 50 be 62 b4 10 3e 4b 1d 0a be
       -0.4444291 -0.20403893 0.1413131 -0.13487737
000370 77 3c 37 be 63 b1 58 3e 82 b7 df 3e 91 43 33 be
       -0.1789416 0.21161418 0.43694693 -0.17506243
000380 02 41 de be d6 a5 96 be 0e 1f cf be a4 39 95 be
       -0.43408972 -0.29423398 -0.4045338 -0.2914554
000390 76 ee 6c 3c 15 1b c6 3d f7 a6 4c 3e f3 8b c1 3d
       0.01446115 0.09673134 0.19985567 0.09450521
0003a0 55 2a c7 bc 89 8e 72 3d ac 74 67 3c 2e 5e da be
       -0.024312178 0.059217963 0.014126938 -0.42649978
0003b0 dc 20 03 3e a8 7a ee bd d3 0a c8 3e e8 f5 93 3e
       0.12805504 -0.116444886 0.39070758 0.2889855
0003c0 68 99 98 be 0d e5 aa 3e 16 ea 36 be 51 6b b6 bd
       -0.2980454 0.33377877 -0.17862734 -0.08907188
0003d0 39 15 a8 3e 01 e1 8b 3e a4 bc 31 be fc a3 9d bd
       0.32828692 0.27320102 -0.17357117 -0.07697293
0003e0 c7 17 4b be 56 8f 9a bd 32 24 2e be 2c 54 ab 3e
       -0.19833289 -0.075468704 -0.17005995 0.33462656
0003f0 a2 40 df 3d 0d a5 ba bd c5 9f 8a 3d 85 ad 54 be
       0.109009996 -0.09113512 0.06768755 -0.20769317

fc1.bias f4 [128]
000000 fa 6d b1 be 01 7f a9 3e 9e 50 56 be d9 29 4a 3d
       -0.34654218 0.3310471 -0.2092919 0.049356315
000010 98 bf fb bd ee 90 56 bd f2 c4 93 be 9e a6 9a bb
       -0.12292403 -0.05238431 -0.28861195 -0.0047195693
000020 61 66 93 bd 96 9c a8 3e 48 40 f4 3d f5 4c b2 bd
       -0.071972616 0.32931966 0.11926323 -0.08706085
000030 5a 2a 68 be 25 a1 21 be 49 03 de 3e 5a e9 42 bd
       -0.22672406 -0.15784128 0.4336188 -0.047585823
000040 e6 75 81 be 10 69 91 be f6 0c cd 3e 45 07 d0 be
       -0.25285262 -0.2840047 0.4004895 -0.40630546
000050 42 5f d2 3e c2 6f b6 be 61 07 7c 3c 83 45 20 be
       0.410883 -0.3563214 0.015382619 -0.15651517
000060 0d 97 14 be 13 79 bb 3e 8e 62 b6 be 33 b0 bf be
       -0.14510746 0.3661581 -0.35622066 -0.37439117
000070 06 64 b2 be fd 89 99 bd 02 95 1e be 18 c6 8d be
       -0.34841937 -0.07497022 -0.1548653 -0.27690196
000080 3a 00 e2 3e 7c 35 c4 be c5 8c d7 3e 4e 1e 97 be
       0.44140798 -0.38322055 0.42099586 -0.29515308
000090 f0 d4 ab bd 95 d0 a4 3d 00 34 20 bd 10 8b b7 be
       -0.08390224 0.08047596 -0.03911209 -0.35848284
0000a0 96 ea 0f be 07 c9 93 3e 9c c3 fd 3d 65 d5 64 3e
       -0.14054331 0.2886431 0.12390825 0.22347029
0000b0 6e 6d 9c 3e 2e 86 30 3e fc 20 5f bd d4 44 03 bc
       0.30552238 0.17238685 -0.054474816 -0.008012015
0000c0 5a e4 d0 be 55 74 7e 3e 2d d9 8c bd 9c e1 b8 3e
       -0.40799218 0.24849065 -0.068773605 0.36109626
0000d0 b9 8c bf 3e b4 7e d2 bd 9f c3 15 bc 88 b1 b7 3e
       0.3741205 -0.10278073 -0.009140878 0.35877633
0000e0 fd 6a e1 bc 73 e4 8f be 83 5c 4e 3e c4 5f dc 3c
       -0.027516836 -0.2810398 0.20152478 0.026901133
0000f0 09 28 89 be 92 6b bc 3e a7 a2 cc be 32 dd d9 3d
       -0.26788357 0.3680082 -0.39967844 0.10637893
000100 42 bc 31 3d d1 e7 38 3c 00 c3 5e be 77 d9 8d be
       0.043392427 0.011285738 -0.21754074 -0.27704975
000110 b0 b7 4f 3e fa 54 82 3e cd fb 1c be de 2f 87 be
       0.20284915 0.25455457 -0.1533043 -0.26403707
000120 9c ae cc 3e d5 36 9a bd 2c 0d a4 3d 81 dc 6d be
       0.39976966 -0.0752999 0.08010325 -0.23228647
000130 9e 30 29 be 06 c8 60 be 7c ef c5 be 00 40 0f be
       -0.16522452 -0.21951303 -0.38659275 -0.13989258
000140 51 be d5 3e 85 7e dd be 98 83 a4 be 94 ec ea bd
       0.41746762 -0.4326059 -0.32131648 -0.11470905
000150 40 11 b6 be cb e0 2e 3e 00 18 c7 be 48 71 c0 be
       -0.35560036 0.17077939 -0.38885498 -0.37586427
000160 a8 5f 6e 3c 1d 7e d0 be 51 38 f2 bd 63 7f 63 3e
       0.014549173 -0.40721217 -0.11827148 0.22216563
000170 34 5b de be df 1a cc 3e 3b aa a1 3e c5 df c1 3e
       -0.43428957 0.3986425 0.31575188 0.37866035
000180 79 55 3d bc de b9 5b be db 3a 90 be dc a7 67 3e
       -0.011556023 -0.21457621 -0.28169903 0.22622627
000190 11 bf d2 bc 48 3e bb be bf 72 b1 3e 4f 05 a0 3e
       -0.025725873 -0.36570954 0.34657857 0.3125405
0001a0 68 d9 95 be f8 ef e0 be 7b 31 d0 3e d1 b1 b5 3e
       -0.2926743 -0.43933082 0.4066275 0.35487226
0001b0 bc 4f 7e be 34 0e c2 be db b2 37 bd ec 45 c2 bc
       -0.24835104 -0.3790146 -0.044848304 -0.023714982
0001c0 23 42 94 3e c2 69 6a bd 59 6f d4 3e ec fb 6f 3e
       0.28956708 -0.057229765 0.41491202 0.23435944
0001d0 7e 88 c0 be 17 f7 ac 3e 12 be 1c 3e fa ab b3 be
       -0.37604135 0.33782265 0.15306881 -0.35092145
0001e0 79 e4 85 3e 24 7a a9 3d 2d ef 48 bd 4e ee b5 3e
       0.26150873 0.082752496 -0.04905622 0.35533375
0001f0 6c 73 d2 be ae f8 7c 3e 59 25 06 3e 79 38 8c 3e
       -0.41103685 0.24704239 0.13100185 0.27386835

fc2.weight f4 [128, 128]
000000 89 4f 7b 3d b9 59 09 bc f2 3c ca 3a 1c 99 70 bd
       0.061355148 -0.008383208 0.001542954 -0.058739766
000010 96 72 06 3d f7 6b 99 bd 53 32 1e bd 17 b8 1c 3d
       0.03282412 -0.07491296 -0.03862221 0.0382615
000020 4c 02 a0 bc 51 9f 83 bd 6e dc 8c bd 3c 01 ec bb
       -0.019532345 -0.064268716 -0.06877981 -0.0072022956
000030 ba e7 14 3c 16 90 26 3d 06 e5 46 3d 82 7a e7 bc
       0.009088451 0.040664755 0.048558258 -0.028256658
000040 23 66 82 3c b4 f7 38 bd 38 fc 52 bd be 3c 7d bc
       0.015917843 -0.045158103 -0.051510066 -0.015456377
000050 ee 84 8b 3d ba d8 b5 ba 7d 0b 05 3d 4d 15 ae 3d
       0.06812464 -0.0013873794 0.03248166 0.085001566
000060 87 06 66 3c 8d 30 86 3c 94 9f 08 3c 43 02 14 3d
       0.014039642 0.016380573 0.008338828 0.03613497
000070 81 07 8f 3d c7 3f a0 3d 09 14 08 3d 1a 10 6d 3d
       0.06983853 0.078246646 0.033222232 0.057876684
000080 38 12 65 3d b7 bd 6e 3c 70 fe ac 3d 58 74 32 bd
       0.055925578 0.014571599 0.084469676 -0.043567985
000090 df d2 7d bd b8 aa 84 3d ee 64 bf bc 6d 91 9e 3d
       -0.06196868 0.064778745 -0.023363557 0.077425815
0000a0 54 7a d7 3c 28 4b 41 3c c5 57 a3 3d 54 6d 2e 3d
       0.026303448 0.011797704 0.07975725 0.042584732
0000b0 59 39 73 bb b3 b6 e7 3c a7 63 89 bd 95 88 28 3d
       -0.003711304 0.02828536 -0.0670846 0.04114588
0000c0 de 92 0b bd 05 84 8d 3c dc e7 3e bb 42 ac 70 3d
       -0.03407561 0.017274866 -0.0029129898 0.058758028
0000d0 f0 6d c9 3c b5 d0 11 3d 30 60 9e 3d 94 2d 19 bd
       0.024588555 0.03559943 0.0773319 -0.037396982
0000e0 61 84 7b 3d 45 91 e7 bb 95 8c 82 3d 86 90 70 bd
       0.061405543 -0.007066878 0.0637447 -0.05873158
0000f0 33 cd f7 bc 2e e4 0e bd 0f 15 63 bd 43 d6 95 3d
       -0.030249214 -0.034885578 -0.055440005 0.07316258
000100 2c f0 e8 bb 78 14 38 bd d0 a8 69 bd 7d eb 88 bd
       -0.007108709 -0.044941396 -0.057045758 -0.06685541
000110 67 85 39 3c 15 f9 43 bd 34 0b a4 bc 95 37 9a 3d
       0.0113233095 -0.047844965 -0.020024873 0.07530133
000120 d5 74 f7 bc d1 99 b1 bd f7 b5 21 bc bf b9 01 3d
       -0.030207077 -0.08671916 -0.009870044 0.031671282
000130 f8 d0 a4 bd de 67 89 3d 31 08 89 bd 32 38 39 3c
       -0.0804767 0.06709264 -0.066910155 0.011304902
000140 0c d7 5f bc 34 ce 8c 3c d3 6f a3 bd 7c 0c e3 bc
       -0.013662111 0.017188169 -0.07980313 -0.027715914
000150 20 bb 85 bc 25 47 a0 bd b3 af b0 bd 1b b0 87 3d
       -0.01632458 -0.0782607 -0.08627262 0.06625386
000160 48 c8 7e bc 8d e9 3a 3d 0d 20 cc bc ac ef 9a 3c
       -0.01555068 0.045632888 -0.024917627 0.018913113
000170 2c ed de 3b 82 e3 a5 bd 83 9a c0 3c f7 b3 a1 bd
       0.0068031754 -0.08100034 0.023511177 -0.07895654
000180 3b 71 b4 3d 90 5b b3 bd 7b 91 8a bd 5e 93 a5 bd
       0.088106595 -0.087576985 -0.067660294 -0.08084749
000190 fe cb d8 3c f8 5e 98 bc fe ac 88 bc d3 81 97 3c
       0.026464459 -0.018599972 -0.016684052 0.018494522
0001a0 f8 6c 9c bd 88 2b 5f 3d 06 c8 69 3d c2 d9 92 bd
       -0.07637972 0.054484874 0.057075523 -0.0717044
0001b0 75 1c e8 bc fa 71 44 3d b9 4e 50 3c 85 69 64 bd
       -0.028333882 0.04796026 0.012714081 -0.055764694
0001c0 d6 c7 20 bd ef 8c 33 3d e5 9c 10 3d 60 2c 82 3d
       -0.03925308 0.043835577 0.035305876 0.0635612
0001d0 67 ee a9 bd 21 04 29 bc 7f 75 8a bd 69 4c 7d 3d
       -0.08297425 -0.010315926 -0.06760692 0.06184045
0001e0 89 43 55 bd 89 3c 1e bd 3a 28 b2 3d ff 0c 15 3d
       -0.05206636 -0.03863195 0.08699079 0.036389347
0001f0 fe 95 07 bd 14 4e 22 3c f1 da aa 3d ee ff f4 bb
       -0.033102028 0.009906311 0.08342541 -0.0074767983
000200 e2 7e a4 3c 84 33 aa 3d ea d9 15 bd e1 b0 26 bc
       0.020080034 0.08310607 -0.036584772 -0.010174007
000210 9e 83 81 bd 1f 0d ad bd c3 61 38 3c 2b 1f 95 3d
       -0.06323932 -0.08449768 0.011253777 0.072813354
000220 36 eb ab 3b 70 97 49 bd 84 3a 7c 3c 47 1b 8b bd
       0.005246545 -0.049216688 0.015394811 -0.06792312
000230 cc 21 70 3d 74 5d af bd 2b f5 a0 bc 94 e2 b2 3d
       0.05862598 -0.08562747 -0.019648155 0.087346226
000240 81 08 31 bc f9 98 8b bd 24 9e a6 3d a1 39 a8 39
       -0.01080525 -0.068162866 0.08135632 0.00032086394
000250 25 9d 4c 3c d9 1c e1 bc 8a 00 a9 bd 9d 70 0e bc
       0.012488638 -0.027479576 -0.08252056 -0.008693841
000260 50 74 1b 3d 69 61 b3 3d 82 80 ad bd c9 0a 5f 3d
       0.03795272 0.08758814 -0.084717765 0.054453645
000270 e6 6d 5f 3d 71 35 1e bd 17 be 26 3d f4 a7 83 bd
       0.054548167 -0.038625184 0.040708628 -0.06428519
000280 5c d9 41 3d 48 b4 3d 3d 17 76 2a 3d 26 1d 08 bd
       0.04732643 0.046314508 0.041616526 -0.033230923
000290 48 5e 9d 3d e4 0e 8a bd ad 68 82 bc a8 11 82 3d
       0.07683998 -0.067411214 -0.015919054 0.06351024
0002a0 2d a2 30 bd a9 f6 26 3b 8c d8 14 3d 43 b1 d7 3b
       -0.043123413 0.002547661 0.036339328 0.0065824105
0002b0 e3 2f 11 3d ed ec 93 3d a9 fa 28 3d 88 ff 52 bb
       0.03544606 0.072229244 0.041254673 -0.0032195766
0002c0 d1 9b ff 3c c8 34 54 3d 69 6b 87 bb ce 35 83 bc
       0.031202229 0.05180815 -0.0041326773 -0.016016867
0002d0 fe c1 88 bd 68 de 8c 3d 20 b9 b4 bd 33 2b 4a 3d
       -0.06677626 0.06878358 -0.08824372 0.049357604
0002e0 92 48 ac 3d 27 ec 97 bc cf 49 a2 bd 26 54 ac bd
       0.08412279 -0.018545223 -0.07924234 -0.084144875
0002f0 29 ad 53 bd 73 d1 ab bd 1f f3 1a 3d c1 4d 45 bd
       -0.05167881 -0.08389559 0.037829515 -0.048169855
000300 5e 63 93 3d 1d 85 9e bd c2 c4 8c bd b7 c0 8a bb
       0.07196687 -0.07740233 -0.06873466 -0.004234399
000310 53 62 2a 3d 7f c9 69 3d 73 b1 99 3d f2 f0 b1 3c
       0.041597676 0.057076927 0.07504549 0.021721337
000320 85 e6 19 bd 82 18 7a bd 3f 44 78 3d c9 b9 af 3d
       -0.037573356 -0.06105853 0.06061196 0.085803576
000330 46 13 77 bd 49 05 3f 3d 58 d9 db bc dd be 37 ba
       -0.060321115 0.0466359 -0.026837036 -0.0007009337
000340 84 7b 9e 3d 90 3c 4d bd 26 cd 76 bd 03 26 6f 3a
       0.077384025 -0.050106585 -0.06025424 0.00091227907
000350 ac 09 30 3d 3b 65 84 bd 96 c8 65 bd ee 14 87 bd
       0.042977974 -0.06464621 -0.056099497 -0.06595789
000360 53 5b 92 3d 1f c5 5c bd 0f ac 65 bc ff 7b ab bd
       0.07146325 -0.053898927 -0.014018073 -0.0837326
000370 cf b5 ae bd a7 b9 1d 3d 21 6f 4e bd c7 58 67 3d
       -0.08530771 0.03850713 -0.05039895 0.05648115
000380 7a 2f 50 3c 87 3e f1 3b 55 6c 80 bc c2 d4 c0 bc
       0.012706632 0.00736219 -0.015676657 -0.02353895
000390 ea f5 f5 bc 33 d3 25 bd 48 c2 02 3d b8 5d 87 3d
       -0.030024488 -0.04048462 0.031923562 0.06609672
0003a0 78 8e 96 bd d3 3b 66 bd 77 47 67 ba d7 9f 8d ba
       -0.073513925 -0.056209397 -0.00088226 -0.0010805082
0003b0 67 ba 69 3c 53 0d 39 ba 53 5a 15 bb ff 6b 07 3d
       0.014265633 -0.00070591754 -0.0022789433 0.033061977
0003c0 67 fd b3 bd 3e ba 81 3d 9b 56 af 3c 74 93 f0 bc
       -0.08788567 0.06334351 0.021403601 -0.029367186
0003d0 ae 2f 71 3c 49 23 7b bd f0 db da 3c 3f 08 8e 3c
       0.01472084 -0.061312947 0.026716202 0.017337916
0003e0 80 f0 7b bd d8 7e 8c bd 66 10 a8 3d 2e de 9b bd
       -0.061508656 -0.06860131 0.08206253 -0.07610737
0003f0 8e 60 b7 bb 06 dc e7 3c 11 83 9f 3d 58 4c 5d bd
       -0.005596227 0.028303158 0.07788671 -0.054027885

fc2.bias f4 [128]
000000 69 75 fb 3c b1 d5 11 bd b1 22 87 3d b7 b4 2e bc
       0.030695634 -0.035604183 0.06598414 -0.010663203
000010 14 78 18 bd 28 6a bf bd 2b e9 a4 bd 60 31 85 bc
       -0.03722389 -0.093464196 -0.08052286 -0.016258895
000020 b4 cd 2d 3d d0 32 8f bd 6b 8c a0 3d b2 3b 81 bd
       0.042432502 -0.069921136 0.078392826 -0.06310214
000030 1e 4c 94 bd 3e 9f 09 3d 18 04 5d 3c 96 7f 9c 3c
       -0.07241081 0.03359913 0.013489746 0.019103806
000040 44 dd 48 3d 60 ba e9 3b ef bd ae bd 9c 3a 80 3d
       0.04903914 0.0071328133 -0.08532321 0.06261179
000050 c8 4d db bc 0c be bd 3d 3a bb 3b bd 29 0f 20 3d
       -0.026770487 0.09264764 -0.04583285 0.039076958
000060 46 13 8a 3c fc b4 f6 3c b5 08 30 3d 88 39 4c 3d
       0.016854893 0.030115597 0.042977054 0.049859554
000070 dc e7 b6 bd 9c 37 93 bd df 95 43 bc 53 1b 98 bd
       -0.089309424 -0.07188341 -0.0119375875 -0.07427087
000080 65 50 0b 3d ec 04 57 3d bb 3a 86 3c 60 45 42 3d
       0.034012217 0.05249493 0.016385427 0.047429442
000090 f0 65 ab 3b d1 5a 66 bd 12 e5 a1 3d 6e 42 0e bd
       0.0052306578 -0.056238953 0.0790502 -0.03473132
0000a0 18 6f 74 bd 2b 46 30 3c db ec a6 bd 8d 45 61 3c
       -0.05967626 0.010758917 -0.08150645 0.013749492
0000b0 f2 ac ef 3c 4f e4 1d bb f4 90 44 bd 46 22 2d bd
       0.029257271 -0.0024092381 -0.0479898 -0.042269014
0000c0 33 b5 b2 3d cd 2b c5 bc 84 db c9 bc c1 80 85 bd
       0.08725967 -0.024068737 -0.024640806 -0.065186985
0000d0 b7 ba 57 3d ad 62 8e 3d ea 1b 69 bc 2a d8 1c bd
       0.0526683 0.06952415 -0.014227847 -0.038292088
0000e0 8e 10 d1 ba 63 db 7a 3d 7a 08 97 bd 80 a5 6b bc
       -0.0015950368 0.06124438 -0.07374664 -0.01438272
0000f0 65 03 1e 3c df 28 9e bd d1 eb 83 3c b5 ee 0f bd
       0.009644364 -0.07722639 0.016103657 -0.03513976
000100 bf fd 40 3d 39 83 99 bd d7 cd 5f 3d 5b d5 36 bd
       0.04711699 -0.07495732 0.054639664 -0.044637065
000110 5a 36 8a 3c 90 03 a2 bd 3b 87 89 3d 0a ea c4 3c
       0.01687162 -0.07910836 0.06715246 0.02403738
000120 17 b6 8e 3d 5f 79 80 3d 0c eb a0 ba 5d dc 17 bb
       0.06968325 0.0627315 -0.0012277081 -0.0023172118
000130 60 0c a5 3d c1 5f 33 3d 96 85 cf 3c e1 38 a1 3d
       0.08059001 0.04379249 0.025332253 0.07872177
000140 fa a0 0f 3c 7e 8a 01 3d 0e 4f 06 bb 03 a7 7a bd
       0.008766407 0.031626217 -0.0020493898 -0.06119443
000150 b8 15 7b 3d 2b 56 51 3d da 7d 01 bc aa 9b 95 3c
       0.06130001 0.051107567 -0.0079035405 0.018262703
000160 a5 ac a5 3d ad 87 87 3c c6 bc 4a 3d ea 3a 00 3d
       0.0808957 0.016544187 0.049496435 0.031306185
000170 7d a2 90 bd 10 76 b1 bc e3 9f a9 bd fc 65 b0 3d
       -0.07062242 -0.021662742 -0.08282449 0.08613202
000180 cf f6 02 3c 7d 7f f6 bc a7 01 6d bd 1a da 8c bd
       0.007993414 -0.030090088 -0.057862904 -0.06877537
000190 b3 b0 78 3d 80 1c 93 bd 61 2e c2 bb 10 00 bb 3d
       0.06071539 -0.0718317 -0.005925939 0.09130871
0001a0 aa 83 05 bd c4 cb 58 bd bc 29 80 3d 1b e0 1a bd
       -0.032596268 -0.0529287 0.0625796 -0.03781138
0001b0 5e ca 23 3d 40 bb a6 bd 85 ed 7e bd b7 b2 ab bd
       0.039987914 -0.08141184 -0.062238235 -0.083836965
0001c0 13 45 81 3d 90 e2 ee 3b bd 3a dc bc d1 58 8b bd
       0.06312003 0.007290192 -0.026883477 -0.0680405
0001d0 a0 53 5d 3d a0 a4 83 3d 1c 63 e6 3c e5 0c 5f bd
       0.05403483 0.06427884 0.02812343 -0.054455657
0001e0 35 82 3f 3d d8 68 88 3c 95 1c ae 3d a7 3b e4 3c
       0.046755034 0.016651556 0.08501545 0.027860476
0001f0 18 28 97 3d bb 93 02 bd 62 b8 83 3c 08 14 a2 3d
       0.07380694 -0.031879168 0.016079132 0.07913977

fc3.weight f4 [2, 128]
000000 31 4a 50 3d 51 5e a5 bd 57 b7 b7 3c 29 cd 6a bd
       0.050852004 -0.0807463 0.02242629 -0.057324562
000010 eb 39 68 3d ba 5c 96 3d 0a e6 96 bc d4 3d ab bd
       0.05669586 0.07341905 -0.018420238 -0.08361402
000020 4d 15 b3 bb 46 28 7d bd 58 fe 8d bc 7c 96 94 bd
       -0.0054651857 -0.061805986 -0.017333195 -0.07255265
000030 a7 15 1c 3d 42 f9 82 3d 2f 0a 77 bd d3 3f 18 3d
       0.038106587 0.063951984 -0.060312446 0.037170243
000040 a3 b6 8e be 0f 2e a0 3c 54 07 07 3d 64 0b 00 3d
       -0.27873716 0.019553212 0.032965973 0.031260863
000050 5b bb 30 3d 52 18 5b bd 54 0c fa 3a 46 57 59 3a
       0.043147426 -0.05348999 0.001907716 0.0008290898
000060 ca 4a bb 3a cb cd e8 3c b4 8b f9 3c d1 30 30 3c
       0.0014289257 0.028418442 0.030462123 0.010753826
000070 c7 9d 85 3c 1c 7c 8a bd b5 94 84 bd 0c 15 e4 bc
       0.016310586 -0.06761953 -0.06473676 -0.027842067
000080 16 66 6a bd a1 1d 4a 3d 93 9a 28 3d 23 59 8f 3d
       -0.057226263 0.049344663 0.04116304 0.06999423
000090 0d 6d ea bd 3e a8 71 3b a1 3e 8b bc c5 19 a3 bd
       -0.11446581 0.0036873962 -0.016997637 -0.079638995
0000a0 5b 7c b4 bd 24 bb 37 3d 3a 84 a8 bd 96 d4 28 3d
       -0.088127814 0.044856206 -0.08228345 0.041218363
0000b0 47 74 3c bd f5 9d a7 bc 3f 01 38 3d 5c 47 ff 3c
       -0.04600933 -0.020461062 0.044923063 0.031161956
0000c0 3f 8e 80 3d 03 f8 92 bd ad 86 92 3d 31 21 81 3d
       0.06277131 -0.07176211 0.071545936 0.06305159
0000d0 f6 a3 b6 bd 06 fb 99 3d 78 d6 23 be 59 6d aa bc
       -0.08917992 0.07518582 -0.15999782 -0.020804094
0000e0 96 49 6c bd 71 00 81 3c c7 24 3e 3d e3 11 65 bd
       -0.057687365 0.01574728 0.046421792 -0.05592526
0000f0 96 1c af bd 42 be 04 3d f0 a3 05 bd 75 81 06 bd
       -0.08550374 0.032408006 -0.032627046 -0.032838304
000100 5b 6b 40 bd fe 4f e1 ba 3a e5 85 bd 55 17 ae bd
       -0.046977382 -0.0017189977 -0.06537862 -0.08500544
000110 29 c4 9d bd fd 79 5f 3d ce 7f d3 3c fe de 5b 3d
       -0.0770343 0.054559696 0.025817778 0.05367946
000120 93 7a 44 3d b4 ea aa bd 96 c4 80 3d 48 94 1c 3d
       0.04796846 -0.08345547 0.06287496 0.03822735
000130 51 8d 67 3d 9f de 0c bd 86 94 27 3d fe 9e 6b bd
       0.056531254 -0.034391996 0.040913127 -0.057524674
000140 03 e4 21 bd e4 31 06 bb d5 f2 bb bd 12 c5 26 3d
       -0.03952409 -0.0020476514 -0.09177176 0.040715285
000150 de da 03 bd c3 81 7d 3d 0a 7a 5f 3d c6 96 ab 3d
       -0.03219115 0.06189133 0.054559745 0.08378367
000160 de 77 e0 ba 01 11 b7 bc be d8 98 bd f6 32 69 bd
       -0.0017125567 -0.022346975 -0.07463215 -0.056933366
000170 4e bd 04 3c 47 11 5b 3d 05 c7 2c 3d 58 65 47 bd
       0.008101774 0.053483274 0.042181987 -0.048680633
000180 ef b4 1e be f6 b8 40 bd ba 9f 81 bc e4 4e 92 3d
       -0.15498708 -0.047051392 -0.015823234 0.071439534
000190 24 09 00 3d 64 b1 88 bd bc 52 1b 3d df ed 7b bd
       0.031258717 -0.066744596 0.0379207 -0.06150615
0001a0 a4 d7 21 bd 5a 62 80 3d 35 f5 45 bd ac 1a 75 bc
       -0.03951229 0.06268759 -0.04832955 -0.014959972
0001b0 48 6a 15 3c e4 f3 03 3d ea 67 d8 3b 8e 79 de 3c
       0.009119578 0.032215014 0.0066041844 0.027157571
0001c0 8d 62 f4 3c e7 4f 85 bc 2c 8a 43 3d f1 69 16 bc
       0.029832149 -0.016273452 0.047739193 -0.009180532
0001d0 fb dc 83 bd 40 2c b2 3d 63 08 df bc c1 df ca bc
       -0.06438633 0.08699846 -0.027225679 -0.024764897
0001e0 de 32 a6 bd 24 b0 c9 bc db 8e b9 bb d6 1f d4 3c
       -0.08115171 -0.024620123 -0.0056627817 0.025894087
0001f0 01 fc 88 3d 4a 2d af bc 48 08 25 3d ff 3d 3b bd
       0.06688691 -0.0213839 0.0402911 -0.04571342
000200 a4 d9 e2 bc 38 eb 73 3d 27 0e ef 3c 74 de a6 3c
       -0.02769167 0.059550494 0.029181553 0.020369746
000210 62 df 84 bd 97 c6 83 bd 83 06 bf 3c c0 51 99 3c
       -0.064879194 -0.064343624 0.023318535 0.01871574
000220 c0 7f 2c bd 12 b3 8b 3d 9e 7f 15 bd 1e 1e 8b bd
       -0.04211402 0.06821264 -0.03649866 -0.06792854
000230 25 bf 04 bd 96 b7 ac 3c 29 94 ad 3d db ec b0 3d
       -0.032408852 0.021083634 0.08475525 0.086389266
000240 d3 b8 6b be f5 77 52 bd 20 c8 a8 bd dd 32 a1 bd
       -0.23019724 -0.05138393 -0.08241296 -0.078710295
000250 cd 6a 34 3b ce f8 c2 bd 01 42 49 bd 7c 60 90 bd
       0.0027529479 -0.09520112 -0.04913521 -0.07049653
000260 b5 f7 83 3c 21 10 a1 3d 3c a8 88 3d e7 06 fc bc
       0.016109327 0.078644045 0.06672713 -0.03076501
000270 a1 3c 8c 3b b2 a1 23 3d 3c 62 e8 ba 06 fd 55 bd
       0.0042796885 0.039949127 -0.0017729471 -0.052243255
000280 1a f4 87 3d 8e 67 8e bd b8 3a 11 3d 34 b0 f5 bc
       0.066383556 -0.06953345 0.03545639 -0.029991247
000290 65 33 03 be c3 2d 98 bc 98 eb 0b bc 1b 6a 99 3d
       -0.12812574 -0.018576508 -0.008540057 0.07490941
0002a0 dd 52 c6 bd fa 62 11 3c 78 84 ac bd 2c 68 9f 3d
       -0.09683774 0.0088736955 -0.08423704 0.07783541
0002b0 13 1a 9f bd 06 b1 21 bc 05 9f c4 bd 71 9c 2b 3d
       -0.07768645 -0.009868866 -0.09600643 0.04189724
0002c0 b6 f6 81 3d 01 86 80 bc fa 06 27 bd 84 dd 0f bd
       0.063458845 -0.015688898 -0.040778138 -0.035123363
0002d0 94 40 36 3d b3 87 a7 bd 51 51 1e be 39 36 6c bc
       0.04449518 -0.081801794 -0.15460707 -0.014417225
0002e0 93 c5 70 bd 29 48 9f bd 70 94 67 3d bd 1b 10 bd
       -0.05878217 -0.07777435 0.056538045 -0.035182703
0002f0 11 54 1c bd 20 20 e0 3c 17 be dd bd 65 08 21 bd
       -0.03816611 0.027359068 -0.108272724 -0.039314646
000300 07 66 9f bd 6e 69 5c 3d 0c 10 13 bd b2 02 67 bb
       -0.07783132 0.053811483 -0.035903975 -0.003524941
000310 71 cc 5d 3d 35 89 a9 bd a4 b2 28 bc ce 69 88 bd
       0.05415005 -0.08278123 -0.0102964975 -0.06660806
000320 01 61 07 3d 7f 56 90 bd 10 e4 d5 3c ec 3e 83 3d
       0.033051495 -0.07047748 0.026109725 0.06408486
000330 b9 40 93 3d 6f c0 9e 3c 71 2c b4 bd c6 ab 37 ba
       0.07190079 0.019378869 -0.08797539 -0.0007006492
000340 21 4a 99 bd 70 bb b4 bc 51 97 7e bd 02 9a 17 3d
       -0.07484842 -0.022062033 -0.062156025 0.037012108
000350 40 b1 98 3d 8d 75 88 3c ba 85 cf bd 54 4c 88 3d
       0.07455683 0.016657615 -0.10132928 0.066551834
000360 0e 0d 6a bc 65 98 4e 3d cc 20 a0 bd 5b 54 5a be
       -0.014285339 0.050438304 -0.078187555 -0.21321242
000370 6d c6 86 bd 40 9c 8f 3a 2d 50 c4 3c dd b7 d4 bd
       -0.065808155 0.00109566 0.023964012 -0.10386632
000380 a1 f1 d6 bd a0 2e e3 3c 31 9c 6f 3d a4 15 2c bd
       -0.10495306 0.027732193 0.058498565 -0.042012826
000390 34 8c 84 3d 08 df 75 3d 3a 76 4f b8 f9 84 77 bd
       0.06472054 0.060027152 -4.9462753e-05 -0.060429547
0003a0 6a 32 a2 3a 0a ed 85 3d f3 dc 80 3c 95 9b bf 3c
       0.0012374644 0.06539352 0.015730357 0.023389617
0003b0 d9 10 97 bd 59 b6 1e bd 3c d6 9b 3c ee ba 4b 3c
       -0.0737626 -0.03874812 0.019023053 0.012434704
0003c0 08 68 a2 bd 20 08 0e bd c3 05 e1 3b 08 6c 84 3d
       -0.07929999 -0.034675717 0.006867142 0.06465918
0003d0 56 b3 95 3b d5 55 05 3d 89 05 86 3b 30 a8 a7 3c
       0.0045684977 0.03255256 0.0040900153 0.02046594
0003e0 98 29 7d bc e8 a7 44 3d 84 af a1 bd 11 2a 05 bc
       -0.015451811 0.04801169 -0.07894805 -0.008127705
0003f0 b0 d2 06 bd 6c 1a a3 bd 8c d9 60 bb 6d c7 39 bd
       -0.03291577 -0.07964024 -0.0034309356 -0.045356203

fc3.bias f4 [2]
000000 64 cc f1 bc 13 23 1e 3d
       -0.029516406 0.038607668

fc1.weight f4 [128, 84]
000000 a2 9e b6 bd fb f0 8c bd 49 fd 5d 3c b4 7f 06 3d
       -0.089169756 -0.06881901 0.013549157 0.03283663
000010 60 e5 9d 3d f2 70 1b 3d 6e 36 e7 bc bb 75 6b bd
       0.077097654 0.03794951 -0.028224196 -0.057485323
000020 37 cd 92 bd 52 46 37 bc 51 1c c7 bd 8f e3 99 bc
       -0.07168048 -0.011186199 -0.09722198 -0.018785266
000030 d4 73 a7 bd db 39 cc bd f4 89 10 3d a8 0f fd ba
       -0.08176389 -0.099719726 0.035287812 -0.0019307034
000040 f5 10 c3 bd 94 4a d5 3d e5 50 20 bc a3 61 97 bd
       -0.09524719 0.10414615 -0.009784912 -0.073916696
000050 6f 99 14 bc 8b 9f a6 bd ae 5e b5 bd 33 50 1c bc
       -0.009069785 -0.08135899 -0.08855949 -0.009540605
000060 63 31 91 bd cb 50 22 3d a6 3f 2f bd 26 5e 3f bd
       -0.07089498 0.03962783 -0.04278531 -0.046720646
000070 b5 d5 c0 bd a9 cf af 3b be 1c a8 3d c5 a3 40 bd
       -0.094157614 0.005365331 0.08208607 -0.047031183
000080 bb 76 7b bd d9 d3 d6 bc f3 c3 9a 3d 81 93 8a bd
       -0.061392527 -0.026224064 0.075569056 -0.067664154
000090 45 c6 b1 bd 67 8f c6 bc 78 1c ff 3c 20 75 68 bd
       -0.08680395 -0.024238301 0.031141505 -0.056752324
0000a0 b8 d3 96 bd 56 6e c2 3d ee 96 7f bd 0d 8a eb bc
       -0.07364601 0.09493701 -0.062399797 -0.028752351
0000b0 07 49 e1 3b 57 6a b5 bd d5 ae 2a 3d cd 73 b0 bd
       0.0068751606 -0.08858173 0.04167064 -0.08615837
0000c0 8e 9a 25 bc 21 f8 d7 bd bf 3b b2 3d c3 33 ce 3d
       -0.0101076495 -0.10545374 0.08702802 0.100684665
0000d0 51 e6 92 3d 78 83 83 3d cf 40 dd bd 6b 75 32 bd
       0.071728356 0.0642156 -0.10803377 -0.04356901
0000e0 f0 af 10 3d bb ce 2b 3d a8 35 77 3d be 60 4c 3c
       0.035324037 0.0419452 0.060353905 0.012474237
0000f0 42 bf a0 bc 9a 68 0d bd 13 2c d7 3d 83 b5 6d bd
       -0.019622449 -0.034523584 0.10506453 -0.05803443
000100 a9 41 2d 3b 76 1b 9d bd 5e 1a 91 bd b0 7e 22 bd
       0.0026436842 -0.076712534 -0.07085107 -0.0396716
000110 b1 bc b0 3d a6 79 c2 bd 2f 02 b7 3c 03 f0 e3 3c
       0.0862974 -0.09495859 0.022339908 0.027824407
000120 ad 19 91 bd e6 ca 9b 3d 46 40 d9 3d ff a8 d8 bd
       -0.070849754 0.07607059 0.10607962 -0.105791084
000130 2a e3 f4 3b 1c 81 24 bc a0 56 42 3b 72 a9 c0 3c
       0.007473369 -0.010040548 0.0029653683 0.023518298
000140 58 89 20 bd 5e ef a7 3d 2e 5e 65 3c f3 b9 55 3d
       -0.03919348 0.081999525 0.013999505 0.052179288
000150 1d c5 b3 bd d3 0b 42 bc 51 39 8f bd 5e 04 0b bc
       -0.08777831 -0.011843639 -0.06993354 -0.008484928
000160 cb cf 68 bd ac 4c 90 bc 7d 9e 09 3d 21 24 b9 3c
       -0.05683879 -0.017614685 0.03359841 0.022600235
000170 84 2e f9 3d bb 5f 73 3d bc 44 83 be be bb af bb
       0.12167075 0.059417468 -0.25638378 -0.005362957
000180 82 0a 43 be f1 01 3a 3e 63 ac 85 3d 62 e7 bd 3d
       -0.19046977 0.18164803 0.06527021 0.092726484
000190 46 a2 a3 bc 58 11 8d 3d 2e 52 8a bc 33 59 34 3d
       -0.019974839 0.06888074 -0.01688489 0.04403038
0001a0 36 91 fd bb bd 59 d8 bd c2 0d cd 3c 96 11 9c bd
       -0.0077382578 -0.10563991 0.025030974 -0.07620542
0001b0 69 1e 3d 3d 7f d8 32 bd 87 24 1c be 48 d8 ca 3c
       0.04617158 -0.043663498 -0.15248309 0.024761334
0001c0 3e 8f 3e bd df b1 2b bd b7 d0 8b 3e d9 ec 48 3d
       -0.046523325 -0.041917678 0.27307674 0.049054
0001d0 00 ac ac 3c 12 c3 6b 3d 2b ca 15 3d ca 93 a2 39
       0.02107811 0.05755908 0.036569756 0.0003100916
0001e0 39 58 68 3d b8 df 36 3e e8 cb 5d 3e ba 9e bb 3d
       0.05672476 0.1785878 0.21659815 0.09161134
0001f0 12 0e f0 3a d7 e8 b2 3d 1e 11 d8 3d 5c 0a 85 3d
       0.001831474 0.08735817 0.1055014 0.064961165
000200 4e e9 36 3c 18 c9 ca 3d 2a f2 0e be a9 89 09 3e
       0.011164023 0.09901637 -0.13959566 0.1343142
000210 34 13 16 be fe 43 dd bd 48 1b 8a 3c e7 2f 13 be
       -0.14655763 -0.10803984 0.016858712 -0.14373742
000220 8f 37 6f be 17 84 0d be 43 d8 cf bc 91 65 a0 bd
       -0.23361038 -0.1381992 -0.025371676 -0.07831872
000230 ab a5 c6 3b e1 cd f5 3d 67 7c 4d bd c5 78 ca 3d
       0.0060622296 0.12002159 -0.050167467 0.09886316
000240 71 e7 56 bd 70 26 57 bd f8 40 74 3c f4 00 72 be
       -0.052466813 -0.05252689 0.014908068 -0.23633176
000250 53 00 eb 3d 03 15 b4 bd a5 bf d2 3d 5e dc 05 be
       0.11474671 -0.0879307 0.102904595 -0.13072345
000260 71 2e 8f bd cf 56 1f bd fd 23 99 3d 0b 78 f3 bc
       -0.0699128 -0.038901147 0.07477567 -0.029720327
000270 7e 38 67 3d 88 02 03 be d5 54 18 bd 50 a6 23 3e
       0.05645036 -0.12793934 -0.037190277 0.15981412
000280 d7 72 22 3d 04 4d 81 be bc 74 60 3d f2 16 71 bd
       0.0396603 -0.2525407 0.054798827 -0.058859773
000290 93 80 be bd 00 95 1f 3d d7 b4 84 3e fc 48 56 3d
       -0.09301867 0.038960457 0.2591922 0.052315697
0002a0 d1 e0 8a be 05 87 8a 3d 1f d4 02 be a4 d6 bc 3d
       -0.27124646 0.06764034 -0.1277623 0.09220627
0002b0 87 28 27 bd f3 6a 86 be d1 91 b0 3d 97 c9 10 be
       -0.040810134 -0.2625347 0.08621562 -0.141394
0002c0 7d 37 56 bb 32 7e da 3d a6 38 e6 bb 7f aa 8b bd
       -0.0032686882 0.10668601 -0.007025796 -0.06819629
0002d0 71 00 69 bd c2 96 1d be cd 1a 23 3d f0 67 9c ba
       -0.056885187 -0.15389541 0.03982048 -0.0011932831
0002e0 05 8f 25 3c 46 fa 98 bd 35 b7 9c bb 5d 0c 9d bc
       0.010104899 -0.07469611 -0.004782582 -0.019170934
0002f0 a7 2b 83 bd b4 ad 58 bd a2 ec a6 3d bf f1 9b bd
       -0.064048104 -0.05290003 0.08150603 -0.07614469
000300 9f da 44 bd 37 97 8f bd 1d 02 a7 ba d0 69 69 bd
       -0.048060056 -0.07011264 -0.0012741719 -0.056985676
000310 50 a8 9d 3d 9c 22 07 bd a3 83 3c bd 99 5c 2a 3c
       0.07698119 -0.03299199 -0.046023976 0.010398054
000320 97 ea 96 bd b0 d0 a0 3b 50 a3 d3 3c c3 db 28 be
       -0.07368963 0.00490769 0.02583471 -0.16490082
000330 f5 32 67 bc e5 87 34 be 23 5a 09 3d 7b ae bd 3d
       -0.01411127 -0.17629965 0.033533227 0.09261795
000340 09 bc bd bd 69 63 47 bd 58 f1 14 3d 38 ca cb 3d
       -0.092643805 -0.04867879 0.036362976 0.099506795
000350 98 f6 e9 3c a2 f8 62 bd 64 2f a1 3d a7 19 92 bd
       0.028559968 -0.055412896 0.07870367 -0.07133799
000360 f0 f3 d3 bb 34 9f 33 3c 33 94 c1 3d 92 b0 0e 3d
       -0.0064682886 0.01096325 0.09452095 0.03483636
000370 88 cb 93 3d e5 87 57 3d 1f df 76 bc 90 88 bb bd
       0.07216555 0.052619833 -0.015067845 -0.091569066
000380 17 b3 56 bd ea e5 ed bd 71 26 96 3d e7 06 a5 bc
       -0.052416887 -0.11616118 0.07331551 -0.020144893
000390 84 9a 1b bd c2 d9 e3 3d 09 73 4f bd 73 ba 4c 3e
       -0.037989154 0.111255184 -0.050646815 0.19993
0003a0 1e f1 09 bd 90 a3 d3 3d c2 33 ad 3d 75 3f a1 bd
       -0.033677213 0.103339314 0.08457138 -0.078734316
0003b0 63 15 e4 bd 19 4c 0b be 43 72 3b 3d 0d d6 02 be
       -0.11136892 -0.13603248 0.045763265 -0.12776966
0003c0 01 00 13 bc be 06 cd bd 9c 10 aa bd d4 4f 87 3d
       -0.008972169 -0.100110516 -0.08303949 0.06607023
0003d0 88 3d 3e 3d 41 53 21 3e f1 04 9a 3d 07 2e 5d 3d
       0.0464454 0.15754415 0.07520474 0.053998973
0003e0 a8 64 7c 3e e0 74 a6 3d 53 72 b5 bd 00 39 51 3d
       0.24647772 0.08127761 -0.08859696 0.05107975
0003f0 e9 a0 8c bd 5c 99 a5 3c af 33 ab 3c 35 72 4a 3c
       -0.06866629 0.020214729 0.020898668 0.012356331

fc1.bias f4 [128]
000000 b7 e1 d4 bd 80 2b ef bd 91 a2 fc bd 67 63 27 bd
       -0.10394614 -0.11678219 -0.123356946 -0.04086628
000010 c5 99 d9 bd ea ac 9f 3d 0b eb 7b bd 04 ff e2 bd
       -0.10625032 0.077966526 -0.06150345 -0.110837966
000020 7b 14 0d 3d 62 ae a2 3c 29 02 c2 bd a3 6e c9 bd
       0.03444336 0.019858543 -0.09473068 -0.098355554
000030 46 8e c4 3b 6d d1 35 bd b2 ac db bd 1b e6 16 bd
       0.0059984056 -0.044389177 -0.107262984 -0.03684054
000040 27 5f cf bd c3 45 3b 3d 98 43 fa 3b de c5 9a bd
       -0.10125571 0.045720827 0.0076374523 -0.075572714
000050 51 5d b9 3d 9b e8 5c 3d 1d 39 af bd a6 21 c5 3d
       0.09051002 0.053932767 -0.08555815 0.096255586
000060 02 36 8b bc a3 46 c0 bc e1 9d fd 3c ae fe 8e bd
       -0.016993526 -0.023471182 0.030959072 -0.0698217
000070 ec 78 d0 b9 b0 43 27 3c 07 2a eb bc 78 e9 33 3d
       -0.00039762945 0.010209009 -0.028706564 0.043923825
000080 de 9a be bd 20 b7 0a bd a4 76 e0 bd ce 6a 99 3d
       -0.09306882 -0.033866048 -0.10960129 0.074910745
000090 be 53 8d 3d 85 c5 ab 3d a6 37 48 bd 9c 92 8d bd
       0.06900738 0.08387283 -0.048881195 -0.06912729
0000a0 2d 6c 9d 3d 8c 9b 8c 3d 1b b2 57 3c a1 71 dd bd
       0.076866485 0.06865606 0.013165022 -0.108126886
0000b0 1a 08 89 3d fd 86 82 3d 95 07 9e bc a3 9a 3c 3c
       0.066909984 0.06373403 -0.019290725 0.011511478
0000c0 b5 9e 06 bc e1 ac 83 3d 22 77 90 ba d6 72 fc bd
       -0.00821655 0.064294584 -0.0011021832 -0.12326591
0000d0 84 a1 06 3d cf ad 9a 3d 18 e1 a7 bd 6e 3e 0d 3d
       0.032868877 0.075526826 -0.0819723 0.034483366
0000e0 36 b3 29 3d dc b1 45 3d 71 24 09 3e d1 fd 9c bc
       0.041430674 0.048265323 0.13392808 -0.019163998
0000f0 1d 61 de 3c 60 5c 85 bb e7 aa cc bd dc 1f 8a bd
       0.027145917 -0.00406985 -0.099935345 -0.06744358
000100 4e 86 ab bc 77 29 1e 3c 57 03 36 3c b4 27 66 3b
       -0.020938065 0.009653441 0.011109195 0.003511888
000110 42 5c 83 3d cd 6b f3 3c c1 50 09 be 08 62 0a 3d
       0.06414081 0.02971449 -0.13409711 0.033784896
000120 b7 6c be 3c 95 2c 53 bd 8f a5 0b 3d f0 9f f9 bd
       0.023245199 -0.05155619 0.034093436 -0.12188709
000130 8d a5 b3 3c a2 e0 83 3d 05 44 f3 3c 86 ea 86 bd
       0.021929527 0.0643933 0.02969552 -0.065877005
000140 e8 e1 e0 bb b7 59 a2 3d b6 a2 e3 3c e2 4e 94 3d
       -0.0068628676 0.07927268 0.027787548 0.07241608
000150 b2 06 2d bd 66 51 a3 bd 13 d6 b2 bd 44 96 80 bd
       -0.042242713 -0.0797451 -0.08732238 -0.06278661
000160 27 30 ab 3d c2 f3 71 3b ad 0d 10 3d 09 fd c6 3c
       0.08358794 0.0036918973 0.035169292 0.024290578
000170 5f 64 64 bc 69 66 ee bd 44 3b f9 bd 93 9b 9f 3d
       -0.013939946 -0.11640627 -0.12169507 0.07793345
000180 8d 75 f8 bc 36 90 eb 3b e9 a1 46 bd 9a f8 54 3d
       -0.03032949 0.007188822 -0.048494253 0.051994897
000190 21 5f 7e 3c 50 00 b3 3c d6 51 af bd 43 63 af 3b
       0.01552561 0.021850735 -0.08560531 0.005352409
0001a0 2f 58 ec 3c 8f b5 9e 3d 49 f3 4a 3d 89 79 12 bd
       0.028850643 0.07749473 0.04954842 -0.035760436
0001b0 22 d3 28 3c a8 46 a1 3d 14 39 c4 bd 7f 40 ff bd
       0.010304244 0.07874805 -0.09581199 -0.124634735
0001c0 46 2a 99 bd 9a a1 a0 bd 34 15 06 3d eb ec 39 bd
       -0.07478766 -0.07843323 0.032735065 -0.04539196
0001d0 38 9f 90 bd cd eb 49 bc 29 1d 83 3b 8d 91 62 3d
       -0.070616186 -0.012324286 0.004001279 0.05531459
0001e0 43 f1 5b bd f1 47 86 bc d1 3a bd bd 1c 9f a2 bc
       -0.053696882 -0.016391726 -0.09239734 -0.01985126
0001f0 77 c8 72 bd 62 5e aa bc 4e e7 cb bd f4 23 bf 3b
       -0.05927321 -0.020796958 -0.09956227 0.0058331434

fc2.weight f4 [128, 128]
000000 ad c3 5e 3c 41 b2 16 bd b2 2b 5f bd ea 6c 58 bc
       0.013596457 -0.03679109 -0.05448503 -0.013209561
000010 93 f2 64 bd 57 15 b1 3d 6b 9e 9d bc 7b 9b 92 bb
       -0.0558954 0.086466484 -0.019240579 -0.004474101
000020 67 c5 ab bc 5e 7b fb bc b6 47 4c bd dd 6c 18 bd
       -0.020968152 -0.030698474 -0.049873076 -0.037213195
000030 73 16 d5 3b 93 54 60 3d 69 4c 9f bd 5b 3b f4 bd
       0.0065029203 0.054768156 -0.07778246 -0.11925384
000040 b1 1c c0 3d 7f 86 ad bd 93 ca 2e 3d b0 ac 0c bd
       0.093804725 -0.08472919 0.04267366 -0.034344375
000050 c0 bd 01 3d fc 8c b0 3c 3f 76 2e bd 91 4a a6 bb
       0.0316751 0.021551602 -0.042593237 -0.005074807
000060 2b a0 0f bd a8 3e 1e bd 6b 1e 91 bd 03 11 e0 bc
       -0.035064857 -0.038633972 -0.0708588 -0.027351862
000070 2b 1c ba 3b f9 d2 a5 bd 5a a9 9a 3d ee 63 ca 3c
       0.0056796274 -0.080968805 0.075518325 0.024705853
000080 6b 7b 71 3d 4a 56 e2 3c 48 a6 a3 3c 7a dc 38 bc
       0.05895559 0.027629036 0.01997675 -0.011283034
000090 d1 e3 ab bd 74 af b9 bd e2 f2 e2 3c cc fc f1 3a
       -0.08393062 -0.09066668 0.027703706 0.001846218
0000a0 53 46 30 3d 41 d6 2d 3d 68 03 0c 3d 30 6b 85 3d
       0.043035816 0.042440657 0.034182936 0.06514585
0000b0 d0 44 66 3d d7 71 a5 b9 5e fe e0 bc d1 10 4c 3d
       0.05621797 -0.0003155607 -0.027465042 0.049820725
0000c0 11 17 2e bd d2 85 77 3d 3b 11 10 bd 9a d0 6d 3d
       -0.042502467 0.060430355 -0.035172682 0.058060266
0000d0 43 01 4c 3a 84 aa 0c 3d f7 0c ab 3c 54 97 f9 3c
       0.00077821704 0.034342304 0.020880206 0.030467667
0000e0 18 ca 9b bc a1 4c 89 bc b4 5b 91 3d f9 dc 25 3d
       -0.019017264 -0.016760172 0.07097569 0.04049394
0000f0 58 af 6d bd 5b 2d 8a 3d 83 75 10 bd ef 5e 9d 3d
       -0.05802855 0.06746932 -0.035268318 0.07684123
000100 b3 49 61 bb bb 3f 49 3d 0b 1c c8 3c 06 59 d8 bc
       -0.0034376204 0.049133044 0.024427434 -0.026409637
000110 b6 0e 06 bd e3 c4 ae bd 00 1e 68 bd 31 52 ef 3c
       -0.032728873 -0.08533647 -0.056669235 0.029213997
000120 c7 85 61 3d 91 91 2a 3d d7 c3 f5 bc da 2a a0 bd
       0.05505922 0.04164273 -0.03000061 -0.07820673
000130 b6 02 57 3d 34 22 3f bb b2 cb 7b bd e2 ce 12 bc
       0.05249282 -0.0029164674 -0.061473556 -0.0089604575
000140 fb c6 8e bd 6d fa 30 bd ad 37 58 bd c4 e4 92 3c
       -0.06971546 -0.043207575 -0.05278747 0.01793135
000150 62 ed 14 3d 36 72 9f bd 2a d8 8f 3d 1e 6f e5 3d
       0.0363592 -0.07785456 0.07023652 0.112028345
000160 05 75 1f bd 75 f0 41 bd 55 95 03 bd 70 67 63 3d
       -0.038929958 -0.04734846 -0.032124836 0.055518568
000170 6a 37 4f 3d 53 d7 aa bd e0 4a 9a bd 50 78 3b bd
       0.050589956 -0.08341851 -0.075338125 -0.045769036
000180 47 2f fc bc 8a 88 b9 bc b8 65 a6 bd 95 87 47 b9
       -0.030784262 -0.022648115 -0.0812487 -0.00019028627
000190 7a 42 92 3c c3 ec 60 3d e2 7a 86 bb 06 ee 17 bc
       0.017853964 0.054913294 -0.0041040042 -0.009273058
0001a0 68 3b 9d bb b3 cc 9b 3d bf 42 df 3d a2 fe 0e 3e
       -0.0047983415 0.07607403 0.10901403 0.13964322
0001b0 64 7d 27 be 90 7a b2 bd a2 91 1c 3d 62 c0 38 3d
       -0.16356426 -0.08714783 0.038224824 0.045105346
0001c0 76 01 30 bb c8 f6 0d 3c b8 47 61 3d 66 ec 07 3d
       -0.002685634 0.008664794 0.055000037 0.03318443
0001d0 cf 91 86 3d ab 41 22 3d 92 99 b0 bd 5d 28 37 bd
       0.065707795 0.039613407 -0.08623041 -0.044716228
0001e0 ef 46 54 3b a4 66 77 bc f8 e8 fe bc 60 64 c7 3d
       0.0032390913 -0.015100155 -0.031116948 0.09735942
0001f0 44 bd 34 bd b4 8e 09 bd 9c 2b 48 bd 5b dc f5 3b
       -0.04412581 -0.033583358 -0.048869714 0.007503075
000200 30 81 98 bd 01 c2 1f 3d 27 55 e5 bc 99 51 38 3d
       -0.074465156 0.039003376 -0.027994705 0.044999693
000210 1e 5d 2b 3d 28 5d 66 bd 22 15 8d 3d 12 6c 22 bd
       0.04183685 -0.056241184 0.068887964 -0.039653845
000220 89 a7 03 38 32 42 08 bd c8 e5 00 3d c6 52 96 bb
       3.1388863e-05 -0.033266254 0.031469136 -0.004587504
000230 f9 36 f6 bc 7f c3 4b 3d 74 ae 94 bc 8f 82 e3 bc
       -0.03005551 0.049746986 -0.018149592 -0.027772216
000240 83 40 96 3c 43 0f b7 bd c7 5c 4e 3d fd 8a 85 3d
       0.018341308 -0.08938458 0.050381448 0.065206505
000250 a9 1b a1 3d 43 8c 47 3d 89 99 35 3c 70 02 ea bc
       0.07866604 0.04871775 0.011083969 -0.028565615
000260 09 29 04 bb f7 d2 70 bd 1c 0f 70 3d 4e c5 80 3d
       -0.002016606 -0.05879494 0.05860816 0.06287633
000270 9c 6e 5b bd ac c6 70 3d 1b bb 54 3d 2f 4e 1d 3d
       -0.053572282 0.05878322 0.05193625 0.03840464
000280 51 71 98 3d b5 86 fa 3b 73 71 8d bd a4 f6 74 3c
       0.074434884 0.007645453 -0.06906404 0.014951382
000290 08 0e 8a bd e3 da 57 bb 64 cc a3 3b cc af b2 3b
       -0.067409575 -0.0032936863 0.0049987305 0.0054530855
0002a0 49 d4 8f 3c c5 c3 ad bd e6 16 1d 3d 31 a3 8f 3d
       0.01755728 -0.08484606 0.038351916 0.07013548
0002b0 a3 96 85 bd 12 2a c0 bd a9 d3 7a 3d 8f dc 9c bd
       -0.06522872 -0.09383024 0.06123701 -0.07659256
0002c0 f4 67 6a bd 63 1b dc bc 72 c1 75 bd ca b8 24 3d
       -0.057228044 -0.026868528 -0.059998937 0.04021529
0002d0 58 8d 82 3d 73 a3 38 3d 95 d5 30 3c bb fa 8e 3d
       0.063746154 0.045077752 0.010793109 0.06981417
0002e0 65 cd 83 3d e4 52 7d 3c ee f8 c5 3b 59 cd 96 bd
       0.0643566 0.015461657 0.0060416376 -0.07363386
0002f0 5a b7 4e bd 5d 00 47 3d a7 62 3d 3d d2 11 6e 3a
       -0.050467826 0.04858433 0.04623666 0.0009081635
000300 ca 5b 55 bd a2 04 67 3d a1 70 3c 3d 85 b6 98 bb
       -0.05208949 0.056400903 0.04600585 -0.00466043
000310 3e 3e 26 3c da 48 44 3d ba a4 63 3d 24 ae 1e 3d
       0.010146676 0.04792104 0.055577017 0.038740292
000320 3e ec 4d bd e8 f6 25 bd 54 d3 99 3d 2c 2f 85 bd
       -0.050274126 -0.04051867 0.07511011 -0.06503138
000330 ee cf b4 bd 38 6b b8 bb 5e 52 76 3a ef 1a fe 3c
       -0.08828722 -0.005628016 0.0009396429 0.031018702
000340 ac 72 96 bc 7b 71 a2 bc 31 1f 82 3d fc 4d 5e bc
       -0.018365227 -0.019829502 0.063536055 -0.013568398
000350 71 3e 79 bd 1c 67 90 bb 86 9c 42 bd bf 13 18 bd
       -0.060850564 -0.004406823 -0.047512554 -0.037128206
000360 e9 72 4b 3d 52 8c 65 3c 11 59 b3 bd cf e2 82 39
       0.049670134 0.014010506 -0.087572224 0.00024964518
000370 51 10 d7 bc 73 f2 eb 3c 63 5a ad bd 3d f6 37 3d
       -0.026252897 0.028802132 -0.084645055 0.044912565
000380 55 77 83 3d 41 7a 62 3d 7e dd b4 bd de 14 a6 bd
       0.06419245 0.05529237 -0.08831309 -0.08109449
000390 0d a1 82 bd 37 ae 07 3d 02 0d 1b 3d 6a 70 3a 3d
       -0.06378374 0.03312513 0.037854202 0.045517363
0003a0 d5 7a 24 bc dd 68 fb bb bc bf 07 bd 11 d4 e7 3c
       -0.010039051 -0.007672413 -0.033141837 0.028299363
0003b0 e6 b5 7b 3d b6 13 0e bd 0d 2e 8b 3d 60 fc a2 bd
       0.06145277 -0.034686767 0.06795893 -0.07958293
0003c0 ba d0 6a 3d 1d a2 84 3c 9d b1 fc bc a3 ca 92 3c
       0.057327963 0.016190583 -0.030846411 0.01791889
0003d0 38 de c9 bc 78 c9 73 3d ab 37 47 bd 07 79 95 bd
       -0.024642095 0.059518307 -0.048637073 -0.07298475
0003e0 da dd df bc 80 30 3e bd 0c 58 17 bd 9c 0e 9e bc
       -0.027327467 -0.046432972 -0.036949202 -0.019294076
0003f0 f5 61 02 3c 5e 14 9e bd f1 f9 39 bc f8 3e b4 bd
       0.007957925 -0.077187285 -0.011351095 -0.08801073

fc2.bias f4 [128]
000000 51 50 2d bb 7d 21 41 bd 7c b4 b9 bb a2 70 e4 3c
       -0.0026445577 -0.047151078 -0.0056672674 0.027885739
000010 0e 7c a6 bd cd b1 8a bd 31 00 97 3d 2d f2 b4 3d
       -0.0812913 -0.06772194 0.073730834 0.08835254
000020 2e 82 c0 bd fe a4 02 3e 84 3a f7 bd 35 e1 43 3e
       -0.0939983 0.12758252 -0.12071708 0.19128878
000030 84 cf 0b be 27 ac 83 bd 8a 0a cb bc 0c dc 33 3d
       -0.1365338 -0.0642932 -0.024785299 0.043911025
000040 f1 e1 82 bd d9 c6 96 bd a5 af af ba ba 27 e4 3c
       -0.06390751 -0.07362146 -0.0013403787 0.027850974
000050 d0 13 b0 bd 46 dd ff bd f7 41 a1 bb eb 3a 4d bd
       -0.08597529 -0.124933764 -0.0049211937 -0.050105017
000060 01 93 2c bc cb f3 cc bd f0 96 58 bd 11 a4 96 bc
       -0.010533095 -0.10007437 -0.05287832 -0.01838878
000070 16 09 83 bc 9e b3 a0 bc e6 cf cf bd bc 39 0c 3e
       -0.015995543 -0.019616898 -0.10147075 0.13693899
000080 e8 d7 ca bd 4d eb be 39 ce 4a 7d bc 66 2d a1 bd
       -0.09904462 0.00036414937 -0.015459729 -0.07869987
000090 13 e9 bf bd 15 9a 3e 3d 34 d0 d8 bd 9d e7 51 3d
       -0.09370627 0.046533663 -0.105865866 0.051246274
0000a0 6d 20 b0 bc 50 0b 0c bd 05 fd 62 3d 5d e8 ab bd
       -0.021499837 -0.034190476 0.05541708 -0.08393929
0000b0 1b 5b d7 bc 1e 42 b3 bd ff 04 a4 bd dd dd 4c 3c
       -0.02628856 -0.08752845 -0.080087654 0.012504068
0000c0 74 e7 00 be 68 6d 82 bd 9f 4a 73 3d 53 26 a0 bd
       -0.12588292 -0.06368524 0.059397336 -0.0781981
0000d0 41 2d b8 bd ed 14 69 bd 59 38 2a 3d 49 fa 93 bd
       -0.089930065 -0.056904722 0.041557644 -0.072254725
0000e0 18 e1 95 bd c0 33 22 3e 1c 28 d0 3d 7b da b4 3c
       -0.07318324 0.15840054 0.101639 0.022076836
0000f0 38 5b 2f bb 1e cc 54 3c 21 0a 02 be 1d ec 6a bd
       -0.0026757251 0.012988118 -0.12699176 -0.05735408
000100 8b 6d 45 bd 97 ea 90 bd 29 98 db bd b4 5f b0 bc
       -0.04820017 -0.070759945 -0.107223816 -0.02153001
000110 b8 0c 36 bd 4e bb 05 3c 0e a3 e3 bd 4f 1e 4f bd
       -0.044445723 0.008162333 -0.111150846 -0.050566014
000120 3a 45 6d bd 20 3b 68 bc e0 e6 91 bd 27 fa ba bb
       -0.057927348 -0.014174253 -0.07124114 -0.00570609
000130 a0 19 94 bd db a8 32 3d b5 a8 29 3e 17 b9 0b 3d
       -0.0723145 0.043618064 0.16568263 0.034112062
000140 28 42 a3 bd 6a 39 70 3c 15 a8 55 bd d5 af 6b bc
       -0.07971603 0.014662126 -0.05216225 -0.014385183
000150 93 65 05 bd 18 fb 6b bd 91 f6 4d bd bf 2e 9b bd
       -0.03256757 -0.05761251 -0.050283972 -0.075772755
000160 90 9d e9 3d 9b a8 3a 3e 1e 7b 8d 3d 11 68 7e bd
       0.11407006 0.1822838 0.06908248 -0.062110964
000170 fb c7 71 3d 5e 53 1d 3e 9c 98 2d 3d f4 71 9e bd
       0.059028607 0.15363833 0.042381868 -0.077365786
000180 fb ba f5 3d c5 d5 b7 bd 44 84 e2 bc bd 5c 1a 3d
       0.11998554 -0.0897632 -0.02765096 0.0376861
000190 45 dc a8 3d d7 31 9d 3b 2e 64 9a 3a de 0c 21 3d
       0.08245138 0.004797201 0.0011779123 0.03931891
0001a0 01 2c 3b 3d 8d 4d 13 3c 32 62 c9 3c 62 7f e0 bd
       0.045696262 0.0089906575 0.024582956 -0.10961796
0001b0 41 b1 90 bd 10 8e 0e be 74 d8 68 3d 0f a3 ef 3c
       -0.070650585 -0.1392138 0.05684705 0.029252557
0001c0 30 7d 7d 3d 79 8f 9d bd 9f 61 24 bd 56 95 88 3c
       0.061886966 -0.07693381 -0.04013216 0.016672771
0001d0 9b 0a 63 bd 7d 3e a8 bb 6f 1b 0e bd 0d c2 da bd
       -0.055430036 -0.0051344023 -0.03469413 -0.106815435
0001e0 bf 09 34 3c c2 00 0e be 39 b3 8e 3b b8 06 c1 bc
       0.010988652 -0.13867477 0.004354861 -0.023562774
0001f0 36 79 50 3e c5 b7 b3 3d ef 42 a2 bd 38 cc e5 3c
       0.20358738 0.08775286 -0.07922923 0.02805148
