saved_models/episode_100/agent_4.pth (torch, 738018 bytes, 44 tensors)

fc1.weight f4 [128, 5]
0	0xbd3df947	-0.046380308
1	0x3e108384	0.14112669
2	0xbe8ed93a	-0.27900106
3	0x3e5fbb07	0.21848689
4	0xbe8882f0	-0.26662397
5	0xbedf22b2	-0.43581158
6	0xbe7c55ba	-0.24642077
7	0xbd8b130e	-0.06790744
8	0x3ec710e0	0.38880062
9	0x3e809dc2	0.2512036
10	0xbe7556a4	-0.23958832
11	0x3ece13ae	0.4024939
12	0xbc707343	-0.014675918
13	0x3e8200b4	0.2539116
14	0x3ec74c2f	0.3892531
15	0xbed72091	-0.42017034
16	0x3e9c79b8	0.30561614
17	0x3d83f219	0.06442661
18	0xbee4ed51	-0.44712308
19	0xbe886572	-0.26639897
20	0xbe12db93	-0.14341573
21	0x3e84f4bd	0.2596797
22	0x3e8a40ff	0.27002713
23	0xbe36153f	-0.17781542
24	0x3ca7b517	0.020472093
25	0xbcd526fe	-0.02601957
26	0xbe289f0f	-0.16466926
27	0xbe13aa96	-0.14420542
28	0x3ec4b189	0.384167
29	0x3b14a088	0.0022678692
30	0xbe40cdc7	-0.18828498
31	0xbe02bde2	-0.12767747
32	0xbe68e6f3	-0.2274435
33	0x3d3bf4e2	0.045887835
34	0xbe241575	-0.1602381
35	0xbe978f76	-0.2960164
36	0x3e1b133f	0.1514406
37	0x3eabb1c4	0.33534062
38	0xbd91c9e8	-0.07118589
39	0xbd5d76be	-0.05406832
40	0x3eab8717	0.33501503
41	0xbdf09f03	-0.11749079
42	0x3e9bc7dd	0.3042592
43	0xbe16bd84	-0.14720732
44	0x3e8f5c73	0.2800022
45	0x3e83c6fc	0.2573775
46	0x3e0e652b	0.1390578
47	0xbe206445	-0.1566325
48	0x3d8d5663	0.069012426
49	0xbe8b359c	-0.27189338
50	0x3e519b1b	0.20469324
51	0xbea7eada	-0.32796365
52	0xbeb22abd	-0.34798232
53	0x3e8cfd87	0.27537176
54	0x3d33fa4a	0.043939866
55	0x3ec18f19	0.37804487
56	0x3dbc4db8	0.09194511
57	0xbe6ef34a	-0.23334995
58	0x3ecb4eb7	0.39708492
59	0x3ed2dac0	0.41182518
60	0x3d5d1532	0.05397529
61	0x3e18f1e8	0.1493603
62	0xbc7c8318	-0.015412115
63	0x3e96e6da	0.29473
64	0xbe95e47b	-0.2927588
65	0xbe82f3f6	-0.25576752
66	0xbec1d290	-0.3785596
67	0x3edcb701	0.4310837
68	0xbe0599c3	-0.13046937
69	0xbe973a0f	-0.29536483
70	0xbdae55bd	-0.08512447
71	0x3d802b09	0.06258208
72	0xbe3aa4bb	-0.18226902
73	0x3dd2fb6e	0.10301863
74	0xbe461bf1	-0.19346596
75	0x3d64d70a	0.05586914
76	0x3c78a166	0.015175199
77	0x3daec7cc	0.08534202
78	0x3e674336	0.22584233
79	0xbecfe8d4	-0.4060732
80	0x3ed97a9f	0.42476365
81	0x3e378973	0.17923526
82	0xbea6f150	-0.32605982
83	0x3ede126b	0.43373427
84	0x3edc38bc	0.43012035
85	0x3e93ef4a	0.288935
86	0x3eb3d0e4	0.35120308
87	0x3d1a8ade	0.03773009
88	0xbea526ca	-0.32256156
89	0x3e983a14	0.2973181
90	0x3eb85c41	0.36007884
91	0xbecc90ad	-0.3995413
92	0x3ea036c5	0.31291786
93	0x3dd17ab6	0.102284834
94	0xbe8d92ef	-0.27651164
95	0x3e2766dc	0.16347831
96	0xbecc85b1	-0.39945748
97	0xbecb3450	-0.3968835
98	0xbde2bf1d	-0.11071608
99	0x3e6c85ac	0.23097867
100	0xbeba2302	-0.36354834
101	0x3df4a2d0	0.119451165
102	0xbd24f8df	-0.040276404
103	0x3caef95c	0.021359138
104	0xbec5f3f0	-0.38662672
105	0xbeaf1f96	-0.34203786
106	0xbd3a2870	-0.04544872
107	0xbe39a65b	-0.18129866
108	0x3ede9a7e	0.43477243
109	0xbd16b2bc	-0.036791548
110	0xbe98f143	-0.29871568
111	0x3eb7b239	0.3587816
112	0x3e8ccea8	0.27501416
113	0xbe61b181	-0.22040369
114	0x3e0db392	0.13838032
115	0xbee03507	-0.43790457
116	0x3d2c3698	0.042044252
117	0x3e72d6c2	0.23714736
118	0xbe92e3e1	-0.28689483
119	0xbe14511e	-0.14484069
120	0xbedc577f	-0.43035504
121	0x3ed32f1e	0.41246885
122	0xbdbc6389	-0.09198672
123	0xbecb0f45	-0.39660087
124	0x3e191f3c	0.14953321
125	0x3cd6bdd3	0.026213562
126	0x3ec706d9	0.38872412
127	0xbe09d2ee	-0.1345937
128	0xbde03dcf	-0.10949289
129	0x3e9fdd8d	0.31223717
130	0x3d4a9279	0.049456093
131	0x3d8c1468	0.0683983
132	0xbd063249	-0.0327628
133	0x3ea1313f	0.31482884
134	0xbedd8355	-0.4326426
135	0xbe80754e	-0.25089496
136	0x3eb9c9aa	0.3628667
137	0x3ecc2db2	0.39878613
138	0xbec53038	-0.3851335
139	0x3e8c2591	0.2737241
140	0x3d935fb1	0.07195986
141	0xbed975d2	-0.42472702
142	0x3ea9f4c3	0.3319455
143	0x3e8df48b	0.27725634
144	0xbe83a2b8	-0.25710082
145	0x3d633e5f	0.055479404
146	0xbd83b689	-0.064313
147	0xbe0ce854	-0.13760501
148	0x3e66a406	0.22523507
149	0x3d8f0efe	0.069852814
150	0xbcb2a601	-0.021807672
151	0x3e46e3e5	0.19422872
152	0x3ec6ebcd	0.38851777
153	0x3eae4382	0.3403588
154	0xbda7106e	-0.081574306
155	0xbd9dedbf	-0.07711362
156	0x3e8f2038	0.27954268
157	0xbdb36fc6	-0.087615535
158	0x3e79384a	0.24337879
159	0x3ecf18e5	0.4044868
160	0x3e90f6c3	0.28313264
161	0x3ce6483b	0.028110614
162	0xbe01c6f2	-0.12673548
163	0xbe96064c	-0.2930168
164	0x3eb02b80	0.34408188
165	0xbd3ae8cb	-0.045632165
166	0xbeb3f12a	-0.3514493
167	0xbcb0316d	-0.021507943
168	0xbdc5fe28	-0.09667617
169	0x3eddcec6	0.43321818
170	0xbea85121	-0.32874396
171	0xbe9cc998	-0.30622554
172	0x3ed09035	0.4073502
173	0x3e356e06	0.17717752
174	0xbd91f20a	-0.071262434
175	0xbeb90b3b	-0.3614138
176	0xbee4ad98	-0.44663692
177	0x3e1607dd	0.14651437
178	0x3d876f3d	0.06613014
179	0xbebd82e4	-0.37013924
180	0xbd63b311	-0.055590693
181	0xbd83456d	-0.06409726
182	0x3d0d8e0d	0.0345593
183	0x3e8dfc8e	0.27731746
184	0xbe74db1f	-0.23911713
185	0x3e6b0457	0.22950874
186	0xbe484ab4	-0.19559747
187	0xbe925498	-0.28580165
188	0xbd8b61cf	-0.06805765
189	0x3e18f8ef	0.1493871
190	0xbdf9db0e	-0.121999845
191	0x3ebaff2a	0.365228
192	0xbe5af9b6	-0.2138432
193	0xbd22944b	-0.039692204
194	0x3ea07031	0.31335595
195	0xbdbfb9ca	-0.09361608
196	0x3e8a38f0	0.26996565
197	0x3d1acac5	0.037791032
198	0x3e3aa0e5	0.18225439
199	0x3e9988be	0.29987139
200	0xbeb2e091	-0.34936956
201	0x3ebfff13	0.37499294
202	0x3e9e7dc3	0.30955324
203	0xbe8dc8a2	-0.27692133
204	0xbd1f30e5	-0.03886499
205	0x3e881edd	0.26586047
206	0x3ed6acc6	0.4192869
207	0xbe2a764d	-0.1664669
208	0xbd25235c	-0.040316924
209	0x3d3c7e2a	0.046018757
210	0x3e7430d7	0.23846756
211	0x3d907c97	0.070550136
212	0x3edca6ce	0.43096012
213	0x3e9ef9fc	0.31050098
214	0x3dc4962f	0.09598958
215	0xbe1f735d	-0.15571351
216	0xbd49e962	-0.049294837
217	0x3c18418a	0.0092929695
218	0x3dfe4d3e	0.124170765
219	0xbedc7dda	-0.43064767
220	0x3e4d8821	0.2007146
221	0x3cd1fb8d	0.025632644
222	0x3da94237	0.082645826
223	0x3e9194e4	0.28433907
224	0xbdcc3701	-0.09971429
225	0x3e869ba5	0.26290622
226	0xbce8f54c	-0.02843728
227	0x3e3c05f3	0.18361644
228	0x3d2a0427	0.041507866
229	0xbe84b755	-0.2592112
230	0xbd8c29d7	-0.06843918
231	0xbb9e1ace	-0.0048249727
232	0x3e893d09	0.2680438
233	0xbe0b6e7b	-0.13616364
234	0x3d4af581	0.049550537
235	0xbe4419e7	-0.19150506
236	0x3e8235cd	0.25431672
237	0x3eb80ab3	0.35945663
238	0x3dd62780	0.10456753
239	0x3de79c87	0.11309152
240	0xbeb7ace2	-0.35874087
241	0xbb91c3c2	-0.004448385
242	0x3e979b19	0.29610518
243	0x3dc45582	0.09586622
244	0xbe91690a	-0.2840045
245	0xbe88464a	-0.26616126
246	0xbeb9d539	-0.36295488
247	0x3e3e320b	0.18573777
248	0x3eb01f43	0.3439885
249	0x3d3d2b5f	0.04618394
250	0xbe18b6de	-0.14913508
251	0x3e1acc72	0.15117052
252	0x3ea93553	0.33048496
253	0x3cb9195f	0.022595106
254	0xbe9b57d2	-0.3034044
255	0x3ec8dae1	0.3922949

fc1.bias f4 [128]
0	0xbe4eb8ed	-0.20187731
1	0xbd79e695	-0.061010916
2	0x3eae392a	0.34027988
3	0x3dce8110	0.100832105
4	0xbd1b9723	-0.037985932
5	0x3edc62b4	0.43044055
6	0x3dae0451	0.08496917
7	0xbd93e8b8	-0.07222122
8	0xbd1c668f	-0.038183745
9	0x3e5cbfb4	0.21557504
10	0xbe1a39ff	-0.15061186
11	0xba7233c7	-0.0009239283
12	0xbec03876	-0.37543076
13	0x3ec0ddcd	0.3766922
14	0xbe91fe30	-0.28514242
15	0x3e9d7fe1	0.30761626
16	0x3ec16179	0.37769678
17	0xbea11439	-0.3146074
18	0xbea8aeab	-0.3294576
19	0xbecfcb60	-0.4058485
20	0xbebffb38	-0.37496352
21	0xbd32f9df	-0.043695327
22	0xbd6dafad	-0.058028866
23	0x3e1b2808	0.1515199
24	0x3e276445	0.16346844
25	0xbe1024a2	-0.14076474
26	0x3e28d9ed	0.16489382
27	0xbebc7cfd	-0.36814108
28	0xbda23cc8	-0.07921749
29	0x3e1af905	0.15134056
30	0xbeb31497	-0.34976646
31	0x3e946487	0.28982946
32	0xbe88c545	-0.26713005
33	0x3db66414	0.08905807
34	0x3e846c56	0.25863904
35	0xbead511a	-0.33850938
36	0x3e60f361	0.21967842
37	0xbec267f3	-0.37969932
38	0xbdf00ab2	-0.1172079
39	0x3e71a797	0.23599087
40	0x3e643d80	0.22289085
41	0x3e9c7638	0.30558944
42	0xbbe6533b	-0.007028965
43	0x3c423acd	0.0118548395
44	0x3e23c26e	0.15992138
45	0xbe2b8b03	-0.16752248
46	0x3ea5b422	0.32363993
47	0x3ed79a96	0.42110127
48	0x3ecdaaf2	0.40169483
49	0xbe47b506	-0.19502649
50	0xbec3433f	-0.38137242
51	0x3d304230	0.04303187
52	0xbede7f9a	-0.43456727
53	0x3edb101b	0.42785725
54	0xbe0379a4	-0.12839371
55	0xbeb5b69d	-0.35490885
56	0xbec70efb	-0.38878617
57	0xbea76ac0	-0.3269863
58	0xbe3e4477	-0.18580805
59	0x3e8a7605	0.27043167
60	0xbe9da2c5	-0.30788246
61	0x3d1e6e50	0.03867942
62	0x3e63caad	0.22245283
63	0x3ee39717	0.4445121
64	0xbedca479	-0.43094233
65	0xbeb8b970	-0.36078978
66	0x3ec310c6	0.38098735
67	0x3e8a2967	0.26984712
68	0xbe9b1a51	-0.30293515
69	0xbd920bde	-0.0713117
70	0x3e5fdaec	0.21860856
71	0x3e807acd	0.2509369
72	0xbea50a1b	-0.32234272
73	0xbe9c2f95	-0.30505052
74	0x3d05d2ff	0.032671925
75	0xbee07202	-0.4383698
76	0x3d4c34c8	0.049855024
77	0xbeb87591	-0.36027196
78	0x3e1f3a3b	0.15549557
79	0x3eb79ccb	0.3586181
80	0x3e8ac609	0.27104214
81	0x3e3101ea	0.17285886
82	0xbe928d53	-0.28623447
83	0xbe84ef1e	-0.25963682
84	0x3ebaf59a	0.36515504
85	0xbda6a790	-0.08137429
86	0xbebc0889	-0.36725262
87	0x3e9ea092	0.3098188
88	0xbbb377b3	-0.0054769157
89	0x3e837e03	0.25682077
90	0xbec6e253	-0.38844547
91	0x3e4ea071	0.20178391
92	0x3dedc4d9	0.11609811
93	0x3e467d4c	0.19383734
94	0xbeac64ec	-0.33670747
95	0xbedc8dc3	-0.43076906
96	0x3d57ebfa	0.05271528
97	0xbec91acc	-0.39278257
98	0x3dcce0e7	0.10003834
99	0x3e08ac41	0.1334696
100	0xbecea63f	-0.4036121
101	0x3b5fdc18	0.0034158286
102	0xbed81a9b	-0.42207798
103	0xbebe5b46	-0.3717901
104	0xbe9ae279	-0.3025091
105	0x3dee7507	0.11643415
106	0x3d207c01	0.03918076
107	0x3ea58348	0.32326722
108	0x3ced33c7	0.028955353
109	0xbeaea249	-0.3410819
110	0xbecbeaed	-0.39827672
111	0x3dcf3b1b	0.10118695
112	0xbebaac18	-0.36459422
113	0x3d5b2164	0.05349864
114	0xba3c5735	-0.0007184626
115	0x3dd5476a	0.10414012
116	0xbea6fd84	-0.32615292
117	0x3e903f20	0.2817316
118	0x3e923648	0.28557038
119	0xbe998ac5	-0.29988685
120	0xbda2a051	-0.07940734
121	0x3ebe9589	0.3722346
122	0xbd08c751	-0.033393208
123	0xbe261a22	-0.16220906
124	0xbc2d5808	-0.01058007
125	0x3ebe586e	0.37176841
126	0xbe53b8bc	-0.2067594
127	0xbe3bce69	-0.18340458

fc2.weight f4 [128, 128]
0	0xbd359ed3	-0.04434092
1	0x3d610b38	0.05494234
2	0x3c5e0f0b	0.013553391
3	0xbd75c566	-0.060002707
4	0x3dc22f1f	0.09481644
5	0x3dae78ee	0.08519159
6	0x3c10d0ae	0.008838816
7	0xbd08e9f9	-0.03342626
8	0xbd33dccc	-0.04391174
9	0x3d942b61	0.07234836
10	0x3cd6a4f6	0.026201706
11	0xbc246bb2	-0.010035442
12	0x3cf42acb	0.029805562
13	0xbd81b550	-0.06333411
14	0x3d62b2aa	0.05534617
15	0xbd83365d	-0.06406853
16	0xbd25c566	-0.040471457
17	0xbd13101e	-0.035904042
18	0xbbee40d6	-0.0072709126
19	0x3d9056fc	0.07047841
20	0x3dad943d	0.0847554
21	0x3c741823	0.014898333
22	0xbc395a27	-0.011312998
23	0x3d8e5736	0.06950228
24	0x3dace7ae	0.08442627
25	0x3d351bd3	0.04421599
26	0x3cc2ebdd	0.023794109
27	0xbcf89a0b	-0.03034689
28	0x3d240126	0.040040158
29	0xbcc92d16	-0.024557631
30	0xbd52631a	-0.051364042
31	0x3d422d62	0.04740656
32	0xbd0e2366	-0.034701727
33	0x3cab4e55	0.020911375
34	0xbcc6afc8	-0.02425374
35	0xbd8f73b2	-0.07004489
36	0x3d76a2ca	0.06021384
37	0x3d76812e	0.06018179
38	0x3dadd62d	0.084881164
39	0x3da1cbad	0.07900176
40	0x3d0a2009	0.033721957
41	0x3beebc76	0.00728565
42	0xbd3f4740	-0.04669881
43	0xbd833065	-0.06405715
44	0x3daf7dde	0.08568929
45	0x3d79d8fc	0.060997948
46	0xbd4581a1	-0.048219327
47	0xbcd10291	-0.02551392
48	0x3d12e26f	0.035860475
49	0x3bb8b06d	0.005636266
50	0xbd3a3135	-0.045457084
51	0x3c9b0bf6	0.018926602
52	0x3dcf5abd	0.10124729
53	0x3c0c1cef	0.00855182
54	0x3c9a589b	0.018841079
55	0x3dcb8b57	0.09938686
56	0x3c5d9651	0.013524608
57	0x3d23b46d	0.03996699
58	0x3d6eca94	0.058298662
59	0xbd906f00	-0.070524216
60	0x3d3f97c1	0.046775583
61	0x3d68d7f7	0.056846585
62	0x3c1c4a84	0.00953925
63	0xbd5f4ad0	-0.054514706
64	0x3ca5f8a2	0.020260159
65	0x3d269161	0.040665988
66	0x3d984541	0.07435084
67	0xbd306d1c	-0.043072805
68	0xbbb81ccd	-0.0056186677
69	0x3ca91c5e	0.02064341
70	0x3d074450	0.033024132
71	0xbc912143	-0.017716056
72	0x3d2a35e2	0.041555293
73	0x3d3f128f	0.04664856
74	0x3c5d6d20	0.013514787
75	0xbca5105a	-0.020149399
76	0xbcf0edd3	-0.029410278
77	0x3c808165	0.0156867
78	0xbd3744b6	-0.044743262
79	0x3ccbd488	0.024881616
80	0x3d3d3a55	0.046198208
81	0x3d160425	0.036625046
82	0xbc0c649b	-0.008568908
83	0xbd8c2d2a	-0.06844552
84	0x3cd257a0	0.025676548
85	0x3d82ed78	0.0639295
86	0x3ddf19e6	0.108936116
87	0xbd856c47	-0.06514793
88	0x3db81db1	0.08990038
89	0xbcc4476d	-0.02395984
90	0x3c01a4bc	0.007912811
91	0x3dd595eb	0.10428985
92	0x3d276844	0.04087092
93	0x3dcafa62	0.09911038
94	0xbd0bd6bb	-0.03414033
95	0x3d98e87b	0.07466217
96	0x3c9a0f81	0.018806221
97	0x3cc6b3b2	0.024255607
98	0x3d80ac47	0.06282859
99	0x3c9b53d8	0.018960878
100	0xbbd45a48	-0.006480489
101	0xbd86917c	-0.06570718
102	0xbd160ecd	-0.03663521
103	0xbd6cd6c8	-0.05782202
104	0xbd732a72	-0.05936665
105	0x3d57d058	0.052688926
106	0x3d49d3e8	0.049274355
107	0xbd7e3257	-0.062059727
108	0x3ccef95c	0.025265388
109	0xbcdfcf65	-0.027320573
110	0x3d450558	0.0481008
111	0xbd683103	-0.056687366
112	0xbd1a8e12	-0.037733145
113	0xbd2015fa	-0.03908346
114	0xbd30133b	-0.04298709
115	0xbc952e64	-0.018210597
116	0xbc914834	-0.017734624
117	0xbd406aed	-0.046976972
118	0xbd878758	-0.06617612
119	0x3d8b5ee4	0.06805208
120	0x3d37d361	0.04487932
121	0x3b5ba16b	0.003351296
122	0xbd9d05ba	-0.07667108
123	0x3d3e9760	0.04653108
124	0xbd9844d5	-0.07435004
125	0x3d49d710	0.049277365
126	0xbc4d0882	-0.012514235
127	0x3cdf2339	0.027238475
128	0xbd126136	-0.03573724
129	0xbd0b35c4	-0.03398682
130	0xbdc2fe99	-0.09521217
131	0xbd80d0a2	-0.062897936
132	0xbd392780	-0.045203686
133	0xbdc7bd8a	-0.097529486
134	0xbcc0d2b4	-0.023537971
135	0x3cd7f141	0.026360156
136	0x3d5eafb7	0.054366793
137	0xbdb422ab	-0.08795675
138	0xbd75ea12	-0.06003768
139	0x3d976169	0.073916264
140	0x3b9c13b0	0.004763089
141	0x3c3d86cb	0.011567782
142	0xbd133f66	-0.035949133
143	0x3da74007	0.08166509
144	0xbc030ae7	-0.007998205
145	0xbd837b3e	-0.06419991
146	0xbcd76875	-0.026294926
147	0xbd1c232c	-0.03811948
148	0xbd956ba7	-0.07295924
149	0x3d62310d	0.05522256
150	0x3bf6f940	0.007537037
151	0xbc2eb886	-0.010664111
152	0xbd467bb3	-0.048457813
153	0xbdce2931	-0.100664504
154	0xbdb2e3d6	-0.087348625
155	0x3cb58371	0.022157403
156	0xbc87e5c9	-0.016589062
157	0xbdaba70f	-0.08381473
158	0xbdc219cd	-0.09477577
159	0x3d1ad991	0.037805144
160	0x3d18cc8d	0.03730445
161	0x3c25d284	0.010120992
162	0xbd157915	-0.036492426
163	0xbcfcd51b	-0.030863335
164	0xbd81dcb4	-0.06340924
165	0xbc59fe19	-0.0133052105
166	0x3d78cfc4	0.060745016
167	0x3d2bff68	0.04199162
168	0xbcf5e6e9	-0.030017333
169	0xbd2ebf23	-0.04266275
170	0xbd9f019e	-0.0776398
171	0xbcaa68c6	-0.020801913
172	0xbdabdc0f	-0.08391582
173	0x3c8194a2	0.015817944
174	0x3b9cff75	0.004791195
175	0x3d76d3d2	0.0602606
176	0x3d5eb08a	0.05436758
177	0x3d461c6e	0.048366956
178	0x3da9e2ee	0.082952365
179	0x3c06a3e1	0.008217783
180	0xbcfd4a11	-0.030919107
181	0xbd8ce5cd	-0.068797685
182	0x3c5fe328	0.013664998
183	0xbcea0a65	-0.02856941
184	0x3b12af42	0.0022382294
185	0xbd547305	-0.051867504
186	0xbdc15583	-0.09440138
187	0x3b293f70	0.0025825165
188	0x3d12b406	0.035816215
189	0xbd52b5da	-0.05144296
190	0x3d8d66c7	0.06904369
191	0x3d2ce258	0.042208046
192	0xbdb73076	-0.0894479
193	0x3d984293	0.07434573
194	0xbd2feb1c	-0.042948827
195	0x3ce8cd6a	0.028418262
196	0x3c213567	0.009839392
197	0xbabd2a90	-0.001443224
198	0x3d347c0e	0.04406362
199	0xbdc610fb	-0.096712075
200	0xbda72e16	-0.08163087
201	0x3d5a3751	0.05327541
202	0xbd944455	-0.07239596
203	0xbbaaf83b	-0.0052175797
204	0xbd686d07	-0.0567446
205	0x3d573db1	0.052549068
206	0xbd92a0fe	-0.07159613
207	0xbd796d2e	-0.060895137
208	0xbc9e1b80	-0.019300222
209	0xbcdab5ca	-0.026698012
210	0xbdae3862	-0.08506848
211	0xbd665510	-0.056233466
212	0x3c6ae637	0.014337114
213	0xbcb20b32	-0.021733854
214	0x3d42c672	0.047552533
215	0x3c90fa61	0.017697515
216	0x3b30bc0d	0.0026967556
217	0xbc73a8b7	-0.014871768
218	0x3d935434	0.07193795
219	0x3d801404	0.06253818
220	0xbdc24c47	-0.09487205
221	0x3d1214c2	0.035664327
222	0x3cc4d850	0.024028927
223	0xbcf286fb	-0.02960538
224	0xbca854d5	-0.020548264
225	0x3ca95d03	0.020674234
226	0x3d303c16	0.043026052
227	0x3d805558	0.06266278
228	0x3d584a65	0.052805323
229	0x3d94e6a7	0.07270556
230	0x3d7c24df	0.0615586
231	0x3d7dc9d1	0.061960045
232	0x3d81f6d1	0.063459046
233	0xbc671eda	-0.014106477
234	0xbcac522e	-0.02103528
235	0x3b71f57e	0.0036920006
236	0xbd2cb095	-0.04216059
237	0xbcf994ca	-0.030466456
238	0x3c705336	0.0146682765
239	0xbdc18fca	-0.09451254
240	0xbcf3fda2	-0.029784027
241	0x3d86902c	0.06570467
242	0xbc95c280	-0.018281221
243	0xbca4ebfe	-0.020132061
244	0x3d902c8b	0.07039746
245	0xbd0e8c5f	-0.034801837
246	0xbc9d0b5f	-0.019170461
247	0xbdb2f263	-0.08737638
248	0xbcabea3a	-0.020985711
249	0x3d7651cb	0.060136598
250	0xbd692f9c	-0.05693017
251	0x3bf026de	0.007328852
252	0xbd95b73d	-0.073103406
253	0xbd23e11f	-0.040009614
254	0x3d15f854	0.036613777
255	0x3d25deec	0.040495798

fc2.bias f4 [128]
0	0x3dc11e5b	0.09429618
1	0x3d87c143	0.066286586
2	0x3d795fd2	0.060882397
3	0xbd9e1e87	-0.077206664
4	0x3d0773e1	0.033069495
5	0x3bc5eadb	0.00603996
6	0x3c37614e	0.011192633
7	0xbbde9767	-0.006792951
8	0xbcd34e5a	-0.025794197
9	0x3d2a8130	0.04162711
10	0xbd365279	-0.044512246
11	0xbd81e069	-0.06341631
12	0x3ca1354b	0.019678732
13	0xbaf33df2	-0.001855789
14	0xbd220a39	-0.03956053
15	0xbd2e3f72	-0.042540975
16	0xbafabb62	-0.0019129331
17	0x3cafab43	0.021443969
18	0x3cb26e7d	0.0217812
19	0x3d215e46	0.039396547
20	0xbd288c0c	-0.041149184
21	0x3c8ed554	0.017435707
22	0x3d9f8601	0.07789231
23	0xbd3f4afe	-0.046702377
24	0xbd41a197	-0.047273245
25	0xbbbf6bd3	-0.005841711
26	0xbd43ec76	-0.04783293
27	0xbdb3ea86	-0.08784966
28	0xbda36ea1	-0.07980085
29	0xbb951c74	-0.004550511
30	0xbd86ebfd	-0.0658798
31	0x3c5421af	0.012947484
32	0xbce74c7c	-0.028234713
33	0x3daad066	0.0834053
34	0xbd8db9cf	-0.06920206
35	0x3d0ef762	0.03490389
36	0x3d414484	0.047184482
37	0xbc04fc51	-0.008116798
38	0x3dabaebc	0.08382937
39	0xbc5150e8	-0.012775637
40	0xbd53574a	-0.051596917
41	0x3d9844ff	0.07435035
42	0xbb862440	-0.004093677
43	0x3ba3108d	0.0049763382
44	0xbd43e090	-0.04782158
45	0xbd364cdb	-0.04450689
46	0xbd22a02c	-0.039703533
47	0x3d9c01d1	0.07617534
48	0xbcf5913e	-0.029976483
49	0xbd87f778	-0.06638998
50	0x3d159b1b	0.036524873
51	0xbd7bffc0	-0.0615232
52	0x3d80e300	0.06293297
53	0xbd9b8825	-0.07594327
54	0xbd33672c	-0.043799564
55	0x3d2b87a9	0.041877422
56	0x3dc4a323	0.09601428
57	0xbd8b3f50	-0.06799185
58	0x3cf86b5b	0.030324629
59	0x3927c002	0.0001599789
60	0x3b679cac	0.0035341186
61	0xbd342b2c	-0.043986484
62	0x3d827d92	0.06371607
63	0x3ccaa826	0.024738383
64	0xbd0967e8	-0.03354636
65	0xbd120c23	-0.035656106
66	0x3c795f96	0.015220543
67	0xbda09f8f	-0.078429334
68	0xbd4321db	-0.04763971
69	0x3d471945	0.048608083
70	0x3c941499	0.018076228
71	0x3c21bf8d	0.009872329
72	0xbc0845bd	-0.008317408
73	0xbced9f34	-0.029006578
74	0x3d9873c5	0.07443956
75	0x3d30f6ed	0.043204237
76	0xbcee9f27	-0.029128624
77	0xbd2986db	-0.041388374
78	0xbd85d183	-0.06534102
79	0xbd293be6	-0.04131689
80	0x3d06b8b9	0.03289101
81	0xbd8881d6	-0.06665389
82	0xbc384692	-0.011247294
83	0xbc5c8cb2	-0.013461279
84	0xbd1b19a9	-0.03786627
85	0xbd836fd1	-0.06417812
86	0x3dca9456	0.09891574
87	0x3c4f0d81	0.012637497
88	0x3c3e882e	0.011629147
89	0x3d4cef1f	0.05003273
90	0x3dc30359	0.09522123
91	0x3c96e6f2	0.01842067
92	0xbd9573d4	-0.07297483
93	0xbd805eb4	-0.06268063
94	0x3d8f802e	0.0700687
95	0xbd992b46	-0.07478957
96	0xbc09e194	-0.008415598
97	0x3d4b3929	0.04961506
98	0x3cb0b48b	0.021570465
99	0x3d4303a3	0.04761089
100	0x3cd4ba5a	0.025967766
101	0xbd9f0cf1	-0.0776614
102	0xbd3ce159	-0.046113346
103	0x3cf9f102	0.03051043
104	0x3da8351d	0.082132556
105	0x3d8b878c	0.06812963
106	0xbb2f6248	-0.002676146
107	0x3d6fe65e	0.058569305
108	0x3d8a53f4	0.06754294
109	0x3d4c9015	0.049942095
110	0xbd9afd0f	-0.07567798
111	0xbb3f6012	-0.002920155
112	0x3d0e6002	0.03475953
113	0x3c9fab8b	0.019490978
114	0x3d218712	0.039435454
115	0x3d5f48e4	0.054512873
116	0x3b112594	0.0022147642
117	0x3c825e57	0.015914125
118	0x3d86184e	0.065476045
119	0x3d95bb33	0.07311096
120	0x3d145750	0.03621608
121	0xbd7ffa48	-0.062494546
122	0xbda78c86	-0.081810996
123	0xbd18ecdf	-0.037335273
124	0xbd7a8402	-0.06116105
125	0xbc9f43ee	-0.019441571
126	0x3d6ca885	0.0577779
127	0xbd49f3d7	-0.04930481

fc3.weight f4 [2, 128]
0	0x3d9f2cca	0.07772215
1	0xbb8c34d0	-0.0042787567
2	0xbd817275	-0.06320659
3	0xbd36e773	-0.04465432
4	0xbd3c7749	-0.046012197
5	0xbd15c6d2	-0.036566563
6	0x3c688801	0.014192582
7	0xbca6338e	-0.020288255
8	0xbd64742c	-0.055774853
9	0xbd301aed	-0.04299443
10	0xbd7bae22	-0.061445363
11	0x3ba74a46	0.0051052896
12	0xbdac3058	-0.08407658
13	0xbcd767b9	-0.026294576
14	0x3dbf6f9e	0.09347461
15	0xb9b7bd4e	-0.00035045523
16	0x3d6d6295	0.057955343
17	0x3d78ad93	0.06071241
18	0xbd2e7ff7	-0.042602506
19	0x3ae5ef79	0.0017542682
20	0x3d74704d	0.05967741
21	0x3d0fa2c2	0.035067327
22	0x3cac0b54	0.021001495
23	0xbd53107e	-0.0515294
24	0xbd6d15ea	-0.057882227
25	0xbd787775	-0.060660798
26	0x3c9261f0	0.017868966
27	0x3bea2838	0.0071459077
28	0x3a82a921	0.0009968617
29	0x3d61db07	0.05514052
30	0xbcf2cdc8	-0.02963914
31	0xbc13c106	-0.009018188
32	0x3d226337	0.0396454
33	0x3d1ac3ca	0.037784375
34	0xbd6f9ce5	-0.058499236
35	0x3d90207c	0.07037446
36	0xbd753dfa	-0.05987356
37	0x3d27ecf1	0.04099745
38	0x3d3f732a	0.04674069
39	0x3d24ecfe	0.040265076
40	0xbbe408fd	-0.0069590793
41	0xbcac3dfc	-0.02102565
42	0x3ddadab0	0.106862426
43	0x3c89197a	0.016735781
44	0x3cb98b37	0.02264939
45	0xbcbe359f	-0.023218928
46	0x3d9ef42b	0.07761415
47	0x3b56f285	0.0032798361
48	0x3dbff8ea	0.093736485
49	0xbd919d25	-0.07110051
50	0x3d3e11b2	0.046403594
51	0xbd6d8fec	-0.057998583
52	0x3cffad30	0.031210512
53	0xbd256d2e	-0.040387325
54	0xbd801047	-0.06253105
55	0x3cbf27e1	0.023334445
56	0x3d7a118a	0.061051883
57	0x3cf3f7d6	0.029781263
58	0x3a89b009	0.0010504733
59	0x3ca64e53	0.02030102
60	0xba38ddf3	-0.0007052116
61	0xbd8510a9	-0.06497318
62	0x3c712dbe	0.014720378
63	0xbd043a19	-0.03228197
64	0xbc8238e5	-0.01589627
65	0xbd1d5bca	-0.038417615
66	0xbd6d3054	-0.057907417
67	0x3d2a1fa3	0.041534077
68	0xbcd3a41d	-0.025835091
69	0xbc50c62a	-0.0127425585
70	0x3d36e850	0.044655144
71	0xbc1dfca0	-0.00964275
72	0xbd2c1036	-0.042007647
73	0xbcc7cc2a	-0.024389345
74	0x3dd19ae5	0.10234622
75	0xbd5ee226	-0.05441489
76	0x3d0938eb	0.033501547
77	0xbd569e20	-0.052396894
78	0x3dde305a	0.10849066
79	0xbd51b748	-0.05120018
80	0x3cf8ae0b	0.030356428
81	0xbda8823f	-0.082279675
82	0x3da3f1ed	0.08005128
83	0x3c1d5ab0	0.009604141
84	0x3dd85f28	0.105650246
85	0xbc66970c	-0.014074098
86	0x3da91a82	0.08257009
87	0xbcd37e02	-0.025816921
88	0x3a3b58ee	0.00071467354
89	0xbcf23a42	-0.029568795
90	0x3cb0000c	0.021484397
91	0x3d495bb8	0.049159735
92	0x3db07401	0.08615876
93	0x3d964dbf	0.07339048
94	0x3be35ff2	0.006938928
95	0x3d18f0d5	0.03733905
96	0x3ce225b8	0.027605876
97	0x3ccf1d94	0.025282659
98	0x3d9fcba0	0.0780251
99	0x3dc4ac65	0.09603194
100	0x3db9428d	0.09045897
101	0x3d02a835	0.031898696
102	0x3d44f698	0.048086733
103	0xbd867b9d	-0.06566546
104	0xbbc19ac9	-0.0059083444
105	0x3d642256	0.055696808
106	0x3db71140	0.08938837
107	0x3db62b7d	0.088950135
108	0xbd4ea9a2	-0.050454743
109	0x3d0f6c03	0.035015117
110	0xbd1cbbb3	-0.03826494
111	0xbd7b73ee	-0.061389856
112	0x3cb84738	0.022494897
113	0xbd6b23c2	-0.05740715
114	0xbd0e92bb	-0.0348079
115	0x3d6b222e	0.057405643
116	0xbca1accb	-0.019735714
117	0xbd7dc4c1	-0.061955217
118	0x3d99b914	0.07506004
119	0x3d99fee0	0.07519317
120	0x3cacc5fe	0.021090504
121	0x3cdb43cb	0.026765725
122	0x3cbda648	0.023150578
123	0x3dd4ee16	0.10396974
124	0x3d6e3fea	0.058166422
125	0xbb1fc49e	-0.0024378668
126	0x3de02d55	0.109461464
127	0xbbdc28b3	-0.006718719
128	0x3d1860b6	0.037201606
129	0x3c4b7500	0.012418032
130	0x3d7e21cb	0.062043946
131	0xbda245fa	-0.07923503
132	0x3d6bc87e	0.05756425
133	0xbd3b9784	-0.045798793
134	0xbdaa2145	-0.08307127
135	0x3d75e837	0.06003591
136	0xbdac6557	-0.084177665
137	0x3d21550c	0.039387748
138	0x3d3e34d0	0.046437085
139	0x3c652a21	0.013987095
140	0xbcd8200e	-0.026382472
141	0x3db43c3e	0.08800553
142	0x3d6eb5d2	0.058278866
143	0xbd230ce6	-0.039807223
144	0xbcf94cc3	-0.03043211
145	0xbcc101ba	-0.023560394
146	0xbca42f7f	-0.02004218
147	0xbd20ff6f	-0.0393061
148	0x3d53b32c	0.051684543
149	0xbcf9c2e2	-0.030488435
150	0xbd22ac27	-0.03971496
151	0xbd67f678	-0.056631535
152	0x3cbfc0c0	0.02340734
153	0xbcd10c4b	-0.025518557
154	0xbcd7fb07	-0.026364816
155	0xbd2f8e72	-0.042860456
156	0x3cfbd2af	0.03074011
157	0x3d2f656f	0.042821344
158	0xbd4b9320	-0.049700856
159	0xbd54dd0a	-0.05196861
160	0x3d9665bf	0.07343625
161	0x3cdd7c87	0.027036918
162	0x3dbe4839	0.09291119
163	0x3c9d0a67	0.01917
164	0x3d90e1ca	0.07074316
165	0xbcb86f6b	-0.022514066
166	0x3d59121b	0.052995782
167	0xbd84dc11	-0.06487287
168	0x3da70946	0.08156066
169	0x3cc08cf7	0.023504717
170	0xbc8116cb	-0.015757939
171	0x3d0fb4d9	0.03508458
172	0x3d17f7c3	0.03710152
173	0xbd8ee554	-0.069773346
174	0xbd425329	-0.04744259
175	0xbd4cd00b	-0.050003093
176	0x3d8db147	0.069185786
177	0x3d0f2f66	0.034957312
178	0xbd32b328	-0.043627888
179	0x3db3885a	0.08766241
180	0xbd04ca78	-0.03241965
181	0x3cd78e53	0.026312983
182	0x3cbfb99b	0.023403933
183	0x3d81e606	0.063427016
184	0xbd9a34f0	-0.07529628
185	0xbd137c15	-0.036007006
186	0xbcb4ba1e	-0.022061404
187	0x3d9121cb	0.070865236
188	0xbd0d15a8	-0.03444448
189	0xbc9307f1	-0.017948123
190	0xbc45f039	-0.012081199
191	0xbd652a3b	-0.055948477
192	0xbd8a811a	-0.067629054
193	0xbb2cd464	-0.0026371712
194	0x3db9f0e8	0.09079152
195	0xbcdf02d6	-0.027223032
196	0x3db16d32	0.086634055
197	0xbd54fb17	-0.05199727
198	0x3ce6a3c1	0.028154256
199	0x3d26d55b	0.040730815
200	0x3d8cf230	0.06882131
201	0x3c48a630	0.012246653
202	0x3d2a4efe	0.04157924
203	0x3d6aadc9	0.05729464
204	0xbc6d479e	-0.014482407
205	0xbd0c2340	-0.034213305
206	0xbd9da0f4	-0.07696715
207	0xbd9ae68b	-0.07563504
208	0xbd9b7a72	-0.07591714
209	0xbd86b6dd	-0.06577847
210	0x3db92259	0.090397544
211	0xbdb18cd8	-0.08669442
212	0xbda0a8d8	-0.078447044
213	0xbda36ffc	-0.07980344
214	0x3d91617d	0.070986725
215	0xbcc90ca9	-0.02454217
216	0xbda1e4c7	-0.07904964
217	0xbd98ecc0	-0.074670315
218	0x3ca7c480	0.02047944
219	0x3d8b8153	0.06811776
220	0x3ca0dc65	0.019636342
221	0x3db5199e	0.08842777
222	0xbd89881a	-0.067154124
223	0x3cb6ee94	0.02233056
224	0xbda62579	-0.08112616
225	0x3d8383dc	0.064216346
226	0x3d19f9b5	0.037591655
227	0xbd9a5ce9	-0.075372525
228	0xbd88492a	-0.0665458
229	0x3d2460e8	0.04013148
230	0xbd667862	-0.05626715
231	0x3d9ea071	0.077454455
232	0x3d9c16bf	0.07621526
233	0x3ca023b0	0.019548267
234	0x3d3104a4	0.043217316
235	0x3b97149a	0.00461061
236	0xbcf81053	-0.030281221
237	0x3d919fc7	0.07110553
238	0x3db1f408	0.086891234
239	0x3b681d5d	0.0035417893
240	0xbd56b470	-0.052418172
241	0xbcff7f6c	-0.03118869
242	0x3cc13340	0.023584008
243	0xbd9a49a3	-0.07533576
244	0x3d1cd101	0.03828526
245	0xbd87172b	-0.06596216
246	0x3b894dd2	0.004190185
247	0x3da53a1b	0.08067723
248	0x3cc2c098	0.023773476
249	0x3ca097ce	0.019603636
250	0xbd22a757	-0.03971037
251	0x3da74c89	0.08168895
252	0xbd3e93c2	-0.04652763
253	0xbd818484	-0.063241035
254	0x3c8a20aa	0.016861279
255	0xbb2b66ba	-0.002615376

fc3.bias f4 [2]
0	0xbc929851	-0.017894896
1	0xbcd9a9b8	-0.026570186

fc1.weight f4 [128, 84]
0	0x3d42fba7	0.047603276
1	0x3d07f9f5	0.033197362
2	0xbd207128	-0.039170414
3	0x3d1eef88	0.038802654
4	0xbd9bcf9d	-0.076079585
5	0xbd6fb650	-0.058523476
6	0x3d95dcda	0.07317515
7	0xbd3a714f	-0.045518216
8	0x3c97f869	0.018551068
9	0x3d7bf746	0.061515115
10	0xbda8dfe4	-0.08245829
11	0xbcded421	-0.02720076
12	0x3c31cfd6	0.010852775
13	0x3cbf5310	0.023355037
14	0xbd0880a1	-0.033325795
15	0x3d67361c	0.056448087
16	0xbdd0857a	-0.10181709
17	0x3d88d7c4	0.06681779
18	0xbb74ff21	-0.0037383514
19	0xbda1d8d8	-0.07902688
20	0xbdc36650	-0.09540999
21	0xbb778809	-0.0037770292
22	0xbd319cf7	-0.043362584
23	0x3dbc26a5	0.09187058
24	0xbd547dca	-0.051877774
25	0x3d2e87f0	0.04261011
26	0xbc841ded	-0.016127551
27	0xbcce4b17	-0.02518229
28	0xbc42b6f6	-0.011884442
29	0xbd41a433	-0.047275733
30	0xbde165b7	-0.11005729
31	0x3d2f0b1d	0.042735208
32	0x3ccfd8f0	0.025371999
33	0xbda0791f	-0.07835602
34	0x3d7c5006	0.061599754
35	0xbd0cc16d	-0.034364153
36	0xbdec9201	-0.115512855
37	0xbd8296e3	-0.063764356
38	0xbc3eab9f	-0.011637597
39	0xbc8264d9	-0.015917229
40	0x3bc87019	0.0061168787
41	0x3d191fce	0.037383847
42	0x3c65ae0b	0.014018546
43	0xbd0d6794	-0.034522608
44	0x3dae23cc	0.085029215
45	0x3d02338a	0.031787433
46	0xbdccd719	-0.10001964
47	0x3db90a3e	0.09035157
48	0x3d4ca8ec	0.049965784
49	0xbc05e15b	-0.008171405
50	0xbd7b10e2	-0.061295398
51	0x3cce483f	0.025180934
52	0xbd87ed1b	-0.06637021
53	0x3d8d8a6d	0.06911168
54	0xbdc7e8f9	-0.09761233
55	0xbdb7ec4d	-0.08980618
56	0xbdd698d7	-0.10478371
57	0x3d58a8d0	0.052895367
58	0xbd89fe95	-0.06738011
59	0xbc733d4b	-0.014846156
60	0x3cb5581b	0.022136739
61	0xbc98528a	-0.018594045
62	0xbd806d09	-0.06270797
63	0xbd607ed4	-0.054808453
64	0xbc31f713	-0.01086213
65	0xbcc90e72	-0.02454302
66	0x3d4e6ba1	0.05039561
67	0x3c1b7976	0.009489408
68	0x3cdec543	0.027193671
69	0x3c83ce29	0.016089516
70	0xbc34f6f7	-0.011045209
71	0xbd09b739	-0.033622
72	0xbd45d305	-0.048296947
73	0x3d798b8a	0.06092409
74	0x3dc56fe6	0.096404836
75	0x3cf44bbd	0.029821271
76	0xbd863d99	-0.065547176
77	0x3d400152	0.04687626
78	0xba4a5636	-0.0007718535
79	0x3d96da42	0.07365848
80	0x3d776fd7	0.060409393
81	0x3cd4acec	0.025961362
82	0xbdb1aee8	-0.08675939
83	0xbd9ebaa0	-0.0775044
84	0xbd4c771e	-0.049918287
85	0xbc96343e	-0.018335458
86	0xbdafb227	-0.08578902
87	0xbd9322c1	-0.07184363
88	0x3d6cd015	0.05781563
89	0xbc151a58	-0.009100519
90	0xbc4b445c	-0.012406435
91	0xbd5ba68e	-0.053625636
92	0xbd734e63	-0.059400927
93	0x3dd3ab44	0.10335401
94	0xbdd776e9	-0.10520727
95	0xbb65ead2	-0.003508259
96	0xbde52b0a	-0.1118985
97	0x3d7ed8b0	0.062218368
98	0xbc3b319f	-0.011425405
99	0xbb1d0f28	-0.0023965333
100	0x3ced9e10	0.029006034
101	0x3c4d8916	0.012544891
102	0xbd2e51b3	-0.042558383
103	0xbd2bc8df	-0.041939612
104	0xbc69dc15	-0.014273663
105	0xbe080f86	-0.13287172
106	0xbdd6529e	-0.10464977
107	0x3cad5339	0.021157848
108	0xbd867565	-0.0656536
109	0xbb461c48	-0.003022926
110	0xbdb51b4b	-0.08843096
111	0xbde2ce80	-0.11074543
112	0xbda14903	-0.07875254
113	0xbd743437	-0.05962011
114	0xbbf3d398	-0.0074409954
115	0xbd32ae8c	-0.043623492
116	0xbe038514	-0.12843734
117	0x3d559c44	0.05215098
118	0x3baf557d	0.005350767
119	0x3c7005fb	0.014649863
120	0xbdfe47c1	-0.1241603
121	0xbd37a3ed	-0.044834066
122	0x3ca121e2	0.019669477
123	0xb9734ca0	-0.00023202831
124	0x3cbc8bc8	0.023015872
125	0xbd5aa917	-0.053383913
126	0x3d7d0fa9	0.061782513
127	0x3d458bc7	0.048229005
128	0xbd2a9e85	-0.041655082
129	0x3c88d1d1	0.01670161
130	0x3d9c125c	0.07620689
131	0xbd9b2d86	-0.07577042
132	0xbca5d879	-0.020244824
133	0xbc83b2cd	-0.01607647
134	0xbdd18659	-0.10230703
135	0xbc1ed603	-0.009694579
136	0xbc7a7676	-0.015287032
137	0xbd90d50c	-0.070718855
138	0x3d82d837	0.06388896
139	0x3bb1b371	0.0054230024
140	0xbda9e653	-0.08295884
141	0xbc5ba464	-0.013405893
142	0x3cb68c61	0.022283735
143	0xbd2ed202	-0.042680748
144	0xbd8359bc	-0.064136
145	0x3dbe5cff	0.09295081
146	0x3dd49c1f	0.1038134
147	0xbd56a640	-0.052404642
148	0x3d26c779	0.040717576
149	0x3dde7020	0.1086123
150	0xbc7cbf08	-0.015426405
151	0x3d9e9c05	0.07744602
152	0xbdf687c3	-0.12037613
153	0xbdae5f31	-0.0851425
154	0xbd2ad24d	-0.041704465
155	0x3d75ac71	0.059978906
156	0x3de8547f	0.11344241
157	0xbd5d0058	-0.053955406
158	0xbc248362	-0.01004109
159	0x3cdb33e2	0.026758138
160	0xbd40a8db	-0.047036033
161	0xbd07c9ca	-0.033151425
162	0xbd9bcaef	-0.07607066
163	0x3c67d031	0.014148758
164	0x3d591601	0.0529995
165	0xbcaaa8c9	-0.020832436
166	0xbd491246	-0.049089693
167	0x3db0323a	0.0860333
168	0xbd5a19ba	-0.05324719
169	0xbdb7715e	-0.0895717
170	0xbddd6051	-0.108093865
171	0x3cda84bc	0.02667462
172	0xbd867bc3	-0.065665744
173	0x3d3e876b	0.046515863
174	0x3ccaa839	0.024738418
175	0xbd7fb6c4	-0.06243016
176	0xbdb1b1ba	-0.08676477
177	0xbd2f1843	-0.042747747
178	0x3cc2075d	0.023685152
179	0x3c455e18	0.0120463595
180	0xbd86d8d4	-0.065843254
181	0x3ce552d0	0.02799359
182	0x3d4cbeed	0.04998677
183	0x3d9ebd8a	0.077509955
184	0x3c9a6c72	0.018850539
185	0xbe094203	-0.13404088
186	0x3bc7e737	0.006100561
187	0xbd26301f	-0.040573236
188	0x3d816dd4	0.06319776
189	0xbe00d844	-0.12582499
190	0xbcdfcc06	-0.027318966
191	0xbda88777	-0.08228963
192	0x3d473aab	0.048639935
193	0xbba6f68b	-0.005095308
194	0x3d86488b	0.06556805
195	0xbdb43cdd	-0.08800671
196	0xbcf89866	-0.030346107
197	0x3d8fc551	0.07020057
198	0x3d026748	0.031836778
199	0x3d472024	0.048614636
200	0xbd9e3c83	-0.077263854
201	0xbde726ec	-0.11286721
202	0x3ca9de67	0.020735933
203	0x3daabef3	0.08337202
204	0x3c8fc9d2	0.01755229
205	0xbcc3d123	-0.023903435
206	0xbe046a37	-0.12931143
207	0x3d8ae42c	0.067818016
208	0x3dc07602	0.09397508
209	0xba04c284	-0.00050643855
210	0x3d3e36b3	0.046438884
211	0xbd4ae012	-0.049530096
212	0x3cb94839	0.022617446
213	0x3d8bbe3b	0.06823393
214	0xbd32a900	-0.043618202
215	0xbd8e4f0a	-0.06948669
216	0xbda6edd3	-0.0815083
217	0xbd439e67	-0.047758486
218	0xbc82ee27	-0.0159827
219	0xbdfffe0c	-0.124996275
220	0x3dbdae7f	0.09261798
221	0xbdbc601b	-0.09198018
222	0xbdbda438	-0.09259838
223	0x3d986255	0.0744063
224	0xbd82465b	-0.063610755
225	0xbdb1a1fa	-0.08673473
226	0x3cd5c2d0	0.02609387
227	0xbd95db8d	-0.073172666
228	0x3c8f3b56	0.017484348
229	0xbc0a4372	-0.008438932
230	0x3e0d507a	0.1380023
231	0xbd3601c2	-0.04443527
232	0x3d98ca5e	0.074604735
233	0xbd7604f4	-0.060063317
234	0xbdaac33d	-0.0833802
235	0xbda743e7	-0.08167248
236	0xbc815453	-0.01578728
237	0xbd0e1d21	-0.03469575
238	0x3d215d56	0.039395653
239	0x3d6ba8c1	0.057533983
240	0x3d4004e4	0.046879664
241	0xbdaac82d	-0.08338962
242	0xbdd2d642	-0.10294773
243	0xbc7b3720	-0.015332967
244	0xbd855fd7	-0.065124206
245	0x3d55811f	0.052125093
246	0x3d22e2d0	0.039767087
247	0x3cb4aee9	0.02205606
248	0xbd5f22ed	-0.054476667
249	0x3d32ecfa	0.04368303
250	0xbcec7e3b	-0.028868785
251	0x3dea75b5	0.11448232
252	0x3dd604a0	0.10450101
253	0x3d972d15	0.073816456
254	0xbd4dc2f6	-0.050234757
255	0x3c21465b	0.009843434

fc1.bias f4 [128]
0	0xbda1c3cc	-0.078986734
1	0xbb1a2ac7	-0.0023524032
2	0x3d873588	0.06602007
3	0xbcf619e6	-0.030041646
4	0xbd167f5a	-0.036742546
5	0x3d5cf22d	0.053941894
6	0xbdb61ca8	-0.088921845
7	0x3d3180b1	0.04333562
8	0xbdf44be8	-0.119285405
9	0x3d1114a2	0.035420068
10	0x3d485c3b	0.048916083
11	0xbb1c37d5	-0.002383699
12	0xbd86016d	-0.06543241
13	0x3d39c8e2	0.045357592
14	0x3d2102ac	0.03930919
15	0xbd929f7f	-0.07159328
16	0xbdd8430e	-0.10559665
17	0xbd69f473	-0.05711789
18	0x3ce1e4b8	0.027574882
19	0x3d8780f2	0.06616391
20	0x3c21c2e2	0.009873124
21	0xbd4a2f31	-0.04936141
22	0x3dbe066c	0.092785686
23	0x3b86cf37	0.0041140574
24	0xbdba9d49	-0.09112031
25	0xbd05839d	-0.03259622
26	0xbdebf92c	-0.11522135
27	0x3ca83355	0.02053229
28	0x3d60d088	0.05488637
29	0xbc04cfab	-0.0081061525
30	0xbdf66216	-0.12030427
31	0xbdd97720	-0.106184244
32	0xbdb72b0f	-0.0894376
33	0x3cdd7a99	0.027035998
34	0xbd5b2a94	-0.053507403
35	0xbcfb867b	-0.030703774
36	0x3c854a3e	0.016270753
37	0xbd6a4826	-0.057197712
38	0x3c920f39	0.017829524
39	0xbcb57f7b	-0.022155514
40	0x3a6296d1	0.0008643689
41	0x3d49b892	0.049248286
42	0x3d1abbe3	0.03777684
43	0x3da24a06	0.07924275
44	0xbd0eb834	-0.03484364
45	0xbdbca018	-0.09210223
46	0xbda95102	-0.08267404
47	0x3cd3bb16	0.025846045
48	0xbdb6b709	-0.0892163
49	0xba82566b	-0.0009943967
50	0xbda3e5ba	-0.08002801
51	0x3d960389	0.07324893
52	0x3d87fdde	0.06640218
53	0xbace753f	-0.0015751495
54	0xbaccbc82	-0.0015620145
55	0xbc96db90	-0.018415242
56	0x3d8c84a5	0.068612374
57	0x3bf128dc	0.007359607
58	0x3d7031af	0.058641132
59	0xba514b0d	-0.0007983901
60	0xbd6058fc	-0.054772362
61	0xbc504787	-0.012712366
62	0x3da31140	0.079622746
63	0x3da3e768	0.080031216
64	0xbca0a2fd	-0.019608969
65	0xbd12b69a	-0.035818674
66	0xbdc6c473	-0.097054385
67	0xbcd44da7	-0.025915934
68	0x3ce6d8f8	0.02817963
69	0xbd3c1c39	-0.045925353
70	0x3c61cb10	0.013781324
71	0xbdb31d6f	-0.087458484
72	0xbbb98973	-0.005662137
73	0x3d122ad2	0.035685368
74	0xbcedaf91	-0.02901438
75	0x3da42102	0.08014108
76	0xbddab1f2	-0.106784716
77	0x3cd93e6f	0.026519028
78	0xbd3c2a4e	-0.045938782
79	0x3d1f7cb1	0.038937274
80	0xbdf02888	-0.11726481
81	0x3d0d10b2	0.03443975
82	0xbcd8db23	-0.02647168
83	0xbd4be1b1	-0.049775783
84	0x3ca872de	0.020562585
85	0x3db891d4	0.090121895
86	0xbdd947d8	-0.10609406
87	0xbd4f7e9c	-0.050657853
88	0x3d2361fe	0.039888375
89	0xbd4a07e3	-0.049323928
90	0xbd3d0663	-0.04614867
91	0x3c8667bb	0.016406884
92	0x3d5c9dd0	0.05386144
93	0xbdc4578f	-0.09587013
94	0x3d12de61	0.03585661
95	0xbcee5ebb	-0.029097905
96	0xbd96f073	-0.07370081
97	0xbdb78ade	-0.08962034
98	0xbc28d774	-0.010305274
99	0x3ce7f423	0.028314656
100	0x3c668378	0.0140694305
101	0x3d2a181d	0.041526902
102	0xbe1dce79	-0.15410794
103	0x3d77b93e	0.060479395
104	0x3d3e215e	0.04641854
105	0xbc9dc6be	-0.019259807
106	0x3d30d93e	0.04317593
107	0xbd2c2c87	-0.042034652
108	0x3d41e017	0.04733285
109	0x3cd9fa62	0.02660865
110	0xbdd04968	-0.10170251
111	0xbda37710	-0.07981694
112	0xbdff344d	-0.124611475
113	0xbc85d048	-0.016334668
114	0xbdd10ad5	-0.10207144
115	0xbda5b9e1	-0.08092094
116	0x3db6f214	0.089328915
117	0xbde7af96	-0.11312787
118	0x3d3b1a3e	0.045679323
119	0x3da07aab	0.07835897
120	0xbc543881	-0.012952925
121	0xbb8c471f	-0.004280939
122	0x3da6e00d	0.08148203
123	0xbcab0042	-0.020874146
124	0xbd5e9e05	-0.054349918
125	0x3d5196e6	0.0511693
126	0xbdf4b070	-0.11947715
127	0xbe0e5c34	-0.1390236

fc2.weight f4 [128, 128]
0	0xbcc06123	-0.023483818
1	0xbc0003ed	-0.007813436
2	0x3c766bc6	0.015040344
3	0xbdbd2bcb	-0.092368685
4	0x3cc9ebb7	0.02464853
5	0x3d8433fc	0.06455228
6	0x3cd599f4	0.026074387
7	0xbcb8a296	-0.022538465
8	0x3d400e1b	0.046888452
9	0x3d2fbeac	0.04290645
10	0x3d145471	0.036213342
11	0xbd2915ba	-0.041280486
12	0x3d867c46	0.06566672
13	0xbdec76e6	-0.115461156
14	0xbd6bf1a4	-0.057603493
15	0x3ce54489	0.027986782
16	0x3d05474c	0.032538697
17	0xbd838cc3	-0.064233325
18	0x3bb05229	0.005380888
19	0x3cae5a32	0.021283243
20	0xbc123a8b	-0.008925091
21	0xbce10684	-0.027468927
22	0xbd723daf	-0.059140857
23	0xbdb0c241	-0.08630801
24	0x3c044785	0.008073692
25	0xbd4aefe4	-0.049545184
26	0xbcb369f9	-0.021901118
27	0x3c4f07fa	0.012636179
28	0xbb831f52	-0.0040015364
29	0x3e0910ed	0.13385363
30	0xbd30e0ba	-0.043183066
31	0x3cc77458	0.02434747
32	0xbd9acde4	-0.07558802
33	0xbd2d9290	-0.0423761
34	0xbda28248	-0.079350054
35	0xbd9042ed	-0.07044015
36	0xbdb590ec	-0.08865532
37	0x3d6c4754	0.05768521
38	0xbd3b9e67	-0.04580536
39	0xbd8fa30d	-0.07013521
40	0xbc90b8e0	-0.01766628
41	0x3d659dc1	0.05605865
42	0x3d85b5f3	0.06528845
43	0x3dab2b27	0.0835784
44	0xbd06b4a3	-0.032887112
45	0xbd83a387	-0.06427675
46	0xbdb19785	-0.08671478
47	0xbdd00338	-0.10156864
48	0xbcb51071	-0.022102566
49	0xbd8f266c	-0.0698975
50	0x3d47fd0e	0.048825316
51	0xbcc824b0	-0.024431556
52	0x3b9caac1	0.0047810976
53	0x3cab01b6	0.02087484
54	0xbdd3b7e2	-0.10337807
55	0xbdcf38a8	-0.10118228
56	0x3d4bc0ee	0.04974454
57	0xbd4e67b6	-0.050391875
58	0x3db9d317	0.09073465
59	0x3dd0ce6c	0.10195622
60	0x3ddf7355	0.1091067
61	0x3d8e60f4	0.06952086
62	0xbdb42a2c	-0.08797106
63	0x3d3f4246	0.046694063
64	0x3d5bf47d	0.05369996
65	0xbd001afb	-0.03127573
66	0xbced587d	-0.028972859
67	0x3b61d2b0	0.0034457855
68	0xbda6fc45	-0.08153585
69	0x3e06db28	0.13169539
70	0x3c36f00c	0.01116563
71	0x3c04506b	0.008075814
72	0x3c7288ba	0.014803106
73	0xbd4e3fb8	-0.050353736
74	0xbdb17ce6	-0.086664006
75	0x3d6dcbb2	0.058055587
76	0xbd12f63b	-0.035879355
77	0xbb2a86d1	-0.0026020298
78	0xbdc19794	-0.09452739
79	0xbd810e3c	-0.06301543
80	0x3df256b7	0.11832946
81	0xbb3d97d1	-0.00289296
82	0x3d982e99	0.07430763
83	0xbe4a0387	-0.19727908
84	0x3d9cd781	0.076582916
85	0xbd58a4af	-0.05289143
86	0x3e2d3927	0.16916333
87	0xbd6179da	-0.055047847
88	0xbda7ee34	-0.081997305
89	0x3d07684d	0.033058453
90	0x3dd492a4	0.10379532
91	0x3db477e3	0.08811929
92	0x3d93d392	0.07218088
93	0x3dc65392	0.096839085
94	0xbd52c165	-0.051453967
95	0x3d30e7e2	0.04318989
96	0xbd8c9c75	-0.06865779
97	0xbb2f89d2	-0.0026785028
98	0xbcf0c1fd	-0.029389376
99	0x3dc7c455	0.09754244
100	0xbda42ad7	-0.080159836
101	0x3ad0f446	0.001594194
102	0x3cf2d518	0.029642627
103	0xbc70d05e	-0.014698116
104	0xbd739c82	-0.05947543
105	0xbc83e01b	-0.016098073
106	0xbc6dd42f	-0.014515921
107	0x3d975fc5	0.073913135
108	0xbdcbdb65	-0.099539556
109	0x3d608391	0.05481297
110	0xbd30eeb0	-0.04319638
111	0xbcd1418b	-0.025543949
112	0x3d51b1a1	0.05119479
113	0x3cc05f36	0.0234829
114	0xbdb2301a	-0.08700581
115	0xbe1ed33d	-0.15510269
116	0xbdb5aaf6	-0.08870499
117	0xbd3d207f	-0.04617357
118	0xbdc54a0a	-0.096332625
119	0xbe89806a	-0.26855785
120	0xbd5dba59	-0.054132793
121	0x3bdd6aeb	0.0067571304
122	0x3d6f02ee	0.058352403
123	0x3dcbd4c3	0.099526905
124	0x3bea67de	0.007153495
125	0xbdc1098d	-0.0942565
126	0x3e2d0d42	0.16899589
127	0xbd8c0eb4	-0.06838742
128	0x3d02ed02	0.03196431
129	0x3cd89d53	0.026442206
130	0x3d6b4a71	0.05744404
131	0x3d138242	0.036012895
132	0x3d791e81	0.060820106
133	0xbdc208e4	-0.09474352
134	0xbcce8d95	-0.025213996
135	0xbbe5054e	-0.0069891578
136	0xbdabf14a	-0.083956316
137	0x3c62c3b3	0.013840604
138	0xbd883c31	-0.066521056
139	0xbd2a60b2	-0.041596122
140	0x3d6bc4e7	0.057560828
141	0xbbd12b24	-0.0063833166
142	0xbc24b974	-0.010053981
143	0x3cfd0cd0	0.030889899
144	0xbd4a9285	-0.04945614
145	0x3cb59139	0.022163974
146	0xbdb3b8c4	-0.087754756
147	0xbcb7c39b	-0.02243214
148	0xbca1fb10	-0.019773036
149	0x3d00c58e	0.031438403
150	0xbd240f99	-0.040053938
151	0xbdbbc1ac	-0.09167799
152	0x3d920b12	0.07131018
153	0x3df638fe	0.12022589
154	0x3be10134	0.0068665985
155	0x3ccd2489	0.025041835
156	0xbd59fa18	-0.053217024
157	0x3dbedc74	0.09319392
158	0x3d428838	0.04749319
159	0xbc0c7efc	-0.008575197
160	0xbd3ba11e	-0.04580795
161	0x3d5149c3	0.051095735
162	0x3d06bd7e	0.032895558
163	0x3d7c3443	0.06157328
164	0xbd0502c6	-0.032473348
165	0x3d39d51b	0.04536925
166	0xbd849460	-0.06473613
167	0x3d5bc30b	0.053652804
168	0xbd3980b3	-0.045288753
169	0x3d558212	0.052125998
170	0x3d1471c3	0.036241304
171	0x3d021e27	0.031767037
172	0xbd81c22e	-0.06335865
173	0x3d8faa2f	0.07014882
174	0xbdda8a1b	-0.10670873
175	0xbb0a268b	-0.0021080102
176	0xbd0581e8	-0.03259459
177	0xbd12cf81	-0.035842422
178	0xbcaf9165	-0.021431634
179	0x3b5e1554	0.0033887224
180	0xbd447b0e	-0.047968917
181	0x3d438545	0.047734518
182	0xbcae386b	-0.021267137
183	0xbd08e805	-0.033424396
184	0xbd37bd4b	-0.04485826
185	0x3dbb4ed6	0.09145896
186	0xbe1e5c6f	-0.15464948
187	0xbd478bf9	-0.048717473
188	0xbd245bfb	-0.040126782
189	0x3da9fd5d	0.08300278
190	0xbca50e68	-0.020148471
191	0x3dbeb5df	0.09312033
192	0xbcc2a32d	-0.023759449
193	0xbdadf6ab	-0.08494314
194	0xbd70e024	-0.058807507
195	0xbd29f0a0	-0.041489244
196	0xbc899e0c	-0.016798995
197	0xbde00f5d	-0.1094043
198	0x3d09f4b8	0.033680648
199	0xbbcc0314	-0.006225953
200	0xbcd6cd8c	-0.02622106
201	0xbd2fcc41	-0.0429194
202	0xbd95ec13	-0.07320418
203	0xbda00127	-0.0781272
204	0xbd5023de	-0.050815456
205	0x3d245633	0.04012127
206	0xbc33eac1	-0.010981263
207	0xbd051648	-0.032491952
208	0xbd1e55d7	-0.038656082
209	0xbd8fc96f	-0.07020842
210	0xbb5e81b2	-0.0033951816
211	0xbdfd8f6c	-0.12380871
212	0xbd3702a5	-0.044680256
213	0xbd840f68	-0.06448251
214	0xbc9dcf4c	-0.019263886
215	0x3d235cd6	0.039883457
216	0xbe57bc9c	-0.21068043
217	0x3e2a6d2a	0.16643205
218	0x3dbfbf6c	0.09362683
219	0xbaeb3633	-0.001794523
220	0xbc1c3149	-0.009533235
221	0x3d98d1f4	0.074619204
222	0x3cb1d75b	0.021709135
223	0xbd0201dc	-0.031740054
224	0xbd0e6a0b	-0.0347691
225	0x3d944b77	0.07240956
226	0xbd62baf8	-0.05535409
227	0xbdbe8d77	-0.09304326
228	0x3db0dff3	0.08636465
229	0xbd3c0610	-0.04590422
230	0x3c36dcb9	0.011161023
231	0xbb49d84d	-0.0030799091
232	0xbc1028fd	-0.008798835
233	0x3c044fb5	0.008075644
234	0xbd8581bf	-0.06518888
235	0x3d8ba85f	0.068192236
236	0xbd8feb12	-0.07027258
237	0xbc2881f6	-0.010284891
238	0xbddb2b58	-0.107016265
239	0xbe4ecaa9	-0.20194496
240	0xbd438362	-0.04773272
241	0xbd9338be	-0.07188557
242	0x3d377b9c	0.044795617
243	0xbd8879ae	-0.066638336
244	0xbdddd3df	-0.10831427
245	0xbc154917	-0.009111664
246	0xbe03ad1d	-0.12859006
247	0xbe1790b9	-0.14801301
248	0xbc973c57	-0.01846139
249	0xbd766039	-0.06015036
250	0xbce996c5	-0.028514275
251	0x3d033634	0.032034114
252	0x3cb9d116	0.022682708
253	0x3d1fb896	0.038994394
254	0xbe006333	-0.12537841
255	0x3c427298	0.011868142

fc2.bias f4 [128]
0	0xbc8fca15	-0.017552415
1	0xbd037b5d	-0.03210007
2	0x3df3d64b	0.119061075
3	0xbcf99c7c	-0.030470125
4	0xba561a0d	-0.0008167334
5	0xbcb8377b	-0.022487393
6	0xbca4d806	-0.02012254
7	0xbdae8c07	-0.08522802
8	0xbdb31ab8	-0.087453306
9	0xbc972a5c	-0.018452816
10	0xbd02ea81	-0.03196192
11	0xbb9496cb	-0.0045345775
12	0xbd532179	-0.051545594
13	0xbdbed0e0	-0.093171835
14	0xbd7729a4	-0.060342446
15	0xbd0ab679	-0.033865426
16	0x3db4dd67	0.08831292
17	0xbd9cf6af	-0.07664239
18	0xbdbf5923	-0.09343173
19	0xbcdc77cf	-0.026912598
20	0xbd294ba5	-0.041331906
21	0x3c61b956	0.013777098
22	0xbe0b0eb2	-0.13579825
23	0x3d007368	0.03136006
24	0xbd256138	-0.04037592
25	0xbe1496bd	-0.14510627
26	0x3e39b3b8	0.18134964
27	0x3dbc1f5f	0.09185671
28	0x3e0cf071	0.13763596
29	0xbd456fdc	-0.04820238
30	0xbd8a293c	-0.06746146
31	0x3d9387ac	0.07203612
32	0x3d0116fc	0.03151606
33	0xbdeb0c5e	-0.11476968
34	0xbc99e58e	-0.018786218
35	0xbddc11b1	-0.10745562
36	0x3c6eb5f9	0.014569753
37	0xbe05950d	-0.1304514
38	0x3e3217b8	0.1739186
39	0xbdd6888d	-0.10475264
40	0xbd9c2d4e	-0.07625829
41	0xbd582fc8	-0.052779943
42	0x3d5b826c	0.053591177
43	0x3daa8d49	0.08327729
44	0x3b7144e2	0.003681474
45	0xbdd98475	-0.10620967
46	0xbd210001	-0.039306644
47	0xbe00dc14	-0.12583953
48	0x3c1617a3	0.009160909
49	0xbc90468c	-0.017611764
50	0x3e27db0e	0.16392156
51	0xbc96fbb4	-0.018430568
52	0xbdf34d5d	-0.1187999
53	0x3d4d5f23	0.050139558
54	0x3bbb5ff1	0.005718224
55	0xbd92112e	-0.07132183
56	0x3c63deb0	0.013908073
57	0x3dacaf57	0.08431881
58	0x3b06ea91	0.002058659
59	0xbd964afd	-0.07338522
60	0x3e23c3e7	0.159927
61	0x3c9bd3f1	0.01902196
62	0xbce0f7b6	-0.027461868
63	0xbbadf8b1	-0.0053091873
64	0x3d309b3b	0.04311679
65	0xbe18aff5	-0.14910872
66	0xbd85ba9e	-0.06529735
67	0xbd492d8f	-0.049115714
68	0xbcd4b99d	-0.025967414
69	0xbd829754	-0.0637652
70	0xbdb74737	-0.0894913
71	0xbdbc1e5a	-0.091854766
72	0xbd8d6bee	-0.069053516
73	0x3d870a3d	0.0659375
74	0xbd681c95	-0.056667883
75	0x3daa1c96	0.083062336
76	0x3d6ff3bb	0.05858205
77	0x3d86ae62	0.0657623
78	0x3cad3a04	0.021145828
79	0xbd0fb440	-0.03508401
80	0x3d051e50	0.03249961
81	0x3c8e78a8	0.017391518
82	0xbd846ef6	-0.064664766
83	0xbdbe126e	-0.09280859
84	0x3d4fb725	0.05071177
85	0xbc0becd0	-0.008540347
86	0xbd5272d7	-0.05137905
87	0x3c2fe9ba	0.010736877
88	0x3bfbefa5	0.00768848
89	0xbdd3b13d	-0.1033654
90	0xbd83d7c5	-0.06437639
91	0x3cb6582f	0.022258846
92	0xbddf444d	-0.10901699
93	0x3d932561	0.07184864
94	0xbd10c04d	-0.035339642
95	0xbdd7c913	-0.10536399
96	0xbdd57946	-0.10423522
97	0x3db9de9b	0.09075662
98	0xbda5c8cc	-0.080949396
99	0x3d21d77e	0.03951215
100	0xbce4651d	-0.027880246
101	0xbd9c16cd	-0.076215364
102	0xbca86ee8	-0.020560697
103	0xbe0fd87f	-0.1404743
104	0xbdabd157	-0.08389538
105	0xbd72375c	-0.059134826
106	0xbaab5b77	-0.0013073523
107	0x3e709498	0.23494184
108	0x3d4f6a75	0.050638635
109	0xbd3fcddd	-0.046827186
110	0xbd800331	-0.06250609
111	0xbddcc586	-0.10779862
112	0x3ca15352	0.01969305
113	0xbc564987	-0.013079054
114	0xbd0a5a67	-0.03377762
115	0xbd122954	-0.035683945
116	0xbc3c0bce	-0.011477424
117	0x3db90aab	0.09035238
118	0xbdaf1146	-0.085482165
119	0xbdb5c504	-0.088754684
120	0xbba6867c	-0.0050819498
121	0x3d1b2dde	0.03788554
122	0xbdbe886b	-0.093033634
123	0xbdd66550	-0.104685426
124	0x3e6b2d11	0.2296641
125	0x3c963fe0	0.018341005
126	0x3e10515f	0.1409354
127	0xba08b23b	-0.00052145467
