saved_models/episode_100/agent_8.pth (torch, 738018 bytes, 44 tensors)

fc1.weight f4 [128, 5]
-0.3224569 0.41204038 0.16209224 -0.14665861 -0.14077416 -0.18973812 -0.29936758 0.45560056
0.2372813 0.3811898 0.28075826 -0.06682561 -0.07070754 -0.047212545 0.16147254 0.32052216
-0.16308162 0.17862512 -0.17330983 0.19076169 -0.13008134 -0.16818915 0.31759688 0.12888032
0.18727264 0.06880431 0.3656947 -0.20230615 -0.21962428 -0.42358586 0.4017975 0.3955876
0.20263578 0.31125638 -0.1556875 0.21615045 0.2490785 -0.073205024 0.39143977 0.09913097
0.107650965 0.19321105 -0.16751029 0.057474688 0.23952709 -0.3298989 -0.11753723 0.39938706
-0.002980321 -0.011556072 0.03300388 0.23864533 -0.19692065 -0.06337724 -0.058743227 -0.19868082
-0.17349404 -0.2581305 -0.28394294 -0.25990242 -0.36551985 -0.024923846 -0.22220266 -0.28084752
-0.16945298 0.17728804 0.44990805 -0.110883884 -0.32184267 -0.16070144 0.20623136 -0.004874444
0.30548576 0.3855685 0.113784954 0.25848228 0.24469294 -0.17060453 0.41434228 0.21153632
-0.12237208 -0.14268434 -0.2767103 0.35037857 -0.11015616 0.07502941 -0.077691376 -0.12374971
0.3574917 -0.15296625 0.32238287 -0.42908192 -0.22114615 0.017232386 0.285874 -0.34008282
-0.2047666 -0.41189173 0.20718029 0.23302436 0.1921872 -0.33382347 -0.4292557 -0.40917307
-0.17214759 0.15892246 0.28930917 0.32545468 0.3418404 0.29235604 0.0691315 -0.23189521
-0.32075307 -0.3483694 -0.3491078 0.29199737 0.009236742 0.31972152 -0.28188473 0.015552021
0.2871058 0.14961629 -0.15741542 0.38834602 -0.2332101 0.014524654 0.47698402 0.118885234
-0.35444373 0.07159691 -0.04629322 -0.29540145 0.040867496 -0.12964293 -0.22031553 0.3070077
-0.007953468 -0.16636813 0.09779017 -0.060946934 0.0777943 0.40288147 0.013503859 -0.1697426
0.15572178 0.0964255 -0.07212156 -0.31389022 -0.002010216 0.12916131 0.2848463 -0.01817412
-0.4257959 -0.39286956 0.27864707 -0.25244382 -0.49645987 0.018007187 0.21401158 0.25700474
0.038921405 0.36884645 -0.3335623 0.25207812 -0.026735922 -0.095768444 -0.19977394 0.30430973
0.28329536 0.23450404 -0.20040488 0.13882264 0.072884426 0.06818622 0.1967088 0.05539918
-0.14032367 -0.24685718 -0.18487209 0.17518386 0.31348887 0.19252178 -0.010613699 0.22729287
0.07930957 -0.15230323 -0.2305673 0.09136497 -0.20667477 -0.36648935 -0.22646394 -0.10730679
-0.3680228 -0.07718124 0.06164191 0.14348012 -0.38597572 -0.14317378 -0.2721303 -0.11303874
-0.3096845 -0.029439127 0.25193182 0.30055496 0.23136002 0.450859 -0.27374956 0.29589614
-0.19483231 -0.06790373 0.2835041 -0.3785421 0.19376244 -0.069411814 -0.38847926 0.24333706
-0.30583584 -0.17979674 0.2434973 -0.35582337 0.16563681 -0.3468641 -0.20946687 -0.13699222
-0.34527707 0.15944248 -0.19013257 0.26563928 0.26138532 -0.17661487 -0.33490512 -0.42109716
-0.30845645 -0.13929006 -0.41080728 -0.24594767 -0.38566747 -0.03390287 -0.43870074 -0.13588598
0.0005315864 0.2478608 -0.0013820236 0.22733282 -0.3328376 -0.107071854 0.38073337 0.21821313
-0.2565781 -0.06735397 0.24442948 0.36815777 -0.32483375 0.38003796 0.03641781 -0.07804217
00000000: 1219 a5be f5f6 d23e 82fb 253e ad2d 16be
00000010: 1a27 10be b64a 42be b546 99be 7a44 e93e
00000020: def9 723e 4f2b c33e 8cbf 8f3e dedb 88bd
00000030: 1dcf 90bd f161 41bd 0f59 253e 7b1b a43e
00000040: defe 26be 81e9 363e 2278 31be 0857 433e
00000050: 0b34 05be c739 2cbe 0f9c a23e 34f9 033e
00000060: 66c4 3f3e 46e9 8c3d 563c bb3e 5829 4fbe
00000070: 30e5 60be 3fe0 d8be 67b8 cd3e 758a ca3e
00000080: c17f 4f3e ff5c 9f3e 8b6c 1fbe 8b56 5d3e
00000090: 6f0e 7f3e 84ec 95bd cb6a c83e 2e05 cb3d
000000a0: 1c78 dc3d 1ed9 453e d187 2bbe 946a 6b3d
000000b0: 9746 753e 82e8 a8be 5cb7 f0bd 767c cc3e
000000c0: 7d51 43bb ae55 3dbc 142f 073d 715f 743e
000000d0: 91a5 49be edcb 81bd bd9c 70bd fc72 4bbe
000000e0: 6ca8 31be ae29 84be f860 91be ee11 85be
000000f0: 6b25 bbbe 182d ccbc 1889 63be 3fcb 8fbe
00000100: 1585 2dbe ff8a 353e 595a e63e 1717 e3bd
00000110: 90c8 a4be eb8e 24be 502e 533e cdb9 9fbb
00000120: a168 9c3e 3c69 c53e 1608 e93d ca57 843e
00000130: c990 7a3e f4b2 2ebe ac24 d43e fa9c 583e
00000140: 379e fabd d81b 12be f9ac 8dbe d264 b33e
00000150: 8e99 e1bd 05a9 993d a81c 9fbd 7d70 fdbd
00000160: 2709 b73e 2fa3 1cbe 5e0f a53e a0b0 dbbe
00000170: 2374 62be ef2a 8d3c 145e 923e 561f aebe
00000180: 56ae 51be 79e3 d2be 1227 543e f09d 6e3e
00000190: b9cc 443e e9ea aabe 67c7 dbbe 227f d1be
000001a0: 7547 30be 92bc 223e 5520 943e ffa1 a63e
000001b0: b405 af3e b1af 953e d194 8d3d f075 6dbe
000001c0: bf39 a4be 795d b2be 42be b2be ae80 953e
000001d0: b455 173c 8ab2 a33e 3253 90be e7cd 7e3c
000001e0: 88ff 923e 0335 193e 8231 21be 4ad5 c63e
000001f0: a1ce 6ebe d0f8 6d3c 4037 f43e 1a7a f33d
00000200: a679 b5be 67a1 923d f69d 3dbd dc3e 97be
00000210: ad64 273d 1ec1 04be 659a 61be 1d30 9d3e
00000220: 434f 02bc 685c 2abe 3646 c83d 7ea3 79bd
00000230: 9e52 9f3d 7b46 ce3e 4a3f 5d3c 01d1 2dbe
00000240: 8875 1f3e bc7a c53d 78b4 93bd 38b6 a0be
00000250: d4bd 03bb dd42 043e 60d7 913e e4e1 94bc
00000260: ec01 dabe 3326 c9be d4aa 8e3e 5140 81be
00000270: fd2f febe cf83 933c da25 5b3e 2096 833e
00000280: 0d6c 1f3d 71d9 bc3e aec8 aabe 6210 813e
00000290: 4b05 dbbc 3f22 c4bd 8a91 4cbe 7cce 9b3e
000002a0: 170c 913e d421 703e f036 4dbe 8627 0e3e
000002b0: 6e44 953d 38a5 8b3d 086e 493e 40ea 623d
000002c0: 02b1 0fbe 21c8 7cbe 1c4f 3dbe 6663 333e
000002d0: 9d81 a03e 6e24 453e 15e5 2dbc 76bf 683e
000002e0: 0e6d a23d 61f5 1bbe d619 6cbe 8f1d bb3d
000002f0: 8da2 53be 7ea4 bbbe 2ae6 67be aac3 dbbd
00000300: 7c6d bcbe 3311 9ebd 3a7c 7c3d 74ec 123e
00000310: 9c9e c5be 269c 12be aa54 8bbe db80 e7bd
00000320: f78e 9ebe 532a f1bc 35fd 803e 57e2 993e
00000330: a4e9 6c3e fed6 e63e e728 8cbe b37f 973e
00000340: 1f82 47be 1c11 8bbd 7327 913e 45d0 c1be
00000350: a969 463e c827 8ebd c1e6 c6be 5a2d 793e
00000360: 8496 9cbe a31c 38be 5b57 793e 7b2e b6be
00000370: b29c 293e 2c98 b1be 7c7e 56be b047 0cbe
00000380: 28c8 b0be e444 233e 1db2 42be df01 883e
00000390: 4cd4 853e 87da 34be af78 abbe 0c9a d7be
000003a0: 01ee 9dbe 0ea2 0ebe 5555 d2be b5d9 7bbe
000003b0: 3576 c5be bcdd 0abd 629d e0be b225 0bbe
000003c0: 295a 0b3a 39cf 7d3e 0425 b5ba efc9 683e
000003d0: b169 aabe 7d48 dbbd 7cef c23e 4373 5f3e
000003e0: 345e 83be e1f0 89bd b94b 7a3e 2d7f bc3e
000003f0: 9c50 a6be 5694 c23e d72a 153d 93d4 9fbd

fc1.bias f4 [128]
0.1444774 0.605601 -0.4237559 -0.31017873 0.4491526 0.36707363 -0.41233173 -0.27309948
0.48169473 0.25005028 0.09332041 0.027357327 0.3836236 0.48512915 -0.25007722 -0.10716324
-0.14632092 0.3531494 0.23795697 -0.2733453 0.16480839 -0.09904742 -0.34688246 0.17499326
-0.19851562 0.09819196 -0.29833895 0.30379403 0.020367907 0.21959218 0.016704094 -0.47985622
0.036641993 -0.17546262 0.595323 0.25813463 -0.07228694 -0.32551596 -0.41433382 -0.17886196
-0.14942545 -0.30596805 -0.45623234 0.23634867 0.181188 0.028244056 0.120838664 -0.3803661
0.49236786 0.40277606 -0.3906493 0.4804222 0.4376072 0.17986567 -0.39690393 -0.30496886
0.3479131 0.048357416 -0.3049986 -0.34163833 -0.31281716 0.2992638 -0.22807366 -0.33194384
0.038818765 -0.057159755 -0.26320073 -0.41745204 -0.1810929 0.20811106 -0.34504807 0.32643405
-0.0066961297 -0.34565842 -0.1086662 0.06117063 -0.15309754 0.043199915 0.089015655 0.2872851
0.09857152 -0.20956013 0.19805934 0.19094087 -0.21239127 -0.5340083 0.13088742 -0.17237021
0.27331746 0.24092804 -0.104182705 0.15920717 0.49219763 0.44459474 -0.17340724 -0.10174617
-0.29891288 -0.35424766 -0.019720854 -0.06826842 -0.060012188 -0.24840908 -0.2482716 -0.093144715
-0.38476285 -0.29095653 0.643499 0.61370283 -0.27134594 0.012827527 -0.412417 0.42524618
-0.3449586 0.3597282 0.18452841 0.36411288 0.08768932 -0.16267422 0.115772486 -0.32564166
-0.084711485 0.344329 -0.1156456 0.14301105 0.34206116 0.07661613 0.40712073 -0.34398946
00000000: e2f1 133e ab08 1b3f 89f6 d8be bfcf 9ebe
00000010: 54f7 e53e 13f1 bb3e 251d d3be b2d3 8bbe
00000020: b1a0 f63e 9706 803e c51e bf3d 791c e03c
00000030: 506a c43e d962 f83e 1f0a 80be 6778 dbbd
00000040: 27d5 15be 00d0 b43e feaa 733e eaf3 8bbe
00000050: 88c3 283e 60d9 cabd 949a b1be 6f31 333e
00000060: ae47 4bbe de18 c93d e2bf 98be e48a 9b3e
00000070: 99da a63c c6dc 603e 06d7 883c b7af f5be
00000080: ea15 163d 79ac 33be 1767 183f 392a 843e
00000090: 2d0b 94bd 07aa a6be 9023 d4be 9727 37be
000000a0: fc02 19be d8a7 9cbe 4997 e9be 6305 723e
000000b0: 5989 393e 1460 e73c 437a f73d 58bf c2be
000000c0: a417 fc3e aa38 ce3e 2f03 c8be e6f9 f53e
000000d0: 0d0e e03e b52e 383e fe36 cbbe e124 9cbe
000000e0: aa21 b23e 6d12 463d c728 9cbe 38eb aebe
000000f0: 9229 a0be 1b39 993e 248c 69be 8bf4 a9be
00000100: 6d00 1f3d 5920 6abd 3fc2 86be 46bc d5be
00000110: 6b70 39be 111b 553e 24aa b0be 5d22 a73e
00000120: 356b dbbb 24fa b0be 628c debd 0e8e 7a3d
00000130: 9ac5 1cbe 65f2 303d d74d b63d 0817 933e
00000140: dddf c93d ee96 56be 11d0 4a3e 0186 433e
00000150: 197d 59be c5b4 08bf 5a07 063e d181 30be
00000160: 44f0 8b3e d7b5 763e be5d d5bd 3407 233e
00000170: 5401 fc3e eca1 e33e ab91 31be 4c60 d0bd
00000180: 1c0b 99be f35f b5be a18d a1bc 50d0 8bbd
00000190: 57cf 75bd f35e 7ebe e93a 7ebe a8c2 bebd
000001a0: a3ff c4be 41f8 94be 5abc 243f a11b 1d3f
000001b0: dbed 8abe 8c2a 523c 5228 d3be deb9 d93e
000001c0: 6a9e b0be 4b2e b83e 04f5 3c3e 016d ba3e
000001d0: 7596 b33d 1294 26be 201a ed3d 81ba a6be
000001e0: 377d adbd e44b b03e 9ad7 ecbd 7d71 123e
000001f0: a422 af3e ebe8 9c3d 2172 d03e 631f b0be

fc2.weight f4 [128, 128]
0.07026569 -0.07161851 0.008147808 0.014127233 -0.042706423 0.07805373 0.081723526 -0.00755281
0.051531635 -0.018283134 0.031759895 -0.050360184 0.04723925 -0.015042442 -0.0064649996 -0.01701857
-0.055736795 -0.04814666 0.011441078 -0.03179516 0.08497173 -0.06772152 -0.037347175 0.05987749
-0.020597586 -0.07864651 -0.0612415 0.019255504 0.0124027 0.0872395 0.022514857 0.07078966
-0.067948736 0.061918695 -0.057903856 -0.02638735 0.05853703 -0.013664166 -0.005526969 -0.013560632
0.005797204 0.032470606 -0.04063683 -0.007682791 -0.045023233 -0.0018597192 -0.07343838 -0.06043048
0.06780836 0.022864781 -0.07393999 0.06625055 0.05632394 -0.038126398 -0.05619477 0.0547689
0.03981953 -0.005281569 0.08172189 -0.018529767 0.07605355 -0.07205757 0.0032704163 -0.08230378
-0.049422394 0.043493535 -0.046199813 0.03091368 -0.027431509 -0.02248647 -0.04282693 -0.0254183
-0.0050086365 0.023986751 0.044093378 -0.0341694 0.050378274 -0.010588531 0.041725885 -0.0322661
0.017534986 -0.07226249 0.028319458 -0.0031266008 0.08595752 -0.075879306 0.043886133 0.025009645
0.06934899 -0.07227294 0.034698498 0.026100341 0.059675764 -0.070175625 -0.059129816 -0.048540704
0.06903189 -0.047812764 -0.07422356 0.020392742 0.085041 -0.08731757 -0.0764136 -0.0008932603
0.04073317 0.011096802 -0.015553104 0.017629795 -0.039197065 -0.06970717 -0.08111462 -0.05722759
-0.048627567 0.057010967 -0.029072927 -0.029074434 0.072890446 0.013033175 0.010044995 0.040381685
-0.018910257 0.049477763 0.0852149 -0.012998783 -0.06339551 -0.038428843 -0.08765185 0.014867311
-0.0022078855 -0.15213987 -0.030373748 0.05840064 0.04512384 -0.015283586 0.04075966 -0.030461477
0.07136666 -0.13226052 -0.057754066 0.07622666 -0.056400966 -0.0037627919 0.048519533 -0.042418312
0.08914306 0.063030556 0.030018749 -0.08592484 0.038083542 -0.013697657 0.0019592699 0.082978174
0.004586091 -0.038301665 -0.052252807 0.0028421576 -0.00072102546 -0.060391564 0.041901942 0.024039961
0.028536491 -0.05870624 0.022071486 0.07296943 0.034061335 0.0020263556 0.051535197 0.01855654
0.07392176 0.021302518 0.07655082 0.017501062 0.013620081 0.005071552 0.07283773 -0.036559694
-0.0928108 -0.12745823 -0.017602941 -0.06969005 0.06564471 -0.025196103 -0.053836387 0.02620821
0.010778965 -0.030811928 -0.038435873 0.031058723 0.13900714 0.0712315 -0.008000892 -0.05193044
-0.06019751 -0.05817929 -0.057666697 0.0059693856 0.057485938 -0.06903735 0.08045327 -0.12488983
-0.08395658 -0.0004251065 -0.09003799 -0.03417353 -0.1884399 0.052617796 0.060792822 -0.06832987
0.0063597485 -0.017626239 -0.013838945 0.08226131 0.009386571 -0.07307741 0.03744881 -0.0218759
0.049502272 -0.052049965 0.012850049 0.079061754 0.021435278 -0.059054628 -0.028212678 -0.0001404976
-0.05401031 0.0081423 -0.0077597382 0.049979072 0.035583504 -0.05639853 0.020054534 -0.057566233
0.019998526 0.01959658 -0.104546405 -0.02237237 -0.07965424 0.041167617 -0.03432297 0.029294873
-0.07882525 0.05216067 -0.09196365 0.08017164 -0.023496725 -0.096957944 0.120560244 0.058828253
-0.11444215 -0.03424841 0.034080237 -0.104926266 -0.00039965336 0.067822054 0.07181233 -0.10353438
00000000: 75e7 8f3d baac 92bd 627e 053c e975 673c
00000010: eeec 2ebd a2da 9f3d aa5e a73d 907d f7bb
00000020: d612 533d 83c6 95bc aa16 023d 7b46 4ebd
00000030: f27d 413d 9374 76bc 59d8 d3bb 876a 8bbc
00000040: 444c 64bd 6f35 45bd 5c73 3b3c a43b 02bd
00000050: a905 ae3d 95b1 8abd 5af9 18bd 1942 753d
00000060: 45bc a8bc 6c11 a1bd 5ed8 7abd b8bd 9d3c
00000070: b234 4b3c 9faa b23d 1471 b83c 2bfa 903d
00000080: b528 8bbd 759e 7d3d 982c 6dbd 492a d8bc
00000090: 86c4 6f3d abdf 5fbc 941b b5bb 6a2d 5ebc
000000a0: 79f6 bd3b e6ff 043d ce72 26bd ecbf fbbb
000000b0: 486a 38bd d2c1 f3ba dd66 96bd f385 77bd
000000c0: 1cdf 8a3d ec4e bb3c d96d 97bd 5eae 873d
000000d0: efb3 663d 6d2a 1cbd 7d2c 66bd 5b55 603d
000000e0: ce19 233d 0311 adbb ce5d a73d bdcb 97bc
000000f0: f7c1 9b3d eb92 93bd 7b54 563b e28e a8bd
00000100: 236f 4abd 4726 323d 043c 3dbd b03e fd3c
00000110: 0bb8 e0bc 8c35 b8bc 4a6b 2fbd 0a3a d0bc
00000120: 7d1f a4bb dd7f c43c 429b 343d 36f5 0bbd
00000130: 7359 4e3d 857b 2dbc c3e8 2a3d 7529 04bd
00000140: 88a5 8f3c 5bfe 93bd 35fe e73c a8e7 4cbb
00000150: 7f0a b03d 9c66 9bbd f2c1 333d 07e1 cc3c
00000160: d806 8e3d d603 94bd 0320 0e3d 62d0 d53c
00000170: 936e 743d 3db8 8fbd 1b32 72bd 9ed2 46bd
00000180: 9760 8d3d 51d7 43bd 8602 98bd ae0e a73c
00000190: fa29 ae3d 8ed3 b2bd bc7e 9cbd af29 6aba
000001a0: d3d7 263d 5ccf 353c 72d2 7ebc 5c6c 903c
000001b0: 1a8d 20bd a2c2 8ebd 6c1f a6bd 7a67 6abd
000001c0: b32d 47bd 5584 693d 592a eebc 822d eebc
000001d0: 9647 953d 1989 553c c393 243c 4467 253d
000001e0: afe9 9abc 32a9 4a3d 2685 ae3d d9f8 54bc
000001f0: 81d5 81bd 9067 1dbd d082 b3bd 0696 733c
00000200: 2cb2 10bb 8eca 1bbe 5ed2 f8bc 8235 6f3d
00000210: c7d3 383d 0268 7abc 9af3 263d 598a f9bc
00000220: af28 923d 4d6f 07be 878f 6cbd b91c 9c3d
00000230: b304 67bd 2c99 76bb 6bbc 463d d3be 2dbd
00000240: a390 b63d 2a16 813d e1e9 f53c 5df9 afbd
00000250: 7dfd 1b3d 236c 60bc 1867 003b 76f0 a93d
00000260: eb46 963b 35e2 1cbd 0a07 56bd 7e43 3a3b
00000270: 3303 3dba 255d 77bd 5fa1 2b3d 74ef c43c
00000280: 5cc5 e93c f475 70bd 43cf b43c ff70 953d
00000290: e683 0b3d 9bcc 043b 9216 533d e303 983c
000002a0: 4b64 973d 9e82 ae3c adc6 9c3d 635e 8f3c
000002b0: c326 5f3c 432f a63b f32b 953d 9ebf 15bd
000002c0: 9713 bebd 6984 02be 0b34 90bc a8b9 8ebd
000002d0: bc70 863d 0f68 cebc 8b83 5cbd 9ab2 d63c
000002e0: 429a 303c 4c69 fcbc ef6e 1dbd dd6e fe3c
000002f0: e357 0e3e d2e1 913d 2c16 03bc 03b5 54bd
00000300: aa91 76bd 684d 6ebd ea33 6cbd d69a c33b
00000310: 6076 6b3d 7463 8dbd afc4 a43d 3dc6 ffbd
00000320: 6df1 abbd d4e0 deb9 d665 b8bd 8bf9 0bbd
00000330: 64f6 40be c285 573d e501 793d 88f0 8bbd
00000340: 7065 d03b e764 90bc bebc 62bc 9e78 a83d
00000350: 22ca 193c 9ca9 95bd ec63 193d 1635 b3bc
00000360: e5c2 4a3d 5832 55bd 0389 523c 21eb a13d
00000370: 0999 af3c 44e3 71bd 461e e7bc 8a52 13b9
00000380: ea39 5dbd 4867 053c 6745 febb dbb6 4c3d
00000390: 02c0 113d 2502 67bd 6849 a43c 92ca 6bbd
000003a0: f3d3 a33c 0289 a03c 6d1c d6bd 4346 b7bc
000003b0: c321 a3bd 609f 283d 3e96 0cbd cdfb ef3c
000003c0: 226f a1bd 6da6 553d 7057 bcbd 0731 a43d
000003d0: 347c c0bc e391 c6bd 4ae8 f63d e5f5 703d
000003e0: a560 eabd 1048 0cbd b897 0b3d 95e3 d6bd
000003f0: 9188 d1b9 4ae6 8a3d 5812 933d d509 d4bd

fc2.bias f4 [128]
0.037632782 -0.010342443 0.067272745 0.058205873 0.06633703 -0.033913676 -0.09527122 0.005949339
-0.06141604 -0.08521092 -0.09533653 0.028782075 0.020961722 0.07261643 0.09098342 -0.006735161
0.08390896 0.16047283 -0.08771618 0.059165366 0.0524078 -0.07872747 -0.08361048 0.21091405
0.03628407 -0.004822107 0.08182109 -0.07305885 0.005929849 -0.06889792 -0.014543621 -0.045990027
-0.05997932 0.105641216 0.1888141 -0.01227459 0.12784286 -0.002396944 0.1699876 -0.025757309
0.10170837 -0.016219914 -0.14757802 0.0668974 -0.07161205 -0.07139521 -0.018437307 -0.035394777
-0.039160203 0.062196545 -0.035433926 -0.09463747 0.26929015 -0.1020664 0.023077562 -0.11110606
-0.068524376 -0.045351107 -0.049570065 -0.03898498 -0.09141394 0.01673513 -0.0967341 0.0180108
0.011605061 -0.00014717017 -0.0056877383 0.072742276 -0.07848101 -0.06360506 -0.09774251 -0.054396976
0.111829326 -0.0033531338 -0.04393042 -0.06480805 -0.035374526 0.20889726 0.084131874 -0.021434763
0.11799934 0.0027615174 0.2640057 -0.042507738 -0.031043572 0.10793732 -0.11708228 0.076894596
0.036397237 0.06734548 0.23215903 -0.055476096 -0.017660534 -0.009795664 -0.037678517 -0.02176969
-0.018834421 -0.022552019 -0.080845475 0.050508887 -0.05050663 -0.046078183 -0.03390655 0.04738927
-0.016545221 0.089960895 0.082984604 0.058502913 0.062508956 0.10484228 -0.10475193 0.009758365
0.07084319 -0.11053133 0.086557604 0.038922224 0.03588487 -0.0052050077 -0.09864667 0.052177474
0.014006451 -0.011968334 0.018903699 -0.040762328 -0.05475754 0.07200444 0.03091121 -0.023822524
00000000: d524 1a3d 5a73 29bc 4bc6 893d 4869 6e3d
00000010: b5db 873d 11e9 0abd 8f1d c3bd acf2 c23b
00000020: 638f 7bbd 1083 aebd cc3f c3bd 63c8 eb3c
00000030: ebb7 ab3c ecb7 943d 8455 ba3d a0b2 dcbb
00000040: 76d8 ab3d fd52 243e 8aa4 b3bd 6257 723d
00000050: 90a9 563d de3b a1bd f93b abbd daf9 573e
00000060: 9b9e 143d c402 9ebb d191 a73d e19f 95bd
00000070: 2e4f c23b 5a1a 8dbd 5e48 6ebc 0a60 3cbd
00000080: e0ac 75bd 6c5a d83d 7c58 413e 5d1b 49bc
00000090: 3de9 023e 0c16 1dbb 3b11 2e3e fe00 d3bc
000000a0: 7a4c d03d a0df 84bc b11e 17be 8101 893d
000000b0: 57a9 92bd a737 92bd d609 97bc 1dfa 10bd
000000c0: 7366 20bd cec1 7e3d 2a23 11bd 4ad1 c1bd
000000d0: 66e0 893e 3008 d1bd 280d bd3c 938b e3bd
000000e0: 8256 8cbd 15c2 39bd fb09 4bbd b7ae 1fbd
000000f0: 3b37 bbbd 1d18 893c 871c c6bd 638b 933c
00000100: 2723 3e3c b151 1ab9 3560 babb e7f9 943d
00000110: a7ba a0bd 5f43 82bd 3a2d c8bd 5dcf 5ebd
00000120: c606 e53d 40c0 5bbb 62f0 33bd 15ba 84bd
00000130: e1e4 10bd 2ae9 553e 554d ac3d f597 afbc
00000140: a3a9 f13d 93fa 343b c12b 873e 981c 2ebd
00000150: 174f febc 3e0e dd3d d6c8 efbd ea7a 9d3d
00000160: 4515 153d 6dec 893d 19bb 6d3e e73a 63bd
00000170: d3ac 90bc fe7d 20bc ca54 1abd 5956 b2bc
00000180: a54a 9abc 03bf b8bc 5092 a5bd 68e2 4e3d
00000190: 0ae0 4ebd 7abc 3cbd 98e1 0abd 401b 423d
000001a0: d889 87bc 6b3d b83d d5f3 a93d c0a0 6f3d
000001b0: b204 803d 8db7 d63d 2e88 d6bd 8de1 1f3c
000001c0: 3c16 913d 405e e2bd 1d45 b13d e96c 1f3d
000001d0: 03fc 123d c58e aabb 4407 cabd 0cb8 553d
000001e0: 507b 653c d516 44bc eedb 9a3c 66f6 26bd
000001f0: 7149 60bd 1077 933d 8239 fd3c 7427 c3bc

fc3.weight f4 [2, 128]
-0.06530253 0.045858905 -0.070747145 -0.07013562 0.07299779 -0.009255248 0.010758362 0.058908723
-0.026642898 -0.043970864 -0.075438276 -0.035828143 -0.044267006 -0.069811694 0.082384385 -0.08144769
-0.021738755 0.020659022 0.02834119 0.015387152 0.012355866 0.03057829 -0.09857729 -0.39991966
0.02067812 -0.026218286 -0.04312772 -0.07433065 0.07864035 0.045515716 -0.086960115 0.06055842
0.021251649 -0.09951694 -0.38657224 0.0031707915 -0.17162141 -0.026970733 -0.2936222 0.054809798
-0.015617529 0.06945056 -0.1358805 -0.029623799 0.0870383 -0.04864624 0.026864324 -0.08974651
-0.0029065942 -0.07786058 -0.08754374 0.04493659 -0.22871135 0.060218714 -0.004443583 -0.04645717
-0.060973685 -0.09294275 0.021618724 -0.087679274 -0.07692516 -0.018627826 -0.011503379 -0.078694485
0.016407188 -0.037185065 -0.037355322 0.051507123 -0.046771515 -0.028754465 0.079711914 -0.012213087
-0.025788821 0.0030921435 0.02797698 -0.15011841 0.025574844 -0.33156088 -0.021260094 0.027262753
-0.013894279 0.070137836 -0.31610617 0.02236622 -0.05003036 -0.082040444 0.028637478 0.028720183
-0.042494603 -0.08309587 -0.41780192 -0.06872334 0.07627183 -0.07697872 -0.07810026 -0.043562487
-0.007781394 0.06725235 -0.07389276 0.05718561 -0.06026658 0.061286416 -0.016835833 -0.063267544
0.05170806 0.0025499545 -0.042642783 -0.014072801 -0.011800905 -0.08435105 0.044361275 0.06790444
0.081728734 -0.0028606027 -0.09508208 0.039197486 0.06588398 -0.098420076 0.045579534 0.07643152
-0.055645213 0.03498307 0.042274058 -0.034168385 0.051710952 -0.065829836 -0.017304936 0.0052602426
0.039766867 0.055657573 -0.06671296 -0.04617034 -0.022936204 0.0048963204 0.058243383 0.030146206
-0.081627205 0.06776502 0.04194493 0.07464768 0.0014968513 -0.02311445 -0.06205361 -0.05779714
0.015116516 -0.31268126 0.024920875 -0.09068884 -0.08341153 0.04526956 0.112896 -0.14739986
-0.061065927 0.0018806076 0.073274665 -0.0614917 -0.05990622 0.08227877 -0.052676875 0.04126421
-0.07154082 -0.0611239 -0.059543416 -0.024979735 -0.03950916 -0.063077174 -0.14331457 0.025459774
-0.08364616 -0.06129831 0.08876637 0.0781539 -0.06102132 0.08329753 0.052021857 0.00288336
-0.041419875 0.035532203 -0.0610455 0.047100242 -0.078070596 0.04819838 0.015116411 0.088368304
0.06378213 0.046982747 -0.035889793 0.09618664 -0.019897826 0.042489145 0.108247384 0.010938448
-0.08293122 -0.05588452 0.0082436865 -0.075737044 0.0437861 -0.07451148 0.016021842 0.014981681
-0.037295736 -0.06128514 -0.03856016 0.049242184 -0.089207254 -0.11611218 0.057673436 0.030117754
-0.05317491 0.06570396 -0.06928708 0.0069119893 -0.028551769 -0.056536354 0.021919044 -0.07156226
0.07267524 0.050816476 -0.13393322 -0.01701765 0.012253893 0.06716193 0.05356101 0.019869395
-0.04402302 -0.04090967 0.007568421 -0.021643264 0.04966933 0.0072398107 0.085299686 -0.07061351
-0.05633333 -0.037686903 -0.31431416 -0.08481697 -0.08294677 -0.06628132 0.0564494 -0.08020923
-0.014299282 0.05963099 0.0035659305 0.009652131 0.07036553 0.053672884 0.02286141 0.08382923
-0.07537282 -0.016790187 0.086426064 0.003244548 0.04055059 0.012462023 0.015827212 -0.0686504
00000000: 55bd 85bd 8cd6 3b3d e1e3 90bd 44a3 8fbd
00000010: de7f 953d 53a3 17bc d743 303c 464a 713d
00000020: 3542 dabc cb1a 34bd 627f 9abd 88c0 12bd
00000030: 5251 35bd 6ff9 8ebd 25b9 a83d 0cce a6bd
00000040: 7915 b2bc 1c3d a93c c92b e83c 651a 7c3c
00000050: 4270 4a3c 527f fa3c e4e2 c9bd 45c2 ccbe
00000060: 2965 a93c bbc7 d6bc b1a6 30bd ab3a 98bd
00000070: 310e a13d b06e 3a3d 2518 b2bd 1b0c 783d
00000080: f017 ae3c 8acf cbbd ccec c5be 0ecd 4f3b
00000090: 86bd 2fbe baf1 dcbc a655 96be 3d80 603d
000000a0: aae0 7fbc 183c 8e3d 4224 0bbe 9cad f2bc
000000b0: 2341 b23d 4841 47bd 9212 dc3c 05cd b7bd
000000c0: 8f7c 3ebb 5e75 9fbd 224a b3bd 6e0f 383d
000000d0: 4f33 6abe e6a7 763d 7a9b 91bb e049 3ebd
000000e0: 8bbf 79bd c558 bebd c019 b13c 3191 b3bd
000000f0: f08a 9dbd 6299 98bc ab78 3cbc 932a a1bd
00000100: 5e68 863c 5e4f 18bd e501 19bd 22f9 523d
00000110: 7d93 3fbd 7c8e ebbc 0040 a33d 6619 48bc
00000120: 1443 d3bc 8fa5 4a3b fb2f e53c a4b8 19be
00000130: 5682 d13c 59c2 a9be a629 aebc 2356 df3c
00000140: d4a4 63bc 6da4 8f3d abd8 a1be 5d39 b73c
00000150: a3ec 4cbd d204 a8bd 2599 ea3c 9746 eb3c
00000160: d20e 2ebd 2b2e aabd 22ea d5be d3be 8cbd
00000170: 6834 9c3d 05a7 9dbd 07f3 9fbd 946e 32bd
00000180: 10fb febb 9abb 893d 1655 97bd 753b 6a3d
00000190: 17da 76bd 7707 7b3d 4deb 89bc 6a92 81bd
000001a0: d5cb 533d 231d 273b 33aa 2ebd 9b91 66bc
000001b0: 9558 41bc 3ec0 acbd 2bb4 353d 7c11 8b3d
000001c0: 6561 a73d f378 3bbb 65ba c2bd 8b8d 203d
000001d0: 2eee 863d 7790 c9bd 9bb1 3a3d 2188 9c3d
000001e0: 3cec 63bd 684a 0f3d 9027 2d3d 26f4 0bbd
000001f0: ddce 533d cbd1 86bd 15c3 8dbc 1d5e ac3b
00000200: 95e2 223d 32f9 633d cea0 88bd 1c1d 3dbd
00000210: b5e4 bbbc 5071 a03b 9d90 6e3d 2df5 f63c
00000220: 2a2c a7bd 63c8 8a3d 72ce 2b3d e2e0 983d
00000230: ff31 c43a 845a bdbc ed2b 7ebd b2bc 6cbd
00000240: 43ab 773c c217 a0be dd26 cc3c 12bb b9bd
00000250: aad3 aabd 936c 393d 0536 e73d fdef 16be
00000260: 4420 7abd b87e f63a 0711 963d b9de 7bbd
00000270: 3960 75bd c681 a83d b5c3 57bd a904 293d
00000280: fe83 92bd 0e5d 7abd cce3 73bd 4da2 ccbc
00000290: 5bd4 21bd 9b2e 81bd 0ec1 12be 0491 d03c
000002a0: ae4e abbd f013 7bbd 25cb b53d 270f a03d
000002b0: 7ef1 79bd e597 aa3d df14 553d c1f6 3c3b
000002c0: e3a7 29bd 378a 113d d90a 7abd 2fec 403d
000002d0: 7ae3 9fbd aa6b 453d d3aa 773c 71fa b43d
000002e0: 35a0 823d fb70 403d 2d01 13bd 80fd c43d
000002f0: c400 a3bc 1909 2e3d ceb0 dd3d 2d37 333c
00000300: d8d7 a9bd 2be7 64bd 8710 073c 061c 9bbd
00000310: 0e59 333d 7a99 98bd 3d40 833c b975 753c
00000320: 6ac3 18bd 2106 7bbd 42f1 1dbd 2cb2 493d
00000330: 4bb2 b6bd 39cc edbd fb3a 6c3d 82b9 f63c
00000340: efcd 59bd cc8f 863d 62e6 8dbd f87d e23b
00000350: 66e5 e9bc aa92 67bd 918f b33c 3c8f 92bd
00000360: c2d6 943d f024 503d ca25 09be 9968 8bbc
00000370: 8dc4 483c 328c 893d ca62 5b3d 24c5 a23c
00000380: 7b51 34bd e690 27bd 8400 f83b 374d b1bc
00000390: 1172 4b3d ef3b ed3b 9ab1 ae3d d19d 90bd
000003a0: c7bd 66bd 955d 1abd c9ed a0be 85b4 adbd
000003b0: ffdf a9bd 80be 87bd 7c37 673d bd44 a4bd
000003c0: 8947 6abc a03f 743d 63b2 693b f923 1e3c
000003d0: ce1b 903d 19d8 5b3d da47 bb3c a9ae ab3d
000003e0: 115d 9abd 938b 89bc 2600 b13d 7ca2 543b
000003f0: 6018 263d 832d 4c3c 12a8 813c 9598 8cbd

fc3.bias f4 [2]
-0.011496876 0.011361617
00000000: 655d 3cbc 1326 3a3c

fc1.weight f4 [128, 84]
-0.088466555 -0.07022014 0.088513 -0.124405004 0.102742404 -0.03527624 0.021569947 -0.10588071
-0.09506318 0.00614436 -0.038423955 0.05397671 0.053853616 -0.09753581 0.015984226 0.06914225
-0.02362305 -0.061578464 -0.035026614 -0.008111416 0.007730699 -0.11848773 0.0023683954 0.07955626
0.043427248 -0.09310779 -0.02461271 -0.07505398 -0.072905846 -0.019308979 -0.08035998 -0.10049126
-0.12964746 0.091842934 -0.0057708593 -0.040900126 -0.015623347 0.008419272 -0.011293074 -0.027996864
0.01787757 0.04542393 0.05416617 0.06048989 0.09790482 -0.12019361 -0.027008712 -0.013555148
0.052193645 0.09331613 0.02606186 -0.008813398 -0.052993968 0.021214113 -0.0037256419 0.05918591
0.03395951 -0.10989216 0.04502982 -0.008186727 -0.035865914 -0.07917199 -0.01840703 0.0029489829
0.07720637 -0.05981893 -0.042968255 0.07543308 0.11134552 0.050080713 0.009246823 -0.01419997
0.0575263 0.03788148 -0.0077206106 -0.037998226 -0.04079902 -0.107783504 -0.029425027 0.09129293
-0.00065559155 0.057020012 -0.088137515 -0.121815145 0.013804522 -0.015783733 -0.0049685454 -0.102249265
0.0152543755 0.027090766 0.039029244 0.08560316 -0.069780156 0.07192337 0.039006107 -0.0014892464
0.025471754 0.068676725 -0.038862742 -0.08775897 -0.055433013 0.04484901 0.026655182 0.07727941
-0.05391943 0.006024535 -0.1065161 0.013244831 -0.099127024 0.08232211 0.05693803 -0.020369695
0.051341347 -0.06355362 -0.08745567 -0.08496965 -0.05139083 -0.0574011 -0.1134886 0.023926979
-0.07706829 -0.10471117 -0.05228466 0.009386435 -0.011005949 -0.104334295 0.09527737 -0.036923956
-0.08736323 -0.013107624 0.00082126237 -0.017504621 -0.06693119 -0.07806625 0.0069717225 -0.0140936775
-0.0008660029 0.06446887 -0.07855107 0.08791062 -0.03811111 -0.037580915 -0.03272363 0.010808768
-0.019170832 -0.10117979 0.101819016 -0.08373072 0.083480686 -0.09703643 -0.08328866 -0.10039932
-0.089825615 -0.08737452 -0.059559364 -0.0911998 -0.0029605033 0.0011597319 -0.046523444 0.100523196
0.030949103 0.008053508 -0.062833615 -0.033930868 0.09366083 0.11377165 -0.07854879 0.11011828
-0.0153373955 -0.0687793 0.08139706 0.039536573 0.057689086 -0.083682574 -0.1305969 -0.00951706
-0.13127914 -0.024855474 0.059101988 -0.09172521 -0.013840902 0.046935823 0.07352 -0.08808708
0.058999706 -0.06304635 -0.12735233 -0.08622751 0.086485855 -0.0020890075 -0.04563389 0.0061743744
0.0061813947 -0.06709943 -0.003966533 0.010991772 0.03817291 -0.02930451 0.035540465 -0.07698011
-0.05391815 0.02656078 -0.04093018 -0.106737815 -0.12537338 -0.11502035 0.023407668 0.080359526
0.026743373 0.014691553 -0.0016884574 -0.0009557726 -0.038705636 -0.08208485 0.034326464 -0.074969195
-0.096345514 -0.08167796 0.07638703 -0.05902529 -0.031516846 -0.055825867 0.09131628 -0.08472082
0.0026359693 0.04884984 -0.0026521243 0.015100414 0.09904321 -0.01067183 0.01894934 -0.01645944
-0.03677364 -0.08428123 -0.08794022 -0.06007151 0.083675444 0.058168 0.01314741 0.060869668
0.03119484 0.023909017 0.08679384 0.0396515 0.075121544 -0.028892532 0.083489396 0.08811974
-0.113120854 0.10355999 -0.027987318 0.070974894 -0.0043677483 0.030845782 -0.06904901 -0.043368846
00000000: f42d b5bd 94cf 8fbd 4e46 b53d 0dc8 febd
00000010: 9c6a d23d d27d 10bd 75b3 b03c fcd7 d8bd
00000020: 7cb0 c2bd a156 c93b 7062 1dbd af16 5d3d
00000030: 9c95 5c3d dbc0 c7bd 5af1 823c 749a 8d3d
00000040: 2085 c1bc b339 7cbd 1178 0fbd bfe5 04bc
00000050: ce51 fd3b b2a9 f2bd 1537 1b3b 64ee a23d
00000060: c5e0 313d 4caf bebd 98a0 c9bc e7b5 99bd
00000070: a94f 95bd dd2d 9ebc c693 a4bd 5dce cdbd
00000080: 4ec2 04be 2618 bc3d 7a19 bdbb e486 27bd
00000090: 11f9 7fbc fcf0 093c 9606 39bc ae59 e5bc
000000a0: fb73 923c 710e 3a3d 59dd 5d3d 3fc4 773d
000000b0: 5382 c83d 1128 f6bd 6041 ddbc 6916 5ebc
000000c0: 01c9 553d 871c bf3d af7f d53c 1266 10bc
000000d0: 3410 59bd 38c9 ad3c e629 74bb ed6c 723d
000000e0: 2119 0b3d 240f e1bd 3071 383d 9f21 06bc
000000f0: 23e8 12bd ed24 a2bd 57ca 96bc b943 413b
00000100: 601e 9e3d b204 75bd 7bff 2fbd a97c 9a3d
00000110: 1f09 e43d 6f21 4d3d fd7f 173c fea6 68bc
00000120: b3a0 6b3d 9c29 1b3d 2dfd fcbb 07a4 1bbd
00000130: e01c 27bd 99bd dcbd c10c f1bc caf7 ba3d
00000140: 01dc 2bba d18d 693d 7181 b4bd 387a f9bd
00000150: 5d2c 623c e34c 81bc 2ecf a2bb 1068 d1bd
00000160: 7ded 793c 74ed dd3c 21dd 1f3d b650 af3d
00000170: e6e8 8ebd 8f4c 933d dec4 1f3d d132 c3ba
00000180: 24aa d03c 62a6 8c3d 8a2e 1fbd faba b3bd
00000190: ba0d 63bd 98b3 373d f85b da3c ab44 9e3d
000001a0: 9fda 5cbd 7669 c53b 1d25 dabd d900 593c
000001b0: 1c03 cbbd 7f98 a83d da37 693d 59de a6bc
000001c0: 4e4b 523d 6628 82bd f51b b3bd 9104 aebd
000001d0: 317f 52bd 6a1d 6bbd b66c e8bd 8302 c43c
000001e0: fbd5 9dbd cf72 d6bd 7128 56bd 90c9 193c
000001f0: 4c52 34bc 38ad d5bd c820 c33d 933d 17bd
00000200: 7eeb b2bd 5cc1 56bc fc49 573a da65 8fbc
00000210: 3813 89bd 33e1 9fbd 0c73 e43b 2be9 66bc
00000220: 7904 63ba 4108 843d 62df a0bd 7c0a b43d
00000230: 651a 1cbd 72ee 19bd 3709 06bd 4217 313c
00000240: 260c 9dbc 5a37 cfbd 7d86 d03d 037b abbd
00000250: ecf7 aa3d 09bb c6bd 3f93 aabd 299e cdbd
00000260: 7ef6 b7bd 6af1 b2bd 85f4 73bd f6c6 babd
00000270: 0105 42bb 2502 983a 5e8f 3ebd 1bdf cd3d
00000280: f988 fd3c dcf2 033c e9ae 80bd 18fb 0abd
00000290: 40d1 bf3d 1c01 e93d 30de a0bd b185 e13d
000002a0: b349 7bbc 29dc 8cbd 80b3 a63d 1af1 213d
000002b0: 644b 6c3d c561 abbd 32bb 05be 71ed 1bbc
000002c0: 0a6e 06be b59d cbbc ed14 723d 6dda bbbd
000002d0: f3c4 62bc c73f 403d a791 963d 0067 b4bd
000002e0: ada9 713d 721e 81bd a668 02be 0c98 b0bd
000002f0: 7f1f b13d bbe7 08bb 9aea 3abd 6852 ca3b
00000300: 4c8d ca3b 6d6b 89bd b1f9 81bb d516 343c
00000310: 335b 1c3d 0310 f0bc e192 113d bfa7 9dbd
00000320: 47d9 5cbd fe95 d93c 68a6 27bd 5b99 dabd
00000330: e161 00be ca8f ebbd 70c1 bf3c 8993 a43d
00000340: eb14 db3c d7b4 703c 3b4f ddba d08c 7aba
00000350: cd89 1ebd 1a1c a8bd e899 0c3d 7389 99bd
00000360: cc50 c5bd c646 a7bd ce70 9c3d 81c4 71bd
00000370: cf17 01bd aaa9 64bd 0804 bb3d 1c82 adbd
00000380: 3ac0 2c3b c516 483d 43cf 2dbb ba67 773c
00000390: 2bd7 ca3d e6d8 2ebc a53b 9b3c f3d5 86bc
000003a0: f59f 16bd a39b acbd 011a b4bd 8b0d 76bd
000003b0: 085e ab3d 9241 6e3d 3c68 573c 7952 793d
000003c0: 528c ff3c d8dc c33c f8c0 b13d 9c69 223d
000003d0: 53d9 993d 08b0 ecbc 7dfc aa3d 1f78 b43d
000003e0: e8ab e7bd 4317 d43d a945 e5bc 495b 913d
000003f0: 541f 8fbb 4bb0 fc3c 9169 8dbd 88a3 31bd

fc1.bias f4 [128]
0.04013836 0.049963936 -0.08170666 -0.039817575 -0.0024986572 -0.07238932 0.0209462 0.06592289
-0.07030707 -0.0047985446 -0.11626641 0.07903612 -0.0074543324 -0.03269314 -0.0038251309 -0.09458093
-0.0780012 -0.019733554 -0.036510102 0.019975161 0.020065613 -0.06483756 -0.04750816 0.06916441
-0.10678362 0.06693683 0.04847417 0.0699122 -0.06613276 -0.0428777 -0.0066673006 -0.100057155
-0.028007647 0.02659059 -0.044318497 0.105812855 0.036350552 -0.131636 0.016448053 -0.060681663
-0.120222986 -0.09358363 0.018992104 -0.0420605 0.07710844 -0.023924557 0.04557683 -0.083530135
0.067132115 0.082307875 -0.030546239 -0.12968005 -0.06607672 -0.013701715 0.06692459 0.040878102
0.0006302534 -0.11046746 -0.042992778 0.10242976 -0.036505125 0.09377672 -0.07740231 -0.11447006
0.059547525 0.06760034 0.04861746 0.01506158 0.075866975 0.0061616683 0.04904166 -0.10310379
-0.018606994 -0.056837756 -0.077379435 0.045689516 -0.106400914 -0.07377379 0.08195023 0.08709624
-0.092182666 0.06786133 -0.011370928 -0.055417538 -0.02214663 -0.035413675 0.078518845 -0.1011341
0.06436599 -0.097081326 0.073322274 -0.11320671 -0.111881666 -0.06692794 -0.121899545 0.04274183
-0.0010526886 -0.08071534 0.07299334 -0.09642767 -0.14527634 0.114273705 0.038889714 -0.03863819
-0.036238663 0.008437813 -0.08591502 0.0043599345 -0.06960329 0.085975684 0.08630736 -0.044354443
-0.03662966 0.03440954 -0.106834844 -0.09829859 -0.038346052 -0.112105034 0.056474086 -0.089677826
0.0554696 -0.105201796 0.097494535 -0.050721344 0.01223488 -0.013251313 -0.020038042 -0.0057936213
00000000: 1f68 243d fca6 4c3d d255 a7bd c117 23bd
00000010: 83c0 23bb da40 94bd 5d97 ab3c 9502 873d
00000020: 27fd 8fbd 1c3d 9dbb 151d eebd b0dd a13d
00000030: 7943 f4bb 3ee9 05bd 0caf 7abb a6b3 c1bd
00000040: 18bf 9fbd 43a8 a1bc 9e8b 15bd f3a2 a33c
00000050: a460 a43c 8ec9 84bd eb97 42bd 12a6 8d3d
00000060: 5fb1 dabd 2d16 893d da8c 463d 212e 8f3d
00000070: 9d70 87bd 87a0 2fbd 5f79 dabb c4ea ccbd
00000080: 4b70 e5bc 82d4 d93c 5087 35bd 69b4 d83d
00000090: 51e4 143d 96cb 06be 11be 863c 568d 78bd
000000a0: 7837 f6bd c6a8 bfbd 5495 9b3c a147 2cbd
000000b0: 08eb 9d3d 6ffd c3bc c5ae 3a3d d911 abbd
000000c0: 907c 893d 0891 a83d 1b3c fabc d9ca 04be
000000d0: 3b53 87bd 287d 60bc c20f 893d cc6f 273d
000000e0: 9737 253a c33c e2bd 3219 30bd b2c6 d13d
000000f0: 6686 15bd 020e c03d 1a85 9ebd 476f eabd
00000100: 1be8 733d 0c72 8a3d 1a23 473d d8c4 763c
00000110: 2560 9b3d d2e7 c93b e8df 483d 1428 d3bd
00000120: b26d 98bc b5ce 68bd 1c79 9ebd ee24 3b3d
00000130: b9e8 d9bd b616 97bd 86d5 a73d 835f b23d
00000140: 44ca bcbd e2fa 8a3d 214d 3abc 80fd 62bd
00000150: d96c b5bc ee0d 11bd 7dce a03d 651f cfbd
00000160: 51d2 833d 93d2 c6bd fd29 963d ebd8 e7bd
00000170: 3722 e5bd 8411 89bd 78a6 f9bd 0f12 2f3d
00000180: 5efa 89ba 164e a5bd 887d 953d df7b c5bd
00000190: 52c3 14be 5508 ea3d d24a 1f3d 1443 1ebd
000001a0: fe6e 14bd c13e 0a3c 37f4 afbd c8dd 8e3b
000001b0: 2b8c 8ebd 0514 b03d eac1 b03d 01ad 35bd
000001c0: fb08 16bd 05f1 0c3d 3acc dabd c550 c9bd
000001d0: c010 1dbd 5397 e5bd 5f51 673d 02a9 b7bd
000001e0: 1734 633d 0a74 d7bd 37ab c73d 2fc1 4fbd
000001f0: ce74 483c 091c 59bc d226 a4bc 6bd8 bdbb

fc2.weight f4 [128, 128]
0.09450309 0.035182126 0.02673173 0.0192464 -0.05200462 0.024441374 0.0011834897 -0.021111393
0.13125795 -0.023736019 -0.05939652 -0.061694313 0.02752128 0.03022931 -0.07620849 0.08396834
0.03240792 0.05640116 0.10279657 0.009573223 -0.0778908 -0.016636398 -0.047181167 -0.24026212
-0.006252954 -0.05452975 -0.07877331 0.05307818 -0.09415363 -0.051908344 0.011094791 -0.09056537
0.057383135 0.004048737 0.06363604 -0.07635224 -0.06560282 0.0725942 -0.05620736 0.019765629
-0.047438167 0.07582008 0.113129735 -0.09736942 -0.0093197115 -0.036898956 0.020250013 -0.059111577
-0.05853964 -0.0699361 -0.029211849 0.0013803468 0.011966638 0.09649418 0.07247167 0.01973035
-0.05764379 -0.030618578 -0.090539925 0.011186037 -0.06891107 0.09859242 -0.06906731 -0.048391387
0.050591357 0.020901838 -0.08081008 0.07634791 -0.048357148 -0.16055225 0.08114739 0.025154669
-0.053569645 0.10485856 -0.041642446 0.112853274 -0.115660034 0.05033234 -0.022313604 0.031101216
-0.017343152 -0.022203088 -0.06083489 -0.022573473 -0.058062993 0.004329618 -0.040026646 0.10743217
0.088386856 0.038694233 0.0400751 -0.05870568 -0.09638945 0.04530786 -0.0020232147 0.07222637
0.026390841 -0.015031163 0.074017674 0.042340968 -0.064123675 -0.01187502 0.06049037 -0.024903812
-0.047363944 0.10638991 -0.020290203 -0.05760419 0.07248462 0.046795852 0.03249273 -0.050520748
0.024314348 -0.050937604 0.081862934 -0.017119544 0.06261656 -0.021355622 -0.012445674 0.07231055
-0.061890036 -0.28568086 -0.23288271 0.032983758 -0.03470701 -0.05585051 -0.115525395 -0.18718876
-0.028529992 0.034667168 0.005622042 -0.015317492 0.0018225409 0.031632643 -0.02504219 -0.016042847
-0.043021396 0.034131277 0.012432355 -0.019402407 -0.076678336 -0.034071997 -0.0143101085 0.07363222
-0.06508596 0.016169343 -0.011859148 -0.013728134 -0.06691787 -0.028923621 0.07127076 0.075497136
0.012350883 0.024549644 -0.07106874 -0.009908061 -0.101634994 0.065765075 -0.07228891 -0.021829857
0.04248199 -0.07520488 -0.026588138 -0.065544404 -0.062391885 0.014993984 -0.087992355 -0.062063467
-0.076797895 0.027980113 0.058279958 -0.027965326 0.06118263 0.010727532 0.041470706 -0.06722872
0.015641535 -0.08657761 0.04190266 -0.03493969 0.026773721 -0.08824403 0.044074714 -0.08570841
-0.042601507 -0.040198166 -0.031545293 0.050720874 0.038039804 0.059534043 0.07419828 -0.06454681
-0.006372656 0.022739658 0.032229904 -0.088269606 -0.03493688 0.06736235 0.0042659566 0.02370639
-0.040681295 -0.006699461 -0.08731107 -0.0200222 -0.06698872 0.07867881 0.0638597 -0.0058077886
-0.04767958 0.0013001375 -0.06404487 0.08623696 -0.07190588 -0.09173231 0.019365218 0.06448461
0.016947174 -0.06732441 -0.08768733 0.055582993 -0.04894689 0.08364826 -0.0300774 0.06163751
0.08259677 0.087828256 -0.09155313 0.05809277 -0.060776602 0.03513389 -0.016114922 -0.06253499
0.07116276 -0.015034318 -0.036060985 0.0330249 0.0187823 0.020025477 0.068904266 0.053988248
-0.050200667 0.049783025 0.056543905 -0.03210332 -0.027400149 -0.004369729 0.057147287 -0.058720764
-0.060000006 -0.07892777 -0.010423109 0.06607708 0.053576328 -0.016135937 0.028129885 0.007460197
00000000: d68a c13d 221b 103d 80fc da3c a0aa 9d3c
00000010: cc02 55bd 4739 c83c 531f 9b3a cdf1 acbc
00000020: 7c68 063e 0a72 c2bc c449 73bd 2db3 7cbd
00000030: 4f74 e13c 75a3 f73c 3213 9cbd 98f7 ab3d
00000040: 2bbe 043d e704 673d 0287 d23d 02d9 1c3c
00000050: 3685 9fbd 0e49 88bc 0a41 41bd 4607 76be
00000060: 94e5 ccbb 965a 5fbd e753 a1bd 8168 593d
00000070: 9ed3 c0bd d89d 54bd edc6 353c 567a b9bd
00000080: 940a 6b3d 45ab 843b 9d53 823d 905e 9cbd
00000090: c55a 86bd 45ac 943d b039 66bd 87eb a13c
000000a0: 864e 42bd 8f47 9b3d 90b0 e73d 9e69 c7bd
000000b0: b4b1 18bc 5c23 17bd 5be3 a53c fb1e 72bd
000000c0: 43c7 6fbd a83a 8fbd b04d efbc c1ec b43a
000000d0: b80f 443c be9e c53d 076c 943d 8ba1 a13c
000000e0: e51b 6cbd d0d3 fabc ff6c b9bd a445 373c
000000f0: 3f21 8dbd d3ea c93d 2973 8dbd 0c36 46bd
00000100: e238 4f3d 553a ab3c c17f a5bd 4b5c 9c3d
00000110: 2512 46bd cf67 24be 9a30 a63d 2a11 ce3c
00000120: d86b 5bbd 16c0 d63d 4591 2abd 9e1f e73d
00000130: 2bdf ecbd 4929 4e3d 05cb b6bc fac7 fe3c
00000140: 3a13 8ebc 40e3 b5bc 012e 79bd 01ec b8bc
00000150: 76d3 6dbd 78df 8d3b fbf2 23bd 6605 dc3d
00000160: 2b04 b53d d87d 1e3d ca25 243d 5e75 70bd
00000170: d567 c5bd bc94 393d e997 04bb 6beb 933d
00000180: 9b31 d83c 4445 76bc 9496 973d b96d 2d3d
00000190: 4653 83bd 728f 42bc c0c4 773d 1403 ccbc
000001a0: b200 42bd f4e2 d93d a437 a6bc 5ff2 6bbd
000001b0: d172 943d 02ad 3f3d 1917 053d d8ee 4ebd
000001c0: e22e c73c f3a3 50bd c1a7 a73d 493e 8cbc
000001d0: 1c3d 803d fcf1 aebc f1e8 4bbc 8e17 943d
000001e0: 6880 7dbd c344 92be ce78 6ebe fa19 073d
000001f0: f028 0ebd 81c3 64bd 9498 ecbd 69ae 3fbe
00000200: bbb7 e9bc 29ff 0d3d 1b39 b83b 38f6 7abc
00000210: 53e2 ee3a 3b91 013d 4725 cdbc 4a6c 83bc
00000220: 3437 30bd 3dcd 0b3d 14b1 4b3c ccf1 9ebc
00000230: 8809 9dbd 148f 0bbd f274 6abc 7dcc 963d
00000240: ca4b 85bd 9275 843c df4c 42bc f8eb 60bc
00000250: 3c0c 89bd 3bf1 ecbc 67f6 913d 3e9e 9a3d
00000260: 5c5b 4a3c 561c c93c 7d8c 91bd 6b55 22bc
00000270: 0226 d0bd d7af 863d 350c 94bd 87d4 b2bc
00000280: 9801 2e3d 0405 9abd 5ecf d9bc 253c 86bd
00000290: a28e 7fbd 54a9 753c 5635 b4bd 4336 7ebd
000002a0: 3748 9dbd 8d36 e53c f7b6 6e3d 8a17 e5bc
000002b0: a39a 7a3d 88c2 2f3c 30dd 293d 36af 89bd
000002c0: ad22 803c 9a4f b1bd 20a2 2b3d ec1c 0fbd
000002d0: 9054 db3c 49b9 b4bd b087 343d e487 afbd
000002e0: eb7e 2ebd d5a6 24bd a335 01bd b1c0 4f3d
000002f0: a0cf 1b3d f8d9 733d 45f5 973d 1e31 84bd
00000300: b7d1 d0bb 8548 ba3c 8103 043d b2c6 b4bd
00000310: f919 0fbd 46f5 893d 70c9 8b3b e733 c23c
00000320: 6ea1 26bd 2787 dbbb 25d0 b2bd 9905 a4bc
00000330: 6231 89bd 5b22 a13d e0c8 823d 434f bebb
00000340: aa4b 43bd 6069 aa3a f529 83bd 019d b03d
00000350: 6443 93bd 26de bbbd cea3 9e3c 8210 843d
00000360: cdd4 8a3c 61e1 89bd 6a95 b3bd feaa 633d
00000370: 897c 48bd c74f ab3d e164 f6bc 9d77 7c3d
00000380: 7f28 a93d 4ddf b33d 3580 bbbd aff2 6d3d
00000390: e3f0 78bd 8ee8 0f3d 7103 84bc 5812 80bd
000003a0: c8bd 913d 8052 76bc afb4 13bd 1e45 073d
000003b0: 57dd 993c 780c a43c ae1d 8d3d c822 5d3d
000003c0: 379f 4dbd 49e9 4b3d 959a 673d c57e 03bd
000003d0: 4776 e0bc f22f 8fbb 4613 6a3d 2f85 70bd
000003e0: 91c2 75bd e2a4 a1bd b0c5 2abc 6c53 873d
000003f0: da72 5b3d 832f 84bc a570 e63c ab74 f43b

fc2.bias f4 [128]
0.0083790915 -0.09259097 -0.0124343345 0.029184224 0.13640876 -0.008384066 -0.007084315 0.21524349
-0.04452731 -0.024013136 -0.0056248023 -0.025281541 0.031130672 0.16631703 0.055817876 -0.092205934
-0.012271936 -0.12725845 0.018345583 -0.06308508 -0.1774885 -0.15964906 -0.12707128 -0.08985002
0.1998216 -0.06779303 -0.027454674 0.0237737 0.103931114 -0.07721142 -0.11495081 -0.029856287
0.14642574 0.036663372 0.13741946 0.17371272 -0.10719689 -0.070706904 -0.13577127 -0.08883007
-0.09543695 0.072018966 -0.08298621 -0.084965736 -0.03004508 0.007534775 0.005160372 -0.012839378
-0.10878989 -0.008004434 -0.078591645 0.017840661 0.0276306 -0.015538577 0.06301389 -0.041577283
0.035128523 -0.07969029 0.054519847 -0.0055813994 -0.07960954 -0.051809948 -0.18532299 0.0011337731
0.024850735 -0.01958498 -0.07437748 0.038683414 0.0006564297 -0.08571266 0.11007999 0.035936866
-0.10057788 0.06652709 -0.023097156 -0.14187075 -0.042870708 0.05682623 -0.0854125 -0.021717262
-0.09229176 0.16901383 0.13284433 -0.09047909 -0.105504446 -0.014532204 -0.03561372 0.104798496
-0.11552342 -0.060228754 -0.021637894 -0.12115167 -0.069202326 0.12987483 -0.044693563 0.048764937
0.047516994 -0.07382805 -0.029138997 0.0559358 0.11475876 -0.004937894 0.069630116 -0.021408482
-0.053921476 -0.07632646 0.064164974 0.015416346 -0.12296751 -0.09658608 0.13826935 -0.050193317
-0.017098412 -0.007985807 -0.028213402 -0.07561839 -0.11341025 -0.13914374 -0.03139756 0.0053198226
-0.026615538 0.0014211877 0.010527906 -0.12380217 0.087348886 0.020092452 -0.08658279 -0.11906704
00000000: 7548 093c 56a0 bdbd 61b9 4bbc c113 ef3c
00000010: bdae 0b3e 525d 09bc 8b23 e8bb ca68 5c3e
00000020: 4562 36bd 32b7 c4bc 4350 b8bb 3c1b cfbc
00000030: c005 ff3c 034f 2a3e 49a1 643d 77d6 bcbd
00000040: 3b10 49bc 0a50 02be 7a49 963c c032 81bd
00000050: 8cbf 35be 0b7b 23be f91e 02be 4a03 b8bd
00000060: 099e 4c3e 12d7 8abd a0e8 e0bc 10c1 c23c
00000070: d6d9 d43d 0521 9ebd 556b ebbd 2c95 f4bc
00000080: a1f0 153e 552c 163d b0b7 0c3e bfe1 313e
00000090: 0b8a dbbd c8ce 90bd a007 0bbe 8aec b5bd
000000a0: 7374 c3bd ae7e 933d adf4 a9bd 8402 aebd
000000b0: 1a21 f6bc 46e6 f63b 5618 a93b 415c 52bc
000000c0: 3ccd debd 0825 03bc a8f4 a0bd 9426 923c
000000d0: 9159 e23c 8495 7ebc 6d0d 813d f14c 2abd
000000e0: ede2 0f3d aa34 a3bd 3450 5f3d 2ce4 b6bb
000000f0: 540a a3bd ab36 54bd 4fc5 3dbe 1d9b 943a
00000100: c593 cb3c ae70 a0bc 3853 98bd 8072 1e3d
00000110: 4014 2c3a 1e8a afbd 9e71 e13d 8932 133d
00000120: c7fb cdbd 5b3f 883d 3f36 bdbc 9146 11be
00000130: 3299 2fbd 9fc2 683d c0ec aebd 66e8 b1bc
00000140: 7603 bdbd f611 2d3e 5808 083e 1a4d b9bd
00000150: b712 d8bd 7b18 6ebc b1df 11bd 98a0 d63d
00000160: 8b97 ecbd 6db2 76bd f441 b1bc 5e1e f8bd
00000170: f3b9 8dbd e8fd 043e 9910 37bd bebd 473d
00000180: 2ea1 423d 2933 97bd e8b4 eebc f01c 653d
00000190: a406 eb3d 0fce a1bb 3c9a 8e3d d760 afbc
000001a0: c4dc 5cbd 0c51 9cbd ed68 833d d794 7c3c
000001b0: 64d6 fbbd ecce c5bd 7b96 0d3e 8297 4dbd
000001c0: f811 8cbc e7d6 02bc cb1f e7bc d1dd 9abd
000001d0: a243 e8bd b27b 0ebe ba9a 00bd e851 ae3b
000001e0: d408 dabc 2547 ba3a 3d7d 2c3c fe8b fdbd
000001f0: f9e3 b23d ed98 a43c 5152 b1bd 6cd9 f3bd

fc3.weight f4 [1, 128]
-0.060757812 -0.06935048 -0.082354434 0.0030812004 0.035466224 -0.0875344 -0.009867476 0.08147188
-0.09536623 0.0076026386 -0.039050918 0.05522973 0.06269171 0.092892036 0.07022276 0.045393452
0.053084783 -0.08948013 0.062083453 0.018171627 -0.013985831 -0.055332333 -0.1217164 -0.020912142
0.03878703 -0.09019662 0.042816613 -0.0074559236 0.14634821 -0.02558193 -0.06817547 0.012031428
0.064081885 0.0042606173 0.070376314 0.06153925 0.060653396 -0.030823508 0.008572519 0.0033904135
-0.043991193 0.0655045 0.016004037 -0.00091174577 -0.06753216 -0.035218418 0.027227107 -0.017912647
-0.010624764 -0.052540723 -0.038669832 0.013597056 0.04149487 0.0068389117 0.033458926 0.03754893
-0.011807074 0.0075516086 0.082212076 0.045479164 0.03331721 -0.05353136 -0.0729428 -0.12130729
-0.08516299 -0.06701764 -0.07193185 0.13314964 0.027972905 -0.10366988 0.042571597 -0.016730145
-0.0070204795 0.0033628668 -0.010078899 -0.05899934 0.13041243 0.060080074 -0.030868044 0.01770953
-0.023050709 0.074757285 0.02438538 -0.111024976 -0.07571487 -0.00835891 0.07988132 0.07003251
-0.022637345 -0.009615137 0.016718356 -0.11735965 0.00656739 0.07006988 -0.034587957 0.09777734
0.11215572 0.005617166 0.15280056 -0.02213852 0.02511357 -0.09548298 0.024003157 0.16560243
-0.049431052 0.030713651 0.018542666 -0.061858512 -0.055718523 0.009027938 0.096954845 -0.071722135
-0.00017568305 0.047793694 -0.0043840907 -0.07087266 0.003224578 -0.06906513 -0.008362595 -0.10499118
0.0030831562 0.056085236 0.026718376 0.016751578 -0.059166323 0.1056182 -0.060040772 -0.007317432
00000000: 2fdd 78bd a007 8ebd 71a9 a8bd f7ed 493b
00000010: 0845 113d 3c45 b3bd 32ab 21bc bbda a63d
00000020: 5f4f c3bd 8e1f f93b dbf3 1fbd 9238 623d
00000030: 8364 803d 2e3e be3d f3d0 8f3d 7cee 393d
00000040: 6e6f 593d 5c41 b7bd 384b 7e3d aadc 943c
00000050: d424 65bc 28a4 62bd 7346 f9bd f14f abbc
00000060: 26df 1e3d 01b9 b8bd 7960 2f3d d250 f4bb
00000070: 4edc 153e 3291 d1bc 959f 8bbd 771f 453c
00000080: 5d3d 833d a69c 8b3b 7521 903d 9510 7c3d
00000090: b26f 783d 9581 fcbc c073 0c3c b331 5e3b
000000a0: 1c30 34bd 3927 863d e61a 833c 3902 6fba
000000b0: 4d4e 8abd 3041 10bd 620b df3c 8bbd 92bc
000000c0: 7d13 2ebc f134 57bd 4264 1ebd 30c6 5e3c
000000d0: 86f6 293d f318 e03b 3a0c 093d e8cc 193d
000000e0: 7572 41bc 7c73 f73b ce5e a83d 5c48 3a3d
000000f0: a077 083d b343 5bbd 0963 95bd f56f f8bd
00000100: ef69 aebd 8b40 89bd 0151 93bd 6158 083e
00000110: 6f27 e53c e050 d4bd 8e5f 2e3d a80d 89bc
00000120: 0d0c e6bb 8b63 5c3b f721 25bc 4ba9 71bd
00000130: d68a 053e 8616 763d fbde fcbc 9413 913c
00000140: d7d4 bcbc 591a 993d d9c3 c73c 1061 e3bd
00000150: 6610 9bbd cff3 08bc d198 a33d 346d 8f3d
00000160: f471 b9bc cf88 1dbc eff4 883c 425a f0bd
00000170: 4333 d73b cc80 8f3d 1aac 0dbd 7c3f c83d
00000180: e6b1 e53d 3410 b83b c077 1c3e d75b b5bc
00000190: f9ba cd3c 958c c3bd 45a2 c43c af93 293e
000001a0: 3778 4abd 329b fb3c cae6 973c 5a5f 7dbd
000001b0: 1b39 64bd ebe9 133c 4390 c63d 0ee3 92bd
000001c0: 8f37 38b9 52c3 433d 6ba8 8fbb af25 91bd
000001d0: 7153 533b 0572 8dbd 4403 09bc 9e05 d7bd
000001e0: c70e 4a3b a2b9 653d 7fe0 da3c 9b3a 893c
000001f0: 6358 72bd 5b4e d83d 50ed 75bd 12c7 efbb
