saved_models/episode_100/agent_1.pth (torch, 738018 bytes, 44 tensors)

fc1.weight f4 [128, 5]
000000 4c 4d 68 3e 4d 71 e3 be d3 60 50 be a9 0f 56 3e
       0.22685736 -0.4442238 -0.20349436 0.20904411
000010 ac bd c5 3e a3 34 2f 3e 4a 17 16 be d8 88 7b 3e
       0.3862127 0.17109923 -0.14657322 0.2456392
000020 fd 25 6c be 7b 74 93 3e 0c c1 ef bc e7 fa 92 3d
       -0.23061366 0.28799805 -0.029266857 0.07176762
000030 23 e8 dd be 61 ec 36 be 25 ba 3a 3e cf be 5d be
       -0.4334117 -0.17863609 0.18235071 -0.21654819
000040 eb 53 ea 3a fa 7c 8e bd aa 02 6f 3e 96 47 a2 be
       0.0017877793 -0.06957431 0.2334086 -0.3169524
000050 0c 3b c7 3e 34 4c 69 3e da 96 b2 be f1 af 87 3e
       0.38912237 0.22782975 -0.34880716 0.2650142
000060 a4 e4 aa be 2e 2d 8b 3e cc 30 fc 3e 05 d0 98 be
       -0.33377564 0.27182907 0.4925598 -0.29846206
000070 58 ab 83 3d 00 3c db be 17 e4 98 bc eb f8 c0 3e
       0.064291656 -0.42819214 -0.01866345 0.3768991
000080 0c 8d 84 bd a1 fd 7f 3e ca 58 cf bd 33 20 20 be
       -0.06472215 0.24999095 -0.10124357 -0.15637283
000090 a4 ea 85 bd 2a 2f 8f bd 2f bb e4 be 99 29 9c 3d
       -0.06538895 -0.06991418 -0.4467406 0.076251216
0000a0 a2 fb 64 3e 10 35 09 be 8f 52 21 3e 56 47 b2 be
       0.22361615 -0.13399148 0.1575415 -0.3482005
0000b0 8b a5 97 3e f0 88 ae 3e e1 de 6d be 12 31 ef 3d
       0.29618487 0.3408885 -0.23229553 0.11679281
0000c0 c0 a0 f3 3d 35 2a 5f 3e 7e bd 90 bd 39 14 81 be
       0.11895895 0.21793444 -0.07067393 -0.2521074
0000d0 12 a3 a0 3e ec f6 b4 be cc fe be be 8b 3b ad 3d
       0.31374413 -0.35344636 -0.3730377 0.084586225
0000e0 cc af 2a 3e c1 05 99 3e 35 c6 0a be 81 d9 23 be
       0.16668624 0.29887202 -0.13552172 -0.1600094
0000f0 19 3f 8b 3e 4e c8 1a be f4 13 94 be 6c 21 18 3d
       0.27196577 -0.15115473 -0.28921473 0.03714125
000100 29 3b 04 3c a4 ac c1 bd 9d 8c 5a be 92 1f 4e 3d
       0.0080707455 -0.09456757 -0.21342702 0.050323077
000110 b6 8b cd bd 60 5a 2e 3e 14 59 07 be ee fe f0 bd
       -0.10036413 0.17026663 -0.13217574 -0.11767374
000120 2a 08 3d 3e 65 94 09 3e 8b 73 0f be 40 27 53 3e
       0.18460146 0.13435514 -0.1400892 0.20620441
000130 a7 13 0e be 89 fe 3d bd f3 42 75 3e e1 b3 7c 3e
       -0.13874684 -0.04638532 0.2395132 0.24677993
000140 71 02 a4 3e 20 fd 15 3d 19 b3 a2 be 52 b3 dd 3d
       0.32033113 0.036618352 -0.31777266 0.10825218
000150 61 3d 86 be 75 72 d1 be 8e 6b 8c be 79 6e 3e 3e
       -0.26218703 -0.40907636 -0.27425808 0.1859683
000160 fa a0 2b 3e d3 bd fa bd 91 f7 3b bd dc 44 c9 be
       0.16760626 -0.12243237 -0.045890395 -0.39310348
000170 17 65 b2 bd aa 4e 9a be e3 57 43 3e 37 da 2f 3e
       -0.087106876 -0.3013814 0.19076495 0.17173086
000180 82 41 c3 3e 19 f3 66 3e be 34 f6 3e a6 71 0a 3e
       0.38135916 0.22553672 0.48087114 0.13519916
000190 fc 13 9d 3e bd fc d5 be 01 cf c4 3e 78 98 6c be
       0.3067931 -0.41794387 0.3843918 -0.23105037
0001a0 ac 60 d5 be 01 fa 93 be 20 0e cb be 60 0e 9d 3e
       -0.41675317 -0.28901675 -0.39659214 0.3067503
0001b0 d2 64 c0 3d b8 7e 81 be 8a 5d a0 3e 1d a8 6e 3d
       0.0939423 -0.2529199 0.31321365 0.058265794
0001c0 ee 91 04 be 39 27 d1 be 4c de a2 be 8f da 36 be
       -0.12946293 -0.40850237 -0.31810224 -0.17856811
0001d0 72 84 e9 3e 2f dd 5d be c0 3e 9d 3d 09 3c c4 3e
       0.4560886 -0.21666406 0.07677984 0.38327053
0001e0 3e 9e a9 3c df 24 74 be 31 a0 03 be da 20 a8 3e
       0.020705339 -0.2384219 -0.12854077 0.32837564
0001f0 94 33 95 3e ff bc a5 be 3c bb af be 11 5b c4 3e
       0.29140913 -0.32370755 -0.34322536 0.38350728
000200 2a 3d b5 be 43 fb 00 be 49 2d d0 3d 49 ce 2e 3e
       -0.35398227 -0.12595849 0.101648875 0.17070879
000210 36 c5 ce be 1f ab 2e 3d bd 60 8a 3e 3c 24 2d 3e
       -0.40384835 0.042643663 0.2702693 0.16908354
000220 b6 15 9c be e8 01 85 be bf 6b c8 be 73 dd a8 be
       -0.30485314 -0.25978017 -0.39144704 -0.32981452
000230 3a e5 a8 3d cb 37 67 be 06 78 84 be 3e cc ab bd
       0.082468465 -0.22579877 -0.2587282 -0.083885655
000240 32 87 d5 3e 2f 8f 99 be d0 f5 44 3e c3 fe b0 bd
       0.41704708 -0.29992053 0.19234395 -0.08642342
000250 e8 3a db 3e 6b d6 b0 3e 88 bd 9a 3e d1 7c f5 bc
       0.4281838 0.34538588 0.30222726 -0.029966744
000260 91 cf 62 be 3b ae be be 8e eb 9c be 63 14 ba 3e
       -0.22149493 -0.37242302 -0.30648464 0.3634368
000270 dd 2b 0d 3e 36 2c d3 be a6 a5 e8 be b4 2f ff 3d
       0.13786264 -0.41244668 -0.4543888 0.124602705
000280 17 95 e2 3e bb 1a bb be 41 77 86 be 49 a2 5b 3d
       0.44254372 -0.3654383 -0.2626286 0.053621564
000290 f5 cc e1 3d b8 d9 05 3e e9 c9 a6 be 07 34 34 be
       0.110254206 0.13071334 -0.3257592 -0.17597972
0002a0 da 31 8c 3e c8 f7 b5 bd f6 ec ed 3d 5b d3 ce 39
       0.27381784 -0.08885151 0.11617462 0.00039448854
0002b0 e4 71 8c 3d 81 eb d7 bd a4 31 a9 bc 86 4a be 3e
       0.068576604 -0.10542966 -0.020653553 0.37166232
0002c0 32 1b 87 be 39 84 93 be 3c dd cd bd bf 60 8d bd
       -0.26387936 -0.28811815 -0.10051963 -0.069032185
0002d0 da d4 7b 3e a1 c2 dd 3d 84 00 a7 3e d5 2b 1d 3b
       0.24592915 0.10828138 0.3261758 0.0023982425
0002e0 fe 39 db be 17 bc 38 3d e3 b7 bb be 59 d3 1c bd
       -0.42817682 0.04510125 -0.36663732 -0.038287494
0002f0 f3 42 96 3e 4e 60 7d be 43 04 30 3e 35 cc dc be
       0.29347953 -0.24743769 0.17189126 -0.43124548
000300 bb 73 a4 be 66 8e bc be 00 7c bd 3d 59 0a 79 bc
       -0.32119545 -0.3682739 0.09252167 -0.015200221
000310 6a f6 96 3e 68 55 c6 be cf 92 bf be 9c e3 7f be
       0.29484874 -0.38737035 -0.37416694 -0.2498917
000320 2b 72 90 3e 9e 00 74 3e 54 cf be 3d 55 ad a6 be
       0.28212103 0.2382836 0.093168885 -0.32554117
000330 97 17 8a be e8 ee cd 3e e4 9b 4d be 38 a3 da bd
       -0.26971123 0.40221334 -0.20078999 -0.10675663
000340 c3 73 df be f5 c0 d5 3e 6f 7f 94 3e af c0 eb 3e
       -0.43643007 0.41748777 0.29003474 0.46045443
000350 84 3a ac be 24 dc 5b be 46 f4 85 3e 00 5c 07 3e
       -0.33638394 -0.21470696 0.26162928 0.13218689
000360 4e 5a a2 3d c1 4c 84 3e 43 97 fb 3d 5c e6 88 be
       0.079273805 0.2583981 0.1228471 -0.2673825
000370 30 29 6d be 88 07 87 3d 7f 25 c6 be 57 ce e2 3c
       -0.23160243 0.06593233 -0.38700482 0.027686281
000380 1d 64 c2 3e 5f ce b9 be 22 4d de 3d e4 73 0c be
       0.37967005 -0.3629026 0.10854556 -0.13716084
000390 b5 f2 80 be 2d 4a b7 3e 39 06 a3 be bc e9 36 be
       -0.2518517 0.3579878 -0.31840685 -0.178626
0003a0 52 83 67 3e 1a ff 4a be df 8f 8d 3e d8 e6 03 3e
       0.22608688 -0.19823876 0.27648827 0.12881029
0003b0 b8 c5 28 3e 41 9d 46 3e 74 a3 9a 3e 90 31 da 3d
       0.16481674 0.19395925 0.3020283 0.106539845
0003c0 d3 5a 49 be 0c 61 c1 3e 9a 24 98 3e df 69 60 bd
       -0.19663553 0.37769353 0.29715425 -0.054788467
0003d0 5e 96 05 be 8c 13 80 3d ce 9c c7 bd 0f 24 d8 be
       -0.13045642 0.06253728 -0.09746705 -0.4221501
0003e0 56 92 98 be ed 80 8b 3e e4 6a 50 3e d6 47 48 3e
       -0.29799145 0.272468 0.20353276 0.19558653
0003f0 ec e3 17 3e 6a 81 0c bc d9 b9 b2 3e 74 1e b3 3e
       0.14833039 -0.008575777 0.34907416 0.3498417

fc1.bias f4 [128]
000000 12 49 ca bd 3b a7 9d be 3b ad 70 3d 87 ae 9f 3e
       -0.09877218 -0.3079165 0.058758955 0.3118784
000010 a9 a9 9b be 1a a1 32 3e 17 21 88 3e ae bb 88 3e
       -0.30402878 0.17444268 0.26587746 0.26705688
000020 9f 58 f1 bd be 6b 39 bb f9 cf 01 3c 9f 5e db be
       -0.11784481 -0.002829298 0.00792312 -0.42845628
000030 23 28 aa be 5c 09 35 3e a4 d3 ce 3e 73 82 cd 3e
       -0.33233747 0.17679352 0.40395844 0.40138587
000040 48 7c 7f be e8 d5 66 be 31 a7 6f 3e 06 f3 b3 bd
       -0.24949753 -0.22542536 0.23403622 -0.087865874
000050 f4 bf d0 3d a8 b0 ba 3c ed 62 c4 be bc a3 75 be
       0.10192862 0.022789314 -0.38356724 -0.23988241
000060 1f d6 bf bb 72 8d 20 3e 66 c7 ff 3c fa 12 09 be
       -0.0058543826 0.15678957 0.03122301 -0.13386145
000070 e2 f3 2e 3e a5 d7 0a 3d 65 97 bf be f6 94 d1 3d
       0.17085221 0.03389706 -0.37420192 0.1023349
000080 96 f5 b6 be 22 66 c1 be 77 6c cc be e9 38 f6 bc
       -0.35734242 -0.37773234 -0.39926502 -0.030056434
000090 5f c5 8c be ec dc d4 3e 8f 22 af 3d cf e2 93 3e
       -0.27494332 0.415748 0.085515134 0.2888398
0000a0 1b a3 2f 3e e8 b4 c7 be 53 5a 27 be c7 49 a2 3d
       0.17152064 -0.39005208 -0.1634305 0.07924228
0000b0 d3 bb 84 be 7d 5a 6c be e0 ca 1e 3e 52 9f b2 bd
       -0.25924549 -0.23081394 0.15507078 -0.08721794
0000c0 7e 67 ef bd c9 a3 94 3d 94 da e5 bd be 30 07 3d
       -0.116896614 0.07257802 -0.11223331 0.03300547
0000d0 9e 5e 97 3e 8f 78 0d 3e 39 d8 3b 3e b4 62 8a 3e
       0.29564375 0.1381552 0.18344201 0.2702843
0000e0 5a 81 8a be 94 f0 42 be 17 58 41 be d7 21 60 3e
       -0.27051812 -0.19037086 -0.1888126 0.21887909
0000f0 bb f2 c6 be 07 d3 c2 bd 09 94 80 bd 0d fc b4 bd
       -0.38857064 -0.095129065 -0.062782355 -0.08837137
000100 ef 5b 26 bd ca 91 2a 3d b6 1d 59 3e 83 81 83 3c
       -0.04061502 0.04164294 0.2120274 0.016052967
000110 c6 b9 f5 bd 7c a3 37 be b5 18 08 3e 49 7f 20 bc
       -0.11998324 -0.17933458 0.13290675 -0.009795972
000120 01 bb 3f 3d bb 0e 11 bd 2c a7 4d 3e 70 6f a5 3d
       0.0468092 -0.03541444 0.20083302 0.08077896
000130 1e a3 9b 3e fd b3 81 be de 61 9f bd 2c ee a3 3e
       0.30397886 -0.25332633 -0.077823386 0.32017648
000140 2f b3 c9 3e 97 89 a8 3d 93 18 ce 3e b7 93 2d 3e
       0.3939452 0.08229368 0.40253124 0.1695088
000150 a5 97 38 bd 45 2a 83 3e 05 e2 d2 3d 49 e7 df be
       -0.045066494 0.25618187 0.10297016 -0.43731144
000160 be 78 b0 3d 8d 88 85 be 11 00 2a be 70 62 84 3d
       0.0861678 -0.26080742 -0.16601588 0.06464088
000170 d1 36 ac be d1 82 5c 3e 59 2b fb 3e c5 26 4d be
       -0.33635572 0.21534277 0.4905651 -0.2003432
000180 ba 5c df 3e ba ff cf 3e 9f 03 68 3e 95 30 ec 3e
       0.43625432 0.4062479 0.22657631 0.46130815
000190 a5 f9 47 be 87 bb a8 bd 9a 82 8e 3e f2 02 c0 be
       -0.19528826 -0.08238893 0.27834016 -0.37502247
0001a0 12 a8 8a 3e 4b 9d bd be 6e 04 88 3e f2 ee cc 3d
       0.27081352 -0.37034068 0.2656588 0.10006513
0001b0 6e f6 b3 3e 96 1b 10 3e 42 d3 3c be 9d 85 60 3d
       0.35148948 0.14073023 -0.18439963 0.054814924
0001c0 62 22 fa bd 8e f7 45 be 41 1e ab 3e a8 78 9f 3d
       -0.12213589 -0.19332716 0.3342152 0.07786685
0001d0 e1 6f 57 be 4d e2 85 3e cb dc bf be bc 19 47 bd
       -0.21038772 0.26149216 -0.3747314 -0.048608527
0001e0 d4 d1 d6 bd 39 9f 40 bd bf 04 9a be 58 57 91 bd
       -0.1048924 -0.047026847 -0.30081746 -0.070967376
0001f0 70 d8 b7 3e cf ae b2 3e d7 eb 61 be 01 37 e4 bc
       0.35907316 0.34898993 -0.22062622 -0.02785826

fc2.weight f4 [128, 128]
000000 09 d2 52 bd 5a 41 f6 3b 37 85 e9 3c e8 d9 96 3d
       -0.051469836 0.0075151147 0.028505905 0.07365781
000010 73 e6 a5 3c 6b 42 5b 3d ca f9 bb 3b 00 f8 43 bd
       0.020251488 0.053530138 0.0057365643 -0.047843933
000020 f0 0b 2d 3d 58 ca 89 bd 37 c5 b3 bd 5a 84 99 3c
       0.042247713 -0.06728047 -0.0877785 0.018739868
000030 f5 25 e8 3c d3 d9 3f bd 9e 78 e4 bc 11 6d a9 3c
       0.028338412 -0.046838593 -0.027889546 0.02068189
000040 e3 e7 6a 3c 47 aa 9a 3c bf 4f 93 bd b5 d6 f8 bc
       0.014337513 0.018880023 -0.07192945 -0.030375818
000050 e5 aa bb 3d 22 3d 57 3d 67 9c 04 bd 6f 7d 8a bc
       0.09163455 0.052548535 -0.03237572 -0.016905515
000060 1b d5 51 bc e9 bb a6 bd 84 ee 7d bd 43 dd a2 bd
       -0.012807156 -0.0814131 -0.061995044 -0.079523586
000070 e3 24 80 bd 9c ab 04 bd 10 4f aa bd 9d 3a 62 bd
       -0.062570356 -0.032390222 -0.08315861 -0.05523168
000080 3f 56 a2 bd b5 e5 9d bd 2a 32 a6 bd 58 79 53 3c
       -0.079266064 -0.07709829 -0.08115037 0.012907349
000090 bf 06 45 bd 52 79 b4 bd 73 bb b0 bd 40 0a 47 bd
       -0.048102137 -0.088122025 -0.08629503 -0.04859376
0000a0 28 0d 74 bd fe a2 1e bd bd 6b 5d 3d 3b 05 23 bd
       -0.05958286 -0.03872966 0.054057825 -0.03979991
0000b0 88 28 8a bc 62 fe 63 bd 87 c2 b1 bc 28 14 76 bd
       -0.01686503 -0.05566252 -0.021699203 -0.060077816
0000c0 06 3b b0 bd 83 1e 4b 3b 90 74 42 3d 28 63 f0 3c
       -0.08605008 0.0030993528 0.047474444 0.029344156
0000d0 b6 fe 35 3d 4f 33 8a 3d 6c de 7c bc 4a 65 3a 3c
       0.044432364 0.067480676 -0.015433889 0.011376688
0000e0 11 61 81 bd ab d6 eb bc 07 91 5b bd f5 a4 5d 3d
       -0.06317342 -0.028788885 -0.053605106 0.054112393
0000f0 47 5e b9 bd 57 04 1c bd 08 62 2c bb 39 7c 84 bd
       -0.09051185 -0.038090076 -0.0026303548 -0.06469006
000100 83 4f 04 3b 34 20 df 3c 8d 99 7b 3d 54 e4 58 bd
       0.0020188994 0.027237035 0.061425734 -0.052952126
000110 c3 35 4f 3d 46 33 f9 3b 8f 19 69 3d 54 91 a7 3d
       0.05058838 0.007604989 0.05690914 0.08182016
000120 78 d2 c9 bc 0e 6e 28 bd 72 35 a9 bd 22 ea 03 3d
       -0.024636492 -0.04112058 -0.08262147 0.03220571
000130 f1 66 09 bd 89 2b 77 3d 75 43 a3 bd eb d2 81 3d
       -0.03354544 0.060344253 -0.07971851 0.063390575
000140 c0 80 37 3d db 45 a1 bd d4 c1 88 bb 8f 52 8f 3d
       0.04480052 -0.07874652 -0.0041734967 0.06998169
000150 30 63 54 bd 3f 3f 67 3d a2 47 fd bc aa a1 26 3d
       -0.051852405 0.0564568 -0.030917946 0.04068152
000160 42 90 89 3d c9 a3 87 3c f1 42 2f 3d 0d 13 1d bd
       0.06716968 0.016557591 0.04278845 -0.038348246
000170 e6 70 62 3d ff 0a 9d bd 88 b2 27 bc c7 6b 96 3d
       0.05528345 -0.07668113 -0.010235436 0.07344776
000180 94 34 0e 3d 20 09 35 3d 41 ca 83 bc 7d 87 0d bb
       0.03471811 0.044198155 -0.016087653 -0.002159565
000190 25 35 6d 3d bc 47 12 bd ff ca 5f 3d d7 8b 96 bb
       0.05791201 -0.035712942 0.05463695 -0.004594307
0001a0 d7 64 f2 bc 4d 3b 36 bd 6c e9 e1 bc de d8 3a bd
       -0.0295891 -0.044490147 -0.027577125 -0.045616977
0001b0 35 cf 2a 3c 4d f0 aa bd 26 04 7e bc 46 67 e5 bc
       0.010425379 -0.08346615 -0.015503919 -0.028003346
0001c0 bb 8f b7 bd 1a 0d 6a 3c cd b0 0a 3c 8a f3 13 3c
       -0.08962961 0.01428535 0.008465004 0.009030232
0001d0 7f 1c 92 bc 03 f9 26 bc 04 cd ae bd 1b d7 9c 3d
       -0.017835854 -0.010191205 -0.085351974 0.076582156
0001e0 32 d6 e6 bc 1d 4b 9f bb 54 d5 16 bd a0 f1 0d 3d
       -0.028178308 -0.004861249 -0.03682454 0.03465426
0001f0 6b 07 95 bc e7 5c 61 bd c2 52 af 3d e2 9d 3f bd
       -0.018192014 -0.05502024 0.08560707 -0.04678143
000200 ef 51 92 3b 5f 8a ac bd 5c 36 5d bd e7 b3 2f bd
       0.0044653337 -0.0842483 -0.05400692 -0.042896178
000210 24 c1 fb bb 17 d6 39 3d 6f e3 ac 3c e2 19 23 bd
       -0.0076829363 0.045370188 0.021104543 -0.039819606
000220 90 68 1b 3d bd 36 bc 3c a7 d7 3f bd d4 d3 43 bd
       0.037941515 0.02297532 -0.04683652 -0.047809437
000230 ae 83 a3 bd 99 da e9 bc e3 f3 32 3d 89 84 7f 3c
       -0.079841 -0.028546618 0.04368962 0.015595564
000240 a6 91 ca 3d 4f 52 f0 3c c6 10 02 bd ad 11 9e 3d
       0.098910615 0.029336123 -0.031754278 0.07718215
000250 f1 ab 96 bc 97 51 77 bd a3 42 03 bd a8 93 ef 3c
       -0.018392535 -0.060380545 -0.03204597 0.029245213
000260 2e 68 c4 3c 61 b7 41 bd a6 62 74 bd b3 fb af bd
       0.023975458 -0.047294024 -0.05966439 -0.0859293
000270 72 06 5c 3d d4 c9 d5 3d 2c e4 c2 3c 11 90 90 bc
       0.053717084 0.10438886 0.023790441 -0.017646821
000280 fd 08 a3 bd 51 2f 68 3d 44 b9 17 bd 0c ff ab 3d
       -0.07960699 0.05668575 -0.037041917 0.08398256
000290 96 38 cc 3c 4d bb b1 3d 2e 9f dc bb 41 fc 6e 39
       0.024929326 0.08678303 -0.006732843 0.0002279142
0002a0 18 19 6f 3d 34 f6 96 3d ca a9 b7 bc 13 2f 16 3d
       0.05837354 0.07371178 -0.022419829 0.036665987
0002b0 76 f2 45 bd 74 7f 84 bd 15 a5 a9 3b 17 9b 38 3c
       -0.048326932 -0.06469622 0.00517715 0.011267445
0002c0 8c 22 77 3c 08 09 cb 3b 23 c5 5b bd 38 c7 b2 3d
       0.01508392 0.006196145 -0.0536548 0.08729404
0002d0 ab 82 b5 3d f2 c4 1a bd b1 6f f8 bc 54 67 f4 bc
       0.088628136 -0.037785478 -0.030326696 -0.029834427
0002e0 37 78 c5 bc 34 b6 81 3d 0f 63 b7 3d 82 5b ad 3d
       -0.024105174 0.063335806 0.08954441 0.08464719
0002f0 4e 3a 9a bd aa 10 52 bd f8 4c 8c 3d 7c 0d bb 3d
       -0.07530652 -0.051285423 0.06850618 0.09133431
000300 54 f5 7d 3d e8 d0 d4 3d be bc 26 3d bc c7 aa 3d
       0.06200154 0.10391408 0.040707342 0.083388776
000310 49 41 7e bc cf cd aa bc 7e f5 b0 bd 80 cb 1d 3b
       -0.015518495 -0.02085009 -0.08640574 0.0024077594
000320 b0 08 f4 bc 63 18 55 3d d1 f5 96 3d f7 c8 c7 3d
       -0.029789299 0.05202521 0.073711045 0.09755128
000330 bb 99 ab b9 f3 4f 80 3d 57 e0 48 3b 1c c1 81 3d
       -0.000327302 0.06265249 0.0030651295 0.06335661
000340 99 cc a2 3d 37 35 05 bd e6 18 a5 3c a6 5e d8 bc
       0.0794918 -0.032521453 0.020153474 -0.02641232
000350 26 aa 63 bc 31 dd 5d 3d 04 3f 2c 3d 29 25 bc 3d
       -0.013895547 0.054166023 0.042052284 0.09186775
000360 80 82 be bc e4 e8 39 3d d0 b5 f9 bb 33 06 37 3a
       -0.023255587 0.045388117 -0.0076205507 0.000698182
000370 8b d0 2a bd 79 e5 93 bd f4 a6 84 3d 89 91 8f 3c
       -0.04170279 -0.07221503 0.06477156 0.017525451
000380 b4 1a cf 3b f5 ab 3a bb 21 46 6a 3d 5c 1f 4b 3b
       0.006320322 -0.0028483842 0.057195786 0.0030994033
000390 cc f7 57 3c 64 78 a7 3d d2 eb 76 3d 2f 4d 88 3b
       0.013181638 0.081772596 0.06028349 0.0041595916
0003a0 34 0a 2d 3c 47 62 f1 39 58 81 57 3d 0e c2 28 bd
       0.010561515 0.00046040324 0.052613586 -0.04120069
0003b0 66 ff f2 bc 1b 23 92 3d e3 01 16 3d 07 c4 44 bd
       -0.0296628 0.07135602 0.036622893 -0.04803851
0003c0 8d e0 35 bd 54 3d ba 3d 2b a8 89 bc f2 2c 26 3c
       -0.0444036 0.09093729 -0.016803822 0.010142552
0003d0 46 81 0b bc fc e6 5b bc 5e ea d1 3a c2 db 35 bd
       -0.008514708 -0.01342177 0.0016015281 -0.04439903
0003e0 f5 88 61 bd 86 04 62 3d 60 78 cb bb ba 1f bd 3c
       -0.055062253 0.055180095 -0.006209418 0.023086417
0003f0 cd ad 95 bc b7 d0 9c 3d 0d 1d 19 bd 39 43 d7 3d
       -0.018271351 0.07656997 -0.03738122 0.105108686

fc2.bias f4 [128]
000000 39 6b ca 3c fe df 5a 3d d0 71 29 3d 60 c4 95 3d
       0.02470933 0.05343627 0.041368306 0.07312846
000010 b0 ce aa 3b dc b1 73 bd 59 53 70 bd 2d f0 92 bd
       0.0052126274 -0.05949579 -0.058673237 -0.07174716
000020 8c 69 a4 3d 38 43 45 bd 24 7c 8e 3d 8d 12 6f 3d
       0.08027944 -0.048159808 0.06957272 0.0583673
000030 c9 05 8f 3c 8f d8 1f ba c7 2e 18 bd 6f ae 48 3d
       0.017458813 -0.00060976384 -0.037153985 0.048994478
000040 a5 b8 45 3d cc 7a a4 bc 60 d5 db 3d 47 74 fa bc
       0.048271794 -0.020078085 0.107340574 -0.030573023
000050 86 29 9f bb 59 eb bb bc 9b 30 87 bd bb 46 8e 3d
       -0.004857245 -0.022939371 -0.06601068 0.069470845
000060 10 9d a9 3d e8 a2 71 3d e9 7b 66 3d c4 59 e7 bd
       0.082819104 0.05899325 0.056270514 -0.11296418
000070 0c 77 5d bd a2 b3 9d 3d 04 21 1a bd a1 0e 34 3c
       -0.05406861 0.07700278 -0.037629142 0.010989816
000080 c2 3a 69 bb 42 5f 20 3d 48 ae 80 bd 5e 29 24 3d
       -0.0035588 0.039153345 -0.062832415 0.040078513
000090 1f c6 86 bd 10 22 ec bc 38 e9 6c bd 07 e2 bd bc
       -0.06580757 -0.028824836 -0.057839602 -0.023179067
0000a0 62 27 86 3d 85 ee 9d 3d 55 ee 47 3d 00 e4 30 bd
       0.065504804 0.077115096 0.048811276 -0.043186188
0000b0 76 b6 8e 3c 29 7e 21 bd 71 8c 41 3d f0 87 6b bd
       0.017420989 -0.039426956 0.047253076 -0.057502687
0000c0 37 77 bc bd a0 b2 50 3c a2 56 20 bd 0b 4c 83 bd
       -0.09202426 0.0127379 -0.03914512 -0.064109884
0000d0 d5 b7 48 3d fa 08 1b bd d5 06 89 bd 80 3d c3 3d
       0.04900344 -0.037850358 -0.06690756 0.095332146
0000e0 b1 8e 82 bd 10 ef ef 3c b4 af 04 bd 97 57 a6 bd
       -0.063748725 0.029288799 -0.032394126 -0.08122175
0000f0 2e 69 e1 bc 40 0a 70 3d c1 84 13 3d 77 f0 27 bd
       -0.027515974 0.058603525 0.036015276 -0.04100081
000100 75 dd cc bc e6 03 59 3d 61 dc 46 bd b0 c1 36 ba
       -0.025007943 0.052982233 -0.048550013 -0.0006971611
000110 6e 9b 84 bd 69 37 b0 bd 6b 30 96 bd a7 da 92 bd
       -0.06474958 -0.08604319 -0.07333454 -0.07170611
000120 49 e7 35 3c a8 83 28 3c 78 1c 98 bd b1 32 a6 3d
       0.011102506 0.010285296 -0.07427305 0.08115137
000130 67 c2 6c bc 9a 06 24 3d 99 be c9 3c 01 1e 79 bc
       -0.014450646 0.04004536 0.024627017 -0.015204907
000140 68 67 c5 3c fd 07 b1 bd 4d 45 5d 3d 9e da 29 3d
       0.02409716 -0.08644102 0.05402117 0.041468255
000150 b9 d8 87 3d d0 9c 9c 3d ba 18 99 bc a6 53 8f bc
       0.066331334 0.07647097 -0.018688548 -0.017495941
000160 9f 0f db bc a8 69 85 bc 78 45 84 3d d3 97 00 bd
       -0.026740847 -0.016285732 0.064585626 -0.03139479
000170 e0 c2 c5 3d 2d 18 5f bd 7f d5 b4 bd 79 94 4e bc
       0.0965631 -0.054466415 -0.08829784 -0.012608641
000180 a2 c1 23 3d ae 06 cf bd cf db 99 bd 68 f3 1c 3d
       0.039979585 -0.10108696 -0.07512628 0.038318068
000190 bc ea b0 3d c8 c1 39 bd e0 f4 04 bd 5b 04 61 bd
       0.08638522 -0.04535082 -0.032460093 -0.054935794
0001a0 f2 57 04 3d f5 00 7a 3d 78 75 0e 3d 20 85 16 3c
       0.032310434 0.06103607 0.034779996 0.009187013
0001b0 6d 02 79 3c 55 4c b5 bc a6 7f 5e 3d ed dd 31 bd
       0.015198332 -0.022131125 0.054320954 -0.043424536
0001c0 40 0c d9 bc 18 b5 a0 bd 38 d8 0e 3d 79 32 1f 3d
       -0.026495099 -0.07847041 0.03487417 0.038866494
0001d0 74 f7 9f 3b ec 8d b2 3c c0 9a 84 bd 00 32 28 3c
       0.0048817936 0.02179619 -0.06474829 0.010265827
0001e0 d2 71 f4 bc 5c 01 1a 3d 24 c7 4a 3d ca 1a 05 3c
       -0.02983943 0.037598953 0.04950632 0.008124063
0001f0 e3 67 c6 3d ad ce 5a bd ef 29 38 bd fc 04 f8 3b
       0.096877836 -0.053419758 -0.044961866 0.0075689536

fc3.weight f4 [2, 128]
000000 1d 9f 87 bd 6d ed 68 bd 38 8e 86 ba 51 55 65 3d
       -0.06622145 -0.056867052 -0.0010265773 0.055989567
000010 93 3e a5 bc 81 ff 94 3b b6 1d 74 bd 3a 5d 9a bd
       -0.02017144 0.00454706 -0.059598647 -0.07537313
000020 59 5e 21 bd 11 ce f7 3c e5 fa 9c 3d b5 bb 8c bd
       -0.039396618 0.030249627 0.07665042 -0.0687174
000030 ad 35 60 bd ef 88 a8 bd b1 f0 af 3d 76 9a 86 3c
       -0.05473869 -0.08229243 0.0859083 0.016431075
000040 d7 ff 84 3d cc bc 04 3d 60 3f d4 3c 58 18 e3 3c
       0.0649411 0.032406613 0.025909126 0.027721569
000050 2e 8e 96 bc 65 8e df b8 09 92 51 3d 1b 14 a0 bd
       -0.018378343 -0.00010659992 0.05116466 -0.07816335
000060 30 9c 73 3c cd 5f cf bc 87 71 55 3c 36 1c 85 bc
       0.014868781 -0.025314236 0.013027555 -0.016248804
000070 5e 3e 1e 3c 57 96 8f bd ce c5 9f 3d 96 30 22 3d
       0.009658424 -0.07011097 0.078014 0.039597116
000080 e8 eb 86 3d ef 83 94 3c 31 d6 1f bc a8 ad bc 3b
       0.06587964 0.018129317 -0.009755657 0.005758006
000090 11 5c 40 3d a2 92 82 bd c1 8c c1 bb 28 75 d1 bd
       0.0469628 -0.06375624 -0.0059066718 -0.10227424
0000a0 81 db cb bc 23 5d b9 bd fe 56 c3 bd ff dc e4 bd
       -0.024884941 -0.090509675 -0.09538077 -0.11174964
0000b0 1c d4 8f ba a0 d7 83 3d 2a 05 9e bd 79 87 99 3d
       -0.0010973248 0.064376116 -0.07715829 0.074965425
0000c0 e1 cd 1b 3b 9d ac 0e 3d aa 07 51 3d 40 eb a6 bd
       0.0023773836 0.034832586 0.0510327 -0.08150339
0000d0 58 87 0f 3d 11 c9 96 3d c2 30 4b 3c 78 f4 20 bd
       0.035041183 0.07362569 0.0124017615 -0.039295644
0000e0 69 4d bd 3c 2c a3 3b 3d af b6 8a 3d 33 74 47 3d
       0.023108201 0.04580991 0.067731254 0.0486948
0000f0 86 72 88 3d da 3c ea bc 0c 74 b1 3c 50 f2 c4 bc
       0.066624686 -0.02859347 0.02166178 -0.024041325
000100 6f 99 89 bd 55 da 7a bd aa e6 16 bd bc bd ed 3c
       -0.06718718 -0.061243374 -0.036841072 0.029021136
000110 23 d3 98 bc b9 06 be bc e2 b1 82 3d 63 47 c9 bd
       -0.018655365 -0.023196565 0.06381585 -0.09828069
000120 fe e3 9a bd 7d 1b af bd ec 59 94 3d 53 8e b0 bc
       -0.07563017 -0.08550165 0.07243714 -0.02155224
000130 90 6d aa bc da 49 4d 3d 0a df 84 bd e8 fc ef bc
       -0.020804197 0.05011926 -0.06487854 -0.0292954
000140 35 9f 34 bc 65 61 91 bd 5b 79 98 3d 2f a0 c0 bd
       -0.011024286 -0.07098655 0.07445022 -0.094055526
000150 38 cd 91 bd 55 ac d5 3c ac 2a 3e 3c d9 26 15 bd
       -0.071192205 0.02608315 0.011606853 -0.036414
000160 47 44 38 3d 22 a8 ad bd 17 ea 9f bd 95 18 dd bd
       0.04498699 -0.084793344 -0.07808321 -0.10795704
000170 05 33 af ba da a5 7b bd c0 39 a0 3d 6e a9 46 bd
       -0.0013366645 -0.061437465 0.07823515 -0.048501424
000180 69 f4 9b ba 81 af 20 bd 68 09 32 3d 84 06 98 bd
       -0.0011898401 -0.039229874 0.043466 -0.07423118
000190 2d 87 87 bd fc 65 7b 3d 02 dd 72 3d 3e d1 33 bd
       -0.066175796 0.061376557 0.0592928 -0.04390072
0001a0 3d 69 5e 3c fd 1d 7a 3d 55 55 4b bd d7 93 c6 bd
       0.013574895 0.061063755 -0.049641926 -0.09696167
0001b0 ac 3f 2d bd 15 d3 c2 bc 27 49 b3 3d 62 88 9c 3d
       -0.04229705 -0.023782292 0.08754187 0.076432005
0001c0 dd ea 19 bc 88 07 e1 3c 68 1b 82 bc 52 6c 8d bd
       -0.009394375 0.027469411 -0.015882209 -0.06905426
0001d0 18 3e f2 bc f0 14 17 bd f8 03 80 bc dc 43 da bd
       -0.029570624 -0.036885202 -0.015626892 -0.106574744
0001e0 64 7b 72 bd 86 99 80 bd ea ae a3 bd ae 6e 4a bd
       -0.059199706 -0.06279282 -0.079923466 -0.04942196
0001f0 d0 66 17 3d 9a ba 8d 3d b7 b7 86 bd 1c 57 90 3d
       0.036963284 0.06920357 -0.065780096 0.07047865
000200 41 67 04 3d b2 7c 98 bd e3 ab 0b 3d d5 db cc bc
       0.032325033 -0.07445659 0.03409947 -0.025007168
000210 6f c6 8e 3d d5 60 a1 bd 1e 0f 93 bc b6 55 98 bd
       0.06971442 -0.07879797 -0.017951544 -0.07438223
000220 71 ef ae 3d 14 ae 63 3d d0 b9 9e 3d e7 d2 ba bd
       0.085417636 0.055585936 0.07750285 -0.09122258
000230 41 46 06 bc d2 3b 90 bd b8 0b 68 bd 4e 28 a5 3d
       -0.008195461 -0.0704266 -0.0566518 0.08064328
000240 98 df 2b bd 05 bf 65 bc c6 a3 a1 bd f5 e0 d2 3c
       -0.041961282 -0.014022593 -0.078925654 0.025742033
000250 5f e7 a2 3d 29 9a a5 3d 31 d6 56 3c 69 36 4b 3d
       0.07954287 0.08086044 0.013112591 0.049612436
000260 54 ae 21 3d d3 a3 55 3c 4e 17 83 bd 03 b2 68 bb
       0.039472893 0.013039547 -0.064009294 -0.0035506494
000270 dd 39 58 bd 0c a0 9a bd 95 72 2b bc a8 cb ab bd
       -0.052789558 -0.07550058 -0.01046433 -0.08388454
000280 b7 6e c0 3b 95 ce cf 3a 3d 81 85 bd f3 00 94 3b
       0.0058725732 0.0015854413 -0.06518791 0.0045167147
000290 7c 72 8b 3d a0 08 4c bd b7 6f 4c 3d 7d f0 70 3d
       0.068089455 -0.049812913 0.049911227 0.058823097
0002a0 ce 54 a2 bd 01 50 04 be ff 12 19 3d ea cc 95 bc
       -0.079263315 -0.12921144 0.03737163 -0.018286187
0002b0 4e 09 ac bc 89 2f 27 bd 35 48 84 bd e1 a1 74 bc
       -0.02100053 -0.040816817 -0.06459085 -0.014931173
0002c0 b1 0c 81 3d 72 3d 25 3d f9 58 b3 3b cd 54 0f 3d
       0.06301249 0.040341802 0.005473253 0.03499298
0002d0 09 dc 16 3d 48 b3 be 3d d0 3b cc bd 84 87 06 bd
       0.036830936 0.09311539 -0.09972346 -0.03284408
0002e0 89 af 9d bd 18 ff a2 3d 70 38 a5 3d e3 03 d3 bb
       -0.07699496 0.079588115 0.08067405 -0.0064396723
0002f0 e0 6a 1f 3c e5 27 ab bd 64 de ae 3d 12 1c 11 bd
       0.009730071 -0.08357219 0.085385114 -0.03542716
000300 4e ad ac bd d1 0d 74 bc 31 67 8f 3c 83 45 4c bd
       -0.08431493 -0.014895872 0.01750526 -0.04987098
000310 71 13 3a bd 3e 15 86 3d af 1c ab 3d dd 21 ba 3c
       -0.045428697 0.065470204 0.0835508 0.022721225
000320 ad f0 34 bd 6d 28 b7 3c 1c c0 86 3d 51 02 86 bd
       -0.04417484 0.022358144 0.06579611 -0.065434106
000330 b9 20 36 bd c4 7a 89 39 c6 30 8e bd 87 1f a4 3d
       -0.0444648 0.00026222144 -0.069428965 0.08013826
000340 5f 0c 7e 3c b4 dd 45 3d f2 61 26 bd 6e cc 2f 3d
       0.015505879 0.048307136 -0.04062075 0.04291957
000350 9f 83 39 3d b9 03 55 bb 50 0a 58 3d ad 70 04 3d
       0.04529154 -0.003250344 0.05274421 0.03233402
000360 03 e7 ea bb 8d 34 b4 bc 34 01 17 be 43 9e e1 bd
       -0.007168652 -0.021997714 -0.14746553 -0.11016514
000370 23 c3 24 bd e5 c4 86 bd b8 e1 83 bd b6 65 1c 3d
       -0.04022516 -0.065805234 -0.06439537 0.038182937
000380 17 94 c5 3d 16 a1 85 bc 68 7f 93 3d cf 49 60 bd
       0.096473865 -0.016312163 0.07202035 -0.05475789
000390 90 2b eb bd d6 09 ef bc bd b1 cc 3b 25 7a af bd
       -0.11482918 -0.029179495 0.006246774 -0.08568219
0003a0 1d d8 e6 3c 2f 2c fe 3c 11 25 9a bc 0b 28 43 3d
       0.028179223 0.031026928 -0.018816503 0.04764561
0003b0 a7 5a ea bc 2b be 01 be 42 80 95 bd 36 05 6c 3d
       -0.02860768 -0.126702 -0.07299854 0.057622157
0003c0 9d 4e 99 3d 6f 82 34 bd 16 96 02 3d 23 ae a8 bd
       0.074856974 -0.044069704 0.031881414 -0.08236339
0003d0 bc 21 6b bd 58 71 c2 bb c4 c6 15 3d 53 e9 26 be
       -0.05740522 -0.005933922 0.03656651 -0.16299944
0003e0 67 d0 1f 3c af 57 21 3d ba 48 a3 bc 08 84 00 3d
       0.009754277 0.039390262 -0.01993214 0.031375915
0003f0 a9 29 6f bd 68 31 40 bd 8f e1 96 bd cd cb ca 38
       -0.05838934 -0.046922117 -0.07367241 9.6700714e-05

fc3.bias f4 [2]
000000 7b 13 b2 bd e3 4b 22 bd
       -0.08695122 -0.039623152

fc1.weight f4 [128, 84]
000000 cb 3d 30 be 5f 11 4f bd 91 bb 85 bd bc de 02 bd
       -0.17211072 -0.050553676 -0.06529916 -0.031950697
000010 66 5f 11 3d ac e8 02 3e 7c b6 6a bb 16 5c 39 3e
       0.03549137 0.1278407 -0.0035814336 0.18101534
000020 58 26 93 3d 5a 81 b0 3d 0e d6 49 bd 8e 79 2a be
       0.07185048 0.08618422 -0.049276404 -0.16647932
000030 d6 6e 4e bb a9 5f 28 bd 52 75 09 3e 3e 3f 85 3d
       -0.0031499169 -0.041106854 0.1342366 0.06506203
000040 6f 6c 82 3b 67 0b b9 3d 4c e3 2c 3d 86 f9 59 bd
       0.0039802114 0.09035378 0.042208955 -0.05321648
000050 db 37 bc bd 3b 06 43 bd d0 04 45 bd 65 b9 73 bd
       -0.09190341 -0.047613364 -0.048100293 -0.059502978
000060 88 0a 72 bd 54 fe 39 3c 5b 2b de 3d e1 c6 36 3c
       -0.059092075 0.01135214 0.10848113 0.011155815
000070 ab ce fe 3c d4 a2 84 bd 62 86 f3 3d 93 8b f6 bd
       0.031104406 -0.064763695 0.11890866 -0.120383404
000080 20 85 ac bd e6 fc 6d bd da 44 cf 3d 7b 9b 27 3d
       -0.08423829 -0.05810251 0.10120554 0.040919762
000090 0f b9 06 bd 2e 8a 13 bd 66 76 e3 3c 54 19 de bc
       -0.03289133 -0.03602045 0.027766418 -0.027111687
0000a0 ef 8d 4c 3d 96 37 ce b9 04 51 c7 bd b9 01 31 3e
       0.049940046 -0.00039332797 -0.097322494 0.17285813
0000b0 c2 9c 38 3c 19 ad 55 3e 03 60 82 3c 92 ea 1d 3e
       0.011267843 0.20866813 0.015914923 0.15421513
0000c0 94 93 9b bc ec 54 b7 bd 2e 93 39 3d 13 74 40 be
       -0.01899127 -0.089517444 0.045306377 -0.18794279
0000d0 ef a4 fe bd ab 78 f8 bd a2 40 bb 3c 68 74 05 be
       -0.12433802 -0.121323906 0.022857968 -0.13032687
0000e0 05 26 d2 bd d5 a0 bd 3d 39 fc 54 3b 99 a8 95 bc
       -0.10261158 0.09259192 0.003249897 -0.01826887
0000f0 62 4b 73 bd a6 3b ee bd 03 1b c3 3c 63 a0 92 be
       -0.059398063 -0.11632471 0.023816591 -0.2863799
000100 64 aa ee bd d0 86 3f be 2b ad ea b9 c6 97 18 be
       -0.11653593 -0.1870377 -0.00044760978 -0.14901647
000110 55 4e 7b bb 4e ea c1 3d d9 bc 04 bc 4d a5 f7 3d
       -0.003834625 0.09468518 -0.008101665 0.120920755
000120 47 aa 73 3d dd 1a 2d bb bd 8f 09 be 1c 67 64 3d
       0.05948856 -0.0026413717 -0.13433738 0.055762395
000130 6c f1 2a be 17 24 0a be 18 dd 8b 3d a9 f8 c7 3d
       -0.16693658 -0.1349033 0.0682928 0.09764225
000140 89 fb 57 bc 89 47 9a 3d 38 8d 0f 3d 2b 4e a5 3d
       -0.013182529 0.075331755 0.035046786 0.0807155
000150 42 4f 9b bc 41 d5 b4 3d 2f 6b 83 3d c4 e0 1b 3d
       -0.018958692 0.088297375 0.06416928 0.03805615
000160 9b 69 ef bc a6 02 3d bd 9f 30 e1 bd b1 ce 7c bd
       -0.029225161 -0.046145104 -0.10995602 -0.061720554
000170 5c 9c 9c 3d c1 92 d5 bd 82 1b 17 bd c4 83 25 3c
       0.07647011 -0.10428382 -0.036891468 0.010102216
000180 fc 8d dd bc ba 85 ba 3c 5c 45 6b 3c a4 0b b9 bd
       -0.027045242 0.022768844 0.014359798 -0.090354234
000190 a2 9b b8 bd c3 0e 88 3c 68 34 92 bd c8 a3 60 3d
       -0.090140596 0.016608601 -0.07138902 0.054843694
0001a0 96 17 39 bd ff f8 20 3c 87 ed fe bd a2 55 00 be
       -0.04518851 0.00982499 -0.124476485 -0.12532666
0001b0 51 37 8b 3d 50 fa c1 bd 9b 02 c1 bd 1f 7b af 3d
       0.0679766 -0.094715714 -0.09424325 0.08568405
0001c0 ba a3 59 3d 17 aa ab 3d f2 90 c2 3c c6 58 9f bd
       0.053134657 0.083820514 0.023750756 -0.07780604
0001d0 59 cb 80 3d d6 e1 3c bc a7 7a 00 be c5 85 4b bd
       0.062887855 -0.011528453 -0.12546788 -0.04968812
0001e0 58 fe 81 3d a5 ca 62 3d 4d 4c 86 3d 26 94 c6 3d
       0.0634734 0.055369038 0.06557522 0.09696226
0001f0 6a e3 b6 3c 4a a8 b8 ba a7 46 48 bc 4f 1c ec bd
       0.022325236 -0.001408824 -0.012223876 -0.11528837
000200 96 be eb bc 3f db 00 3d 1c ea 1a be 6c 21 97 3c
       -0.028777402 0.03145909 -0.15128368 0.018448554
000210 e1 13 2f 3c 5b f2 34 bd e2 2f a0 bd 6a 95 3e bd
       0.010685892 -0.04417644 -0.07821633 -0.04652921
000220 91 ac 84 bc d7 34 fd bb 9c b5 68 bd ce b2 07 3d
       -0.016195567 -0.0077272463 -0.05681382 0.033129506
000230 6f 09 20 bd fb 37 52 bc 36 8e 26 3d 96 d5 2c bd
       -0.039071497 -0.01283073 0.040662967 -0.04219588
000240 f5 40 34 3d 31 55 3a 3d 2b 22 a3 bd 71 01 71 bd
       0.04400726 0.0454914 -0.079655014 -0.058839265
000250 f2 9c b3 3d 74 cc d3 3b 1c 06 b3 bd b2 94 e4 3c
       0.08770169 0.0064635817 -0.087414 0.027902935
000260 43 bd 0b 3d c5 47 46 3d e2 42 5c bd 7c d7 3c 3d
       0.03411604 0.04840829 -0.053774722 0.04610394
000270 af 52 96 3d d7 d9 6a bd 73 07 51 3c 87 30 2a bd
       0.073399894 -0.057336655 0.012758124 -0.041550186
000280 0a d1 ca bd 78 2f 64 bd 08 b4 c9 3d a0 43 95 3c
       -0.09903152 -0.055709332 0.09848791 0.018220723
000290 03 e3 1f 3d 0d 6b 90 bd 57 d5 8a bd 96 53 ac 3d
       0.039034855 -0.07051668 -0.067789726 0.0841438
0002a0 11 04 03 3d 4f e2 b3 3c 44 e4 c5 bd f7 fc f7 bc
       0.0319863 0.021958498 -0.09662679 -0.03027199
0002b0 0f d4 72 bd 32 6a f4 bd a3 dc 62 3d 88 d7 23 3d
       -0.059284266 -0.11934318 0.055386197 0.04000047
0002c0 62 c6 3b bb 76 0b 92 bd 54 08 89 3d 17 8c 99 bd
       -0.002865218 -0.07131092 0.066910416 -0.07497423
0002d0 3b 9f 37 3d e1 98 0d be 15 ab fb 3d b9 8a ba 3d
       0.04482959 -0.1382785 0.12288491 0.091084905
0002e0 68 3a 4c 3d c2 d9 d2 3d d8 6e 88 bd bf bf 66 3d
       0.049860388 0.1029544 -0.06661767 0.056335207
0002f0 7b fa bc bd 21 63 60 3d 9e a3 c6 bd 53 52 24 3d
       -0.09227463 0.054782037 -0.09699176 0.040117573
000300 c5 8a 81 3d 91 18 be 3d c0 11 55 bd 7e 1d d0 3d
       0.06325296 0.092820294 -0.05201888 0.10161875
000310 47 5d 3a bd 27 70 0e 3d 3a b8 4e 3d e8 9c 4c bd
       -0.045499112 0.034774926 0.05046866 -0.049954325
000320 d4 d7 be 3c be ee e5 3d 2d 2b b0 3d 62 5e 6a bd
       0.023296274 0.11227177 0.08601985 -0.057218917
000330 ae ff 00 be b5 90 3b bd b1 37 d7 bd 46 5e 7b 3d
       -0.12597534 -0.0457923 -0.10508669 0.061369203
000340 37 61 02 be a6 36 2b 3d 1c 70 8f bc 70 07 8d 3d
       -0.12732397 0.041800164 -0.017509513 0.06886184
000350 52 15 b8 3d e2 4e 24 bd ad 62 6a bc cb 54 8d 3d
       0.089884415 -0.04011429 -0.014305753 0.069009386
000360 b3 d7 da bc 55 dc 5e 3d 0a fa 1c 3e fe cd 94 bc
       -0.026714182 0.054409344 0.15329757 -0.018164631
000370 64 9e cc 3c b7 3c 6e bd 10 d5 55 bd 60 74 69 3d
       0.02497787 -0.05816337 -0.052205145 0.05699575
000380 ee e4 d9 bd bb eb 35 3d d7 14 1a be b6 3b 78 bd
       -0.10639368 0.044414263 -0.15047012 -0.06060382
000390 9d 33 24 be 1f 56 cf 3c 7c 41 22 bd 85 ba 09 bd
       -0.16035314 0.02530962 -0.039613232 -0.033625145
0003a0 17 39 aa bd 8e 8e 1f be 02 4d 33 bd 6a 82 06 be
       -0.0831167 -0.15581724 -0.043774612 -0.13135687
0003b0 28 b4 27 be 14 b2 0e bc 4d 6c a5 3e 43 9f ab bd
       -0.16377318 -0.008709449 0.3230919 -0.08379986
0003c0 58 f5 3f bc 15 54 94 3d ac 18 33 3b c9 2b 11 3e
       -0.011716209 0.072426 0.0027327938 0.14176859
0003d0 ae fa f1 bb be e3 ea bd b6 18 24 bd 7c 90 4f 3d
       -0.0073846197 -0.114692196 -0.04006263 0.0506749
0003e0 0a e4 9b bc 1d 59 9a bd ff d7 48 bd dc 17 aa 3d
       -0.019029636 -0.07536528 -0.049034115 0.08305332
0003f0 f6 b2 15 3d 5f 4e cc bd db 66 4b bb e3 d1 ac bd
       0.036547624 -0.099758856 -0.0031036648 -0.0843847

fc1.bias f4 [128]
000000 31 0c 3f bc b0 fb f0 bd 1c 35 e9 3c ce e8 04 3c
       -0.0116606215 -0.117667556 0.028467707 0.008112146
000010 7d 34 d2 bc 66 be d2 bd e8 7e 11 bd 6c 88 c9 bd
       -0.025659794 -0.10290222 -0.035521418 -0.098404735
000020 95 87 b2 3d 5f 18 7f 3d 80 4b 63 3d 1c 14 a3 bd
       0.087172665 0.0622791 0.055491924 -0.0796282
000030 d2 16 22 bd c2 fc fe 3d 10 fb 7e bd 88 bb fd 3c
       -0.039572544 0.124505535 -0.06225115 0.03097321
000040 a2 0c 7c 3d db e5 0f bd 22 29 27 3d 21 08 d1 bb
       0.061535485 -0.035131317 0.04081071 -0.006379143
000050 5e d3 cf bd 0d d6 b6 bd 1e fd 85 3d 0b 90 e4 bd
       -0.10147737 -0.08927546 0.06542419 -0.111602865
000060 af 34 f1 bc b2 34 07 3d 68 3e 1c 3c 69 03 5a b9
       -0.029444067 0.03300924 0.009536363 -0.0002079137
000070 cd 10 03 bc 69 01 fb bd 67 f0 bd bd fd 93 e4 bb
       -0.007999611 -0.12256128 -0.09274369 -0.0069756494
000080 10 50 07 bd 55 05 85 3d cf a1 f5 39 42 27 41 3d
       -0.033035338 0.06495158 0.00046850598 0.04715658
000090 2c 82 97 bd 47 75 aa 3d 72 c0 05 3d ce e6 d2 3d
       -0.07397875 0.0832315 0.032654233 0.10297929
0000a0 26 1d 0a bd 20 b4 91 3d fe cb 9c bd e4 7a 80 bd
       -0.033719204 0.07114434 -0.07656096 -0.062734395
0000b0 d8 be 89 bd c7 b0 96 3d 9d a8 78 bd 44 bf 36 3c
       -0.06725854 0.07357936 -0.060707677 0.011154
0000c0 42 c2 4a 3d 03 bc 5b bd 97 56 98 3d 25 bd 48 3d
       0.049501665 -0.0536461 0.07438391 0.049008507
0000d0 b4 b8 03 3d 19 56 85 3d 7c 1c 95 bc 3a bc 4d bd
       0.03215857 0.065105624 -0.018202059 -0.050228335
0000e0 7b af be 3d e5 18 93 bd 3e 0c 43 bc a0 f6 88 bd
       0.09310814 -0.07182483 -0.011904774 -0.06687665
0000f0 8b 30 8d bd d0 22 b5 3d 4c 05 35 3d 8b e9 dd bd
       -0.068940245 0.088445306 0.044194505 -0.108355604
000100 cb 24 41 3d da 39 f1 bd 34 2b df bd b8 d1 9d 3d
       0.04715423 -0.117786124 -0.10896912 0.07706016
000110 89 08 ba bd 10 1f ba bd 61 be fd bd 86 46 ea 3d
       -0.09083659 -0.09087956 -0.123898275 0.114392325
000120 64 51 4b bd ea 30 75 bc 52 43 ba 3d 3f b8 a3 3c
       -0.049638167 -0.014965275 0.090948716 0.019985316
000130 d3 16 d1 bd 3f c6 a2 bd 32 db a3 bd 64 ab 63 bd
       -0.102094315 -0.07947969 -0.080007926 -0.055583373
000140 0c 74 7e 3d 5c 9f a3 3c 32 06 52 3d cc ad 16 be
       0.06212239 0.01997345 0.05127544 -0.14714736
000150 33 6f 46 bc ac b1 42 3d f3 4e 98 bd ab d1 8b b8
       -0.012111473 0.047532722 -0.07436933 -6.66709e-05
000160 e0 97 bd 3d 7f 10 3c 3c 91 45 8d 3d 9b 32 66 bd
       0.092574835 0.011478542 0.06898034 -0.056200605
000170 94 ef a7 3d ef fb 8f bd 8d e9 90 bd d7 f3 8e 3d
       0.08199993 -0.070304744 -0.07075796 0.069801025
000180 05 72 dc bd 06 ef eb ba 53 35 99 bd c0 f0 7b bd
       -0.10763935 -0.0018000312 -0.07480874 -0.061508894
000190 63 a3 74 bd 8b 1e d3 3d aa 1f 84 3c c6 fe a1 3d
       -0.05972613 0.1030856 0.01612838 0.07909922
0001a0 95 d4 ec 3d 1d 44 ef 3c 05 a2 98 3c 93 19 fa bc
       0.11563984 0.029207284 0.018631944 -0.030529773
0001b0 08 27 86 bc 7b a8 13 3c 97 14 87 3d 74 0d 77 3d
       -0.016376033 0.009012337 0.06595724 0.060315564
0001c0 59 11 a7 bd b7 95 dd bd d0 c0 bb 3d e0 a5 b6 bd
       -0.08157606 -0.108195715 0.091676354 -0.08918357
0001d0 e4 00 3f 3c bd 71 c1 bd 1c 44 20 3c fa bc 08 3d
       0.011657927 -0.09445522 0.009781864 0.033383347
0001e0 99 e7 55 3a f3 fd 6b 3d 73 22 8e bd e8 de fc bd
       0.0008159816 0.05761523 -0.069401644 -0.123472035
0001f0 fe 71 ee bc a6 d5 ec 3c 94 ed d4 bc 25 08 53 bd
       -0.02910709 0.02891047 -0.025992192 -0.05152144

fc2.weight f4 [128, 128]
000000 42 4c 88 bd c1 87 8b 3c 64 77 de bd 10 06 56 bd
       -0.0665517 0.017032506 -0.10862616 -0.052251875
000010 47 47 2a bd 49 14 18 3d 96 b1 50 3c 5e c6 a6 bd
       -0.04157188 0.03712872 0.012737652 -0.08143304
000020 3e 7a 5f bc 30 08 41 bd c7 30 a2 3b 73 f0 37 bd
       -0.013639985 -0.04712695 0.0049496624 -0.044907045
000030 50 08 eb 3c 54 53 c6 3c 3f 3b 83 3d 1b 70 42 bd
       0.028690487 0.024209656 0.06407785 -0.047470193
000040 7e 80 70 3d 5e f7 4b 3c dc 56 e9 bd ba a4 0f 3a
       0.05871629 0.012449114 -0.1139352 0.0005479563
000050 4e ce 92 3b a1 a9 2a 3d f1 26 43 bb 0d ed 4e 3d
       0.00448016 0.041665677 -0.002977785 0.050519038
000060 b9 6b b3 bd 13 96 fd bd e3 d3 9d bc b6 c3 a5 bc
       -0.08760781 -0.1238214 -0.019266075 -0.020234924
000070 46 f5 ee bc c6 17 a2 3d d1 50 96 3d 04 6a 08 bc
       -0.02916969 0.07914691 0.07339633 -0.008326057
000080 5a 43 57 bd fc de 4e bc d7 8f b1 3d b8 c8 2f 3d
       -0.052554466 -0.012626406 0.086700134 0.04291603
000090 c9 6f b4 bd 37 45 8d 3d 0e 51 a3 bd 2a e7 16 3d
       -0.08810384 0.06897967 -0.07974444 0.03684155
0000a0 6f 51 73 bc 9f 58 4b 3d d0 c3 b6 bc e5 55 90 bd
       -0.014850958 0.049645063 -0.022310168 -0.07047633
0000b0 b7 c7 5e bd 7c 11 3c 3a 20 62 2c 3d 0e 52 f2 b8
       -0.05438968 0.0007174236 0.042085767 -0.00011554743
0000c0 6d 94 a4 3d 0e 49 95 bd 4c 6b 3a 3d 28 63 29 bd
       0.080361225 -0.07289325 0.045512483 -0.04135433
0000d0 cb 0e 4e 3d c4 21 8d 3d ef 1a 17 3d b0 cd 05 bd
       0.050307076 0.06891206 0.03689092 -0.032666862
0000e0 f9 c1 a3 3c 9e 91 9d bd ae dd 83 bd 21 76 8b bc
       0.019989954 -0.0769379 -0.064387664 -0.017024102
0000f0 54 49 b4 bd c1 6b 6e bd 4f cb 86 bd c0 9d ec bc
       -0.08803049 -0.05820823 -0.06581747 -0.028883815
000100 f9 c7 ba ba be ff 98 bd 43 d0 16 3d 3d ff 58 bd
       -0.001425027 -0.07470654 0.036819708 -0.05297779
000110 21 36 0f 3d 27 63 32 3d 6c ee 78 3c f8 f1 d1 bc
       0.03496373 0.04355159 0.015193563 -0.025628075
000120 00 20 9f bb 0a 9a 8f 3d e4 94 07 bd 50 12 62 bc
       -0.0048561096 0.070118025 -0.033100978 -0.013798311
000130 ad 1c 95 bd 3a 62 8a 3d fc 24 a0 3d 1a 48 44 3d
       -0.0728086 0.067570165 0.07819554 0.047920324
000140 72 ab 66 3d 37 d9 8b bd fc 40 3b bc 34 af df 3c
       0.056315847 -0.0682854 -0.011429068 0.027305223
000150 89 b7 6e bd ce fa 97 3c 09 a5 9c bd 65 af 29 3d
       -0.0582805 0.01855221 -0.076486655 0.041427035
000160 ee c0 8c bd 79 9a 80 bd 41 8c e8 3a 06 98 4e bd
       -0.06872736 -0.06279463 0.0017741994 -0.05043795
000170 cc 4b a1 3d 53 c5 68 bd 0f 35 69 3c f3 e0 84 bd
       0.07875785 -0.056828808 0.014233842 -0.06488218
000180 05 b3 90 bd a2 d3 33 3c f3 21 a7 bd 8f 50 9a 3d
       -0.07065395 0.01097575 -0.08160772 0.075348966
000190 25 07 95 3d 7b cd a0 bd 49 1b a9 bb 1c ac aa 3b
       0.07276753 -0.07851692 -0.0051607233 0.0052085053
0001a0 3b 0a c7 bc 51 c8 b7 bd 79 92 2c 3d 11 0e ad bc
       -0.02429687 -0.08973754 0.042131875 -0.021124871
0001b0 58 ae b7 bd 19 60 18 bd 4c 90 71 bd 5c aa a9 3d
       -0.089688 -0.03720102 -0.058975503 0.082844466
0001c0 bb 44 9b bd 3d 59 db bd 3c 0d 93 3d cf 6b ae bd
       -0.07581469 -0.1071038 0.07180259 -0.085166566
0001d0 8c 76 cf bc 21 03 2f bd 1b b1 12 bd 33 13 56 b9
       -0.025325082 -0.042727593 -0.035813432 -0.00020415783
0001e0 fd 6b 9e 3d dd 8e b4 3d ca 62 ea 3c f4 c8 6d 3d
       0.07735441 0.088163115 0.02861156 0.058052972
0001f0 1e 71 ab bd 85 21 82 bc d9 f5 a8 bc 4b 35 81 bd
       -0.08371185 -0.015885124 -0.020625042 -0.06308993
000200 e7 a0 dc bd 7b 94 15 bd 87 5e 00 3d e0 f1 09 3c
       -0.10772877 -0.036518555 0.03134015 0.008419484
000210 33 04 b4 bd 1a 2b ba bc 5b d7 14 3d f9 77 32 3a
       -0.087898634 -0.02272563 0.03633819 0.00068080385
000220 77 b8 ec 3b 03 8b e6 3c eb 99 0d bd 47 3c af 3d
       0.0072241384 0.028142458 -0.034570616 0.08556419
000230 b9 b8 63 bd 7b a9 61 3d d4 0f 81 bc 8c d5 3b 3d
       -0.055596087 0.05509327 -0.015754618 0.04585795
000240 9d 9b 9f 3c 1a 26 11 bd 0f c1 6c 3d 88 6e 66 3a
       0.019483382 -0.035436727 0.057801303 0.0008790274
000250 1f b3 a1 bd 6c 2e 3e 3c b4 e1 62 3d b4 74 51 bd
       -0.07895493 0.0116077475 0.05539103 -0.051136687
000260 bb 5a 89 bd ce 91 29 3d 9b de 93 3d 55 95 a0 3c
       -0.067067586 0.041398816 0.07220193 0.019602457
000270 88 dd ee 3c 51 d6 5c 3d 69 a8 0a b9 76 5d 95 3d
       0.029158369 0.053915326 -0.00013223443 0.07293217
000280 c9 91 52 bd 5d 3a 5c 3d 12 2a 6c bd a3 04 c0 bd
       -0.051408563 0.053766597 -0.05765731 -0.093758844
000290 84 ac 6e bc b5 23 ae 3d 17 d3 78 3d ce 48 0c bd
       -0.014567498 0.08502904 0.060748186 -0.03424912
0002a0 51 b0 41 bd 8d a6 6f 3d 1e c4 c5 3c b8 6b b7 bd
       -0.04728729 0.058508445 0.024141368 -0.089560926
0002b0 36 08 e1 3c a2 88 aa bd fd 55 59 3d 8f fe 77 bd
       0.027469736 -0.08326842 0.05306052 -0.0605455
0002c0 3f d6 4b bd d6 58 4b bd 13 3d e0 3c 6d f7 c6 bd
       -0.049764868 -0.049645267 0.027372872 -0.097151615
0002d0 f2 0a b3 bd 03 c1 a1 3c 3c bf 66 bb 3a db ca bc
       -0.08742322 0.019745355 -0.00352092 -0.024762738
0002e0 0d 38 58 bc 17 66 49 bb 1b f9 0f bd 3a 53 b2 3d
       -0.013196957 -0.0030731016 -0.035149675 0.087072805
0002f0 65 9f 2b 3b b2 1c 91 bc 52 4e 6a 3d 56 91 b3 3d
       0.0026187536 -0.017713878 0.0572036 0.08767955
000300 34 9c 07 3d 69 92 c4 bd e4 76 ac 3d 66 54 5c 3b
       0.03310795 -0.09598238 0.08421114 0.0033619641
000310 4e 3e 9c 3d 7e 7f 47 3c c4 c3 1d 3d 5f c1 07 3d
       0.07629071 0.012176393 0.038516775 0.033143397
000320 e5 57 2f 3d 37 6e 47 3d 91 0e 2a bd 8b 6d 62 3d
       0.042808432 0.048689093 -0.041517798 0.05528025
000330 56 1c 96 bd 8c 5f 32 bd 5b d7 84 bd 17 fc 9c bd
       -0.073296234 -0.04354815 -0.06486388 -0.0766527
000340 17 c4 f0 bc 26 44 dc bc f2 22 90 3d 03 b9 66 bd
       -0.029390378 -0.026887964 0.07037915 -0.056328785
000350 86 d2 eb bc 1e f7 b8 bc cd c7 7a 3c cc a3 6f bd
       -0.028786909 -0.022578772 0.015306425 -0.05850582
000360 e9 6e 77 bd 1b cd 5c bc 06 f3 48 bd 2a 08 0b 3c
       -0.060408507 -0.013476635 -0.04905989 0.008485833
000370 4d 7c 2e 3d 21 4a 0c 3d d0 b0 0c 3d 28 39 61 3d
       0.04259901 0.034250382 0.03434831 0.05498615
000380 a0 9a 67 3d 3b 57 4c 3b 49 b0 a5 3d 23 f7 ef bc
       0.056543946 0.0031179923 0.08090264 -0.029292649
000390 33 ad 09 3d d8 fa 6c bd 1a dc b2 3d 9e 22 dc bd
       0.03361244 -0.05785641 0.08733387 -0.1074879
0003a0 89 1a 87 bd ea da 1a bd de a1 d1 3b db ad 3e 3d
       -0.06596858 -0.03780643 0.00639747 0.04655252
0003b0 e1 af c7 bd 8c 28 85 3c 73 3b b2 bd a2 3a 14 3d
       -0.09750343 0.016254686 -0.08702745 0.03618873
0003c0 ef 5d 42 3c d9 67 9f bd 8b 0a b2 bc a0 d5 64 bd
       0.011863216 -0.07783479 -0.021733543 -0.05586779
0003d0 73 c6 3e 3d f2 43 a2 3b a9 c5 65 bd 67 9d 00 3c
       0.046575975 0.0049519474 -0.056096707 0.007850028
0003e0 40 a9 ab bd 2d eb 80 3d a5 ca e3 bc 4c 08 70 bc
       -0.08381891 0.06294856 -0.02780659 -0.014650416
0003f0 1b 94 50 bc 03 13 5a bd d6 1f 71 3d 71 c7 aa 3b
       -0.012730624 -0.053240787 0.05886825 0.0052117635

fc2.bias f4 [128]
000000 45 60 9d bd f4 12 d7 bc 0b 3a 48 bd 55 f0 78 bd
       -0.076843776 -0.026254155 -0.04888348 -0.060776073
000010 fb 9b fa bd 77 17 09 bd b0 a8 e3 3d 1f 50 ba 3d
       -0.12236782 -0.033469643 0.11116159 0.09097313
000020 25 50 02 3e 2e 17 db 3d 16 42 e5 ba 82 76 68 bd
       0.12725885 0.106977805 -0.0017491009 -0.056753643
000030 30 ff 2d 3d bd 8d e2 bd 73 e3 a7 bd d4 31 9f bd
       0.042479694 -0.11062191 -0.08197679 -0.07773176
000040 c7 1f 0f be 6f 41 ce bd e1 96 c8 bd b3 14 67 3e
       -0.13976966 -0.10071074 -0.09794403 0.2256649
000050 03 0e cf bc 40 da 3a bc 26 76 9f bc bf 19 d9 bd
       -0.025275236 -0.011404574 -0.019465517 -0.10600614
000060 b6 fc 0a be 1a d0 03 be 25 a1 9c bd 09 06 45 bd
       -0.13572964 -0.12872353 -0.076479234 -0.04810146
000070 11 a9 a7 3d 8a 69 31 bd 5e 5e f2 bc f7 2a 83 3d
       0.08186544 -0.04331354 -0.029586013 0.06404679
000080 4a 24 a8 bd ae 30 18 3e 77 f9 04 bd 84 6f 93 bd
       -0.082100466 0.1486232 -0.03246447 -0.07199004
000090 c7 28 a7 3c fa ce 21 3d a6 69 97 bd 3b 63 32 3e
       0.020405186 0.03950403 -0.07393198 0.17420666
0000a0 b2 58 07 be 3a a1 36 bc 43 97 fa 3d eb 89 2c be
       -0.13217428 -0.011146838 0.12235882 -0.16849487
0000b0 8f a3 0b bd 15 73 93 bb 32 7f a8 3d fb 42 10 3d
       -0.03409153 -0.004499803 0.082273856 0.035220128
0000c0 a9 2e e3 3d e3 12 72 3d fc b4 8c 3c 4e dc 43 bd
       0.11092884 0.059100043 0.017176144 -0.04781752
0000d0 e3 3f 7f 3c 88 01 7d 3d 7e b3 1d 3d 93 f0 2d bd
       0.015579197 0.06176904 0.038501255 -0.042465758
0000e0 a4 48 21 bd 26 65 af bd 97 f6 b5 3a 06 d1 07 bd
       -0.039375916 -0.085642144 0.0013882694 -0.033158325
0000f0 b3 09 48 3d 50 83 d0 bb 7d 58 41 be a5 bf ef 3b
       0.048837375 -0.00636331 -0.18881412 0.007316547
000100 5c 37 d8 3c d3 c3 bb bd d7 1a ef bd f9 11 5d 3d
       0.026393585 -0.0916821 -0.11675041 0.05397222
000110 1c ba 06 bd 38 df 10 3c f3 f3 e8 bd 74 fc 8f bd
       -0.03289233 0.008842282 -0.113746546 -0.070305735
000120 6d 57 6b 3d 73 ff 21 3b 9f 54 ed 3b b1 cc f1 bc
       0.057456423 0.002471891 0.0072427536 -0.02951655
000130 00 92 84 3d 8b b1 66 bd 00 69 ec bb 6c 90 92 bd
       0.0647316 -0.056321662 -0.0072146654 -0.071564525
000140 e6 93 2b 3e 0d eb 71 3d e7 48 a7 bd f2 77 05 3d
       0.16755638 0.059062053 -0.08168202 0.032585092
000150 c9 8e ef bd fc b8 b6 bd 7e 5d 26 bc 12 69 32 bd
       -0.11697156 -0.08922002 -0.010154126 -0.043557234
000160 2e c5 b7 3c 88 2c 93 3d c6 d2 e6 bd 82 e8 c6 bd
       0.02243289 0.07186228 -0.112706706 -0.09712316
000170 90 44 5c bd be 25 01 be 72 1d c5 bd c8 51 b7 bc
       -0.053776324 -0.12612054 -0.09624757 -0.022377864
000180 87 b9 81 bd 13 00 9a bd 10 e5 83 3d 0d 9b 97 3c
       -0.06334215 -0.075195454 0.064401746 0.018506551
000190 6f 21 8b bc d8 65 55 3d 82 0e 78 bd 88 bc cb bd
       -0.016983716 0.05209908 -0.06056071 -0.09948069
0001a0 c0 ff 51 bd f1 34 9e bb 7e 05 13 bd a6 d8 b0 3b
       -0.051269293 -0.0048280885 -0.03589391 0.0053969203
0001b0 83 24 27 3d 74 ba d1 3c 73 24 dd bd 08 fa 21 bd
       0.040806305 0.025601603 -0.10797968 -0.03954509
0001c0 82 42 23 bb 02 e4 41 3d 1d 8d 8b bd 73 ee 86 bd
       -0.0024911468 0.047336586 -0.068140246 -0.06588449
0001d0 95 c0 8e 3c 2e b0 84 bb 25 68 40 bd 01 c8 40 bb
       0.017425815 -0.0040493226 -0.04697432 -0.0029416087
0001e0 2f 4e 00 be a6 dd bb 3d 3d 96 0b 3d 44 95 e0 bb
       -0.12529825 0.091731355 0.034078825 -0.0068537313
0001f0 0f c5 0b 3e 64 cb 23 bd 6c f4 84 bc c7 5d 82 3c
       0.1364939 -0.03998889 -0.01622983 0.015913857
