saved_models/episode_900/agent_1.pth (torch, 738018 bytes, 44 tensors)

fc1.weight f4 [128, 5]
00000000: 9e05 693e 8c56 e3be 0e34 50be 23ed 563e
00000010: acbd c53e c797 333e 94f1 14be 9934 823e
00000020: b541 6bbe 7b74 933e 0cc1 efbc e7fa 923d
00000030: 23e8 ddbe 61ec 36be 25ba 3a3e ef7c 5cbe
00000040: ee99 3e3b 0df7 8dbd b578 733e 9647 a2be
00000050: 5563 c93e 73ab 6a3e 1602 b2be 61f3 893e
00000060: a4e4 aabe 0760 903e 5e2e fe3e 08c1 95be
00000070: cca1 953d 003c dbbe 97e5 41bc 8a1d c23e
00000080: d4d4 60bd b39c 823e ca58 cfbd 3320 20be
00000090: a4ea 85bd 2a2f 8fbd 2fbb e4be 9929 9c3d
000000a0: 0a57 693e 750e 08be 552f 2a3e 12d7 b1be
000000b0: 8ba5 973e 5407 b13e c036 6cbe aa87 ff3d
000000c0: deb0 fb3d 352a 5f3e d15b 8bbd 0996 80be
000000d0: 1290 a53e d793 b4be ccfe bebe 7123 af3d
000000e0: 7bf7 2a3e d134 9a3e 0596 0abe 81d9 23be
000000f0: 86c5 8b3e 6e72 1abe 38f4 93be a344 1d3d
00000100: 293b 043c 4197 c1bd d88c 5abe 5cc2 4e3d
00000110: 2a84 cdbd 605a 2e3e edf0 fdbd 54fe eabd
00000120: 7fca 4a3e 24a9 103e 8b73 0fbe 1b61 593e
00000130: 390c 0cbe 2bd1 15bd 4484 793e e1b3 7c3e
00000140: 4d0e a73e bcc8 1c3d d0f0 a1be 46ce e93d
00000150: 613d 86be 1b47 d1be 3b62 8cbe a61b 403e
00000160: e9c2 2b3e d3bd fabd 91f7 3bbd dc44 c9be
00000170: 1765 b2bd aa4e 9abe e357 433e b123 3b3e
00000180: 2113 c53e 2f25 783e 4305 fa3e a671 0a3e
00000190: 2630 9e3e 9cb7 d5be 0c02 c73e 9628 6cbe
000001a0: ac60 d5be dd8f 92be 9e88 cabe 9b4f a23e
000001b0: 8931 c23d b87e 81be 92b6 a13e f353 703d
000001c0: 9eb4 03be a8fe d0be 4cde a2be f2e9 35be
000001d0: 74ee e93e cfb0 5dbe 7423 a43d 093c c43e
000001e0: 864e b23c 1e76 73be 707c 03be 73f4 a93e
000001f0: 9433 953e eb4c a5be be94 afbe 4612 c63e
00000200: c61d b5be 43fb 00be dbd7 d13d a93a 2f3e
00000210: 52b7 cebe 602b 363d bd60 8a3e bf2a 2d3e
00000220: b015 9cbe cc01 85be bf6b c8be 73dd a8be
00000230: 43e0 a83d fb37 67be 1b78 84be 3ecc abbd
00000240: 3287 d53e 97ce 98be 600f 463e 6656 b0bd
00000250: a8de dd3e 6bd6 b03e 5934 9b3e b85d f4bc
00000260: ba88 62be 79a2 bebe 8eeb 9cbe b0da b93e
00000270: 931b 0d3e 6c3c d3be 07ab e8be b42f ff3d
00000280: 494f e43e dba6 babe e805 86be 17f0 673d
00000290: f5cc e13d 5347 063e 87a7 a6be 392d 34be
000002a0: def8 8c3e c8f7 b5bd 23b1 f43d 8795 ad3a
000002b0: 0638 923d cfe2 d6bd a431 a9bc 4960 bf3e
000002c0: 37f2 86be a52e 93be e05a cdbd bf60 8dbd
000002d0: 6465 813e 63c7 e23d d577 ac3e 19da 013c
000002e0: fe39 dbbe cbae 5a3d b76f babe 8615 d5bc
000002f0: 2250 993e 4e60 7dbe 3cc7 2f3e e9cf dcbe
00000300: d578 a4be 668e bcbe 007c bd3d eda3 7bbc
00000310: 1cf4 963e 7b58 c6be cf92 bfbe 9ce3 7fbe
00000320: c1c4 923e 0f5b 753e 7721 d13d 742a a6be
00000330: 9717 8abe 4c89 ce3e 9c6d 4dbe bfdb d9bd
00000340: ef60 dfbe f5c0 d53e a877 983e 41c3 ec3e
00000350: bcf7 aabe fe3b 59be 46f4 853e 29b6 0b3e
00000360: ca61 a53d 2b01 883e 0de8 003e 5ce6 88be
00000370: 3029 6dbe 8807 873d 7f25 c6be 57ce e23c
00000380: 1d64 c23e 5fce b9be 224d de3d e473 0cbe
00000390: b5f2 80be 2d4a b73e 7582 a3be ec42 37be
000003a0: 04c9 633e 4d47 4bbe df8f 8d3e 3191 0e3e
000003b0: d678 2c3e a15f 573e a9af 9e3e 9031 da3d
000003c0: 454a 46be 6314 c23e e9d9 9d3e 1b37 5cbd
000003d0: 5e96 05be 8c13 803d ce9c c7bd 0f24 d8be
000003e0: 5692 98be ed80 8b3e 2768 5a3e 31b9 4b3e
000003f0: 2ee2 263e 1197 59ba d9b9 b23e 2baa b33e
0.22756049 -0.44401968 -0.20332357 0.20988898 0.3862127 0.17538367 -0.1454528 0.25430754
-0.22974284 0.28799805 -0.029266857 0.07176762 -0.4334117 -0.17863609 0.18235071 -0.21532033
0.0029083448 -0.06931887 0.23776515 -0.3169524 0.39333597 0.22916965 -0.34767216 0.26943496
-0.33377564 0.28198263 0.4964475 -0.29248834 0.07306251 -0.42819214 -0.011834524 0.37913162
-0.05489047 0.25510177 -0.10124357 -0.15637283 -0.06538895 -0.06991418 -0.4467406 0.076251216
0.22787109 -0.13286765 0.16619618 -0.34734398 0.29618487 0.34575903 -0.2306776 0.12477048
0.12289594 0.21793444 -0.06804622 -0.25114468 0.3233648 -0.35269043 -0.3730377 0.08551682
0.16695969 0.3011842 -0.1353379 -0.1600094 0.27299136 -0.15082714 -0.28897262 0.038395535
0.0080707455 -0.094526775 -0.2134279 0.050478324 -0.10034974 0.17026663 -0.123994686 -0.114742905
0.19803809 0.14127022 -0.1400892 0.21228449 -0.13676538 -0.03657643 0.24366862 0.24677993
0.32628098 0.038277373 -0.31629038 0.11416297 -0.26218703 -0.40874562 -0.27418694 0.18760547
0.16773571 -0.12243237 -0.045890395 -0.39310348 -0.087106876 -0.3013814 0.19076495 0.18275334
0.38491157 0.24232934 0.4883214 0.13519916 0.3089611 -0.41741645 0.3886875 -0.23062357
-0.41675317 -0.28625384 -0.39557356 0.3170136 0.09482104 -0.2529199 0.31584603 0.05867381
-0.12861869 -0.40819287 -0.31810224 -0.17765024 0.45689738 -0.21649478 0.08014575 0.38327053
0.021765959 -0.23775527 -0.12840438 0.33194312 0.29140913 -0.32285246 -0.3429317 0.38685817
-0.35374278 -0.12595849 0.10246249 0.17112221 -0.40374237 0.04447496 0.2702693 0.16910838
-0.30485296 -0.25977933 -0.39144704 -0.32981452 0.082458995 -0.22579949 -0.25872883 -0.083885655
0.41704708 -0.29845116 0.19341803 -0.08610229 0.43333936 0.34538588 0.30313376 -0.029829845
-0.2212247 -0.37233332 -0.30648464 0.36299658 0.1378005 -0.41257036 -0.45442984 0.124602705
0.4459174 -0.36455426 -0.2617638 0.056625452 0.110254206 0.13113146 -0.32549688 -0.17595376
0.2753362 -0.08885151 0.11947849 0.0013243415 0.07139592 -0.10492479 -0.020653553 0.37378147
-0.2635667 -0.28746524 -0.10027099 -0.069032185 0.25272667 0.11073186 0.33685175 0.007925534
-0.42817682 0.05338935 -0.36413357 -0.02601124 0.2994395 -0.24743769 0.17165846 -0.43127373
-0.32123438 -0.3682739 0.09252167 -0.015358907 0.29483116 -0.3873938 -0.37416694 -0.2498917
0.28665736 0.23960517 0.10211461 -0.32454264 -0.26971123 0.40339124 -0.20061344 -0.10637616
-0.43628642 0.41748777 0.2977879 0.46242717 -0.3339213 -0.21214291 0.26162928 0.13643707
0.080752924 0.2656339 0.1258852 -0.2673825 -0.23160243 0.06593233 -0.38700482 0.027686281
0.37967005 -0.3629026 0.10854556 -0.13716084 -0.2518517 0.3579878 -0.31935468 -0.17896622
0.2224465 -0.19851418 0.27648827 0.13922574 0.1684297 0.21032573 0.30993393 0.106539845
-0.19364269 0.3790618 0.30830315 -0.05376349 -0.13045642 0.06253728 -0.09746705 -0.4221501
-0.29799145 0.272468 0.21328793 0.19894864 0.16297218 -0.0008300404 0.34907416 0.35090765

fc1.bias f4 [128]
00000000: 32cd c9bd a160 9cbe 3bad 703d 851d a03e
00000010: fef2 9abe a680 363e c80f 8a3e aebb 883e
00000020: 312b ecbd a2a6 d838 9221 2c3c e307 dbbe
00000030: 55fc a9be 1a1d 353e 5a5e d13e 2d51 cf3e
00000040: 4d97 7dbe ea71 66be 31a7 6f3e 404e a7bd
00000050: 2561 d33d e090 d03c 8620 c4be 30fd 74be
00000060: 2995 aabb 2b73 213e 737d 013d 6712 09be
00000070: aaf3 2e3e 8cfe 0e3d e481 bfbe 5969 d13d
00000080: d874 b6be 0f43 c1be 96f2 cbbe 98db f2bc
00000090: 89c8 8abe 2d39 d73e ce0e af3d 19e0 933e
000000a0: 0655 323e 8f97 c7be fe84 25be 6897 a73d
000000b0: d3bb 84be 7d5a 6cbe 26cf 1d3e fd2b a6bd
000000c0: 3c3d e9bd c9a3 943d 318d dabd 3262 083d
000000d0: a2a9 973e a572 0d3e f1a4 3e3e 5c7c 8b3e
000000e0: 317b 88be 8e98 42be 47c9 3ebe 8b58 633e
000000f0: 1fae c5be e0b6 c2bd 9dd5 78bd 0299 b1bd
00000100: 3e00 25bd cb4a 453d 84d0 5a3e 8681 853c
00000110: 025e efbd 4fe6 35be b518 083e 6a8a 0bbc
00000120: 443d 4d3d 4ecb 0bbd 4dcd 523e bb2b b23d
00000130: 5d7d 9d3e 8414 81be dbeb 9fbd 433f a43e
00000140: 30d9 cd3e b201 aa3d 9318 ce3e 70cc 323e
00000150: 9c8c 29bd f817 863e 5d0f dc3d 1f15 debe
00000160: 967f b23d b14b 84be 2df8 29be a8a3 873d
00000170: c436 acbe 4ac2 5d3e 8195 fe3e 0a62 46be
00000180: cfd9 df3e d001 d03e 4044 6b3e def9 ef3e
00000190: bbe5 47be 8629 a1bd 71f4 8f3e 3733 bdbe
000001a0: 9515 8b3e 5da1 bdbe f832 883e b98e cc3d
000001b0: 1323 b53e d000 123e 69c0 3cbe a863 743d
000001c0: 8683 f5bd 57ef 44be 8bf8 ad3e 0f58 aa3d
000001d0: f446 56be 8e76 863e 94e6 bebe 8469 2bbd
000001e0: d4d1 d6bd 946c 40bd af74 99be 289c 8bbd
000001f0: 2fa7 ba3e 1137 b43e d7eb 61be b06a c3bc
-0.09853591 -0.30542472 0.058758955 0.31272522 -0.30263513 0.17822513 0.26965165 0.26705688
-0.115316756 0.000103307204 0.010506051 -0.42779455 -0.33200327 0.17686883 0.40892297 0.4049162
-0.24764748 -0.22504392 0.23403622 -0.08169222 0.10321263 0.025459707 -0.38306063 -0.23924708
-0.0052057696 0.1576659 0.03161378 -0.13385926 0.17085138 0.034910724 -0.37403786 0.102251716
-0.3563602 -0.37746474 -0.39833516 -0.029645726 -0.2710612 0.4203581 0.08547746 0.2888191
0.17415246 -0.38982818 -0.16164014 0.08183175 -0.25924549 -0.23081394 0.15411052 -0.08113859
-0.11388633 0.07257802 -0.106714614 0.03329677 0.29621607 0.13813265 0.18617608 0.27243316
-0.26656488 -0.19003507 -0.18631469 0.22201745 -0.38609406 -0.09507537 -0.060750592 -0.08671762
-0.040283434 0.04816703 0.21368605 0.016297113 -0.116878524 -0.17763637 0.13290675 -0.008516887
0.050107256 -0.034129433 0.20586129 0.08699747 0.30759707 -0.25210965 -0.07808658 0.32079515
0.40204763 0.083011046 0.40253124 0.17460799 -0.04139386 0.26190162 0.10745118 -0.4337549
0.08715741 -0.25838998 -0.16598578 0.06623012 -0.33635533 0.21656147 0.49723437 -0.19373336
0.43720862 0.40626383 0.22975254 0.4687032 -0.19521229 -0.07869248 0.28116181 -0.36953136
0.27164903 -0.37037173 0.26601386 0.0998816 0.35378322 0.14258122 -0.18432774 0.059665352
-0.11987977 -0.19231926 0.33978686 0.08317577 -0.20925504 0.26262325 -0.37285292 -0.041848674
-0.1048924 -0.04697855 -0.29971835 -0.06816894 0.36455676 0.35198262 -0.22062622 -0.023854584

fc2.weight f4 [128, 128]
00000000: 09d2 52bd 5a41 f63b 3785 e93c e8d9 963d
00000010: 73e6 a53c 6b42 5b3d caf9 bb3b 00f8 43bd
00000020: f00b 2d3d 58ca 89bd 37c5 b3bd 5a84 993c
00000030: f525 e83c d3d9 3fbd 9e78 e4bc 116d a93c
00000040: e3e7 6a3c 47aa 9a3c bf4f 93bd b5d6 f8bc
00000050: e5aa bb3d 223d 573d 679c 04bd 6f7d 8abc
00000060: 1bd5 51bc e9bb a6bd 84ee 7dbd 43dd a2bd
00000070: e324 80bd 9cab 04bd 104f aabd 9d3a 62bd
00000080: 3f56 a2bd b5e5 9dbd 2a32 a6bd 5879 533c
00000090: bf06 45bd 5279 b4bd 73bb b0bd 400a 47bd
000000a0: 280d 74bd fea2 1ebd bd6b 5d3d 3b05 23bd
000000b0: 8828 8abc 62fe 63bd 87c2 b1bc 2814 76bd
000000c0: 063b b0bd 831e 4b3b 9074 423d 2863 f03c
000000d0: b6fe 353d 4f33 8a3d 6cde 7cbc 4a65 3a3c
000000e0: 1161 81bd abd6 ebbc 0791 5bbd f5a4 5d3d
000000f0: 475e b9bd 5704 1cbd 0862 2cbb 397c 84bd
00000100: 834f 043b 3420 df3c 8d99 7b3d 54e4 58bd
00000110: c335 4f3d 4633 f93b 8f19 693d 5491 a73d
00000120: 78d2 c9bc 0e6e 28bd 7235 a9bd 22ea 033d
00000130: f166 09bd 892b 773d 7543 a3bd ebd2 813d
00000140: c080 373d db45 a1bd d4c1 88bb 8f52 8f3d
00000150: 3063 54bd 3f3f 673d a247 fdbc aaa1 263d
00000160: 4290 893d c9a3 873c f142 2f3d 0d13 1dbd
00000170: e670 623d ff0a 9dbd 88b2 27bc c76b 963d
00000180: 9434 0e3d 2009 353d 41ca 83bc 7d87 0dbb
00000190: 2535 6d3d bc47 12bd ffca 5f3d d78b 96bb
000001a0: d764 f2bc 4d3b 36bd 6ce9 e1bc ded8 3abd
000001b0: 35cf 2a3c 4df0 aabd 2604 7ebc 4667 e5bc
000001c0: bb8f b7bd 1a0d 6a3c cdb0 0a3c 8af3 133c
000001d0: 7f1c 92bc 03f9 26bc 04cd aebd 1bd7 9c3d
000001e0: 32d6 e6bc 1d4b 9fbb 54d5 16bd a0f1 0d3d
000001f0: 6b07 95bc e75c 61bd c252 af3d e29d 3fbd
00000200: 312e bc3b 29f3 a6bd 5c36 5dbd a7cb 2abd
00000210: 6ca3 9abb 19e5 443d f3b4 c53c e219 23bd
00000220: f3aa 253d 640b e23c f008 34bd 3a4a 37bd
00000230: 4d7a a2bd fe87 e5bc 23e8 423d 5aa2 a23c
00000240: 0fc7 cd3d a3f8 f33c c610 02bd d7f9 ae3d
00000250: 4dfa 43bc 6d42 6dbd 33ae 00bd 94f1 f23c
00000260: 9d69 d03c 3f96 34bd 4205 72bd 2de6 afbd
00000270: 3f1e 5c3d bae4 d93d 377a c63c 5f76 89bc
00000280: ac95 a0bd adf8 6b3d a58f 16bd 33cf ad3d
00000290: 2598 f93c 5c8f b73d aaff dabb 31c1 7239
000002a0: 021b 7f3d edaa 983d 1e2b b0bc dd90 2e3d
000002b0: 76f2 45bd 747f 84bd bd59 e13b d804 8c3c
000002c0: 46ba 943c 0809 cb3b a0ff 4bbd 5570 b53d
000002d0: e930 b73d c0e0 18bd 12fc d6bc eaf9 d6bc
000002e0: 8ee3 b1bc 06f2 853d 08b8 bb3d 2399 b03d
000002f0: 652a 91bd e412 51bd edf0 963d 8482 be3d
00000300: 8070 803d 7762 de3d 2544 2c3d 26d2 ad3d
00000310: b3ab 3dbc 32cf 8fbc 7ef5 b0bd 1bd1 a63b
00000320: 497b e7bc 40a8 5a3d bcd8 9b3d 837a da3d
00000330: 2b9a bb3b 0096 853d 57ef 5d3b 5c9f 853d
00000340: b360 b73d 6657 e9bc e618 a53c db13 9fbc
00000350: 9c1d 89bb de6b 713d 6142 403d ebf6 c03d
00000360: 80ba b1bc b1a6 453d 544f f7bb ec38 0b3b
00000370: 8ab8 2abd 2562 91bd 15d5 8e3d 2603 d23c
00000380: ef93 093c af5a 3abb d107 843d acbe 893c
00000390: e6c9 673c 40a6 ae3d 25d3 7e3d 070b 3c3c
000003a0: ddb5 483c d975 103a 39d1 593d 17dd 25bd
000003b0: 4c2d c2bc 6e52 973d 224b 163d ec63 2bbd
000003c0: c132 1fbd 8e81 be3d 5897 47bc 2fce 933c
000003d0: c455 a5bb 4c6e 30bc 0b20 073b 9049 27bd
000003e0: f588 61bd cae7 623d 679b c5bb 6395 d33c
000003f0: f12d 42bc 2dd1 a03d 0d1d 19bd 649c dc3d
-0.051469836 0.0075151147 0.028505905 0.07365781 0.020251488 0.053530138 0.0057365643 -0.047843933
0.042247713 -0.06728047 -0.0877785 0.018739868 0.028338412 -0.046838593 -0.027889546 0.02068189
0.014337513 0.018880023 -0.07192945 -0.030375818 0.09163455 0.052548535 -0.03237572 -0.016905515
-0.012807156 -0.0814131 -0.061995044 -0.079523586 -0.062570356 -0.032390222 -0.08315861 -0.05523168
-0.079266064 -0.07709829 -0.08115037 0.012907349 -0.048102137 -0.088122025 -0.08629503 -0.04859376
-0.05958286 -0.03872966 0.054057825 -0.03979991 -0.01686503 -0.05566252 -0.021699203 -0.060077816
-0.08605008 0.0030993528 0.047474444 0.029344156 0.044432364 0.067480676 -0.015433889 0.011376688
-0.06317342 -0.028788885 -0.053605106 0.054112393 -0.09051185 -0.038090076 -0.0026303548 -0.06469006
0.0020188994 0.027237035 0.061425734 -0.052952126 0.05058838 0.007604989 0.05690914 0.08182016
-0.024636492 -0.04112058 -0.08262147 0.03220571 -0.03354544 0.060344253 -0.07971851 0.063390575
0.04480052 -0.07874652 -0.0041734967 0.06998169 -0.051852405 0.0564568 -0.030917946 0.04068152
0.06716968 0.016557591 0.04278845 -0.038348246 0.05528345 -0.07668113 -0.010235436 0.07344776
0.03471811 0.044198155 -0.016087653 -0.002159565 0.05791201 -0.035712942 0.05463695 -0.004594307
-0.0295891 -0.044490147 -0.027577125 -0.045616977 0.010425379 -0.08346615 -0.015503919 -0.028003346
-0.08962961 0.01428535 0.008465004 0.009030232 -0.017835854 -0.010191205 -0.085351974 0.076582156
-0.028178308 -0.004861249 -0.03682454 0.03465426 -0.018192014 -0.05502024 0.08560707 -0.04678143
0.005742811 -0.08151848 -0.05400692 -0.041698124 -0.0047191884 0.048070047 0.024134135 -0.039819606
0.040446233 0.027593322 -0.043953836 -0.044748522 -0.07933483 -0.028018948 0.047584664 0.019852806
0.10047733 0.029781645 -0.031754278 0.08543747 -0.011961532 -0.057924677 -0.03141613 0.029656209
0.025440985 -0.0440886 -0.059087045 -0.085888244 0.053739782 0.10639329 0.024228198 -0.016780077
-0.07841048 0.057610203 -0.036758084 0.08486786 0.030468056 0.089628905 -0.0066833096 0.00023150888
0.062281616 0.074544765 -0.021504935 0.04261862 -0.048326932 -0.06469622 0.0068771527 0.017092153
0.018155228 0.006196145 -0.04980433 0.08859316 0.08944876 -0.037323713 -0.026243243 -0.026242215
-0.021714952 0.06540303 0.091659606 0.086229585 -0.07088164 -0.051043406 0.07370172 0.09302238
0.06271458 0.108586244 0.042057175 0.08487348 -0.011576581 -0.017554853 -0.08640574 0.0050908453
-0.02825703 0.053383112 0.07609698 0.106678985 0.0057251654 0.06522751 0.0033864581 0.06524536
0.08953991 -0.028484058 0.020153474 -0.019418648 -0.004184438 0.05894076 0.046938304 0.09422096
-0.021695375 0.048254672 -0.0075472984 0.0021243645 -0.041679896 -0.07098798 0.06974236 0.025636267
0.0083970865 -0.00284354 0.06446803 0.016814552 0.014147257 0.085278034 0.062213082 0.0114772385
0.012250391 0.0005510725 0.053178046 -0.04049405 -0.02370324 0.07388769 0.036692746 -0.04184334
-0.038866762 0.09302054 -0.012182079 0.018042652 -0.0050456244 -0.010768484 0.0020618464 -0.04084164
-0.055062253 0.055396833 -0.0060304883 0.02582807 -0.011851774 0.07852397 -0.03738122 0.10772017

fc2.bias f4 [128]
00000000: 396b ca3c 29d4 6d3d d071 293d 60c4 953d
00000010: 55d1 ab3b dcb1 73bd 2e2e 70bd 2df0 92bd
00000020: 8c69 a43d 3843 45bd 247c 8e3d ef57 833d
00000030: 62a5 933c 6b4c a63b c72e 18bd 6fae 483d
00000040: a5b8 453d 181f a6bc 5a1b e13d da72 00bd
00000050: 3757 a2bb 59eb bbbc 9b30 87bd bb46 8e3d
00000060: be15 a93d e8a2 713d e97b 663d c459 e7bd
00000070: 0c77 5dbd a082 9f3d acdb 1cbd 350a 353c
00000080: af15 82bb 425f 203d 48ae 80bd 5e29 243d
00000090: 1fc6 86bd 0aed c4bc 38e9 6cbd 9e95 b4bc
000000a0: 6227 863d 3e89 ad3d 885d 4c3d 93f9 20bd
000000b0: 76b6 8e3c 297e 21bd d950 583d ccda 6bbd
000000c0: 3777 bcbd a0b2 503c a256 20bd 0b4c 83bd
000000d0: d5b7 483d 7628 20bd 1ec0 83bd ec76 c93d
000000e0: 012d 7cbd 3191 ef3c b4af 04bd 9757 a6bd
000000f0: c2a4 e1bc 4463 813d c184 133d 6c45 1bbd
00000100: 3c3e 9dbc f373 623d 61dc 46bd 3ef2 3bba
00000110: 6e9b 84bd 6937 b0bd 6b30 96bd a7da 92bd
00000120: 504a 513c a883 283c 781c 98bd cd59 ae3d
00000130: 4b7b 5abc 9a06 243d 7130 f03c 011e 79bc
00000140: 6867 c53c fd07 b1bd 2bfa 5b3d 6803 2c3d
00000150: 37a9 883d d09c 9c3d ba18 99bc a653 8fbc
00000160: 55b0 ddbc a869 85bc 8730 943d e0d7 c2bc
00000170: cbf1 c93d bd89 5cbd 17f5 b4bd 7994 4ebc
00000180: a2c1 233d e3f9 cebd cfdb 99bd 68f3 1c3d
00000190: 4a01 be3d c8c1 39bd e0f4 04bd 5b04 61bd
000001a0: 1792 033d f500 7a3d 27df 103d 4b1c 203c
000001b0: 6d02 793c 1258 84bc a67f 5e3d f944 35bd
000001c0: 53bb d9bc d2e8 9ebd 38d8 0e3d 7932 1f3d
000001d0: 6968 023c 5244 b53c c09a 84bd ec52 9d3c
000001e0: d271 f4bc 5c01 1a3d 41e1 563d ca1a 053c
000001f0: a85f c93d d2c9 5bbd ef29 38bd 6249 ea3b
0.02470933 0.05806366 0.041368306 0.07312846 0.00524346 -0.05949579 -0.05863779 -0.07174716
0.08027944 -0.048159808 0.06957272 0.064132564 0.018023197 0.0050750277 -0.037153985 0.048994478
0.048271794 -0.020278499 0.10991545 -0.03135953 -0.0049542445 -0.022939371 -0.06601068 0.069470845
0.082561 0.05899325 0.056270514 -0.11296418 -0.05406861 0.077885866 -0.038295433 0.011049797
-0.00396987 0.039153345 -0.062832415 0.040078513 -0.06580757 -0.02403881 -0.057839602 -0.022044
0.065504804 0.084734425 0.049893886 -0.039300513 0.017420989 -0.039426956 0.052811477 -0.057581708
-0.09202426 0.0127379 -0.03914512 -0.064109884 0.04900344 -0.039101087 -0.06433128 0.09837136
-0.061566357 0.029244037 -0.032394126 -0.08122175 -0.027544383 0.063177615 0.036015276 -0.037908003
-0.019194715 0.05528636 -0.048550013 -0.0007169581 -0.06474958 -0.08604319 -0.07333454 -0.07170611
0.012774065 0.010285296 -0.07427305 0.08513222 -0.013335059 0.04004536 0.029319974 -0.015204907
0.02409716 -0.08644102 0.053705376 0.041995436 0.066729 0.07647097 -0.018688548 -0.017495941
-0.02706162 -0.016285732 0.07235818 -0.023784578 0.098605715 -0.053842295 -0.0883581 -0.012608641
0.039979585 -0.10106256 -0.07512628 0.038318068 0.092775896 -0.04535082 -0.032460093 -0.054935794
0.032121744 0.06103607 0.035369065 0.009772371 0.015198332 -0.016155276 0.054320954 -0.04425523
-0.026578581 -0.07759251 0.03487417 0.038866494 0.007959464 0.022127304 -0.06474829 0.01920458
-0.02983943 0.037598953 0.052460913 0.008124063 0.09832698 -0.053659268 -0.044961866 0.007149861

fc3.weight f4 [2, 128]
00000000: 1d9f 87bd 0d58 d4bd 388e 86ba 5155 653d
00000010: 6295 a6bc 81ff 943b 0748 74bd 3a5d 9abd
00000020: 595e 21bd 11ce f73c e5fa 9c3d 4aa0 0abe
00000030: a567 61bd 94d1 24be b1f0 af3d 769a 863c
00000040: d7ff 843d 2dca 023d b14b e7bc b463 c93c
00000050: 4b4d 97bc 658e dfb8 0992 513d 1b14 a0bd
00000060: 15d7 563c cd5f cfbc 8771 553c 361c 85bc
00000070: 5e3e 1e3c 7ce4 96bd 9547 9d3d 37f0 213d
00000080: 3746 853d ef83 943c 31d6 1fbc a8ad bc3b
00000090: 115c 403d e2df 15be c18c c1bb a333 e3bd
000000a0: 81db cbbc 35d8 3bbe 5970 c5bd cf0b 04be
000000b0: 1cd4 8fba a0d7 833d e9f0 27be fc62 993d
000000c0: e1cd 1b3b 9dac 0e3d aa07 513d 40eb a6bd
000000d0: 5887 0f3d 3d29 963d 3493 c6bb 734f b8bd
000000e0: c2a7 76bc b19b 3b3d afb6 8a3d 3374 473d
000000f0: 2f69 883d 9481 cfbd 0c74 b13c 66c5 bdbd
00000100: 08f1 1bbe 2ed4 96bd aae6 16bd a141 ed3c
00000110: 23d3 98bc b906 bebc e2b1 823d 6347 c9bd
00000120: aa36 9fbd 7d1b afbd ec59 943d c891 cebd
00000130: c954 c6bc da49 4d3d 2500 debd e8fc efbc
00000140: 359f 34bc 6561 91bd 8951 953d b96f c2bd
00000150: 3673 97bd 55ac d53c ac2a 3e3c d926 15bd
00000160: e68f 363d 22a8 adbd c83d 30be 6a66 4cbe
00000170: 54d9 23bd 69ae 7dbd 6c31 a03d 6ea9 46bd
00000180: 69f4 9bba e7c5 20bd 6809 323d 8406 98bd
00000190: 668e 10be fc65 7b3d 02dd 723d 3ed1 33bd
000001a0: 4e1b 4c3c fd1d 7a3d b88f 6dbd d14d cabd
000001b0: ac3f 2dbd eef1 f8bd 2749 b33d 0644 963d
000001c0: 2893 1abc 7acf 003c 681b 82bc 526c 8dbd
000001d0: 43c1 77bd 94a0 23bd f803 80bc e86c 50be
000001e0: 647b 72bd 8699 80bd cd75 bfbd ae6e 4abd
000001f0: aea3 85bb 55dd 8b3d b7b7 86bd daac 8f3d
00000200: 4167 043d 0aa9 ddbd e3ab 0b3d d5db ccbc
00000210: 6fc6 8e3d d560 a1bd a990 94bc b655 98bd
00000220: 71ef ae3d 14ae 633d d0b9 9e3d e8d4 0fbe
00000230: 9f95 0cbc af18 ffbd b80b 68bd 4e28 a53d
00000240: 98df 2bbd d0c2 67bc d541 f2bd 88ce b63c
00000250: a14a a23d 299a a53d 31d6 563c 6936 4b3d
00000260: 14b2 1d3d d3a3 553c 4e17 83bd 03b2 68bb
00000270: dd39 58bd 88b6 9ebd 3501 43bc 07e3 abbd
00000280: b66e ae3b 95ce cf3a 3d81 85bd f300 943b
00000290: 7c72 8b3d 4efe d5bd b76f 4c3d 7e98 653d
000002a0: ce54 a2bd 3111 43be 2986 173d 617b febc
000002b0: 4e09 acbc 892f 27bd 6cff 00be 48b5 74bc
000002c0: b10c 813d 723d 253d f958 b33b cd54 0f3d
000002d0: 09dc 163d a076 bd3d 478a e4bd 039a 89bd
000002e0: 9765 e7bd 18ff a23d 7038 a53d e303 d3bb
000002f0: 80f5 1d3c 2c96 0abe 64de ae3d 9aba a5bd
00000300: 19c8 10be cbdb cdbc 3167 8f3c 7548 4cbd
00000310: 7113 3abd 3e15 863d af1c ab3d dd21 ba3c
00000320: 49be 3ebd 6d28 b73c 1cc0 863d bc8f f4bd
00000330: f971 46bd c47a 8939 1fc5 c9bd 871f a43d
00000340: 5f0c 7e3c b4dd 453d a3ab 2abd ef57 2e3d
00000350: fe29 333d b903 55bb 500a 583d ad70 043d
00000360: b59c f0bb 8d34 b4bc bf8f 55be dba9 2fbe
00000370: 8c82 88bd 518a 87bd b8e1 83bd b665 1c3d
00000380: 1794 c53d 7bac 85bc 687f 933d cf49 60bd
00000390: 4ace 31be d609 efbc bdb1 cc3b 257a afbd
000003a0: 6b51 e13c 2f2c fe3c e165 afbc de9e 403d
000003b0: a75a eabc c01b 3ebe 4280 95bd 6302 663d
000003c0: 8bf0 983d e001 67bd 1696 023d 23ae a8bd
000003d0: b271 a2bd 5329 e5bb c4c6 153d 1034 6abe
000003e0: 67d0 1f3c af57 213d 6fac 08bd 0884 003d
000003f0: c388 c3bd ef6b 42bd 8fe1 96bd 62c7 a9b8
-0.06622145 -0.10368357 -0.0010265773 0.055989567 -0.020334903 0.00454706 -0.059639003 -0.07537313
-0.039396618 0.030249627 0.07665042 -0.13537708 -0.055030484 -0.16095573 0.0859083 0.016431075
0.0649411 0.03193109 -0.028234335 0.024583675 -0.018469473 -0.00010659992 0.05116466 -0.07816335
0.013112803 -0.025314236 0.013027555 -0.016248804 0.009658424 -0.07367799 0.07679669 0.039535727
0.06507533 0.018129317 -0.009755657 0.005758006 0.0469628 -0.14636186 -0.0059066718 -0.11093833
-0.024884941 -0.18344195 -0.09640569 -0.1289513 -0.0010973248 0.064376116 -0.16400494 0.07489583
0.0023773836 0.034832586 0.0510327 -0.08150339 0.035041183 0.07332084 -0.0060600284 -0.08999529
-0.015054645 0.045802776 0.067731254 0.0486948 0.06660687 -0.10132137 0.02166178 -0.092661664
-0.15228665 -0.07364689 -0.036841072 0.028961958 -0.018655365 -0.023196565 0.06381585 -0.09828069
-0.07774098 -0.08550165 0.07243714 -0.10086399 -0.02421035 0.05011926 -0.10839871 -0.0292954
-0.011024286 -0.07098655 0.07290942 -0.09493966 -0.073950216 0.02608315 0.011606853 -0.036414
0.044570826 -0.084793344 -0.17211068 -0.19960943 -0.040002182 -0.06193391 0.078219265 -0.048501424
-0.0011898401 -0.039251234 0.043466 -0.07423118 -0.1411682 0.061376557 0.0592928 -0.04390072
0.012457682 0.061063755 -0.05799839 -0.098781236 -0.04229705 -0.121555194 0.08754187 0.07337193
-0.009434499 0.007861966 -0.015882209 -0.06905426 -0.060487043 -0.03994806 -0.015626892 -0.20354044
-0.059199706 -0.06279282 -0.093486406 -0.04942196 -0.00407835 0.06829325 -0.065780096 0.07015391
0.032325033 -0.10823257 0.03409947 -0.025007168 0.06971442 -0.07879797 -0.018135386 -0.07438223
0.085417636 0.055585936 0.07750285 -0.14046061 -0.008580594 -0.1245588 -0.0566518 0.08064328
-0.041961282 -0.014145568 -0.11828963 0.022315279 0.079243906 0.08086044 0.013112591 0.049612436
0.038499907 0.013039547 -0.064009294 -0.0035506494 -0.052789558 -0.07749659 -0.011902143 -0.083929114
0.0053232564 0.0015854413 -0.06518791 0.0045167147 0.068089455 -0.104488954 0.049911227 0.05605363
-0.079263315 -0.19049527 0.03699318 -0.031064691 -0.02100053 -0.040816817 -0.12597436 -0.014935799
0.06301249 0.040341802 0.005473253 0.03499298 0.036830936 0.092511415 -0.11159187 -0.067188285
-0.112986736 0.079588115 0.08067405 -0.0064396723 0.009641051 -0.13533849 0.085385114 -0.08092232
-0.14138831 -0.02512922 0.01750526 -0.049873788 -0.045428697 0.065470204 0.0835508 0.022721225
-0.04656819 0.022358144 0.06579611 -0.11941478 -0.048448537 0.00026222144 -0.09852051 0.08013826
0.015505879 0.048307136 -0.04166759 0.04256433 0.04374122 -0.003250344 0.05274421 0.03233402
-0.0073428997 -0.021997714 -0.20855616 -0.17154638 -0.06665525 -0.06618179 -0.06439537 0.038182937
0.096473865 -0.016317597 0.07202035 -0.05475789 -0.1736385 -0.029179495 0.006246774 -0.08568219
0.027504643 0.031026928 -0.021410884 0.047026508 -0.02860768 -0.18565273 -0.07299854 0.05615462
0.07467755 -0.056398273 0.031881414 -0.08236339 -0.07931842 -0.0069934516 0.03656651 -0.22871423
0.009754277 0.039390262 -0.03336757 0.031375915 -0.095475696 -0.047466215 -0.07367241 -8.095686e-05

fc3.bias f4 [2]
00000000: da13 e7bd ce1f 81bd
-0.11283083 -0.063048944

fc1.weight f4 [128, 84]
00000000: 41c2 babf 7fd4 9fbd a53c 063d a1b8 ea3d
00000010: 665f 113d 3b24 563e 3e8f 523e c797 9c3d
00000020: acf1 543e 5a81 b03d 6800 26bf 11f9 4c3b
00000030: bf4b 1fbd b4fa 5f3e 7f5d 5e3e de84 b6bd
00000040: 4ee3 20be 7bc8 5bbc 24e7 0f3d 0451 f33c
00000050: 960b 073c 2009 8abd 7c24 0abe 5ba4 ad3d
00000060: 042f c33c 860d a8be 7ada 963d 70b0 d73e
00000070: 25e7 f43b d2b8 943c 0026 ccbc 034f b9be
00000080: 1205 af3e a2e9 8ebe df8a 3c3e 1208 03bf
00000090: 3bd7 74be e800 efbd e5cc 75be 5419 debc
000000a0: dd3b 5fbf 149c 153e 988e c5bc 12e1 903e
000000b0: c29c 383c 2cbb b03e db34 a73e 355c 863e
000000c0: 86cc 4c3e ec54 b7bd f5e9 0e3e 7e23 91be
000000d0: 73e3 e23d 11ee a5be a240 bb3c 2a93 b1bd
000000e0: 1a10 92be 3aa2 0a3e 0d1d 00bd 99a8 95bc
000000f0: b67a 29bd 9bef fbbd 856f c2b8 9d3c 93be
00000100: d235 1bbe 5f8c 3ebe 4e87 a33b 21ce 18be
00000110: 9420 9f3b 3d4a 033e 0d15 a3bc ec9d e43d
00000120: 0769 513d d2c0 a33c 49ea cfbd a54d 643d
00000130: 9ac3 25be bcf8 21bf 05b2 4f3d 5fb3 af3d
00000140: e424 7bbb 2eda fe3c 91c3 cb3d a818 d03d
00000150: 5e7b ffbc 1db8 ab3d ecca 4a3d 835d f53c
00000160: 9b69 efbc 96d6 85bd eb47 f7bd 9de2 9dbd
00000170: e325 863d c192 d5bd af61 85bd b13d bdbc
00000180: 0e65 61bd 8789 053b a9a0 1eba 1531 c0bd
00000190: cf07 b1bd 12dc 213c d147 79bd f557 233d
000001a0: bcf1 35bd 2fde e4ba 6636 fbbd ad0d 06be
000001b0: ce22 593d 241d ebbd 8e56 c4bd 3394 883d
000001c0: 35f7 433d 2b04 8d3d 7055 843b 88d4 a2bd
000001d0: d326 353d cbcc 5abc 99cd 0fbe 8364 83bd
000001e0: 092b 623d 8579 233d 6fe3 6b3d 2694 c63d
000001f0: e88a dbba 01ed a1bc 40ab 08bd 4b70 08be
00000200: 96be ebbc d148 fb3c 31a3 18be 0400 af3c
00000210: 07ab 443c 5bf2 34bd 59b7 bdbd 1a2d 88bd
00000220: 7b77 d9bc b23a cbbc 9cb5 68bd 64ee df3c
00000230: 7d5e 0fbd d108 b4bc ab4e 2f3d 96d5 2cbd
00000240: ad86 673d f797 6d3d 9c5a 89bd 6c20 3dbd
00000250: 357d cd3d c342 9c3c 92bd ccbd d7b4 7d3c
00000260: 6612 b13c cf0d 113d cea0 28bd 25bc 073d
00000270: e021 b03d 89be 8ebd 36a0 d03c ff5c 5cbd
00000280: 1379 b1bd 6022 30bd 2388 af3d e76f b63b
00000290: 5864 523d f6d5 6dbd d984 a4bd 2f23 923d
000002a0: 8513 183d 3322 8bbd be5b b2bd 40db 77bc
000002b0: 0fd4 72bd 5a32 8cbe 16ca 5fbe a6c7 6ebc
000002c0: d1f9 b1bd 760b 92bd 2669 2cbe c2d0 b0be
000002d0: 5ea2 86bd d6e1 42be 79ae 293e b6e8 833c
000002e0: 134c 2dbb 5775 203d e859 0f3d ec11 cb3d
000002f0: 7b81 87be fad3 bbbb 3395 24be b97d 9bbc
00000300: 9f3c d93d 1f59 1e3e 7e6e 83be 0458 36bd
00000310: d8db 97bd 9eea 9e3d 4e72 dbbc e189 5abe
00000320: 98d2 c4bd 7c62 fc3c 93ee 033e f7f7 b5be
00000330: 7741 febe 9bea 03be 3df4 acbe 465e 7b3d
00000340: 86a8 74be 9c4a 323e da74 aabd e132 7f3e
00000350: 5215 b83d 77c3 94be 1aa3 99be bbd2 c0bc
00000360: 931f 82be 55dc 5e3d 7643 623e 5dc5 4abd
00000370: 732c 103e d786 033c 10d5 55bd 54b7 6ebd
00000380: c327 f7be 9dda 19be 9cbf c4be b63b 78bd
00000390: 5f1f edbd 693c 673d dcd3 21ba 7802 aa3c
000003a0: 24ff f0bc 03e0 e9bd 063b 8ebd 7344 30be
000003b0: 3b8b 56be aec7 0bbd a055 c83e c1c7 07be
000003c0: 3ea1 e03b 01eb 913c 9fde 1c3d ead6 c93d
000003d0: 78ac df3c 2da6 dabe a141 92bd ee21 1abc
000003e0: 0be0 0d3d b084 57bd ac13 eabd f7fe e63c
000003f0: 5929 9bbd 5d78 9cbe 9f67 06bd ee0e 7cbe
-1.4590532 -0.07804202 0.03277268 0.114609964 0.03549137 0.20912258 0.20562455 0.07646137
0.20795316 0.08618422 -0.6484437 0.0031276385 -0.038890596 0.2187298 0.21715353 -0.08912061
-0.1571171 -0.0134144975 0.035132542 0.029701717 0.008242508 -0.06740022 -0.1349048 0.08478614
0.02382613 -0.32822818 0.0736589 0.421268 0.0074738436 0.018154535 -0.024920464 -0.36193094
0.34183556 -0.27912623 0.1841235 -0.5118419 -0.23910229 -0.11670095 -0.24003942 -0.027111687
-0.8720072 0.1461032 -0.024115846 0.28296715 0.011267843 0.345178 0.32657513 0.26242223
0.19999894 -0.089517444 0.13956435 -0.2834739 0.11078539 -0.32408193 0.022857968 -0.086706474
-0.2852791 0.13538447 -0.031277705 -0.01826887 -0.041376792 -0.123015605 -9.271413e-05 -0.28757182
-0.1515725 -0.18608235 0.004990495 -0.14922382 0.0048561785 0.12821288 -0.019907499 0.11162934
0.051125553 0.019989405 -0.10152108 0.05573811 -0.16187897 -0.63270164 0.050706882 0.08579134
-0.003832155 0.031109896 0.09949411 0.10160953 -0.031186756 0.08384726 0.049509928 0.029951816
-0.029225161 -0.0653507 -0.12074264 -0.07709239 0.06550195 -0.10428382 -0.06512772 -0.023100706
-0.055028014 0.0020376162 -0.0006051162 -0.09384362 -0.086440675 0.009879129 -0.060859505 0.039878804
-0.04441999 -0.0017461235 -0.12266235 -0.13091154 0.053011708 -0.114801675 -0.095868215 0.06668892
0.047843177 0.068855606 0.0040385053 -0.07950693 0.04422648 -0.0133544905 -0.14043273 -0.064156555
0.055216823 0.039910812 0.057589944 0.09696226 -0.0016749771 -0.019766333 -0.03336644 -0.13324086
-0.028777402 0.03067437 -0.14906003 0.021362312 0.012003667 -0.04417644 -0.092634864 -0.066492274
-0.02654623 -0.024808262 -0.05681382 0.027335353 -0.03500222 -0.02197686 0.042799633 -0.04219588
0.05652492 0.058006253 -0.067067355 -0.046173498 0.10033647 0.019074803 -0.09997095 0.01548501
0.021615218 0.03541356 -0.04116898 0.033138413 0.08600211 -0.069699354 0.02546702 -0.053799625
-0.08665671 -0.043001533 0.08570888 0.005567539 0.051365227 -0.058065377 -0.08033151 0.07135617
0.03712799 -0.06793632 -0.08708905 -0.015127957 -0.059284266 -0.27382165 -0.21854433 -0.014573967
-0.08690227 -0.07131092 -0.16836986 -0.3453427 -0.06573938 -0.19031462 0.16570462 0.016102176
-0.002644305 0.039174404 0.03499785 0.09915528 -0.26465973 -0.0057320567 -0.1607254 -0.018980848
0.10607266 0.15463684 -0.25670236 -0.044517532 -0.07414979 0.077595934 -0.026787903 -0.21341659
-0.0961048 0.03080868 0.12883978 -0.35540745 -0.4965932 -0.12882464 -0.3378009 0.061369203
-0.23892412 0.17411274 -0.08323069 0.24921753 0.089884415 -0.29055378 -0.3000725 -0.023537984
-0.25414714 0.054409344 0.22096047 -0.049504627 0.14079456 0.008027754 -0.052205145 -0.058280304
-0.48272523 -0.150248 -0.38427436 -0.06060382 -0.11578249 0.056454096 -0.0006173232 0.02075313
-0.029418536 -0.1141968 -0.069448516 -0.17213611 -0.2095155 -0.034125976 0.39127827 -0.13259794
0.006855159 0.017812254 0.038298246 0.09855445 0.02730392 -0.42704907 -0.07141424 -0.0094075035
0.034637492 -0.052616775 -0.11429533 0.028197749 -0.07576246 -0.3056058 -0.032813665 -0.2461507

fc1.bias f4 [128]
00000000: 0c55 24bc df56 05be 1bc9 22bc f6e2 8cbd
00000010: 7d34 d2bc 66be d2bd e87e 11bd 6c88 c9bd
00000020: 9587 b23d 3f06 263e 804b 633d 1c14 a3bd
00000030: d216 22bd 63fd 763d 10fb 7ebd 88bb fd3c
00000040: a20c 7c3d 1c81 c73d 2229 273d 2108 d1bb
00000050: beed fabd 0dd6 b6bd b7f7 413d cd97 12be
00000060: cdeb 58bd 472e dc3c 683e 1c3c a4bd 9cbb
00000070: cd10 03bc 6901 fbbd 67f0 bdbd fd93 e4bb
00000080: 1050 07bd 5505 853d de06 b5bc 37d2 993c
00000090: a3cd f1bd 6726 7e3d dcbc cabb e855 963d
000000a0: 261d 0abd 7c8d d23c fecb 9cbd 419a ccbd
000000b0: d8be 89bd 7073 703d 18af 99bd a4ec 18bd
000000c0: 42c2 4a3d 03bc 5bbd 3e7c 803d 85a8 bf3d
000000d0: 0850 fe3c 74fd f13c ad52 0f3e 24ea a7bd
000000e0: 7baf be3d f6b2 23be 0ae5 c8bd a0f6 88bd
000000f0: 8b30 8dbd 0230 863d 4c05 353d 8be9 ddbd
00000100: b44b be3c d50c 9ebc 342b dfbd 98e1 3e3d
00000110: 8908 babd 101f babd 61be fdbd 0fc5 423d
00000120: 1801 8ebd 198e 41bd 5243 ba3d 0e50 413e
00000130: a525 02be 9388 edbd 32db a3bd 156f 0ebe
00000140: 0c74 7e3d f514 68bd 89f8 813d ccad 16be
00000150: c686 2abd acb1 423d de1f aabd c1f6 09bd
00000160: cb74 883d 82c0 b8bc f13f 0d3d 0b42 bcbd
00000170: 94ef a73d 801c cebd ea70 c2bd df07 123d
00000180: 0572 dcbd 06ef ebba 5335 99bd c0f0 7bbd
00000190: 1ba2 a1bd 8723 4bbc aa1f 843c 06cd 6b3d
000001a0: 4302 fe3e dd59 6dbd 05a2 983c 9319 fabc
000001b0: 9435 4a3e 7ba8 133c 9714 873d 740d 773d
000001c0: 80c6 d8bd 3116 09be e175 7bbb 96ec f5bd
000001d0: e400 3f3c bed8 61be 1c44 203c 40ad 413c
000001e0: 99e7 553a f3fd 6b3d 7322 8ebd e8de fcbd
000001f0: fe71 eebc 615d 983e 94ed d4bc 34b0 77be
-0.010030042 -0.1302142 -0.009935643 -0.06879227 -0.025659794 -0.10290222 -0.035521418 -0.098404735
0.087172665 0.1621332 0.055491924 -0.0796282 -0.039572544 0.060300242 -0.06225115 0.03097321
0.061535485 0.097414225 0.04081071 -0.006379143 -0.12252377 -0.08927546 0.04735538 -0.1431572
-0.052959252 0.026877536 0.009536363 -0.004783349 -0.007999611 -0.12256128 -0.09274369 -0.0069756494
-0.033035338 0.06495158 -0.022098001 0.018776996 -0.118068 0.062048342 -0.0061870646 0.07340604
-0.033719204 0.02570223 -0.07656096 -0.09990359 -0.06725854 0.05870384 -0.075040996 -0.037335053
0.049501665 -0.0536461 0.06273697 0.093583144 0.031044021 0.029539801 0.13996382 -0.08198956
0.09310814 -0.15986237 -0.09809311 -0.06687665 -0.068940245 0.065521255 0.044194505 -0.108355604
0.023229457 -0.019293228 -0.10896912 0.04660186 -0.09083659 -0.09087956 -0.123898275 0.04755121
-0.06933802 -0.047254656 0.090948716 0.18878195 -0.12709673 -0.11598315 -0.080007926 -0.13909562
0.06212239 -0.05666061 0.063462324 -0.14714736 -0.041632436 0.047532722 -0.083068594 -0.03368259
0.066629015 -0.022552732 0.034484807 -0.09192284 0.08199993 -0.1006403 -0.09494193 0.035652038
-0.10763935 -0.0018000312 -0.07480874 -0.061508894 -0.07892247 -0.012398607 0.01612838 0.057568572
0.496111 -0.05794703 0.018631944 -0.030529773 0.19747001 0.009012337 0.06595724 0.060315564
-0.10584736 -0.13387372 -0.0038369822 -0.12008016 0.011657927 -0.22055337 0.009781864 0.011821091
0.0008159816 0.05761523 -0.069401644 -0.123472035 -0.02910709 0.29758742 -0.025992192 -0.2418831

fc2.weight f4 [128, 128]
00000000: 424c 88bd c187 8b3c 6477 debd 1006 56bd
00000010: 4747 2abd 4914 183d 96b1 503c 5ec6 a6bd
00000020: 3e7a 5fbc 3008 41bd c730 a23b 73f0 37bd
00000030: 5008 eb3c 5453 c63c 3f3b 833d 1b70 42bd
00000040: 7e80 703d 5ef7 4b3c dc56 e9bd baa4 0f3a
00000050: 4ece 923b a1a9 2a3d f126 43bb 0ded 4e3d
00000060: b96b b3bd 1396 fdbd e3d3 9dbc b6c3 a5bc
00000070: 46f5 eebc c617 a23d d150 963d 046a 08bc
00000080: 5a43 57bd fcde 4ebc d78f b13d b8c8 2f3d
00000090: c96f b4bd 3745 8d3d 0e51 a3bd 2ae7 163d
000000a0: 6f51 73bc 9f58 4b3d d0c3 b6bc e555 90bd
000000b0: b7c7 5ebd 7c11 3c3a 2062 2c3d 0e52 f2b8
000000c0: 6d94 a43d 0e49 95bd 4c6b 3a3d 2863 29bd
000000d0: cb0e 4e3d c421 8d3d ef1a 173d b0cd 05bd
000000e0: f9c1 a33c 9e91 9dbd aedd 83bd 2176 8bbc
000000f0: 5449 b4bd c16b 6ebd 4fcb 86bd c09d ecbc
00000100: f9c7 baba beff 98bd 43d0 163d 3dff 58bd
00000110: 2136 0f3d 2763 323d 6cee 783c f8f1 d1bc
00000120: 0020 9fbb 0a9a 8f3d e494 07bd 5012 62bc
00000130: ad1c 95bd 3a62 8a3d fc24 a03d 1a48 443d
00000140: 72ab 663d 37d9 8bbd fc40 3bbc 34af df3c
00000150: 89b7 6ebd cefa 973c 09a5 9cbd 65af 293d
00000160: eec0 8cbd 799a 80bd 418c e83a 0698 4ebd
00000170: cc4b a13d 53c5 68bd 0f35 693c f3e0 84bd
00000180: 05b3 90bd a2d3 333c f321 a7bd 8f50 9a3d
00000190: 2507 953d 7bcd a0bd 491b a9bb 1cac aa3b
000001a0: 3b0a c7bc 51c8 b7bd 7992 2c3d 110e adbc
000001b0: 58ae b7bd 1960 18bd 4c90 71bd 5caa a93d
000001c0: bb44 9bbd 3d59 dbbd 3c0d 933d cf6b aebd
000001d0: 8c76 cfbc 2103 2fbd 1bb1 12bd 3313 56b9
000001e0: fd6b 9e3d dd8e b43d ca62 ea3c f4c8 6d3d
000001f0: 1e71 abbd 8521 82bc d9f5 a8bc 4b35 81bd
00000200: e7a0 dcbd 7b94 15bd 875e 003d e0f1 093c
00000210: 3304 b4bd 1a2b babc 5bd7 143d f977 323a
00000220: 77b8 ec3b 038b e63c eb99 0dbd 473c af3d
00000230: b9b8 63bd 7ba9 613d d40f 81bc 8cd5 3b3d
00000240: 9d9b 9f3c 1a26 11bd 0fc1 6c3d 886e 663a
00000250: 1fb3 a1bd 6c2e 3e3c b4e1 623d b474 51bd
00000260: bb5a 89bd ce91 293d 9bde 933d 5595 a03c
00000270: 88dd ee3c 51d6 5c3d 69a8 0ab9 765d 953d
00000280: c991 52bd 5d3a 5c3d 122a 6cbd a304 c0bd
00000290: 84ac 6ebc b523 ae3d 17d3 783d ce48 0cbd
000002a0: 51b0 41bd 8da6 6f3d 1ec4 c53c b86b b7bd
000002b0: 3608 e13c a288 aabd fd55 593d 8ffe 77bd
000002c0: 3fd6 4bbd d658 4bbd 133d e03c 6df7 c6bd
000002d0: f20a b3bd 03c1 a13c 3cbf 66bb 3adb cabc
000002e0: 0d38 58bc 1766 49bb 1bf9 0fbd 3a53 b23d
000002f0: 659f 2b3b b21c 91bc 524e 6a3d 5691 b33d
00000300: 349c 073d 6992 c4bd e476 ac3d 6654 5c3b
00000310: 4e3e 9c3d 7e7f 473c c4c3 1d3d 5fc1 073d
00000320: e557 2f3d 376e 473d 910e 2abd 8b6d 623d
00000330: 561c 96bd 8c5f 32bd 5bd7 84bd 17fc 9cbd
00000340: 17c4 f0bc 2644 dcbc f222 903d 03b9 66bd
00000350: 86d2 ebbc 1ef7 b8bc cdc7 7a3c cca3 6fbd
00000360: e96e 77bd 1bcd 5cbc 06f3 48bd 2a08 0b3c
00000370: 4d7c 2e3d 214a 0c3d d0b0 0c3d 2839 613d
00000380: a09a 673d 3b57 4c3b 49b0 a53d 23f7 efbc
00000390: 33ad 093d d8fa 6cbd 1adc b23d 9e22 dcbd
000003a0: 891a 87bd eada 1abd dea1 d13b dbad 3e3d
000003b0: e1af c7bd 8c28 853c 733b b2bd a23a 143d
000003c0: ef5d 423c d967 9fbd 8b0a b2bc a0d5 64bd
000003d0: 73c6 3e3d f243 a23b a9c5 65bd 679d 003c
000003e0: 40a9 abbd 2deb 803d a5ca e3bc 4c08 70bc
000003f0: 1b94 50bc 0313 5abd d61f 713d 71c7 aa3b
-0.0665517 0.017032506 -0.10862616 -0.052251875 -0.04157188 0.03712872 0.012737652 -0.08143304
-0.013639985 -0.04712695 0.0049496624 -0.044907045 0.028690487 0.024209656 0.06407785 -0.047470193
0.05871629 0.012449114 -0.1139352 0.0005479563 0.00448016 0.041665677 -0.002977785 0.050519038
-0.08760781 -0.1238214 -0.019266075 -0.020234924 -0.02916969 0.07914691 0.07339633 -0.008326057
-0.052554466 -0.012626406 0.086700134 0.04291603 -0.08810384 0.06897967 -0.07974444 0.03684155
-0.014850958 0.049645063 -0.022310168 -0.07047633 -0.05438968 0.0007174236 0.042085767 -0.00011554743
0.080361225 -0.07289325 0.045512483 -0.04135433 0.050307076 0.06891206 0.03689092 -0.032666862
0.019989954 -0.0769379 -0.064387664 -0.017024102 -0.08803049 -0.05820823 -0.06581747 -0.028883815
-0.001425027 -0.07470654 0.036819708 -0.05297779 0.03496373 0.04355159 0.015193563 -0.025628075
-0.0048561096 0.070118025 -0.033100978 -0.013798311 -0.0728086 0.067570165 0.07819554 0.047920324
0.056315847 -0.0682854 -0.011429068 0.027305223 -0.0582805 0.01855221 -0.076486655 0.041427035
-0.06872736 -0.06279463 0.0017741994 -0.05043795 0.07875785 -0.056828808 0.014233842 -0.06488218
-0.07065395 0.01097575 -0.08160772 0.075348966 0.07276753 -0.07851692 -0.0051607233 0.0052085053
-0.02429687 -0.08973754 0.042131875 -0.021124871 -0.089688 -0.03720102 -0.058975503 0.082844466
-0.07581469 -0.1071038 0.07180259 -0.085166566 -0.025325082 -0.042727593 -0.035813432 -0.00020415783
0.07735441 0.088163115 0.02861156 0.058052972 -0.08371185 -0.015885124 -0.020625042 -0.06308993
-0.10772877 -0.036518555 0.03134015 0.008419484 -0.087898634 -0.02272563 0.03633819 0.00068080385
0.0072241384 0.028142458 -0.034570616 0.08556419 -0.055596087 0.05509327 -0.015754618 0.04585795
0.019483382 -0.035436727 0.057801303 0.0008790274 -0.07895493 0.0116077475 0.05539103 -0.051136687
-0.067067586 0.041398816 0.07220193 0.019602457 0.029158369 0.053915326 -0.00013223443 0.07293217
-0.051408563 0.053766597 -0.05765731 -0.093758844 -0.014567498 0.08502904 0.060748186 -0.03424912
-0.04728729 0.058508445 0.024141368 -0.089560926 0.027469736 -0.08326842 0.05306052 -0.0605455
-0.049764868 -0.049645267 0.027372872 -0.097151615 -0.08742322 0.019745355 -0.00352092 -0.024762738
-0.013196957 -0.0030731016 -0.035149675 0.087072805 0.0026187536 -0.017713878 0.0572036 0.08767955
0.03310795 -0.09598238 0.08421114 0.0033619641 0.07629071 0.012176393 0.038516775 0.033143397
0.042808432 0.048689093 -0.041517798 0.05528025 -0.073296234 -0.04354815 -0.06486388 -0.0766527
-0.029390378 -0.026887964 0.07037915 -0.056328785 -0.028786909 -0.022578772 0.015306425 -0.05850582
-0.060408507 -0.013476635 -0.04905989 0.008485833 0.04259901 0.034250382 0.03434831 0.05498615
0.056543946 0.0031179923 0.08090264 -0.029292649 0.03361244 -0.05785641 0.08733387 -0.1074879
-0.06596858 -0.03780643 0.00639747 0.04655252 -0.09750343 0.016254686 -0.08702745 0.03618873
0.011863216 -0.07783479 -0.021733543 -0.05586779 0.046575975 0.0049519474 -0.056096707 0.007850028
-0.08381891 0.06294856 -0.02780659 -0.014650416 -0.012730624 -0.053240787 0.05886825 0.0052117635

fc2.bias f4 [128]
00000000: 4560 9dbd f412 d7bc 86e0 7abd ae81 b5bd
00000010: fb9b fabd 7717 09bd 43ad da3e 0432 7d3b
00000020: 5c17 503d 0d35 033e b7e7 22bd 2f35 92bd
00000030: 94dc 9cbd bd8d e2bd d83c ad3e a0c8 c6be
00000040: 0be9 2cbe 4c6d 7ebe 613e ebbd c918 6f3f
00000050: 6bc0 66bd aed3 073c 33fc 21bf c6f7 e5bd
00000060: f093 26be e6eb 12bf 3143 b0bd b84a f2be
00000070: 4fa6 fa3d 9d24 08be 5e5e f2bc 062c 483e
00000080: 82fc e6bd 2800 623f ff40 3abd 846f 93bd
00000090: 1d55 cebd face 213d c0c4 36be 14d5 b23e
000000a0: e128 b5be 5fbb 24bd d61a 323f 84c2 a3be
000000b0: 8fa3 0bbd f692 1cbd 4319 8f3e 2fa4 c1bc
000000c0: 6407 253e 7165 bf3d 5a73 43be 7827 bfbe
000000d0: 29f5 1abc fbfc 233d 7eb3 1d3d d6fe b9bd
000000e0: d1d5 86bd 9b13 3cbe 8534 efbc bec1 cdbe
000000f0: fe5d 8dbb 8e06 a73d 0d12 5bbe f57e a6bb
00000100: a4ce 53bc 843e d6be c48d d5be b394 bdbc
00000110: 1cba 06bd 4298 f53e f3f3 e8bd 606f 70be
00000120: 5172 d83e 1fce 4f3d 807f bdbc e401 33bd
00000130: 535c c93c b0ee b7bd c616 febc 1200 40be
00000140: b56c 2e3f 806a df3d e1ba c2bd f277 053d
00000150: c98e efbd b278 f6bd e2d9 85bc 1269 32bd
00000160: 79fa 0bbc 19ee 003f 959e 0bbe ee76 a6be
00000170: d240 0bbe be25 01be f646 fdbd f1da 37bd
00000180: 87b9 81bd 2ac3 ccbd 4948 1eb9 0d9b 973c
00000190: 2035 92ba 92d7 4f3c 210e 8fbd 7842 03be
000001a0: 8a30 b9bd cba7 93bc 3f74 f2bd ee4e 023f
000001b0: a521 013b 3561 d4bc 4729 07be e87a 70be
000001c0: 8242 23bb b14b 053d 466e 98bd f4e8 13bf
000001d0: 535e 6ebd 2eb0 84bb a154 99bd 6baa 5cbe
000001e0: b5bd 85be a227 983e 13d1 6b3c ed5e a5bd
000001f0: 00fb ef3e 0ad1 8ebe 2929 1b3e 6ccf 7dbc
-0.076843776 -0.026254155 -0.06124928 -0.08862625 -0.12236782 -0.033469643 0.42710313 0.0038634548
0.050803527 0.12813206 -0.03977176 -0.0713905 -0.076592594 -0.11062191 0.33835483 -0.3882494
-0.16885774 -0.24846381 -0.11486507 0.93397194 -0.056335848 0.008290214 -0.6327545 -0.112289
-0.16267371 -0.573912 -0.08606566 -0.4732263 0.12238752 -0.13295217 -0.029586013 0.19548044
-0.11278631 0.8828149 -0.04547214 -0.07199004 -0.10074828 0.03950403 -0.17848492 0.3492819
-0.3538275 -0.040217753 0.695722 -0.3198434 -0.03409153 -0.03822609 0.2794896 -0.02363786
0.161161 0.0934552 -0.19086972 -0.373348 -0.009457865 0.040036183 0.038501255 -0.09081809
-0.06583751 -0.18366854 -0.029199848 -0.40186876 -0.0043141833 0.08155547 -0.21393605 -0.0050810524
-0.012927685 -0.4184457 -0.4170972 -0.023142194 -0.03289233 0.47967726 -0.113746546 -0.23479986
0.42274716 0.05073368 -0.023132086 -0.043702975 0.024580156 -0.08981073 -0.031016719 -0.18750027
0.68134624 0.10908985 -0.095083006 0.032585092 -0.11697156 -0.120347396 -0.016339246 -0.043557234
-0.008543604 0.5036331 -0.13634713 -0.3251261 -0.13598946 -0.12612054 -0.1236705 -0.044886533
-0.06334215 -0.09998162 -0.00015094983 0.018506551 -0.0011154748 0.012685673 -0.06985117 -0.12818325
-0.09042461 -0.018024346 -0.118385784 0.5090169 0.0019703892 -0.025925258 -0.1319934 -0.23484385
-0.0024911468 0.032542888 -0.07442908 -0.57777333 -0.058195423 -0.0040493226 -0.07486845 -0.21549384
-0.26121297 0.29717737 0.014393109 -0.08074746 0.46871185 -0.2789386 0.1515242 -0.015491348

fc3.weight f4 [1, 128]
00000000: ec4e 443a 6d34 043c d502 2c3c 4108 9c3c
00000010: 9b2e 673c 23c5 843d 8596 7c3d 1322 ca38
00000020: c8a5 e33c 27ea 433c e590 a63d 4609 b93c
00000030: 9ace f4bc e39a 68bd f0c0 983c 2447 2ebd
00000040: 30de bebc 9697 a1bd 62e8 5cbc be4e 403d
00000050: 34e7 1ebc 703a 5abd a1a5 90bc 9426 8c3c
00000060: 60f4 a33c cded 6bbc 2a07 ccbb cad7 2ebd
00000070: bf4f 623c 0a39 65bd a775 a13a bbb6 1f3d
00000080: fe66 39bb 119c 933d 00cb 073d 7ad9 533d
00000090: 5160 94bd 4dd7 b53a 530d f9bc 352f 343c
000000a0: 7388 0cbd cdcf 903c 670c 383d 3d3f 18bd
000000b0: f124 cbbb fb45 f5ba 9bba 403d 73d0 953c
000000c0: eab4 303a 5d46 9a3c 939f 75bd 9a2d 26bd
000000d0: 5e7e 56bb ffc7 a5bc 0362 34bc 3fd3 7dbb
000000e0: cd95 133d 4017 8a3c 6f2a c73c de71 5bbd
000000f0: 4c8e d6ba 1456 f33d 9dba a6bd 00e4 91bc
00000100: 1239 913c c1c9 00bd 09ec 35bd 1c37 8fbc
00000110: 3b60 0ebc 69f1 383d c6aa ffbb 5399 153c
00000120: b712 293d 2a10 87bc e2f6 213c 1867 27bc
00000130: 4697 afbc 6648 193b cf5f 613c 44de 783d
00000140: 9072 323d e68b 443d 0c69 e8bc 4d1b d5bc
00000150: c60a 3ebd 7aee 9cbc 565a f7bb 101d 6abc
00000160: 1a17 2d3b 4c2d 543d 51b0 053c d9e4 71bd
00000170: 0d48 bebd 7fb0 03bd 6f18 c43c d443 a63c
00000180: 204e 933b c1b3 f3bc dea4 b53c 3acd d1bb
00000190: 8c10 dc3c 88d7 003d fb93 e93c 16af a53c
000001a0: a6ec 66b9 4b74 e73c 47e2 92bd 0b55 163d
000001b0: ac28 cb3c 3bd4 b7bc db5d d7bc 1215 1c3d
000001c0: 5b97 b23a e8fc 053d af60 d7bc 8a1a 2fbd
000001d0: 4e4a 93bc 4e79 85bc cc28 4b3c 86b3 6e3b
000001e0: 41a5 ee3c 2dd9 663d 8662 c9bc 30bf 293c
000001f0: 2d3d dabc 8d5c 57bd 3e04 ad3d 895e 133c
0.0007488567 0.00806914 0.010498722 0.019046905 0.014110233 0.06482913 0.061666984 9.6384574e-05
0.027789012 0.011957682 0.08133105 0.02258743 -0.029883672 -0.056788336 0.018646687 -0.042548314
-0.023299307 -0.07890241 -0.013483139 0.046950094 -0.009698678 -0.053278387 -0.017657103 0.01710824
0.020013988 -0.014399958 -0.00622644 -0.04268626 0.013812958 -0.0559626 0.0012318388 0.038992625
-0.0028290148 0.07207502 0.03315258 0.051721074 -0.072449334 0.0013873369 -0.030401861 0.010997583
-0.034309816 0.017677212 0.044933703 -0.037169684 -0.006199472 -0.0018712872 0.04705296 0.018287873
0.00067408255 0.01883238 -0.059966635 -0.040570833 -0.003272913 -0.020236967 -0.011009696 -0.0038730649
0.036031533 0.01685679 0.024312226 -0.05357539 -0.0016369312 0.118816525 -0.081410624 -0.017808914
0.017727409 -0.031442408 -0.044414554 -0.017482333 -0.008689935 0.0451521 -0.00780234 0.009130794
0.041277613 -0.0164872 0.009885522 -0.010217451 -0.021434437 0.00233891 0.013755753 0.060758844
0.043566287 0.04798498 -0.028370403 -0.026013995 -0.046396993 -0.019156683 -0.0075486107 -0.014289156
0.0026411475 0.05180101 0.008159713 -0.059056137 -0.09291086 -0.03215074 0.023937432 0.020296015
0.004495397 -0.0297488 0.022173341 -0.0064026387 0.026863359 0.031455547 0.028512945 0.020225089
-0.00022022668 0.028253695 -0.07172065 0.036702197 0.024799667 -0.022440067 -0.026289871 0.03810603
0.001362543 0.032711893 -0.02629122 -0.04274992 -0.017979767 -0.016293194 0.012399863 0.0036422922
0.029131534 0.05635946 -0.024583112 0.010360524 -0.026640499 -0.052578498 0.08448075 0.008994707
