saved_models/episode_900/agent_9.pth (torch, 738018 bytes, 44 tensors)

fc1.weight f4 [128, 5]
000000 45 71 db bc 05 25 78 3c 0e 4e ff 3d b1 f2 ef 3e
       -0.02678741 0.015145545 0.124660596 0.46864846
000010 11 0e ca 3b 55 61 8e 3e 22 e8 a2 bd 62 00 61 3e
       0.0061662276 0.27808633 -0.07954432 0.21972802
000020 e1 39 b9 3e 95 a0 4a 3e 23 36 bc be d9 4e d6 3d
       0.3617697 0.1978782 -0.36760053 0.10464258
000030 1a 7e f9 3e 90 31 fc 3d 52 c5 8f be 50 cb 6d be
       0.4872902 0.12314141 -0.2808023 -0.23222089
000040 1c 70 b6 be e6 40 8c be 38 f2 5a 3e 7c 5d dc be
       -0.35632408 -0.27393264 0.21381462 -0.43040073
000050 c6 57 89 3d 6f 59 02 be c0 c6 44 3e 51 df 72 3e
       0.067061946 -0.12729429 0.19216442 0.23718001
000060 68 21 e8 3c 9b d2 43 3e f7 85 64 3e d0 4f aa be
       0.028336242 0.19123308 0.22316729 -0.33264017
000070 6c 33 97 3d aa 19 67 3e e1 7f 01 3f 70 82 cc bd
       0.07382855 0.22568384 0.5058575 -0.099858165
000080 3d 44 bc be 53 37 0c 3d d5 ff c6 3e b8 ee 8a bd
       -0.36770812 0.03423245 0.3886706 -0.06783813
000090 9c 98 32 be 64 58 ee 3d e3 55 e3 be 64 99 be be
       -0.17441028 0.11637953 -0.44401464 -0.37226403
0000a0 7f 6d 7c 3e e9 6f 4d bc 0a 1d ce be 3e ba fc 3d
       0.24651144 -0.0125388885 -0.4025653 0.123402104
0000b0 a1 ea c1 be 60 9b cc be 91 63 74 3e 3a 30 9a 3d
       -0.3787432 -0.39962292 0.23866107 0.0752873
0000c0 92 d5 09 be ca 39 af be d0 66 13 3e 6b 4a 91 3d
       -0.13460377 -0.34223777 0.14394689 0.07094272
0000d0 1d 92 ae be bd 6e 68 3d e1 4b f0 3d c3 ff 8c bd
       -0.3409585 0.056746233 0.11733223 -0.0688472
0000e0 f0 10 aa bd 35 32 83 3e 71 de 13 be 4e 63 aa 3e
       -0.08304012 0.25624242 -0.14440323 0.33278888
0000f0 60 fb ac 3e dc 4d 5c bd 97 21 87 be 66 da c2 3e
       0.33785534 -0.05378519 -0.26392815 0.3805725
000100 98 a0 c1 3c 7e 9e d9 be cf dd af be 79 91 8e 3e
       0.023636147 -0.42503732 -0.34348914 0.27845362
000110 34 08 ca be f6 50 02 bd 74 80 80 be 5c 77 34 be
       -0.39459383 -0.03181549 -0.25098002 -0.17623657
000120 a3 6d f4 3c 22 8c 8a 3e ea d9 ae 3d 27 a7 a7 bd
       0.029837435 0.27060038 0.085376576 -0.08186179
000130 e3 da 7a 3e 43 9e 3b ba b8 09 16 bf 31 6d b1 3d
       0.24497561 -0.0007157067 -0.5860858 0.08663405
000140 87 71 61 be 0e d6 68 3e a4 6e 12 3e b8 d5 b1 be
       -0.22015963 0.22737905 0.14300019 -0.34733367
000150 91 6d 2f be a0 c4 d8 3c 9c c7 9d be d8 be df 3d
       -0.1713164 0.026460946 -0.30816352 0.109250724
000160 45 45 cc 3e c5 1b 86 be 05 27 56 be dc 9a aa 3e
       0.39896598 -0.2619306 -0.20913322 0.33321273
000170 7d 2c 47 be 36 9b ff 3e df 4f 86 be 70 43 b6 be
       -0.19450565 0.49923104 -0.26232812 -0.35598326
000180 b8 8f 8c bd 69 b1 a5 3e 0b ec a1 3e 16 f7 9c 3e
       -0.0686335 0.32361916 0.316254 0.30657262
000190 ee 1e 3a be 30 b0 c7 be c2 52 94 3e 6e 2b bb bd
       -0.18175861 -0.39001608 0.2896939 -0.09139143
0001a0 8e b2 ba be 5b 8d 92 3e 7a a1 65 be d8 fe 9d be
       -0.3646435 0.2862347 -0.2242488 -0.30858493
0001b0 a9 d7 88 3c c5 54 f1 3d fe 18 09 be 4d ed 28 be
       0.016704397 0.11783747 -0.1338844 -0.16496773
0001c0 6d 56 c6 be 03 5a 8a 3e 78 bd e3 be c6 28 06 3e
       -0.38737813 0.27021798 -0.4448049 0.13101491
0001d0 07 68 b2 be 34 3b 5f 3d 07 e0 a2 3e dc 59 ca 3e
       -0.34844992 0.05449982 0.31811544 0.39521682
0001e0 f1 a3 1d be 66 36 bf be e8 03 79 be 4a 59 09 be
       -0.1539457 -0.3734619 -0.24317896 -0.13412967
0001f0 eb 7b af be c9 b5 84 3e 90 3f 91 be c7 30 51 3e
       -0.3427423 0.2591994 -0.28368807 0.20428763
000200 04 1d 75 3e d3 75 80 3d 94 99 85 3e 28 3d fe be
       0.2393685 0.06272473 0.26093733 -0.49656034
000210 a4 0b 82 3e c3 05 28 3e de 5f 45 3d c3 cc e1 be
       0.25399506 0.16408448 0.04818713 -0.44101533
000220 25 7e b0 3d be 79 e4 be cf c2 9d 3e 77 71 af 3d
       0.0861781 -0.44624132 0.3081269 0.085665636
000230 5d ce 0c bd b1 7e 5f 3e e6 cc 00 bd e5 c3 1c 3f
       -0.03437649 0.21825673 -0.031445406 0.6123641
000240 f9 6a ca 3c e9 4c 93 bd 4d 86 9d 3e 74 a6 90 3e
       0.024709212 -0.07192404 0.30766526 0.28251994
000250 bf 87 62 3e 2d 9a c7 bc 8d 4b 19 3c 2a 1c b7 3e
       0.22122096 -0.024365509 0.009356392 0.35763675
000260 ec ea ce be c6 85 9c 3e 59 56 33 be 28 8b 3d 3e
       -0.40413606 0.3057081 -0.17513408 0.18510115
000270 48 87 99 be 21 99 55 3e c1 3e c4 3e 97 e7 76 be
       -0.29986024 0.20859195 0.38329127 -0.24111782
000280 e1 86 29 be 17 71 c7 be 35 ed db be 45 1d ca 3b
       -0.16555358 -0.38953468 -0.42954412 0.00616804
000290 47 d7 38 bd 0e ea fe bd fc 59 51 3b d1 63 94 3d
       -0.04512718 -0.12446986 0.0031944504 0.07245601
0002a0 29 8b 12 3f aa d2 a4 3e 40 29 7d 3d a9 a8 b7 bb
       0.5724359 0.32191974 0.061806917 -0.0056048227
0002b0 4e 4c d3 be a8 f5 37 3c 45 1c c2 3e f5 c9 db 3d
       -0.41269153 0.011228003 0.37912193 0.107318796
0002c0 4d 01 9d be 9e 22 87 3e a4 d9 09 3f 3e 32 cb be
       -0.30665055 0.26393598 0.5384772 -0.3968677
0002d0 50 c3 c4 3e aa 78 ce bb 29 e3 c4 be 25 6e f8 be
       0.38430262 -0.0063010054 -0.3845456 -0.48521534
0002e0 6b 65 e0 be d9 d6 49 be b5 6d 79 3d 71 a2 97 be
       -0.43827376 -0.19710864 0.06089564 -0.2961612
0002f0 09 51 01 bc 22 74 45 3e ab af 37 3e 10 c8 79 3e
       -0.007892855 0.19282582 0.17938106 0.24392724
000300 56 fb 88 3e fa 8b b2 bd bb b4 d5 be 59 cc 31 be
       0.26754254 -0.08718105 -0.4173945 -0.17363109
000310 b2 ac 44 be 63 1f 3c be cb dd 82 3d f6 5b c9 3e
       -0.19206503 -0.18371348 0.0638996 0.39327973
000320 5f da f0 3d 6f 3c 96 be bc 6e 69 be 70 1c c6 be
       0.11760401 -0.29342982 -0.22796148 -0.3869357
000330 d3 c5 6d be 2e 1e 9d be a8 90 77 3e c8 14 2d 3e
       -0.23219995 -0.30687088 0.24176276 0.16902459
000340 03 df e9 bc 9d a3 b2 be 11 00 e3 3e 2e 23 4d be
       -0.028548723 -0.34890452 0.44335988 -0.20032951
000350 86 89 9b be d0 a8 e6 3e d9 fb cd bd 2d e9 cc be
       -0.3037836 0.4505067 -0.10057802 -0.4002165
000360 42 14 95 3e 64 79 e9 3d 9f 32 0b be 3d d6 ac be
       0.29117018 0.114001065 -0.13593529 -0.337572
000370 bc b3 86 bd 4d c4 11 be 64 49 00 3e 9b 73 c5 be
       -0.0657725 -0.14235039 0.12527996 -0.38564762
000380 06 31 ba be b8 50 82 3e bd 6f 90 bd 34 cf 78 bd
       -0.36365527 0.2545221 -0.070525624 -0.06074448
000390 8d 29 14 3e 56 8a 9c bd 71 55 7e bc 3e 64 b1 be
       0.14468975 -0.07643573 -0.0155233005 -0.3464679
0003a0 d9 a0 26 3d 6c 41 3c bd c3 36 2c 3c 5a 4f d5 bd
       0.04068074 -0.04596083 0.010511103 -0.10415526
0003b0 68 46 4c be 1c 9d c4 3e f7 1a ca 3e 8f 3e dc 3e
       -0.19948733 0.38401115 0.39473698 0.43016478
0003c0 39 8d ce be f1 48 38 be 8d 80 5c 3e cb d5 87 3e
       -0.4034212 -0.17996575 0.21533413 0.265303
0003d0 be 60 dd 3e 41 85 f1 be 43 ca 1f 3e 20 4e 64 3e
       0.4323787 -0.47171977 0.156045 0.22295427
0003e0 ad 36 e6 3e 8b 18 22 be bf 4a 83 3d 4d 77 5a be
       0.4496359 -0.15829675 0.06410741 -0.21334572
0003f0 82 42 94 3e 54 af 9a be b4 81 eb bd 26 e5 8f be
       0.2895699 -0.3021189 -0.11499348 -0.28104514

fc1.bias f4 [128]
000000 62 ab e4 be 19 08 25 bf a3 43 48 bf 8a 7d 5e bd
       -0.44662005 -0.6446548 -0.78228205 -0.054318942
000010 39 99 df be 3d 38 9b 3e 60 b6 b1 be 4e 15 ca be
       -0.43671587 0.30316344 -0.34709454 -0.3946938
000020 38 ce 29 3c ec 8f ae be de 8e 61 be 42 dd 11 bf
       0.010364108 -0.3409418 -0.22027156 -0.5697824
000030 10 16 06 3e f1 e9 05 bd a4 92 2a 3e 9c fd a0 3e
       0.13094354 -0.032693807 0.16657501 0.3144349
000040 48 f9 46 3e 7e 5c 08 3e 87 b3 cb be c8 a2 36 be
       0.19431031 0.13316533 -0.39785406 -0.17835534
000050 0d 74 98 3b 1c 09 74 3e 9f 31 c7 3e 1a 81 a6 bc
       0.004652506 0.238316 0.38905045 -0.020325232
000060 50 26 2c be 37 2d c1 be e2 33 13 bf ac ab c1 be
       -0.1681149 -0.3772981 -0.5750104 -0.37826288
000070 ab 30 9b be ff d1 e6 be 28 1f c2 be 55 44 d0 be
       -0.30310568 -0.4508209 -0.37914395 -0.40677133
000080 f3 86 a9 bc 14 41 c1 be c9 28 b8 bd a7 91 26 be
       -0.020694232 -0.37744963 -0.08992154 -0.162665
000090 d3 ba 8b 3e 33 3b 8c be 24 e5 81 be a5 47 c6 3d
       0.27290973 -0.27388915 -0.25370133 0.09681634
0000a0 65 a1 05 3e 5e ff 5f 3e 60 a9 2b 3e bf a6 9c be
       0.13049848 0.21874759 0.1676383 -0.30595967
0000b0 24 b0 1a 3f 8e fc a1 be fc 3f 2f 3e ad fe ac be
       0.6042502 -0.31637996 0.17114252 -0.33788052
0000c0 9a 81 0e 3e 1e 5b 18 3d b5 ea 19 bf 8b 96 4f be
       0.13916627 0.03719627 -0.6012376 -0.20272271
0000d0 9e 9f 49 3e 6a 86 19 3f b9 cd c9 3d 4a 00 db bd
       0.19689795 0.59970725 0.098536916 -0.106934145
0000e0 21 13 f3 be 82 be c6 3e 4e ac 2a 3f ba 42 1b be
       -0.47475532 0.3881722 0.66669166 -0.15162173
0000f0 71 d1 86 be bf bb 18 bf 20 b5 42 3e c8 cb eb bc
       -0.26331666 -0.5966148 0.19014406 -0.028783694
000100 9d 40 0e bf b2 b1 e0 3d 65 89 dd be 8e 3e b2 3e
       -0.5556734 0.10971393 -0.43268886 0.3481335
000110 01 b7 c2 be c4 29 df 3e a0 8a ed bb 6c 70 31 3d
       -0.38030246 0.43586552 -0.0072491914 0.043320104
000120 a7 7c 08 3e ca c3 86 be e3 15 60 be 26 b3 cd 3d
       0.13328801 -0.2632125 -0.21883349 0.100439355
000130 c3 74 cd be 96 19 93 3e c9 c9 31 be 61 55 98 be
       -0.40128145 0.28730458 -0.17362131 -0.2975264
000140 10 68 d7 bd 9f d2 6e bd 01 a9 cf be 7b cd af bd
       -0.10517895 -0.058306333 -0.40558627 -0.08584114
000150 5c c3 13 3d a3 b4 e3 be 1b b1 be be 7e 9f 3b 3f
       0.03607498 -0.44473752 -0.37244496 0.7329024
000160 1d 57 84 bb 90 7a 1e be ed 45 63 be 0a 40 57 bd
       -0.004038705 -0.15476441 -0.22194643 -0.052551307
000170 22 b8 9e 3e 97 65 6b be 17 a4 03 be 84 d9 13 3f
       0.30999857 -0.22987972 -0.12855564 0.5775378
000180 91 a3 ff 3e 5c 2f ed be d1 0b 8e be c2 91 c4 be
       0.4992948 -0.46325195 -0.2774339 -0.38392454
000190 1a 25 94 3d 9a 6a d5 be 24 27 8e be 71 fd 04 bf
       0.07233639 -0.41682893 -0.27764237 -0.5194922
0001a0 26 98 a3 be b6 c6 ab be 0b ad b4 be 49 ed bc 3e
       -0.31952018 -0.33550042 -0.3528827 0.36899784
0001b0 f7 73 34 be 59 b4 2e bf 57 b8 a1 3c 61 79 0c bf
       -0.17622362 -0.6824394 0.01974122 -0.5487271
0001c0 18 40 9f bd d0 27 fb 3d fa cb 89 be e3 0b 3e 3e
       -0.07775897 0.12263453 -0.26913434 0.18559222
0001d0 83 81 15 be 86 e8 a1 3d 46 9d db be dd 22 20 3e
       -0.14600186 0.079056785 -0.42893428 0.156383
0001e0 33 44 a4 be 61 ea e9 3d d2 33 7d 3e 5a ab 3c 3f
       -0.32083282 0.11421657 0.24726799 0.7369896
0001f0 59 6d 47 3e 47 9d 84 be 82 6c 18 bf 65 65 cd be
       0.19475307 -0.25901243 -0.5954057 -0.4011642

fc2.weight f4 [128, 128]
000000 11 a4 14 3e 38 b7 81 3d 93 2a 6a 3d 56 7f 20 bd
       0.14515711 0.06333774 0.05716951 -0.039183937
000010 50 06 4c 3e c8 36 97 3d 5c 80 e4 3c 34 0f 1c bc
       0.19924283 0.073834956 0.027893238 -0.009525109
000020 df 08 47 3c e6 4e 7f 3c f7 cf bb 3d 05 1b 20 3c
       0.012148111 0.015582776 0.091705255 0.009772067
000030 42 54 18 3e 25 f0 d8 bc 87 ed 4b 3d 4c af 98 bd
       0.14875892 -0.026481697 0.04978707 -0.0745531
000040 ea 4f 4b bd e0 d1 26 3d 55 19 2e bb 41 45 62 3d
       -0.04963676 0.040727496 -0.0026565392 0.055241827
000050 c8 07 92 3c 5c 5f b9 bc 06 77 31 bd 82 26 bd 3d
       0.017825976 -0.022628479 -0.0433264 0.092358604
000060 9d eb 3f 3d fa 10 4e 3e 24 17 47 3e ef 0b 20 3d
       0.046855558 0.20123664 0.19442421 0.03907388
000070 f4 16 ce 3d 11 ab 5e 3d 86 18 cb bc 5d f5 5c 3e
       0.10062972 0.05436236 -0.024791967 0.21577974
000080 1e cf f8 3a d4 9a 06 3e 14 41 d6 3c 8a 72 ca 3d
       0.0018982624 0.13145 0.026154079 0.09885128
000090 bd 5d 0d 3d 67 2b ad bd 0b dd aa 3c dd 20 4d bd
       0.034513224 -0.08455544 0.020857355 -0.05008017
0000a0 d5 4d 8b bd fc 55 c6 bb 1e e7 48 3e 6e 41 67 3d
       -0.06801955 -0.0060527306 0.19619414 0.056458883
0000b0 01 de a7 3d fd ac a7 3c 40 be fa 3c 6a 5c d2 3d
       0.08196641 0.02046823 0.030608296 0.10271533
0000c0 75 2d 44 3c 4a df 1f 3d 43 ff 11 3e 6b 22 6d bd
       0.011973728 0.039031304 0.14257531 -0.05789415
0000d0 9f ed b3 bc 72 0e 83 bd 9f 18 8c 3d 39 e4 9b 3b
       -0.021963893 -0.063992396 0.068406336 0.004757431
0000e0 1a 9a 20 3e 39 5c f8 3d b6 28 24 be 8b 5c 2e bd
       0.15683785 0.12126965 -0.16031155 -0.042568725
0000f0 a8 68 d6 3d 0b 8f e6 3b bb 30 02 3c fe cb 7e bd
       0.1046918 0.007036095 0.007946189 -0.06220626
000100 d4 e0 57 3d 6c 6f 3a bd 0e e5 35 3e 01 d8 08 3d
       0.052704647 -0.045516416 0.17763159 0.033409122
000110 56 3c a6 bd a7 7c 51 bd 1f b0 33 bd 49 f4 af bd
       -0.08116977 -0.05114427 -0.043869134 -0.085915156
000120 18 51 82 3d bd 80 d4 3c 41 bf 13 3e 30 0c 95 bc
       0.06363124 0.025940293 0.14428426 -0.018194288
000130 04 12 f5 3d f0 21 09 be 06 f0 82 bc 8c 66 2c 3d
       0.11966327 -0.13391852 -0.015983593 0.042089984
000140 9d 10 8e 3d 1f f6 b3 3d f7 a8 20 3e 00 7e 47 bd
       0.069367625 0.08787178 0.15689455 -0.048704147
000150 ed ff 92 3d b7 01 5c 3c 88 15 10 3d 42 41 bd be
       0.0717772 0.013428143 0.035176784 -0.3696385
000160 9b af 11 bd 10 28 a9 bd cd b0 17 3d cc 28 b1 3d
       -0.03556786 -0.082595944 0.037033845 0.086503595
000170 49 34 37 3d 99 94 b7 3d db af 79 3e 7b 71 15 3d
       0.044727597 0.0896389 0.2438349 0.036485177
000180 8c 6c 94 bc c8 ac 8d 3d 21 35 64 3d 97 c0 e9 3d
       -0.018118165 0.06917721 0.05571473 0.11413687
000190 33 45 90 3d 31 68 b3 3d 9c 18 d1 bd 9f f9 cb bc
       0.07044449 0.08760107 -0.10209772 -0.024899302
0001a0 a5 2f c3 3d ed 9d 13 bc 97 e1 0e 3e 84 8c d9 bc
       0.09530572 -0.00900982 0.13953243 -0.02655626
0001b0 7d ea 8a 3d c2 a4 9a 3d 1c 34 8c 3c 61 76 64 3d
       0.06783006 0.07550956 0.017114691 0.055776957
0001c0 9e f1 03 3e 5d 33 98 3d 21 a8 aa 3c d1 a5 69 3d
       0.12885138 0.07431672 0.020832123 0.0570429
0001d0 68 8b 35 bd 65 09 a2 3b fc ba 11 3e e1 a8 25 be
       -0.0443224 0.0049449676 0.14231485 -0.16177703
0001e0 90 43 b6 3c 5f a8 2b 3e 82 e0 5d bd d1 1a ce 3c
       0.022249013 0.16763447 -0.054169185 0.025159271
0001f0 d5 df 12 3e ee b7 71 3c 49 e0 ef 3c 9a bd 66 bd
       0.14343198 0.014753325 0.029281752 -0.056333162
000200 57 53 17 bd 6a 47 8e bd 64 85 46 3c 04 ed 55 3d
       -0.036944713 -0.06947215 0.012116764 0.05222799
000210 5f ab 99 bc 72 66 9b 3c ca 25 56 3d 87 88 b7 bc
       -0.018758474 0.018969748 0.052282132 -0.022403968
000220 01 18 ad bd 4a 8f 87 bd a9 81 5f 3d 2f 2a ca 3c
       -0.08451844 -0.06619127 0.054567013 0.024678318
000230 7c c0 a5 bd 0b 94 9d 3d ea 1f 88 bc cf 08 a6 bd
       -0.08093354 0.076942526 -0.01661678 -0.08107149
000240 1d 0a 19 3d 04 bb 48 3c ea f3 06 3d 27 b5 61 bd
       0.03736316 0.012251619 0.03294746 -0.0551044
000250 eb a5 47 3d 49 62 c2 3b d7 05 71 3d 70 ea e7 bb
       0.048742216 0.0059321267 0.05884346 -0.0070775077
000260 9d 7e b0 3d 32 16 db bd de cf c0 3c 00 04 f2 3b
       0.086178996 -0.10697593 0.023536619 0.0073857307
000270 20 ce 49 3d 6a 81 6a 3c 1e 45 7e 3d 78 34 03 bd
       0.04926884 0.014313081 0.062077634 -0.03203246
000280 05 44 6f bc 93 01 eb bd 74 35 24 3d a0 b8 b8 3c
       -0.014603619 -0.1147491 0.04009004 0.022548974
000290 56 b7 0c bd 1d e5 87 3d b7 32 27 bd 19 d5 0f bd
       -0.03435453 0.06635497 -0.04081985 -0.035115335
0002a0 0d 74 f9 bb 59 c5 6e bc 8c 07 0d bd fb 26 78 3d
       -0.0076127113 -0.014573419 -0.034431025 0.06058405
0002b0 ee 4c e1 3c 3f eb c8 3c c2 fb 42 3d 12 69 51 3c
       0.027502503 0.024526237 0.047603376 0.012781398
0002c0 38 d3 5e 3d e1 ee 22 3d e1 ab 3a bd 2b 7a 3a 3d
       0.054400653 0.039778594 -0.045574073 0.045526665
0002d0 e0 c7 8f bd 6b b8 7e bd b2 85 3f 3c a2 fa 05 bd
       -0.07020545 -0.062187593 0.01168959 -0.032709725
0002e0 22 92 7a 3d 18 3b e5 3c 0d 29 a2 3c 6c 25 b7 bd
       0.06117452 0.02798228 0.019794965 -0.089426845
0002f0 37 9d 1b 3c a9 86 e9 bc 23 26 79 bd 5c 69 4e bd
       0.009497932 -0.028506594 -0.060827386 -0.050393447
000300 62 f2 5d bd eb c1 21 3d 36 a4 dc bd 20 87 d8 3c
       -0.054186232 0.039491575 -0.10773508 0.02643162
000310 5e eb 91 3c be 15 b9 bc fa d0 7d 3d 34 6b 39 3d
       0.017812427 -0.022593375 0.061966874 0.045268252
000320 88 e9 46 3d 11 30 d7 bd 67 c8 6e bd be 97 74 3d
       0.048562557 -0.10507215 -0.058296587 0.059715025
000330 06 f5 fb 3c fe f1 99 bd c9 4d 25 bc 08 5c 8d 3b
       0.030756485 -0.075168595 -0.010089346 0.0043139495
000340 d3 ab fd bc 9f ef cf bd c4 6e 22 bd c6 ef 6e bd
       -0.030965721 -0.10153126 -0.039656416 -0.058334135
000350 dd 76 f1 3c 21 63 dc bc d9 2a 12 bd 2d 15 b3 3c
       0.029475624 -0.026902737 -0.035685394 0.021860683
000360 57 04 ac 3d 33 f5 bf bd df 00 55 bd 43 6b f8 3c
       0.08399265 -0.0937294 -0.052002784 0.030324584
000370 dc 01 a4 bd 93 ae 21 3c 3f 66 3d bc 26 d8 ba bb
       -0.08008167 0.009868282 -0.011560022 -0.0057020364
000380 fb 45 4c bd 9d eb ae 3c 6f a2 9d 3d 30 24 e8 bc
       -0.049871426 0.021352584 0.076969974 -0.028337568
000390 1e 78 90 bd 08 46 66 3c ef f5 11 3d 79 0b 98 bc
       -0.070541605 0.014054783 0.03563493 -0.018560158
0003a0 c3 6e 9e bd 34 ca 12 3d 0e 03 13 3d 6d bd 2d 3d
       -0.0773597 0.035837367 0.035891585 0.04241698
0003b0 83 9a 09 3d 5b 3f 1c 3d 0e 67 f8 3c 31 ee 62 3d
       0.03359462 0.038146358 0.030322578 0.05540294
0003c0 95 65 c9 bd a2 03 55 3c 1a 21 f8 bc f7 b8 84 3d
       -0.09833828 0.013001354 -0.030289222 0.06480592
0003d0 63 1e 57 bd bd 18 99 3c 7b 62 4c bd 13 eb 82 bd
       -0.052519213 0.018688554 -0.049898606 -0.06392493
0003e0 66 28 6f 3d 75 82 c3 bd ae 79 53 3d da da 27 bd
       0.058388136 -0.09546367 0.051629715 -0.040980197
0003f0 70 a1 1c 3d 5b 7b 33 bd c7 06 25 bd 1b fd 62 bd
       0.038239896 -0.043818813 -0.040289667 -0.05541716

fc2.bias f4 [128]
000000 c0 e4 b6 be 68 0c c9 3c 32 6d 58 be 61 05 bf ba
       -0.35721397 0.024542049 -0.21135405 -0.0014573747
000010 57 d7 b5 bb a1 56 85 bc 39 a3 d0 bd 6f 28 57 3d
       -0.005549352 -0.01627666 -0.10187382 0.052528795
000020 c5 04 42 bd 96 f9 de 3c 71 c0 bd bc 94 77 70 bd
       -0.04736783 0.027218621 -0.023163052 -0.05870779
000030 97 32 4b 3d 78 30 a4 3d 22 67 9a 3d 4f 4a a3 3d
       0.049608793 0.08017057 0.07539202 0.079731576
000040 6d 2b 5c 3d df a7 1f be ba e9 85 3c 8e 18 53 3c
       0.05375235 -0.15591381 0.016346801 0.012884272
000050 d2 79 4d 3b 7b c6 9f bd 82 bd f4 bd ba ae 92 be
       0.0031353128 -0.07801529 -0.11950208 -0.2864893
000060 77 f4 5c be 59 e5 91 be 14 1b 02 bd 91 8d 81 bd
       -0.21577631 -0.2849529 -0.031764105 -0.0632583
000070 ec 4d e9 bb 70 27 73 bd 61 d9 15 bd 3b 33 d0 bc
       -0.0071198847 -0.059363782 -0.03658426 -0.025415054
000080 52 41 2c bb 6a c9 86 be 4d 2b ab bc 7f d4 65 be
       -0.002628405 -0.26325542 -0.02089467 -0.22444342
000090 43 aa 6b bc 8f fa 37 bd 4b 14 fb 3c bb c9 02 3d
       -0.014383855 -0.044916686 0.030649325 0.031930666
0000a0 d5 06 ef bc 56 90 0d 3c 64 a4 c8 3c a2 42 6c 3d
       -0.029178062 0.008640369 0.02449245 0.057680734
0000b0 10 30 3b bd 44 25 83 be 84 72 aa 3e 17 59 20 bb
       -0.045700133 -0.2561437 0.33290493 -0.0024467164
0000c0 f7 0b 7f 3d 5b 64 cb bd 4f 20 31 3e 31 05 46 3c
       0.06226727 -0.09931251 0.17297481 0.012086199
0000d0 15 b5 9d 3d cc 52 50 be b0 64 ac bd c5 55 1b 3b
       0.07700554 -0.20344085 -0.08417642 0.0023702246
0000e0 d5 bb e6 3c 73 66 c7 bd a0 72 0a be 21 fd 13 be
       0.028165737 -0.097363375 -0.13520288 -0.1445203
0000f0 43 a4 3d bc 4c a6 d3 3a 12 7d e3 bd f5 a5 0c 3d
       -0.011574808 0.0016147583 -0.1110784 0.034337956
000100 15 31 90 bd e3 56 e0 3c aa d2 85 3e 5e 77 81 bd
       -0.07040612 0.02738518 0.26137286 -0.063215956
000110 21 f0 83 3e 01 f1 5e 3b c1 ea 51 bd 25 34 98 3e
       0.2576914 0.0034018161 -0.05124927 0.29727283
000120 5c bf e7 bc c5 1c 96 be 88 8c 6b bd 66 17 68 bd
       -0.02828949 -0.29318824 -0.057507068 -0.05666294
000130 d6 3c 48 3d 47 a0 50 bd 94 b3 0c bd 0c 53 2e 3d
       0.048886143 -0.050934102 -0.034350947 0.04255967
000140 7e 18 65 3c c1 07 51 3d f7 aa e7 3b 26 d0 a0 be
       0.01398289 0.051032785 0.007069941 -0.31408805
000150 59 9e 89 3e 92 3f e4 3d 16 44 3e be 66 b7 65 3d
       0.26878622 0.111449376 -0.1858066 0.056083106
000160 0f b4 12 bd 89 7f 7b bd c4 9f 02 3d 91 61 1c bc
       -0.03581625 -0.061400924 0.031890646 -0.009544746
000170 f7 74 93 be c5 e8 f1 3c 48 24 5a be 27 4f 7e bd
       -0.28800175 0.029529938 -0.21302903 -0.062087204
000180 91 a6 4b 3e 18 55 8a bd 58 e3 55 bd 03 04 1d 3e
       0.19887759 -0.067545116 -0.052218765 0.15333562
000190 d8 09 86 bd b3 61 56 bd 3f da 2e 3c b2 b9 9e bd
       -0.06544846 -0.052339267 0.010672151 -0.07750262
0001a0 73 c2 8b bd 4d 0a d3 bb 96 30 fd 3e aa 08 7f bd
       -0.068241976 -0.006440437 0.4945113 -0.062264122
0001b0 bd b0 24 3d 48 b8 9b 38 30 1f 46 3d a8 1a 62 3c
       0.040207613 7.425301e-05 0.048369586 0.013800301
0001c0 37 27 ad 3e 2f 0e 1b bd 8c 38 32 3d 26 b0 ae 3c
       0.3381898 -0.037855323 0.04351096 0.021324228
0001d0 8b 01 ab 3b 5a e5 9d bd 38 3b c6 3e 0d ff 70 bd
       0.00521869 -0.07709761 0.38717055 -0.058836985
0001e0 79 43 78 3d 7d 66 12 bd c7 59 1e bc 25 5f 0c 3e
       0.060611222 -0.03574227 -0.009664959 0.1370817
0001f0 62 53 a1 bd b9 fa dc bd 7a 98 84 3d 8b fe 31 3d
       -0.07877232 -0.10790009 0.06474395 0.04345564

fc3.weight f4 [2, 128]
000000 70 a3 8a 3d 9a af ad 3d 10 71 82 3d db 39 f5 3c
       0.067694545 0.08480759 0.06369221 0.029934814
000010 11 c7 45 bc 4c 63 aa 3a 32 f4 df bb 22 1e 52 bd
       -0.012071387 0.0012999563 -0.0068345303 -0.05129827
000020 3c 17 51 3d 23 0f 7e bd 35 a8 88 3d 7a 1d 22 bd
       0.05104755 -0.062026154 0.06672708 -0.039578892
000030 30 37 62 bc 8a a7 98 bc 61 b5 c0 bc f4 0f 8a 3d
       -0.013807103 -0.018634576 -0.023523988 0.06741324
000040 7a 49 54 3d 36 aa 79 3e 75 ce 65 3d 49 16 25 bc
       0.051827885 0.24381337 0.056105096 -0.010076114
000050 b2 49 7a bd 0b 58 77 3c ce 63 5b bd 5b cb b8 3d
       -0.061105438 0.015096675 -0.053561978 0.09023162
000060 21 b4 0b 3e 90 11 83 3e 91 10 e9 3c 98 40 30 3d
       0.13642932 0.25599337 0.028450282 0.04303035
000070 96 54 15 3c b4 64 be 3b 49 55 b9 bc 29 7f 88 3d
       0.009114405 0.0058103446 -0.022623675 0.06664879
000080 2c e1 b1 ba dd 86 26 bb b6 b6 69 3c e1 60 07 3e
       -0.0013571135 -0.0025409975 0.014264753 0.1322055
000090 68 37 1a 3d 91 12 8a 3d 19 b6 9a bd ba 22 ef bc
       0.037650496 0.067418225 -0.075542636 -0.029191364
0000a0 14 96 df 3c b3 05 04 bd c5 a4 a6 bc 62 a9 a2 bb
       0.027293243 -0.032231998 -0.02034224 -0.0049640397
0000b0 02 14 18 bc b5 56 4b 3e 7a 08 bd bd f7 bf 30 3c
       -0.009282114 0.19857295 -0.092301324 0.0107879555
0000c0 ed 9f 07 3d 95 b6 90 3d aa d9 96 be 8a 40 30 3d
       0.0331115 0.07066075 -0.2946294 0.0430303
0000d0 fe d5 94 bb 93 6a 2a 3e b6 da 80 3b 67 68 d6 3d
       -0.0045421114 0.16642217 0.0039323224 0.10469132
0000e0 07 a7 16 bd b4 99 9d 3d 69 b5 83 3e 1b c5 71 3e
       -0.036780383 0.07695332 0.25724342 0.23610346
0000f0 da 78 4d bb 8c 2e ca bb 8d a8 89 3c 2d eb 70 3d
       -0.003135255 -0.0061700996 0.016804004 0.05881803
000100 03 5c e3 bc bb 49 9a bb 6f eb 20 bc 50 b3 c5 3b
       -0.027753836 -0.0047084964 -0.009821757 0.0060333386
000110 bc 42 17 be 49 b3 b6 3a 56 01 2f bd 28 83 34 bd
       -0.14771551 0.0013938929 -0.042725883 -0.044070393
000120 22 3e 59 bd 7a 2d 16 3e 3a 36 8b bc 51 84 e8 3c
       -0.05303777 0.14665785 -0.01699363 0.028383406
000130 b3 3a 9e bc 6f 45 8f 3d 79 42 0e bd b8 88 e6 3b
       -0.0193151 0.06995665 -0.034731362 0.007035341
000140 d3 6b 3d bc c8 73 9d 3d d1 bf a9 3b de f9 ef 3d
       -0.011561352 0.07688099 0.005180337 0.1171758
000150 87 41 93 bc be d7 13 bc b0 d6 87 3b 39 f8 8b bd
       -0.017975582 -0.009023605 0.004145466 -0.06834454
000160 f8 35 05 bd 2a 18 a0 bd 02 c5 4c bb 4d 46 5a bd
       -0.03252217 -0.07817109 -0.0031245355 -0.0532897
000170 32 15 1b 3e 7c a1 1c bd 0a bf 62 3e 1f 71 00 3d
       0.15144804 -0.03823994 0.22143188 0.03135788
000180 bc 62 91 3d 05 29 73 3d 22 81 c0 3c 72 90 41 bb
       0.0709891 0.05936529 0.023499075 -0.002953556
000190 f1 33 9a bd 4c a9 4e 3c 06 94 23 ba 38 08 c2 3b
       -0.07529438 0.012613606 -0.0006240014 0.00592139
0001a0 3c 26 97 3d b2 a8 a3 bd 53 70 db bd 1e 16 5a bd
       0.073803395 -0.079911605 -0.107147835 -0.05324375
0001b0 e6 53 67 bd b7 36 8e bb f5 6c 9f bc fe c5 6d 3d
       -0.056476496 -0.0043400186 -0.019461134 0.05805015
0001c0 58 76 1a bd 67 05 9e bc 1b 98 2f 3d 5a 65 3f bd
       -0.037710518 -0.019289685 0.04286967 -0.046727516
0001d0 a4 7d 02 3d be ce a5 3d 99 de 35 bd 5e 18 3b 3c
       0.0318581 0.080960736 -0.04440174 0.011419384
0001e0 ba d5 41 bd 14 f2 8a 3d 48 86 31 bb e0 1c 05 be
       -0.047322966 0.06784454 -0.0027088095 -0.12999296
0001f0 67 74 93 bd 1f a2 f5 3c 77 7e 43 bd cb 28 77 bd
       -0.07199936 0.029984532 -0.04772803 -0.060341638
000200 85 94 44 3e ca 88 52 bc 6b 5c 3f 3e ae d9 dd 3d
       0.1919728 -0.012849996 0.18687598 0.10832535
000210 15 4f 8c 3d 1f 5d 21 bd 56 ea 0b 3c 99 bf ba 3d
       0.06851021 -0.039395448 0.008539757 0.091185756
000220 67 a6 3b bd 72 ad 4c 3e 5a e0 80 3d c2 91 13 bc
       -0.04581299 0.19988039 0.06292792 -0.009006919
000230 6e d4 b8 3d 7d 2a 59 bd 0f a1 eb bb b4 39 b4 bd
       0.09024893 -0.053019036 -0.0071908305 -0.088000685
000240 f5 ca 73 bd 7e 54 db 3d 41 c7 74 3c e0 26 f8 3c
       -0.059519727 0.10709475 0.014940084 0.030291975
000250 8c 0d 2f bd 02 7d 7c bd 2e f5 ae 3a 25 73 18 3e
       -0.04273753 -0.061642654 0.0013348216 0.14887674
000260 39 1b 1a 3e f7 26 93 3e 93 ef dd 3c 02 86 9c bc
       0.15049447 0.28740665 0.027091777 -0.019106869
000270 73 a3 3a 3d 8a f0 67 3b 03 9f 66 3c 85 86 82 ba
       0.045566034 0.0035391175 0.014075997 -0.0009958303
000280 a1 3a 89 bd 76 b5 57 3d f5 6d b6 3d 8a 6e 16 3e
       -0.06700636 0.05266329 0.089076914 0.14690605
000290 a0 a2 67 3d e5 5f 99 bd b5 3b b3 bc 30 91 22 bd
       0.056551576 -0.074889936 -0.021879056 -0.039689243
0002a0 c5 fd ae 3b 65 31 0b 3d 72 40 90 3d 30 12 e3 bb
       0.0053403103 0.033982653 0.07043542 -0.0069296584
0002b0 04 1b 4d 3b 87 51 63 3e 7c a5 cd bd 2b d8 01 bd
       0.003129662 0.22199069 -0.10041329 -0.031700294
0002c0 64 90 96 39 eb f8 88 bb d2 db 24 3d ab fa 57 bc
       0.0002871781 -0.004180064 0.0402487 -0.0131823225
0002d0 c2 cd aa 3d e3 96 17 3e 39 35 9e 3b 9a c5 c7 bd
       0.083400264 0.14803652 0.004828122 -0.097544864
0002e0 e1 f8 97 3b f6 bd 07 bb 51 c5 1b 3e 2e f0 90 3d
       0.004637823 -0.002071259 0.15211989 0.07077061
0002f0 87 51 56 3a 60 1f f0 b8 0b 80 3c 3e f1 be fc 3c
       0.00081756007 -0.00011449936 0.1840822 0.030852767
000300 f8 1c 46 3d 05 06 29 3d 6a 3b df bd 9d c2 31 3d
       0.04836747 0.041265506 -0.10900004 0.04339849
000310 13 0b c2 bd 45 04 68 bd f4 96 97 bd b0 8c 16 bc
       -0.094747685 -0.056644697 -0.07401839 -0.009188816
000320 b6 47 a5 3c 3d 8f 22 3e ae 80 99 3d d9 a8 d9 3c
       0.020175796 0.15874954 0.07495247 0.02656977
000330 79 60 e6 bc 55 64 8c bc 6c 7d 86 bb 84 fb 72 3c
       -0.028122174 -0.017137686 -0.004104307 0.014830474
000340 54 2f 95 3d eb 17 6b be 01 f2 9d 3b 0b 3e 3d 3e
       0.07284418 -0.22958343 0.004820109 0.18480699
000350 23 07 89 bc 6a 5e 84 3e 19 30 33 3d b0 33 25 3d
       -0.016727036 0.25853282 0.04374704 0.040332496
000360 d9 c0 7a bd b5 03 a2 3c 28 c8 24 3d 5c e3 67 3d
       -0.06121907 0.019777158 0.040229946 0.05661331
000370 09 3a 23 3e ee 51 53 bd 12 99 21 3e 4b f2 d2 3b
       0.15940107 -0.051591806 0.15781048 0.006437575
000380 9d eb e0 bc 78 8d bf 3c e2 ba 16 bd 94 eb 73 bd
       -0.0274561 0.023382887 -0.03679932 -0.059550837
000390 4e 3c 67 3d da 0e f3 3d ea a7 98 3d a3 ea 5b 3d
       0.056453995 0.11868067 0.07453902 0.053690564
0003a0 33 7e e3 bc eb 20 d0 3b 45 2b 78 be 06 93 14 3a
       -0.027770137 0.0063515804 -0.24235256 0.000566766
0003b0 a6 e8 a5 bd 46 c0 a0 ba dd 92 f6 bc fd 53 b1 3c
       -0.08101015 -0.0012264333 -0.030099327 0.021646494
0003c0 d4 ab 32 be 67 14 5a 3c d2 a2 64 bd b1 d3 a4 3d
       -0.1744836 0.013310528 -0.05581934 0.080481894
0003d0 9c e1 45 bc f4 f7 8b bc cd fa 16 be 60 10 c3 3c
       -0.012077715 -0.017086007 -0.1474411 0.02381152
0003e0 81 f4 0f 3c a3 77 35 bd 67 a0 ab 3c 98 7c 08 3d
       0.008786322 -0.044303548 0.02095051 0.033321947
0003f0 df 38 2c bb 1b a6 4d 3c c5 cf 7e 3d 7a 38 b1 3d
       -0.0026279015 0.01255181 0.062209863 0.0865335

fc3.bias f4 [2]
000000 be b3 f5 be 9d fd 86 be
       -0.47988695 -0.26365367

fc1.weight f4 [128, 84]
000000 df 11 0c 3d 26 59 a4 bd 19 34 ae 3d 52 c7 3e bd
       0.03419673 -0.08024816 0.085060306 -0.046576805
000010 f3 49 f3 3c 86 66 d3 bb 24 2f 33 bd a8 8d 57 3d
       0.029698348 -0.0064514307 -0.04374613 0.05262533
000020 ee 96 c9 bd 49 bc 8c bd 23 22 ff bd 6d da a9 bd
       -0.09843241 -0.0687185 -0.12457683 -0.082936145
000030 18 32 02 bd 7b c5 4e bd 26 bd 37 3d 2c 4c 0e 3d
       -0.031786054 -0.0504813 0.04485812 0.034740612
000040 a5 28 90 3d f7 9f 90 bd 2a c9 a3 ba f8 75 58 bd
       0.07039002 -0.07061761 -0.0012495865 -0.05284688
000050 88 94 06 3d 47 b9 75 bd 70 2d fa 3c 07 0c 13 bc
       0.032856494 -0.059991147 0.030539244 -0.0089750355
000060 18 b9 74 bd e9 1c 87 bd 51 0e d8 3b b6 95 aa bd
       -0.05974683 -0.06597311 0.0065935035 -0.08329336
000070 ce a1 f5 3c 43 5e 0e be a7 44 8e 3c a1 82 0a bc
       0.029984381 -0.13903145 0.01736672 -0.008453996
000080 9d c4 92 bc 59 03 86 3d 82 88 1a 3c 72 72 5b 3d
       -0.017916018 0.06543607 0.00943196 0.05357594
000090 67 67 83 bc f8 0e f0 bd 60 c5 e7 bd b3 ac a3 bc
       -0.016040517 -0.11721605 -0.11316943 -0.01997981
0000a0 c3 e3 ec bd 2e 72 6e 3d 59 3d 8e bd 2a 36 dc bd
       -0.115668796 0.05821436 -0.06945295 -0.107525185
0000b0 9e aa 5f 3d 65 04 0b be a1 60 54 3c 44 c3 1e 3c
       0.054606073 -0.13575895 0.012962491 0.00969011
0000c0 2b c7 70 bd 18 a7 ca 3d 68 3f a9 bd ef e4 da bd
       -0.05878369 0.09895152 -0.08264047 -0.10688197
0000d0 fd 59 ca bd 2a be 2b 3d 59 83 e0 3c 73 8e 98 bd
       -0.09880445 0.0419294 0.027406381 -0.07449045
0000e0 e9 47 33 3d fd 1f 99 3d 1c 34 93 3c f2 79 b0 bd
       0.04376975 0.074768044 0.017969184 -0.08617009
0000f0 04 cd 9b bd a1 31 bf 3d 82 3f bf 3c 92 57 ae bd
       -0.07607463 0.09335638 0.023345713 -0.085127965
000100 f6 32 71 bd 2f 88 90 3d 31 6a ad bd a9 ad 09 3d
       -0.05888649 0.07057225 -0.0846752 0.03361288
000110 58 29 52 3d 38 95 68 bd d6 77 61 bc f6 7c f7 bb
       0.05130896 -0.05678293 -0.013761481 -0.0075527383
000120 b6 cc 81 bd 63 1b a6 ba 3d 2e 18 3d 1a 95 33 3d
       -0.06337874 -0.0012672957 0.03715347 0.043843366
000130 14 62 ac bd d9 ce 67 3d 49 c0 be 3c e8 a6 e9 bd
       -0.084171444 0.05659375 0.023285048 -0.11408788
000140 78 01 00 be 6f 7f 95 bd ee f3 c2 3d 7f 99 a5 3b
       -0.1250056 -0.07299697 0.09519182 0.0050536986
000150 bd 2e 80 bf fb 62 e9 be b7 e8 62 be db 1e c9 be
       -1.0014263 -0.4558333 -0.22159086 -0.39281353
000160 8c b6 c8 bd b3 2f 75 bf ae 06 53 3d 27 8f b8 be
       -0.09800443 -0.9577591 0.051520042 -0.36046717
000170 b8 64 b5 3d 1e a0 cb bd fc 88 32 bf 65 16 bf be
       0.08857101 -0.09942649 -0.6974027 -0.37321773
000180 ba 65 8d be 29 80 2a bd 32 5d 19 3e a0 cc c5 3c
       -0.27616674 -0.04162613 0.14976957 0.024145424
000190 d8 27 62 bc 3d 9c d0 bd 2c ad 29 bc 77 3a 24 bc
       -0.013803445 -0.1018605 -0.010356229 -0.010023705
0001a0 fd f3 d7 bc 14 fe e7 3d e1 dc f8 bd 0d 1e a9 bc
       -0.02636146 0.113277584 -0.12151504 -0.020644212
0001b0 c2 50 a7 3d 85 ac de bd f7 46 0e 3d a9 0f 31 3e
       0.081697 -0.10872749 0.034735646 0.1729113
0001c0 11 32 86 bd c7 d4 78 3c ac 15 c1 be 9a 8f d4 3b
       -0.06552518 0.015187449 -0.37711847 0.006486845
0001d0 22 a7 19 3e 86 0a 70 3c c4 a3 a5 3d 49 ec dc 3d
       0.15005162 0.0146509465 0.080878764 0.10787255
0001e0 d7 5a 33 3e 74 ff a3 3d d0 a4 ba 3d 43 b5 be 3d
       0.17515121 0.08007708 0.09113467 0.09311917
0001f0 a1 9c b5 be a5 fe cb bd 17 f4 a5 be 9b f8 1f 3d
       -0.3547106 -0.09960679 -0.32412788 0.039055448
000200 ed cb d9 3c 76 da 8f bd 78 66 03 3e a2 f1 e4 bd
       0.026586497 -0.0702409 0.12832057 -0.111789
000210 9f 93 09 be 52 cb 34 bd 6e 2f fc 3d 65 66 b8 be
       -0.13435219 -0.044139214 0.12313734 -0.3601562
000220 7f 54 55 3e 75 8e 15 be df 22 52 3d 5a 88 d6 be
       0.20833014 -0.14605124 0.051302787 -0.41900903
000230 92 83 3c 3d bd 78 60 be 9a 32 ce bd 72 52 92 bd
       0.046023913 -0.21921058 -0.10068245 -0.071446314
000240 62 85 ea bc 4d 6d 97 bd 0e 26 bb 3d a8 55 a2 3e
       -0.028628055 -0.07393894 0.09138118 0.31705976
000250 ce bf 98 bd 28 1d a8 3d db 41 e0 3c b1 5d 6d bd
       -0.07458459 0.08208686 0.027375152 -0.05795068
000260 a8 21 72 bd 18 37 d5 3c 0e 8f 16 3d 80 4e 16 3d
       -0.05911413 0.026027247 0.03675752 0.036695957
000270 fd 22 d3 3c 91 8f be 3c 24 6c 76 3d 6f 10 df bd
       0.02577352 0.023261817 0.060161725 -0.10891806
000280 e5 84 d6 3d b6 38 e3 be 00 1b 53 bc a2 9c 31 bd
       0.10474566 -0.44379205 -0.012884855 -0.043362267
000290 0b bc 7e 3e 58 d6 80 bd c2 96 4b be 70 bc 34 be
       0.2487642 -0.06290883 -0.19881728 -0.17650008
0002a0 11 17 e5 bf e2 0a bb 3d 20 12 03 bf 2e 25 b4 3e
       -1.7897664 0.09132935 -0.5119953 0.35184616
0002b0 c0 f8 34 3c fe e0 ca be ff 98 02 be 9a 6c 09 be
       0.011045635 -0.3962478 -0.12753676 -0.13420334
0002c0 3b a5 c1 bd 62 3b 37 bd 0c 9c 0b be 6d c8 a8 bd
       -0.09455343 -0.044734366 -0.13633746 -0.08241353
0002d0 23 b0 79 bd 6a 9f 0d be 69 9d fa 3d dd 37 2d bd
       -0.060958993 -0.13830343 0.12237055 -0.042289604
0002e0 62 9f 2a be f7 ea 89 3a 66 3d 2b be a5 68 22 3e
       -0.16662362 0.0010522295 -0.1672264 0.15860231
0002f0 0c a2 22 bd d3 d9 fc bc 28 7a 9c bd f4 ff 90 bd
       -0.03970532 -0.030865585 -0.07640487 -0.07080069
000300 43 bd 56 3e de 7b 42 bd 31 4b 2b 3e ab e1 4e be
       0.20970635 -0.04748141 0.16727902 -0.20203273
000310 ac db 11 3c 41 c2 92 3e ae 49 2e be d1 28 3b bc
       0.0089024715 0.2866383 -0.17020294 -0.011423306
000320 d4 5b 83 3c 03 0b 83 3c d7 af 2e 3e c6 6e cc 3e
       0.016034998 0.015996462 0.17059265 0.39928263
000330 97 37 98 bd fb 7f 53 be 98 1c 30 be a6 f8 50 3d
       -0.07432478 -0.2065429 -0.17198408 0.05101838
000340 7f a6 31 3e 98 aa 50 bd da fb 15 3c 50 d0 8a be
       0.1734867 -0.05094394 0.009154284 -0.27112055
000350 67 ad c6 bd 1e a3 59 bf 2d a4 39 3d 64 17 3e bf
       -0.097010426 -0.8501452 0.045322586 -0.7425444
000360 22 00 f8 3a c2 29 63 3c b9 4e 35 be 4e 39 54 3e
       0.0018920938 0.013864936 -0.17705812 0.20724985
000370 5f 8e 24 3e 3c 24 ef bb 68 0d 07 3d 4b b1 56 be
       0.16069935 -0.0072980206 0.03297177 -0.2096607
000380 1c ab 87 3e 2d 0b 4d be b8 92 a2 3d e1 f6 b0 bd
       0.26497734 -0.20023794 0.07938141 -0.086408384
000390 6c 15 30 3e a2 b1 d9 3d dc 25 87 3d a2 ca 35 3e
       0.17195672 0.10629584 0.06599018 0.1775308
0003a0 73 fe b0 3d 0a b6 d3 3d b2 ea 2d 3a 06 eb 0b be
       0.08642282 0.103374556 0.00066343986 -0.13663873
0003b0 8b e7 25 be d5 90 44 be c0 55 d2 3e ad 11 f7 bd
       -0.16201608 -0.19195874 0.41081047 -0.12063918
0003c0 e5 1c a7 3c e2 6c 79 bd e9 dc 54 3e 6c d0 ec 3c
       0.02039952 -0.060894854 0.20787396 0.028907977
0003d0 61 16 28 3e 94 fd 66 3d be 33 47 be 21 0b e3 bd
       0.16414787 0.056394175 -0.19453332 -0.11086107
0003e0 bd 0b d9 3d fa 47 15 3e fa 29 cc bd a2 a8 71 bd
       0.10597942 0.14578238 -0.09968944 -0.05899871
0003f0 bf 91 02 3a 2b 53 5a bd 32 63 2e bd 41 2e 09 3d
       0.00049808243 -0.05330197 -0.04257507 0.033491377

fc1.bias f4 [128]
000000 5a 5b 1d 3c 96 86 b5 bd 8d 5c b9 bd c7 da 96 3d
       0.009604299 -0.08863561 -0.09050856 0.07365947
000010 2d 5e 55 3c 98 db 0a bd 22 99 6f bc d7 ca be bd
       0.013022942 -0.033900827 -0.014623912 -0.093160324
000020 7b 6b 20 3d dc b5 39 bd 43 d1 7e bd 70 ff f7 bd
       0.039165 -0.04533945 -0.062211286 -0.12109268
000030 28 39 a6 bd a2 9d 81 bd 5b cc 39 bd 44 17 f1 bc
       -0.081163704 -0.06328894 -0.045360904 -0.02943004
000040 5c 5b 95 bc 8e 36 3f bc 39 0a 96 bd 27 49 6a bc
       -0.01823204 -0.011670722 -0.073261686 -0.014299667
000050 07 c3 93 3c 27 25 a0 bd e8 c6 a0 bd e1 8f b2 bd
       0.018037332 -0.07819586 -0.07850438 -0.08718849
000060 fd a0 4c bd 62 14 aa bd 9e ff b4 bd f7 4a f4 bd
       -0.049958218 -0.08304669 -0.088378176 -0.11928361
000070 6d b5 db bd 08 9d fe 3c 5d 5c d7 bd cc 24 e5 3c
       -0.107279636 0.031080738 -0.10515664 0.027971648
000080 0b 30 8c bd f6 b0 48 3d 1a 7a a1 3a f1 69 84 bd
       -0.06845101 0.048996888 0.0012319714 -0.06465519
000090 be df 81 3e 26 2c 42 3d a1 3a 14 3d 7c ad e7 bc
       0.25366014 0.047405384 0.036188725 -0.028280966
0000a0 ad f0 dc bd f8 15 e6 bd a4 c7 ea bd 0a 04 4e 3d
       -0.10788093 -0.11234659 -0.1146386 0.05029682
0000b0 f2 a5 69 bd 1f 37 b2 3d a7 ca 23 3d 3d 09 07 3d
       -0.057043023 0.0870192 0.039988186 0.032967795
0000c0 2d 61 e5 bd 23 c9 b9 bd 63 1b b8 bd 32 cb 82 3d
       -0.112001754 -0.09071567 -0.089895986 0.06386413
0000d0 3f 3c 6e bc 36 68 27 bd 08 c0 04 bd 86 c2 00 be
       -0.014540731 -0.040870868 -0.032409698 -0.12574205
0000e0 21 15 d2 bd 85 20 83 bc 5c b7 85 3d c7 50 31 bd
       -0.10257936 -0.016006717 0.06529114 -0.043289926
0000f0 d9 72 d2 bd b5 b7 ca bd 23 cb f2 bd 70 38 26 bb
       -0.10275812 -0.098983206 -0.118551515 -0.002536323
000100 06 19 13 bd d7 cb 43 bd 71 60 13 bc ea 36 97 bd
       -0.035912536 -0.04780182 -0.008995161 -0.07383521
000110 8f 87 84 3d a2 28 43 3d 9b 34 57 3d d9 68 51 3e
       0.06471168 0.047646172 0.052540403 0.20450152
000120 64 a4 90 bd c4 28 01 bd c9 b2 b4 bd 7b 90 3e bd
       -0.07062605 -0.031533018 -0.08823163 -0.046524506
000130 af d5 bb 3d 33 2e 69 bd 53 43 de bd 60 62 cb 3d
       0.09171616 -0.056928825 -0.10852685 0.09930873
000140 5b ff e1 bd e5 51 09 bd a9 48 04 be b2 b2 90 bd
       -0.11035033 -0.033525366 -0.12918343 -0.070653334
000150 58 50 74 bd f2 02 92 bc 44 69 a1 bd ac bc a0 3c
       -0.059646934 -0.01782367 -0.07881406 0.019621216
000160 4b f3 c0 bd ee 26 a3 bd da 7f 90 bc a7 46 45 bd
       -0.094214045 -0.079664096 -0.01763909 -0.048163082
000170 24 de d1 3d f3 87 85 bd aa 29 e9 bb be d0 5b bd
       0.10247448 -0.06520071 -0.0071155624 -0.05366587
000180 c3 a9 2e 3c 24 5b a9 bb 02 19 bd bd 6b 03 58 3d
       0.010660592 -0.0051683355 -0.092332855 0.052737635
000190 48 10 b5 3c ec 22 81 bd 80 5b 35 bc e1 9f ab bd
       0.02210249 -0.06305489 -0.011069179 -0.08380104
0001a0 d4 02 0e 3d fb 0e 79 bc 2a de 8e bd b7 4f 09 3d
       0.034670666 -0.0152013255 -0.06975968 0.033523288
0001b0 62 71 ad 3c d6 aa b6 bd 8d 89 1b 3d 57 92 a5 3c
       0.02117223 -0.08919303 0.037972976 0.020211382
0001c0 1c ca 86 bb 97 b3 9d bd 75 a3 bd 3d 0d 0b 07 bd
       -0.004113449 -0.0770027 0.092596926 -0.032969523
0001d0 b8 0b 08 be 16 9b 3b 3b 5e 50 b1 bd 2a 7e 3e 3d
       -0.1328572 0.0028626374 -0.08657907 0.04650704
0001e0 16 15 9b 3d a2 cd c1 bc b7 7f b0 3d 9d 79 43 bd
       0.07572381 -0.023657624 0.0861811 -0.0477234
0001f0 98 5d a0 bd 2b 7c 4f 3e 51 d6 eb bd bc 76 10 be
       -0.078303516 0.2026221 -0.11515487 -0.14107794

fc2.weight f4 [128, 128]
000000 10 d6 cf 3d 50 2f 2a be e0 bb 18 be 53 92 a6 bd
       0.10148251 -0.16619611 -0.14915419 -0.08133378
000010 c6 d2 80 bd c6 36 70 bd 8d 6b 27 3b a3 81 01 bd
       -0.06290202 -0.058645986 0.0025546283 -0.03161777
000020 27 4f 30 3e 23 f4 27 3d 00 ad 83 bd 20 34 36 3d
       0.17217694 0.04100431 -0.064294815 0.044483304
000030 6a d0 d1 bc ab 41 d8 3c bc 70 c5 3c 24 ad a0 3d
       -0.025612075 0.0263985 0.024101608 0.07845524
000040 7e 8a 78 bc d3 87 95 3d 10 4f 98 3d 4c a4 a8 bc
       -0.015169738 0.07301297 0.07436955 -0.020586155
000050 ea f4 91 3d 5c 5c f7 bc f8 0b 8b 3b 4c ee 91 3d
       0.07126792 -0.030195408 0.00424337 0.0712553
000060 c2 1e 88 3c 9f b7 7e 3d a2 7a a3 3d 5b b6 55 3d
       0.016616229 0.062186833 0.07982375 0.05217586
000070 a9 74 cc 3c 47 3d 82 bb 7f 59 b4 3d 0f 65 b4 bd
       0.024957972 -0.00397459 0.088061325 -0.08808338
000080 9a c6 74 bc 70 cb 9e 3c 4b 6f 26 be eb 00 5e 3d
       -0.014939928 0.019384116 -0.16253392 0.054200094
000090 48 6b e4 3d 97 15 0f bd b1 63 e5 bd 8f 54 39 bd
       0.11153275 -0.0349327 -0.11200655 -0.045246657
0000a0 0f c4 06 3e 5d c1 88 3d ce 6b 89 bd 9a 42 b5 3d
       0.13160728 0.06677506 -0.06710015 0.08850594
0000b0 e1 c0 28 bd 40 75 b9 3d 3a e9 3f 3d b3 d4 db 3d
       -0.04119957 0.09055567 0.04685328 0.107339285
0000c0 69 a6 9c bd 4c b2 2f bd d7 25 7f 3d 3b 9b dd 3e
       -0.07648928 -0.042894647 0.062291946 0.43282494
0000d0 37 ae b9 3d db 86 54 bd bd 65 14 3d 5b 18 11 3d
       0.09066432 -0.05188642 0.036229838 0.035423618
0000e0 2e 81 5b bd 39 68 a3 bc 3f a4 57 bd 39 38 52 3d
       -0.053589992 -0.019947158 -0.05264687 0.05132315
0000f0 ba cc 88 bd b0 67 b2 bd 59 d6 25 bb f9 60 16 bc
       -0.066796735 -0.08711183 -0.0025304763 -0.0091783935
000100 e7 69 f2 bd 1d 65 0d 3e e6 c0 be bc 2e 8b 74 3d
       -0.118366055 0.13808103 -0.02328534 0.059703045
000110 65 8f 3e 3d 35 ec 00 ba 8a f8 41 bd d6 38 07 be
       0.04652347 -0.000491801 -0.047356166 -0.13205275
000120 ad a1 ce 3c 87 47 5f 3d 3f 15 ee bc 24 ed 6f 3d
       0.025223577 0.054511573 -0.029062865 0.058575764
000130 0c 49 5b 3d 3d 0e 94 bd a2 bb f7 3c 2f fd 8c 3e
       0.05353646 -0.07229278 0.030240837 0.27536914
000140 a8 b2 39 3d 6e 71 9f bd e7 80 33 3c ac 2b 34 bd
       0.045336396 -0.07785307 0.010956026 -0.04398696
000150 48 6f bb bd 02 c3 2a bd eb 50 4d 3d 46 57 1e bd
       -0.091520846 -0.04168988 0.050125998 -0.03865745
000160 7f 2e b0 3d 40 5d 89 3c 51 9f b3 bd bf 39 65 bd
       0.086026184 0.016768098 -0.087706216 -0.055963274
000170 97 1d 91 bd 4f 04 55 3d 75 8f aa 3d fa a9 da 3c
       -0.07085722 0.052006062 0.083281435 0.02669238
000180 09 42 1e bf fb e7 cc 3a 42 af d3 3d 04 4a 0f 3d
       -0.6181951 0.00156331 0.10336162 0.034982696
000190 3b ff b6 be fb 14 05 3d d2 46 96 bd a2 d4 2a 3e
       -0.357416 0.03249071 -0.07337727 0.16682675
0001a0 6b d5 d2 3d 27 1d ca bd c4 31 1e ba 6a b4 0e 3c
       0.102946125 -0.098688416 -0.00060346373 0.008710006
0001b0 82 20 99 bd 11 6d 52 3c 68 1b a4 bd 2c 16 91 3d
       -0.074769035 0.012843386 -0.0801304 0.07084307
0001c0 d3 36 30 3e 96 8c 0b bd 06 91 92 bc 2b 1e 11 be
       0.17208414 -0.03406962 -0.017891418 -0.14171664
0001d0 e2 8d 77 3b ad 3f 89 bd 6a 6d e5 bc b7 98 78 3d
       0.0037773778 -0.06701598 -0.028006274 0.060692515
0001e0 bd 47 08 bd 6f dc 43 bd 10 de ba 3b 16 94 aa 3d
       -0.03327154 -0.047817644 0.0057027414 0.083290264
0001f0 03 f3 ef bd 24 58 ba bd b7 19 52 bd f1 67 f6 39
       -0.11716273 -0.09098843 -0.051294055 0.0004699822
000200 8c 60 ad 3d 6f e4 6f 3d 4f d6 85 bd 27 ef d3 bc
       0.084656805 0.05856746 -0.06535017 -0.025870873
000210 65 02 7d 3d 70 cd 48 bd 31 67 60 be 4b 17 ba bd
       0.06176986 -0.049024045 -0.21914364 -0.09086474
000220 cb c9 83 bd 4b 15 8a bd 42 28 ad bd 25 2d 5b 3d
       -0.06434973 -0.067423426 -0.08454944 0.05350985
000230 ee ee b2 3d ef ec 4d bd d0 46 d8 ba 9b 8d 9a 3d
       0.087369785 -0.050274786 -0.0016500596 0.0754654
000240 dd 20 69 bd 92 d7 5d 3d c5 a0 6c 3d 54 73 af 3d
       -0.056916106 0.054160662 0.05777051 0.08566919
000250 59 54 c5 3d 24 a0 d6 3c b9 a7 8a 3d f4 21 a6 bc
       0.09635229 0.026199408 0.06770272 -0.020279862
000260 0c 75 a9 3d 57 76 9b 3d 8f 0e 9d 3d fb 98 99 bd
       0.08274278 0.07590931 0.076687925 -0.07499882
000270 c7 c1 a2 bd 80 55 5e bb 61 af 12 3d c8 58 a9 be
       -0.07947116 -0.0033925474 0.035811786 -0.33075547
000280 03 60 24 3d fe fc ac bc 65 9b 55 3e b2 f9 6a 3d
       0.040130626 -0.02111673 0.2086006 0.057367034
000290 b2 08 98 bd f2 73 7d be ad e8 cd bc f0 f7 66 bf
       -0.074235335 -0.24751261 -0.025135363 -0.9022207
0002a0 e2 26 19 bc dc 55 54 3d 95 90 1e be 4b eb 68 3e
       -0.009347649 0.051839694 -0.15484841 0.22746007
0002b0 4b 12 44 3d 60 38 1f 3c 1c 11 75 3d da 75 03 be
       0.047869008 0.009718031 0.05983077 -0.12837926
0002c0 70 ec d8 3b f3 a9 90 3d c6 03 5b bd 13 e7 37 3e
       0.0066199824 0.07063665 -0.053470396 0.17959242
0002d0 88 88 9a bd 40 fa f9 3d 46 5f 17 bd be 28 fd 3c
       -0.075455725 0.122059345 -0.036956094 0.030903216
0002e0 2e 0a b0 bd fc 4c 35 bc 0a 39 b4 bd 3c 98 4f 3d
       -0.085956916 -0.011065718 -0.08799942 0.05068229
0002f0 5d 14 d4 bb 43 1a ee 3c e8 67 98 3c 86 6e 12 bd
       -0.006472154 0.029065257 0.018604234 -0.035749935
000300 bd db 66 3e 31 10 3b be be e5 6b 3d e5 30 5c 3d
       0.22544761 -0.18267895 0.057592146 0.053757567
000310 6c e3 03 bc 22 44 cd 3c fc b2 54 3e b6 34 0d bd
       -0.008049827 0.025056902 0.20771402 -0.034474097
000320 68 6b 67 3c ee a7 d1 3c ef 69 00 3d 71 af 6b 3d
       0.014124729 0.02559277 0.031351026 0.05754036
000330 92 b6 58 bd a0 4b f1 3c a3 8c 93 3d cc d4 4d be
       -0.052908488 0.029455006 0.07204559 -0.20100707
000340 49 62 a8 bd b0 06 20 3b b1 53 af bc 7a 2e 3c bd
       -0.082218714 0.0024418049 -0.021402212 -0.04594276
000350 12 b3 b0 3d 35 48 81 3d ad 1f 02 3a 28 2d c5 3d
       0.08627905 0.063126005 0.00049638265 0.096277535
000360 4e e2 d1 bc 83 cb 77 bd 1c 87 da 3d c8 d9 96 bd
       -0.025620606 -0.06049682 0.10670301 -0.07365757
000370 97 90 46 3d 8c ec bb 3c 89 f6 ca bc 58 c3 81 3b
       0.048477735 0.022939943 -0.02477576 0.0039600544
000380 12 07 a4 bd 8b a6 87 bc f7 2c a4 3e 6f 49 2e bd
       -0.08009161 -0.016558906 0.32065555 -0.0425505
000390 e5 1b db be 12 22 d7 bb b6 d3 ad bd db af 00 be
       -0.4279472 -0.006565341 -0.08487646 -0.12567084
0003a0 e3 e8 9a bd 26 70 6f bd b7 ed f1 bc c9 b8 bb 3c
       -0.07563951 -0.058456562 -0.029532297 0.02291526
0003b0 c6 ce c5 3c 1f 9f a5 3d ad 5d 11 bd 22 95 04 be
       0.024146449 0.080869906 -0.035489727 -0.12947515
0003c0 2f ec e6 bd da 75 97 3d 65 c5 c2 3d 54 8e 12 be
       -0.11275517 0.07395525 0.09510306 -0.14312106
0003d0 23 01 3b bd 9e e1 27 bd 9c d0 ae 3d 3e 19 c7 3c
       -0.04565538 -0.04098665 0.08535883 0.024304029
0003e0 66 eb af bd 4f bc 2c bd cb 5f 86 3e 06 42 18 3c
       -0.085898206 -0.042171773 0.2624496 0.009293085
0003f0 fa dc 6b 3e ae f0 93 3d ac 1c 97 3d af 08 9b bc
       0.23033515 0.072236404 0.073785156 -0.01892504

fc2.bias f4 [128]
000000 0d 63 1a 3f 04 17 37 bc d6 9f 02 3f 3a 7e 20 bd
       0.6030739 -0.011174921 0.5102514 -0.03918288
000010 1f 77 45 3d 39 d9 d3 bd b5 06 9f bc ee 50 aa be
       0.048209306 -0.10344166 -0.019412378 -0.3326487
000020 64 32 cf bd 51 26 84 bc 86 a8 b2 bd 1b 6c 1d 3d
       -0.10117033 -0.016131552 -0.087235495 0.038433176
000030 6d c5 9b 3b b7 ce 3e bd b4 90 a2 3e 54 16 19 be
       0.0047537596 -0.046583857 0.31751025 -0.14949924
000040 40 28 ed bd dc 20 f0 bd 9a d4 16 be ea 47 a9 bc
       -0.11579943 -0.117250174 -0.14729539 -0.020664174
000050 b7 27 a1 be fb e9 58 3e 80 13 16 3f cc 10 be bd
       -0.31475613 0.21183006 0.58623505 -0.092805475
000060 2c 22 0c 3e 34 2b 19 3f 6c d9 fa bd 4d 54 86 bd
       0.1368491 0.5983155 -0.12248501 -0.06559048
000070 56 98 db be e8 bc fc bd 05 49 8d be 6f 91 37 bf
       -0.4288966 -0.123407185 -0.27594772 -0.7170629
000080 49 a7 9a 3d 81 bd a5 bb 78 5e 6b bd 1e 59 2a bb
       0.07551438 -0.005057991 -0.05746314 -0.002599306
000090 83 2c 7d bd 66 8b 32 bb bf 61 07 bf db 9c 07 bf
       -0.061810028 -0.0027243732 -0.52883524 -0.5297372
0000a0 df 6e d0 bb 0c fd ce bd 78 0e 90 be 85 f1 0e be
       -0.006360873 -0.101068586 -0.2813604 -0.1395932
0000b0 b9 9d b3 bd 59 0a 9f bd 7d 6b 2f 3c 1f 7f 7b bd
       -0.087703176 -0.077656455 0.01070678 -0.06140053
0000c0 c3 c4 8d bd fb 76 1f be 64 f9 f4 bd 3b 8f 8d 3e
       -0.06922295 -0.15572731 -0.1196163 0.2764834
0000d0 e3 cd 00 be 44 a9 c2 be aa 04 00 bf b4 b2 17 3e
       -0.1257854 -0.38019764 -0.50007117 0.14814264
0000e0 b5 99 b6 39 98 61 22 bd d3 aa ce 3d 59 0e 12 bf
       0.00034828266 -0.039643854 0.10091176 -0.5705314
0000f0 18 b1 e7 be 4f 12 72 bd 9c b1 d0 bd 02 c9 c7 bd
       -0.452523 -0.05909949 -0.10190126 -0.09755136
000100 4b d7 85 bd 2f ad ff 3e cb c9 b0 bc ae de a7 bd
       -0.065352045 0.49936816 -0.021580597 -0.0819677
000110 87 e3 99 bd b0 f2 0a be f2 78 1e 3d bd 84 a2 3c
       -0.075141005 -0.1356914 0.03868956 0.019838685
000120 9d 7c c4 3c d4 fa 85 bd 55 3e d0 bd 50 db 15 be
       0.023985201 -0.06541982 -0.10168139 -0.14634442
000130 80 c4 82 be 94 47 2c 3e 7a 36 e0 3e 07 b7 87 3e
       -0.25540543 0.1682418 0.43791562 0.26506826
000140 e6 ef 31 bd 50 a3 0a 3d cf a2 bd 3a 92 52 0e be
       -0.043441676 0.033847153 0.0014468076 -0.13898686
000150 45 08 f9 bc 79 18 f0 bc ff d5 6f bb 3a 7a 66 bd
       -0.030399451 -0.029308544 -0.0036596057 -0.056268908
000160 f5 4b 0f bc 17 d1 07 bf 61 e8 11 be e2 ee a4 be
       -0.008746137 -0.5305342 -0.14248802 -0.32213503
000170 da 83 cb be 4b 51 b3 bc 5f fb cb 3e 41 b1 62 bd
       -0.39749032 -0.02188935 0.39840218 -0.055344824
000180 5e 66 90 bd 1c de a4 bd c0 b6 85 bd 13 f9 17 bf
       -0.07050775 -0.080501765 -0.065289974 -0.5936443
000190 f4 a5 cd be 81 05 a4 bd d5 75 71 be ad 12 a4 3c
       -0.40165675 -0.08008862 -0.23580106 0.020028437
0001a0 82 7a af bd fa be 83 3c f6 d0 e2 be 2b 6d bb bc
       -0.085682884 0.016082276 -0.4430005 -0.022879204
0001b0 8f 05 83 bd 23 20 12 be b6 56 3d be a7 3d e8 bc
       -0.063975446 -0.14270072 -0.18490109 -0.02834971
0001c0 1c f9 bc bd eb 33 b5 bd 67 ca a7 3e 66 6e 20 bc
       -0.09227201 -0.08847793 0.32771608 -0.009791946
0001d0 6d 9c ef 3e 57 dc a5 be d7 8a 04 be 7a a3 f1 bb
       0.4679903 -0.32394668 -0.12943588 -0.0073742243
0001e0 58 b8 b1 be e8 45 aa bd ac a3 7d 3f 68 99 f1 bd
       -0.34710956 -0.08314115 0.9907787 -0.11796838
0001f0 f8 3f be be e6 b9 07 be 8d 20 e3 bc f4 3e 4b bd
       -0.3715818 -0.13254508 -0.027725482 -0.049620584
