saved_models/episode_900/agent_2.pth (torch, 738018 bytes, 44 tensors)

fc1.weight f4 [128, 5]
0	0xbe425e4c	-0.18981284
1	0xbdb82551	-0.089914925
2	0xbe75e7e1	-0.24014236
3	0xbe280158	-0.16406763
4	0x3b22f31e	0.0024864147
5	0x3e9b5b86	0.30343264
6	0x3d1aa7ac	0.03775756
7	0xbd759450	-0.059955895
8	0xbdf68e59	-0.120388694
9	0x3c008389	0.00784386
10	0x3eb31fc8	0.34985185
11	0xbe94d778	-0.2907064
12	0xbe863ece	-0.2621979
13	0x3e82bc9a	0.25534517
14	0x3dfa349d	0.122170664
15	0x3ee1fbbf	0.4413738
16	0xbedb7f52	-0.42870575
17	0xbe2a9c8b	-0.16661279
18	0xbe89c219	-0.26905897
19	0xbd02e4fd	-0.03195666
20	0x3db2f81c	0.08738729
21	0xbe3e469f	-0.18581627
22	0x3e286bc9	0.16447367
23	0x3eb9adce	0.36265415
24	0xbeb0d725	-0.34539142
25	0x3e7ffd16	0.24998888
26	0xbecc3a56	-0.39888257
27	0xbb3bc7e2	-0.0028653075
28	0xbea5c0a3	-0.32373533
29	0xbea4b3a7	-0.32168314
30	0xbd381827	-0.04494491
31	0xbeb1426a	-0.34620982
32	0xbe2ba101	-0.16760637
33	0xbe519a0e	-0.20468923
34	0xbe8716bc	-0.26384532
35	0xbee34180	-0.4438591
36	0xbe3663a4	-0.17811447
37	0xbc421450	-0.011845663
38	0xbe468487	-0.19386493
39	0xbe9743f6	-0.29544038
40	0x3eb43864	0.35199273
41	0xbe5b6cde	-0.21428248
42	0xbd945a21	-0.07243753
43	0xbeb8156c	-0.35953844
44	0x3e571576	0.2100428
45	0xbecbd344	-0.3980962
46	0xbdaa9bbf	-0.083304875
47	0xbdd277b4	-0.10276738
48	0xbe0ec5eb	-0.13942687
49	0x3dd20ab3	0.10255947
50	0x3ee87e85	0.45409027
51	0x3e8eec7a	0.27914792
52	0xbec8fb8f	-0.39254424
53	0x3d825d67	0.06365471
54	0xbdb6aa2d	-0.08919177
55	0xbe99036f	-0.29885432
56	0x3ed8b6fd	0.4232711
57	0x3ed8d286	0.42348117
58	0xbea4f0ff	-0.32215115
59	0xbe8671e3	-0.26258764
60	0xbeca8b22	-0.39559275
61	0xbeb779b3	-0.35835037
62	0x3e73a4e7	0.23793374
63	0xbeca9dd1	-0.3957353
64	0xbe8339f2	-0.25630146
65	0xbe0945eb	-0.13405578
66	0xbde5ddb2	-0.11223926
67	0x3e2a08aa	0.16604868
68	0x3ce1c01a	0.027557421
69	0x3eb18c99	0.3467758
70	0xbcb270c2	-0.021782283
71	0xbeb8bb64	-0.36080468
72	0x3ddfbb53	0.10924401
73	0xbeab4b11	-0.3345571
74	0x3e5c20c5	0.21496876
75	0xbe808407	-0.2510073
76	0xbda9c436	-0.082893774
77	0xbde52d95	-0.11190335
78	0xbec25185	-0.3795282
79	0x3eac304a	0.33630592
80	0x3e020a59	0.1269926
81	0xbe8707bb	-0.26373085
82	0x3de34b14	0.110983044
83	0x3eae977c	0.34099948
84	0xbe0c5449	-0.13704027
85	0x3d993251	0.074803
86	0x3e7cbf93	0.24682455
87	0x3ea73634	0.3265854
88	0x3ec5254a	0.38505012
89	0x3eccc89f	0.39996812
90	0xbeb49855	-0.3527247
91	0x3e905546	0.28190058
92	0xbd0f9b4d	-0.035060216
93	0xbe8cb56c	-0.27482164
94	0xbe96162d	-0.29313794
95	0xbd785667	-0.060629275
96	0x3e33967f	0.17537878
97	0x3e30b6e2	0.17257264
98	0x3d1632fc	0.036669716
99	0xbe971697	-0.29509422
100	0xbde11bc2	-0.109916225
101	0x3eb585f7	0.3545377
102	0xbebcf9a6	-0.36909217
103	0xbe83eebe	-0.25768083
104	0x3e183e90	0.14867616
105	0xbe95cfe3	-0.29260167
106	0x3e99355b	0.2992352
107	0x3e584a02	0.21121982
108	0x3de26f08	0.11056334
109	0xbe8045b6	-0.25053185
110	0x3e364c7b	0.17802612
111	0x3edaa8a9	0.42706802
112	0x3ed1ae4d	0.40953293
113	0x3e7ddf90	0.24792314
114	0x3eec6b3c	0.46175563
115	0x3e88c23e	0.26710695
116	0xbd745b01	-0.0596571
117	0x3e8f0eed	0.27941075
118	0xbdc0ea42	-0.09419681
119	0x3cc20261	0.023682775
120	0xbe918ee0	-0.28429317
121	0xbd240a67	-0.040048983
122	0x3de99d70	0.11406982
123	0xbd5f1c1a	-0.05447016
124	0x3ec4109e	0.38293928
125	0x3edecace	0.43514103
126	0x3e80127d	0.25014105
127	0xbe59e3fb	-0.21278374
128	0x3d726f48	0.059188157
129	0xbe5beb06	-0.21476373
130	0xbe6f24a2	-0.23353818
131	0x3e742bb7	0.23844801
132	0xbe814573	-0.25248298
133	0xbe5caf59	-0.21551265
134	0xbe9face7	-0.31186602
135	0x3e2c7328	0.16840804
136	0xbd287bb2	-0.04113359
137	0xbedbc1d7	-0.42921326
138	0x3e9f85e7	0.31156847
139	0x3eb45dea	0.352279
140	0xbebea414	-0.37234557
141	0x3d018f99	0.031631086
142	0x3ec1511d	0.37757197
143	0xbe879309	-0.26479366
144	0xbeb5f1f5	-0.3553616
145	0xbe129ef9	-0.14318456
146	0x3e800a46	0.25007838
147	0x3e90b7fe	0.28265375
148	0xbdc24eb0	-0.09487665
149	0x3ea12ce4	0.3147956
150	0x3e8a4fc1	0.27013972
151	0x3ee2b7a4	0.44280732
152	0xbe97b9e2	-0.29634005
153	0x3e863882	0.26214987
154	0x3a75cf6a	0.00093769154
155	0x3e5085c5	0.20363529
156	0xbe5e77fd	-0.2172546
157	0x3dcee7b5	0.10102788
158	0x3d78aab4	0.06070967
159	0x3e1b19c5	0.15146549
160	0x3da51adb	0.08061763
161	0xbed9c633	-0.42534027
162	0xbe258e80	-0.1616764
163	0xbe084155	-0.13306172
164	0xbd3fb2df	-0.046801444
165	0x3e105cf3	0.14097957
166	0xbeb36a3f	-0.35041997
167	0xbdac089e	-0.08400081
168	0xbed87d2d	-0.42283002
169	0xbd8aa2d8	-0.06769341
170	0xbdade3d2	-0.08490719
171	0xbe59cb5a	-0.21268979
172	0x3eab07a7	0.33404276
173	0x3e74f5ff	0.23921965
174	0xbdae82f7	-0.08521073
175	0xbedc7512	-0.43058068
176	0x3e2a8434	0.16651994
177	0x3e986f8c	0.29772604
178	0xbe11918a	-0.14215675
179	0x3e3f8747	0.18703948
180	0x3d885cb4	0.06658307
181	0x3e22cc28	0.15898192
182	0x3e5643e9	0.20924343
183	0x3daafd74	0.083491236
184	0xbe2e20fb	-0.17004769
185	0xbe8cec2d	-0.27523938
186	0xbeca1616	-0.39469975
187	0x3dd08e2d	0.10183368
188	0xbe1d85b2	-0.15383032
189	0xbed3517c	-0.41273105
190	0x3d980d6f	0.07424437
191	0xbe1cfad1	-0.15330054
192	0x3e2f9d6a	0.17149892
193	0x3ede7850	0.43451166
194	0xbe838bed	-0.25692692
195	0x3ea30844	0.31842244
196	0x3bbfdc58	0.0058551244
197	0xbe12d145	-0.14337642
198	0x3d814efd	0.06313894
199	0x3ea2d7bf	0.31805226
200	0xbe2ba316	-0.16761431
201	0x3e189c05	0.14903267
202	0x3dd18237	0.10229915
203	0xbe430c64	-0.19047695
204	0xbe8639cf	-0.2621598
205	0x3e6f7520	0.23384523
206	0x3e7c9f98	0.24670255
207	0x3d38ae98	0.04508838
208	0xbcdb5e2e	-0.026778307
209	0x3c404438	0.011735015
210	0x3df0e49a	0.11762352
211	0xbe5db92c	-0.21652669
212	0xbde331b1	-0.11093462
213	0xbd4ef7cc	-0.050529286
214	0xbeb9f7bd	-0.36321822
215	0x3e3343d4	0.17506343
216	0xbdf60e5f	-0.1201446
217	0xbe5c25df	-0.21498822
218	0xbeacdf62	-0.33764178
219	0xbc93f839	-0.018062698
220	0x3ea8e80c	0.32989538
221	0xbc8ed5a3	-0.017435854
222	0xbea88e4e	-0.3292107
223	0xbdc4ed70	-0.096156
224	0xbe0c0d48	-0.13676941
225	0xbe3b57e8	-0.18295252
226	0xbee0f44f	-0.43936393
227	0xbe6b8a26	-0.23001918
228	0x3d72d4c6	0.059284948
229	0x3d71c3d2	0.05902464
230	0xbe971d35	-0.2951447
231	0xbda373c3	-0.07981064
232	0x3e919c6c	0.28439653
233	0xbe1402bf	-0.14454173
234	0xbeb67d46	-0.3564245
235	0xbe255d67	-0.16148911
236	0x3ec485ef	0.38383433
237	0xbd05ead7	-0.032694664
238	0x3eb8478a	0.3599208
239	0x3db9b00b	0.09066781
240	0x3d1883e3	0.037235152
241	0x3d2192e0	0.03944671
242	0xbeca240d	-0.3948063
243	0x3e410d12	0.18852642
244	0xbd26e902	-0.040749557
245	0xbd474184	-0.048646465
246	0xbded1a4a	-0.1157728
247	0xbe825d39	-0.25461748
248	0x3e96e1db	0.2946919
249	0x3c671488	0.014104016
250	0xbeb5270a	-0.35381347
251	0xbeccb4a7	-0.39981577
252	0x3ec2466c	0.37944353
253	0xbecf7328	-0.40517545
254	0x3e86768d	0.26262322
255	0x3e3fc3be	0.18727013

fc1.bias f4 [128]
0	0x3e90893b	0.282297
1	0xbed3d03e	-0.41369814
2	0xbebc4c0e	-0.36776775
3	0x3e5a1ddc	0.21300453
4	0xbcc6b8ad	-0.024257982
5	0xbecb57ca	-0.39715415
6	0xbeae6e74	-0.34068644
7	0x3e1c756a	0.15279165
8	0xbeddc282	-0.4331246
9	0xbdea3888	-0.11436564
10	0x3e8ccf19	0.27501753
11	0xbe30518c	-0.17218608
12	0x3e63adf1	0.22234322
13	0x3d8ebd99	0.06969757
14	0xbe2926fa	-0.16518775
15	0x3e5da137	0.2164353
16	0x3efe694b	0.49689707
17	0x3e0e38ff	0.1388893
18	0x3e9f9138	0.3116548
19	0xbec27bf1	-0.37985185
20	0x3e241127	0.16022168
21	0x3d4747b8	0.04865238
22	0x3e83c50d	0.25736275
23	0x3de0074e	0.10938893
24	0x3e55c94c	0.2087757
25	0x3edf85ae	0.43656677
26	0x3e439980	0.19101524
27	0x3ed1849d	0.40921488
28	0xbdbe9ba8	-0.09307033
29	0x3f3d1ba9	0.7387033
30	0x3e373e56	0.17894873
31	0xbecabe04	-0.39598095
32	0x3a973fc1	0.0011539386
33	0x3d9f0247	0.07764106
34	0xbe2c564d	-0.16829796
35	0x3e877691	0.26457646
36	0x3eda878a	0.42681533
37	0x3d726baa	0.059184708
38	0x3ddb3510	0.1070348
39	0xbe85f684	-0.2616464
40	0x3e8f1403	0.27944955
41	0xbe1aaa06	-0.15103921
42	0xbbfd4258	-0.007728856
43	0xbecd94f4	-0.40152705
44	0xbe726dc9	-0.23674692
45	0x3c4b2ce0	0.012400836
46	0xbea3d145	-0.31995597
47	0x3e91faea	0.28511745
48	0xbed8c724	-0.42339432
49	0x3eef48a7	0.46735117
50	0xbe7c610c	-0.24646395
51	0x3d74391f	0.059624787
52	0xbe911b56	-0.28341168
53	0x3eba43fd	0.36379996
54	0x3d3b00a1	0.045654897
55	0xbe886ea5	-0.26646915
56	0xbe298ab3	-0.16556816
57	0x3ea3d191	0.31995824
58	0xbdfefc98	-0.12450522
59	0x3eb04755	0.34429422
60	0x3e3f4126	0.18677196
61	0xbea88f68	-0.3292191
62	0x3e3d2016	0.18469271
63	0x3e0823b5	0.13294871
64	0x3ee321ce	0.44361728
65	0x3da94de2	0.08266808
66	0xbe8ebf46	-0.27880305
67	0xbe812304	-0.25222027
68	0x3ea21731	0.3165832
69	0xbeaddd2d	-0.33957806
70	0x3e15cef0	0.14629722
71	0x3cb536db	0.022120884
72	0xbeddefbe	-0.4334697
73	0xbe0e8b84	-0.13920408
74	0x3e784443	0.2424479
75	0x3ef5a78a	0.47979385
76	0xbe7d33b6	-0.24726757
77	0x3ea98ba6	0.33114356
78	0xbd427b82	-0.047481067
79	0x3e2984a6	0.16554508
80	0xbed10a68	-0.40828252
81	0x3e77ead0	0.24210668
82	0xbd4c6422	-0.04990018
83	0x3de9caa4	0.11415604
84	0xbe2ba423	-0.16761832
85	0xbec556ee	-0.38542885
86	0x3ec39234	0.38197482
87	0x3ed8750f	0.4227681
88	0xbe9dc906	-0.3081743
89	0x3ea4baa0	0.32173634
90	0xbe54b90b	-0.20773713
91	0xbe232582	-0.15932277
92	0x3e966b2c	0.2937864
93	0x3ed96ca8	0.4246571
94	0x3dc0d44f	0.09415495
95	0xbeb32e09	-0.3499606
96	0xbe1c9d45	-0.15294369
97	0xbe276ac7	-0.16349326
98	0x3e37e140	0.1795702
99	0xbeae125d	-0.33998385
100	0xbdb14531	-0.08655775
101	0x3ef95986	0.48701113
102	0xbc4d67ff	-0.012537002
103	0xbe84fe94	-0.25975478
104	0x3eda0b94	0.42586958
105	0xbed9326c	-0.4242128
106	0xbd4bc6a0	-0.04974997
107	0x3ecb21d0	0.39674234
108	0x3e958a11	0.292069
109	0x3e359b75	0.17735083
110	0xbe6463f8	-0.2230376
111	0xbe8170aa	-0.25281268
112	0x3ec930b8	0.39294982
113	0x3dcc4728	0.099745095
114	0x3dbf38f3	0.09337034
115	0x3eaf6bf6	0.34262055
116	0x3eebbc95	0.46042314
117	0x3e9cd0e7	0.3062813
118	0xbdb31d9d	-0.08745883
119	0x3e2025be	0.15639398
120	0xbec1b7b7	-0.37835476
121	0xbe91d075	-0.28479353
122	0x3c379854	0.011205751
123	0xbe9aa724	-0.30205643
124	0x3e84979f	0.25896928
125	0xbe2f43ae	-0.17115662
126	0xbe72bead	-0.2370555
127	0xbea41cc9	-0.3205321

fc2.weight f4 [128, 128]
0	0xbd905ebe	-0.07049321
1	0x3d787f0f	0.060668048
2	0x3cbc6694	0.022998132
3	0x3cebb237	0.028771503
4	0xbd52c1d4	-0.05145438
5	0xbc51a88b	-0.012796531
6	0x3d44802c	0.047973797
7	0xbd443bb1	-0.04790849
8	0xbc052a91	-0.008127824
9	0x3c9a5bef	0.018842665
10	0xbce681c0	-0.028138041
11	0x3d896da5	0.06710366
12	0x3bb8384f	0.005621947
13	0x3bd05495	0.006357739
14	0x3c85d627	0.016337467
15	0xbd265c0a	-0.04061512
16	0xbde194d7	-0.11014717
17	0xbd930260	-0.07178187
18	0xbd8b5d4a	-0.06804903
19	0x3c0b5698	0.008504532
20	0xbdb458c2	-0.08805992
21	0xbd3612bd	-0.044451464
22	0xbc534ec6	-0.012897199
23	0x3c922d70	0.017843932
24	0x3d709b83	0.058742058
25	0xbd67b4f4	-0.056569055
26	0xbd27dd7f	-0.04098272
27	0x3d3ad197	0.045610037
28	0xbd70814a	-0.05871705
29	0x3cc1ea7a	0.023671377
30	0x3d7afaa0	0.06127417
31	0xbcdc8dcf	-0.026923088
32	0xbc3f5eb3	-0.011680293
33	0xbd45a142	-0.04824949
34	0xbdcdf619	-0.10056705
35	0xbda7da02	-0.081958786
36	0xbd024eb3	-0.031813335
37	0xbd6d5c23	-0.057949197
38	0x3d998c10	0.07497418
39	0xbd1571b5	-0.036485393
40	0x3d5ff427	0.0546762
41	0xbc9c58c5	-0.019085297
42	0x3d4dc120	0.050233006
43	0x3d87f977	0.066393785
44	0x3c8cfc7a	0.017210234
45	0xbd6ffc6e	-0.058590345
46	0x3cc5b796	0.024135392
47	0x3d36a68c	0.044592425
48	0xbca5e553	-0.020250952
49	0xbcaf73d5	-0.021417538
50	0xbdb129b5	-0.08650533
51	0xbdb4cb14	-0.088277966
52	0xbcb47650	-0.022029072
53	0x3daa4029	0.08313019
54	0x3d090466	0.03345146
55	0x3d3f5707	0.046713855
56	0xbd93507c	-0.071930856
57	0x3bbe8cee	0.00581514
58	0xbdb55cbf	-0.088555805
59	0x3d391d90	0.04519421
60	0xbd98b39a	-0.07456131
61	0xbd981638	-0.07426113
62	0xbd0fa8f8	-0.03507325
63	0x3c6adbc9	0.014334627
64	0xbd9b4fde	-0.07583593
65	0xbda572b5	-0.08078519
66	0xbb851a97	-0.0040620076
67	0xbd85d305	-0.065343894
68	0xbcb674c8	-0.022272483
69	0x3d91f9e3	0.0712774
70	0xbd707f5b	-0.058715206
71	0xbcf635a1	-0.03005487
72	0xbc5ce9f4	-0.013483513
73	0x39ef6f2e	0.00045668468
74	0xbd76be31	-0.060239974
75	0xbd90e6c5	-0.07075266
76	0x3d81341a	0.06308766
77	0x3d2fd0d5	0.042923767
78	0xbd719fbc	-0.058990225
79	0x3d589beb	0.05288307
80	0xbdad9768	-0.08476144
81	0x3d7fabe7	0.0624198
82	0xbdca5e41	-0.09881259
83	0xbd4aeb5e	-0.04954087
84	0xba4b360c	-0.0007751889
85	0x3a9086bf	0.0011026486
86	0xbda92de5	-0.08260707
87	0xbd4ed4f6	-0.050496064
88	0xbd9b1524	-0.07572392
89	0xbc958c4e	-0.018255379
90	0xbce75cf5	-0.028242568
91	0x3c952081	0.018203976
92	0xbda9885a	-0.0827796
93	0xbbaeb74f	-0.0053319107
94	0xbd46985c	-0.048485145
95	0x3d5f7430	0.054554164
96	0x3d558670	0.052130163
97	0xbd1b4180	-0.037904263
98	0xbc40ef0e	-0.011775745
99	0xbcba80e3	-0.022766536
100	0xbc2d19ac	-0.010565203
101	0x3b7fd35f	0.00390359
102	0x3c8dd99a	0.017315675
103	0xbc25cc84	-0.010119561
104	0xbcc537b0	-0.024074405
105	0xbd74c75c	-0.059760436
106	0xbcced8b5	-0.025249818
107	0xbcf5e8b4	-0.030018188
108	0xbdd4588c	-0.103684515
109	0x3d55bd02	0.052182205
110	0x3d29ac3f	0.041424032
111	0x3c6add1f	0.014334946
112	0x3d6888fb	0.05677126
113	0xbd2263fa	-0.039646126
114	0x3cd92d93	0.02651099
115	0x3d3c426d	0.045961786
116	0x3d918f44	0.07107404
117	0xbda4bec9	-0.08044202
118	0xbcdf0f32	-0.027228925
119	0x3bc2f8cf	0.0059500705
120	0x3d53602b	0.051605385
121	0x3ad8a802	0.0016529562
122	0x3d17f699	0.03710041
123	0x3d9f2169	0.07770044
124	0xbcdabe47	-0.02670206
125	0xbcec8e0d	-0.028876329
126	0x3bbf5dd4	0.0058400426
127	0x3d2cae28	0.042158276
128	0xbd727c99	-0.059200857
129	0x3d824c7d	0.06362245
130	0xbc80c2f9	-0.01571797
131	0x3d932ad0	0.071859
132	0x3da1f4a8	0.079079926
133	0xbd944d2d	-0.072412826
134	0xbc93eed4	-0.018058218
135	0x3dad06d6	0.084485695
136	0x3cb050b0	0.02152285
137	0x3d0b1966	0.03395977
138	0x3c91b48a	0.017786283
139	0x3d051b66	0.032496832
140	0x3d9c2ee4	0.07626131
141	0x3d181d3c	0.037137255
142	0x3d8def12	0.06930365
143	0xbd9d6726	-0.0768569
144	0x3dfc5764	0.12321356
145	0x3dac9fca	0.08428915
146	0x3ccef532	0.025263403
147	0xbdb80b45	-0.089865245
148	0x3df75c88	0.12078196
149	0x3bc494e2	0.0059991935
150	0x3d2897cc	0.04116039
151	0x3c622572	0.013802873
152	0x3d414765	0.047187228
153	0xbbf55deb	-0.0074880025
154	0x3d0d3cd0	0.034481823
155	0xbd2d47df	-0.04230487
156	0x3db11a44	0.08647588
157	0x3e8b6c75	0.27231184
158	0xbce14b51	-0.027501734
159	0x3d1e1380	0.038592815
160	0xbaa760e7	-0.0012769968
161	0x3ce3e756	0.02782027
162	0x3cd0fff7	0.025512679
163	0x3dad0aa4	0.08449295
164	0x3c1dfcb5	0.00964277
165	0xbd1813f3	-0.0371284
166	0x3d67eadd	0.056620467
167	0x3d1e5142	0.038651712
168	0xbd0e30f5	-0.034714658
169	0xbd84bb97	-0.064810924
170	0x3d446695	0.047949392
171	0x3c14206a	0.009040931
172	0x3c6c0903	0.014406445
173	0x3cf198bd	0.029491777
174	0x3d35ed68	0.04441586
175	0x3c928bd6	0.017888945
176	0xbd8cb0a8	-0.06869632
177	0x3d1eb5cb	0.03874759
178	0xbda0152f	-0.078165404
179	0x3d708510	0.05872065
180	0x3db18965	0.08668784
181	0x3c98581f	0.018596707
182	0x3d1271df	0.035753127
183	0xbdb54f53	-0.088530205
184	0xbce3ac2c	-0.027792059
185	0x3e1e5931	0.15463711
186	0x3d87f822	0.066391245
187	0x3d55a92d	0.05216329
188	0xbd301c7b	-0.04299591
189	0x3ca61470	0.020273417
190	0xbdc3c853	-0.09559693
191	0x3d1731ed	0.036912847
192	0x3c567dcb	0.013091515
193	0xbcc8fd0f	-0.02453473
194	0xbc6464ea	-0.013940075
195	0x3d357f54	0.044310883
196	0x3d9256ff	0.071454994
197	0xbc87013d	-0.016480083
198	0x3c891ad0	0.016736418
199	0x3da04d86	0.078272864
200	0x3cac7ef3	0.021056628
201	0x3c2ed0be	0.010669885
202	0xbd9e1242	-0.07718326
203	0xbb2fbbd4	-0.0026814835
204	0x3d9a4316	0.07532327
205	0x3dc0c5a7	0.09412699
206	0x3d82abb9	0.0638041
207	0xbd9290f0	-0.07156551
208	0x3ce588bc	0.028019302
209	0xbd84efd9	-0.0649106
210	0x3da0fddc	0.0786092
211	0xbd8f74bd	-0.07004688
212	0xbd43e86b	-0.047829073
213	0x3d17510a	0.03694252
214	0x3db4fa70	0.0883683
215	0xbd8254b4	-0.06363812
216	0x3c2aa9f6	0.010416498
217	0x3d102080	0.035187244
218	0xbd57263d	-0.0525267
219	0x3dc008cb	0.09376677
220	0x3ca522ff	0.020158289
221	0xbc864f10	-0.016395122
222	0xbd91f293	-0.071263455
223	0x3d81f91c	0.06346342
224	0xbd73fce2	-0.05956734
225	0x3d87672d	0.06611476
226	0xbb832a23	-0.004002826
227	0x3d7c5e78	0.06161353
228	0xbd276f3a	-0.04087756
229	0x3d1c6fa9	0.038192425
230	0x3c82f768	0.015987113
231	0x3d350f59	0.04420409
232	0xbcd76ae6	-0.02629609
233	0xbc02c334	-0.00798111
234	0xbbd54e25	-0.0065095597
235	0x3d96232e	0.07330929
236	0x3da3113a	0.0796227
237	0x3d85063e	0.06495331
238	0x3dc48dc6	0.09597354
239	0x3d191b2a	0.03737942
240	0x3d80615f	0.06268572
241	0x3d8bf904	0.06834605
242	0xbc84b8f2	-0.01620147
243	0x3d0fd2d7	0.035113182
244	0xbd346cbc	-0.04404901
245	0xbd1fe99d	-0.03904115
246	0xbd741301	-0.059588436
247	0xbd893f63	-0.06701543
248	0x3ccdd52c	0.025126062
249	0xbabdd50f	-0.0014483052
250	0x3d8832b4	0.06650296
251	0x3db0b816	0.086288616
252	0xbd33d166	-0.04390087
253	0x3d38d54c	0.04512529
254	0x3c8a3472	0.016870711
255	0x3d0a5648	0.03377369

fc2.bias f4 [128]
0	0xbd0d6b48	-0.03452614
1	0xbc9ecae9	-0.019383864
2	0x3b3aee56	0.0028523407
3	0xbdafeffc	-0.08590695
4	0xbd5d9826	-0.05410018
5	0xbc87a71f	-0.016559182
6	0x3db9bb57	0.09068935
7	0x3d1d99d8	0.038476795
8	0xbdad50d7	-0.084626846
9	0xbcd420a8	-0.025894478
10	0x3ce1c92e	0.02756175
11	0xbdc320d2	-0.09527744
12	0x3d261822	0.04055036
13	0xbd5a1893	-0.053246092
14	0x3cf5c081	0.02999902
15	0xbd9af0d3	-0.07565465
16	0x3cac48b3	0.02103076
17	0xbd8974f7	-0.067117624
18	0xb9e46656	-0.00043563795
19	0xbdb7f08c	-0.089814276
20	0xbd1aeddf	-0.037824508
21	0x3d0854b5	0.033283908
22	0xbd2315f0	-0.039815843
23	0x3dd8f612	0.10593809
24	0xbd3bb50d	-0.04582696
25	0xbdaa3e45	-0.08312658
26	0x3d98efd6	0.0746762
27	0x3c49479f	0.012285142
28	0x3c8ccacb	0.017186543
29	0xbc5e1f30	-0.01355724
30	0x3ce7d6c9	0.02830066
31	0xbd24524f	-0.040117558
32	0x3c92d4a0	0.017923653
33	0xbd0056a0	-0.031332612
34	0xbb67b60a	-0.0035356306
35	0x3bacbcad	0.0052715153
36	0xbc090efb	-0.008365388
37	0xbd47f539	-0.048817847
38	0x3d859583	0.06522658
39	0x3d22107d	0.039566506
40	0x3e79d246	0.24396619
41	0x3d8713af	0.06595551
42	0xbd86ea06	-0.06587605
43	0x3cc1a988	0.02364041
44	0x3d83c7cb	0.06434592
45	0xbd4517bd	-0.04811834
46	0xbd0dcb64	-0.034617797
47	0xbcf7fe39	-0.03027259
48	0x3e5cb3b8	0.21552932
49	0xbd03c8eb	-0.032174032
50	0xbc9b995e	-0.01899403
51	0x3d6628dd	0.056191314
52	0x3d239ece	0.03994637
53	0xbd91a62a	-0.071117714
54	0xbd14be7a	-0.036314465
55	0xbd2df667	-0.042471316
56	0xbcb4aed1	-0.022056015
57	0xbd07780e	-0.033073477
58	0xbd444094	-0.04791315
59	0x3ca27923	0.019833153
60	0xbdb0c425	-0.086311616
61	0x3d7d9bb2	0.06191606
62	0xbcfdd503	-0.030985361
63	0xbb7396e9	-0.0037168807
64	0xbdb8e2cb	-0.09027632
65	0xbd9a1860	-0.075241804
66	0xbd9d5f2f	-0.076841705
67	0xbd8d0911	-0.06886495
68	0x3cb56863	0.022144502
69	0xbcbf9944	-0.023388512
70	0x3d96e3f5	0.07367698
71	0xbd53b364	-0.051684752
72	0xbbd4a68c	-0.0064895805
73	0x3cf2c469	0.029634671
74	0xbd35a0f0	-0.044342935
75	0xbcd4e9df	-0.025990425
76	0x3c8879ef	0.016659705
77	0x3c092258	0.008370005
78	0xbd93f520	-0.07224488
79	0x3b9d6fda	0.0048045935
80	0xbd3e0fd2	-0.046401806
81	0xbd0c95ab	-0.034322422
82	0xbca2f1fa	-0.019890774
83	0x3d293362	0.041308768
84	0xbdb318e1	-0.0874498
85	0xbd00110a	-0.03126625
86	0xbd937f1e	-0.0720198
87	0x3d3dff6c	0.046386167
88	0xbd9c7427	-0.07639342
89	0x3da6e63c	0.081493825
90	0xbd22b36f	-0.039721902
91	0xbd33f964	-0.04393901
92	0x3d29612b	0.041352432
93	0xbc0a787d	-0.008451578
94	0x3c832127	0.01600702
95	0x3d970e61	0.073757894
96	0x3d5ecc3c	0.05439399
97	0x3d860af9	0.065450616
98	0xbd633dd5	-0.05547889
99	0xbc1d5ef7	-0.009605161
100	0xbda68056	-0.08129947
101	0x3d6c413a	0.057679392
102	0xbd12d2a1	-0.035845403
103	0xbd9d9aa6	-0.076955125
104	0x3d82fcbf	0.06395864
105	0x3d80b39b	0.06284257
106	0x3bed1233	0.0072348355
107	0xbcc65a4f	-0.024212984
108	0x3d897c89	0.06713206
109	0xbcd2e7ca	-0.025745291
110	0xbd79b708	-0.060965568
111	0xbd40cb43	-0.047068845
112	0xbd96da3b	-0.07365843
113	0xbd7d2eee	-0.061812334
114	0x3d9b1e52	0.075741425
115	0xbb89e2ce	-0.0042079454
116	0x3d1f3021	0.03886426
117	0x3cb6a816	0.022296946
118	0xbdafb2af	-0.08579003
119	0xbd99e28f	-0.07513916
120	0x3d8d50d0	0.069001794
121	0x3cefec0d	0.029287362
122	0x3cf80b49	0.030278819
123	0x3c9f2709	0.019427793
124	0x3d6c8d5c	0.057752
125	0x3ac02fae	0.0014662647
126	0xbcdc04e6	-0.026857805
127	0x3dbe93c5	0.093055286

fc3.weight f4 [2, 128]
0	0x3d77787d	0.06041764
1	0xbd17febc	-0.037108168
2	0xbd858b79	-0.06520743
3	0x3d0c64b8	0.03427574
4	0xbdb0e528	-0.08637458
5	0xbb1e47cf	-0.0024151688
6	0x3d0945cb	0.033513825
7	0x3d2f9845	0.042869825
8	0x3d26ed72	0.04075379
9	0xbd8de55c	-0.069285125
10	0xbd2681fd	-0.04065131
11	0xbd140c07	-0.036144283
12	0xbd4eff1d	-0.050536264
13	0xbd4cc653	-0.049993824
14	0x3cafd901	0.02146578
15	0x3d16a7da	0.03678117
16	0x3d7dc377	0.061953988
17	0x3b6ee873	0.0036454468
18	0x3d3e6f37	0.04649278
19	0x3c125a51	0.008932666
20	0x3cb3ecc8	0.021963492
21	0xbcd674b2	-0.026178692
22	0x3c7578d8	0.014982425
23	0xbde5af97	-0.11215132
24	0xbda582d0	-0.08081591
25	0x3d491c49	0.04909924
26	0xbc8077e1	-0.015682163
27	0x3d31580b	0.043296855
28	0x3d6a989a	0.05727444
29	0xbd8d152a	-0.06888802
30	0x3db17d2e	0.08666454
31	0x3c95f9ef	0.018307654
32	0xbdac5ddb	-0.08416339
33	0x3c583189	0.013195404
34	0xbcc59864	-0.024120517
35	0x3d665012	0.056228705
36	0xbd37c346	-0.04486396
37	0xbc820f7a	-0.01587652
38	0xbdb0d407	-0.08634191
39	0x3cc533fe	0.024072643
40	0xbf05635a	-0.52104723
41	0xbd4d745a	-0.05015979
42	0xbac6b3f4	-0.0015159831
43	0x3d1c3a8d	0.038141776
44	0xbdf03480	-0.117287636
45	0x3d45ef73	0.04832406
46	0x3d3cf74c	0.04613428
47	0x3d3321a6	0.04373326
48	0xbf0bec4a	-0.54657423
49	0x3c74fe0c	0.014953148
50	0x3cda9ac6	0.02668513
51	0xbdc8a95f	-0.0979793
52	0xbbe4279a	-0.0069627287
53	0x3cb86cb4	0.022512771
54	0x3d284ef4	0.04109092
55	0x3d0b8b62	0.034068473
56	0xbdaf9964	-0.08574179
57	0xbd5f6837	-0.054542746
58	0xbdd104ac	-0.10205969
59	0xbcc342af	-0.023835508
60	0xbcd0b456	-0.025476616
61	0x3d830766	0.063978955
62	0x3d37bed4	0.044859722
63	0xbd683e3e	-0.056699984
64	0x3ce576c5	0.028010735
65	0x3d08618e	0.03329616
66	0x3d99e771	0.07514847
67	0x3d68878d	0.056769896
68	0xbdc0058c	-0.09376058
69	0xbd582bab	-0.05277602
70	0xbd033c1c	-0.032039747
71	0xbd1f1a72	-0.03884358
72	0x3ce9d8b5	0.028545717
73	0x3d98812b	0.07446512
74	0x3d3d6165	0.04623546
75	0xbcd0888b	-0.025455734
76	0x3c7578c3	0.014982405
77	0xbd16b753	-0.036795925
78	0xbd8de6ff	-0.06928825
79	0x3d17ab64	0.037028685
80	0xbcceb32c	-0.02523192
81	0xbdeeb1ad	-0.11654983
82	0xbda10bd1	-0.07863582
83	0xbc904cc8	-0.017614737
84	0x3c15626b	0.009117703
85	0xbd73ebba	-0.05955098
86	0x3d9af2c2	0.07565834
87	0x3d09f1e5	0.033677954
88	0x3d9318fc	0.071825
89	0x3b9105ea	0.004425754
90	0xbcfaef6c	-0.030631743
91	0xbc8a7c4d	-0.016904974
92	0xbd65a925	-0.056069512
93	0xbd9025bd	-0.07038448
94	0x3cfdcd07	0.030981554
95	0xbe17009a	-0.14746323
96	0x3d2a8ddb	0.04163919
97	0x3d285297	0.04109439
98	0x3d908434	0.07056466
99	0xbbf91dc8	-0.007602427
100	0x3d9ae421	0.075630434
101	0x3d6ef258	0.058336586
102	0xbdc45325	-0.09586171
103	0x3d9b6783	0.07588103
104	0x3d25cf91	0.040481154
105	0x3b88b255	0.0041716495
106	0xbde5be2d	-0.11217914
107	0xbdd3b657	-0.10337513
108	0x3ca6d95f	0.020367322
109	0xbd0eadef	-0.034833845
110	0xbd4df33b	-0.05028079
111	0x3d3db446	0.0463145
112	0x3d32e9bd	0.04367994
113	0xbd99310d	-0.07480059
114	0xbc842b62	-0.016133968
115	0x3da29b72	0.07939805
116	0xbcf85d70	-0.030317992
117	0x3c1299fe	0.008947847
118	0xbd844df3	-0.0646018
119	0x3d927d86	0.07152848
120	0xbe2fc398	-0.17164457
121	0xbd9dfc6d	-0.07714162
122	0x3d9142ff	0.070928566
123	0x3d28324c	0.04106359
124	0x3d207273	0.039171647
125	0xbc65771b	-0.014005448
126	0x3d1fdda3	0.03902973
127	0xbbc0c2e5	-0.0058826082
128	0x3d8eaf48	0.06967026
129	0xbdccd618	-0.10001773
130	0xbcff745a	-0.03118341
131	0xbd5cb277	-0.053881135
132	0xbc2ee5de	-0.010674922
133	0x3ca4b554	0.020105995
134	0xbdc28149	-0.094973154
135	0x3d8cc659	0.06873769
136	0x3d5ea3a5	0.054355282
137	0xbcb9101f	-0.022590695
138	0xbcc3d551	-0.023905428
139	0xbc6f53c5	-0.014607375
140	0xbd059fa9	-0.032622967
141	0xbd219941	-0.039452795
142	0x3c33cc47	0.0109739965
143	0xbd1368da	-0.035988666
144	0x3d7335a0	0.059377313
145	0xbbdb2ce2	-0.0066887
146	0xbd2cf720	-0.042227864
147	0xbc71fa7f	-0.014769196
148	0xbd388b92	-0.04505498
149	0x3d7940e8	0.060852915
150	0xbd8719e0	-0.06596732
151	0xbd6c070e	-0.057623915
152	0x3cf59232	0.029976938
153	0x3d38d022	0.045120366
154	0x3d366073	0.044525575
155	0x3cfbebea	0.030752141
156	0xbd22129c	-0.03956853
157	0x3c03ec5f	0.008051961
158	0x3d8409e1	0.06447197
159	0xbd84a5ef	-0.06476962
160	0xbdb42b9f	-0.087973826
161	0xbd7f2400	-0.06229019
162	0xbd3f996b	-0.04677717
163	0xbc9a8bc7	-0.01886548
164	0xbd80801b	-0.06274434
165	0x3d0136d1	0.031546418
166	0x3d2a663b	0.0416014
167	0xbda3e358	-0.08002347
168	0xbf0e66ef	-0.55625814
169	0x3b9582e2	0.0045627216
170	0x3d25c6ce	0.040472798
171	0x3d6f093a	0.05835841
172	0xbd9afd8b	-0.07567891
173	0xbabf1a2f	-0.0014579947
174	0x3d500daf	0.0507943
175	0xbd0868cf	-0.03330308
176	0xbef358ac	-0.4752859
177	0xbdbc2492	-0.09186663
178	0x3d8af3f8	0.067848146
179	0x3d6e8d0d	0.058239985
180	0xbdc1fed2	-0.09472431
181	0x3d541dae	0.051786117
182	0xbd595af6	-0.053065263
183	0xbdb6e5a3	-0.089305185
184	0xbdb26e97	-0.087124996
185	0x3c7aeba5	0.015314971
186	0xbc3772e9	-0.01119683
187	0x3d9761ec	0.07391724
188	0x3d57d156	0.052689873
189	0xbd60deb1	-0.054899875
190	0xbc436784	-0.0119265355
191	0x3cf01ed1	0.02931157
192	0xbca9633a	-0.020677198
193	0x3d2628fe	0.040566437
194	0xbd09fc83	-0.03368808
195	0x3cefc2cf	0.029267697
196	0x3d9feffc	0.07809445
197	0xbdb5ec82	-0.08883001
198	0x3d772f42	0.060347803
199	0xbd5f7cc3	-0.05456234
200	0x3da5bb5b	0.08092376
201	0xbd007a5f	-0.031366702
202	0xbd354927	-0.044259217
203	0x3d19834b	0.037478726
204	0x3d9ae2ab	0.07562765
205	0xbc01d29b	-0.007923747
206	0x3d097013	0.033554148
207	0x3d10e69c	0.035376176
208	0x3d2f5ce8	0.04281321
209	0xbdd5edd5	-0.104457535
210	0xbdcbe54b	-0.099558435
211	0x3d8de1ff	0.06927871
212	0xbc865f2c	-0.016402803
213	0x3d9b55ca	0.07584722
214	0x3d907bb8	0.070548475
215	0x3d59cff4	0.053176835
216	0x3b8f84e4	0.0043798555
217	0x3d338f79	0.043837998
218	0xbcb8adb9	-0.022543775
219	0xbdd1bd8b	-0.102412306
220	0x3d98d94e	0.074633226
221	0x3ccb218b	0.024796268
222	0x3b495eae	0.00307266
223	0xbdc596ed	-0.096479274
224	0xbdb1550c	-0.086587995
225	0x3d952bfc	0.0728378
226	0x3d3fc687	0.04682019
227	0x3d22ebb8	0.03977558
228	0xbd838c71	-0.064232714
229	0xbd8f6518	-0.07001704
230	0xbd11bf28	-0.03558269
231	0xbd199fa6	-0.03750577
232	0x3d8431bb	0.06454798
233	0x3da24c86	0.07924752
234	0xbd69b4b9	-0.057057116
235	0xbdd1f96f	-0.10252654
236	0xbd4492c9	-0.047991548
237	0xbdd6e4eb	-0.104928814
238	0x3c99bac1	0.018765809
239	0x3cabe56b	0.020983418
240	0xbd61c25c	-0.055116996
241	0xba42787f	-0.0007418468
242	0x3db161b2	0.08661212
243	0x3d8c4700	0.0684948
244	0xbc9f3285	-0.01943327
245	0xbb6e7e68	-0.0036391262
246	0xbdabc5d5	-0.08387343
247	0xbd8c7dd5	-0.06859938
248	0xbdc09ed3	-0.09405293
249	0x3cd3ea95	0.025868693
250	0xbdb4524e	-0.08804761
251	0x3d13a00f	0.036041316
252	0x3ad04bec	0.0015891767
253	0x3d13354c	0.0359395
254	0x3d6faebd	0.058516253
255	0xbed60105	-0.41797653

fc3.bias f4 [2]
0	0xbda3cd62	-0.07998158
1	0xbd7eab34	-0.06217499

fc1.weight f4 [128, 84]
0	0x3d7130a5	0.05888428
1	0xbdf2f559	-0.118632026
2	0xbdcc5918	-0.09977931
3	0xbda80ba5	-0.08205346
4	0xbd9d5066	-0.076813504
5	0x3de61eba	0.112363294
6	0x3d53dba6	0.051723145
7	0x3dcf264a	0.10114725
8	0xbd86ec7e	-0.06588076
9	0xbcb948a2	-0.022617642
10	0x3d3c8ff0	0.046035707
11	0x3bbe33e0	0.005804524
12	0x3c40f54a	0.0117772315
13	0x3cfbf634	0.030757047
14	0xbc9452b3	-0.01810584
15	0xbda352e0	-0.079747915
16	0xbc85b28b	-0.016320487
17	0x3db24b24	0.08705738
18	0x3d3ef713	0.046622347
19	0xbd751b7b	-0.05984066
20	0x3d4b3dee	0.049619608
21	0xbcce1c77	-0.025160057
22	0xbd0fc1ad	-0.035096813
23	0xbd8002a0	-0.06250501
24	0x3d2ddc21	0.04244626
25	0xbca173a4	-0.019708462
26	0xbc091da6	-0.008368885
27	0x3d85136c	0.06497845
28	0xbd16ef95	-0.036849577
29	0xbddb6cbc	-0.10714099
30	0xbc8e6106	-0.017380249
31	0x3daa5a16	0.08317964
32	0x3d80143e	0.06253861
33	0xbde16678	-0.110058725
34	0xbd6d75af	-0.05797356
35	0xbd0e2517	-0.03470334
36	0xbc563715	-0.013074656
37	0xbd16bfbd	-0.03680395
38	0x3d8ad237	0.067783765
39	0x3d5cbbd3	0.05389006
40	0x3d0bd855	0.034141857
41	0xbd930e82	-0.071805015
42	0xbd8e5844	-0.06950429
43	0x3d2a1170	0.041520536
44	0x3d2cb8dd	0.042168487
45	0xbd6c0efe	-0.057631485
46	0xbdc25ae8	-0.09489995
47	0xbcb5fef6	-0.022216301
48	0xbd785cba	-0.060635306
49	0xbdb533ec	-0.08847794
50	0xbd6ae109	-0.057343516
51	0xb9d4e0aa	-0.0004060318
52	0xbda13bab	-0.07872709
53	0xbd6dbfc0	-0.058044195
54	0xbdd57184	-0.10422042
55	0x3db3424e	0.08752881
56	0x3d0c46f4	0.034247354
57	0xbdedf0c8	-0.11618191
58	0xbe1995ed	-0.14998598
59	0x3cf1766b	0.029475411
60	0x3db54ed9	0.088529296
61	0x3d145077	0.03620955
62	0x3ce5c144	0.028046258
63	0xbcad3f77	-0.021148426
64	0x3debd2ff	0.11514854
65	0xbd4bea20	-0.049783826
66	0xbdb4ac57	-0.08821934
67	0x3c139050	0.009006575
68	0xbd4ef87d	-0.050529946
69	0xbdf1b0a5	-0.118012704
70	0xbd95feef	-0.07324015
71	0x3dae4cb4	0.08510724
72	0x3cddae07	0.027060522
73	0xbd467172	-0.048448034
74	0x3d2067d9	0.039161537
75	0xbda04ab3	-0.07826748
76	0xbc6649d4	-0.014055688
77	0xbb82716f	-0.0039808075
78	0x3d8e9344	0.069616824
79	0x3bbd393d	0.0057746456
80	0xbb8b4316	-0.0042499406
81	0x3d795983	0.06087638
82	0x3dc04d2f	0.093897216
83	0x3d46f239	0.048570845
84	0x3e259373	0.16169529
85	0xbccfbbd7	-0.025358124
86	0xbdbfbac5	-0.09361795
87	0x3dd93d0d	0.10607348
88	0x3d783d39	0.06060526
89	0xbdde9d74	-0.108698756
90	0x3ccc6139	0.024948703
91	0x3e139c08	0.1441499
92	0x3d08936d	0.03334372
93	0xbdbd59b9	-0.09245629
94	0x3e926262	0.28590685
95	0x3eb71341	0.35756877
96	0xbe0ab4e5	-0.13545568
97	0xbc6bf3bc	-0.0144013725
98	0xbea2dd7a	-0.31809598
99	0x3dbbf1ca	0.09176977
100	0x3e67c45e	0.22633502
101	0xbc250754	-0.010072548
102	0x3eab82fb	0.33498368
103	0xbeb18a62	-0.3467589
104	0x3dc8948c	0.09793958
105	0x3e6a4eb0	0.2288158
106	0xbdcbc3a6	-0.09949426
107	0x3eb18e6b	0.3467897
108	0xbeacb9aa	-0.337354
109	0xbd7079a6	-0.058709763
110	0x3ce229dd	0.027607853
111	0xba5d59ee	-0.00084438815
112	0x3dce5abf	0.10075902
113	0xbe9f12a8	-0.3106892
114	0x3e2b925a	0.16755047
115	0xbca3b33d	-0.019982928
116	0xbb57e2b2	-0.0032941517
117	0x3dfa1245	0.12210516
118	0xbebc1312	-0.367333
119	0x3ec9cb07	0.3941271
120	0x3e771871	0.24130417
121	0x3e07533b	0.13215344
122	0x3eb2bf78	0.34911704
123	0xbcaf01b7	-0.021363122
124	0x3e5d15e6	0.21590385
125	0xbe614069	-0.21997227
126	0xbe9cf7f0	-0.3065791
127	0xbe50e44e	-0.20399591
128	0x3dbae7cb	0.09126242
129	0x3e052b38	0.13004768
130	0xbbb59658	-0.005541604
131	0xbb308874	-0.00269368
132	0xbda0152d	-0.07816539
133	0x3da241f1	0.079227336
134	0x3e5febbe	0.21867272
135	0x3e4d6979	0.20059766
136	0x3d6b678a	0.05747179
137	0x3dd5910a	0.10428055
138	0xbd160e85	-0.03663494
139	0xbe29f428	-0.16597044
140	0x3e776d2b	0.24162738
141	0xbe363887	-0.17795001
142	0x3ec3f340	0.38271523
143	0x3cd11af3	0.025525546
144	0xbe10b2a2	-0.14130643
145	0xbe835108	-0.2564776
146	0xbe89d58c	-0.26920736
147	0xbe7c0beb	-0.24613921
148	0xbe3e8108	-0.18603909
149	0xbe6f2369	-0.23353352
150	0x3eaba5a8	0.33524823
151	0x3e5faf60	0.21844244
152	0x3ebeea8c	0.3728832
153	0x3e132e2b	0.1437308
154	0xbeaa2d4e	-0.3323769
155	0x3e1d183b	0.15341274
156	0xbe30745c	-0.17231888
157	0x3e745d6f	0.23863767
158	0xbdda7916	-0.106676266
159	0x3eaf136e	0.3419451
160	0xbe538991	-0.20657946
161	0xbdd6ad92	-0.10482325
162	0x3e6d6410	0.23182702
163	0x3ea5ab9c	0.3235749
164	0xbc16ce6d	-0.009204489
165	0xbe5cea9f	-0.21573876
166	0x3dd4ddee	0.10393892
167	0x3e1f8af7	0.15580355
168	0xbe4b4b56	-0.19852957
169	0xbf60a7ea	-0.87756217
170	0xbe63abf1	-0.22233559
171	0xbe8b485f	-0.27203652
172	0xbd7f296a	-0.062295355
173	0x3f0a84a2	0.5410863
174	0x39a46957	0.00031359002
175	0x3e5b2ef1	0.21404625
176	0xbe1464d2	-0.14491585
177	0x3d95c1d2	0.07312359
178	0x3e660c47	0.22465621
179	0x3ec1805f	0.37793252
180	0x3ebe3dbf	0.37156484
181	0x3d8c9b3d	0.06865547
182	0x3e3f07dd	0.18655343
183	0x3e027554	0.1274007
184	0x3d4dc607	0.05023768
185	0x3dbe476a	0.09290965
186	0x3c9beaaa	0.019032795
187	0x3dfe4f1a	0.12417431
188	0x3e12b177	0.1432551
189	0xbda59e61	-0.08086849
190	0x3d653916	0.055962645
191	0x3d37b44f	0.04484969
192	0x3e72d8a5	0.23715456
193	0x3d6fc830	0.058540523
194	0x3d796186	0.06088402
195	0xbeaa4ede	-0.33263296
196	0x3d1ff68b	0.03905348
197	0x3d8f91c2	0.07010223
198	0x3d9b0d96	0.07570951
199	0x3d7e7b83	0.06212951
200	0xbe08359e	-0.13301703
201	0x3e0fba84	0.14035994
202	0x3d05160e	0.032491736
203	0xbf4a1c24	-0.7894919
204	0xbcc7281c	-0.024311118
205	0xbee7c413	-0.4526678
206	0xbe1b3b84	-0.15159422
207	0x3d5e37ef	0.05425256
208	0x3e913dbc	0.28367412
209	0xbe2eae52	-0.17058685
210	0x3e303fa7	0.17211781
211	0xbd89f2f4	-0.06735793
212	0x3d5c04b6	0.05371543
213	0xbeb365e1	-0.35038665
214	0xbe273de9	-0.1633221
215	0xbc1101c4	-0.008850519
216	0xbecdcd29	-0.40195587
217	0xbc8e1196	-0.01734237
218	0xbed58dc5	-0.41709724
219	0xbe916c30	-0.28402853
220	0x3e46c9bf	0.19412898
221	0xbe48e073	-0.1961687
222	0xbd8937f4	-0.06700125
223	0xbd78819a	-0.060670473
224	0x3ed9b2f4	0.42519343
225	0xbcec4d05	-0.02884532
226	0x3d2fd5bc	0.042928442
227	0xbd926489	-0.07148082
228	0xbd330626	-0.043707035
229	0xbde56718	-0.11201304
230	0xbd81c80e	-0.063369855
231	0xbd5d3baa	-0.05401198
232	0xbdd0e480	-0.10199833
233	0xbe6a2af9	-0.22867955
234	0x3dcdfabe	0.10057591
235	0x3d8082c7	0.06274944
236	0x3dc35edb	0.095395766
237	0x3e4198d6	0.18905959
238	0xbe043d09	-0.12913908
239	0x3dc28576	0.09498112
240	0xbe555e23	-0.20836692
241	0x3d61755f	0.055043574
242	0xbdd1fee7	-0.10253697
243	0x3e6c2ed0	0.23064733
244	0xbe73538a	-0.23762336
245	0xbea68967	-0.32526705
246	0x3e54b2c9	0.20771326
247	0x3e459e72	0.19298723
248	0xbd7a329d	-0.061083425
249	0xbd9dfad5	-0.07713858
250	0xbe56eb44	-0.20988184
251	0x3e250c69	0.16118015
252	0xbd81002a	-0.062988594
253	0xbd945a46	-0.07243781
254	0x3d6be926	0.057595395
255	0x3d5638b4	0.05230017

fc1.bias f4 [128]
0	0x3db871f9	0.090061136
1	0x3e96e266	0.29469603
2	0x3e379519	0.1792797
3	0x3d2ae84a	0.041725434
4	0xbda306e2	-0.07960297
5	0xbe125b53	-0.1429265
6	0xbd8e6902	-0.069536224
7	0x3c83675a	0.016040493
8	0xbd6aa17e	-0.057282917
9	0x3d8c36b1	0.06846369
10	0xbdbf4a57	-0.09340351
11	0xbe0c85c6	-0.13722906
12	0xbdc95a9d	-0.09831736
13	0xbd5e6731	-0.05429763
14	0x3c91f5cb	0.017817399
15	0xbd0d6e9f	-0.034529325
16	0xbdb0166e	-0.08598028
17	0x3b78e078	0.003797559
18	0x3d831200	0.063999176
19	0xbd86b1fd	-0.06576917
20	0xbd0fda0b	-0.03512005
21	0xbcfc06f8	-0.030765042
22	0xbdae4fa4	-0.08511284
23	0x3ce973e4	0.028497644
24	0x3eb2d3a6	0.349271
25	0x3cfaed0d	0.030630613
26	0x3d33b074	0.04386945
27	0x3d0a9acb	0.03383903
28	0x3a9fe942	0.0012200254
29	0xbdfa6191	-0.122256406
30	0xbc5ba0bf	-0.013405024
31	0xbcecc753	-0.028903639
32	0xbd82cb59	-0.06386442
33	0xbdeff1a5	-0.11716012
34	0xbcb311c6	-0.021859061
35	0x3d0a28bf	0.033730265
36	0xbdae2f7d	-0.085051514
37	0x3deb29b6	0.11482565
38	0xbcefc380	-0.029268026
39	0x3d2e8958	0.04261145
40	0xbd554da0	-0.052075982
41	0x3d14f341	0.036364798
42	0xbc9a962b	-0.018870434
43	0x3d890878	0.066910684
44	0x3d95816e	0.073000774
45	0xbca7dc57	-0.020490808
46	0x3d9930fe	0.07480048
47	0x3d0fba1c	0.035089597
48	0xbe11e9dc	-0.14249367
49	0xbbeed463	-0.007288502
50	0x3d89a8d2	0.06721653
51	0x3d9e2e3f	0.077236645
52	0xbaa7cbfd	-0.0012801882
53	0x3d432fc3	0.04765297
54	0x3d9f41ae	0.07776199
55	0xbd1212e9	-0.035662565
56	0xbe0f4857	-0.13992439
57	0x3b962d85	0.004583063
58	0xbd18453f	-0.037175413
59	0xbe10d620	-0.14144182
60	0x3cf3f08f	0.029777793
61	0x3e519981	0.20468713
62	0x3dcb3255	0.099217094
63	0xbdf785bb	-0.12086054
64	0xbdd892ad	-0.10574851
65	0x3d30148c	0.042988345
66	0x3da054d6	0.07828681
67	0xbddde042	-0.108337894
68	0xbc96f22d	-0.018426025
69	0x3d02e3e5	0.03195562
70	0xbd891e11	-0.06695188
71	0xbd9efaca	-0.07762678
72	0xbe15e08e	-0.14636442
73	0x3dd7cc0d	0.105369665
74	0xbdaeaf42	-0.085295215
75	0xbdc58e6a	-0.09646304
76	0x3dc247dc	0.09486362
77	0x3cf54f34	0.029944994
78	0x3c5b3b2c	0.013380807
79	0xbcaeda2f	-0.021344272
80	0xbdcac8fe	-0.099016175
81	0x3e2684c8	0.1626159
82	0xbe1a1736	-0.15047917
83	0xbcdcd652	-0.026957665
84	0xbd9750bd	-0.073884465
85	0x3c2609b0	0.010134146
86	0xbbe73a79	-0.007056531
87	0x3e700803	0.23440556
88	0xbd8bd933	-0.06828537
89	0x3d801449	0.06253869
90	0xbc83a947	-0.016071929
91	0x3c8939c8	0.016751185
92	0x384feeeb	4.9575156e-05
93	0x3da534ba	0.080666974
94	0x3cb8dbd9	0.022565769
95	0x3c3015a1	0.010747344
96	0xbe30ca79	-0.17264737
97	0x3d92b38a	0.071631506
98	0x3da061cc	0.07831153
99	0xbd145353	-0.036212277
100	0x3d81d202	0.06338884
101	0x3cc558b3	0.024090147
102	0xbe05e966	-0.13077316
103	0xbd28427e	-0.041079037
104	0xba65267e	-0.00087413925
105	0x3b0671d6	0.002051463
106	0xbca1ade9	-0.019736247
107	0xbd5d8d55	-0.054089863
108	0xbd39bc38	-0.045345515
109	0xbe4bbd7c	-0.19896501
110	0xbd7620c6	-0.06008985
111	0x3d1fd6e8	0.03902331
112	0xbd341de3	-0.043973815
113	0x3cf2a856	0.029621284
114	0x3c51456c	0.012772899
115	0xbe018962	-0.12650064
116	0x3eed85aa	0.4639104
117	0xbc1df277	-0.009640328
118	0x3dc0f56f	0.09421813
119	0x3cfb6415	0.030687371
120	0x3c2bfd82	0.010497453
121	0x3d27a351	0.040927235
122	0x3cf916ac	0.030406319
123	0xbd56ae19	-0.052412126
124	0xbe0a46cf	-0.13503574
125	0x3d7b3472	0.061329313
126	0xbd1d9af7	-0.038477864
127	0xbd8f1051	-0.06985534

fc2.weight f4 [128, 128]
0	0x39bc3d4e	0.0003590383
1	0xbd077f28	-0.03308025
2	0xbe2359ca	-0.1595222
3	0x3d9f70e5	0.07785205
4	0x3d2eb4bc	0.04265283
5	0xbe044df5	-0.12920363
6	0x3cef095b	0.029179266
7	0xbdbee9b7	-0.09321921
8	0xbd9fa861	-0.077957876
9	0xb99e973e	-0.00030248793
10	0x3da95556	0.0826823
11	0xbd6236a6	-0.055227898
12	0xbe3f0ad7	-0.18656479
13	0x3c11d39d	0.00890055
14	0xbcef408c	-0.029205583
15	0xbe3a376d	-0.18185206
16	0xbd9d5a8b	-0.07683285
17	0xbc81d057	-0.015846414
18	0x3dab7a3a	0.08372922
19	0xbd4e5181	-0.050370697
20	0x3d882792	0.066481724
21	0xbce7194e	-0.028210308
22	0xbd871343	-0.06595471
23	0x3d3a442a	0.045475163
24	0x3be794ab	0.007067283
25	0xbcba7fa1	-0.022765936
26	0xbdbcd394	-0.09220043
27	0xbd7d2c04	-0.061809555
28	0xbdfeab6e	-0.12435041
29	0xbdedf402	-0.116188064
30	0xbbdb4962	-0.0066920975
31	0xbd9ca4e0	-0.07648635
32	0xbe2d4a6a	-0.16922918
33	0x3d3de375	0.046359498
34	0x3d96cdd5	0.07363478
35	0x3ce7317c	0.028221838
36	0x3d7dfea2	0.062010415
37	0xbcda04b7	-0.026613576
38	0xbdb33130	-0.08749616
39	0x3c43d298	0.011952065
40	0x3da631ae	0.081149444
41	0xbd9d225e	-0.07672571
42	0x3cc551f6	0.024086934
43	0xbdf1c13e	-0.11804436
44	0x3cc9a11d	0.024612958
45	0xbd3e1248	-0.046404153
46	0xbd7d9637	-0.061910834
47	0xbd6fd088	-0.05854848
48	0xbd9f56e7	-0.07780247
49	0x3d6c37a0	0.057670236
50	0x3da4095c	0.08009598
51	0x3cff2f7f	0.031150578
52	0xbcb52ce6	-0.022116136
53	0x3d96db15	0.07366005
54	0xbdcf3c34	-0.10118905
55	0xbc7723a0	-0.015084177
56	0xbe06e8f2	-0.13174799
57	0xbd0b60ff	-0.03402805
58	0xbdb47967	-0.08812218
59	0x3cb0c99e	0.021580514
60	0x3d06b49a	0.03288708
61	0xbd637444	-0.0555308
62	0xbca82cfe	-0.020529266
63	0xbcffdea3	-0.031234091
64	0x3d7f1a13	0.062280726
65	0xbd9ceb15	-0.07662026
66	0x3da378c7	0.07982021
67	0xbc21aa35	-0.009867241
68	0x3ca2e2a9	0.01988347
69	0xbcfcabfe	-0.030843731
70	0xbe03d1f3	-0.12873058
71	0x3d160cf3	0.036633443
72	0xbd62efc0	-0.055404425
73	0x3d1c0095	0.038086493
74	0x3d7c3c87	0.06158116
75	0xbd9bc4da	-0.07605906
76	0xbc5b20b9	-0.013374501
77	0xbd9587c6	-0.07301287
78	0xbca34f45	-0.01993526
79	0xbcdb61a5	-0.026779959
80	0xbd953652	-0.072857514
81	0x3d06e70a	0.03293518
82	0xbcbca5ab	-0.023028215
83	0x3d329b8a	0.043605365
84	0xbceddae9	-0.029035049
85	0xbca4be0f	-0.020110158
86	0x3db202f3	0.08691969
87	0xbd45a11a	-0.04824934
88	0xbd08ac13	-0.033367228
89	0x3d7d61b6	0.061860763
90	0x3a86cdfe	0.0010284779
91	0xbdae779c	-0.085189074
92	0x3d2705ad	0.040776897
93	0xbd9b68c8	-0.07588345
94	0x3d6f5029	0.058426056
95	0xbd3265d7	-0.043554153
96	0xbcc33603	-0.023829466
97	0x3ca7abea	0.020467717
98	0xbd7924b0	-0.060826004
99	0x3cf444e0	0.029817998
100	0xbd41e285	-0.047335166
101	0xbc860ac3	-0.016362553
102	0x3c8c2fca	0.017112631
103	0x3bb9c0ee	0.005668751
104	0xbd882fdb	-0.06649753
105	0xbd96c3ff	-0.07361602
106	0x3d33d841	0.043907408
107	0x3d7697da	0.06020341
108	0xbc8e2c82	-0.017355207
109	0xbe425e5d	-0.18981309
110	0x3d0d1a1b	0.034448724
111	0xbd6a5859	-0.05721316
112	0x3d40a2b7	0.047030177
113	0xbd9afec0	-0.07568121
114	0xbda783b8	-0.0817942
115	0x3d5252c7	0.051348474
116	0xbcae2b6f	-0.021260945
117	0xbca2d277	-0.019875748
118	0x3db2b15b	0.08725234
119	0xb8acd034	-8.24038e-05
120	0xbd7374e8	-0.059437662
121	0x3be1c6bb	0.0068901456
122	0xbda05a3d	-0.078297116
123	0x3d8dc199	0.069216914
124	0xbca7dae4	-0.020490117
125	0x3aede82b	0.0018150856
126	0x3c8608ee	0.01636168
127	0xbdb2d7b5	-0.08732549
128	0xbcc4a716	-0.024005454
129	0xbd38857f	-0.045049187
130	0xbd72c827	-0.05927291
131	0xbd4e1d75	-0.05032106
132	0x3d283fc9	0.041076455
133	0x3c358ec0	0.0110813975
134	0x3d7e2679	0.06204841
135	0x3cf349c4	0.02969826
136	0x3c2f9ba2	0.010718258
137	0x3d7d86b9	0.06189606
138	0x3cd38971	0.025822373
139	0xbd135cb4	-0.03597708
140	0xbdbb3428	-0.091408074
141	0x3da3a15c	0.07989761
142	0xbc3ebc86	-0.011641627
143	0xbb5cda2a	-0.0033699372
144	0x3cfa9081	0.030586483
145	0xbc9db125	-0.019249508
146	0xbdb3c9e5	-0.08778743
147	0x3cf56752	0.029956494
148	0xbcdf5370	-0.027261466
149	0xbd77107b	-0.06031845
150	0x3caf954c	0.021433495
151	0xbd78d3e4	-0.06074895
152	0xbd44c311	-0.048037592
153	0xbcb5a2c4	-0.02217234
154	0x3cd74a4e	0.026280548
155	0xbbfbde56	-0.0076864166
156	0x3d394ada	0.0452374
157	0xbdae432f	-0.08508908
158	0x3d5c8674	0.053839162
159	0xbd279fef	-0.04092401
160	0xbbe0ffc3	-0.0068664267
161	0x3caaaec2	0.020835284
162	0x3d76fc68	0.060299307
163	0xbbc33b03	-0.0059579625
164	0x3d8a0848	0.06739861
165	0xbdc832d9	-0.097753234
166	0x3d32ceec	0.043654367
167	0x3cfa9372	0.030587886
168	0x3cec4661	0.028842153
169	0xbd26a7af	-0.04068726
170	0xbcf4e7cc	-0.029895686
171	0xbd21793b	-0.039422255
172	0x3d4b4717	0.049628343
173	0xbd58ca3a	-0.052927233
174	0xbd831106	-0.06399731
175	0x3d4caed6	0.049971424
176	0xbcea56e7	-0.028605891
177	0x3d1b35c0	0.037893057
178	0xbcc7d595	-0.024393836
179	0xbd3a19a1	-0.045434598
180	0xbdb81a0d	-0.08989344
181	0xbd59bf40	-0.053160906
182	0x3c0644cb	0.008195112
183	0xbcd2b38a	-0.025720377
184	0xbdaaa054	-0.083313614
185	0xbd6f5dee	-0.058439188
186	0x3da14432	0.07874335
187	0xbd699e35	-0.057035644
188	0x3d3ca7bf	0.046058413
189	0xba2b0da4	-0.0006525165
190	0xbdad99d6	-0.084766075
191	0x3d6cee3a	0.057844378
192	0x3c6d4654	0.0144821
193	0x3cbb6088	0.022873178
194	0xbd976c6f	-0.07393729
195	0x3c9b08c1	0.018925073
196	0xbd3101a2	-0.043214448
197	0xbd13039d	-0.035892118
198	0xbded35ef	-0.11582553
199	0x3da17541	0.078836925
200	0x3d28b9d2	0.041192837
201	0xbd5d2f6e	-0.05400031
202	0x3d5b244b	0.05350141
203	0x3b8eb9cc	0.004355645
204	0xbd4f28de	-0.050576083
205	0xbd8af634	-0.06785241
206	0x3c483f6e	0.012222154
207	0x3ca3b5bb	0.019984117
208	0x3da6b238	0.08139461
209	0xbda4835a	-0.08032866
210	0x3ce20d4a	0.027594227
211	0xbd436e9b	-0.047712903
212	0xbd217eb4	-0.039427474
213	0x3d3ff882	0.046867855
214	0xbd8edfca	-0.06976278
215	0xbda09b72	-0.07842149
216	0xbc15bfcb	-0.009139965
217	0x3c5b87b2	0.0133990515
218	0x3d1b1a96	0.03786715
219	0x3d679b7d	0.05654477
220	0xbb667793	-0.0035166487
221	0xbd91462f	-0.070934646
222	0x3d90badc	0.070668906
223	0xbc0f4b91	-0.008746044
224	0xbd1468d3	-0.03623278
225	0xbd50de47	-0.05099323
226	0x3bfd5ac0	0.0077317655
227	0xbd37daaf	-0.044886287
228	0xbd36a25d	-0.044588435
229	0xbd74d8ad	-0.05977695
230	0x3d71d8b3	0.05904455
231	0x3c737ed3	0.01486178
232	0xbd6aeb12	-0.057353087
233	0x3d9c2f2a	0.07626183
234	0xbc876eaf	-0.01653227
235	0xbd49f54f	-0.04930621
236	0xbd2c24c8	-0.042027265
237	0x3c690838	0.014223151
238	0x3da16a14	0.07881561
239	0xbc19c1ab	-0.009384553
240	0x3d906174	0.07049838
241	0x3af23eae	0.0018481815
242	0xbc5e0ab3	-0.013552356
243	0x3c841825	0.016124794
244	0xbe05ed8f	-0.13078903
245	0xbd10a414	-0.035312727
246	0x3d328ec0	0.04359317
247	0x3c775eb7	0.015098265
248	0x3c419756	0.011815866
249	0x3cf809d6	0.030278128
250	0x3d08bdf8	0.033384293
251	0x3bdac2aa	0.006676038
252	0x3c4b6266	0.012413597
253	0x3cdc14a5	0.026865313
254	0xbc2156a3	-0.009847316
255	0xbc028d7f	-0.007968306

fc2.bias f4 [128]
0	0xbdec273d	-0.115309216
1	0xbd9ec88b	-0.07753094
2	0xbc87a93c	-0.01656019
3	0x3d9e23d6	0.07721679
4	0x3eaffb37	0.3437135
5	0x3c123c28	0.008925475
6	0xbe93699e	-0.28791517
7	0x3e937a44	0.2880422
8	0xbd1e61e3	-0.03866757
9	0xbde8fdb2	-0.113765135
10	0xbe94d3e7	-0.2906792
11	0x3f2f3f27	0.6845574
12	0xbe2d7b5c	-0.16941589
13	0xbf0bb483	-0.54572314
14	0x3c8b064c	0.016970776
15	0xbbf304e3	-0.007416354
16	0xbe3261c2	-0.17420104
17	0xbc9e5354	-0.019326843
18	0xbc09dfa3	-0.008415136
19	0xbc17dc24	-0.009268794
20	0x3d06dac6	0.032923482
21	0xbbeb1570	-0.0071741864
22	0x3ce6a421	0.028154435
23	0xbedae826	-0.4275524
24	0xbd2d0977	-0.042245355
25	0xbe0eb288	-0.13935292
26	0xbd820285	-0.06348137
27	0xbd0db637	-0.0345976
28	0x3d23ace1	0.039959792
29	0xbd0cc53f	-0.034367796
30	0x3ee35ffd	0.4440917
31	0x3ecd1b04	0.40059674
32	0xbdf6629c	-0.12030527
33	0xbe175e98	-0.14782178
34	0xbd288013	-0.041137766
35	0xbcbad8fe	-0.022808548
36	0xbd95db87	-0.07317262
37	0xbe40fde6	-0.18846855
38	0x3cc426d8	0.023944303
39	0xbed25a5c	-0.41084564
40	0x3ec1fa5c	0.37886322
41	0xbddf4a34	-0.10902825
42	0xbd00d610	-0.031454146
43	0xbd310473	-0.043217134
44	0xbd06d50c	-0.03291802
45	0xbd6bb0f4	-0.057541803
46	0x3eb132b5	0.34609
47	0xbdfb1328	-0.12259513
48	0xbdc88729	-0.09791405
49	0xbdbeaab7	-0.09309905
50	0xbe0608be	-0.13089272
51	0xbc841843	-0.01612485
52	0xbd8b2192	-0.067935124
53	0x3d84e2b5	0.064885534
54	0xbdae3174	-0.08505526
55	0xbd0e227f	-0.034700867
56	0xbe6c1ce7	-0.230579
57	0xbdd3b4bf	-0.10337209
58	0xbc28bf50	-0.010299519
59	0xbe02f31b	-0.1278805
60	0x3d3132e8	0.04326144
61	0xbe0380c1	-0.12842084
62	0xbcba9bf0	-0.022779435
63	0x3c697028	0.014247932
64	0xbe34cbb1	-0.17655827
65	0xbe18c959	-0.14920558
66	0xbd4df856	-0.05028566
67	0xbdc38d89	-0.0954848
68	0xbdc1d7f8	-0.09465021
69	0xbe122d28	-0.14275038
70	0x3f17dbb9	0.59319645
71	0xbdef5e4e	-0.11687909
72	0xbd05b047	-0.032638814
73	0xbe792f3e	-0.24334428
74	0xbd08301c	-0.033249006
75	0x3db4fc36	0.08837168
76	0xbc8bff9e	-0.017089661
77	0x3e89404d	0.2680687
78	0xbe650778	-0.2236613
79	0x3f0eda6e	0.5580205
80	0xbeaf3658	-0.34221148
81	0xbf09c6e2	-0.53819096
82	0xbd07abfa	-0.033122994
83	0xbe008c71	-0.12553574
84	0xbed728fa	-0.4202345
85	0xbef6c045	-0.48193565
86	0xbdc0a74e	-0.09406911
87	0xbc3a547c	-0.011372682
88	0x3c88624e	0.016648438
89	0x3bac1ded	0.005252591
90	0xbd442fc8	-0.04789713
91	0xbdaff0e6	-0.085908696
92	0xbe8c2e9f	-0.2737932
93	0xbd65aae6	-0.056071185
94	0xbdefd4b0	-0.11710489
95	0xbeb91c45	-0.3615438
96	0xbeb04024	-0.34423935
97	0x3d412fd5	0.047164757
98	0xbdb79b65	-0.08965186
99	0xbea8538e	-0.32876247
100	0x3d99232b	0.07477411
101	0xbd16fdcc	-0.036863133
102	0xbf18f4e0	-0.5974865
103	0xbe0f5e6e	-0.14000866
104	0xbe2a022d	-0.16602392
105	0xbdcf9aa0	-0.10136914
106	0x3cc7b64e	0.024378922
107	0xbe177c38	-0.1479348
108	0xbe711da1	-0.23546459
109	0xbe4804bc	-0.19533056
110	0xbdd7f9d0	-0.10545695
111	0x3e078e57	0.13237892
112	0xbd15e80c	-0.03659825
113	0xbe1dd2f3	-0.15412502
114	0xbd86c725	-0.065809526
115	0xbd271798	-0.040793985
116	0xbcbc556a	-0.022989947
117	0xbeaeab44	-0.3411504
118	0xbdf62452	-0.12018646
119	0x3f684240	0.9072609
120	0x3ebfaa3c	0.37434566
121	0xbe368498	-0.17824018
122	0xbefdad95	-0.49546495
123	0xbdf2591b	-0.11833402
124	0xbe0ac160	-0.13550329
125	0xbdb88501	-0.090097435
126	0xbdd07527	-0.10178595
127	0x3efa68eb	0.4890817
