saved_models/episode_final/agent_10.pth (torch, 738530 bytes, 44 tensors)

fc1.weight f4 [128, 5]
0	0x3ec48268	0.38380742
1	0xbed388ac	-0.4131521
2	0x3ebb37bc	0.3656596
3	0x3d2031b3	0.039109897
4	0x3db1e7a5	0.08686761
5	0x3ebcb3e1	0.36855987
6	0xbe5ea810	-0.21743798
7	0xbe7bf32e	-0.24604484
8	0x3eb62b51	0.35579923
9	0x3ed58060	0.41699505
10	0x3e47ad07	0.19499598
11	0xbe9cc897	-0.30621788
12	0x3dfdf6b9	0.12400574
13	0xbeac7bc3	-0.33688173
14	0xbe29a4b7	-0.1656674
15	0xbea4df5c	-0.3220166
16	0xbe93a926	-0.28839988
17	0x3ec2d942	0.3805638
18	0x3ec3255b	0.38114437
19	0x3d7f0e5c	0.062269554
20	0x3e263798	0.16232145
21	0x3db33809	0.08750922
22	0xbe1a1de4	-0.15050465
23	0xbe29b729	-0.16573776
24	0x3eb0a8aa	0.3450368
25	0x3c8c74e1	0.017145576
26	0x3eac8a95	0.3369948
27	0x3ede5c69	0.43429878
28	0xbd965c51	-0.07341827
29	0xbe742a95	-0.23844369
30	0x3e975d8f	0.29563567
31	0x3eac1a7b	0.33613953
32	0x3e73989f	0.23788689
33	0x3ee522fb	0.4475325
34	0xbe5ad180	-0.2136898
35	0x3e31baaa	0.17356363
36	0xbd4f0320	-0.05054009
37	0xbd9bb76c	-0.07603344
38	0x3d8d691d	0.069048144
39	0x3db00f55	0.08596674
40	0xbe96a66d	-0.29423848
41	0x3ea09b2a	0.3136838
42	0x3d2ee201	0.042696003
43	0x3cbc3305	0.022973547
44	0xbdb067a1	-0.08613516
45	0x3e1227ff	0.1427307
46	0x3eae99fd	0.3410186
47	0xbdc13269	-0.09433443
48	0xbdab0303	-0.08350184
49	0xbe8feb1b	-0.2810906
50	0x3ec5ba5b	0.3861874
51	0xbed35ac3	-0.41280183
52	0x3dafa1e7	0.08575802
53	0xbeb367ab	-0.3504003
54	0x3e3e4ba9	0.1858355
55	0x3e56886d	0.2095048
56	0x3da204b4	0.07911053
57	0x3d6857be	0.056724302
58	0x3eb57a39	0.3544481
59	0x3edb8307	0.42873403
60	0x3e97c4bb	0.2964228
61	0xbdee52f4	-0.11636916
62	0xbed8b4da	-0.4232548
63	0xbeb0dd4b	-0.34543833
64	0xbeb94456	-0.3618495
65	0xbe736d6c	-0.2377221
66	0xbe6d51ef	-0.23175786
67	0x3e76c609	0.24098982
68	0x3ede4a35	0.4341599
69	0xbeb0195e	-0.34394354
70	0x3e0365d7	0.12831818
71	0xbeab3d70	-0.3344531
72	0xbd221272	-0.039568372
73	0x3d196833	0.037452888
74	0x3e85893f	0.26081273
75	0x3e302b3a	0.1720399
76	0xbe621ed9	-0.2208208
77	0x3e3cef42	0.18450645
78	0xbea7f83e	-0.3280658
79	0x3eb575ca	0.35441428
80	0x3e664880	0.22488594
81	0xbe9d3a6b	-0.30708632
82	0x3e1b0514	0.15138656
83	0xbec9da19	-0.39424208
84	0x3e176477	0.14784418
85	0xbd963ace	-0.07335435
86	0x3e201eea	0.15636793
87	0x3d8a3db7	0.067500524
88	0xbed3dfd0	-0.41381693
89	0xbe95c379	-0.29250696
90	0xbe736f96	-0.23773035
91	0x3eae89e6	0.34089583
92	0x3ea8fa3f	0.33003423
93	0x3ecc37c7	0.39886305
94	0x3e69be73	0.22826557
95	0xbde1e5ea	-0.11030181
96	0x3ecc2304	0.39870465
97	0x3ed3f914	0.4140097
98	0x3e51b6e1	0.20479919
99	0xbd094294	-0.03351076
100	0xbe9e42c3	-0.3091031
101	0x3e7b9236	0.24567494
102	0x3dfdf5a1	0.124003656
103	0xbce7d4c7	-0.028299702
104	0xbe9e82fb	-0.30959305
105	0x3d7405fb	0.059576016
106	0x3e3937ca	0.18087688
107	0x3e1d7b80	0.15379143
108	0x3d80462e	0.06263386
109	0x3e84861e	0.25883573
110	0x3ead04b0	0.3379264
111	0xbe4faf38	-0.20281684
112	0xbe98ebb3	-0.29867324
113	0xbecf4c96	-0.40488118
114	0x3e89636a	0.2683366
115	0xbd83466e	-0.06409918
116	0xbeb11a64	-0.34590447
117	0x3db280c1	0.08715964
118	0x3ee4a8bd	0.44659987
119	0xbec232a2	-0.37929255
120	0xbedf99d9	-0.43672064
121	0xbd22fd3a	-0.039792277
122	0xbe8b5f21	-0.27221015
123	0x3eaca41e	0.3371896
124	0x3daf96a4	0.08573654
125	0x3e18927c	0.1489963
126	0xbda92c03	-0.08260348
127	0x3df5e405	0.12006382
128	0xbe83a171	-0.25709108
129	0x3cf2b785	0.029628525
130	0xbe96c760	-0.29448986
131	0xbcb69c94	-0.02229146
132	0x3d49091e	0.04908096
133	0xbe4c3fc8	-0.19946206
134	0x3ea321c7	0.31861708
135	0xbd9c7b53	-0.0764071
136	0xbea00fac	-0.31261957
137	0xbbb55907	-0.0055342945
138	0x3ed0e0ca	0.407965
139	0xbea44390	-0.32082796
140	0x3eaf97f3	0.34295616
141	0xbc4fc5ec	-0.012681466
142	0xbe638843	-0.22219948
143	0xbea44893	-0.3208662
144	0xbecd75bc	-0.40128887
145	0x3d093843	0.03350092
146	0xbdbed892	-0.09318651
147	0x3e91910e	0.2843098
148	0xbe9a4c51	-0.3013635
149	0xbe61bbe8	-0.22044337
150	0x3eaad47e	0.33365244
151	0xbe9845e5	-0.29740825
152	0x3da11942	0.07866146
153	0x3e2e9a7a	0.17051116
154	0x3c2ab911	0.0104201
155	0x3e30dcf4	0.17271787
156	0x3e6ef9de	0.23337504
157	0x3e86df87	0.26342413
158	0x3eb814de	0.3595342
159	0xbbae2325	-0.005314248
160	0xbda4bc63	-0.080437444
161	0x3ebb3b01	0.36568454
162	0x3d86014f	0.06543218
163	0xbdedc7c6	-0.116103694
164	0x3e8d9350	0.27651453
165	0x3b6cf876	0.0036158836
166	0x3e30185a	0.1719679
167	0x3ede28ac	0.43390405
168	0xbe18d033	-0.14923172
169	0xbed57e7f	-0.4169807
170	0xbe67ec25	-0.22648676
171	0xbedb6eb1	-0.42857888
172	0xbee61663	-0.44938955
173	0x3ecb51fa	0.3971098
174	0x3ee1a5c7	0.4407179
175	0xbe91b21d	-0.28456202
176	0x3d337d31	0.043820564
177	0x3e4ccbc1	0.19999601
178	0x3e615f8c	0.22009104
179	0xbee25627	-0.44206354
180	0xbd3dc5d4	-0.04633124
181	0xbe8ce163	-0.27515706
182	0x3ee90cd5	0.45517603
183	0x3c9bd9d2	0.019024763
184	0xbdb3174e	-0.087446794
185	0x3e9876d2	0.29778153
186	0x3dd0d578	0.10196966
187	0x3ea5bc33	0.32370147
188	0xbeb46da4	-0.352399
189	0x3ed11e77	0.40843555
190	0xbe75c16d	-0.23999567
191	0xbe0015a3	-0.12508254
192	0x3ea09753	0.3136545
193	0x3e996486	0.29959506
194	0xbe62699b	-0.22110598
195	0x3e1c2970	0.15250182
196	0xbe897e78	-0.268543
197	0x3e73817f	0.23779868
198	0x3ecae47d	0.39627448
199	0x3ea0b380	0.31386948
200	0xbec64e3c	-0.38731563
201	0x3e9fc5f7	0.31205723
202	0xbe172d9e	-0.14763495
203	0x3ed4a401	0.41531375
204	0xbe91c40e	-0.2846989
205	0xbebf356f	-0.37345454
206	0xbee178e1	-0.44037536
207	0xbea313f8	-0.31851172
208	0x3e3c6835	0.18399127
209	0xbed6c83a	-0.41949636
210	0x3eb8ca46	0.36091822
211	0x3e4f57e3	0.2024837
212	0x3e1bd2cb	0.1521713
213	0xbda0532a	-0.07828362
214	0xbea247af	-0.31695315
215	0x3bee8226	0.0072786985
216	0x3e5826e0	0.2110858
217	0xbe625150	-0.22101331
218	0x3eb8d8de	0.36102957
219	0xbe1845ab	-0.14870326
220	0xbea43187	-0.32069036
221	0x3e785f25	0.24255045
222	0xbdc82923	-0.09773471
223	0xbedabf9a	-0.42724305
224	0x3e8bc1f1	0.27296403
225	0x3d97f69b	0.07420083
226	0x3ea8adc1	0.32945064
227	0x3efbafb5	0.4915749
228	0xbd88e69e	-0.06684612
229	0xbe74b086	-0.23895463
230	0x3e8be736	0.27324837
231	0xbe5e48b6	-0.21707425
232	0x3e9f9cf8	0.31174445
233	0x3e6627b3	0.22476082
234	0x3d949038	0.0725407
235	0xbed443a5	-0.4145786
236	0xbee2aad5	-0.4427096
237	0xbe072f77	-0.132017
238	0x3e127f7f	0.14306448
239	0x3ec2f504	0.38077557
240	0x3e62e7e5	0.22158773
241	0x3de469b7	0.11152976
242	0x3ebf0883	0.3731118
243	0x3d62d1e3	0.055375945
244	0x3e1fa8cb	0.15591733
245	0x3eb5249e	0.353795
246	0x3ecf93d3	0.40542468
247	0x3efd14e7	0.4943001
248	0x3dfaf155	0.12253062
249	0xbe4031a8	-0.18768942
250	0x3e9b28c4	0.3030454
251	0xbe4c2475	-0.19935782
252	0xbbc43ba6	-0.005988556
253	0x3e553387	0.20820437
254	0xbe73546c	-0.23762673
255	0x3e842f09	0.25817135

fc1.bias f4 [128]
0	0xbe5eb39e	-0.21748206
1	0x3dd8b560	0.105814695
2	0xbea0ef94	-0.31432784
3	0xbea8d77a	-0.32976896
4	0x3e92b28a	0.2865184
5	0xbeaed98b	-0.34150347
6	0xbd050058	-0.03247103
7	0xbed7cbcf	-0.4214768
8	0x3ebb3b98	0.36568904
9	0xbb89d2ed	-0.0042060525
10	0x3db4c2ce	0.088262185
11	0xbe23bc40	-0.1598978
12	0xbcbdb0e2	-0.023155633
13	0x3e248334	0.16065675
14	0xbedf6c48	-0.436373
15	0xbeb393d2	-0.35073715
16	0x3e12a93d	0.14322372
17	0xbebfbf95	-0.37450853
18	0x3d8c2bb7	0.068442754
19	0x3e2faf50	0.1715672
20	0x3dd6d7e9	0.104904
21	0xbe348785	-0.17629822
22	0xbecf22da	-0.40456277
23	0x3ebb1081	0.3653603
24	0xbe77b0bc	-0.24188513
25	0xbda91ce8	-0.082574666
26	0xbea9253a	-0.33036214
27	0x3ed37910	0.413033
28	0xbe35921c	-0.17731518
29	0xbeda8ba1	-0.42684653
30	0x3ec002b3	0.3750206
31	0xbec860da	-0.39136392
32	0x3df9e774	0.12202349
33	0xbd8b0570	-0.067881465
34	0xbe95a036	-0.29223794
35	0xbe79d534	-0.24397737
36	0xbed0c1ea	-0.40772945
37	0x3dae8d31	0.08523024
38	0x3ee08fc9	0.438597
39	0x3dd00b5f	0.10158419
40	0x3ebd7ef6	0.37010926
41	0xbe96839a	-0.2939728
42	0x3da5b262	0.080906644
43	0x3ddb690b	0.10713395
44	0x3e11397a	0.14182082
45	0xbe273338	-0.16328132
46	0xbe970749	-0.29497746
47	0xbeb35c39	-0.35031298
48	0x3ee20c13	0.44149837
49	0xbe96408a	-0.29346114
50	0x3e2ba309	0.16761412
51	0xbe22b9e6	-0.15891227
52	0x3e32913d	0.17438217
53	0xbe2d1cb3	-0.16905479
54	0xbe6ae4ff	-0.22938918
55	0x3e486010	0.19567895
56	0xbe7e4e37	-0.24834524
57	0x3d60dc9b	0.054897886
58	0x3f08270a	0.5318457
59	0x3e374220	0.17896318
60	0x3d7fd754	0.062461212
61	0xbdf76c27	-0.12081175
62	0xbe49c1ca	-0.19702831
63	0x3ee5ffc4	0.44921696
64	0x3ed956e9	0.4244912
65	0x3e14bbf5	0.14524825
66	0xbec6a0c2	-0.38794523
67	0xbea0b3cc	-0.31387174
68	0xbd31cc03	-0.04340745
69	0x3c4ffed1	0.01269503
70	0x3ed1bd92	0.40964943
71	0x3dd565d2	0.10419811
72	0x3e893f58	0.2680614
73	0xbd865cf5	-0.06560699
74	0x3e806a4f	0.25081107
75	0xbe117e8c	-0.1420843
76	0xbde471c9	-0.11154515
77	0x3ee420ba	0.44556218
78	0xbc5c2745	-0.013437097
79	0xbdb8a1b4	-0.090152174
80	0xbea7b2b3	-0.32753524
81	0xbe8587f0	-0.26080275
82	0xbe1010a8	-0.14068854
83	0x3ee382c5	0.44435707
84	0xbd9baf6b	-0.07601818
85	0x3c32f842	0.010923447
86	0x3e6a5b22	0.22886327
87	0x3d252894	0.0403219
88	0xbe6a9c50	-0.22911191
89	0x3d9e39a7	0.0772584
90	0x3ec846c7	0.391165
91	0xbe987d7c	-0.29783237
92	0xb8b7fd30	-8.77328e-05
93	0xbe0a056b	-0.1347863
94	0x3dcb5b26	0.099294946
95	0x3ec8c135	0.39209905
96	0x3ce5869b	0.028018286
97	0xbda9ed78	-0.08297247
98	0x3e6e5f6b	0.23278587
99	0x3a2265af	0.00061949616
100	0x3e921e16	0.2853858
101	0xbeaf49a3	-0.34235868
102	0xbeddb700	-0.4330368
103	0x3d689300	0.056780815
104	0x3eeaf80a	0.45892364
105	0xbc294f3e	-0.010333834
106	0xbe64dbec	-0.22349519
107	0xbe985115	-0.2974936
108	0xbe9fbd1c	-0.31198967
109	0x3e013388	0.12617314
110	0x3ebbab29	0.36654022
111	0x3ebb2fe9	0.3655999
112	0xbe860aa6	-0.2618
113	0x3d669b46	0.056300424
114	0x3e9d0bb8	0.30673003
115	0xbdbe6ae9	-0.09297735
116	0xbd9f9110	-0.0779134
117	0x3e8a891f	0.2705774
118	0x3ecf06bd	0.40434828
119	0xbe25628d	-0.16150875
120	0xbe348978	-0.17630565
121	0x3ea9f8e6	0.33197707
122	0xbe240f18	-0.16021383
123	0xbe7a615e	-0.24451205
124	0xbe6dfd73	-0.23241214
125	0xbe018b7d	-0.12650867
126	0xbdf943b5	-0.12171117
127	0x3ed72142	0.4201756

fc2.weight f4 [128, 128]
0	0x3d848fb6	0.06472723
1	0xbc739c6e	-0.014868839
2	0x3debb95f	0.11509966
3	0x3dbf7979	0.09349341
4	0xbd4b27a8	-0.049598366
5	0x3d001bea	0.03127662
6	0x3dfeb8fb	0.12437626
7	0x3de561d8	0.11200303
8	0xbd3a2752	-0.045447655
9	0x3d6b5bd7	0.057460632
10	0x3cd7d1b0	0.026345104
11	0x3df1439c	0.117804736
12	0x3dcebd65	0.10094718
13	0x3c2cbea0	0.010543495
14	0x3c51123c	0.012760695
15	0x3dcc162c	0.099651664
16	0xbd06c356	-0.03290113
17	0x3db14d18	0.086572826
18	0x3d7a462f	0.06110209
19	0x3d53e029	0.051727448
20	0x3c67e85e	0.014154522
21	0x3d5475c4	0.051870123
22	0x3d663a34	0.05620785
23	0x3da47c31	0.080315
24	0x3d35fd46	0.044430993
25	0x3dee5657	0.11637562
26	0x3d399163	0.045304667
27	0x3de14f73	0.11001482
28	0xbc0d40b9	-0.008621388
29	0x3aad9274	0.0013242499
30	0x3d9f4e0a	0.07778557
31	0x3dc1160b	0.094280325
32	0x3dcd7c35	0.10033456
33	0xbb870302	-0.0041202316
34	0x3d8f2744	0.06989911
35	0x3cd8051e	0.026369628
36	0x3daa81b4	0.0832552
37	0xbc97856d	-0.01849624
38	0x3de2fbdf	0.11083197
39	0x3dbe3be2	0.092887655
40	0x3de16669	0.11005861
41	0xbcbb72ad	-0.02288183
42	0xbd25c3c5	-0.040469903
43	0x3dd557c8	0.104171336
44	0xbd1368a0	-0.03598845
45	0x3db12a1f	0.08650612
46	0x3dd116cc	0.10209426
47	0x3da51030	0.08059728
48	0x3d26b3ce	0.04069882
49	0x3dc8dd6a	0.098078564
50	0x3ddc97d7	0.10771149
51	0xbbea1dc8	-0.0071446635
52	0xbda16bde	-0.07881902
53	0x3cbe3431	0.023218246
54	0xbcbd837e	-0.02313399
55	0x3da62852	0.08113159
56	0x3dc53a2c	0.09630236
57	0x3dd0054d	0.10157261
58	0x3e082704	0.13296133
59	0x3c8ca7b4	0.01716981
60	0x3ca12b12	0.019673858
61	0xbca76069	-0.020431714
62	0xbcc509cb	-0.024052521
63	0x3dc0a52c	0.09406504
64	0x3dd0a50b	0.101877294
65	0x3c3cc8e9	0.01152251
66	0xba10f223	-0.0005529245
67	0x3c6f10f0	0.014591441
68	0xbb089572	-0.002084103
69	0x3b70ee18	0.0036763009
70	0x3d458ffe	0.048233025
71	0x3de0484c	0.109512895
72	0x3d896ba0	0.06709981
73	0x3bb5bae7	0.005545962
74	0x3da8fafb	0.08250996
75	0xbd94bb93	-0.072623394
76	0x3b7949cd	0.0038038373
77	0x3d4f9189	0.050675903
78	0xbcc7f67f	-0.02440953
79	0xbce0444a	-0.027376313
80	0x3dcc1131	0.099642165
81	0x3dd13ada	0.10216303
82	0x3d133d97	0.03594741
83	0x3d844a92	0.06459536
84	0x3cd13af7	0.025540812
85	0xbd1a2b8f	-0.037639197
86	0x3df8b527	0.12143927
87	0x3e0517f5	0.1299742
88	0x3d96822c	0.07349047
89	0xbccd1ddb	-0.02503865
90	0x3dd5215e	0.10406755
91	0xbd5c5bed	-0.053798605
92	0x3db5bcfb	0.08873936
93	0xbd4c007b	-0.049805146
94	0xbd19bccf	-0.037533578
95	0x3d13fd9a	0.036130525
96	0x3de92f41	0.11385966
97	0x3d3b6a9d	0.04575597
98	0xbd321674	-0.043478444
99	0xba18f34a	-0.0005834593
100	0xbd392321	-0.045199517
101	0xbc2b7cdb	-0.01046678
102	0xbb04c535	-0.0020259146
103	0x3d3684eb	0.044560354
104	0x3b53ca29	0.0032316542
105	0xbd173cc9	-0.036923204
106	0x3d06c41e	0.032901876
107	0x3c4e5b92	0.012595074
108	0x3c5e177c	0.013555404
109	0x3c0af8fa	0.008482212
110	0x3ab988e3	0.0014155175
111	0xbd0f97b9	-0.035056803
112	0xbcb0805f	-0.021545587
113	0x3d783697	0.060598936
114	0x3dee36fe	0.11631583
115	0xbc231e87	-0.009956009
116	0x3d6c40a8	0.05767885
117	0x3d267bd5	0.04064544
118	0x3d80a871	0.06282128
119	0xbb6848c2	-0.0035443758
120	0xbc36abe2	-0.0111493785
121	0xbd9619f5	-0.0732917
122	0xbbcc59da	-0.006236297
123	0xbca624a9	-0.020281153
124	0xbbd56217	-0.0065119374
125	0x3dcd2fe3	0.10018899
126	0xbcd7082c	-0.026249014
127	0xbd6f959f	-0.0584923
128	0x3d58cb9e	0.05292856
129	0xbc808909	-0.015690343
130	0xbcbb939d	-0.022897536
131	0x3d391940	0.045190096
132	0xbccadd58	-0.024763748
133	0x3dccd6ff	0.10001945
134	0x3df5f03b	0.12008711
135	0xbd1c8c24	-0.038219586
136	0x3cc8d09c	0.024513535
137	0x3defdf60	0.11712527
138	0x3dbf295c	0.093340605
139	0x3ca36f7e	0.019950625
140	0x3d23d719	0.040000055
141	0x3c9db9e8	0.019253686
142	0x3ddc021e	0.10742591
143	0x3ce438f7	0.027859194
144	0xbcef4450	-0.029207379
145	0x3db054be	0.08609913
146	0xbd3a4a8b	-0.045481246
147	0x3d930e9a	0.071805194
148	0x3e01bf95	0.12670739
149	0x3df73a2e	0.12071644
150	0x3d6ae796	0.057349764
151	0x3e13ab03	0.14420705
152	0x3d56c4b9	0.052433703
153	0xbd37c3cf	-0.044864472
154	0xbc81b233	-0.015832042
155	0xbbe34b0b	-0.006936436
156	0x3ccc62a1	0.024949374
157	0x3c4b80d1	0.012420849
158	0x3a0132f3	0.00049285515
159	0xbcde0998	-0.027104184
160	0x3c7febbf	0.015620171
161	0x3d3bd213	0.04585464
162	0x3cf42b95	0.029805938
163	0xbd49f671	-0.04930729
164	0x3b1c2f82	0.0023832028
165	0x3d80658b	0.06269368
166	0xbd0a8286	-0.033815883
167	0xbd057272	-0.032579847
168	0x3e11591f	0.14194153
169	0xbd78f0f7	-0.060776677
170	0x3dbea0a4	0.093079835
171	0xbc1f49dc	-0.009722199
172	0xbae90f06	-0.0017780967
173	0x3de92cd6	0.11385505
174	0x3c410cd5	0.011782845
175	0xbd55b8ad	-0.052178074
176	0x3d579098	0.05262813
177	0x3dc099f0	0.09404361
178	0x3bba35d3	0.005682686
179	0xbc7d4841	-0.015459121
180	0x3cabcf09	0.020972745
181	0xbcd22871	-0.02565405
182	0xbd3c6971	-0.045998994
183	0xbcdde01f	-0.027084408
184	0x3dfa3c75	0.122185625
185	0x3cc2a1ed	0.023758853
186	0x3aa17090	0.0012316871
187	0x3da09093	0.07840075
188	0x3da7d410	0.081947446
189	0x3cef2ed2	0.02919713
190	0x3d9eabc2	0.07747604
191	0x3d2d6581	0.04233313
192	0x3da14a12	0.07875456
193	0xbd60aff9	-0.05485532
194	0xbd0265dc	-0.031835422
195	0xbdaaba90	-0.08336365
196	0xbd629fa9	-0.055328045
197	0x3d5b3eec	0.053526804
198	0xbcd8368d	-0.0263932
199	0x3c9ef960	0.01940602
200	0xbccc09cf	-0.02490702
201	0x3c49566a	0.012288669
202	0x3c81af3e	0.015830632
203	0x3bcbd956	0.006220977
204	0xbd687f0b	-0.056761783
205	0xbd06c1a9	-0.032899532
206	0x3a62e54a	0.00086553826
207	0x3d041bc2	0.032253034
208	0xbc6c5065	-0.014423464
209	0x3dc233e9	0.09482557
210	0x3d4fd24f	0.050737675
211	0xbd296101	-0.041352276
212	0xbcb68ee2	-0.022284929
213	0x3d94744a	0.07248743
214	0x3de32af4	0.11092177
215	0x3bdd56f3	0.00675475
216	0x3db437c1	0.08799697
217	0x3cb57bf4	0.022153832
218	0x3dca77a8	0.09886104
219	0xbd47fd22	-0.04882539
220	0x3de21b6b	0.11040386
221	0x3daf6b35	0.0856537
222	0x3cfbb5b4	0.030726291
223	0x3d871869	0.06596453
224	0x3d4d703b	0.05015586
225	0x3cf5668b	0.029956123
226	0x3d502051	0.05081207
227	0x3dd45a69	0.10368807
228	0x3dee52ed	0.116369106
229	0x3da19e56	0.07891528
230	0xbd2a1ca1	-0.04153121
231	0x3d1b0795	0.037849028
232	0xbbfa8368	-0.0076450594
233	0xbd3acfee	-0.045608453
234	0xbc4d7e2b	-0.012542288
235	0x3d03f7e0	0.032218814
236	0xbbf9c9d1	-0.0076229353
237	0x3d20a48e	0.03921943
238	0x3dacb4b8	0.08432907
239	0x3d9cf31f	0.07663559
240	0xbc7a0138	-0.01525908
241	0xbd40f346	-0.047107004
242	0x3d8360f4	0.06414977
243	0x3d68d967	0.056847956
244	0xbcd2193e	-0.025646802
245	0x3d9aaccd	0.075524904
246	0x3d60f8c2	0.054924734
247	0x3d9f653f	0.07782983
248	0x3ccd5a17	0.025067372
249	0x3da47548	0.08030182
250	0xbc64f92f	-0.013975426
251	0x3d2843bb	0.041080218
252	0xbcb2f8ec	-0.02184721
253	0x3c4a1151	0.01233323
254	0xbd12e13e	-0.03585934
255	0xbd84a4a3	-0.064767145

fc2.bias f4 [128]
0	0xbd0e8412	-0.03479392
1	0x3e1082c1	0.14112379
2	0x3d284b8a	0.041087665
3	0xbdddb2d9	-0.10825128
4	0xbda6befb	-0.081418954
5	0x3be6ec7e	0.007047235
6	0x3db8c9ac	0.09022841
7	0x3dadc867	0.08485489
8	0x3d00682b	0.031349342
9	0x3c75b483	0.014996651
10	0x3d20ef58	0.039290756
11	0x3c835d9c	0.016035847
12	0x3d6e50e5	0.058182616
13	0xbb4d7f27	-0.0031356306
14	0x3c894574	0.01675675
15	0xbdb742ec	-0.08948311
16	0x3d78d984	0.060754314
17	0xbd93b145	-0.07211546
18	0xbbcc8211	-0.006241091
19	0xbd9cde94	-0.07659641
20	0xbc0d02c6	-0.008606618
21	0xbd614450	-0.05499679
22	0xbda83b09	-0.08214385
23	0xbcfb101a	-0.030647326
24	0xbd4aa897	-0.049477186
25	0xbbba4a96	-0.005685161
26	0x3da5854e	0.080820665
27	0x3d276c36	0.040874682
28	0xbd74a751	-0.059729878
29	0xbc749280	-0.014927506
30	0xbdde07e5	-0.108413495
31	0xbd8ee2a0	-0.06976819
32	0x39662700	0.00021949038
33	0xbd6b39dd	-0.05742823
34	0x3db03df1	0.086055644
35	0x3bd460e4	0.006481277
36	0x3ad3cb22	0.0016158561
37	0x3c2c6637	0.010522417
38	0x3d84874e	0.0647112
39	0x3e043dea	0.12914243
40	0x3d2ec905	0.042672176
41	0x3d0d7383	0.03453399
42	0x3e23a705	0.15981682
43	0xbd6dd5a8	-0.058065087
44	0x3cc210c7	0.02368964
45	0xbdbf6a09	-0.093463965
46	0xbd0a8df4	-0.033826783
47	0x3d05591c	0.032555684
48	0xbdb6b241	-0.08920718
49	0x3d0c706a	0.034286894
50	0xbd33f640	-0.043936014
51	0xbdcd8b82	-0.10036375
52	0xbd17778c	-0.036979243
53	0xbd2693f5	-0.040668447
54	0x3d1f0280	0.038820744
55	0x3d6da57e	0.058019154
56	0xbd88cc49	-0.06679589
57	0xbccca5ee	-0.024981465
58	0xbc388d5b	-0.0112641705
59	0xbc853ddd	-0.01626485
60	0xbd0032c0	-0.0312984
61	0xbdd70faa	-0.105010346
62	0xbdc2ae7a	-0.09505935
63	0x3d51b965	0.051202197
64	0x3d6ffee2	0.058592685
65	0xbd273fd6	-0.040832363
66	0xbb8914c1	-0.0041833823
67	0x3e05986b	0.13046424
68	0xbd807e85	-0.06274132
69	0x3d5dd31a	0.0541564
70	0xbd277359	-0.04088149
71	0x3c844c91	0.016149791
72	0xbc15e308	-0.009148367
73	0x3e08d34e	0.13361856
74	0xbdea6355	-0.11444727
75	0xbddba4e8	-0.10724813
76	0xbd82dc9f	-0.063897364
77	0xbd9e6095	-0.07733265
78	0xbd76836e	-0.060183935
79	0xbd9e5353	-0.077307366
80	0xbad8d48c	-0.0016542836
81	0xbd942f76	-0.07235615
82	0x3d6cdafa	0.05782602
83	0xbc609a90	-0.013708726
84	0xbd581463	-0.052753817
85	0xbcdbdb78	-0.02683805
86	0xbd8dcab4	-0.06923428
87	0x3d945d3c	0.072443455
88	0xbd8c366c	-0.06846318
89	0x3aaffa25	0.0013425989
90	0x3b461991	0.003022764
91	0xbdabc2e8	-0.08386785
92	0x3d48f912	0.049065657
93	0xbda8a1de	-0.08233999
94	0x3d806b88	0.0627051
95	0x3ce7953f	0.028269408
96	0xbdc8e9f9	-0.09810252
97	0xbcb8ce2e	-0.022559252
98	0xbd238587	-0.039922263
99	0xbdc6a91a	-0.09700222
100	0x3d0c7815	0.034294207
101	0xbd7a8217	-0.06115922
102	0xbd839cdf	-0.06426405
103	0x3b522b7b	0.0032069373
104	0x3d85bcda	0.06530161
105	0xbda4e5ae	-0.080516204
106	0xbd9b57c8	-0.07585102
107	0xbd576d56	-0.052594505
108	0xbd823421	-0.06357599
109	0xbcd53a9c	-0.026028924
110	0x3c0817ba	0.008306438
111	0x3c4af75c	0.012388077
112	0xbdbafbb0	-0.09130037
113	0x3d7fd218	0.06245622
114	0x3d1fe47b	0.039036255
115	0xbda2e34f	-0.07953512
116	0xbcc444d6	-0.023958605
117	0x3d375033	0.04475422
118	0x3cb5173f	0.022105811
119	0xbd6df6a8	-0.058096558
120	0xbd796710	-0.060889304
121	0x3d1fcc8c	0.03901343
122	0x3ba9a2b7	0.005176868
123	0x3d183d93	0.037168097
124	0xbc1bce9b	-0.009509708
125	0x3d55ea39	0.052225325
126	0x3d89fcaa	0.06737645
127	0x3e028822	0.12747243

fc3.weight f4 [2, 128]
0	0xbdd5e85c	-0.1044471
1	0xbdb1d6dd	-0.0868356
2	0x3bd0df8a	0.006374304
3	0x3d178de8	0.037000567
4	0x3bd20ba0	0.006410077
5	0xbb089dd3	-0.0020846024
6	0xbd0c2cdf	-0.03422248
7	0xbe340f7a	-0.17584029
8	0x3d3dfa72	0.04638142
9	0xbccd9a35	-0.025097946
10	0xbb31c80b	-0.0027127292
11	0x3d10a15a	0.035310127
12	0x3d5d6a23	0.054056298
13	0xbd1aa75f	-0.037757274
14	0xbebc0607	-0.36723348
15	0xbc2caf8f	-0.010539903
16	0xbc23a031	-0.009986923
17	0x3d74aaa2	0.05973304
18	0x3ccb3f69	0.02481051
19	0x3d90587b	0.07048126
20	0x3ce2c721	0.027682843
21	0xbe0a3dc2	-0.13500121
22	0x3c8d776d	0.01726886
23	0xbc7cd8ac	-0.015432518
24	0x3d21236c	0.03934042
25	0x3b6c8234	0.003608835
26	0xbd5ccb94	-0.053905085
27	0x3dabc10b	0.083864294
28	0x3d9235b0	0.07139146
29	0xbc09015e	-0.008362142
30	0x3d1f7f82	0.03893996
31	0x3d31834d	0.04333811
32	0xbd9f3de5	-0.07775477
33	0xbdac63d2	-0.08417477
34	0xbded2fac	-0.11581358
35	0xbdcbf2f7	-0.09958451
36	0xbec18f28	-0.37804532
37	0x3ce3aeeb	0.027793368
38	0xbd5e432a	-0.05426327
39	0xbda14b3f	-0.0787568
40	0x3ce700e8	0.028198674
41	0xbb1c6d02	-0.0023868685
42	0xbe53c40a	-0.20680252
43	0xbdabbcd3	-0.08385625
44	0x3cbc338d	0.0229738
45	0xbd8e7a77	-0.06956952
46	0xbc9ac193	-0.018891132
47	0xbbe6eff6	-0.0070476485
48	0x3c07afdd	0.008281675
49	0x3cb9307f	0.022606133
50	0x3d3f6ae8	0.046732813
51	0xbc0918a0	-0.008367687
52	0xbd749a8c	-0.0597177
53	0x3caf9774	0.021434523
54	0xbad89bce	-0.0016525926
55	0xbe500f2d	-0.20318289
56	0x3cb52ade	0.022115167
57	0x3cfe42d3	0.031037724
58	0xbdef4a6a	-0.11684115
59	0xbd791073	-0.060806703
60	0xbdb118ee	-0.08647333
61	0xb9f7ba4d	-0.00047250316
62	0x3d25738e	0.040393405
63	0x3c8b41e1	0.016999187
64	0xbd5d98c8	-0.05410078
65	0xbce03797	-0.027370257
66	0x3d13e35c	0.0361055
67	0xbebd1b43	-0.36934862
68	0x3d2fbf9d	0.042907346
69	0x3ba606e0	0.0050667375
70	0x3ca2fb36	0.019895177
71	0xbdde7277	-0.10861676
72	0xbc394828	-0.011308707
73	0xbdde1442	-0.108437076
74	0xbcbaf8e7	-0.022823764
75	0x3d0007e8	0.03125754
76	0x3d53faa1	0.05175269
77	0xbc4f0456	-0.012635311
78	0x3d3f1029	0.04664627
79	0x3ce0a1c3	0.027420884
80	0x3af20367	0.0018464149
81	0x3d6f8d07	0.058484104
82	0x3d876e43	0.06612828
83	0xbcb7f1b6	-0.022454124
84	0x3cb60d68	0.02222319
85	0xbd905b95	-0.07048718
86	0x3d334b23	0.043772828
87	0xbe16322e	-0.1466758
88	0x3cfceed6	0.030875605
89	0xbaf03720	-0.0018326975
90	0xbe71ceab	-0.23613994
91	0xbd10cad3	-0.03534968
92	0x3c7e538e	0.015522851
93	0xb990fd5b	-0.00027654585
94	0xbf029ff1	-0.510253
95	0xbacc795f	-0.0015600136
96	0x3b81c562	0.0039602974
97	0xbd628899	-0.05530605
98	0xbd24d968	-0.040246397
99	0xbc8ba401	-0.017045977
100	0x3d895c66	0.06707077
101	0xbcbfd009	-0.023414629
102	0xbd3c018b	-0.04589991
103	0x3d8ecde5	0.06972865
104	0x3d3f0ca3	0.04664291
105	0xbb6249ae	-0.003452878
106	0xbbbc57ae	-0.005747757
107	0xbcc8ade9	-0.02449699
108	0xbd396144	-0.045258775
109	0xbd69713a	-0.056992747
110	0xbcb2de72	-0.021834586
111	0xbe902a17	-0.28157112
112	0x3d46392e	0.048394375
113	0xbcaa05cb	-0.020754715
114	0xbe4472b2	-0.19184378
115	0xba508b00	-0.0007955283
116	0xbc9fc9ab	-0.019505342
117	0xbbaf76d9	-0.005354744
118	0xbb0e2ead	-0.0021695301
119	0x3cdba0cb	0.02681007
120	0xbda1085f	-0.07862925
121	0x3c1243ba	0.00892728
122	0x3d074739	0.033026908
123	0x3d0074f7	0.031361546
124	0xbc0ff87f	-0.008787273
125	0xbdd3a033	-0.1033329
126	0xbd7237a5	-0.059135098
127	0xbe1bbce0	-0.15208769
128	0xbe1011f9	-0.14069356
129	0xbdfb9e71	-0.1228608
130	0x3d01aa24	0.0316564
131	0x3cbcb2b1	0.023034425
132	0xbdac2cad	-0.08406959
133	0x3d95c4b3	0.07312908
134	0xbdc6cc6c	-0.09706959
135	0xbdf4ef03	-0.1195965
136	0x3c32b771	0.010907994
137	0x3b8a572d	0.004221818
138	0xbcfcf3ef	-0.030878035
139	0x3c1b71db	0.0094875945
140	0xbd8d19f1	-0.068897136
141	0x3bc50af7	0.00601327
142	0xbe83e5cb	-0.25761256
143	0xbc199c78	-0.009375684
144	0x3cc4ea5c	0.024037533
145	0xbcf23d84	-0.029570349
146	0xbc8094f2	-0.015696023
147	0x3d5e40a5	0.05426087
148	0x3cfbcdc6	0.030737769
149	0xbdd83ed3	-0.10558858
150	0xbdb26aa5	-0.08711747
151	0xbd851820	-0.06498742
152	0x3cc1dab7	0.023663862
153	0x3cb8150e	0.022470977
154	0x3b82edd8	0.0039956383
155	0x3d8e7a0c	0.06956872
156	0xbd84422f	-0.06457936
157	0xbd3b7f3f	-0.04577565
158	0x3cf7a64b	0.030230662
159	0xbca84fd8	-0.020545885
160	0xb9b311f3	-0.00034154914
161	0x3d8e6b00	0.069540024
162	0xbdb87171	-0.09006012
163	0xbc194fbe	-0.009357391
164	0xbe939960	-0.28827953
165	0x3c8063fc	0.015672676
166	0xbe568f6c	-0.20953149
167	0xbe1bb1e0	-0.15204573
168	0xbd2f955a	-0.042867042
169	0xbbde4203	-0.0067827716
170	0xbeec42d5	-0.4614474
171	0xbda346f3	-0.07972517
172	0xbc805e96	-0.015670102
173	0x3c319df6	0.0108408835
174	0xbc282394	-0.010262389
175	0x3d865aa6	0.065602586
176	0x3d7e9b8c	0.06216006
177	0xbb051f54	-0.0020312862
178	0x3cbc89ed	0.023014987
179	0xbd22393c	-0.039605364
180	0xbb14cd17	-0.002270525
181	0x3d76fd4e	0.060300164
182	0xbc05369e	-0.0081306975
183	0xbdc3741c	-0.095436305
184	0x3d886047	0.066589884
185	0x3d46878e	0.04846912
186	0xbca8a29e	-0.020585354
187	0xbc61e511	-0.013787524
188	0xbc680626	-0.014161622
189	0x3ce56912	0.028004203
190	0xbd9df144	-0.077120334
191	0x3d881b4f	0.06645834
192	0xbd63d78e	-0.05562549
193	0x3d9b0dbe	0.075709805
194	0x3d8f8aaa	0.0700887
195	0xbdbb4a97	-0.09145086
196	0x3d8af79e	0.067855105
197	0x3d96f167	0.073702626
198	0xbd099ec6	-0.033598684
199	0x3d30d64d	0.043173123
200	0x3b81390e	0.003943569
201	0xbe1bf0b9	-0.15228547
202	0xbd9d9264	-0.076939374
203	0xbceec6c8	-0.02914752
204	0x3d79c03d	0.06097435
205	0xbda4bd15	-0.08043877
206	0x3bc864e5	0.006115543
207	0xbd846ef2	-0.06466474
208	0x3d8db66c	0.0691956
209	0xbd780e6d	-0.060560632
210	0xbd6e8d5c	-0.05824028
211	0x3ce2e7c8	0.027698413
212	0x3d5c7f86	0.053832553
213	0x3d22e42a	0.039768375
214	0x3d8ef363	0.06980016
215	0xbd562c1c	-0.05228816
216	0x3a775279	0.00094345916
217	0x3d685670	0.05672306
218	0xbe04c52a	-0.12965837
219	0x3d8bd351	0.06827415
220	0x3c2a6e6b	0.010402302
221	0xbd0a977e	-0.03383588
222	0xbeda0ecc	-0.42589414
223	0xbdabf408	-0.08396155
224	0xbce18a0e	-0.02753165
225	0x3d758834	0.059944347
226	0x3d4163cd	0.047214318
227	0xbd7dbc3c	-0.061947092
228	0xbb80bf65	-0.003929066
229	0xbd7ec7cf	-0.06220227
230	0x3d210ce2	0.039318927
231	0xbd56a139	-0.052399848
232	0x3d7d1ff4	0.06179805
233	0xbc8183f1	-0.015809985
234	0xbd4d5146	-0.050126337
235	0x3d5cbbfe	0.05389022
236	0xbd929630	-0.07157552
237	0xbd466811	-0.04843909
238	0xbd1fafee	-0.03898614
239	0xbdb7e65e	-0.08979486
240	0xbca2c0c8	-0.019867316
241	0x3bda5fc9	0.0066642505
242	0xbd92186c	-0.07133564
243	0xbdae1f68	-0.08502084
244	0xbde7b341	-0.11313487
245	0xbd32ba52	-0.04363472
246	0xbd97a077	-0.07403653
247	0x3c9133a8	0.017724827
248	0xbbcc781d	-0.0062399046
249	0xbcd23b24	-0.025662966
250	0xbcbe5620	-0.023234427
251	0x3d73a916	0.059487425
252	0xbd7494cc	-0.059712216
253	0xbde84c36	-0.11342661
254	0xbd0a515c	-0.033768997
255	0xbf0a6182	-0.54055035

fc3.bias f4 [2]
0	0x3d10f82a	0.035392918
1	0xbda497c3	-0.08036759

fc1.weight f4 [128, 84]
0	0xbd8f39cf	-0.06993448
1	0xbd1f996d	-0.038964678
2	0x3c1a4275	0.009415259
3	0x3db630a7	0.088959984
4	0xbd7d75d3	-0.061879944
5	0xbdb8028e	-0.08984862
6	0xbddcb801	-0.107772835
7	0x3d968338	0.07349247
8	0xbb62301e	-0.0034513543
9	0x3d9c9ff8	0.07647699
10	0x3d6a5d1a	0.057217695
11	0x3da8f05f	0.08248972
12	0xbdd388cf	-0.103288285
13	0xbdbe0f72	-0.0928029
14	0xbdb46e2f	-0.08810078
15	0xbd532837	-0.051552024
16	0xbd62d051	-0.055374447
17	0xbdb5e1c6	-0.088809535
18	0xbd091e7d	-0.03347634
19	0xbcc940d6	-0.024567049
20	0xbd77aa79	-0.06046531
21	0xbcaead75	-0.021322945
22	0xbddec4aa	-0.108773544
23	0xbdc98746	-0.098402545
24	0x3cd491f3	0.0259485
25	0xbd5c6178	-0.05380389
26	0xbdc14f58	-0.09438962
27	0x3d0c293e	0.03421902
28	0xbdcd241a	-0.100166515
29	0x3c37090e	0.011171592
30	0x3db6c367	0.08923989
31	0xbce446c8	-0.027865782
32	0xbdbd9ce3	-0.092584394
33	0xbd5f5a57	-0.054529514
34	0x3cb0de5c	0.021590404
35	0x3d80eb2a	0.06294854
36	0xbdbebc1a	-0.09313221
37	0xbd07eb44	-0.03318335
38	0x3cd5917c	0.026070349
39	0x3dbc0b0d	0.09181795
40	0xbd311f39	-0.043242667
41	0x3dcc5657	0.099774055
42	0xbd78c427	-0.06073394
43	0xbdd04a8f	-0.10170471
44	0xbcdccc00	-0.026952744
45	0xbd518220	-0.051149487
46	0x3daaae0e	0.083339795
47	0xbd3c2d6e	-0.045941763
48	0xbdad3ac6	-0.08458476
49	0xbdae6b84	-0.08516601
50	0x3d8c1fda	0.06842013
51	0x3dc1a318	0.09454936
52	0x3d01f39b	0.03172646
53	0x3d8887d3	0.066665314
54	0xbd5d2148	-0.053986818
55	0x3d063d41	0.03277326
56	0xbd577a16	-0.052606665
57	0xbc7731a9	-0.0150875235
58	0x3d5cc91c	0.05390273
59	0x3da18dfe	0.07888411
60	0x3d095c26	0.033535145
61	0x3ddd4efa	0.10806079
62	0x3cf9be68	0.0304863
63	0x3d3a9532	0.04555244
64	0xbd7e92e9	-0.062151823
65	0xbcc19423	-0.023630207
66	0x3b0602b1	0.0020448382
67	0x3da7182f	0.081589095
68	0x3d682644	0.056677118
69	0x3c00849a	0.007844115
70	0x3d7a69bc	0.061135992
71	0xbdac5e34	-0.08416405
72	0x3d96a9f0	0.07356632
73	0xbd2f1a71	-0.042749826
74	0xbdaebce9	-0.085321255
75	0x3d6fc6bb	0.058539134
76	0x3d96580f	0.073410146
77	0xbc67bf8e	-0.014144791
78	0x3c958554	0.018252052
79	0x3c9465b8	0.01811491
80	0xbd76051f	-0.060063478
81	0x3d92b415	0.07163254
82	0x3d614a91	0.055002753
83	0x3c81c5b6	0.015841346
84	0x3e3cdbca	0.18443218
85	0x3d3ad3d2	0.045612164
86	0xbca61c34	-0.02027712
87	0xbdee9a66	-0.11650543
88	0x3d582776	0.052772008
89	0x3df2040a	0.11817177
90	0x3d096206	0.033540748
91	0x3cac1ca0	0.021009743
92	0xbc79ff49	-0.015258619
93	0x3d4854fc	0.048909172
94	0x3e8dd776	0.27703446
95	0x3cad9101	0.021187307
96	0xbd5d4414	-0.054020002
97	0xbdb7fe9e	-0.08984111
98	0xbe6bcb2c	-0.23026723
99	0x3dfac31d	0.12244246
100	0xbdd64357	-0.10462063
101	0xbc8fb40f	-0.017541913
102	0x3e3b5113	0.18292646
103	0xbeacfa0e	-0.33784527
104	0xbe426b55	-0.18986256
105	0xbcc29133	-0.023750877
106	0xbd01d51c	-0.031697378
107	0xbcdbd35f	-0.026834188
108	0xbe385db4	-0.18004495
109	0x3e7a8bae	0.24467346
110	0x3da98e8a	0.0827914
111	0xbe4744e5	-0.19459875
112	0x3bb0cb4a	0.0053953277
113	0xbe4bf902	-0.19919208
114	0x3d1edfd9	0.038787697
115	0xbe44a537	-0.1920365
116	0xbec5d1ea	-0.38636714
117	0xbd69cf8b	-0.057082694
118	0xbe4f2d54	-0.20232135
119	0x3f3a6630	0.72812176
120	0xbe6ac0a9	-0.22925057
121	0x3ea510b9	0.3223932
122	0xbd889f77	-0.066710405
123	0x3950dc9f	0.00019918614
124	0xbd8a1a55	-0.06743304
125	0x3ea90138	0.33008742
126	0xbce566c7	-0.02800311
127	0x3e202d42	0.15642264
128	0xbdcdb4c6	-0.100442454
129	0x3f2517ec	0.64489627
130	0xbf3b3204	-0.7312319
131	0x3ef58445	0.47952476
132	0xbedd2b7d	-0.4319724
133	0x3daf1ae1	0.085500486
134	0x3e313235	0.17304309
135	0xbd33bb21	-0.043879632
136	0x3df9bdd9	0.12194414
137	0xbe1fea25	-0.15616663
138	0xbb233dd1	-0.0024908672
139	0x3ebc5192	0.36780983
140	0xbdfd4c80	-0.12368107
141	0x3e07dc3d	0.13267608
142	0xbe2947ef	-0.16531347
143	0x3ddbbfd4	0.10729948
144	0xbc165933	-0.00917654
145	0x3b1ee31c	0.0024244254
146	0xbe1055ac	-0.14095181
147	0xbdaf916a	-0.085726574
148	0xbdaf956e	-0.08573423
149	0xbd5ba630	-0.053625286
150	0x3e04c432	0.12965468
151	0xbd01b749	-0.031668935
152	0xbe534062	-0.20630029
153	0x3dd206d4	0.102552086
154	0x3ce7caa9	0.028294878
155	0xbdb35a9f	-0.08757519
156	0x3db57f36	0.08862154
157	0x3d7f543a	0.062336184
158	0x3b6d898d	0.0036245317
159	0x3d1d4a7c	0.038401112
160	0xbdbe5b76	-0.092947885
161	0x3e9109f3	0.28327903
162	0x3d97d95b	0.07414504
163	0x3cea1c17	0.028577847
164	0x3da2c3a4	0.07947472
165	0xbe04d9c6	-0.12973699
166	0x3ef1d01a	0.4722908
167	0xbd61e2dc	-0.05514799
168	0x3dbdfb7b	0.09276482
169	0xbe35a7ec	-0.17739838
170	0x3e26b7a7	0.16280995
171	0xbe6c08a6	-0.23050174
172	0xbdae77d4	-0.08518949
173	0xbd90ff03	-0.070798896
174	0x3ce10e1b	0.027472546
175	0xbd9a4ad7	-0.07533806
176	0x3e283b30	0.16428828
177	0xbd5b071a	-0.05347357
178	0x3ce6d76c	0.028178893
179	0x3df67d8e	0.120356664
180	0xbcee5c67	-0.029096795
181	0xbd7e548d	-0.062092353
182	0x3da6d4a8	0.0814603
183	0xbdc0a7b4	-0.09406987
184	0xbe2a7df1	-0.16649605
185	0x3ba456b9	0.005015221
186	0xbc537a26	-0.01290754
187	0xbc8a797e	-0.016903635
188	0xbe99c2af	-0.30031344
189	0xbe207b6a	-0.15672079
190	0xbe0c6a48	-0.13712418
191	0xbdf7fd51	-0.12108863
192	0x3cbd1c06	0.023084652
193	0xbde5e754	-0.11225763
194	0xbe3fe9f8	-0.18741596
195	0xbe05e4b6	-0.13075528
196	0xbd72e9c8	-0.059304982
197	0xbd69ea1e	-0.057108037
198	0x3e719d97	0.23595272
199	0xbdac394e	-0.084093675
200	0x3e2b7fb9	0.16747941
201	0xbdd61fb2	-0.10455264
202	0x3d4d932e	0.05018919
203	0x3d566759	0.052344654
204	0xbd427708	-0.0474768
205	0x3cb4f66f	0.022090165
206	0xbe56f0bc	-0.2099027
207	0xbd19052b	-0.037358444
208	0xbd2281fa	-0.039674737
209	0xbe745d41	-0.23863699
210	0x3de9cd36	0.11416094
211	0xbddf26ed	-0.108960964
212	0x3d901913	0.070360325
213	0xbde66cd3	-0.11251225
214	0x3d0c30ab	0.0342261
215	0x3c9ce99a	0.019154359
216	0x3dadda77	0.084889345
217	0xbc3edda9	-0.011649528
218	0x399b1e35	0.0002958641
219	0xbc027680	-0.007962823
220	0xbe1f4560	-0.15553808
221	0xbe061c44	-0.1309672
222	0x3cb65a43	0.022259837
223	0x3d03c67f	0.032171723
224	0xbe284bde	-0.16435191
225	0xbdfa4633	-0.12220421
226	0xbe8bd41f	-0.27310273
227	0xbdc1128b	-0.09427365
228	0xbd52b9bb	-0.051446658
229	0xbd73c9d8	-0.059518665
230	0xbd7ce076	-0.0617375
231	0x3dbeb8fc	0.09312627
232	0x3d37dda8	0.044889122
233	0xbd47d9be	-0.04879164
234	0x3ccd329e	0.02504855
235	0x3daec9b5	0.08534566
236	0xbe5ba27d	-0.21448703
237	0x3aef6bbc	0.001826636
238	0x3e1f974a	0.15585056
239	0x3d8d9e5d	0.06914971
240	0x3c3a1a46	0.011358803
241	0x3d423d3c	0.04742168
242	0x3dbde5b1	0.09272326
243	0x3d24d0a0	0.040238023
244	0x3cdd1fdb	0.026992729
245	0x3ebb0c46	0.365328
246	0x3d815693	0.06315341
247	0x3d3ccf31	0.04609603
248	0x3e672c90	0.22575593
249	0x3a5f3c47	0.0008515757
250	0xbdfac8aa	-0.12245305
251	0xbd2d45ea	-0.042303003
252	0x3edc9f85	0.43090454
253	0xbdfd023f	-0.12353944
254	0x3e3bc8ad	0.1833827
255	0xbe0a771e	-0.13522002

fc1.bias f4 [128]
0	0xbdc4ccf4	-0.09609404
1	0x3ac390c7	0.0014920466
2	0xbc1cfb1a	-0.009581352
3	0x3d560385	0.05224945
4	0xbc35225d	-0.011055556
5	0x3d1bd33b	0.038043242
6	0xbd133ba8	-0.035945565
7	0xbdcccc69	-0.09999926
8	0xbcab1975	-0.020886162
9	0xbdc109f2	-0.09425725
10	0x3ea5af7b	0.32360443
11	0x3d568859	0.052376125
12	0x3dde3db2	0.10851611
13	0xbd6e02a4	-0.058107987
14	0x3d309856	0.04311403
15	0x3c083690	0.00831379
16	0xbdd7581b	-0.10514852
17	0xbddac2ec	-0.1068171
18	0xbc3a8b85	-0.011385803
19	0x3d9501bf	0.07275724
20	0x3d6a9f5f	0.057280894
21	0xbe01c0ff	-0.12671278
22	0xbd1faea9	-0.03898493
23	0x3d11b6b2	0.035574622
24	0x3d12b23d	0.035814513
25	0xbd848b43	-0.064718746
26	0xbe06166f	-0.13094495
27	0xbdfcbf83	-0.123412155
28	0xbdd5e31e	-0.1044371
29	0xbda26a3a	-0.07930417
30	0xbce56682	-0.028002981
31	0xbdee437a	-0.11633964
32	0x3de885a9	0.11353619
33	0x3c396463	0.011315438
34	0xbdea4a1b	-0.11439916
35	0xbd5e853a	-0.054326274
36	0xbd04c9bc	-0.03241895
37	0xbc51089d	-0.012758401
38	0x3bd42b9d	0.0064749257
39	0xbe085d50	-0.13316846
40	0xbd6157cc	-0.05501537
41	0xbde4b1b1	-0.111667044
42	0xbc2ad252	-0.010426121
43	0xbd7b3cdc	-0.061337337
44	0xbcc50be1	-0.024053516
45	0xbdf13ddd	-0.117793776
46	0x3d1ed6b8	0.03877899
47	0x3d8fa2ad	0.0701345
48	0x3d86f165	0.06589011
49	0x3d87eb4a	0.06636675
50	0x3cbdcaba	0.023167957
51	0x3c94210a	0.01808216
52	0x3d8f909a	0.070100024
53	0x3e02cc4c	0.12773246
54	0xbdbb4f06	-0.09145932
55	0xbd230366	-0.039798163
56	0xbd6a099b	-0.057138067
57	0x3db97ef7	0.0905742
58	0xbe0c80eb	-0.13721053
59	0xbd9e1aae	-0.077199325
60	0xbdae2c48	-0.0850454
61	0xbda4a42b	-0.08039125
62	0xbc57c206	-0.013168817
63	0x3d687889	0.056755576
64	0xbd9d2115	-0.076723255
65	0xbd0dda8a	-0.034632243
66	0x3d1bb85d	0.03801762
67	0xbd69e8d0	-0.057106793
68	0x3d86436a	0.06555827
69	0x3dd5db43	0.104422115
70	0x3b4bbfe5	0.003108972
71	0xbd745635	-0.059652526
72	0x3b5223a8	0.003206471
73	0x3d3a00b4	0.045410827
74	0xbd828f5b	-0.06374999
75	0xbdeda19b	-0.116030894
76	0xbda30e5d	-0.07961724
77	0x3e30280c	0.17202777
78	0xbe1c89d9	-0.1528696
79	0xbd63072c	-0.05542676
80	0xbcef6fa1	-0.029228033
81	0xbd3cbe5b	-0.046079975
82	0xbdf00898	-0.11720389
83	0x3d0671a5	0.032823224
84	0xbd82a4d7	-0.06379097
85	0x3dabc7cd	0.08387718
86	0x3d0f8ab2	0.03504438
87	0xbda1713d	-0.078829266
88	0x3d4acb1a	0.0495101
89	0xbe08470c	-0.13308352
90	0x3c351fbf	0.011054932
91	0x3d816292	0.06317629
92	0x3cdf70f8	0.027275547
93	0xbe3bbeed	-0.18334551
94	0x3dcc8c63	0.09987714
95	0x3d6324ce	0.05545502
96	0x3b149d0f	0.0022676622
97	0xbd8655b9	-0.06559319
98	0xbdbb5ab2	-0.09148158
99	0x3ca2adee	0.019858327
100	0xbd3b264b	-0.045690816
101	0x3d9fc740	0.07801676
102	0xbdef15e5	-0.11674098
103	0x3e0f5561	0.13997413
104	0x3c7d06c7	0.01544351
105	0x3d4e24e7	0.05032816
106	0x3dd6e34a	0.10492571
107	0x3b42dd86	0.002973409
108	0xbd91cab0	-0.07118738
109	0xbd29849a	-0.041386224
110	0xbde2f63c	-0.11082122
111	0xbdd0dacd	-0.10197983
112	0x3e2bd6ac	0.1678111
113	0xbd86dd08	-0.06585127
114	0xbd07e170	-0.03317398
115	0xbcde307c	-0.027122729
116	0xbd5eff2c	-0.05444257
117	0xbd84b46d	-0.06479726
118	0x3d2ef081	0.04270983
119	0xbdcafed9	-0.099118896
120	0xbd8ead84	-0.06966689
121	0xbd7f098d	-0.062264968
122	0xbde878cd	-0.11351166
123	0x3bb6e457	0.0055814194
124	0xbc041d9e	-0.008063702
125	0x3dc7dc88	0.0975886
126	0xbdfeb9b1	-0.124377616
127	0x3d850b34	0.064962775

fc2.weight f4 [128, 128]
0	0x3d99f711	0.07517827
1	0x3d7d5271	0.0618462
2	0xbc65bc45	-0.014021938
3	0xbdfd3c50	-0.12365019
4	0x3d6ee2cc	0.05832176
5	0x3ce4096f	0.02783653
6	0x3cb35f86	0.021896135
7	0x3d339fa7	0.04385343
8	0xbdde16f9	-0.108442254
9	0x3d37859f	0.044805165
10	0xbbd2c679	-0.006432351
11	0xbd15b93b	-0.036553603
12	0xbe11034f	-0.14161418
13	0x3d855ed0	0.06512225
14	0x3d175556	0.036946617
15	0x3cf580e4	0.029968686
16	0x3db5018c	0.08838186
17	0xbd9e6024	-0.07733181
18	0x3d36bff5	0.04461666
19	0x3d0985db	0.03357492
20	0xbd061305	-0.032732982
21	0x3d93bc61	0.07213665
22	0x3dbf4840	0.093399525
23	0xbd57a3b7	-0.052646365
24	0xbda4c5ab	-0.08045515
25	0x3d80cea8	0.062894166
26	0x3d12601c	0.03573619
27	0x39af7749	0.00033467475
28	0x3d48dc1e	0.049038045
29	0x3d34ac87	0.044109847
30	0x3d34e7c7	0.044166353
31	0xbcdce880	-0.026966333
32	0xbe601cf8	-0.2188605
33	0xbef7fd46	-0.4843542
34	0x3c03098a	0.00799788
35	0xbd84cc18	-0.0648424
36	0x3d991512	0.07474722
37	0xbd898c74	-0.067162424
38	0xbcbb69a9	-0.022877531
39	0xbe802ccf	-0.25034186
40	0xbd8befde	-0.068328604
41	0x3d3eaf14	0.046553686
42	0xbda80d44	-0.08205655
43	0x3da4017e	0.08008097
44	0x3d0011a1	0.031266812
45	0xbd4daaed	-0.050211836
46	0x3d0670cb	0.03282241
47	0xbd26865d	-0.040655483
48	0xbd38016e	-0.04492324
49	0x3d15a520	0.03653443
50	0xbd9a83a8	-0.07544643
51	0xbd84ea6f	-0.06490027
52	0x3d0e3b4f	0.03472453
53	0x3d4be8c6	0.049782537
54	0xbd889819	-0.06669635
55	0x3d5a64b7	0.053318705
56	0x3d942763	0.07234075
57	0xbd29410d	-0.041321803
58	0xbe2d0447	-0.16896163
59	0x3d401e55	0.046903927
60	0x3d94e7bb	0.072707616
61	0xbf2de477	-0.67926735
62	0xbf59b259	-0.8503776
63	0x3d7298f0	0.059227884
64	0x3db7dccf	0.08977663
65	0xbd15b976	-0.036553822
66	0xbdc03df4	-0.093868166
67	0x3c3db061	0.011577697
68	0x3d6bd3c5	0.057575006
69	0x3d5ed3d8	0.05440125
70	0x3b4167bd	0.0029511296
71	0x3da6ce4e	0.08144818
72	0x3d5ca651	0.05386955
73	0x3c881074	0.016609408
74	0x3d858b7a	0.06520744
75	0x3bba6808	0.005688671
76	0x3f01b21c	0.506624
77	0xbf86fb4f	-1.0545443
78	0x3e8fd919	0.2809532
79	0xbbd2cb83	-0.006432952
80	0x3ce91875	0.028454045
81	0x3d097b3a	0.033564784
82	0xbd0c5957	-0.03426489
83	0xbdeab15c	-0.1145961
84	0x3d1d5dfa	0.0384197
85	0x3d458973	0.048226785
86	0x3d3a9c26	0.04555907
87	0x3b614eb2	0.0034379181
88	0x3cacd800	0.02109909
89	0x3d01a9da	0.031656124
90	0xbcbe0348	-0.023194924
91	0x3d3d9c95	0.046291906
92	0xbe424601	-0.18972017
93	0xbd016d84	-0.031598583
94	0x3dd7e37c	0.10541436
95	0x3d4f950e	0.05067926
96	0x3e05aa83	0.13053326
97	0xbd8385f3	-0.06422033
98	0x3d665942	0.056237467
99	0x3d5e7a41	0.05431581
100	0x3c799fd5	0.015235861
101	0x3e5b0c5b	0.21391432
102	0xbb8e3b3b	-0.004340557
103	0xbf0d4631	-0.5518523
104	0x3d896f4c	0.06710681
105	0x3c821685	0.015879879
106	0xbe81ff4d	-0.25390092
107	0x3dc8df93	0.098082684
108	0xbd4e3a43	-0.05034853
109	0x3c3ffdfe	0.011718271
110	0xbd0ecd86	-0.03486397
111	0xbd28db02	-0.041224487
112	0xbf238dbb	-0.6388814
113	0xbd7a7d77	-0.06115481
114	0xbd9468f8	-0.07246584
115	0x3c984647	0.018588198
116	0x3d1366bf	0.03598666
117	0x3d396c94	0.045269564
118	0xbce81c1b	-0.028333714
119	0xbd027226	-0.03184714
120	0x3d08bb8d	0.033381987
121	0x3c999bca	0.018751044
122	0xbe102362	-0.14075997
123	0x3ded5fc2	0.1159053
124	0x3d31241d	0.04324733
125	0xbd92aca2	-0.07161833
126	0xbdf70ac7	-0.120626025
127	0xbc9354ea	-0.017984826
128	0xbcd93c78	-0.026518092
129	0xbd2f6dc9	-0.04282931
130	0x3d5731e5	0.052537818
131	0xbd2fe01a	-0.04293833
132	0xbd337391	-0.043811385
133	0xbd947c5b	-0.072502814
134	0x3cfeeb1b	0.031117966
135	0x3cb74c01	0.022375109
136	0xbd4d4b28	-0.050120503
137	0x3c0fc9ee	0.008776171
138	0xbdca099f	-0.09865116
139	0xbd84f808	-0.06492621
140	0xbd2038a2	-0.03911651
141	0x3c28563f	0.010274469
142	0xbd9641f6	-0.073368
143	0xbdb9bed7	-0.09069603
144	0x3b6c125e	0.003602169
145	0x3ca2ec91	0.019888194
146	0x3d74d30a	0.059771575
147	0xbd8e38d1	-0.069444306
148	0x3d5fdc90	0.054653704
149	0xbda232b0	-0.07919824
150	0xbd84c1ec	-0.064823
151	0xbd7d5038	-0.06184408
152	0x3da2fc3d	0.07958267
153	0xbd60a0fe	-0.054841034
154	0x3c876536	0.016527753
155	0x3d6cc507	0.057805087
156	0x3d0d2c10	0.03446585
157	0xbd728c0f	-0.0592156
158	0xbcb761e7	-0.02238555
159	0x3d11b3a9	0.035571728
160	0x3d103a18	0.035211653
161	0x3d3eb547	0.0465596
162	0xbd9d0f79	-0.07668967
163	0xbce88478	-0.028383479
164	0x3b97779d	0.0046224133
165	0xbc86c845	-0.016452918
166	0x3cbee818	0.02330403
167	0xbc2a70e9	-0.010402896
168	0x3d530acd	0.051523972
169	0xbb4f36fa	-0.0031618462
170	0xbd9a54db	-0.07535716
171	0x38bee0ec	9.101801e-05
172	0x3d061889	0.032738242
173	0xbb7df1fb	-0.0038748968
174	0x3bad2f27	0.005285162
175	0xbdbf091b	-0.093279086
176	0xbc187035	-0.009304096
177	0xbdd0fb3c	-0.10204169
178	0x3bedfb57	0.007262628
179	0x3b3a6582	0.002844185
180	0x3d8490cb	0.064729296
181	0xbd3962c8	-0.04526022
182	0x3d44f6e2	0.04808701
183	0x3ccc7b8b	0.024961254
184	0x3d853706	0.065046355
185	0x3da242ef	0.07922923
186	0xbb96f7b3	-0.0046071648
187	0x3cec82c6	0.028870951
188	0xbda4f24d	-0.08054028
189	0xbd040d9f	-0.032239553
190	0xbd61f4e9	-0.055165205
191	0xbd073817	-0.033012476
192	0x3d33ef88	0.043929607
193	0xbc7e8400	-0.015534401
194	0x3c8c2bfd	0.017110819
195	0xbdb0e063	-0.08636548
196	0x3d0d04d1	0.03442842
197	0xbd9af097	-0.0756542
198	0x3ce93fb8	0.028472766
199	0xbd1149ca	-0.03547076
200	0x3d3063fa	0.043064095
201	0x3d3e10fd	0.04640292
202	0xbd05addc	-0.03263651
203	0x3d7fbe66	0.062437437
204	0x3ca3d1ec	0.01999756
205	0xbd1d8bfc	-0.038463578
206	0xbd94e63a	-0.07270475
207	0xbc7e9f01	-0.015540839
208	0xbd8d2a36	-0.06892817
209	0xbd200bd9	-0.0390738
210	0x3cdbe78e	0.026843812
211	0xbd2832c1	-0.041064028
212	0x3d8c89dd	0.06862233
213	0xbc987bad	-0.01861366
214	0xbd86f2d5	-0.06589285
215	0xbd51f3d7	-0.051257934
216	0xbd803643	-0.062603496
217	0x3d8ae270	0.06781471
218	0x3d728438	0.059208125
219	0xbd82c4be	-0.06385182
220	0xbdb95bfb	-0.09050747
221	0xbdb0d2c7	-0.086339526
222	0xbd8139f6	-0.06309883
223	0xbdbd8395	-0.09253613
224	0xbda0c85b	-0.07850715
225	0x3d900145	0.07031492
226	0x3d726e0b	0.059186976
227	0xbbe856ca	-0.007090424
228	0xbd961c9e	-0.07329677
229	0x3d4d3449	0.05009869
230	0xbd9d5bc3	-0.07683518
231	0xbd97df0c	-0.0741559
232	0x3d5a0999	0.05323181
233	0x3db1b14a	0.08676393
234	0x3d77bae3	0.060480963
235	0x3d6781ab	0.056520145
236	0x3d79caa0	0.060984254
237	0x3d9be7e3	0.07612588
238	0xbd2c68fc	-0.04209231
239	0x3d90d6b2	0.070722
240	0xbd94dc4b	-0.0726858
241	0x3d377613	0.04479034
242	0x3b20241b	0.0024435583
243	0x3c2a05c8	0.010377355
244	0xbdc1ea9b	-0.094685756
245	0xbd8ba569	-0.06818659
246	0xbd2282f2	-0.03967566
247	0x3cba2f0c	0.022727512
248	0x3d999080	0.07498264
249	0xbdaff6b3	-0.08591976
250	0x3d16844e	0.03674727
251	0xbd18c02b	-0.03729264
252	0xbd2bd8f5	-0.041954953
253	0x3d7980ca	0.06091384
254	0xbda633dd	-0.08115361
255	0xbc38cd33	-0.011279392

fc2.bias f4 [128]
0	0x3ec19524	0.37809098
1	0xbdacbc83	-0.08434393
2	0xbd992e28	-0.07479507
3	0xbd964881	-0.07338048
4	0xbe124120	-0.14282656
5	0xbe30d695	-0.17269357
6	0x3f083b67	0.5321564
7	0xbe2344a5	-0.15944155
8	0x3f857424	1.0426068
9	0xbde56943	-0.11201718
10	0xbeed5f64	-0.4636184
11	0xbf4ff8b4	-0.81238866
12	0xbd838f6b	-0.06423839
13	0x3f261e8d	0.64890367
14	0x3ee66844	0.45001423
15	0xbb7b16b3	-0.003831309
16	0xbcdcd24b	-0.026955744
17	0xbdb89f76	-0.0901479
18	0xbde8001a	-0.11328144
19	0x3f34926d	0.7053593
20	0xbdc13da3	-0.094355844
21	0xbdc38513	-0.09546866
22	0xbd4171b4	-0.047227576
23	0xbdace861	-0.0844276
24	0x3cab157d	0.02088427
25	0xbdff7e09	-0.12475211
26	0xbc50a535	-0.012734701
27	0xbe4cf758	-0.20016229
28	0xbe37b7c8	-0.179412
29	0xbbd8d2a9	-0.0066169095
30	0xbdb5fab2	-0.08885707
31	0xbdb09942	-0.086229816
32	0xbd750bbc	-0.059825644
33	0xbccc076e	-0.024905887
34	0x3f6f161f	0.9339313
35	0xbd943df3	-0.072383784
36	0xbedf9655	-0.43669382
37	0x3ef667b4	0.48125994
38	0x3e9edd8e	0.31028408
39	0xbd0798be	-0.03310465
40	0xbe0027e6	-0.1251522
41	0xbe13adf7	-0.14421831
42	0xbe0d1c02	-0.13780215
43	0x3da560eb	0.08075126
44	0x3be15f9d	0.006877853
45	0xbe280aad	-0.16410322
46	0xbe9f8dbd	-0.31162825
47	0xbd90b98d	-0.07066641
48	0xbe172655	-0.14760716
49	0xbd957739	-0.072981305
50	0xbdfaccc8	-0.1224609
51	0x3e27adaa	0.16374841
52	0xbc5f508c	-0.013630044
53	0x3f45fd5f	0.7733974
54	0xbd12eb20	-0.035868764
55	0xbe2580cb	-0.16162412
56	0xbd4ddd14	-0.050259665
57	0xbe147808	-0.14498913
58	0xbdcb691b	-0.09932157
59	0xbe095515	-0.13411362
60	0xbf496334	-0.78666997
61	0xbc4a7825	-0.012357746
62	0xbe13d66d	-0.14437266
63	0xbe2c70c0	-0.16839886
64	0xbea3cba4	-0.31991303
65	0xbe9caabf	-0.3059902
66	0xbb9cdff5	-0.00478744
67	0xbea866c0	-0.32890892
68	0x3de9e015	0.114196934
69	0xbdbf5808	-0.093429625
70	0x3e687e6e	0.22704479
71	0xbc957b90	-0.018247396
72	0xbd84404a	-0.06457575
73	0x3c91b060	0.017784297
74	0xbe18188a	-0.14853111
75	0xbdf13a3f	-0.11778688
76	0x3f3bcfe5	0.73364097
77	0x3d3e3cb0	0.046444595
78	0x3e0264e7	0.12733804
79	0xbe03e2b8	-0.12879455
80	0x3e89c813	0.26910457
81	0x3e1447b7	0.14480482
82	0x3b2cd2a8	0.0026370678
83	0xbcca55c3	-0.024699097
84	0xbc317c84	-0.0108329095
85	0x3ea03609	0.31291226
86	0xbe019f81	-0.12658502
87	0x3d0dfa07	0.034662273
88	0x3f044eac	0.51682544
89	0xbc24d9db	-0.010061706
90	0xbcbd0b11	-0.023076566
91	0xbebcaca0	-0.36850452
92	0xbce2e31d	-0.027696187
93	0x3f20da8a	0.62833464
94	0xbf33ad36	-0.70186174
95	0xbc50a255	-0.0127340155
96	0xbf03c31d	-0.51469594
97	0xbdb2d23c	-0.08731505
98	0xbe035841	-0.12826635
99	0xbdb7a76d	-0.08967481
100	0xbd6e2f35	-0.05815049
101	0x3d039214	0.032121733
102	0x3e180853	0.14846925
103	0x3d74196d	0.05959456
104	0xbeba7ca7	-0.36423227
105	0xbdb4fd96	-0.0883743
106	0xbcd6669e	-0.026171979
107	0xbf13ce9a	-0.57737124
108	0xb9e8f4b5	-0.0004443281
109	0xbd4a2a07	-0.049356487
110	0x3e8c7614	0.27433836
111	0xbe8459af	-0.25849673
112	0xbf1a2ea7	-0.60227436
113	0xbd517afd	-0.05114268
114	0xbda259e1	-0.07927299
115	0x3f63b7c6	0.8895229
116	0xbe85f87b	-0.26166138
117	0xbe082ccf	-0.13298343
118	0xbe896785	-0.26836792
119	0xbac84bde	-0.0015281399
120	0xbef2118d	-0.47279015
121	0xbd259d37	-0.040433135
122	0xbdd98ea2	-0.10622908
123	0xbf253f22	-0.6454946
124	0xbddada1a	-0.10686131
125	0x3d4f33c4	0.050586477
126	0xbef83b94	-0.48482955
127	0xbd854c45	-0.06508688
