saved_models/episode_final/agent_2.pth (torch, 738018 bytes, 44 tensors)

fc1.weight f4 [128, 5]
000000 4c 5e 42 be 51 25 b8 bd e1 e7 75 be 58 01 28 be
       -0.18981284 -0.089914925 -0.24014236 -0.16406763
000010 1e f3 22 3b 86 5b 9b 3e ac a7 1a 3d 50 94 75 bd
       0.0024864147 0.30343264 0.03775756 -0.059955895
000020 59 8e f6 bd 89 83 00 3c c8 1f b3 3e 78 d7 94 be
       -0.120388694 0.00784386 0.34985185 -0.2907064
000030 ce 3e 86 be 2c be 82 3e 9f 37 fa 3d bf fb e1 3e
       -0.2621979 0.25535715 0.1221764 0.4413738
000040 52 7f db be 8b 9c 2a be 19 c2 89 be fd e4 02 bd
       -0.42870575 -0.16661279 -0.26905897 -0.03195666
000050 1c f8 b2 3d 9f 46 3e be c9 6b 28 3e 58 b2 b9 3e
       0.08738729 -0.18581627 0.16447367 0.36268878
000060 20 d5 b0 be 16 fd 7f 3e 56 3a cc be e2 c7 3b bb
       -0.345376 0.24998888 -0.39888257 -0.0028653075
000070 a3 c0 a5 be a7 b3 a4 be 27 18 38 bd 6a 42 b1 be
       -0.32373533 -0.32168314 -0.04494491 -0.34620982
000080 01 a1 2b be 0e 9a 51 be bc 16 87 be 80 41 e3 be
       -0.16760637 -0.20468923 -0.26384532 -0.4438591
000090 a4 63 36 be 50 14 42 bc 87 84 46 be f6 43 97 be
       -0.17811447 -0.011845663 -0.19386493 -0.29544038
0000a0 64 38 b4 3e de 6c 5b be 21 5a 94 bd 6c 15 b8 be
       0.35199273 -0.21428248 -0.07243753 -0.35953844
0000b0 76 15 57 3e 44 d3 cb be bf 9b aa bd b4 77 d2 bd
       0.2100428 -0.3980962 -0.083304875 -0.10276738
0000c0 eb c5 0e be b3 0a d2 3d 85 7e e8 3e 7a ec 8e 3e
       -0.13942687 0.10255947 0.45409027 0.27914792
0000d0 8f fb c8 be 96 5f 82 3d 3b a9 b6 bd 6f 03 99 be
       -0.39254424 0.06365888 -0.08918997 -0.29885432
0000e0 fd b6 d8 3e 86 d2 d8 3e ff f0 a4 be e3 71 86 be
       0.4232711 0.42348117 -0.32215115 -0.26258764
0000f0 22 8b ca be b3 79 b7 be e7 a4 73 3e d1 9d ca be
       -0.39559275 -0.35835037 0.23793374 -0.3957353
000100 f2 39 83 be eb 45 09 be b2 dd e5 bd aa 08 2a 3e
       -0.25630146 -0.13405578 -0.11223926 0.16604868
000110 c8 15 e2 3c f4 8e b1 3e c2 70 b2 bc 64 bb b8 be
       0.027598277 0.34679377 -0.021782283 -0.36080468
000120 53 bb df 3d 11 4b ab be c5 20 5c 3e 07 84 80 be
       0.10924401 -0.3345571 0.21496876 -0.2510073
000130 36 c4 a9 bd 95 2d e5 bd 85 51 c2 be 4a 30 ac 3e
       -0.082893774 -0.11190335 -0.3795282 0.33630592
000140 59 0a 02 3e bb 07 87 be 14 4b e3 3d 96 9d ae 3e
       0.1269926 -0.26373085 0.110983044 0.34104604
000150 b5 4e 0c be 51 32 99 3d 93 bf 7c 3e 34 36 a7 3e
       -0.137019 0.074803 0.24682455 0.3265854
000160 df 2b c5 3e 90 cb cc 3e 55 98 b4 be 46 55 90 3e
       0.38510033 0.39999056 -0.3527247 0.28190058
000170 4d 9b 0f bd 6c b5 8c be 2d 16 96 be 67 56 78 bd
       -0.035060216 -0.27482164 -0.29313794 -0.060629275
000180 7f 96 33 3e e2 b6 30 3e fc 32 16 3d 97 16 97 be
       0.17537878 0.17257264 0.036669716 -0.29509422
000190 c2 1b e1 bd f7 85 b5 3e a6 f9 bc be be ee 83 be
       -0.109916225 0.3545377 -0.36909217 -0.25768083
0001a0 90 3e 18 3e e3 cf 95 be 5b 35 99 3e 02 4a 58 3e
       0.14867616 -0.29260167 0.2992352 0.21121982
0001b0 7b 7a e2 3d 80 44 80 be 7b 4c 36 3e a9 a8 da 3e
       0.110585175 -0.2505226 0.17802612 0.42706802
0001c0 4d ae d1 3e 4a ec 7d 3e 0e 6e ec 3e 3e c2 88 3e
       0.40953293 0.24797168 0.46177715 0.26710695
0001d0 01 5b 74 bd ed 0e 8f 3e 42 ea c0 bd 61 02 c2 3c
       -0.0596571 0.27941075 -0.09419681 0.023682775
0001e0 e0 8e 91 be 67 0a 24 bd 70 9d e9 3d 8e f8 5e bd
       -0.28429317 -0.040048983 0.11406982 -0.05443626
0001f0 8b 12 c4 3e ce ca de 3e 7d 12 80 3e fb e3 59 be
       0.38295397 0.43514103 0.25014105 -0.21278374
000200 3f 72 72 3d c7 ea 5b be a2 24 6f be b7 2b 74 3e
       0.059190985 -0.21476279 -0.23353818 0.23844801
000210 73 45 81 be 59 af 5c be e7 ac 9f be 28 73 2c 3e
       -0.25248298 -0.21551265 -0.31186602 0.16840804
000220 b2 7b 28 bd d7 c1 db be 88 89 9f 3e 81 5f b4 3e
       -0.04113359 -0.42921326 0.31159616 0.35229114
000230 14 a4 be be 99 8f 01 3d 1d 51 c1 3e 09 93 87 be
       -0.37234557 0.031631086 0.37757197 -0.26479366
000240 f5 f1 b5 be f9 9e 12 be 46 0a 80 3e fe b7 90 3e
       -0.3553616 -0.14318456 0.25007838 0.28265375
000250 ea 05 c2 bd 31 35 a1 3e c1 4f 8a 3e a4 b7 e2 3e
       -0.09473784 0.31485894 0.27013972 0.44280732
000260 e2 b9 97 be 82 38 86 3e 5e bd 75 3a c5 85 50 3e
       -0.29634005 0.26214987 0.0009374226 0.20363529
000270 fd 77 5e be b5 e7 ce 3d b4 aa 78 3d c5 19 1b 3e
       -0.2172546 0.10102788 0.06070967 0.15146549
000280 db 1a a5 3d 33 c6 d9 be 80 8e 25 be 55 41 08 be
       0.08061763 -0.42534027 -0.1616764 -0.13306172
000290 df b2 3f bd f3 5c 10 3e 3f 6a b3 be 9e 08 ac bd
       -0.046801444 0.14097957 -0.35041997 -0.08400081
0002a0 2d 7d d8 be d8 a2 8a bd d2 e3 ad bd 5a cb 59 be
       -0.42283002 -0.06769341 -0.08490719 -0.21268979
0002b0 a7 07 ab 3e 30 02 75 3e c0 77 ae bd 12 75 dc be
       0.33404276 0.23926616 -0.08518934 -0.43058068
0002c0 34 84 2a 3e 8c 6f 98 3e c0 84 11 be 15 8d 3f 3e
       0.16651994 0.29772604 -0.14210796 0.18706162
0002d0 b4 5c 88 3d 28 cc 22 3e e9 43 56 3e 97 0b ab 3d
       0.06658307 0.15898192 0.20924343 0.0835182
0002e0 d4 1d 2e be 2d ec 8c be 16 16 ca be 2d 8e d0 3d
       -0.17003566 -0.27523938 -0.39469975 0.10183368
0002f0 b2 85 1d be 7c 51 d3 be 6f 0d 98 3d d1 fa 1c be
       -0.15383032 -0.41273105 0.07424437 -0.15330054
000300 6a 9d 2f 3e df 7c de 3e e3 89 83 be 44 08 a3 3e
       0.17149892 0.43454644 -0.25691137 0.31842244
000310 58 dc bf 3b 45 d1 12 be 13 5e 81 3d 5a d9 a2 3e
       0.0058551244 -0.14337642 0.06316771 0.3180645
000320 16 a3 2b be 05 9c 18 3e 37 82 d1 3d 64 0c 43 be
       -0.16761431 0.14903267 0.10229915 -0.19047695
000330 cf 39 86 be 20 75 6f 3e 98 9f 7c 3e 98 ae 38 3d
       -0.2621598 0.23384523 0.24670255 0.04508838
000340 2e 5e db bc 38 44 40 3c 9a e4 f0 3d 2c b9 5d be
       -0.026778307 0.011735015 0.11762352 -0.21652669
000350 b1 31 e3 bd cc f7 4e bd bd f7 b9 be d4 43 33 3e
       -0.11093462 -0.050529286 -0.36321822 0.17506343
000360 5f 0e f6 bd df 25 5c be 62 df ac be 39 f8 93 bc
       -0.1201446 -0.21498822 -0.33764178 -0.018062698
000370 0c e8 a8 3e a3 d5 8e bc 4e 8e a8 be 70 ed c4 bd
       0.32989538 -0.017435854 -0.3292107 -0.096156
000380 48 0d 0c be e8 57 3b be 4f f4 e0 be 26 8a 6b be
       -0.13676941 -0.18295252 -0.43936393 -0.23001918
000390 93 d6 72 3d 94 c4 71 3d 35 1d 97 be c3 73 a3 bd
       0.059286665 0.059025362 -0.2951447 -0.07981064
0003a0 6c 9c 91 3e bf 02 14 be 46 7d b6 be 67 5d 25 be
       0.28439653 -0.14454173 -0.3564245 -0.16148911
0003b0 ef 85 c4 3e d7 ea 05 bd 65 4c b8 3e 0a b9 b9 3d
       0.38383433 -0.032694664 0.35995784 0.090684965
0003c0 e3 83 18 3d e0 92 21 3d 0d 24 ca be 12 0d 41 3e
       0.037235152 0.03944671 -0.3948063 0.18852642
0003d0 02 e9 26 bd 84 41 47 bd 4a 1a ed bd 39 5d 82 be
       -0.040749557 -0.048646465 -0.1157728 -0.25461748
0003e0 6b e6 96 3e 94 59 67 3c 0a 27 b5 be a7 b4 cc be
       0.2947267 0.014120478 -0.35381347 -0.39981577
0003f0 6c 46 c2 3e 28 73 cf be 8d 76 86 3e be c3 3f 3e
       0.37944353 -0.40517545 0.26262322 0.18727013

fc1.bias f4 [128]
000000 3b 89 90 3e 3e d0 d3 be 64 4b bc be dc 1d 5a 3e
       0.282297 -0.41369814 -0.36776268 0.21300453
000010 89 96 c6 bc ca 57 cb be 74 6e ae be 6a 75 1c 3e
       -0.024241703 -0.39715415 -0.34068644 0.15279165
000020 82 c2 dd be 88 38 ea bd 3d cf 8c 3e 8c 51 30 be
       -0.4331246 -0.11436564 0.2750186 -0.17218608
000030 f1 ad 63 3e 57 c7 8e 3d fa 26 29 be 37 a1 5d 3e
       0.22234322 0.06971615 -0.16518775 0.2164353
000040 09 6c fe 3e 09 3f 0e 3e 38 91 9f 3e f1 7b c2 be
       0.496918 0.13891234 0.3116548 -0.37985185
000050 27 11 24 3e 43 52 47 3d df c7 83 3e 4e 07 e0 3d
       0.16022168 0.048662435 0.25738427 0.10938893
000060 4c cd 55 3e ae 85 df 3e 80 99 43 3e 34 86 d1 3e
       0.20879096 0.43656677 0.19101524 0.409227
000070 a8 9b be bd bc 1f 3d 3f 56 3e 37 3e 04 be ca be
       -0.09307033 0.7387655 0.17894873 -0.39598095
000080 c1 3f 97 3a 47 02 9f 3d be 50 2c be 66 79 87 3e
       0.0011539386 0.07764106 -0.16827676 0.26459807
000090 0f 89 da 3e aa 6b 72 3d 9b 3d db 3d e9 f4 85 be
       0.42682692 0.059184708 0.1070511 -0.26163414
0000a0 03 14 8f 3e 06 aa 1a be 58 42 fd bb f4 94 cd be
       0.27944955 -0.15103921 -0.007728856 -0.40152705
0000b0 c9 6d 72 be 54 30 4b 3c 45 d1 a3 be 11 fd 91 3e
       -0.23674692 0.012401659 -0.31995597 0.28513387
0000c0 24 c7 d8 be b1 4a ef 3e 0c 61 7c be 1f 39 74 3d
       -0.42339432 0.46736673 -0.24646395 0.059624787
0000d0 a7 19 91 be 34 44 ba 3e 57 0b 3b 3d a5 6e 88 be
       -0.28339884 0.3638016 0.04566511 -0.26646915
0000e0 b3 8a 29 be dc d3 a3 3e e1 f3 fe bd 77 4a b0 3e
       -0.16556816 0.31997573 -0.1244886 0.34431812
0000f0 44 45 3f 3e 68 8f a8 be 82 20 3d 3e 06 29 08 3e
       0.18678766 -0.3292191 0.18469432 0.13296899
000100 ce 21 e3 3e 29 4f a9 3d 46 bf 8e be 04 23 81 be
       0.44361728 0.08267052 -0.27880305 -0.25222027
000110 c8 19 a2 3e 51 db ad be f0 ce 15 3e f4 60 b5 3c
       0.31660295 -0.33956388 0.14629722 0.022140957
000120 be ef dd be 84 8b 0e be 43 44 78 3e 01 aa f5 3e
       -0.4334697 -0.13920408 0.2424479 0.47981265
000130 b6 33 7d be a6 8b a9 3e 82 7b 42 bd 60 88 29 3e
       -0.24726757 0.33114356 -0.047481067 0.16555929
000140 68 0a d1 be fe f0 77 3e cf 61 4c bd ce d0 e9 3d
       -0.40828252 0.24213025 -0.049897965 0.114167795
000150 23 a4 2b be ee 56 c5 be 45 93 c3 3e e0 77 d8 3e
       -0.16761832 -0.38542885 0.38198295 0.42278957
000160 06 c9 9d be 76 bd a4 3e 0b b9 54 be 82 25 23 be
       -0.3081743 0.32175797 -0.20773713 -0.15932277
000170 78 6d 96 3e 6c 6e d9 3e 23 dd c0 3d 09 2e b3 be
       0.29380393 0.42467058 0.094171785 -0.3499606
000180 45 9d 1c be c7 6a 27 be 40 e1 37 3e 5d 12 ae be
       -0.15294369 -0.16349326 0.1795702 -0.33998385
000190 cc 3f b1 bd e8 5b f9 3e ff 67 4d bc 94 fe 84 be
       -0.086547464 0.4870293 -0.012537002 -0.25975478
0001a0 94 0b da 3e 6c 32 d9 be a0 c6 4b bd 36 25 cb 3e
       0.42586958 -0.4242128 -0.04974997 0.39676827
0001b0 b2 8b 95 3e 75 9b 35 3e f8 63 64 be 75 6f 81 be
       0.29208142 0.17735083 -0.2230376 -0.25280347
0001c0 9f 32 c9 3e b9 48 cc 3d f3 38 bf 3d f6 6b af 3e
       0.39296433 0.09974808 0.09337034 0.34262055
0001d0 1e bf eb 3e e7 d0 9c 3e 01 15 b3 bd 0d 2b 20 3e
       0.46044248 0.3062813 -0.087442406 0.15641423
0001e0 b7 b7 c1 be 93 ce 91 be 92 c9 37 3c 81 a4 9a be
       -0.37835476 -0.28477916 0.011217492 -0.30203632
0001f0 70 97 84 3e 36 42 2f be ad be 72 be e8 19 a4 be
       0.25896788 -0.17115101 -0.2370555 -0.32051015

fc2.weight f4 [128, 128]
000000 be 5e 90 bd 0f 7f 78 3d 94 66 bc 3c 37 b2 eb 3c
       -0.07049321 0.060668048 0.022998132 0.028771503
000010 d4 c1 52 bd 8b a8 51 bc 2c 80 44 3d b1 3b 44 bd
       -0.05145438 -0.012796531 0.047973797 -0.04790849
000020 91 2a 05 bc ef 5b 9a 3c c0 81 e6 bc a5 6d 89 3d
       -0.008127824 0.018842665 -0.028138041 0.06710366
000030 4f 38 b8 3b 95 54 d0 3b 27 d6 85 3c 0a 5c 26 bd
       0.005621947 0.006357739 0.016337467 -0.04061512
000040 d7 94 e1 bd 60 02 93 bd 4a 5d 8b bd 98 56 0b 3c
       -0.11014717 -0.07178187 -0.06804903 0.008504532
000050 c2 58 b4 bd bd 12 36 bd c6 4e 53 bc 70 2d 92 3c
       -0.08805992 -0.044451464 -0.012897199 0.017843932
000060 83 9b 70 3d f4 b4 67 bd 7f dd 27 bd 97 d1 3a 3d
       0.058742058 -0.056569055 -0.04098272 0.045610037
000070 4a 81 70 bd 7a ea c1 3c a0 fa 7a 3d cf 8d dc bc
       -0.05871705 0.023671377 0.06127417 -0.026923088
000080 b3 5e 3f bc 42 a1 45 bd 19 f6 cd bd 02 da a7 bd
       -0.011680293 -0.04824949 -0.10056705 -0.081958786
000090 b3 4e 02 bd 23 5c 6d bd 10 8c 99 3d b5 71 15 bd
       -0.031813335 -0.057949197 0.07497418 -0.036485393
0000a0 27 f4 5f 3d c5 58 9c bc 20 c1 4d 3d 77 f9 87 3d
       0.0546762 -0.019085297 0.050233006 0.066393785
0000b0 7a fc 8c 3c 6e fc 6f bd 96 b7 c5 3c 8c a6 36 3d
       0.017210234 -0.058590345 0.024135392 0.044592425
0000c0 53 e5 a5 bc d5 73 af bc b5 29 b1 bd 14 cb b4 bd
       -0.020250952 -0.021417538 -0.08650533 -0.088277966
0000d0 50 76 b4 bc 29 40 aa 3d 66 04 09 3d 07 57 3f 3d
       -0.022029072 0.08313019 0.03345146 0.046713855
0000e0 7c 50 93 bd ee 8c be 3b bf 5c b5 bd 90 1d 39 3d
       -0.071930856 0.00581514 -0.088555805 0.04519421
0000f0 9a b3 98 bd 38 16 98 bd f8 a8 0f bd c9 db 6a 3c
       -0.07456131 -0.07426113 -0.03507325 0.014334627
000100 de 4f 9b bd b5 72 a5 bd 97 1a 85 bb 05 d3 85 bd
       -0.07583593 -0.08078519 -0.0040620076 -0.065343894
000110 c8 74 b6 bc e3 f9 91 3d 5b 7f 70 bd a1 35 f6 bc
       -0.022272483 0.0712774 -0.058715206 -0.03005487
000120 f4 e9 5c bc 2e 6f ef 39 31 be 76 bd c5 e6 90 bd
       -0.013483513 0.00045668468 -0.060239974 -0.07075266
000130 1a 34 81 3d d5 d0 2f 3d bc 9f 71 bd eb 9b 58 3d
       0.06308766 0.042923767 -0.058990225 0.05288307
000140 68 97 ad bd e7 ab 7f 3d 41 5e ca bd 5e eb 4a bd
       -0.08476144 0.0624198 -0.09881259 -0.04954087
000150 0c 36 4b ba bf 86 90 3a e5 2d a9 bd f6 d4 4e bd
       -0.0007751889 0.0011026486 -0.08260707 -0.050496064
000160 24 15 9b bd 4e 8c 95 bc f5 5c e7 bc 81 20 95 3c
       -0.07572392 -0.018255379 -0.028242568 0.018203976
000170 5a 88 a9 bd 4f b7 ae bb 5c 98 46 bd 30 74 5f 3d
       -0.0827796 -0.0053319107 -0.048485145 0.054554164
000180 70 86 55 3d 80 41 1b bd 0e ef 40 bc e3 80 ba bc
       0.052130163 -0.037904263 -0.011775745 -0.022766536
000190 ac 19 2d bc 5f d3 7f 3b 9a d9 8d 3c 84 cc 25 bc
       -0.010565203 0.00390359 0.017315675 -0.010119561
0001a0 b0 37 c5 bc 5c c7 74 bd b5 d8 ce bc b4 e8 f5 bc
       -0.024074405 -0.059760436 -0.025249818 -0.030018188
0001b0 8c 58 d4 bd 02 bd 55 3d 3f ac 29 3d 1f dd 6a 3c
       -0.103684515 0.052182205 0.041424032 0.014334946
0001c0 fb 88 68 3d fa 63 22 bd 93 2d d9 3c 6d 42 3c 3d
       0.05677126 -0.039646126 0.02651099 0.045961786
0001d0 44 8f 91 3d c9 be a4 bd 32 0f df bc cf f8 c2 3b
       0.07107404 -0.08044202 -0.027228925 0.0059500705
0001e0 2b 60 53 3d 02 a8 d8 3a 99 f6 17 3d 69 21 9f 3d
       0.051605385 0.0016529562 0.03710041 0.07770044
0001f0 47 be da bc 0d 8e ec bc d4 5d bf 3b 28 ae 2c 3d
       -0.02670206 -0.028876329 0.0058400426 0.042158276
000200 99 7c 72 bd 7d 4c 82 3d 6b be 80 bc d0 2a 93 3d
       -0.059200857 0.06362245 -0.015715798 0.071859
000210 20 f6 a1 3d 2d 4d 94 bd d4 ee 93 bc d6 06 ad 3d
       0.07908273 -0.072412826 -0.018058218 0.084485695
000220 b0 50 b0 3c 66 19 0b 3d 55 b9 91 3c 66 1b 05 3d
       0.02152285 0.03395977 0.017788569 0.032496832
000230 e4 2e 9c 3d c2 20 18 3d 12 ef 8d 3d 26 67 9d bd
       0.07626131 0.037140615 0.06930365 -0.0768569
000240 77 5b fc 3d e6 a4 ac 3d 32 f5 ce 3c 45 0b b8 bd
       0.12322133 0.084298894 0.025263403 -0.089865245
000250 88 5c f7 3d 3f 97 c4 3b 4d a1 28 3d 72 25 62 3c
       0.12078196 0.0059994753 0.041169453 0.013802873
000260 e5 4a 41 3d d6 48 f5 bb d0 3c 0d 3d 12 3d 2d bd
       0.047190566 -0.0074854894 0.034481823 -0.04229457
000270 44 1a b1 3d 23 6d 8b 3e ff 3f e1 bc 80 13 1e 3d
       0.08647588 0.27231702 -0.027496336 0.038592815
000280 e7 60 a7 ba 56 e7 e3 3c fa 03 d1 3c 0e 0b ad 3d
       -0.0012769968 0.02782027 0.025514591 0.08449374
000290 fd 09 1e 3c f3 13 18 bd dc f0 67 3d 9e 52 1e 3d
       0.009645936 -0.0371284 0.056626186 0.03865301
0002a0 f5 30 0e bd 97 bb 84 bd 95 66 44 3d 6a 20 14 3c
       -0.034714658 -0.064810924 0.047949392 0.009040931
0002b0 03 09 6c 3c a2 9b f1 3c 68 ed 35 3d 57 9d 92 3c
       0.014406445 0.029493157 0.04441586 0.017897291
0002c0 a8 b0 8c bd 3c be 1e 3d 2f 15 a0 bd 10 85 70 3d
       -0.06869632 0.03875564 -0.078165404 0.05872065
0002d0 bc 89 b1 3d 6b 58 98 3c ad 74 12 3d 53 4f b5 bd
       0.08668849 0.018596848 0.035755802 -0.088530205
0002e0 2c ac e3 bc 31 59 1e 3e bb f8 87 3d 97 b1 55 3d
       -0.027792059 0.15463711 0.066392384 0.052171316
0002f0 68 1b 30 bd 70 14 a6 3c ec c7 c3 bd 83 3c 17 3d
       -0.042994887 0.020273417 -0.095596164 0.036922943
000300 cb 7d 56 3c 18 f5 c8 bc ea 64 64 bc 54 7f 35 3d
       0.013091515 -0.024530932 -0.013940075 0.044310883
000310 49 59 92 3d f5 f2 86 bc d0 1a 89 3c ab 4d a0 3d
       0.07145936 -0.016473273 0.016736418 0.07827314
000320 f3 7e ac 3c be d0 2e 3c 42 12 9e bd 53 4b 2f bb
       0.021056628 0.010669885 -0.07718326 -0.0026747778
000330 16 43 9a 3d a7 c5 c0 3d b9 ab 82 3d d2 8e 92 bd
       0.07532327 0.09412699 0.0638041 -0.07156147
000340 bc 88 e5 3c ad ec 84 bd dc fd a0 3d c6 72 8f bd
       0.028019302 -0.06490455 0.0786092 -0.07004313
000350 6b e8 43 bd 0a 51 17 3d 70 fa b4 3d 25 51 82 bd
       -0.047829073 0.03694252 0.0883683 -0.06363133
000360 f6 a9 2a 3c c3 28 10 3d 3d 26 57 bd cb 08 c0 3d
       0.010416498 0.035195123 -0.0525267 0.09376677
000370 c3 23 a5 3c b4 3d 86 bc 1c f0 91 bd 1c f9 81 3d
       0.020158654 -0.016386844 -0.07125875 0.06346342
000380 e2 fc 73 bd 2d 67 87 3d 23 2a 83 bb 78 5e 7c 3d
       -0.05956734 0.06611476 -0.004002826 0.06161353
000390 de 6d 27 bd 33 78 1c 3d 68 f7 82 3c 59 0f 35 3d
       -0.040876262 0.03820057 0.015987113 0.04420409
0003a0 e6 6a d7 bc 34 c3 02 bc 25 4e d5 bb 2e 23 96 3d
       -0.02629609 -0.00798111 -0.0065095597 0.07330929
0003b0 35 12 a3 3d 3e 06 85 3d c6 8d c4 3d 7b 20 19 3d
       0.07962457 0.06495331 0.09597354 0.03738449
0003c0 ab 63 80 3d 01 fb 8b 3d f2 b8 84 bc d7 d2 0f 3d
       0.0626901 0.068349846 -0.01620147 0.035113182
0003d0 aa 65 34 bd 9d e9 1f bd 52 0e 74 bd 5c 3d 89 bd
       -0.044042267 -0.03904115 -0.05958397 -0.067011565
0003e0 2c d5 cd 3c 7a 69 bd ba 43 33 88 3d bc b8 b0 3d
       0.025126062 -0.001445099 0.066504024 0.08628985
0003f0 56 ce 33 bd e3 d6 38 3d 72 34 8a 3c 45 5a 0a 3d
       -0.04389795 0.045126807 0.016870711 0.033777494

fc2.bias f4 [128]
000000 48 6b 0d bd c9 bb 9e bc 56 ee 3a 3b fc ef af bd
       -0.03452614 -0.019376652 0.0028523407 -0.08590695
000010 26 98 5d bd 1f a7 87 bc d8 be b9 3d d8 99 1d 3d
       -0.05410018 -0.016559182 0.09069604 0.038476795
000020 d7 50 ad bd 5a 1d d4 bc b5 cc e1 3c d2 20 c3 bd
       -0.084626846 -0.025892902 0.027563432 -0.09527744
000030 22 18 26 3d b2 15 5a bd 81 c0 f5 3c d3 f0 9a bd
       0.04055036 -0.053243347 0.02999902 -0.07565465
000040 b3 48 ac 3c f7 74 89 bd 56 66 e4 b9 8c f0 b7 bd
       0.02103076 -0.067117624 -0.00043563795 -0.089814276
000050 df ed 1a bd 31 50 08 3d f0 15 23 bd 23 f8 d8 3d
       -0.037824508 0.0332796 -0.039815843 0.10594203
000060 34 b7 3b bd 45 3e aa bd 45 ee 98 3d 9f 47 49 3c
       -0.045829013 -0.08312658 0.07467321 0.012285142
000070 bc d0 8c 3c 82 21 5e bc c9 d6 e7 3c 4f 52 24 bd
       0.017189376 -0.013557794 0.02830066 -0.040117558
000080 e0 e1 92 3c 0a 52 00 bd 3c 7d 67 bb ad bc ac 3b
       0.017929971 -0.03132824 -0.0035322448 0.0052715153
000090 06 fc 08 bc 39 f5 47 bd 11 94 85 3d 7d 16 22 3d
       -0.008360868 -0.048817847 0.06522382 0.039572228
0000a0 ca dc 79 3e af 13 87 3d 06 ea 86 bd 88 a9 c1 3c
       0.2440063 0.06595551 -0.06587605 0.02364041
0000b0 8e ca 83 3d bd 17 45 bd 64 cb 0d bd 39 fe f7 bc
       0.064351186 -0.04811834 -0.034617797 -0.03027259
0000c0 ab bc 5c 3e eb c8 03 bd 5e 99 9b bc 85 24 66 3d
       0.21556346 -0.032174032 -0.01899403 0.05618717
0000d0 e0 a5 23 3d 2a a6 91 bd 7a be 14 bd b4 ef 2d bd
       0.039953113 -0.071117714 -0.036314465 -0.042464927
0000e0 d1 ae b4 bc 1a 79 07 bd d8 3f 44 bd 23 79 a2 3c
       -0.022056015 -0.033074476 -0.04791245 0.019833153
0000f0 25 c4 b0 bd c3 9f 7d 3d 03 d5 fd bc 67 ba 73 bb
       -0.086311616 0.06191994 -0.030985361 -0.0037189962
000100 cb e2 b8 bd 60 18 9a bd 2f 5f 9d bd 11 09 8d bd
       -0.09027632 -0.075241804 -0.076841705 -0.06886495
000110 63 68 b5 3c e3 8b bf bc f5 e3 96 3d 59 af 53 bd
       0.022144502 -0.023382133 0.07367698 -0.051680896
000120 8c a6 d4 bb 69 c4 f2 3c f0 a0 35 bd 74 ef d4 bc
       -0.0064895805 0.029634671 -0.044342935 -0.025993086
000130 ef 79 88 3c 58 22 09 3c 20 f5 93 bd da 6f 9d 3b
       0.016659705 0.008370005 -0.07224488 0.0048045935
000140 d2 0f 3e bd d7 8d 0c bd ef e2 a2 bc 62 33 29 3d
       -0.046401806 -0.034314957 -0.019883601 0.041308768
000150 e1 18 b3 bd 0a 11 00 bd 1e 7f 93 bd 6c ff 3d 3d
       -0.0874498 -0.03126625 -0.0720198 0.046386167
000160 27 74 9c bd 3c e6 a6 3d d8 b1 22 bd b5 f1 33 bd
       -0.07639342 0.081493825 -0.039720386 -0.04393168
000170 2b 61 29 3d f0 7f 0a bc 27 21 83 3c ef 11 97 3d
       0.041352432 -0.008453354 0.01600702 0.073764674
000180 3c cc 5e 3d f9 0a 86 3d d5 3d 63 bd f1 6a 1d bc
       0.05439399 0.065450616 -0.05547889 -0.009608016
000190 56 80 a6 bd 3a 41 6c 3d 0c d0 12 bd a6 9a 9d bd
       -0.08129947 0.057679392 -0.03584294 -0.076955125
0001a0 bf fc 82 3d 9b b3 80 3d c2 34 ed 3b c3 4a c6 bc
       0.06395864 0.06284257 0.0072389552 -0.024205571
0001b0 3e 7e 89 3d f0 d7 d2 bc 08 b7 79 bd 43 cb 40 bd
       0.06713532 -0.025737733 -0.060965568 -0.047068845
0001c0 3b da 96 bd ee 2e 7d bd 52 1e 9b 3d ce e2 89 bb
       -0.07365843 -0.061812334 0.075741425 -0.0042079454
0001d0 21 30 1f 3d 16 a8 b6 3c af b2 af bd 11 e0 99 bd
       0.03886426 0.022296946 -0.08579003 -0.075134404
0001e0 4a 54 8d 3d 0d ec ef 3c 49 0b f8 3c 09 27 9f 3c
       0.069008425 0.029287362 0.030278819 0.019427793
0001f0 5c 8d 6c 3d ae 2f c0 3a e6 04 dc bc 8a a3 be 3d
       0.057752 0.0014662647 -0.026857805 0.09308536

fc3.weight f4 [2, 128]
000000 7d 78 77 3d bc fe 17 bd 79 8b 85 bd b8 64 0c 3d
       0.06041764 -0.037108168 -0.06520743 0.03427574
000010 28 e5 b0 bd cf 47 1e bb cb 45 09 3d 45 98 2f 3d
       -0.08637458 -0.0024151688 0.033513825 0.042869825
000020 72 ed 26 3d 5c e5 8d bd fd 81 26 bd 07 0c 14 bd
       0.04075379 -0.069285125 -0.04065131 -0.036144283
000030 1d ff 4e bd 53 c6 4c bd 01 d9 af 3c da a7 16 3d
       -0.050536264 -0.049993824 0.02146578 0.03678117
000040 77 c3 7d 3d 73 e8 6e 3b 37 6f 3e 3d 51 5a 12 3c
       0.061953988 0.0036454468 0.04649278 0.008932666
000050 c8 ec b3 3c b2 74 d6 bc d8 78 75 3c 97 af e5 bd
       0.021963492 -0.026178692 0.014982425 -0.11215132
000060 d0 82 a5 bd 49 1c 49 3d e1 77 80 bc 0b 58 31 3d
       -0.08081591 0.04909924 -0.015682163 0.043296855
000070 9a 98 6a 3d 2a 15 8d bd 2e 7d b1 3d ef f9 95 3c
       0.05727444 -0.06888802 0.08666454 0.018307654
000080 db 5d ac bd 89 31 58 3c 64 98 c5 bc 12 50 66 3d
       -0.08416339 0.013195404 -0.024120517 0.056228705
000090 46 c3 37 bd 7a 0f 82 bc 07 d4 b0 bd fe 33 c5 3c
       -0.04486396 -0.01587652 -0.08634191 0.024072643
0000a0 5a 63 05 bf 5a 74 4d bd f4 b3 c6 ba 8d 3a 1c 3d
       -0.52104723 -0.05015979 -0.0015159831 0.038141776
0000b0 80 34 f0 bd 73 ef 45 3d 4c f7 3c 3d a6 21 33 3d
       -0.117287636 0.04832406 0.04613428 0.04373326
0000c0 4a ec 0b bf 0c fe 74 3c c6 9a da 3c 5f a9 c8 bd
       -0.54657423 0.014953148 0.02668513 -0.0979793
0000d0 9a 27 e4 bb b4 6c b8 3c f4 4e 28 3d 62 8b 0b 3d
       -0.0069627287 0.022512771 0.04109092 0.034068473
0000e0 64 99 af bd 37 68 5f bd ac 04 d1 bd af 42 c3 bc
       -0.08574179 -0.054542746 -0.10205969 -0.023835508
0000f0 56 b4 d0 bc 66 07 83 3d d4 be 37 3d 3e 3e 68 bd
       -0.025476616 0.063978955 0.044859722 -0.056699984
000100 c5 76 e5 3c 8e 61 08 3d 71 e7 99 3d 8d 87 68 3d
       0.028010735 0.03329616 0.07514847 0.056769896
000110 8c 05 c0 bd ab 2b 58 bd 1c 3c 03 bd 72 1a 1f bd
       -0.09376058 -0.05277602 -0.032039747 -0.03884358
000120 b5 d8 e9 3c 2b 81 98 3d 65 61 3d 3d 8b 88 d0 bc
       0.028545717 0.07446512 0.04623546 -0.025455734
000130 c3 78 75 3c 53 b7 16 bd ff e6 8d bd 64 ab 17 3d
       0.014982405 -0.036795925 -0.06928825 0.037028685
000140 2c b3 ce bc ad b1 ee bd d1 0b a1 bd c8 4c 90 bc
       -0.02523192 -0.11654983 -0.07863582 -0.017614737
000150 6b 62 15 3c ba eb 73 bd c2 f2 9a 3d e5 f1 09 3d
       0.009117703 -0.05955098 0.07565834 0.033677954
000160 fc 18 93 3d ea 05 91 3b 6c ef fa bc 4d 7c 8a bc
       0.071825 0.004425754 -0.030631743 -0.016904974
000170 25 a9 65 bd bd 25 90 bd 07 cd fd 3c 9a 00 17 be
       -0.056069512 -0.07038448 0.030981554 -0.14746323
000180 db 8d 2a 3d 97 52 28 3d 34 84 90 3d c8 1d f9 bb
       0.04163919 0.04109439 0.07056466 -0.007602427
000190 21 e4 9a 3d 58 f2 6e 3d 25 53 c4 bd 83 67 9b 3d
       0.075630434 0.058336586 -0.09586171 0.07588103
0001a0 91 cf 25 3d 55 b2 88 3b 2d be e5 bd 57 b6 d3 bd
       0.040481154 0.0041716495 -0.11217914 -0.10337513
0001b0 5f d9 a6 3c ef ad 0e bd 3b f3 4d bd 46 b4 3d 3d
       0.020367322 -0.034833845 -0.05028079 0.0463145
0001c0 bd e9 32 3d 0d 31 99 bd 62 2b 84 bc 72 9b a2 3d
       0.04367994 -0.07480059 -0.016133968 0.07939805
0001d0 70 5d f8 bc fe 99 12 3c f3 4d 84 bd 86 7d 92 3d
       -0.030317992 0.008947847 -0.0646018 0.07152848
0001e0 98 c3 2f be 6d fc 9d bd ff 42 91 3d 4c 32 28 3d
       -0.17164457 -0.07714162 0.070928566 0.04106359
0001f0 73 72 20 3d 1b 77 65 bc a3 dd 1f 3d e5 c2 c0 bb
       0.039171647 -0.014005448 0.03902973 -0.0058826082
000200 48 af 8e 3d 72 ef cc bd 5a 74 ff bc 77 b2 5c bd
       0.06967026 -0.10006608 -0.03118341 -0.053881135
000210 de e5 2e bc 54 b5 a4 3c 1e 92 c2 bd 59 c6 8c 3d
       -0.010674922 0.020105995 -0.09500526 0.06873769
000220 a5 a3 5e 3d c1 8c b9 bc ba 48 c4 bc c5 53 6f bc
       0.054355282 -0.022650125 -0.02396046 -0.014607375
000230 a9 9f 05 bd d7 e1 21 bd 47 cc 33 3c da 68 13 bd
       -0.032622967 -0.03952202 0.0109739965 -0.035988666
000240 a0 35 73 3d e2 2c db bb 20 f7 2c bd 7f fa 71 bc
       0.059377313 -0.0066887 -0.042227864 -0.014769196
000250 92 8b 38 bd b8 31 79 3d e0 19 87 bd 80 3e 6c bd
       -0.04505498 0.06083843 -0.06596732 -0.057676792
000260 c4 47 f5 3c 22 d0 38 3d 49 5a 36 3d ea eb fb 3c
       0.029941447 0.045120366 0.044519696 0.030752141
000270 8a 2b 22 bd 09 66 03 3c e1 09 84 3d ef a5 84 bd
       -0.039592303 0.008019933 0.06447197 -0.06476962
000280 af 58 b4 bd 90 3a 7f bd 64 d4 3f bd c7 8b 9a bc
       -0.088059776 -0.06231171 -0.04683341 -0.01886548
000290 2c 9b 80 bd d1 36 01 3d 93 5f 2a 3d 8c e4 a3 bd
       -0.06279597 0.031546418 0.041595053 -0.08002576
0002a0 fa 82 0e bf e2 82 95 3b ce c6 25 3d 3a 09 6f 3d
       -0.55668604 0.0045627216 0.040472798 0.05835841
0002b0 f6 29 9b bd 2f 1a bf ba af 0d 50 3d cf 68 08 bd
       -0.07576363 -0.0014579947 0.0507943 -0.03330308
0002c0 4d 9d f3 be 92 24 bc bd f8 f3 8a 3d be 61 6e 3d
       -0.47580948 -0.09186663 0.067848146 0.058198683
0002d0 cf 11 c2 bd ae 1d 54 3d f6 5a 59 bd a3 e5 b6 bd
       -0.09476053 0.051786117 -0.053065263 -0.089305185
0002e0 97 6e b2 bd fa d8 7a 3c 53 83 38 bc ec 61 97 3d
       -0.087124996 0.01531052 -0.011261779 0.07391724
0002f0 56 d1 57 3d f4 ed 60 bd 84 67 43 bc 94 cc ef 3c
       0.052689873 -0.05491443 -0.0119265355 0.029272355
000300 3a 63 a9 bc fe 28 26 3d 83 fc 09 bd cf c2 ef 3c
       -0.020677198 0.040566437 -0.03368808 0.029267697
000310 fc ef 9f 3d 2e 06 b6 bd 42 2f 77 3d 5c 98 5f bd
       0.07809445 -0.088878974 0.060347803 -0.05458866
000320 5b bb a5 3d 5f 7a 00 bd 27 49 35 bd d0 53 19 3d
       0.08092376 -0.031366702 -0.044259217 0.037433445
000330 ab e2 9a 3d 9b d2 01 bc 13 70 09 3d 9c e6 10 3d
       0.07562765 -0.007923747 0.033554148 0.035376176
000340 e8 5c 2f 3d 39 16 d6 bd 5a 0a cc bd ff e1 8d 3d
       0.04281321 -0.104534574 -0.09962912 0.06927871
000350 2c 5f 86 bc ca 55 9b 3d b8 7b 90 3d f4 cf 59 3d
       -0.016402803 0.07584722 0.070548475 0.053176835
000360 e4 84 8f 3b 79 8f 33 3d 07 1f b9 bc 9f eb d1 bd
       0.0043798555 0.043837998 -0.022597803 -0.10250019
000370 4e d9 98 3d 58 0e cb 3c ae 5e 49 3b 3d d0 c5 bd
       0.074633226 0.024787113 0.00307266 -0.09658859
000380 0c 55 b1 bd fc 2b 95 3d 87 c6 3f 3d 4c e6 22 3d
       -0.086587995 0.0728378 0.04682019 0.03977041
000390 71 8c 83 bd 18 65 8f bd ae cd 11 bd a6 9f 19 bd
       -0.064232714 -0.07001704 -0.035596542 -0.03750577
0003a0 bb 31 84 3d 86 4c a2 3d 6d 05 6a bd e2 15 d2 bd
       0.06454798 0.07924752 -0.05713408 -0.1025808
0003b0 81 99 44 bd ae 0a d7 bd c1 ba 99 3c 6b e5 ab 3c
       -0.047997955 -0.10500084 0.018765809 0.020983418
0003c0 5c c2 61 bd 66 81 4f ba b2 61 b1 3d 00 47 8c 3d
       -0.055116996 -0.0007915705 0.08661212 0.0684948
0003d0 85 32 9f bc 68 7e 6e bb d5 c5 ab bd f6 87 8c bd
       -0.01943327 -0.0036391262 -0.08387343 -0.0686187
0003e0 ae cc c0 bd 95 ea d3 3c 4e 52 b4 bd 0f a0 13 3d
       -0.094140396 0.025868693 -0.08804761 0.036041316
0003f0 ec 4b d0 3a 4c 35 13 3d bd ae 6f 3d d0 07 d6 be
       0.0015891767 0.0359395 0.058516253 -0.41802835

fc3.bias f4 [2]
000000 62 cd a3 bd 10 f7 7e bd
       -0.07998158 -0.062247336

fc1.weight f4 [128, 84]
000000 a5 30 71 3d 59 f5 f2 bd 18 59 cc bd a5 0b a8 bd
       0.05888428 -0.118632026 -0.09977931 -0.08205346
000010 66 50 9d bd ba 1e e6 3d a6 db 53 3d 4a 26 cf 3d
       -0.076813504 0.112363294 0.051723145 0.10114725
000020 7e ec 86 bd a2 48 b9 bc f0 8f 3c 3d e0 33 be 3b
       -0.06588076 -0.022617642 0.046035707 0.005804524
000030 4a f5 40 3c 34 f6 fb 3c b3 52 94 bc e0 52 a3 bd
       0.0117772315 0.030757047 -0.01810584 -0.079747915
000040 8b b2 85 bc 24 4b b2 3d 13 f7 3e 3d 7b 1b 75 bd
       -0.016320487 0.08705738 0.046622347 -0.05984066
000050 ee 3d 4b 3d 77 1c ce bc ad c1 0f bd a0 02 80 bd
       0.049619608 -0.025160057 -0.035096813 -0.06250501
000060 21 dc 2d 3d a4 73 a1 bc a6 1d 09 bc 6c 13 85 3d
       0.04244626 -0.019708462 -0.008368885 0.06497845
000070 95 ef 16 bd bc 6c db bd 06 61 8e bc 16 5a aa 3d
       -0.036849577 -0.10714099 -0.017380249 0.08317964
000080 3e 14 80 3d 78 66 e1 bd af 75 6d bd 17 25 0e bd
       0.06253861 -0.110058725 -0.05797356 -0.03470334
000090 15 37 56 bc bd bf 16 bd 37 d2 8a 3d d3 bb 5c 3d
       -0.013074656 -0.03680395 0.067783765 0.05389006
0000a0 55 d8 0b 3d 82 0e 93 bd 44 58 8e bd 70 11 2a 3d
       0.034141857 -0.071805015 -0.06950429 0.041520536
0000b0 dd b8 2c 3d fe 0e 6c bd e8 5a c2 bd f6 fe b5 bc
       0.042168487 -0.057631485 -0.09489995 -0.022216301
0000c0 ba 5c 78 bd ec 33 b5 bd 09 e1 6a bd aa e0 d4 b9
       -0.060635306 -0.08847794 -0.057343516 -0.0004060318
0000d0 ab 3b a1 bd c0 bf 6d bd 84 71 d5 bd 4e 42 b3 3d
       -0.07872709 -0.058044195 -0.10422042 0.08752881
0000e0 f4 46 0c 3d c8 f0 ed bd ed 95 19 be 6b 76 f1 3c
       0.034247354 -0.11618191 -0.14998598 0.029475411
0000f0 d9 4e b5 3d 77 50 14 3d 44 c1 e5 3c 77 3f ad bc
       0.088529296 0.03620955 0.028046258 -0.021148426
000100 ff d2 eb 3d 20 ea 4b bd 57 ac b4 bd 50 90 13 3c
       0.11514854 -0.049783826 -0.08821934 0.009006575
000110 7d f8 4e bd a5 b0 f1 bd ef fe 95 bd b4 4c ae 3d
       -0.050529946 -0.118012704 -0.07324015 0.08510724
000120 07 ae dd 3c 72 71 46 bd d9 67 20 3d b3 4a a0 bd
       0.027060522 -0.048448034 0.039161537 -0.07826748
000130 d4 49 66 bc 6f 71 82 bb 44 93 8e 3d 3d 39 bd 3b
       -0.014055688 -0.0039808075 0.069616824 0.0057746456
000140 16 43 8b bb 83 59 79 3d 2f 4d c0 3d 39 f2 46 3d
       -0.0042499406 0.06087638 0.093897216 0.048570845
000150 1a ad 3e 3e f6 f8 e0 bc 0c 87 01 be 0c 1f fc 3d
       0.1862072 -0.027462464 -0.12649173 0.12310609
000160 39 3d 78 3d d7 e5 ca bd dc 2c 44 3d bb 65 11 3e
       0.06060526 -0.0990712 0.047894344 0.14198963
000170 56 89 2a 3d b9 59 bd bd a1 29 9d 3e 76 ff 05 3e
       0.04163488 -0.09245629 0.30695823 0.13085732
000180 10 df 54 be 6b 91 ce bd 8e c7 84 be 9a b3 1f 3d
       -0.20788217 -0.1008633 -0.25933498 0.03898964
000190 b8 09 84 3e f0 ad ec bb af 4e a6 3e 76 74 93 be
       0.25788665 -0.0072228834 0.32481906 -0.2879979
0001a0 7f 31 68 3d b1 ca 33 3e 16 e5 f0 bd d0 66 b1 3e
       0.05668783 0.1755779 -0.11762445 0.34648752
0001b0 be a3 8e be cd 8e 90 3e 0b 75 68 bd 39 3c 56 3e
       -0.278593 0.28233948 -0.056752246 0.2092141
0001c0 9d fd ce 3d bb fc 80 be e7 17 cc 3e d9 31 99 bd
       0.10106967 -0.25192818 0.39861986 -0.07480211
0001d0 e4 45 e4 3d c5 5b 27 3e 26 fd 9d be f1 c6 0c 3f
       0.11146143 0.16343601 -0.308572 0.5499106
0001e0 c9 57 a5 3e 36 9a 26 3e 39 c7 91 3e b7 01 af bc
       0.32293537 0.16269764 0.28472307 -0.021363122
0001f0 42 25 34 3e 55 b4 5a be 55 d2 b4 be 17 6f 93 be
       0.17592338 -0.21357854 -0.3531672 -0.28795692
000200 cb e7 ba 3d 37 5a 88 3d 1f f2 c2 bc 80 16 16 3b
       0.09126242 0.06657832 -0.023797093 0.0022901595
000210 b9 8b c0 bd f1 41 a2 3d e7 7c 2e 3d da f5 8c 3e
       -0.0940165 0.079227336 0.042599585 0.2753132
000220 34 be 52 3d 96 ac d2 3d 85 0e 16 bd 02 73 5d be
       0.051450923 0.102868244 -0.03663494 -0.21625903
000230 3e 6c 81 3e 05 14 56 be c2 ff bf 3e f3 1a d1 3c
       0.25277895 -0.20906074 0.37499815 0.025525546
000240 1a 15 0f be 20 02 80 be 35 c8 8b be 05 96 79 be
       -0.13972893 -0.2500162 -0.27301183 -0.24373634
000250 6c ef 4e be 3c 49 74 be 56 09 af 3e 83 fc 63 3e
       -0.2020852 -0.23856062 0.3418681 0.22264294
000260 b6 ae c1 3e a2 29 10 3e d9 42 a8 be ec d6 17 3e
       0.37828606 0.14078382 -0.328635 0.1482808
000270 c7 03 2d be 6b 23 81 3e 11 dc eb bd fb f9 b2 3e
       -0.16895972 0.25222334 -0.11516584 0.34956345
000280 72 68 53 be b2 7e cb bd 7b d4 5e 3e 7c 54 a0 3e
       -0.20645311 -0.099362746 0.21760742 0.31314456
000290 f3 50 22 bc da b4 65 be 33 07 5f 3e 67 20 2a 3e
       -0.009906995 -0.2243227 0.2178009 0.16613923
0002a0 b5 23 48 be 14 fe 70 bf 34 7c d7 bd e9 65 6e be
       -0.19544871 -0.9413769 -0.10521737 -0.23281063
0002b0 6a 29 7f bd 24 ef 32 3f a5 22 0e bd 6f c0 4c 3e
       -0.062295355 0.6989615 -0.03470101 0.19995283
0002c0 30 5f 70 be d2 c1 95 3d 61 96 c2 bb 9c 45 4e 3e
       -0.23473811 0.07312359 -0.0059383367 0.20143741
0002d0 ae 43 85 3e 61 fc aa bd 19 35 82 3e aa 7f b0 3d
       0.26028198 -0.08348919 0.25431135 0.086181
0002e0 00 0f 6a bd de 24 0a bd e4 21 ed bc cd 89 44 3e
       -0.05714321 -0.033726566 -0.028946824 0.19193192
0002f0 a8 65 f7 3d c2 b0 44 3d 46 1e e0 bd 5e ef 6e 3d
       0.12079936 0.048020132 -0.10943274 0.058333747
000300 88 1d 9c 3e 22 82 ba bd e6 cf a6 3d a0 20 ee be
       0.3049128 -0.09106852 0.08145122 -0.46509266
000310 ba 46 0d 3e ff 2a 0d 3e d5 cd b1 3e b0 76 8b 3d
       0.13796511 0.13785933 0.3472735 0.06809747
000320 a9 77 17 be 0a 00 59 3e 33 4f cd 3d f3 fe 39 bf
       -0.1479174 0.21191421 0.10024872 -0.72654647
000330 34 e9 96 be 4b 87 75 be 71 29 6b be ef 37 5e 3d
       -0.29474795 -0.23977391 -0.22965027 0.05425256
000340 c3 f6 b4 3e ef 29 a7 bd 62 ee 5e 3e 02 1d 95 3d
       0.35344514 -0.08162295 0.21770623 0.072809234
000350 b6 04 5c 3d a9 2f e9 be 44 8e 2e be f1 8d 17 be
       0.05371543 -0.45544174 -0.17046458 -0.1480024
000360 e8 5c c6 be 96 11 8e bc b6 81 80 be e7 bf 80 be
       -0.38742757 -0.01734237 -0.25098962 -0.2514641
000370 da 42 79 3e 68 aa f0 bb f4 37 89 bd cd b9 df bd
       0.24341908 -0.0073445328 -0.06700125 -0.109241106
000380 5e 77 86 3e 9b 6c 4d be b0 86 ed bb 89 64 92 bd
       0.26262945 -0.20060961 -0.007248722 -0.07148082
000390 f0 54 de bc ca 89 bf bd 27 5b 2e bd 5d 81 36 bd
       -0.02714011 -0.09352453 -0.0425674 -0.044556964
0003a0 c0 84 a7 bd 16 74 55 be 7e 58 a6 3d ce 50 13 3d
       -0.08179617 -0.20845065 0.08122347 0.035965733
0003b0 fa d0 9a 3d 2b b2 33 3e 50 4e ea bd 55 09 a6 3d
       0.0755939 0.17548434 -0.11440718 0.08107249
0003c0 9e b0 3e be d7 db 0a 3d 6a 09 9d bd f7 92 53 3e
       -0.18622062 0.033901062 -0.07667811 0.20661531
0003d0 2c 26 5f be cf 78 b2 be d2 3e 44 3e f1 11 32 3e
       -0.21791905 -0.34857795 0.19164589 0.17389657
0003e0 de 35 fe bc 80 d7 61 bd f6 04 67 be 0d e6 12 3e
       -0.031031545 -0.055137157 -0.22560486 0.1434557
0003f0 2a 00 81 bd 46 5a 94 bd 26 e9 6b 3d b4 38 56 3d
       -0.062988594 -0.07243781 0.057595395 0.05230017

fc1.bias f4 [128]
000000 f9 71 b8 3d 13 15 97 3e d1 76 23 3e 4a e8 2a 3d
       0.090061136 0.29508266 0.15963294 0.041725434
000010 e2 06 a3 bd 53 5b 12 be 02 69 8e bd 5a 67 83 3c
       -0.07960297 -0.1429265 -0.069536224 0.016040493
000020 7e a1 6a bd b1 36 8c 3d 57 4a bf bd c6 85 0c be
       -0.057282917 0.06846369 -0.09340351 -0.13722906
000030 9d 5a c9 bd 31 67 5e bd cb f5 91 3c 1c 13 8e bd
       -0.09831736 -0.05429763 0.017817399 -0.069372386
000040 6e 16 b0 bd 78 e0 78 3b 00 12 83 3d cd 73 b1 bd
       -0.08598028 0.003797559 0.063999176 -0.08664665
000050 0b da 0f bd f8 06 fc bc a4 4f ae bd e4 73 e9 3c
       -0.03512005 -0.030765042 -0.08511284 0.028497644
000060 67 8e ae 3e 0d ed fa 3c 74 b0 33 3d cb 9a 0a 3d
       0.3409302 0.030630613 0.04386945 0.03383903
000070 42 e9 9f 3a d6 93 16 be bf a0 5b bc 53 c7 ec bc
       0.0012200254 -0.14704832 -0.013405024 -0.028903639
000080 fa 18 8d bd a5 f1 ef bd c6 11 b3 bc bf 28 0a 3d
       -0.068895295 -0.11716012 -0.021859061 0.033730265
000090 7d 2f ae bd b6 29 eb 3d 80 c3 ef bc 58 89 2e 3d
       -0.085051514 0.11482565 -0.029268026 0.04261145
0000a0 a0 4d 55 bd 41 f3 14 3d 2b 96 9a bc 91 f5 8f 3c
       -0.052075982 0.036364798 -0.018870434 0.01757315
0000b0 6e 81 95 3d 57 dc a7 bc fe 30 99 3d 1c ba 0f 3d
       0.073000774 -0.020490808 0.07480048 0.035089597
0000c0 dc e9 11 be 77 e2 77 bc d2 a8 89 3d 3f 2e 9e 3d
       -0.14249367 -0.015129677 0.06721653 0.077236645
0000d0 8e 6c a5 3a c3 2f 43 3d 68 c2 94 3d e9 12 12 bd
       0.0012620853 0.04765297 0.072636425 -0.035662565
0000e0 f4 ee 29 be 85 2d 96 3b 3f 45 18 bd 20 d6 10 be
       -0.1659506 0.004583063 -0.037175413 -0.14144182
0000f0 8f f0 f3 3c 96 60 88 3e 55 32 cb 3d bb 85 f7 bd
       0.029777793 0.2663619 0.099217094 -0.12086054
000100 ad 92 d8 bd 8c 14 30 3d d6 54 a0 3d 42 e0 dd bd
       -0.10574851 0.042988345 0.07828681 -0.108337894
000110 2d f2 96 bc e5 e3 02 3d 20 b0 ee bd ca fa 9e bd
       -0.018426025 0.03195562 -0.11654687 -0.07762678
000120 8e e0 15 be 0d cc d7 3d 42 af ae bd 6a 8e c5 bd
       -0.14636442 0.105369665 -0.085295215 -0.09646304
000130 dc 47 c2 3d 34 4f f5 3c 2c 3b 5b 3c 2f da ae bc
       0.09486362 0.029944994 0.013380807 -0.021344272
000140 fe c8 ca bd 3c 4c 4d 3e 36 17 1a be 52 d6 dc bc
       -0.099016175 0.20048612 -0.15047917 -0.026957665
000150 bd 50 97 bd b0 09 26 3c 79 3a e7 bb e0 a3 8c 3e
       -0.073884465 0.010134146 -0.007056531 0.27468777
000160 33 d9 8b bd 49 14 80 3d 47 a9 83 bc c8 39 89 3c
       -0.06828537 0.06253869 -0.016071929 0.016751185
000170 eb ee 4f 38 36 e9 10 3e d9 db b8 3c a1 15 30 3c
       4.9575156e-05 0.14151463 0.022565769 0.010747344
000180 fb b5 6c be 8a b3 92 3d cc 61 a0 3d 53 53 14 bd
       -0.23116295 0.071631506 0.07831153 -0.036212277
000190 3d 26 3e 3d b3 58 c5 3c 66 e9 05 be 7e 42 28 bd
       0.046423186 0.024090147 -0.13077316 -0.041079037
0001a0 7e 26 65 ba d6 71 06 3b e9 ad a1 bc 55 8d 5d bd
       -0.00087413925 0.002051463 -0.019736247 -0.054089863
0001b0 38 bc 39 bd 58 d4 56 be c6 20 76 bd 63 a7 01 3c
       -0.045345515 -0.2097944 -0.06008985 0.007913443
0001c0 e3 1d 34 bd 56 a8 f2 3c 6c 45 51 3c 62 89 01 be
       -0.043973815 0.029621284 0.012772899 -0.12650064
0001d0 a3 2d 07 3f 77 f2 1d bc 6f f5 c0 3d 25 0f 7d 3d
       0.5280401 -0.009640328 0.09421813 0.06178202
0001e0 82 fd 2b 3c 51 a3 27 3d a7 11 a7 bb f1 d0 8c bd
       0.010497453 0.040927235 -0.00509854 -0.0687579
0001f0 cf 46 0a be 72 34 7b 3d f7 9a 1d bd 51 10 8f bd
       -0.13503574 0.061329313 -0.038477864 -0.06985534

fc2.weight f4 [128, 128]
000000 4e 3d bc 39 28 7f 07 bd ca 59 23 be e5 70 9f 3d
       0.0003590383 -0.03308025 -0.1595222 0.07785205
000010 bc b4 2e 3d f5 4d 04 be 5b 09 ef 3c b7 e9 be bd
       0.04265283 -0.12920363 0.029179266 -0.09321921
000020 61 a8 9f bd 3e 97 9e b9 56 55 a9 3d a6 36 62 bd
       -0.077957876 -0.00030248793 0.0826823 -0.055227898
000030 d7 0a 3f be 9d d3 11 3c 8c 40 ef bc 6d 37 3a be
       -0.18656479 0.00890055 -0.029205583 -0.18185206
000040 8b 5a 9d bd 57 d0 81 bc 3a 7a ab 3d 81 51 4e bd
       -0.07683285 -0.015846414 0.08372922 -0.050370697
000050 92 27 88 3d 4e 19 e7 bc 43 13 87 bd 2a 44 3a 3d
       0.066481724 -0.028210308 -0.06595471 0.045475163
000060 ab 94 e7 3b a1 7f ba bc 94 d3 bc bd 04 2c 7d bd
       0.007067283 -0.022765936 -0.09220043 -0.061809555
000070 6e ab fe bd 02 f4 ed bd 62 49 db bb e0 a4 9c bd
       -0.12435041 -0.116188064 -0.0066920975 -0.07648635
000080 6a 4a 2d be 75 e3 3d 3d d5 cd 96 3d 7c 31 e7 3c
       -0.16922918 0.046359498 0.07363478 0.028221838
000090 a2 fe 7d 3d b7 04 da bc 30 31 b3 bd 98 d2 43 3c
       0.062010415 -0.026613576 -0.08749616 0.011952065
0000a0 ae 31 a6 3d 5e 22 9d bd f6 51 c5 3c 3e c1 f1 bd
       0.081149444 -0.07672571 0.024086934 -0.11804436
0000b0 1d a1 c9 3c 48 12 3e bd 37 96 7d bd 88 d0 6f bd
       0.024612958 -0.046404153 -0.061910834 -0.05854848
0000c0 e7 56 9f bd a0 37 6c 3d 5c 09 a4 3d 7f 2f ff 3c
       -0.07780247 0.057670236 0.08009598 0.031150578
0000d0 e6 2c b5 bc 15 db 96 3d 34 3c cf bd a0 23 77 bc
       -0.022116136 0.07366005 -0.10118905 -0.015084177
0000e0 f2 e8 06 be ff 60 0b bd 67 79 b4 bd 9e c9 b0 3c
       -0.13174799 -0.03402805 -0.08812218 0.021580514
0000f0 9a b4 06 3d 44 74 63 bd fe 2c a8 bc a3 de ff bc
       0.03288708 -0.0555308 -0.020529266 -0.031234091
000100 13 1a 7f 3d 15 eb 9c bd c7 78 a3 3d 35 aa 21 bc
       0.062280726 -0.07662026 0.07982021 -0.009867241
000110 a9 e2 a2 3c fe ab fc bc f3 d1 03 be f3 0c 16 3d
       0.01988347 -0.030843731 -0.12873058 0.036633443
000120 c0 ef 62 bd 95 00 1c 3d 87 3c 7c 3d da c4 9b bd
       -0.055404425 0.038086493 0.06158116 -0.07605906
000130 b9 20 5b bc c6 87 95 bd 45 4f a3 bc a5 61 db bc
       -0.013374501 -0.07301287 -0.01993526 -0.026779959
000140 52 36 95 bd 0a e7 06 3d ab a5 bc bc 8a 9b 32 3d
       -0.072857514 0.03293518 -0.023028215 0.043605365
000150 e9 da ed bc 0f be a4 bc f3 02 b2 3d 1a a1 45 bd
       -0.029035049 -0.020110158 0.08691969 -0.04824934
000160 13 ac 08 bd b6 61 7d 3d fe cd 86 3a 9c 77 ae bd
       -0.033367228 0.061860763 0.0010284779 -0.085189074
000170 ad 05 27 3d c8 68 9b bd 29 50 6f 3d d7 65 32 bd
       0.040776897 -0.07588345 0.058426056 -0.043554153
000180 03 36 c3 bc ea ab a7 3c b0 24 79 bd e0 44 f4 3c
       -0.023829466 0.020467717 -0.060826004 0.029817998
000190 85 e2 41 bd c3 0a 86 bc ca 2f 8c 3c ee c0 b9 3b
       -0.047335166 -0.016362553 0.017112631 0.005668751
0001a0 db 2f 88 bd ff c3 96 bd 41 d8 33 3d da 97 76 3d
       -0.06649753 -0.07361602 0.043907408 0.06020341
0001b0 82 2c 8e bc 5d 5e 42 be 1b 1a 0d 3d 59 58 6a bd
       -0.017355207 -0.18981309 0.034448724 -0.05721316
0001c0 b7 a2 40 3d c0 fe 9a bd b8 83 a7 bd c7 52 52 3d
       0.047030177 -0.07568121 -0.0817942 0.051348474
0001d0 6f 2b ae bc 77 d2 a2 bc 5b b1 b2 3d 34 d0 ac b8
       -0.021260945 -0.019875748 0.08725234 -8.24038e-05
0001e0 e8 74 73 bd bb c6 e1 3b 3d 5a a0 bd 99 c1 8d 3d
       -0.059437662 0.0068901456 -0.078297116 0.069216914
0001f0 e4 da a7 bc 2b e8 ed 3a ee 08 86 3c b5 d7 b2 bd
       -0.020490117 0.0018150856 0.01636168 -0.08732549
000200 16 a7 c4 bc 7f 85 38 bd 27 c8 72 bd 75 1d 4e bd
       -0.024005454 -0.045049187 -0.05927291 -0.05032106
000210 c9 3f 28 3d c0 8e 35 3c 79 26 7e 3d c4 49 f3 3c
       0.041076455 0.0110813975 0.06204841 0.02969826
000220 a2 9b 2f 3c b9 86 7d 3d 71 89 d3 3c b4 5c 13 bd
       0.010718258 0.06189606 0.025822373 -0.03597708
000230 28 34 bb bd 5c a1 a3 3d 86 bc 3e bc 2a da 5c bb
       -0.091408074 0.07989761 -0.011641627 -0.0033699372
000240 81 90 fa 3c 25 b1 9d bc e5 c9 b3 bd 52 67 f5 3c
       0.030586483 -0.019249508 -0.08778743 0.029956494
000250 70 53 df bc 7b 10 77 bd 4c 95 af 3c e4 d3 78 bd
       -0.027261466 -0.06031845 0.021433495 -0.06074895
000260 11 c3 44 bd c4 a2 b5 bc 4e 4a d7 3c 56 de fb bb
       -0.048037592 -0.02217234 0.026280548 -0.0076864166
000270 da 4a 39 3d 2f 43 ae bd 74 86 5c 3d ef 9f 27 bd
       0.0452374 -0.08508908 0.053839162 -0.04092401
000280 c3 ff e0 bb c2 ae aa 3c 68 fc 76 3d 03 3b c3 bb
       -0.0068664267 0.020835284 0.060299307 -0.0059579625
000290 48 08 8a 3d d9 32 c8 bd ec ce 32 3d 72 93 fa 3c
       0.06739861 -0.097753234 0.043654367 0.030587886
0002a0 61 46 ec 3c af a7 26 bd cc e7 f4 bc 3b 79 21 bd
       0.028842153 -0.04068726 -0.029895686 -0.039422255
0002b0 17 47 4b 3d 3a ca 58 bd 06 11 83 bd d6 ae 4c 3d
       0.049628343 -0.052927233 -0.06399731 0.049971424
0002c0 e7 56 ea bc c0 35 1b 3d 95 d5 c7 bc a1 19 3a bd
       -0.028605891 0.037893057 -0.024393836 -0.045434598
0002d0 0d 1a b8 bd 40 bf 59 bd cb 44 06 3c 8a b3 d2 bc
       -0.08989344 -0.053160906 0.008195112 -0.025720377
0002e0 54 a0 aa bd ee 5d 6f bd 32 44 a1 3d 35 9e 69 bd
       -0.083313614 -0.058439188 0.07874335 -0.057035644
0002f0 bf a7 3c 3d a4 0d 2b ba d6 99 ad bd 3a ee 6c 3d
       0.046058413 -0.0006525165 -0.084766075 0.057844378
000300 54 46 6d 3c 88 60 bb 3c 6f 6c 97 bd c1 08 9b 3c
       0.0144821 0.022873178 -0.07393729 0.018925073
000310 a2 01 31 bd 9d 03 13 bd ef 35 ed bd 41 75 a1 3d
       -0.043214448 -0.035892118 -0.11582553 0.078836925
000320 d2 b9 28 3d 6e 2f 5d bd 4b 24 5b 3d cc b9 8e 3b
       0.041192837 -0.05400031 0.05350141 0.004355645
000330 de 28 4f bd 34 f6 8a bd 6e 3f 48 3c bb b5 a3 3c
       -0.050576083 -0.06785241 0.012222154 0.019984117
000340 38 b2 a6 3d 5a 83 a4 bd 4a 0d e2 3c 9b 6e 43 bd
       0.08139461 -0.08032866 0.027594227 -0.047712903
000350 b4 7e 21 bd 82 f8 3f 3d ca df 8e bd 72 9b a0 bd
       -0.039427474 0.046867855 -0.06976278 -0.07842149
000360 cb bf 15 bc b2 87 5b 3c 96 1a 1b 3d 7d 9b 67 3d
       -0.009139965 0.0133990515 0.03786715 0.05654477
000370 93 77 66 bb 2f 46 91 bd dc ba 90 3d 91 4b 0f bc
       -0.0035166487 -0.070934646 0.070668906 -0.008746044
000380 d3 68 14 bd 47 de 50 bd c0 5a fd 3b af da 37 bd
       -0.03623278 -0.05099323 0.0077317655 -0.044886287
000390 5d a2 36 bd ad d8 74 bd b3 d8 71 3d d3 7e 73 3c
       -0.044588435 -0.05977695 0.05904455 0.01486178
0003a0 12 eb 6a bd 2a 2f 9c 3d af 6e 87 bc 4f f5 49 bd
       -0.057353087 0.07626183 -0.01653227 -0.04930621
0003b0 c8 24 2c bd 38 08 69 3c 14 6a a1 3d ab c1 19 bc
       -0.042027265 0.014223151 0.07881561 -0.009384553
0003c0 74 61 90 3d ae 3e f2 3a b3 0a 5e bc 25 18 84 3c
       0.07049838 0.0018481815 -0.013552356 0.016124794
0003d0 8f ed 05 be 14 a4 10 bd c0 8e 32 3d b7 5e 77 3c
       -0.13078903 -0.035312727 0.04359317 0.015098265
0003e0 56 97 41 3c d6 09 f8 3c f8 bd 08 3d aa c2 da 3b
       0.011815866 0.030278128 0.033384293 0.006676038
0003f0 66 62 4b 3c a5 14 dc 3c a3 56 21 bc 7f 8d 02 bc
       0.012413597 0.026865313 -0.009847316 -0.007968306

fc2.bias f4 [128]
000000 3d 27 ec bd 8b c8 9e bd 13 6d c5 bc d6 23 9e 3d
       -0.115309216 -0.07753094 -0.024099862 0.07721679
000010 39 23 c2 3e 53 14 40 3b bb 1a 6b be d7 fa 89 3e
       0.37917498 0.002930899 -0.22959416 0.26949188
000020 e3 61 1e bd b2 fd e8 bd 88 56 d5 be a5 99 37 3f
       -0.03866757 -0.113765135 -0.4166758 0.7171882
000030 5c 7b 2d be 44 3c 25 bf 5d 4b 17 3c e3 04 f3 bb
       -0.16941589 -0.64545083 0.009234277 -0.007416354
000040 c2 61 32 be 54 53 9e bc a3 df 09 bc 24 dc 17 bc
       -0.17420104 -0.019326843 -0.008415136 -0.009268794
000050 01 ed f7 ba 70 15 eb bb 21 a4 e6 3c 8a d1 ea be
       -0.0018915237 -0.0071741864 0.028154435 -0.4586299
000060 77 09 2d bd 88 b2 0e be 85 02 82 bd 37 b6 0d bd
       -0.042245355 -0.13935292 -0.06348137 -0.0345976
000070 e1 ac 23 3d 3f c5 0c bd 9b 81 c0 3e f0 7d b9 3e
       0.039959792 -0.034367796 0.3759888 0.36228895
000080 9c 62 f6 bd 37 80 28 be 13 80 28 bd fe d8 ba bc
       -0.12030527 -0.1645516 -0.041137766 -0.022808548
000090 87 db 95 bd e6 fd 40 be d8 26 c4 3c 35 ac f5 be
       -0.07317262 -0.18846855 0.023944303 -0.47982946
0000a0 76 16 d1 3e 34 4a df bd 10 d6 00 bd 73 04 31 bd
       0.4083745 -0.10902825 -0.031454146 -0.043217134
0000b0 0c d5 06 bd f4 b0 6b bd a6 18 c7 3e 28 13 fb bd
       -0.03291802 -0.057541803 0.38885993 -0.12259513
0000c0 29 87 c8 bd b7 aa be bd be 08 06 be 43 18 84 bc
       -0.09791405 -0.09309905 -0.13089272 -0.01612485
0000d0 92 21 8b bd b5 e2 84 3d 74 31 ae bd 7f 22 0e bd
       -0.067935124 0.064885534 -0.08505526 -0.034700867
0000e0 e7 1c 6c be bf b4 d3 bd 50 bf 28 bc 1b f3 02 be
       -0.230579 -0.10337209 -0.010299519 -0.1278805
0000f0 e8 32 31 3d c1 80 03 be f0 9b ba bc 28 70 69 3c
       0.04326144 -0.12842084 -0.022779435 0.014247932
000100 b1 cb 34 be 74 cc 27 be 56 f8 4d bd 89 8d c3 bd
       -0.17655827 -0.16386586 -0.05028566 -0.0954848
000110 f8 d7 c1 bd 28 2d 12 be 07 77 13 3f 4e 5e ef bd
       -0.09465021 -0.14275038 0.57603496 -0.11687909
000120 47 b0 05 bd 3e 2f 79 be 1c 30 08 bd 18 5d 31 3d
       -0.032638814 -0.24334428 -0.033249006 0.04330167
000130 9e ff 8b bc 4d 40 89 3e 78 07 65 be 35 7b 0b 3f
       -0.017089661 0.2680687 -0.2236613 0.54484874
000140 fa 61 d0 be 3d 84 10 bf fa ab 07 bd 71 8c 00 be
       -0.4069975 -0.5645178 -0.033122994 -0.12553574
000150 fa 28 d7 be 62 db 1a bf 4e a7 c0 bd 7c 54 3a bc
       -0.4202345 -0.60491 -0.09406911 -0.011372682
000160 4e 62 88 3c ed 1d ac 3b c8 2f 44 bd e6 f0 af bd
       0.016648438 0.005252591 -0.04789713 -0.085908696
000170 51 bd 8d be e6 aa 65 bd b0 d4 ef bd 45 1c b9 be
       -0.276835 -0.056071185 -0.11710489 -0.3615438
000180 24 40 b0 be d5 2f 41 3d 65 9b b7 bd 8e 53 a8 be
       -0.34423935 0.047164757 -0.08965186 -0.32876247
000190 9d 09 17 3d 6b d1 8a bd ce 50 2c bf 6e 5e 0f be
       0.036874402 -0.067782246 -0.673108 -0.14000866
0001a0 2d 02 2a be a0 9a cf bd 4e b6 c7 3c 0f e2 0a be
       -0.16602392 -0.10136914 0.024378922 -0.13562797
0001b0 a1 1d 71 be bc 04 48 be d0 f9 d7 bd 72 46 e5 3d
       -0.23546459 -0.19533056 -0.10545695 0.11195077
0001c0 0c e8 15 bd f3 d2 1d be 25 c7 86 bd 98 17 27 bd
       -0.03659825 -0.15412502 -0.065809526 -0.040793985
0001d0 6a 55 bc bc 44 ab ae be 52 24 f6 bd 27 80 81 3f
       -0.022989947 -0.3411504 -0.12018646 1.0117234
0001e0 8f ab be 3e 98 84 36 be 53 a1 21 bf ff 9a 0b be
       0.37240264 -0.17824018 -0.63136786 -0.13633345
0001f0 60 c1 0a be 01 85 b8 bd 27 75 d0 bd f4 57 16 3f
       -0.13550329 -0.090097435 -0.10178595 0.58727956
