saved_models/episode_300/agent_11.pth (torch, 738530 bytes, 44 tensors)

fc1.weight f4 [128, 5]
00000000: 0cf7 aebd 7244 cf3e 4d84 693e 6484 c6be
00000010: dd30 513e 204b e73e 0651 943e 5bb8 f5bd
00000020: 77dc be3e a3e6 92bb a437 a33e 7008 283e
00000030: 4fb1 e33e cae9 cdbc 5577 eabc 39c6 a8be
00000040: 27dd 673e bca3 24bd 3d97 953d d0dd 5bbe
00000050: 0d79 57bd 9a7f a43d 1dff 903e 0ff0 30bd
00000060: 05b8 ef3d 7f14 b33e 48e3 e2be effb 36be
00000070: b33d 8b3e f787 9fbe 01ff 693e 2c63 963e
00000080: 1c50 9dbd 455f 043e 6e19 d2bd b50c 1cbe
00000090: 0b15 9cbe 07d2 4c3e 0dc5 c8be 24dd 07bd
000000a0: bc40 21bb 0004 49bd 6112 ad3e 36ce 98bd
000000b0: 1651 11be 7a2c 913d c0e8 0abe 6181 a1bd
000000c0: 0957 833e 3ed3 6e3c 90f6 efbd be2e a73e
000000d0: 5f5a acbd 605e d93e 431c c8be fb58 efbd
000000e0: 072b dc3e 5087 4cbe 4823 4e3d 320c aabe
000000f0: e3ac a53d 008e 8dbe 3b53 a63e e281 173e
00000100: c5ac 0d3e bc96 cfbc 528d bebe 1c6b 9a3e
00000110: 5aee 813e 7a5d 07be cb13 49be 7306 853d
00000120: 747b 153e be5e ccbe 3d5b afbe f403 dd3e
00000130: 7935 733e c27d 543e b449 323e f406 063e
00000140: ebdd a1be 22ef e3be 6a90 c13e d7a1 0ebe
00000150: 44d8 bc3e b531 653e 37b4 14be 6190 a4be
00000160: 7e06 d9be 982a 0fbe be37 bb3e ffa5 c2be
00000170: 1dcb 54bc 566b 3b3e 0bf3 5bbe 1075 6ebe
00000180: f5e0 91be a963 033e 7e27 e73e f0a1 a3be
00000190: 2c02 0dbd ba71 b9bd b736 a23d 8487 3d3e
000001a0: cad9 b6bd dd0a 8abe cd33 153e 1064 df3e
000001b0: b855 82be 1c8d 473e 6e10 a8be 2c3f b2be
000001c0: 32ad 6bbe dc3b 4fbe 57b1 603d acca 653d
000001d0: e993 4dbe f269 1d3e 117c bbbe c10c e33e
000001e0: 6f77 09be d54f d73e 56a6 8dbe 2e4e cdbe
000001f0: e38c c03e be7d 793e 8bc6 013f b0e6 88be
00000200: 7d3e 90be 12fb 03be a8d4 5b3d b6d1 10be
00000210: 3b2c d13d 268f aebe 90fe 65be 8cae 4b3e
00000220: 9451 52be 54bc 87be 1b1d bebd 53e6 0fbc
00000230: cb3b 88be 9a6e c2be 4edb 2b3b 1760 b13e
00000240: e9ef 2cbe 5fff e4be 0436 a83c 29cc 513e
00000250: 8440 043d 4fea db3e 189b 1d3e a4d2 3bbd
00000260: 2b5a 613d 214b 4bbc af52 b93e d0cf 8c3e
00000270: 93d1 5f3e 9215 d63e 9e0d febd 660c 5fbe
00000280: 290e 9b3d 7b56 c23e d6d4 763e f3f3 87be
00000290: 3875 f13d 67b5 8c3d 22d4 25be 4816 963e
000002a0: e9ae c3be c3d1 933e 2e08 273e 34e9 1c3e
000002b0: b87b d4be 3354 1d3e 22b8 7f3d 1fe9 ac3e
000002c0: 6eaf 8cbe 93ba cbbd a2ee dbbe 3314 763e
000002d0: 550e 9b3e 8b51 1a3d 0da3 cbbe 7537 783e
000002e0: 64f9 283e dd0c af3e 3642 373d 2e8b 2dbe
000002f0: 2d2e 3b3e 7f4d 973e 3c30 79be 42af 53bd
00000300: 1a15 a8be 5f5c d73e 8073 1d3e 5478 b83e
00000310: adf4 b8be 2487 df3d 59e8 693e 95d3 1ebe
00000320: 0f41 d5bb 20f1 f03e e84e 153e 9918 bebe
00000330: c2f1 2fbe b50a 8dbe ba9d b4be dbc2 87be
00000340: 0f09 9e3e c6b2 9c3e 5a2d b6bd c236 013f
00000350: 9261 95bd 2fd1 8fbe 14cc 96be 0faf 863c
00000360: ed42 6fbe b3ef d73e d033 bb3d 655d 103e
00000370: 428d aebe 9303 aebc 3e0b 9a3e 6fff 77bc
00000380: 7745 cbbd 08b2 c83e 160a a0bc 9278 d13d
00000390: c393 2ebe 387d d63e a1ee 91bc 4bdb 5d3d
000003a0: 5fb0 8cbe f757 783e 63b1 1f3e 3e5b 3bbe
000003b0: 45ce 87be befc a03e 6744 c23c 660a bc3e
000003c0: 3da5 a0be 4add 1bbb 4e3b 253d a890 a2be
000003d0: 697b 4abc 6cf1 96be 5f7f 663e 8f7e fe3e
000003e0: c9a6 65be a60d cbbc 01be 7d3e 1f0f 123d
000003f0: c611 ad3e 1c05 f5bd be25 723e ac17 76be
-0.08543214 0.40481907 0.22804375 -0.3877288 0.20428796 0.45174503 0.28968066 -0.11998054
0.37277576 -0.0044830604 0.31878388 0.16409469 0.44471213 -0.025135893 -0.028621355 -0.32963732
0.22642957 -0.04019521 0.07304237 -0.21471334 -0.052605677 0.080321506 0.28319636 -0.043197688
0.11705021 0.34976575 -0.44314027 -0.17869543 0.2719551 -0.3115842 0.22851183 0.29372537
-0.07681295 0.12926967 -0.102587566 -0.15239222 -0.30484805 0.20001994 -0.39212838 -0.03316988
-0.0024605235 -0.04907608 0.33803084 -0.074612066 -0.14191088 0.07088561 -0.1356535 -0.07886005
0.2565234 0.014576731 -0.1171695 0.3265285 -0.084156744 0.42454815 -0.39084062 -0.116868936
0.43001577 -0.19973493 0.050326616 -0.3321243 0.08089616 -0.276474 0.32485375 0.1479564
0.13835438 -0.02534043 -0.37217194 0.30159843 0.2537716 -0.13219252 -0.19636457 0.06495371
0.14597875 -0.39916033 -0.34249297 0.43167078 0.23750867 0.20751098 0.17410928 0.1308859
-0.31614622 -0.4451838 0.37805492 -0.13928925 0.36883748 0.22382243 -0.14521872 -0.32141402
-0.42387766 -0.13981092 0.36565965 -0.3801727 -0.012987879 0.18302664 -0.21479432 -0.23286843
-0.2849194 0.12830986 0.45147318 -0.31959486 -0.0344259 -0.09054895 0.07920592 0.18508726
-0.08928259 -0.26961413 0.14570542 0.4363103 -0.25456023 0.19487423 -0.32825035 -0.3481382
-0.23015288 -0.20237678 0.054856624 0.056101486 -0.20075954 0.15372446 -0.36618093 0.44345668
-0.13424467 0.42053095 -0.27665967 -0.4009871 0.37607488 0.24364373 0.5069358 -0.267385
-0.28172675 -0.12888744 0.0536696 -0.14142498 0.102135144 -0.3409359 -0.22460389 0.19890803
-0.20538932 -0.2651087 -0.09282895 -0.008782941 -0.26608118 -0.37975007 0.0026223245 0.34643623
-0.16888393 -0.44726083 0.02053357 0.20488037 0.03228809 0.429522 0.15391195 -0.04585518
0.05501763 -0.012408049 0.36195895 0.27502298 0.2185729 0.41813332 -0.12404941 -0.21782073
0.0757106 0.37956604 0.24104628 -0.26553306 0.11789936 0.06870537 -0.16194203 0.29313874
-0.38219383 0.28870973 0.16311714 0.15323335 -0.4150064 0.1536415 0.062431462 0.33771607
-0.27477592 -0.099476956 -0.429555 0.24031143 0.30284372 0.03767542 -0.39772835 0.24239905
0.16501385 0.341895 0.044740878 -0.16947624 0.18279333 0.29551312 -0.24334806 -0.05168081
-0.328286 0.4206266 0.15376091 0.36029303 -0.36124173 0.10914448 0.2284254 -0.155104
-0.0065079997 0.47058964 0.14580882 -0.37128142 -0.17182067 -0.2754723 -0.35276586 -0.2651585
0.30866286 0.30605143 -0.08895369 0.5047418 -0.07294001 -0.28089282 -0.29452574 0.016440896
-0.23365374 0.42175063 0.09140742 0.14098127 -0.34092146 -0.021241939 0.30086702 -0.015136584
-0.09925359 0.39198327 -0.01953606 0.10228075 -0.17048554 0.4189241 -0.017813982 0.054164212
-0.2747831 0.24252306 0.15595011 -0.18296525 -0.2652456 0.31442827 0.023714257 0.36726683
-0.31376067 -0.0023783022 0.04033976 -0.3175099 -0.012358525 -0.29481065 0.22509526 0.49705932
-0.22426905 -0.024786782 0.24779512 0.03565895 0.33802623 -0.11963865 0.2364721 -0.24032468

fc1.bias f4 [128]
00000000: 1e00 4cbe 2651 c93e 0dd1 863e 4fe5 9b3e
00000010: 73ab 55be 455b ebbe 1e92 28be 1a04 b63d
00000020: 7787 5ebe a932 bbbe 5d9e 59be 8fb0 c63e
00000030: c39c d23e 74f3 32be bbb2 983e 5ed0 a9be
00000040: 6f69 7fbd 2208 2e3c 6b4d b13e a5f3 cdbd
00000050: a2d8 0dbe ce4e 8d3e f37e 36bd a505 d7be
00000060: 513f af3e 4c42 963e 4610 bfbe 70fa dfbe
00000070: 82ef 0c3e 3c5a 4c3e 2d4e 8cbe 7c59 01be
00000080: 91b1 bb3d 8804 bcbe a209 d1be ca7b 65be
00000090: 6505 753d c260 013c bdac 8fbd dc39 cdbc
000000a0: 0d5e f13c b9ea 39be 3599 d5be 464c 7a3d
000000b0: 218d 79be c358 933e 2f86 c73d d6d8 bebe
000000c0: a069 373d 2057 513c 4212 c2be a59a 603d
000000d0: 5d4c fa3d 61fa c4be 2d69 aabe 1c72 a9be
000000e0: e15d 8fbe 1eee c8bd 34c8 07bd 3b46 dcbe
000000f0: 4cef 473e 481c d33d 0626 bf3e b07e a73e
00000100: 48c4 433e bcb3 62be c864 d83e c8df 98be
00000110: 5014 223e 8d30 513e 6e29 1cbe 26f5 b6bd
00000120: bf15 ebbc 5ced 55bc 2aa4 aa3e b58b 803e
00000130: c7cc cc3c 2e0e c73e 1bcf 713e 57c8 193e
00000140: e73c 3cbe 8c36 e1be aa50 bbbe 32c2 cfbe
00000150: fed9 683d 3376 88be bf19 5cbe 0659 32be
00000160: 2f0c 983e e865 a6bd dda4 36bb 0f35 0ebe
00000170: 6057 d6be 1959 673d 7b96 ba3e 54c4 4dbe
00000180: d6c7 1c3e d995 67be b965 de3e c479 42be
00000190: 345f b8be 2213 93be e89c cdbe ec9f 27be
000001a0: 55f8 ad3d 9fe0 833e a8a6 64be 46aa b3bd
000001b0: d9d2 b0be 0221 d33e 62c0 d63e 9467 7f3e
000001c0: 58b6 4a3e 890d 91be 6ab4 70be 7658 2ebd
000001d0: 8dae c5be 2a56 9d3e 84df 1abe 76e9 873d
000001e0: 6f15 9b3e 049a dbbe 45c9 99be db3c b83e
000001f0: 6044 04be caa8 193d 8ecc e53e 2714 49bd
-0.1992192 0.39319724 0.26331368 0.30448386 -0.20866184 -0.4596807 -0.1646199 0.08887501
-0.21731363 -0.36562088 -0.21251817 0.3880658 0.41135225 -0.17475682 0.2982386 -0.33166784
-0.06235641 0.010622056 0.34629378 -0.10056237 -0.1385217 0.27599186 -0.044554662 -0.41996494
0.34227994 0.29347456 -0.37317103 -0.43745756 0.1376324 0.19956297 -0.27403393 -0.12631792
0.091647275 -0.36722207 -0.40827662 -0.22410503 0.059819598 0.007896604 -0.07015369 -0.025052004
0.029463792 -0.18155946 -0.4171845 0.061107896 -0.24370243 0.28778657 0.0974239 -0.37274808
0.044778466 0.01277712 -0.37904555 0.05483498 0.122215964 -0.38472274 -0.33283368 -0.3309487
-0.2800131 -0.09811042 -0.033149913 -0.43022332 0.19524878 0.103081286 0.37333697 0.32713842
0.19117844 -0.22138876 0.4226439 -0.29858232 0.15828061 0.20428677 -0.15250179 -0.08933477
-0.028696893 -0.013057079 0.33328372 0.25106588 0.02499999 0.38878006 0.2361416 0.1501783
-0.18382607 -0.43986928 -0.3658498 -0.40577847 0.05684852 -0.2665268 -0.21494196 -0.17416772
0.29696795 -0.08124906 -0.0027869262 -0.13887428 -0.41863537 0.056481455 0.36442932 -0.20094424
0.15310606 -0.22615756 0.43436983 -0.18991762 -0.36010134 -0.28725535 -0.40158772 -0.16369599
0.08494631 0.2575731 -0.223292 -0.087727115 -0.34535864 0.4123612 0.4194365 0.24941856
0.19796121 -0.2833064 -0.23506323 -0.04256483 -0.38609734 0.307298 -0.15124327 0.06636326
0.3028979 -0.42890942 -0.3003637 0.3598393 -0.12916708 0.037514485 0.44882625 -0.049091484

fc2.weight f4 [128, 128]
00000000: d16e 933c 63e5 993d c542 d4bc 6cb9 73bc
00000010: 9154 823b 8311 4abd d681 493d 699c 103d
00000020: ee62 563c 5a52 7d3c b017 a4bd 851d 9c3c
00000030: 4c3c a13c 1aa5 8cbc e69c 9ebb 6cd3 12bd
00000040: 6b9b 9c3d d92d 80bd d7bf 9d3d cb33 143d
00000050: 5253 fe3c 52ee c13a bdd0 a23c 1038 e3bc
00000060: 7cd6 ddbc 716a 24bd 6488 2b3c b47d 993d
00000070: 8f10 fbbb 828a 693d 88a2 79bd e770 31bd
00000080: 4d9d 50bd bac8 91bd ca9c 9abc 68fe 93bc
00000090: 51f0 b1bd 2ef4 25bd 0025 4c3d 6270 833c
000000a0: 6d31 9ebd 798f 0ebd e660 bdbc 5aeb 663d
000000b0: c5ea 903d d850 933d ce80 783b 0107 cebb
000000c0: f184 efbb c3d0 8fbd 8df4 633d 084a 0e3c
000000d0: 684a 23bd 06aa 48bd 0c03 55bd 791e b93b
000000e0: 2675 b33d e46a aebd fb39 70bd cd5f 42bd
000000f0: 0457 18bc a2b2 0b39 031c 9abd 44a0 0ebd
00000100: ca1b 3b3d 5b45 0c3b b635 83bd be29 aa3d
00000110: 4423 c23b 986d 80bd 6023 be3b 0493 17bb
00000120: d10d 663d 7658 3cbd b018 a63d 139a 78bd
00000130: b6c4 2a3d 70b7 2fbd 9f6f fbbc aa3d d0bb
00000140: 688d 403d f5c2 73bd f69e 3a3c 1256 acbc
00000150: dbe5 af3d 2846 b13c 71c0 48bd 3106 9e3d
00000160: 4d9f c5bc 402a dfbc 0d94 b1bd 46cd a6bd
00000170: 8989 823d a51a 183d 64ad 213c 0879 9ebd
00000180: efe6 fdbb 3b65 973c 2328 b4bd c28e 2fbd
00000190: 7294 cf3c de6d 8dbd 1a34 68bd 1e9a 5f3d
000001a0: 4a39 1b3d 7ccf 2c3d bf8d 383d 325e 2bbd
000001b0: 5730 acbd bbe3 f03c eb9e 033d e766 953d
000001c0: 0c7e 863c 962c e4bb 6ccb 053d db28 723d
000001d0: ebb7 d6bc 3eeb 44bd 1c3f 5f3d 8f24 9ebd
000001e0: 7361 acbc 0240 af3d 318f 6bbd 4209 443d
000001f0: 1bfb 793d eb77 9abd d005 acbb 28d8 93bb
00000200: 51f9 a1bd e835 a3bd 55b8 6abd 4b61 b33d
00000210: f0f1 53bc 9229 efbc 81db fe3b 56ec 9dbd
00000220: d09c 133d 8c77 0f3d ea16 4a3d b79f 79bb
00000230: 97f5 d6bc 870b dc3c 4191 5f3d 68cf 80bd
00000240: 31cd 99bd 2626 42bd 0ffc b13c f587 babc
00000250: 7c90 043d 8b5c f43c bca9 77bd 2f4f 2bbd
00000260: 478d 8cbd 73ca fd3c f76e a43d 61cb be3c
00000270: c068 9a3c d0c0 993c e36c 32bd 2b79 9d3d
00000280: 90ea 52bd 8465 6bbd 9773 933d 5979 a23c
00000290: 4eb3 463d f487 65bd d578 10bd 7269 8cbd
000002a0: 7fec fabb 6a3f e83c 45b5 1abd 3839 593c
000002b0: e6e6 81bc 6c55 1d3c bc5b 073d 6626 a4bd
000002c0: c2ae 13bd bc27 b13d e3da 993c 5a27 9a3d
000002d0: 8819 e63a 6960 a7bd ecfe 8fbd cb93 cd3c
000002e0: d9bb 46bc 76ba 3abd e358 803c bfca 92bb
000002f0: fb3e e7bc 6568 9d3d a778 983d 9836 85bd
00000300: cc18 b03d 9e87 3abd 69c3 38bd d62d 4bbd
00000310: cdc1 c03c 1cb0 cf3c 5f53 adbd 3053 b2bc
00000320: 7276 5abc 3181 22bd 519f ae3d ba46 a6bd
00000330: c9d4 63bd 3e33 5d3d 84f9 4f3c b03f 8dbd
00000340: 7a39 98bd 78a7 b43d 7623 8bbd 85ee 303d
00000350: ca7e 2d3b 593b 2bbd 003b 33bd 4a41 413d
00000360: ed2b 3a3d 4143 d4bc c16f d5bc de68 493d
00000370: 1f51 7cbd 3518 503d 24ea 48bd 4852 9dbc
00000380: 35ca 793d 1d8f 4abd a35e e03c 5bfe 513d
00000390: 76c7 26bc 6d95 8b3d 1ef8 503c 3f31 503c
000003a0: 9c08 973d ee05 44bd fc64 743d 86e6 ab3b
000003b0: 815d 0d3c 4335 68bd ca82 ba3c a2b5 6fbd
000003c0: 333a a1bc bc71 a9bd acfe 86bd 0b4c 12bd
000003d0: 36df 44bb 72b2 94bd b4da eabc 1ff5 86bd
000003e0: 881b f4bc c697 39bd 7fa0 47bd 792b 66bc
000003f0: 8e53 77bd db51 773d e32d 7e3d 8c95 a2bd
0.017997177 0.07514455 -0.025910744 -0.014875751 0.0039773663 -0.049333107 0.049196087 0.035305414
0.01308511 0.015461529 -0.080123305 0.019057045 0.019682072 -0.01716857 -0.004840481 -0.03584616
0.07646831 -0.06258745 0.07702606 0.036182206 0.03104559 0.0014795756 0.019874925 -0.027736694
-0.027079813 -0.040140573 0.01046953 0.07494679 -0.007661886 0.057016857 -0.060946018 -0.043320563
-0.050931264 -0.07118364 -0.018873591 -0.018065646 -0.08688415 -0.04051607 0.049839973 0.0160448
-0.07724271 -0.034804795 -0.023117494 0.056376792 0.07076029 0.07193154 0.003791857 -0.006287456
-0.007309549 -0.0702224 0.055653144 0.008684643 -0.03986588 -0.048990272 -0.05200486 0.0056493846
0.08762579 -0.085164815 -0.058649044 -0.047454644 -0.00929809 0.00013322619 -0.07524874 -0.03482081
0.0456808 0.0021403644 -0.06406729 0.08308743 0.005924614 -0.06270903 0.005802557 -0.00231284
0.05616552 -0.0459828 0.081101775 -0.06069381 0.041691504 -0.04289955 -0.030692874 -0.006355007
0.047009856 -0.059512097 0.011390438 -0.021037135 0.08588763 0.021639898 -0.04901165 0.07716025
-0.024123812 -0.027241826 -0.086708166 -0.081446216 0.06373889 0.037134785 0.009868 -0.07737929
-0.0077484767 0.018480888 -0.08796718 -0.042860754 0.025339339 -0.06905721 -0.056690313 0.054590337
0.037896432 0.04219006 0.045057055 -0.04183788 -0.084076576 0.029405465 0.032133978 0.07295018
0.016417526 -0.006963323 0.0326647 0.059120994 -0.026210746 -0.048075907 0.054503545 -0.07721817
-0.021042561 0.085571304 -0.057509605 0.04786039 0.06103049 -0.07542404 -0.0052497163 -0.004511852
-0.079088815 -0.07969266 -0.0573047 0.087587915 -0.0129361 -0.029194627 0.0077776317 -0.07711093
0.03603822 0.03502612 0.04933826 -0.0038089582 -0.026240153 0.026860965 0.054581884 -0.062895596
-0.0750984 -0.047399662 0.021726636 -0.022769907 0.032364354 0.029829284 -0.060464606 -0.041823562
-0.06862884 0.030980324 0.08028977 0.023290338 0.018848777 0.018768698 -0.043560874 0.076891266
-0.051493227 -0.05746986 0.071997814 0.019833254 0.048510842 -0.056037858 -0.035271484 -0.068560496
-0.007657587 0.02835055 -0.03777053 0.013258271 -0.015857171 0.009602886 0.03304647 -0.080151364
-0.036055334 0.08650157 0.018781131 0.07527037 0.0017555216 -0.08172686 -0.07031044 0.025094887
-0.012129747 -0.04558798 0.015667384 -0.0044797356 -0.028228274 0.07685927 0.074448876 -0.065045536
0.0859848 -0.04553949 -0.045108233 -0.04960426 0.023529911 0.02535253 -0.084631674 -0.021768183
-0.013333904 -0.039673988 0.08526481 -0.08118959 -0.05562285 0.054003946 0.0126937665 -0.06896913
-0.07432838 0.08821005 -0.06793873 0.04319622 0.0026473277 -0.041804645 -0.04375744 0.047181405
0.045452047 -0.025910975 -0.026054265 0.049172275 -0.0616008 0.050804336 -0.04905142 -0.019204274
0.060983855 -0.04945289 0.027388876 0.051267963 -0.010179391 0.0681561 0.012754468 0.012707054
0.07374689 -0.047857217 0.05966662 0.0052459864 0.00862825 -0.05669142 0.022767443 -0.058522828
-0.019681072 -0.08273646 -0.065915436 -0.03571705 -0.003004027 -0.07260598 -0.028668739 -0.06589722
-0.029798284 -0.045310758 -0.048737045 -0.014048451 -0.06038242 0.060380798 0.06205548 -0.0793868

fc2.bias f4 [128]
00000000: bea5 7e3d d2be 0b3d 07ae 223c 2436 b13d
00000010: 3dc4 753d 7e26 74bc 824b 7c3c 2cd2 4d3d
00000020: edd3 a2bd a73e 5fbb 4036 37bd 6631 323d
00000030: a77e 8b3d 8717 90bc ac18 81bc 0269 a6bd
00000040: 39f3 703c 3ec0 993d 4260 913d a537 303d
00000050: 5c7f 7ebd 501f d53c 8319 53bb a4b6 d9bc
00000060: f563 9bbc acc2 56bc d7bf 8fbd 8100 733d
00000070: 5029 ae3c 8609 8fbd 38dd f73c e349 583d
00000080: 5101 27bd 2ca3 cfbc bfbc 8e3c 8b8d 06bc
00000090: 37d3 38bd 853f a5bd 578e 003b 9383 babc
000000a0: a03b 0ebd e442 7c3c 3d7e 313c 81a9 523c
000000b0: 583a 47ba a1a9 7cbd 67a3 2fbd e069 68bd
000000c0: b815 36bd 2359 8cbd 6dd1 3ebc fe17 d9bb
000000d0: c244 b0bd b14f 8d3d c25f 74bd 1d0e e73a
000000e0: 7e88 5fbd 7f40 c9ba 75a3 713d 8bd5 15bd
000000f0: 9348 be3d b2fe 4d3c 89d2 8dbd 07b0 873d
00000100: 52df ac3d d835 023d f1fc 793c c8ae 1bbd
00000110: 2ac2 633c c188 a4bd 1a44 933d be8e e9bc
00000120: ab9c ef3c 8caf 9fbd 57d0 89bd 55d2 b6bd
00000130: ce4c 123d 18ce 07bd f63b 95bc e42a be3d
00000140: c964 3bbb 5fc0 853d 8708 d73c 8f0e 883d
00000150: b35a 4fbd 227a b13d 70a5 69bb b1fc d63c
00000160: c14c 9a3d 8472 17bd 5c35 113d a22d a63d
00000170: 2850 6d3d 360c 023d 903d ab3c 80d7 703b
00000180: c06b c33d 3f58 3fbd 7cc4 273d ab52 273d
00000190: 805b 79bd 75b0 91bd b712 60bb a83a 20bd
000001a0: f993 a73d fb0e 853d 8af4 f9b9 f5b5 073d
000001b0: 6859 5d3c fb3f 833c e4cc 803d 583f d4bc
000001c0: 1816 813d 51e1 933d ece2 de3b e989 8e3d
000001d0: e691 933d d6f3 22bd dd1f c53c 4757 aebd
000001e0: f8ba 5ebd 5121 fabc 9c2c 923d c00d 0f3d
000001f0: 8311 81bd 0417 1fbb 1b1b 05bd 6286 013d
0.062169783 0.034117527 0.009929187 0.08652905 0.0600016 -0.014901755 0.015398862 0.050249264
-0.07950578 -0.0034064443 -0.04472947 0.04350414 0.068112664 -0.017589344 -0.015758835 -0.081254974
0.014706426 0.075073704 0.07098438 0.043021817 -0.062133178 0.026015908 -0.003221125 -0.026576348
-0.018968562 -0.013107937 -0.070190124 0.059326652 0.021259934 -0.06984238 0.030256853 0.05280484
-0.04077274 -0.025346361 0.017423986 -0.008212457 -0.045123305 -0.08068756 0.001961609 -0.022767818
-0.03472483 0.015396807 0.01083332 0.012857796 -0.00075999415 -0.06168521 -0.042880442 -0.056741595
-0.044454306 -0.06852939 -0.011646611 -0.0066251745 -0.086068645 0.068999656 -0.059661634 0.0017628107
-0.05457353 -0.0015354304 0.058993775 -0.036580604 0.09291186 0.012572931 -0.06924922 0.066253714
0.084410325 0.03178963 0.01525806 -0.03800848 0.013901273 -0.08033896 0.07190724 -0.028510448
0.02924951 -0.07797155 -0.06729191 -0.089268364 0.035717778 -0.03315553 -0.018217068 0.092855245
-0.0028594008 0.065308325 0.026249183 0.06643402 -0.050623607 0.08665873 -0.0035651587 0.02624354
0.07534171 -0.036974445 0.035451278 0.081141725 0.05793777 0.031749927 0.020903379 0.0036749542
0.09542036 -0.046715017 0.040958866 0.040850323 -0.060878277 -0.07113735 -0.0034190842 -0.03911844
0.081825204 0.06496998 -0.00047675177 0.033132512 0.013510086 0.01602172 0.0628908 -0.02590911
0.06303042 0.0722071 0.0068019535 0.06959898 0.07205562 -0.03978332 0.024063045 -0.085127406
-0.054377526 -0.030533465 0.07137415 0.034925222 -0.06302168 -0.0024275193 -0.032496553 0.031622298

fc3.weight f4 [2, 128]
00000000: 1519 afbd 0c21 b43d 2430 50bd b524 afbd
00000010: 3ba0 e23c 94aa 89bd eb4d ebbc ed71 6f3d
00000020: 9d56 a8bd b0aa d53b 849e 15bc 9eb6 88bd
00000030: e832 a53b 332f 9e3d 5e67 77bd c9e8 5abd
00000040: 37e3 b7bc ef7c 80bc bb52 4ebd 3ccb 96bd
00000050: 851c 31bd 06de 3a3d 0f38 30bd 81eb 9bbd
00000060: 6ed8 ab3d 1f3b cbbc bd9d 643d 0fd9 703b
00000070: 9c76 a03d f6c3 693d 1e8e e1bc 9391 173d
00000080: 0832 61bd b178 b1bd 2428 7dbd 9efa 6e3d
00000090: 049a 2fbd cf16 4bbd 2be0 84bb 13ad c73d
000000a0: ae37 033c 7cb3 adbb c1d7 c73c 7b12 54bc
000000b0: aaa3 89bd 3e27 10bd 16cf 6d3b c70b b5bb
000000c0: 9efb 2b3d 058b 9dbd 7ae1 bd3d 4c7f 6abc
000000d0: 1c89 983d 886c 663d 30b1 a7bd 35f2 2dbb
000000e0: 7536 6a3c 2104 503d 6452 c8bc b651 a6bd
000000f0: 9974 15bc c822 cebc 7ac5 9c3d 69f9 a43b
00000100: 0ace b1bc 227e debc ed5f 5dbc 0ac3 9e3c
00000110: 1156 a03d f1c6 d63c dfa1 b8bd 6bf9 51bd
00000120: 4576 54bb 3ee8 b03d 76d1 e33a 55c9 9dbc
00000130: ba69 953c d3f1 243c 0280 133d 3e86 8cbc
00000140: 5872 b03c fb89 dc3d 004b 673b 51ef fdbc
00000150: 041d bd3d 7e5e ed3d ebd7 c7bc 7fe8 88bc
00000160: 1bfa 923d a003 fa3b 038b 8e3b 658b ca3c
00000170: 700f c43c 452e 57bb e1e9 793d 1b86 303d
00000180: bfd1 55bc c387 09bc b2d2 ce3d 13cf 6b3d
00000190: e589 643c 9d8f c7bc ff45 42bd 7a7e 19bd
000001a0: c4c5 643c 44ed 35bd a071 713d 1733 84bd
000001b0: ef45 7fbd 7154 603d 673b 9a3d 27a7 a13d
000001c0: dec0 80ba ca07 53bd d99d 073d 61b9 87bd
000001d0: 0b99 2abd 3e0f 5b3d 50f6 823c cd32 873c
000001e0: 7a2a fc3b 4406 5e3d 2a71 cd3b 5139 92bd
000001f0: 204a ba3d fe2f ab3d d5c9 463d 58a7 e43c
00000200: ae37 7d3d d187 933d ef67 90bd 4044 693d
00000210: 5484 48bd 0609 ab3c 8bf9 943d 9556 8e3c
00000220: 7534 e93c 5e14 3a3d e8f6 45bd 72e2 893d
00000230: dd7a bdbc 0383 f0bb 940b 993d 3440 113d
00000240: a6bc 5ebc c2e5 9fbd 763a 9dbd 6f23 973d
00000250: c541 e93c 889e 0cbd 5fc4 6abd 9971 37bd
00000260: 6ec4 a4bd 67f0 96bd aa7f 82bd 3d39 01bd
00000270: 7786 1d3d 5f86 853d a133 37bd 0c5d 8fbd
00000280: a5aa a93d 77be 043c 83f3 7ebd 9b39 1d3e
00000290: 8cd1 acbb eb05 7fbd 03bc 7f3c 1f09 d73d
000002a0: 7fdf 40bc 2cc4 b13d a79b dd3d abdd 133e
000002b0: b68b 113d 38b5 b03c 994b 4bbd 76af 9cbd
000002c0: 6b68 4e3c 9180 b93d 61d9 b23d f62a d0bc
000002d0: 74ae d73c 25cb 363e fb5a de3c 32d0 5cbc
000002e0: ebe9 5fbc 39e0 49bd d71b 953a c8a8 903d
000002f0: 9a7f 863d 8686 593d 3928 ab3d 3091 953c
00000300: 7d3c 223c 70b3 d53c 604e 8abc b5b2 6e3c
00000310: 3ef7 8dbd acf5 a7bd 6450 08bd 6401 4fbd
00000320: e874 01bd 6270 3ebd 124d a43d 77fe 03bd
00000330: 08d6 a33d 088b bc3c b4a7 40bd f39d 8b3d
00000340: 3d98 78bd db9b c23d 2592 103c dcf1 c13c
00000350: fc8a c93c 568d ce3d bacf a13b 11b8 8f39
00000360: 7e42 613c 6b27 b3bc 844e 8c3d c141 03bd
00000370: 4259 2d3d 3432 87bd dda4 1b3d 6595 66bd
00000380: 856d b43b a9c6 62bd 1dd1 e03a 7faa 063d
00000390: fdca d83d 60d4 71bd a10a e73c 4517 eb3c
000003a0: 9bf5 91bd a56b 9c3d 7025 5cbd b1ee a2bd
000003b0: 2afc 843d ce90 3abd 80da 943d f5f5 4dbd
000003c0: 1756 39bd 4541 be3d 65cb e13c f4ae 983d
000003d0: 35e2 d93c 783c b23d 6a35 32bd 4309 bdbc
000003e0: 195d 323d de27 b0bc 2534 5cbc 4e93 7abd
000003f0: e3df a73d 0c81 e63c a0b6 c73c 09fc 973d
-0.08549706 0.08795366 -0.05082716 -0.08551923 0.027664294 -0.06721988 -0.028723678 0.058458257
-0.08219645 0.0065205917 -0.009132031 -0.066754565 0.005041469 0.07723846 -0.060401313 -0.053444657
-0.022447212 -0.015684573 -0.050371867 -0.07362983 -0.04324009 0.045621894 -0.04302221 -0.07613278
0.0839089 -0.024808465 0.055814493 0.003675047 0.07835123 0.05707165 -0.027533587 0.037004065
-0.054979354 -0.08665598 -0.06180586 0.058344476 -0.04287149 -0.0495823 -0.004055043 0.09749808
0.008008881 -0.005300937 0.024394872 -0.012943859 -0.067206696 -0.035193674 0.0036286763 -0.0055250856
0.041988008 -0.076925315 0.09271522 -0.0143125765 0.074480265 0.056255847 -0.08188093 -0.0026542072
0.01429521 0.050785188 -0.02445335 -0.08121054 -0.009122037 -0.02516307 0.07654853 0.005034615
-0.021704692 -0.027159754 -0.01351164 0.019380111 0.07828916 0.02621791 -0.090152495 -0.051263254
-0.0032419127 0.08638047 0.001738115 -0.019261042 0.01823889 0.010067421 0.03601075 -0.017153855
0.021538898 0.10768505 0.0035292506 -0.030997904 0.0923405 0.115902886 -0.02439495 -0.016712425
0.0717661 0.0076298267 0.0043500676 0.024724672 0.023933142 -0.0032833975 0.06101406 0.043096643
-0.013050496 -0.0083941845 0.10098781 0.05757053 0.013948892 -0.024360472 -0.047430035 -0.037474133
0.013963167 -0.044415727 0.058946252 -0.06455057 -0.062322553 0.05476803 0.07530861 0.0789321
-0.0009823104 -0.0515211 0.03310952 -0.06627155 -0.04164986 0.053481333 0.015986592 0.016503716
0.0076954933 0.054205194 0.0062695937 -0.071398385 0.090961695 0.08358763 0.048532326 0.027911827
0.06182068 0.07203639 -0.07051074 0.056949854 -0.048954323 0.020878326 0.07274159 0.01737527
0.028467396 0.04542958 -0.04833117 0.06732644 -0.023129875 -0.0073398366 0.074729115 0.03546162
-0.013594782 -0.07807495 -0.07677166 0.07379805 0.028473744 -0.034330875 -0.05731618 -0.04478607
-0.080452785 -0.07370072 -0.06372006 -0.031548727 0.038458314 0.0651977 -0.04472697 -0.07000169
0.08284501 0.008102051 -0.06224395 0.15354006 -0.0052740034 -0.062261503 0.01560879 0.104997866
-0.011772036 0.08679995 0.10820704 0.14440028 0.03553363 0.021570787 -0.049632642 -0.07650654
0.012598137 0.09057725 0.08732868 -0.02541111 0.026328303 0.17850931 0.027142992 -0.013477372
-0.01366661 -0.0492861 0.0011376095 0.070634425 0.06567307 0.053106807 0.08357281 0.018257707
0.009902117 0.026086539 -0.016883075 0.014568974 -0.06931923 -0.08201155 -0.03327979 -0.050538436
-0.03160563 -0.046493895 0.080225125 -0.0322251 0.079998076 0.023015514 -0.047034934 0.06817236
-0.06069206 0.09502383 0.008823906 0.023674898 0.024602406 0.100855514 0.004938093 0.00027412226
0.013748763 -0.021869382 0.06850913 -0.03204513 0.04232145 -0.06601372 0.037999023 -0.056294817
0.00550622 -0.05536524 0.0017152164 0.03287744 0.10585592 -0.059040427 0.02820331 0.02869762
-0.07126924 0.07637719 -0.05374664 -0.07955683 0.06493409 -0.045548253 0.07268238 -0.05028339
-0.045248117 0.09289793 0.027562806 0.07455245 0.026597122 0.0870294 -0.04350797 -0.023075705
0.043545816 -0.021503385 -0.013440167 -0.061175637 0.08197 0.028137706 0.024379075 0.07421119

fc3.bias f4 [2]
00000000: 648c 7f3d 5d0a 493d
0.062389746 0.04908215

fc1.weight f4 [128, 84]
00000000: b3e0 94bd b44e a1bc 84d8 8a39 7983 cfbc
00000010: fda7 91bd dd60 68be 0a5a c53d 87da 30be
00000020: a448 d13d 8d56 c83d 4e81 adbd 5243 153d
00000030: 1f4d 88be 2175 bdbd 3f7b 333e 2c32 d3bc
00000040: 433f 94bd b8e3 f3bd ecd8 88bd 61a9 483e
00000050: d84f b83d 1262 bebc 0caf 72bd a19f 24be
00000060: e427 0a3e 4cba 76bc f147 2cbd 9b99 db3d
00000070: 3779 f5bc b6a8 c63d e48b e5bd 16a7 36bd
00000080: 89e8 e0bd 7ba6 1e3e caf8 2d3d 3a24 313b
00000090: 6ef5 22be abca 8dbd 7a99 97bd 510c 9dbd
000000a0: 068f 2bbd a5f5 cb3e a940 04be 151d 003e
000000b0: 16ee 22bd be8a 183e 93c5 e33d d441 873e
000000c0: 29c2 f33d cba1 753d 7674 babe 8422 503e
000000d0: 4628 a8be e04f d53d f817 c63d e9bb 0e3e
000000e0: f121 c1bd 10a3 8dbd 473f 273b d92d b93d
000000f0: 1d43 e0bb c579 5ebd 2e38 94bd cdb1 603e
00000100: e538 513c 1d71 c9bd b882 4d3d 1a06 4bbe
00000110: 3cfe 7fbd 4e74 193d b058 ea3d 1cf9 6fbd
00000120: 0041 0b3e 7e5f 2bbc 49a5 a7bb d76c a93d
00000130: 635a bebd ceb8 663e 05dc babd 88a3 d9bc
00000140: cd71 873d fa35 c6bc bf48 abbd c0da 723d
00000150: df82 6dbd 3d66 9cbc 2633 bfbc cf47 66bd
00000160: e045 503d 521a cdbd 70b4 90bd fd85 91bd
00000170: 566d 8839 913d a9bd 98c0 54bd 0c64 9f3c
00000180: 85ed 293d 28be acbd d290 2cbd a7c4 70bd
00000190: a15b 973d c67d 49bd 663e d3bd a017 0fbd
000001a0: 9097 953d aff6 7cbd 7fb7 adbd 4190 26bd
000001b0: 4ab9 8d3c 517b 413c 8d0a 753c 4134 3abd
000001c0: 870f 42bd d916 b1bc e31e 9abc 5b28 21bd
000001d0: 82e5 8f3d 4ae8 84bc 0f69 a13d 66c4 933c
000001e0: e608 5cbd feca ac3d 4a04 b03d 5f48 0a3d
000001f0: 08e7 ca3c 8e8b d0bc 37f7 b4bd 5db0 503d
00000200: 1424 13bd 7794 2cbd 9cb7 ac3c fe9e 9fbc
00000210: 6e3b eebb d3f8 9cbc d14d b93c 9389 a13d
00000220: 89df 6cbc 6472 ddbb 6a89 adbd cf7e 04bd
00000230: 44bd ce3d ad1b 8f3d 361e 18bd 98fc 3ebb
00000240: 1b94 dd3c 1d5e 5c3d 552e 5d3d 65f5 e93b
00000250: 2636 ca3d 4999 b73d 24ec 51bc 3f8e b83c
00000260: dccb 503d 7b4e ddbd 678f 963d a4d5 be3b
00000270: 6b87 efbc 1da4 3bbd d1aa c93d f2a6 a3bd
00000280: 2d75 1fbd 15f4 85bd 78fd 603d b3fa 763d
00000290: bee0 6ebd 72db 67bd c5bd 8bb9 2bb8 01bd
000002a0: 48b1 debd f667 943d 178b debc b70a 06be
000002b0: 35a2 b23c 9f3a 883c 2f1c 1f3d e20c be3c
000002c0: 231f 643d fe08 a43d 0293 85bc 7f92 55bd
000002d0: 84ce 13bb e51a 71bd b7a0 43bd e6ed d83c
000002e0: 077c a7bd d954 57ba d77b b23c 31c8 123d
000002f0: 1a49 e3bd 6399 273d 04b5 01bd c8ad 673d
00000300: dc75 b7bd 1edd df3c 246c d73b 91ee e7bd
00000310: 56c4 41bc c7be f8bd 4533 5b3a de53 bfbc
00000320: c516 94bd c2c5 623c b3e6 3cbd 79d1 d7bc
00000330: f916 40bd ca04 ba3c 0a62 82bd f96c dc3d
00000340: 6566 96bd aad5 963d 6942 ac3d 6331 e6bd
00000350: 1750 733d 53b7 d3bb eaef 133d 87f8 643d
00000360: 4af7 7dbd 3d8e c43c 816c cdbd 2e08 a1bb
00000370: 8889 3cbc df9b a5bd ef50 773d d4b1 d93d
00000380: 99e2 96bd d470 e03c 10a0 04be 1893 db3d
00000390: b4ee 9e3c e0e5 39bd ea99 bfbc fb3f 4e3d
000003a0: 494a 9937 13c5 923d 8105 a43d 2e9c 04ba
000003b0: f08c a9bd fefa 303d bee9 b7bb 52e6 973c
000003c0: 1c4a 923d 418f a5bc 990d 763c 4283 cd3d
000003d0: 2f5e 673d 614b 533d 304f ddbd 07ae abbd
000003e0: 782c b1bd 3434 3c3d fdf8 eebc b1a1 a2bc
000003f0: 57df 89bd 00c6 6cbd 9d9e 6ebd c9da 03bd
-0.072694205 -0.019690849 0.00026482728 -0.025331246 -0.07112119 -0.226932 0.09636314 -0.17270862
0.10218933 0.09782133 -0.084719285 0.036441155 -0.2662134 -0.09250856 0.17527483 -0.02578076
-0.07238629 -0.11908668 -0.066819996 0.19595863 0.08999604 -0.023240123 -0.05924897 -0.16076519
0.1349178 -0.015059065 -0.042060796 0.10722657 -0.029965026 0.09700148 -0.11208323 -0.04459294
-0.109818526 0.15493195 0.042473592 0.002702965 -0.15913936 -0.069234215 -0.0740232 -0.07668365
-0.041884445 0.3983585 -0.12915291 0.12511094 -0.039777838 0.14896676 0.11121669 0.2641741
0.119022675 0.05996875 -0.36416978 0.20325667 -0.32843226 0.104156256 0.096725404 0.1393887
-0.09430302 -0.06915867 0.0025519894 0.09041948 -0.006843938 -0.054315347 -0.07237278 0.21942826
0.012769912 -0.09836028 0.05017349 -0.19826546 -0.062498316 0.037464432 0.11442697 -0.05858718
0.13599014 -0.010459779 -0.005116139 0.08272713 -0.09294584 0.22531435 -0.09123997 -0.026567236
0.06613503 -0.02419566 -0.083634846 0.059290648 -0.057986137 -0.01909172 -0.02333982 -0.056220826
0.050847888 -0.10014786 -0.07065666 -0.07105634 0.00026021403 -0.08263696 -0.051941484 0.019456886
0.041486282 -0.08434707 -0.0421303 -0.058781292 0.07390524 -0.049192213 -0.10314636 -0.03493464
0.07304299 -0.061758693 -0.08482265 -0.040664915 0.017300267 0.011809186 0.014956129 -0.04545999
-0.04737809 -0.02161734 -0.018813556 -0.039345127 0.07026197 -0.016224045 0.078813665 0.018037986
-0.053719424 0.08437155 0.08594568 0.033760425 0.024768367 -0.02545717 -0.08836215 0.050949443
-0.03592308 -0.042133775 0.021083646 -0.019484993 -0.007270268 -0.019161617 0.022620114 0.07887568
-0.014457592 -0.006758021 -0.08473475 -0.032347497 0.10094693 0.069877006 -0.037138186 -0.0029142257
0.027048161 0.05380069 0.053999264 0.007139849 0.09873609 0.08964784 -0.012812648 0.022528766
0.050975665 -0.108059846 0.073515706 0.005823808 -0.029239377 -0.045810807 0.09847034 -0.07990827
-0.038930107 -0.065406956 0.054929227 0.06029768 -0.0583198 -0.056605764 -0.00026653535 -0.031669777
-0.108736575 0.072463915 -0.027165933 -0.13090025 0.021805862 0.016629515 0.038845237 0.023199502
0.055693757 0.080095276 -0.01630545 -0.052141663 -0.0022553513 -0.05886354 -0.04776069 0.026480626
-0.08177953 -0.00082142424 0.021787567 0.03583545 -0.110979274 0.040917765 -0.03166677 0.056562215
-0.08958027 0.027327117 0.0065741707 -0.113248 -0.011826595 -0.12145763 0.0008361827 -0.02335542
-0.072309054 0.013841094 -0.04611845 -0.026345002 -0.04689691 0.022707362 -0.06366356 0.107629724
-0.07343749 0.07364972 0.08411104 -0.112398885 0.05940255 -0.006461063 0.03611747 0.055901077
-0.06200341 0.023993606 -0.10030461 -0.004914305 -0.011507399 -0.08086371 0.06037992 0.10629621
-0.07367439 0.02739755 -0.12951684 0.10721415 0.019400932 -0.04538524 -0.023388822 0.050353985
1.8273613e-05 0.07166495 0.08008862 -0.0005058673 -0.08278835 0.043208115 -0.005612581 0.018542442
0.071430415 -0.02020991 0.01501789 0.10034801 0.056486305 0.05158556 -0.108061194 -0.083828025
-0.0865106 0.045948222 -0.029171461 -0.019852491 -0.06732052 -0.057806015 -0.058256734 -0.03219107

fc1.bias f4 [128]
00000000: 8e13 55bc 62e8 89bd d995 d4bd 6d66 873c
00000010: 471e 5cbc b025 dbbb 6444 09bd 8599 603d
00000020: 9d91 bfbc f37d 993d df00 653c 88a0 c3bd
00000030: 6333 533d 7006 17bd f941 543d 006f 11bd
00000040: 68f5 7fbd b989 983d 93dc 74bc 6d00 f9bd
00000050: f821 2b3d a24b 803d f8d9 0abd c8dd 433d
00000060: 37c1 82bd 451c 15bd d6b7 1ebd c571 48bd
00000070: d263 5bbd b009 70bd b24a d23c fbd4 5bbd
00000080: 4075 e5bd 2892 253d c893 b73c 53f2 a1bd
00000090: 4a20 8a3d 96a4 5e3d c4f2 d13d 29be 4d3d
000000a0: b250 b5bd f5c5 bebd 8fc2 d0bd f3b0 10be
000000b0: b432 823d f2b1 0fbe a725 a53d a361 8fbc
000000c0: 9088 75bd 16c8 3b3d 7320 d23b 764b 95bc
000000d0: 02c4 e4bb b9cc 8abd 8d60 66bc 66ec 4c3d
000000e0: f6bc febd ede7 2b3d 80ed 0e3d 918f 5fbc
000000f0: f103 403d ab40 0cbe 92fb a6bd 39de 8cbc
00000100: bd2d aabd 736c 883d 5344 a4bc 96ad 3dbd
00000110: 0dae 843c d60b 4f3c 66f8 763d 64b6 9cbd
00000120: acd3 0e3b 917f 5a3a 7b78 1b3b 6899 f4bb
00000130: 6783 fcbd 7cc8 1ebd 557f 2abd e441 82bd
00000140: 5664 333d caa8 b8bd 7f80 eebd 67a1 f8bd
00000150: 8ec2 54bd 87d8 c4bd c75f 6c3d ddd7 93bd
00000160: f88f 2ebd 4c87 66bd 2e1b 06be 29fa 2cbd
00000170: 8e6e 12bd b0c6 c9bd bde5 45bd 1e29 99bd
00000180: 4ef2 aebc acf2 893d eec0 f3bd 18c6 623c
00000190: e856 90bd 06d4 a3bc e448 073d 846a e0bd
000001a0: 545e 9a3c c608 7abd da27 c5bd eeff 64bd
000001b0: 3dae 49bc 53ac a33c e1f3 833d d2ab 1c3d
000001c0: 69c9 b83c d004 013d dffa d5bc f748 7fbc
000001d0: 335b de3c 49e9 4d3d 08fa 5d3d 9f10 943d
000001e0: 6fe1 a33d c4fa ff3b 452d 1dbd 4ee4 89bd
000001f0: 6585 e4bd 825f 683d 9b9d 81bd 7d8d c2bd
-0.0130051505 -0.06733777 -0.10380144 0.016528333 -0.013434953 -0.0066878423 -0.033512488 0.054833908
-0.023384864 0.07494726 0.0139772585 -0.09552103 0.051562678 -0.036871374 0.05182073 -0.03550625
-0.062489897 0.074481435 -0.014945167 -0.12158284 0.041780442 0.06264426 -0.033899277 0.04781893
-0.06384509 -0.036403913 -0.03874954 -0.048936624 -0.053561993 -0.05860299 0.025670383 -0.05366991
-0.11204004 0.04042259 0.022409335 -0.07907548 0.0674444 0.05435618 0.10251382 0.05023018
-0.08853282 -0.09315101 -0.10193359 -0.14130001 0.06357327 -0.14032724 0.08063822 -0.017502612
-0.05994469 0.045845114 0.0064125597 -0.01822446 -0.0069813738 -0.06777329 -0.014061105 0.050030135
-0.12438385 0.04196923 0.034894466 -0.013645069 0.04687876 -0.13696544 -0.08153452 -0.017195808
-0.08309505 0.0666131 -0.02005211 -0.046308123 0.016196275 0.012637099 0.060295485 -0.07651976
0.0021793647 0.0008335049 0.0023722935 -0.0074645765 -0.123297505 -0.038765416 -0.04162534 -0.06360224
0.04379686 -0.09016569 -0.116456024 -0.1214016 -0.051943354 -0.09611612 0.057708528 -0.07218907
-0.042617768 -0.056281373 -0.13096306 -0.04223076 -0.035749964 -0.0985235 -0.0483148 -0.074785456
-0.021355774 0.06735739 -0.11902033 0.013841175 -0.07047826 -0.019998562 0.0330285 -0.10957816
0.018843807 -0.061043523 -0.09626742 -0.055908136 -0.012309608 0.019979632 0.064430006 0.038249798
0.022556977 0.03149873 -0.026120601 -0.015581361 0.027143097 0.050271306 0.054193527 0.07229733
0.080019824 0.007811876 -0.03837325 -0.06732999 -0.111582555 0.05673171 -0.06328889 -0.09499643

fc2.weight f4 [128, 128]
00000000: 71fb 7bbe 5d23 893c 6b49 d9bb 58fa 34bc
00000010: bc27 43bc ce47 9d3d 4e2d 16bf 3e3d dabd
00000020: f8d0 0dbe f2df 94bd 24db 45bd 902f 533d
00000030: fdef 103e 258f 183d 843c 1f3d 30ce b1bc
00000040: 828b e4bd f27d e9bc ea12 8f3d 652d 163d
00000050: 3849 b03d 1162 243d c815 383d 7ef8 863d
00000060: b692 823d c6d3 70be c66c a63b eeef 863d
00000070: 77a6 f0bd 15fe ea3b 1bed 60bd f0e0 2fbc
00000080: f840 fcbc 0ce6 d63d f79c d5bc 4591 653d
00000090: 0a34 263d eae9 babd 277a 3cbe 3582 b4bd
000000a0: 906c 443d a884 e63b e8af bf3c 71dd 10bd
000000b0: 7415 e1bc b618 8c3d dd3c 7ebe 3837 533c
000000c0: 2a75 873d d178 9d3d db88 333c 7689 4bbc
000000d0: ead4 803d 1975 883d 62c5 22bd d231 9cbd
000000e0: 8421 023c 938c 32bc 4437 e3bc a039 663d
000000f0: 40b4 8abd ab12 cdbd e2df 10bc 81bf 4c3d
00000100: 240a 113c 5eda 7ebe 5edc 96bd 5bb1 c8bd
00000110: fc09 983b 5354 f4bc f9a9 16bd a88e 643c
00000120: b328 423d 9fa0 8b3c 3f59 4cbe f8a5 a9bc
00000130: 1cae a3bd 2ab8 73bd 92ef 4b3d dca3 15bd
00000140: 2024 98bd a0c0 c7bd bba9 7c3d 293f ea3c
00000150: c272 b13d 10a9 3cbd 04b5 95bd 426c 84bd
00000160: 4547 81bc 9006 913d 8fa0 00bd 91de a13d
00000170: 1965 c93c 89bd 08bc 59f9 06be 7a3b 5e3c
00000180: 50cb 8cbd dea6 8dbc 7945 5ebd 50b7 80bd
00000190: b855 8bbc f344 d13c be66 81bd 6801 56bd
000001a0: 916b 7bbe 6d42 93bd 9978 133d 918c 9abd
000001b0: 3be9 463d 0d82 85bc 5263 76be dd08 71bd
000001c0: b936 b73c b170 fdbc 3582 313d 649b ec3c
000001d0: 6b83 a13d 9589 5a3a 2ce8 483d 010a 4bba
000001e0: 9bb1 cabc f59d 7d3d 490b 17bf 083d b53c
000001f0: e240 6fbd 25d2 a1bd 65f2 4abe 44f3 98bd
00000200: ff1e 3c3e 61ab 903d eb00 3cbc 46cd 873d
00000210: 62da 38bd 4145 aabd ed63 82bc c7aa 073e
00000220: d619 953d 6e53 bcbe e6f1 e4bc 9d63 11bd
00000230: 238c a4bc c30e 9bbb 025b 2abd 9298 3b3c
00000240: 69ca 3f3d 69c2 88bd 395c dd3c 3d8d 373b
00000250: e4ef 2cbd 38b2 753d eaaa 26bd 4563 9b3d
00000260: 6ae0 99bd 4a76 3cbe a922 d4bc ffbe 283d
00000270: 614b 0a3b a4e8 93bd 7c5a babc af6c 15bd
00000280: b909 4cbd 7c9d 89bd 9f73 423d 40ac 9d3d
00000290: e367 b3bc 098b 3bbe d654 933d 4ea6 113d
000002a0: 27b8 7dbd 9525 4d3d 7214 7a3b 8fdf 97bb
000002b0: ede6 3fbd 17b6 a13d 0702 b0bd cf79 2bbd
000002c0: 73f6 75bd 20a7 ffbd 3920 46bc 7eac b3bc
000002d0: fcc1 b1bd 3a9d 273c b998 74bd 70c8 8f3c
000002e0: 1c97 d9bc 8bb9 b6bc c6c9 b1bd b9b2 8ebd
000002f0: f549 81bd 2f1b 1cbd 84d3 7c3d 91f1 1abd
00000300: a28b 113d f06f ac3c 1b40 30bd c31c 9dbd
00000310: f6e4 673d 9a49 213d 3a5b 323d c967 14bc
00000320: d1a7 263c fe3a 873d d342 ea3c 7d95 17bb
00000330: 8e46 adbc 0d35 82bd 2fc6 a8bd 4098 64bd
00000340: 4488 ce3b 5380 3f3d 2d92 3fbd 4337 053d
00000350: a2bc 2abd eeb7 893d 7e11 ed3c 05c3 0f3d
00000360: b27d 84bd 81cb ac3d 254f a2bd 9578 adbd
00000370: 8802 7e3d 8bdb 80bd 6abe cdbd 36f8 a13d
00000380: 14a7 1e3e e553 43bc e669 72bb 0cfd fa3c
00000390: c451 8bbd 672f 21bd e87e 9fbb 2f61 2c3d
000003a0: 6fbb e3bc 7cec 34bd 2ccc e0bc f2e3 aabc
000003b0: 92c0 3d3e b380 893d fae0 a0bc 9c23 78bd
000003c0: e71d 45bd 54a5 9dbd 283a a9bc 2db1 b5bd
000003d0: c719 6cbc 3fa2 a2bd 467b 59bd f9ac cfbc
000003e0: 760b 573c a970 5b3d d8e8 16be cdfa ad3c
000003f0: e24a ac3d dd29 5c3d 541d 323e 7ec1 873c
-0.24607636 0.016740495 -0.0066310666 -0.011046015 -0.011911329 0.07679711 -0.5866288 -0.10656212
-0.13849247 -0.07269277 -0.048304692 0.05155903 0.14154048 0.03724589 0.03887607 -0.021704763
-0.111594215 -0.028502438 0.069860294 0.036664385 0.08607715 0.040132586 0.044942647 0.06590365
0.06375639 -0.23518285 0.005078885 0.06588732 -0.11750501 0.007171402 -0.05491362 -0.010734782
-0.030792698 0.10493097 -0.026075823 0.056046743 0.040576972 -0.09126647 -0.18405972 -0.088138975
0.047955096 0.007034857 0.023399308 -0.035367433 -0.02747605 0.06840651 -0.24827905 0.012891583
0.06614144 0.076890595 0.010957922 -0.01242291 0.0629061 0.066629596 -0.03973902 -0.0762669
0.007942561 -0.010897773 -0.027736314 0.0562073 -0.06772661 -0.10013326 -0.00884244 0.04998732
0.008852515 -0.24887988 -0.073662505 -0.09799453 0.004639862 -0.029825365 -0.036783192 0.0139500275
0.047402095 0.017044364 -0.1995592 -0.020709023 -0.07992193 -0.059501804 0.04978902 -0.03653322
-0.07428765 -0.09753537 0.061685305 0.02859457 0.086644664 -0.046059668 -0.073099166 -0.06465961
-0.015781054 0.0708133 -0.03140312 0.07903779 0.02458434 -0.00834597 -0.13181056 0.013563985
-0.06874716 -0.017291483 -0.054265473 -0.06284964 -0.017008647 0.025545573 -0.06318425 -0.052247435
-0.24552752 -0.07190404 0.036003683 -0.07546342 0.04856227 -0.016297365 -0.24061325 -0.058846343
0.022364961 -0.030937525 0.043337066 0.02888269 0.07886394 0.00083365414 0.04904954 -0.0007745326
-0.024742892 0.061918218 -0.59001595 0.022123829 -0.058411486 -0.0790141 -0.19819029 -0.07468274
0.18371199 0.07063938 -0.011474828 0.0663095 -0.04513014 -0.083139904 -0.015916789 0.1324874
0.072803184 -0.36782402 -0.027947377 -0.03549539 -0.020086354 -0.0047319843 -0.041590698 0.01144995
0.046823893 -0.06677706 0.027021514 0.0028007769 -0.042220965 0.059984416 -0.04069034 0.075872935
-0.07513507 -0.18404499 -0.025895434 0.041197773 0.0021102058 -0.07222107 -0.022748224 -0.036480602
-0.04981396 -0.06719491 0.047473546 0.0769887 -0.021900123 -0.18314756 0.071939155 0.03555899
-0.0619432 0.05008467 0.003815916 -0.0046348046 -0.046851087 0.07896059 -0.08594137 -0.041864213
-0.060049485 -0.124830484 -0.012092643 -0.021932837 -0.08679578 0.010230357 -0.05971596 0.01755163
-0.026561312 -0.02230527 -0.08681063 -0.069676824 -0.06312934 -0.03811186 0.061725155 -0.037828032
0.035533555 0.02104947 -0.043029886 -0.076715015 0.05661484 0.039376833 0.04354403 -0.009057947
0.0101718465 0.06603049 0.028596317 -0.0023129873 -0.021151807 -0.06357775 -0.082409255 -0.05580926
0.006302865 0.04675324 -0.046770263 0.032523405 -0.0416838 0.06724535 0.028939005 0.035098094
-0.06469287 0.08437253 -0.07925252 -0.08470265 0.062014133 -0.062918745 -0.10046084 0.079086706
0.15493423 -0.0119218575 -0.003698939 0.03063824 -0.06802705 -0.039351847 -0.0048674233 0.04208487
-0.027799336 -0.04417084 -0.027441107 -0.020860646 0.18530491 0.067140006 -0.019638527 -0.060580835
-0.04812422 -0.076975495 -0.020657614 -0.08871684 -0.014410443 -0.07941102 -0.05309608 -0.025351034
0.013125291 0.053574238 -0.1473726 0.021237755 0.0841272 0.05375086 0.17394 0.016571756

fc2.bias f4 [128]
00000000: ee9a f23c 0cf8 debd e57f 27be 1dcd db3b
00000010: d0c3 8bbd d968 5f3e 3960 a8be 6301 fd3b
00000020: fba1 a13c 9e02 773c 2779 56be 7e41 3a3e
00000030: a71d 44bd 5f36 59be 4124 6ebd 28e9 89bc
00000040: 1ecb adbd 6fdf 76be f5fb 7e3e ebd6 083d
00000050: 6566 c33e bc92 9b3c e1ee ae3e 66f0 8b3d
00000060: ecc4 373e bd90 82be 7a0e 7dbc 5f73 d8bc
00000070: 7bdc 103d 9a6a 8dbd 81c9 f8bc b55e 2abd
00000080: e6fe 8f3b 865d 37bc a956 ae3c 7d6d d4bd
00000090: 9740 613e 6d1c 113e c349 fbbd 4906 c2bd
000000a0: afcb ef3d 1db4 80be 70b5 5ebd 8821 cbbd
000000b0: 30ae 01be c0e1 89bd ad1c 17be e1e2 81bd
000000c0: 32a3 f63c ef81 95be 0cf9 423e 185e a4bb
000000d0: 14ec 513e 3dc9 bebd c4a4 4338 273c 2b3e
000000e0: 478a ca3d 9e65 f3bd 158f 983d 89e7 213d
000000f0: ba50 28bd 311d 23be f2aa 4f3d de5a 3cbe
00000100: b459 39bd a4aa 053e 70eb 85be 907b 03be
00000110: 938e f13c cd2f 173e 4586 d0bc 9c26 603d
00000120: 3d2e 01be 531e babd 754f 3bbe ef2a 62bd
00000130: 07fb 403d 62f1 a83c dde5 3bbe 2159 a63c
00000140: 1d9f 0dbc 3c81 08be d597 b23d 02bf a6bd
00000150: e8b0 e1bd de02 75be 88f7 ef3d d137 983c
00000160: e19d 9d3d a925 e0bd b522 75be d25e 923c
00000170: 76d0 b3bc bc0f cfbd d930 c53d deb5 b03c
00000180: 59cc c43d 8448 91be e1e6 06be 2014 9bbd
00000190: e22c 0a3d 130c 993d 6bb9 77bd 966f 56bd
000001a0: 91f6 cfbd 5d5f bfbc 5963 fe3c 22bd a3bc
000001b0: 6bae 0abd 60ac 25be ba82 0d3c 18ab 7c3c
000001c0: 21b8 993d 4d3e 61be c2e9 d5bd d823 e1bd
000001d0: 00ac ce3d c3c4 463e 3592 98bc 1972 fbbd
000001e0: af6b aebd ddd1 373e 432f 84bd dc71 d1bd
000001f0: 13e7 9f3e 1b3e f43c c823 7f3d 9c16 bd3e
0.029614892 -0.10887155 -0.16357382 0.006707801 -0.06824458 0.2181734 -0.32885912 0.0077211126
0.019730559 0.015076308 -0.20944653 0.18189046 -0.04787984 -0.21212147 -0.058140043 -0.01683481
-0.08486007 -0.2410867 0.24900801 0.033408087 0.38164058 0.018990867 0.34166625 0.06832962
0.17946213 -0.25501052 -0.015445346 -0.0264222 0.035366517 -0.06905098 -0.030369522 -0.041594226
0.0043944 -0.011191731 0.021281557 -0.10372446 0.21997295 0.14171 -0.12269928 -0.09473855
0.117087714 -0.25137416 -0.05437225 -0.09918505 -0.12664104 -0.067325115 -0.14757033 -0.06342102
0.030107114 -0.29200694 0.19040316 -0.0050160997 0.20500213 -0.09315727 4.6645073e-05 0.16722165
0.098896556 -0.11884616 0.07449166 0.03952745 -0.04109261 -0.15929104 0.050700136 -0.18394038
-0.045251563 0.13053375 -0.26156187 -0.12840104 0.02948693 0.14764328 -0.02545465 0.05472432
-0.12615295 -0.09087815 -0.18292029 -0.055216726 0.0471144 0.020622913 -0.18349405 0.020306172
-0.008643893 -0.13330549 0.08720366 -0.081419006 -0.1102007 -0.23926875 0.11717135 0.018581303
0.07696129 -0.10944683 -0.23939021 0.01786748 -0.021949988 -0.10110423 0.096284576 0.021571096
0.09609289 -0.28375638 -0.13174011 -0.07572198 0.03373421 0.07473006 -0.060479563 -0.05235251
-0.10154451 -0.023360902 0.031053232 -0.019987646 -0.033857744 -0.16179037 0.008637125 0.015421651
0.07505823 -0.21996422 -0.104449764 -0.10993165 0.100914 0.19410996 -0.018624404 -0.12277622
-0.08516633 0.1795115 -0.06454327 -0.10226795 0.31230983 0.02981477 0.062289983 0.36931312

fc3.weight f4 [1, 128]
00000000: 7d1e 1ebe 9b34 90bd b59e 40bb dbfc cdbd
00000010: 2cc0 8eba f363 2a3d 62de 0cbd 9ac1 61bd
00000020: ac55 a93d b25b a8bc da0f 76bd 65d8 6dbd
00000030: 3c24 953a b30c 6bbd d10f c43c e471 233d
00000040: 746a 863b 6773 98bd 522a 0a3d 2c5d 0f3b
00000050: 2176 9f3d fb78 f83a 7127 713c 3e2d 7f3d
00000060: 6d0a 193d fdbf 84bd e039 28bc e4e9 f23c
00000070: 28b4 59bb f654 f13c 6a2d 853d a27e f13c
00000080: 4d5f 5b3c 1054 ecbb 236a 7c3c 3664 083e
00000090: 0ba9 403d c571 2b3d 5eb8 81bd 9fcc cabc
000000a0: b19e bf3c a613 18bd 04e9 ecb9 fa36 753c
000000b0: 9461 f03a 1532 653c f0b9 e8bc 8845 49bd
000000c0: 32ba 003e 6674 86bd e2ad 533c d26a 2cbd
000000d0: 5361 933d aab4 36bd 590a 9f3d 1a46 693d
000000e0: 2475 513d 4ff4 01bc c562 7bbd 7f97 8e3d
000000f0: 7b38 1b3c dd05 19bd e399 be3a 3695 dfbd
00000100: cfdb c63c c029 0e3e beeb 05bd 315f 1abe
00000110: 2f96 34bb 5e5f 853d 7c25 f4bc 68f7 3f3e
00000120: 7b62 cbbd 31f8 59bd b2a6 abbd d2b0 0ebd
00000130: eb90 3fbd 4f99 17bd 7b43 85bd e1c6 69bd
00000140: 9ed4 85bd 5c85 29bb 4df3 903d 30c1 92bb
00000150: 9019 b53c 286e 97bd 86c6 8c3d 1a3b 1dbd
00000160: a0a2 b03d e3ab e1bd df4c 88bc af65 ac3c
00000170: 782c c53d c850 c7bc 8504 033e 1656 4dba
00000180: cd78 6d3d 7a25 6fbd 6e4b 99bd fc09 8abd
00000190: 22e4 a13c a87d 8b3d 0b8e 593d d9c3 e43d
000001a0: 1eb7 b1bd 9718 b139 4fea 103d be79 e93c
000001b0: 6b41 3b3d 4a6e 773c 5aa7 9e3c 4c0a dc39
000001c0: 2c62 a73d eca0 10b9 d9aa e3bc 7db2 04bd
000001d0: aa7e ae3d b4ca 293d fb93 993c 7ab0 053c
000001e0: e0c5 0abd 232a 753d 2cbb 21bc a095 c9bd
000001f0: 48aa 233d 974b ac3d 819b aebc 82ce 983d
-0.15441318 -0.07041284 -0.0029391472 -0.10057994 -0.0010891012 0.041599225 -0.03439177 -0.055116273
0.08268294 -0.020551536 -0.06007371 -0.058067698 0.0011378597 -0.057385158 0.023933323 0.039903536
0.0041020457 -0.07443886 0.033731766 0.0021875603 0.07786203 0.0018956953 0.014718876 0.062299006
0.03736346 -0.06481931 -0.010267705 0.029652543 -0.0033218954 0.029459458 0.06502803 0.029479329
0.013389421 -0.0072121695 0.015406164 0.13319477 0.047036212 0.041856546 -0.063339934 -0.024755774
0.0233911 -0.037128113 -0.00045187038 0.014966721 0.0018339627 0.013988991 -0.028408974 -0.049138576
0.12571028 -0.0656517 0.012919875 -0.04209406 0.071962975 -0.04460589 0.077656455 0.05695162
0.051137105 -0.007931783 -0.06137349 0.06962489 0.009473915 -0.037359107 0.0014541711 -0.109171316
0.024274735 0.13883114 -0.032695524 -0.15075375 -0.0027555337 0.065123305 -0.02980303 0.18746722
-0.09930893 -0.05321521 -0.08381404 -0.034836598 -0.046769064 -0.03701144 -0.065070115 -0.05707443
-0.06534694 -0.0025866842 0.07077656 -0.004478596 0.022106916 -0.073940575 0.06873803 -0.03838644
0.08624768 -0.11019113 -0.016638217 0.02104458 0.09627622 -0.024330512 0.12794693 -0.0007832957
0.057976533 -0.05838535 -0.0748509 -0.067401856 0.019762103 0.068110764 0.05311398 0.111701675
-0.08677505 0.00033778392 0.035379704 0.028500434 0.045716684 0.015101979 0.019366909 0.00041969342
0.08173022 -0.00013792858 -0.027791427 -0.032396782 0.08520253 0.04145308 0.01874732 0.008159751
-0.033880115 0.059854638 -0.009871285 -0.09842992 0.039957315 0.08412855 -0.021314384 0.07461263
