saved_models/episode_300/agent_3.pth (torch, 738018 bytes, 44 tensors)

fc1.weight f4 [128, 5]
0	0xbed20d25	-0.41025653
1	0xbe5c0e2f	-0.21489786
2	0x3e9a9df7	0.30198643
3	0xbedc73ca	-0.4305709
4	0xbe900045	-0.28125206
5	0xbe88c461	-0.26712325
6	0x3eb75ade	0.35811514
7	0x3d23f7da	0.04003129
8	0xbdabb7b8	-0.08384651
9	0xbe23cb5d	-0.15995546
10	0x3c525984	0.012838725
11	0x3ee7ac5b	0.45248684
12	0xbe52e22c	-0.2059409
13	0xbe7daa14	-0.24771911
14	0x3ecaf1af	0.39637515
15	0x3d406ed0	0.04698068
16	0x3e8ebb9e	0.27877516
17	0x3dd97b85	0.106192626
18	0xbe043570	-0.1291101
19	0x3e87f6b0	0.26555395
20	0xbd93ccf5	-0.07216827
21	0xbe385c8f	-0.18004058
22	0x3e92934e	0.2862801
23	0xbdc6891d	-0.09694121
24	0xbcf989ed	-0.030461276
25	0x3e9e5493	0.309239
26	0xbe0865cf	-0.13320087
27	0xbecd3a97	-0.40083763
28	0xbec46068	-0.38354802
29	0x3cad2ebe	0.021140452
30	0xbeafc4db	-0.34329876
31	0x3eb8a02b	0.36059698
32	0x3dcc7be6	0.09984569
33	0x3d684f8c	0.056716487
34	0xbee11266	-0.4395935
35	0x3df4a69c	0.11945841
36	0x3e3215e5	0.17391165
37	0xbe85794f	-0.26069114
38	0xbeba009f	-0.363286
39	0x3ec5da7b	0.3864325
40	0x3eb234cf	0.34805915
41	0xbe64d063	-0.22345118
42	0x3e994ee0	0.2994299
43	0xbe709043	-0.23492531
44	0xbe24d1ca	-0.16095653
45	0x3e8ce7cf	0.27520606
46	0x3e8a0767	0.26958773
47	0x3e12c770	0.14333892
48	0xbea62cc9	-0.32456043
49	0xbdad4c56	-0.084618255
50	0xbe732269	-0.23743595
51	0xbb1b8e6f	-0.002373602
52	0xbe0985bc	-0.13429922
53	0x3d1e99ea	0.038721003
54	0x3e74d8b9	0.23910798
55	0xbd9472fb	-0.07248493
56	0x3e916a42	0.2840138
57	0x3e38648a	0.18007103
58	0xbe290b8f	-0.16508316
59	0x3e2b0321	0.16700412
60	0x3e9d1d5c	0.30686462
61	0x3eb8079c	0.35943305
62	0xbeae843c	-0.34085262
63	0x3d2c58b4	0.04207678
64	0x3dab3032	0.08358802
65	0x3e8e3400	0.27774048
66	0x3e13a03e	0.14416596
67	0xbe5e6033	-0.21716385
68	0x3d900e70	0.07034004
69	0xbeb28383	-0.3486596
70	0xbe399847	-0.18124495
71	0xbd93e5f8	-0.072215974
72	0xbdb1a332	-0.08673705
73	0xbe2cc84e	-0.16873285
74	0xbe1f2e49	-0.15545
75	0x3cd02d09	0.0254121
76	0x3ede1034	0.43371737
77	0x3e0695b1	0.1314304
78	0x3c6efb44	0.014586274
79	0x3bdf5bfb	0.006816385
80	0xbec2d02d	-0.3804945
81	0x3d3e53b7	0.046466555
82	0x3e9c6d1b	0.3055199
83	0x3ebe5df0	0.37181044
84	0xbea2ddce	-0.3180985
85	0xbea468c2	-0.32111174
86	0xbe4292bf	-0.19001292
87	0xbe885b6b	-0.26632246
88	0xbec9e238	-0.39430404
89	0xbec17168	-0.37781835
90	0x3eb92618	0.36161876
91	0x3c9c0fae	0.019050445
92	0x3ebe5067	0.37170717
93	0x3d96ed37	0.07369464
94	0x3e9c0efb	0.3048018
95	0xbeb5d448	-0.3551352
96	0xbe11ef14	-0.14251357
97	0xbe0b3ee1	-0.13598205
98	0x3e1bcd51	0.1521504
99	0xbdfe4674	-0.124157816
100	0x3e9d53cd	0.30727997
101	0xbe8d5dfd	-0.2761077
102	0xbe7c14b6	-0.24617276
103	0x3eba6152	0.36402375
104	0xbe99c86b	-0.3003572
105	0x3dc931da	0.098239616
106	0xbec729c6	-0.38899058
107	0x3ea6c625	0.32573047
108	0xbd9cef1d	-0.07662795
109	0x3de1ae4b	0.11019572
110	0x3d1c342e	0.0381357
111	0x3e84f19c	0.25965583
112	0xbe1024fb	-0.14076607
113	0x3e085220	0.13312578
114	0xbdf3beaf	-0.119016044
115	0x3d51e600	0.051244736
116	0x3de82584	0.113352805
117	0xbe45af96	-0.19305262
118	0xbdff8d48	-0.12478119
119	0xbe3de760	-0.18545294
120	0xbec60b55	-0.3868052
121	0xbeba8668	-0.3643067
122	0x3e42cf63	0.19024424
123	0x3dc9122c	0.09817919
124	0xbe721931	-0.23642422
125	0xbeb248f7	-0.34821293
126	0xbecc4cb7	-0.3990228
127	0x3d944c04	0.07241061
128	0x3e3a032d	0.18165274
129	0xbd824743	-0.06361248
130	0xbc49bd03	-0.01231313
131	0x3e920019	0.285157
132	0x3ebb521a	0.36586076
133	0xbe7ad6bc	-0.24495977
134	0x3ea9c050	0.33154535
135	0xbe4d8e99	-0.20073928
136	0xbc1fa486	-0.009743815
137	0x3eb98b3f	0.3623905
138	0x3e79e39b	0.24403231
139	0x3de92e93	0.113858365
140	0xbda8b45f	-0.08237528
141	0xbedcb0be	-0.43103594
142	0xbd854787	-0.065077834
143	0xbec50961	-0.38483718
144	0x3e967333	0.29384765
145	0x3dee23b0	0.116279006
146	0xbe5a55b2	-0.21321753
147	0xbe8be139	-0.2732027
148	0xbc7e25ac	-0.015511911
149	0x3e6a295c	0.2286734
150	0xbe5722d8	-0.21009386
151	0x3e2a0bcb	0.16606061
152	0xbeb0cc14	-0.345307
153	0xbcae9af3	-0.02131412
154	0x3e05b81a	0.1305851
155	0x3db59385	0.08866028
156	0x3d666d43	0.056256544
157	0xbed498fc	-0.41522968
158	0x3da1bae5	0.078969754
159	0xbedaf029	-0.42761353
160	0x3ed3169f	0.41228196
161	0xbd10936c	-0.035296842
162	0x3e52e927	0.20596753
163	0xbd4c87b4	-0.049934104
164	0xbecf0a2f	-0.40437457
165	0x3e6f3305	0.23359306
166	0xbcb06ab9	-0.021535264
167	0xbdf953a6	-0.12174158
168	0x3e9c47a2	0.30523401
169	0x3dfc2095	0.12310902
170	0x3e710757	0.23537956
171	0x3e50fe5b	0.20409529
172	0xbe2a529b	-0.16633074
173	0x3ed5fded	0.41795292
174	0xbe2e08cc	-0.16995543
175	0xbeba5ff2	-0.36401325
176	0xbe9e9adb	-0.3097752
177	0x3ca1be63	0.019744104
178	0xbe8b8b87	-0.27254888
179	0xbea653bb	-0.32485756
180	0xbdc42f75	-0.09579364
181	0xbde4b0d1	-0.111665376
182	0xbe2a7823	-0.16647391
183	0xbebaf6d3	-0.36516437
184	0xbe8a017f	-0.26954266
185	0xbe74d794	-0.23910362
186	0x3ed0f59a	0.4081238
187	0x3e764461	0.24049522
188	0x3ecf116f	0.40442988
189	0x3e8cc703	0.27495584
190	0x3e99fd54	0.30076087
191	0xbed172fd	-0.40908042
192	0x3e8b2df0	0.27183485
193	0x3e6f63d5	0.23377927
194	0xbec88d1e	-0.39170164
195	0x3eccbaaa	0.39986163
196	0x3e2a7e71	0.16649796
197	0x3e13a98c	0.14420146
198	0xbe356a63	-0.17716365
199	0xbdd39fae	-0.10333191
200	0xbea0b313	-0.31386623
201	0xbebdec8d	-0.37094536
202	0xbe8027d7	-0.25030395
203	0xbdea86a6	-0.114514634
204	0x3dcd4a80	0.10023975
205	0xbed5fb80	-0.41793442
206	0xbea0e9ac	-0.31428277
207	0x3d673bbe	0.05645346
208	0x3dec471f	0.11537003
209	0x3dc8b02b	0.097992264
210	0x3e21a769	0.15786518
211	0x3df8b86c	0.12144551
212	0x3e79c1d6	0.24390349
213	0x3dadc235	0.08484308
214	0xbdbced9c	-0.09225008
215	0x3e42177c	0.18954271
216	0xbeaae2a6	-0.33376044
217	0xbeb54bbc	-0.35409343
218	0x3e7d27ee	0.24722263
219	0xbe90d69d	-0.28288737
220	0xbe45d396	-0.19318995
221	0xbec9c074	-0.39404643
222	0xbec257ac	-0.37957513
223	0xbea2b5f1	-0.31779435
224	0x3da9d2b9	0.08292145
225	0x3dcc68cd	0.09980927
226	0x3dfe469b	0.12415811
227	0x3ec67373	0.38759956
228	0xbeccd1cb	-0.4000381
229	0x3dfa30b8	0.122163236
230	0xbe2f33f4	-0.17109662
231	0x3ebc7259	0.3680599
232	0xbea4b145	-0.32166496
233	0xbe0257d8	-0.12728822
234	0x3e1d6afd	0.15372844
235	0xbedf38c2	-0.4359799
236	0x3e7b3ed6	0.24535689
237	0x3d8420ee	0.06451593
238	0xbec433d9	-0.38320807
239	0x3e231146	0.15924558
240	0xbe1fbe4c	-0.15599936
241	0x3e9dd585	0.30826965
242	0xbe050cff	-0.12993239
243	0xbe06dbba	-0.13169757
244	0xbed0230a	-0.40651733
245	0xbd44b62d	-0.0480253
246	0xbede1cc9	-0.43381336
247	0xbe9445b0	-0.28959417
248	0x3e800b13	0.2500845
249	0x3e4bca03	0.1990128
250	0xbe1527da	-0.14565983
251	0xbd23e162	-0.040009864
252	0xbe0f55db	-0.13997595
253	0x3eab51f3	0.3346096
254	0xbeeb8ac3	-0.46004304
255	0xbed3b492	-0.41348702

fc1.bias f4 [128]
0	0xbea89a5f	-0.32930276
1	0x3e89ea6c	0.26936662
2	0xbd4bf20e	-0.04979139
3	0x3ea40e62	0.32042223
4	0x3b755aff	0.003743827
5	0x3e2d984d	0.1695263
6	0xbe9a21cd	-0.30103913
7	0xbec4674a	-0.38360053
8	0xbe4dab7f	-0.20084952
9	0x3ecd4c95	0.4009749
10	0x3e94fff7	0.29101536
11	0xbe94cf8e	-0.29064602
12	0xbdd9fda2	-0.1064408
13	0xbe321737	-0.17391668
14	0x3e3f195a	0.18662015
15	0x3ee46db2	0.4461494
16	0xbebc42d0	-0.36769724
17	0xbc0612f9	-0.008183234
18	0x3e397bb7	0.181136
19	0xbe5cd2c6	-0.21564779
20	0x3e8dc640	0.27690315
21	0x3e73adfa	0.23796836
22	0xbc4b4b76	-0.012408128
23	0x3eadbc15	0.33932558
24	0x3ec823bd	0.39089766
25	0x3ecae686	0.39629
26	0xbe3b7797	-0.18307339
27	0x3e95e88c	0.29278982
28	0x3e755938	0.23959816
29	0x3e329549	0.1743976
30	0x3c585553	0.013203937
31	0xbe66f51a	-0.22554436
32	0x3e42f117	0.19037281
33	0xbda18cae	-0.07888161
34	0x3e38e24e	0.18055078
35	0xbea2996b	-0.31757674
36	0x3e7cde7d	0.24694248
37	0x3e9527c5	0.29131904
38	0x3e94bd87	0.29050848
39	0x3ecd9f30	0.40160513
40	0xbd772552	-0.060338326
41	0x3d0cafe2	0.034347422
42	0x3e4d3e0f	0.20043205
43	0xbddc856c	-0.10767636
44	0xbe27a25d	-0.1637053
45	0xbe707535	-0.23482211
46	0x3ec8ac59	0.3919399
47	0xbed4a0ba	-0.41528875
48	0x3ea99bad	0.33126584
49	0x3ca8ebed	0.02062031
50	0xbcbf6691	-0.023364337
51	0xbd14fb06	-0.036372207
52	0xbdcf1ee8	-0.10113317
53	0xbd00c7bf	-0.031440493
54	0xbec35cda	-0.38156778
55	0xbd93ec53	-0.0722281
56	0xbc324eff	-0.010883092
57	0x3cc9d2e6	0.024636697
58	0x3e75df08	0.24010861
59	0xbde5edb3	-0.11226978
60	0xbe6f58c7	-0.2337371
61	0x3deaa81d	0.11457846
62	0xbbf8c2c0	-0.0075915754
63	0x3ec4975f	0.38396737
64	0xbba4b54d	-0.0050264955
65	0x3e2317fe	0.15927121
66	0xbec29352	-0.3800302
67	0x3d42d1c5	0.047563333
68	0x3dc9831f	0.098394625
69	0xbe8476ab	-0.25871786
70	0x3e4c0641	0.1992426
71	0xbe17feca	-0.14843288
72	0x3e42859b	0.18996279
73	0xbe4b4d89	-0.19853796
74	0x3ea8eee1	0.3299475
75	0x3e96225c	0.2932309
76	0xbea0c56b	-0.31400618
77	0x3e8dd4d1	0.2770143
78	0x3e2fbb15	0.1716121
79	0x3ee17d0c	0.44040716
80	0xbdb62d96	-0.088954136
81	0x3e9eaf4a	0.3099311
82	0x3d841a20	0.064502954
83	0x3e6d500d	0.23175068
84	0x3e98ce04	0.29844677
85	0x3e7e832a	0.24854723
86	0xbe7c3e1f	-0.24633072
87	0xbea6e42b	-0.32595953
88	0x3cd056eb	0.02543207
89	0xbe81d4fb	-0.25357804
90	0xbe3b2e50	-0.18279386
91	0x3edc7820	0.43060398
92	0x3e38f7ea	0.18063322
93	0x3c8958b7	0.016765935
94	0x3eaf9e27	0.34300348
95	0x3da8f02c	0.08248934
96	0x3e817839	0.25287035
97	0xbe2d59ab	-0.16928737
98	0x3dc056fb	0.0939159
99	0xbc3827b1	-0.011239932
100	0x3da7bdb8	0.08190483
101	0xbec6eee2	-0.38854128
102	0x3e170b02	0.14750293
103	0xbe844b6e	-0.25838798
104	0x3cd7054f	0.026247649
105	0xbe868272	-0.26271397
106	0xbdf977e4	-0.121810704
107	0xbe7a7148	-0.24457276
108	0xbe0db549	-0.13838686
109	0xbe8d1640	-0.27556038
110	0xbee93e52	-0.4555536
111	0xbea85f28	-0.32885098
112	0xbe467ab6	-0.19382748
113	0xbd978b9a	-0.07399674
114	0xbeb35ad7	-0.35030243
115	0x3e22c4e5	0.15895422
116	0xbc510d6e	-0.01275955
117	0xba79d664	-0.0009530543
118	0x3ee37d72	0.44431645
119	0xbe0a0e3a	-0.1348199
120	0xbe8dd90d	-0.2770466
121	0xbebae3b1	-0.3650184
122	0x3edda9d0	0.4329362
123	0x3dc9a625	0.09846143
124	0xbe8a63c4	-0.2702924
125	0xbd171b50	-0.03689128
126	0xbe71bb95	-0.23606713
127	0x3cac070b	0.020999452

fc2.weight f4 [128, 128]
0	0xbd2b0b63	-0.041758906
1	0x3d186f83	0.03721572
2	0xbce9518d	-0.02848127
3	0x3b3d459c	0.0028880602
4	0xbd9eaa70	-0.07747352
5	0x3d08e0fc	0.033417687
6	0x3d745e55	0.059660275
7	0x3c557448	0.013028212
8	0xbad643b0	-0.0016347077
9	0x3d1260a6	0.035736702
10	0xbd216881	-0.039406303
11	0xbd37215b	-0.044709545
12	0x3dab8852	0.083756104
13	0xbd53f308	-0.051745445
14	0xbdb3eb55	-0.087851204
15	0xbd4b610b	-0.049653094
16	0xbb82ea90	-0.003995247
17	0xbd8d3201	-0.06894303
18	0xbc79bdb9	-0.015242987
19	0xbd7414d9	-0.059590194
20	0x3d0508a6	0.03247895
21	0x3db1df98	0.08685225
22	0xbd8ad675	-0.06779186
23	0xbd1b4bc9	-0.03791407
24	0xbd49aaea	-0.049235262
25	0x3d0e3310	0.034716666
26	0xbd42ef4f	-0.047591504
27	0xbd2700de	-0.04077231
28	0xbb58da12	-0.0033088964
29	0xbd6095fb	-0.054830533
30	0xbd2a0bc5	-0.04151513
31	0xbd790f3b	-0.06080554
32	0xbda031ae	-0.07821976
33	0x3d590d36	0.052991115
34	0x3d6b5dc3	0.057462465
35	0x3ce68163	0.028137868
36	0x3d952fa2	0.07284476
37	0xbda77daf	-0.08178269
38	0x3d0d6ea9	0.034529362
39	0x3c1370eb	0.00899909
40	0xbd56e6f1	-0.052466337
41	0x3b9bd505	0.0047556185
42	0xbbc74e70	-0.0060823485
43	0xbda1151c	-0.078653544
44	0x3d8b4165	0.067995824
45	0xbc7622c5	-0.015022938
46	0x3ce471ee	0.027886357
47	0x3d60cb52	0.0548814
48	0xbd537804	-0.051628128
49	0x3d796835	0.060890395
50	0x3d6aee2f	0.057356056
51	0x3d8e3d19	0.06945247
52	0x3d4252bb	0.04744218
53	0xbd27c0fb	-0.040955525
54	0x3da9845c	0.08277199
55	0x3d8fc1a0	0.07019353
56	0x3cebd949	0.028790133
57	0xbc8cd6de	-0.0171923
58	0x3ce2ac52	0.02767006
59	0x3c057afb	0.008146997
60	0x3d13e4b2	0.036106773
61	0xbd300d8f	-0.04298168
62	0xbd9e007e	-0.077149376
63	0xbbed7c55	-0.0072474875
64	0x3c4bc5f6	0.012437334
65	0x3cfc5b16	0.030805152
66	0x3d6ea25b	0.058260303
67	0x3d7b0b58	0.061290115
68	0xbb65e1d8	-0.003507724
69	0xbd95d2de	-0.0731561
70	0xbc9d6a37	-0.019215686
71	0x3d3dd81f	0.046348687
72	0x3b9175ec	0.004439106
73	0x3c20d88d	0.009817255
74	0xbc1e9d41	-0.009681047
75	0x3d715878	0.05892226
76	0x3b645364	0.0034839744
77	0xbd47b69b	-0.04875813
78	0xbd4dee42	-0.05027605
79	0xbd1a4663	-0.037664782
80	0x3c4d4d64	0.012530658
81	0x3d126725	0.035742898
82	0x3c9bf1e6	0.019036245
83	0x3d4c5b98	0.049892038
84	0x3d1623d9	0.03665528
85	0x3da82bd5	0.08211485
86	0x3c50fa05	0.012754922
87	0x3d590167	0.052979853
88	0xbd94f2d1	-0.07272876
89	0x3d8a23db	0.0674512
90	0xbd1856d7	-0.037192192
91	0xbd8753e1	-0.066077955
92	0x3d9420b0	0.07232797
93	0x3cf5575e	0.029948886
94	0xbd2c83c7	-0.04211786
95	0x3c9ab178	0.018883452
96	0xbd5ee362	-0.054416068
97	0x3c85e26a	0.016343314
98	0x3da789b3	0.08180561
99	0x3d4e4e91	0.050367896
100	0xbcf31658	-0.02967374
101	0xbd99abc6	-0.07503466
102	0xbd166191	-0.03671414
103	0x3ca383ed	0.019960368
104	0xbcf7ea97	-0.030263228
105	0x3ccfcb77	0.025365574
106	0xbd77da6d	-0.06051104
107	0xbaf24d2c	-0.0018486134
108	0x3b2e2715	0.0026573588
109	0x3c71d311	0.014759795
110	0xbd86df17	-0.0658552
111	0x3d9872de	0.07443784
112	0x3c1fd3fb	0.00975513
113	0x3cf03442	0.029321793
114	0xbd87fc01	-0.06639863
115	0xbd4de297	-0.05026492
116	0x3d6bbd27	0.057553437
117	0xbd8a4509	-0.06751449
118	0x3cc4c945	0.024021754
119	0x3abf2808	0.0014584074
120	0xbdaf67b2	-0.085647
121	0x3db3c5b6	0.08777945
122	0xbd80b979	-0.06285376
123	0x3d9f9927	0.07792883
124	0xbd86cec8	-0.06582409
125	0x3d252a4a	0.040323533
126	0x3d94fd9b	0.07274934
127	0xbd218946	-0.039437555
128	0xbd82985e	-0.06376718
129	0x3d871a2f	0.06596791
130	0x3dac2b28	0.08406669
131	0x3d2d4244	0.042299524
132	0x3cc10203	0.02356053
133	0xbd350137	-0.04419061
134	0xbc17883b	-0.0092487885
135	0xbbca2d4c	-0.0061699506
136	0xbcb7505b	-0.022377184
137	0xbd0f2679	-0.0349488
138	0x3d2308b3	0.039803218
139	0xbd57ac3f	-0.0526545
140	0xbd7eab3c	-0.06217502
141	0x3ca2b4e0	0.019861639
142	0xbd2806b0	-0.041022003
143	0xbcf18e3c	-0.029486768
144	0x3d2bf26a	0.04197923
145	0x3d9c56aa	0.07633717
146	0xbd295624	-0.041341916
147	0x3d38e858	0.045143455
148	0x3da2f313	0.07956519
149	0xbc867d51	-0.016417177
150	0x3aeeb6a4	0.001821239
151	0x3b9fda7a	0.0048783394
152	0xbdafd9f9	-0.08586497
153	0x3cd575cf	0.026057152
154	0x3d97b081	0.07406712
155	0x3da25e18	0.07928103
156	0xbd7bc2f6	-0.061465226
157	0xbc861db4	-0.016371585
158	0xbc6e7c5a	-0.014556015
159	0xbb420c05	-0.0029609215
160	0xbcd83b4d	-0.026395464
161	0xbcca386a	-0.024685103
162	0x3b928163	0.0044709905
163	0x3da1b1cf	0.078952424
164	0xbda69c07	-0.081352286
165	0xbd0c62db	-0.034273963
166	0xbc1d3282	-0.0095945615
167	0x3cc7f0c9	0.024406807
168	0xbdb2e7b3	-0.08735599
169	0x3db3654b	0.087595545
170	0xbd4ebf24	-0.050475255
171	0xbd090f0f	-0.033461627
172	0x3d3e8d1c	0.04652129
173	0xbd2f44f6	-0.042790376
174	0xbda4ee2f	-0.080532424
175	0xbd5f4d7c	-0.054517254
176	0xbcc27c6d	-0.023740971
177	0xbcacadc0	-0.021078944
178	0xbcdd8f9f	-0.027046023
179	0xbc26f495	-0.010190149
180	0x3be3155e	0.0069300374
181	0x3baf5849	0.0053511006
182	0xbd807ab5	-0.062734045
183	0xbd41d472	-0.047321744
184	0xbd83b134	-0.06430283
185	0xbd49086d	-0.0490803
186	0xbd1a13da	-0.03761659
187	0xbcd4822a	-0.025940973
188	0x3daee396	0.08539502
189	0x3d6d86c0	0.057989836
190	0x3d35c6b5	0.044378955
191	0xbd6c4127	-0.05767932
192	0x3d8acc74	0.067772776
193	0xbd3ac5bb	-0.045598727
194	0x3d9e8084	0.07739356
195	0x3cff66b2	0.031176899
196	0x3bc75e42	0.0060842345
197	0xbd9d1661	-0.07670284
198	0x3d9a2f97	0.07528608
199	0x3d26786e	0.040642194
200	0x3da262a6	0.07928972
201	0x3c39fefb	0.011352296
202	0x3d8cfbb8	0.06883949
203	0x3d8ba7b0	0.06819093
204	0xbd1f79df	-0.038934585
205	0x3d13a374	0.036044553
206	0xbc6d2d2e	-0.014476104
207	0xbc996bb7	-0.01872812
208	0x3c8b9e6f	0.01704332
209	0x3d497a6f	0.049189027
210	0xbd8243f1	-0.06360615
211	0xbd0ee0ad	-0.034882236
212	0xbd9f1a87	-0.077687316
213	0x3d089907	0.033349063
214	0xbcd288a1	-0.025699915
215	0xbda16b23	-0.07881763
216	0x3db09130	0.08621442
217	0xbac568ec	-0.0015061176
218	0x3db29e3c	0.08721587
219	0x3c34d626	0.011037385
220	0xbd51add5	-0.05119117
221	0xbd066c94	-0.032818392
222	0x3be00420	0.0068364292
223	0xbd0e23b1	-0.034702007
224	0x3b8d101f	0.0043049003
225	0xbd21ae1e	-0.03947269
226	0x3c0b8665	0.008515929
227	0x3d999953	0.074999474
228	0xbd5f9267	-0.05458298
229	0x3cd443b2	0.025911186
230	0x3d9cb352	0.0765139
231	0x3d16a9de	0.03678309
232	0xbd8c4c12	-0.06850447
233	0xbce1f670	-0.02758333
234	0x3da9acfa	0.08284946
235	0x3d606d25	0.05479159
236	0xbd11a6c7	-0.035559442
237	0x3d4a7a19	0.049432848
238	0xbd5e41e0	-0.054262042
239	0x3cfeb601	0.031092646
240	0x3d8d3c5e	0.0689628
241	0xbd4efb8e	-0.05053287
242	0xbd453126	-0.048142575
243	0x3d7353b3	0.059405994
244	0xbbda3350	-0.006658949
245	0xbd0b868a	-0.034063853
246	0x3ced6ce9	0.028982596
247	0xbd414afa	-0.047190644
248	0xbd2c93e3	-0.042133223
249	0x3d2b71e3	0.041856658
250	0xbcbe6e2c	-0.023245893
251	0x3d28a69d	0.04117452
252	0x3beb65c3	0.007183762
253	0xbca63709	-0.020289915
254	0xbd537760	-0.051627517
255	0xbb736aab	-0.0037142436

fc2.bias f4 [128]
0	0xbabbf862	-0.0014340992
1	0x3c83f7a9	0.016109305
2	0xbd37de6c	-0.044889852
3	0x3da4e9e3	0.08052423
4	0x3db86df1	0.09005345
5	0xbbb1278e	-0.0054063266
6	0x3d982f3b	0.074308835
7	0xbdbebb95	-0.09313122
8	0x3cbec64a	0.023287911
9	0x3c84cefe	0.016211983
10	0x3d924f0c	0.07143983
11	0x3db628d3	0.08894505
12	0xbd9d84bd	-0.076913334
13	0x3d2897f8	0.041160554
14	0x3ba7b183	0.0051175966
15	0xbcd77293	-0.02629975
16	0x3be36c83	0.006940426
17	0x3db0f0b5	0.08639661
18	0xbce8f841	-0.02843869
19	0xbd978ff9	-0.074005075
20	0x3d861cff	0.06548499
21	0x3d85ab52	0.065268174
22	0xbdc2f60c	-0.09519586
23	0x3d57679f	0.052589055
24	0xbd84c34f	-0.06482565
25	0x3d6958e1	0.056969527
26	0x3d49c816	0.049263082
27	0x3db3501e	0.087555155
28	0x3d8b4db2	0.068019286
29	0x3c29f0ba	0.010372335
30	0xbd9237da	-0.07139559
31	0x3cae0f8c	0.021247648
32	0x3d13770d	0.036002208
33	0xbda5a5c0	-0.08088255
34	0xbd944547	-0.07239776
35	0xbd250f9b	-0.040298086
36	0x3d86692b	0.06563028
37	0xbceb3c1a	-0.028715182
38	0x3d110ecf	0.035414513
39	0x3d5e0309	0.054202113
40	0x3d97aca3	0.07405975
41	0xbbf31b33	-0.007419014
42	0x3d18644c	0.037205026
43	0x3d85e81d	0.06538413
44	0x3bc014e9	0.0058618677
45	0xbd9df1e3	-0.07712152
46	0xbcb65ceb	-0.022261104
47	0xbc10680c	-0.008813869
48	0xbcdfbac4	-0.027310736
49	0x3d9462b0	0.07245386
50	0xbd13a523	-0.03604616
51	0xbc86ebb1	-0.016469808
52	0xbd86dc2f	-0.065849654
53	0x3da77210	0.081760526
54	0xbdaae610	-0.08344662
55	0xbd7d4290	-0.061831057
56	0xbd9e1e8f	-0.07720672
57	0x3c3389a0	0.010958105
58	0xbb86cfeb	-0.004114141
59	0x3dc240bf	0.094850056
60	0x3ccbc625	0.024874756
61	0xbdab80a7	-0.08374148
62	0xbcdd82f5	-0.027039984
63	0x3d088324	0.03332819
64	0x3d226d4e	0.039655022
65	0xbd0a88d0	-0.03382188
66	0xbd5315c6	-0.051534437
67	0x3ba7f3e4	0.0051255096
68	0xbd58dae2	-0.052943118
69	0xbd3062ef	-0.0430631
70	0xbb849f10	-0.004047282
71	0xbd94a2cd	-0.07257614
72	0xbcf395ca	-0.02973451
73	0x3b3920fb	0.0028248418
74	0x3b115f95	0.0022182215
75	0xbda855d3	-0.08219495
76	0xbd2035e0	-0.03911388
77	0xbdc69e80	-0.096982
78	0xbd93d29b	-0.07217904
79	0x3da306e5	0.079602994
80	0xbdb7bb2b	-0.08971246
81	0xbd8ffedb	-0.07031032
82	0xbcf96abf	-0.030446408
83	0x3d3289d6	0.04358848
84	0xbd0b541d	-0.034015764
85	0x3cfd7236	0.03093825
86	0xba0b6e2e	-0.0005318847
87	0x3d31eeee	0.04344075
88	0x3daaac8f	0.08333694
89	0xbd0ed83a	-0.03487418
90	0xbc3f9506	-0.011693245
91	0xbd7478f1	-0.05968565
92	0x3cab7421	0.020929398
93	0xbda90b96	-0.08254163
94	0xbd872aba	-0.06599946
95	0x3d9c7cc3	0.07640984
96	0xbd142683	-0.03616954
97	0x3d6a9f10	0.0572806
98	0xbd389098	-0.04505977
99	0x3d2e9049	0.04261807
100	0xbdb2e55c	-0.08735153
101	0x3d4f015e	0.050538413
102	0x3c1b7618	0.009488605
103	0x3d7e5086	0.062088512
104	0xbd580fcb	-0.052749436
105	0x3caed40a	0.021341342
106	0x3d154872	0.036446042
107	0xbd38dca6	-0.0451323
108	0xbd3b8276	-0.045778714
109	0xbd930b2b	-0.071798645
110	0x3d8fcc7b	0.070214234
111	0xbd196291	-0.037447516
112	0xbd2dd2f2	-0.0424375
113	0xbd30402a	-0.04302994
114	0xbd4d3853	-0.050102543
115	0xbd50d3ea	-0.050983347
116	0xbb7e125e	-0.0038768272
117	0xbd68e223	-0.056856286
118	0x3c832c11	0.016012223
119	0xbd03b659	-0.032156322
120	0x3d23f313	0.040026736
121	0xbdbd6931	-0.09248579
122	0xbbec3c78	-0.007209357
123	0x3db37508	0.08762556
124	0xbc6ec60c	-0.014573585
125	0x3ce1a5bd	0.02754485
126	0xbdaf3369	-0.085547276
127	0xbd12907b	-0.03578232

fc3.weight f4 [2, 128]
0	0xbdaba9a0	-0.08381963
1	0x3bd46e41	0.00648287
2	0xbd64db41	-0.05587316
3	0xbc99dca2	-0.018781964
4	0x3c88fd5f	0.01672238
5	0x3dc2d2d6	0.0951287
6	0xbccfd33e	-0.025369283
7	0xbd25d645	-0.040487546
8	0x3d47796e	0.04869979
9	0x3d0fa0c0	0.035065413
10	0xbd2c8f63	-0.04212893
11	0x3d7d5f19	0.06185827
12	0x3cca2889	0.024677532
13	0xbd946be2	-0.072471395
14	0xbb206b86	-0.0024478151
15	0xbd4cec3e	-0.050029986
16	0x3d88a4a1	0.066720255
17	0x3c35eae4	0.011103366
18	0x3b9dae4b	0.004812037
19	0xbb11162a	-0.0022138455
20	0xbd10a7ad	-0.035316158
21	0xbbc46f50	-0.005994715
22	0xbd4206d0	-0.04736978
23	0x3ce46f14	0.027884997
24	0xbda7a632	-0.08185996
25	0x3c80172e	0.015636053
26	0xbc12390b	-0.008924733
27	0xbda73632	-0.08164634
28	0xbd9050d6	-0.07046668
29	0xbd0e5394	-0.034747675
30	0xbda41322	-0.08011462
31	0x3cae5ad5	0.021283546
32	0xbd45c691	-0.04828507
33	0xbd02a4ea	-0.031895556
34	0xbc742777	-0.014901987
35	0x3d3c9d5f	0.04604852
36	0xbc914121	-0.017731251
37	0x3d31db5f	0.0434221
38	0xbc805e38	-0.015669927
39	0x3bd4ba72	0.0064919526
40	0xbd22e8f1	-0.03977293
41	0xbd102fdf	-0.035201903
42	0xbd596841	-0.05307794
43	0xbd4c5d51	-0.04989368
44	0xbd922558	-0.07136029
45	0xbc7ca47e	-0.015420077
46	0x3d8b0881	0.06788731
47	0xbcc65a9b	-0.024213126
48	0xbd76ed36	-0.060284816
49	0xbbd38e48	-0.00645617
50	0x3d71d1e5	0.05903806
51	0x3d426895	0.04746302
52	0x3d657f64	0.056029692
53	0x3d0841f1	0.03326601
54	0xbd5121b5	-0.051057536
55	0xbd3be052	-0.045868225
56	0x3d30ec9f	0.04319441
57	0x3d9bac85	0.07601265
58	0x3db44e2a	0.08803971
59	0xbb9117ca	-0.0044278847
60	0xbb32c718	-0.0027279314
61	0x3d6a6d25	0.057232995
62	0xbb8162bd	-0.003948538
63	0xbc1391a3	-0.0090068905
64	0xbd896875	-0.06709377
65	0xbd95d18e	-0.0731536
66	0xbc47fd30	-0.012206361
67	0x3ca7939e	0.020456132
68	0xbca1c32f	-0.019746391
69	0xbd3a5525	-0.045491356
70	0xbba1334f	-0.0049194465
71	0xbd691cac	-0.05691211
72	0xbd259f59	-0.04043517
73	0xbd63f42d	-0.055652786
74	0xbad5fc2f	-0.0016325767
75	0xbad8e55f	-0.001654785
76	0x3db201a0	0.08691716
77	0xbbaa83f8	-0.00520372
78	0xbd550074	-0.052002385
79	0x3d352564	0.04422511
80	0xbd39a060	-0.04531896
81	0x3b07ed41	0.002074078
82	0xbc871de0	-0.016493738
83	0xbd464fa6	-0.048415802
84	0x3ca5a822	0.020221774
85	0x3cb7ee98	0.022452638
86	0x3cd5fb31	0.026120754
87	0x3d97ec7a	0.07418151
88	0x3c503ad7	0.012709341
89	0x3db21b4e	0.08696614
90	0x3d8da43a	0.06916089
91	0x3d2f4d80	0.04279852
92	0xbd22e62a	-0.039770283
93	0xbd3ce849	-0.046119962
94	0x3c91ebbe	0.017812606
95	0x3d87913b	0.066194974
96	0x3da19b3b	0.07890936
97	0x3d33ea2f	0.043924507
98	0x3dbfb465	0.093605794
99	0xbd666190	-0.056245387
100	0x3da6a1b4	0.08136311
101	0x3d8e3ab6	0.06944792
102	0x3cf4385c	0.02981203
103	0x3d8959b2	0.06706561
104	0x3d22a37c	0.039706692
105	0x3c8c7533	0.017145729
106	0xbd83d804	-0.06437686
107	0xbcbceda4	-0.023062535
108	0xbca32b07	-0.019917978
109	0x3d3c539c	0.045978174
110	0x3cd5eaf7	0.026113017
111	0xbd56b63d	-0.05241989
112	0x3d8ba962	0.068194166
113	0x3d995e07	0.074886374
114	0x3c4db4ff	0.01255536
115	0xbd5a119a	-0.053239442
116	0x3ad34e1e	0.0016121303
117	0x3ce0f15c	0.02745884
118	0x3cc45911	0.023968251
119	0x3d840cc9	0.06447751
120	0xbd6fcafd	-0.058543194
121	0xbbea4654	-0.007149497
122	0xbd816d30	-0.06319654
123	0x3d17bc95	0.03704508
124	0xbd1e79c1	-0.038690332
125	0x3da76e7b	0.08175369
126	0x3d2f5fe1	0.042816047
127	0x3c83fb63	0.016111081
128	0xbd6a5cb7	-0.057217326
129	0xbda98179	-0.08276648
130	0xbd038a38	-0.032114238
131	0xbc13089f	-0.008974223
132	0x3daa0441	0.083015926
133	0x3b98d6bf	0.0046642716
134	0xbd70e336	-0.058810435
135	0x3ceb4c28	0.028722838
136	0xbd9e239c	-0.07721636
137	0x3ca381b7	0.019959314
138	0x3c5c2558	0.013436638
139	0x3d78af8b	0.060714286
140	0xbd79dd99	-0.061002348
141	0x3bd42dfd	0.006475209
142	0xbbed006a	-0.0072327154
143	0x3c55039b	0.013001348
144	0x3da348fc	0.07972905
145	0xbd8f2409	-0.06989295
146	0xbaba4436	-0.0014211002
147	0xbd307d77	-0.043088403
148	0x3c347c33	0.0110159395
149	0x3c51c55b	0.012803401
150	0x3da69fd1	0.08135951
151	0xbd296a35	-0.041361053
152	0x3d88fcb5	0.06688825
153	0x3d55dafd	0.052210797
154	0xbd8688ae	-0.06569038
155	0x3d1c1a24	0.038110867
156	0x3dae966f	0.08524787
157	0x3ddc7874	0.10765162
158	0xbc39a96b	-0.011331896
159	0x3db15300	0.08658409
160	0xbd603eba	-0.05474732
161	0x3d454680	0.048162937
162	0xbdac3a24	-0.08409527
163	0xbd1d7b05	-0.0384474
164	0x3d938023	0.072021745
165	0xbc6dd023	-0.014514956
166	0xbd1de456	-0.038547836
167	0x3cd179ca	0.025570769
168	0xbd049b28	-0.03237453
169	0xbbbb7924	-0.005721228
170	0x3d5a9e90	0.053373873
171	0xbdb17954	-0.0866572
172	0x3d0b9b16	0.03408345
173	0xbd7d2910	-0.06180674
174	0x3d0f8c72	0.03504605
175	0xbdb30bc5	-0.08742479
176	0x3dac3336	0.08408205
177	0xbd086968	-0.03330365
178	0x3d814cf1	0.063135035
179	0x3d35129b	0.044207197
180	0x3cc2cc6b	0.023779115
181	0x3cceb368	0.025232032
182	0x3daa850c	0.08326158
183	0xbcb60bdc	-0.022222452
184	0xbd887451	-0.066628106
185	0x3da0179b	0.078170024
186	0xbcdb10a6	-0.026741337
187	0x3d4297cb	0.047508042
188	0x3d308882	0.043098934
189	0x3da13267	0.078709416
190	0x3d96483e	0.07337998
191	0x3d351dea	0.04421798
192	0xbd6277c6	-0.055290006
193	0xbd951f1d	-0.07281325
194	0xbd4b471e	-0.04962837
195	0x3da5c1c7	0.08093601
196	0x3d83ea01	0.06441117
197	0xbca85689	-0.020549076
198	0x3d828c36	0.06374399
199	0xbd51ad28	-0.051190525
200	0xbd43b89a	-0.04778347
201	0xbdb25c89	-0.08709056
202	0xbd5db491	-0.05412728
203	0x3c0ebe30	0.008712336
204	0x3db29591	0.08719934
205	0x3bd086b5	0.0063637146
206	0x3a4f74b4	0.00079138135
207	0x3d90638e	0.070502385
208	0xbbbed8b5	-0.0058241733
209	0xbd5e17b6	-0.05422183
210	0x3d9e72d5	0.07736746
211	0xbd1f0b4a	-0.038829125
212	0xbd2e2b9d	-0.04252206
213	0xbc9754ed	-0.018473113
214	0x3d39d72c	0.04537122
215	0x3d5b39f9	0.053522084
216	0xbc9f8488	-0.019472376
217	0x3cb5951a	0.022165824
218	0xbd6ee2e6	-0.058321856
219	0x3d420f6c	0.04737799
220	0xbd847f7f	-0.064696305
221	0xbc950500	-0.01819086
222	0x3d70a63d	0.058752287
223	0x3d872d2b	0.06600412
224	0xbd456a0a	-0.04819683
225	0xbbf1c519	-0.007378232
226	0x3a15ee3a	0.00057193974
227	0xbd426ba0	-0.04746592
228	0xbd823cd6	-0.0635926
229	0xbd98ceba	-0.07461305
230	0xb8a5369f	-7.877987e-05
231	0xbd228bc4	-0.039684072
232	0x3cac0d8c	0.021002553
233	0x3d9f27b6	0.07771246
234	0x3d1b6fcd	0.03794842
235	0x3d9bcd70	0.076075435
236	0x3d4b62ec	0.049654886
237	0xbd9bdbbf	-0.076102726
238	0xbd08ba5f	-0.033380862
239	0xbd43505f	-0.04768407
240	0xbd9b3424	-0.075783044
241	0xbd39cd1e	-0.04536163
242	0xbd442408	-0.047885925
243	0x3d3693f3	0.04457469
244	0xbd16d25f	-0.03682172
245	0xbd15246e	-0.036411695
246	0xbd92b2fa	-0.07163043
247	0x3cb1ab6c	0.021688186
248	0x3d974d7b	0.07387825
249	0xbd87e9a0	-0.06636357
250	0x3d8887c9	0.06666524
251	0x3c60cb49	0.013720342
252	0xbda57c8b	-0.08080395
253	0x3d92c9f0	0.07167423
254	0xbd63613e	-0.05551266
255	0x3cf35c3f	0.029707072

fc3.bias f4 [2]
0	0xbd895046	-0.06704764
1	0x3db0d2ed	0.08633981

fc1.weight f4 [128, 84]
0	0xbb3c4cf6	-0.0028732396
1	0xbdfad98b	-0.12248524
2	0x3d82cc27	0.06386595
3	0xbd223a9b	-0.03960667
4	0xbd6fc169	-0.05853406
5	0xbd9a5986	-0.075366065
6	0xbdbfe5cd	-0.09370003
7	0xbce10e1a	-0.027472544
8	0x3d794689	0.060858283
9	0xbce6f50c	-0.02819302
10	0xbda544fa	-0.08069797
11	0x3db9600c	0.090515226
12	0xbdd11755	-0.10209528
13	0xbdcfd994	-0.101489216
14	0xbc87ad9c	-0.016562276
15	0xbdcb49a8	-0.09926158
16	0x3db47b3c	0.088125676
17	0x3c6207a2	0.013795765
18	0x3c6f0393	0.0145882545
19	0x3db56e6b	0.08858951
20	0xbe10e1fc	-0.14148706
21	0xbdd25543	-0.10270169
22	0x3d96ffe2	0.073730245
23	0xbd9beabd	-0.07613132
24	0xbddcf561	-0.1078899
25	0xbc50a3b7	-0.012734345
26	0xbdc0f44e	-0.094215974
27	0xbdc9e230	-0.09857595
28	0xbca5dc76	-0.020246726
29	0xbd7f73be	-0.06236624
30	0xbd94cafb	-0.07265278
31	0xbc3d51a9	-0.011555114
32	0x3d8a3522	0.067484155
33	0x3d76cd3d	0.060254324
34	0xbda3fd5b	-0.08007308
35	0x3c3d3ddd	0.011550394
36	0x3da1f14b	0.07907351
37	0xbd1b4266	-0.03790512
38	0xbd21d444	-0.039509073
39	0x3cb8b484	0.022547014
40	0xbdae80bb	-0.08520647
41	0xbd990dd0	-0.07473338
42	0x3d3d7876	0.04625746
43	0x3d294dc0	0.041333914
44	0x3cda67f4	0.026660897
45	0xbb625f4d	-0.0034541667
46	0xba8baa79	-0.0010655663
47	0x3d0d3433	0.03447361
48	0x3cca5285	0.024697552
49	0xbdd5d2d0	-0.104406
50	0xbd87e7cf	-0.06636011
51	0xbdbc4850	-0.0919348
52	0x3c1845b5	0.009293963
53	0xbd85b4d3	-0.0652863
54	0x3d582ee9	0.052779112
55	0x3c0b5185	0.0085033225
56	0x3dbc87d8	0.09205598
57	0x3c2f5281	0.010700823
58	0x3dbf356f	0.093363635
59	0x3d91cf90	0.071196675
60	0xbd73dd48	-0.059537202
61	0xbd538042	-0.051635988
62	0x3dc5e082	0.09661962
63	0xbcf50dc6	-0.029913794
64	0x3dd08ab7	0.10182708
65	0x3d79daf1	0.060999814
66	0x3c4508be	0.01202601
67	0x3ccdf6f0	0.025142163
68	0x3d051b58	0.03249678
69	0xbdd584aa	-0.10425694
70	0xbdb42131	-0.08795393
71	0xbd1e6529	-0.038670693
72	0x3d87b4a4	0.06626251
73	0x3c2d9b4f	0.0105961105
74	0xbdbbc9c1	-0.09169341
75	0x3d112109	0.035431895
76	0x3d77647c	0.060398564
77	0xbd00a0a7	-0.03140321
78	0xbd80937c	-0.062781304
79	0xbd4707cf	-0.04859143
80	0xbd396217	-0.04525956
81	0x3d9f0a97	0.07765692
82	0x3dc584c1	0.096444614
83	0x3d814245	0.06311468
84	0x3abc45ea	0.0014364098
85	0xbda256a9	-0.07926685
86	0xbe04cdf1	-0.12969185
87	0xbd8c85ac	-0.068614334
88	0xbd27c0e3	-0.040955435
89	0x3d95b1be	0.07309292
90	0x3cf231c4	0.029564746
91	0xbdc83112	-0.097749844
92	0x3d7e198c	0.062036082
93	0xbca4da39	-0.020123588
94	0x3d4ee1cb	0.0505083
95	0xbda2405e	-0.07922433
96	0xbda073f2	-0.07834615
97	0x3d35d003	0.04438783
98	0xbd93274e	-0.07185231
99	0xbdb74393	-0.08948436
100	0xbd695577	-0.05696627
101	0xbd81dbe1	-0.06340767
102	0x3d27e6a1	0.04099143
103	0x3d4dccf5	0.05024429
104	0xbdfab31e	-0.12241195
105	0x3bd7ae09	0.006582026
106	0xbe0af1eb	-0.13568847
107	0x3d4d9cc9	0.05019835
108	0xbd15a0ee	-0.036530428
109	0x3d830ee7	0.06399327
110	0xbd9e36a7	-0.07725268
111	0xbdb6e6a3	-0.08930709
112	0xbdc1dbeb	-0.09465774
113	0x3cfb62a9	0.030686693
114	0xbd2b9579	-0.041890595
115	0xbd069809	-0.032859836
116	0xbcdac8c2	-0.026707057
117	0x3d85e945	0.06538633
118	0x3c6852ce	0.014179898
119	0xbdc3c7c8	-0.095595896
120	0xbdb58c7b	-0.08864685
121	0x3c521dcb	0.012824486
122	0xbe126162	-0.14294961
123	0xbcdcafb6	-0.026939254
124	0xbc8d9356	-0.01728217
125	0xbd1c53cc	-0.038165852
126	0x3d77ca1a	0.060495473
127	0xbe121b5f	-0.14268254
128	0x3dac2903	0.0840626
129	0xbdc4f8c2	-0.09617759
130	0xbcd470ff	-0.025932787
131	0xbd2b295f	-0.0417875
132	0xbdbb3046	-0.09140067
133	0x3bc21d90	0.0059239343
134	0xbd85e900	-0.06538582
135	0xbde02dd9	-0.10946245
136	0xbdee7d07	-0.11644941
137	0xbde5a849	-0.112137385
138	0xbdd1d6fc	-0.10246083
139	0xbe13d028	-0.14434874
140	0x3d5839dd	0.052789558
141	0xbd0a856f	-0.03381866
142	0xbda2aa1c	-0.07942602
143	0xbb95354c	-0.0045534726
144	0xbdafcf09	-0.08584411
145	0x3b0d2a9e	0.0021540294
146	0x3c8bf520	0.017084658
147	0x3c02fc86	0.007994777
148	0xbb013112	-0.0019713086
149	0x3dcf01f2	0.10107793
150	0xbd8a2024	-0.067444116
151	0xbde16419	-0.1100542
152	0x3d9c0180	0.076174736
153	0x3cfe6e05	0.03105832
154	0xbd300efc	-0.04298304
155	0xbb314bbe	-0.0027053203
156	0x3e1282bd	0.14307685
157	0x3c44bec1	0.01200837
158	0xbd91902d	-0.071075775
159	0x3d3408d5	0.043953735
160	0x3deee414	0.11664596
161	0x3e0df674	0.13863546
162	0xbdcd8a39	-0.100361295
163	0x3da5c728	0.08094627
164	0x3d6422c2	0.05569721
165	0x3d113db5	0.03545924
166	0xbc2a743a	-0.010403687
167	0xbd351088	-0.04420522
168	0xbdebf7d4	-0.11521879
169	0x3cf5c9e3	0.030003494
170	0xbbb43a4b	-0.005500113
171	0x3c9b8e0c	0.018988632
172	0xbd8015b2	-0.06254138
173	0x3d06d233	0.032915305
174	0xbce3f194	-0.027825154
175	0x3d22ed4c	0.039777085
176	0xbe39cefc	-0.18145365
177	0xbd897fbd	-0.06713817
178	0x3df60b43	0.12013867
179	0xbd8fedbd	-0.07027767
180	0x3dc3daba	0.09563203
181	0xbe12fb06	-0.1435357
182	0x3dac04c6	0.08399348
183	0xbc814aff	-0.015782831
184	0x3dc33b0e	0.09532748
185	0x3b806f4d	0.003919518
186	0x3e017c5a	0.12645093
187	0x3e52c176	0.20581612
188	0x3cf00922	0.02930123
189	0x3c5c01ca	0.013428161
190	0xbc75ae46	-0.014995163
191	0xbd9b9e91	-0.075986035
192	0x3e42137e	0.18952748
193	0x3e730547	0.23732482
194	0x3d19828b	0.03747801
195	0xbd5452f6	-0.05183693
196	0xbd9d0c90	-0.07668412
197	0x3e21ef38	0.15813911
198	0xbe48970a	-0.19588867
199	0xbd70b3fb	-0.058765393
200	0xbd8489e2	-0.064716116
201	0x39a996b3	0.00032346472
202	0x3d47dca9	0.048794422
203	0xbdb1f11e	-0.086885676
204	0xbd06cc4b	-0.032909673
205	0xbe9359ef	-0.2877955
206	0x3e284487	0.16432391
207	0xbddc881b	-0.107681476
208	0x3d3fc3bb	0.046817522
209	0xbec8c6ef	-0.39214274
210	0x3e35d228	0.1775595
211	0xbe372c5d	-0.17888017
212	0x3c509077	0.012729756
213	0xbe0f7773	-0.1401041
214	0xbe5e872e	-0.21731254
215	0xbdbbfd2a	-0.091791466
216	0x3c554252	0.0130163
217	0x3dc5c380	0.09656429
218	0xbd41f19c	-0.047349557
219	0xbe1a7bc2	-0.15086272
220	0x3e14c7e2	0.14529374
221	0xbde5501e	-0.11196922
222	0xbc0122c2	-0.007881822
223	0x3cab3f11	0.020904096
224	0xbd00879b	-0.031379323
225	0x3e16acfd	0.14714427
226	0x3e13c08f	0.14428924
227	0xbd72dfbc	-0.0592954
228	0xbddd1ce3	-0.10796525
229	0x3cbc179e	0.02296048
230	0xbe026f7b	-0.12737839
231	0xbcc43b15	-0.023953954
232	0xbdb19f8c	-0.08673009
233	0xbdd99159	-0.10623426
234	0x3d8893ae	0.06668793
235	0xbda0f103	-0.07858469
236	0x3dc2c3d8	0.095100105
237	0x3e24af94	0.16082603
238	0x3e4b09b5	0.19827922
239	0xbbae1e7b	-0.005313692
240	0xbe0a3a34	-0.13498765
241	0x3dcf432b	0.10120233
242	0xbe046339	-0.12928475
243	0x3d8c3c32	0.06847419
244	0xbd5562a2	-0.052096017
245	0x3c0833f7	0.008313171
246	0x3b90418b	0.0044023446
247	0x3e038d8b	0.12846963
248	0xbdd51f75	-0.104063906
249	0xbb9827b4	-0.004643405
250	0x3df750fc	0.120759934
251	0x3db06f90	0.08615029
252	0xbdbe2748	-0.09284836
253	0xbd207ab1	-0.039179508
254	0x3cbb3bc9	0.022855656
255	0xbd33ce27	-0.043897774

fc1.bias f4 [128]
0	0xbd8f6ed6	-0.07003562
1	0x3d991821	0.07475305
2	0x3dc1dc5c	0.09465858
3	0xbdfc9eb0	-0.12334955
4	0xbe19b587	-0.15010653
5	0x3b15ee0d	0.0022877485
6	0x3d6bd268	0.057573706
7	0xbd50df01	-0.050993923
8	0xbd967b8e	-0.07347785
9	0x3bfcfeac	0.007720789
10	0x3cdc298c	0.02687528
11	0x3d49c8e6	0.049263857
12	0x3d97420c	0.07385644
13	0xbd86eca6	-0.06588106
14	0x3db2b844	0.08726552
15	0xbe16c32d	-0.14722891
16	0xbc9a1114	-0.018806972
17	0xbb36a942	-0.0027871882
18	0xbd98e836	-0.07466166
19	0xbcfe9bd1	-0.031080158
20	0xbd2c0bb7	-0.04200336
21	0xbc901061	-0.017585935
22	0x3bdc6214	0.006725559
23	0x3d606ed4	0.054793194
24	0xbdddf114	-0.10836998
25	0xbc1c5ca9	-0.009543576
26	0x3c57a563	0.01316199
27	0xbd305047	-0.04304531
28	0xbd58578e	-0.052817874
29	0xbcd3db8b	-0.025861522
30	0xbcc5bb4c	-0.024137162
31	0x3d6098ba	0.05483315
32	0xbdd1acc8	-0.102380335
33	0x3db509d5	0.08839766
34	0xbd6ed1f6	-0.058305703
35	0xbe068a34	-0.13138658
36	0x3d8ee167	0.06976586
37	0x3c9cbf17	0.019134087
38	0xbd211aac	-0.039332077
39	0xbd23ceb0	-0.039992034
40	0x3d618744	0.05506064
41	0xbcd4559f	-0.025919734
42	0xbdc6cca1	-0.097069986
43	0xbe11acc6	-0.14226064
44	0x3c7252c9	0.014790245
45	0xbd95c700	-0.07313347
46	0x3c9a7cb4	0.018858291
47	0x3da904fa	0.08252902
48	0x3ce04f66	0.02738161
49	0xbd886db2	-0.06661548
50	0xbda01cb3	-0.07817974
51	0xbc774bc6	-0.015093749
52	0xbdd74706	-0.105115935
53	0xbded29ea	-0.1158026
54	0x3dab17ab	0.08354124
55	0xbdd77a55	-0.1052138
56	0xbadc3118	-0.0016799299
57	0x3e0e1b31	0.1387756
58	0x3b01e4ad	0.001982014
59	0x3d734fa5	0.059402127
60	0xbcba16f6	-0.022716027
61	0xbdd7b535	-0.105326094
62	0x3d1b8f66	0.037978552
63	0xbd772620	-0.060339093
64	0x3aa9e452	0.0012961722
65	0xbde0b898	-0.109727085
66	0xbdd517d0	-0.104049325
67	0xbd4bd786	-0.049766086
68	0x3c598346	0.013275927
69	0x3d091172	0.033463903
70	0x3defe3ee	0.11713396
71	0xbdce0e60	-0.100613356
72	0xbd16ac94	-0.036785677
73	0xbd6f3b76	-0.058406316
74	0xbdc03373	-0.09384813
75	0xbdb58291	-0.08862794
76	0xbd949641	-0.07255221
77	0xbca6d73f	-0.02036631
78	0x3db269dd	0.08711598
79	0x3d6a85aa	0.05725638
80	0xbdab7028	-0.083710015
81	0x3c8830ff	0.016624926
82	0xbd50c3f8	-0.05096814
83	0x3c9db31e	0.019250449
84	0x3db8bfd1	0.09020961
85	0xbdb30c3c	-0.08742568
86	0xbd7e4178	-0.062074155
87	0x3cb63a63	0.022244638
88	0xbda46e94	-0.080289036
89	0xbd87a908	-0.06624037
90	0xbbbaa1c6	-0.0056955544
91	0xbcd96ddc	-0.026541643
92	0x3cc28767	0.023746205
93	0x3df04ddf	0.11733603
94	0x3dad5258	0.084629714
95	0x3d352e9f	0.044233914
96	0x3cdcb938	0.026943788
97	0xbb082a68	-0.002077723
98	0xbdb28b4c	-0.08717975
99	0xbd426451	-0.04745895
100	0x3d9fb257	0.077976875
101	0x3d71cb36	0.059031688
102	0xbd00b8bb	-0.031426173
103	0x3e0bdc51	0.13658263
104	0xbdd9e6e1	-0.1063974
105	0x3b47e006	0.0030498519
106	0x3db504e2	0.08838822
107	0x3d642db7	0.05570766
108	0x3d1df659	0.038565014
109	0xbd467180	-0.048448086
110	0xbe03bc77	-0.12864862
111	0xbe1163f6	-0.14198288
112	0x3ddad30f	0.106847875
113	0x3cb847fd	0.022495264
114	0xbdbf0673	-0.09327402
115	0x3ce0e619	0.02745347
116	0x3c41b0cc	0.011821937
117	0xbdd3509d	-0.1031811
118	0x3cae87d0	0.021304995
119	0x3d5fa8dd	0.0546044
120	0xbd599184	-0.05311729
121	0x3dafec8f	0.08590042
122	0xbd67c80f	-0.056587275
123	0xbdb51bad	-0.08843169
124	0x3e4387e0	0.19094801
125	0x3d1f033b	0.03882144
126	0xbda1756b	-0.07883724
127	0x3d897bb2	0.06713046

fc2.weight f4 [128, 128]
0	0x3d01ec20	0.031719327
1	0x3d386ca3	0.04502548
2	0xbd298349	-0.04138497
3	0x3d200c90	0.03907448
4	0x3c22751a	0.0099156145
5	0x3d1ecdd0	0.038770497
6	0xbcbb9700	-0.02289915
7	0x3dae5111	0.08511556
8	0xbd855e07	-0.06512075
9	0xbc8e3488	-0.017359033
10	0x3da57f8a	0.08080967
11	0xbda61d34	-0.08111039
12	0x3c2b32eb	0.0104491515
13	0xbda6c55a	-0.081431106
14	0x3da52c2f	0.08065068
15	0xbdc1c0cd	-0.09460602
16	0xbd69fb15	-0.057124216
17	0xbceafb98	-0.028684422
18	0x3cf42e4b	0.02980723
19	0xbde0a02b	-0.109680496
20	0x3c8119bf	0.015759347
21	0xbcc51ead	-0.024062479
22	0xbcd2e4a4	-0.02574379
23	0x3b8faded	0.0043847472
24	0x3d2838ab	0.041069668
25	0x3c0c30f0	0.0085565895
26	0xbcbd3d36	-0.023100477
27	0x3da713cd	0.081580736
28	0x3d9ae5d0	0.075633645
29	0x3ce01332	0.027352903
30	0x3b714fad	0.0036821172
31	0xbdcfff70	-0.10156143
32	0xbd478069	-0.048706446
33	0xbdae7b3a	-0.08519597
34	0x3cff078b	0.031131526
35	0xbb46f7bb	-0.0030360061
36	0x3d786277	0.06064078
37	0xbd4d30fc	-0.050095543
38	0xbc79ab64	-0.015238617
39	0xbd6dfc24	-0.05810179
40	0xbd789610	-0.060689986
41	0x3bcef6a0	0.006316021
42	0xbc3dc88e	-0.0115834605
43	0xbb51c20b	-0.0032006528
44	0x3da72cf4	0.08162871
45	0xbd0ca361	-0.034335498
46	0xbd0cfed7	-0.03442272
47	0x3ce437db	0.027858665
48	0xbdaa469a	-0.083142474
49	0xbd7affad	-0.061278988
50	0x3daeca90	0.085347295
51	0x3d9443f9	0.07239527
52	0x3d60d244	0.054888025
53	0x3b879a4e	0.0041382676
54	0x3db20279	0.08691878
55	0x3d858ed8	0.06521386
56	0xbd88d2fd	-0.06680868
57	0xbc8afedc	-0.01696723
58	0x3c30fc44	0.010802332
59	0xbd6e19f8	-0.058130234
60	0xbdb1e91d	-0.08687041
61	0xbd71c089	-0.059021506
62	0xbd72266d	-0.059118677
63	0xbd01a554	-0.03165181
64	0xbd9ae289	-0.075627394
65	0x3d2fb972	0.042901464
66	0x3c9251ad	0.017861212
67	0xbd2b3a28	-0.04180351
68	0xbd68acc9	-0.056805406
69	0xbda45f88	-0.08026034
70	0xbdb9f241	-0.090794094
71	0x3dab53ec	0.08365616
72	0xbc8b808a	-0.017029066
73	0xbd96b420	-0.07358575
74	0xbc1fedd6	-0.009761294
75	0x3d9f8d10	0.077905774
76	0xbd9db5e2	-0.07700707
77	0xbba298d0	-0.0049620643
78	0x3d490305	0.049075145
79	0xbd151bb1	-0.03640336
80	0x3d2b18ec	0.041771814
81	0xbcfac135	-0.030609706
82	0x3d993547	0.07480865
83	0x3d13470e	0.035956435
84	0x3c264388	0.010147937
85	0xbd584ddd	-0.05280863
86	0x3dadc8a2	0.08485533
87	0x3dac834b	0.0842348
88	0xbd35449a	-0.044254877
89	0x3d52a470	0.05142635
90	0xbd922f2f	-0.07137906
91	0xbe170c86	-0.14750871
92	0x3d125a40	0.0357306
93	0xbd8a4ddd	-0.067531325
94	0x3d9f3a27	0.077747636
95	0xbd1ea57f	-0.038732048
96	0x3dc585da	0.09644671
97	0x3d2a3a9a	0.041559793
98	0x3dab3375	0.08359424
99	0x3ae95423	0.0017801564
100	0xbd4ae416	-0.049533926
101	0x3d4098b6	0.047020636
102	0x3d595063	0.05305518
103	0xbd864100	-0.065553665
104	0xbd9807c4	-0.07423356
105	0xbd112b58	-0.035441726
106	0xbd92e667	-0.07172852
107	0xbc216801	-0.009851457
108	0x3da96c6f	0.08272635
109	0x3c5b26a6	0.013375914
110	0xbd280ac3	-0.04102589
111	0xbd050d2c	-0.032483265
112	0xbd26fcd3	-0.040768456
113	0xbda8a3a6	-0.082343385
114	0x3d367b79	0.044551346
115	0xbc91ddcd	-0.017805958
116	0x3b9b109f	0.004732206
117	0x3d1f3652	0.038870163
118	0x3d5087e2	0.050910838
119	0x3d071016	0.032974325
120	0x3c78d8de	0.015188424
121	0xbd790aa7	-0.060801174
122	0x3d258c39	0.04041693
123	0xbd6ad41b	-0.057331186
124	0xbe0149f8	-0.12625873
125	0xbd490322	-0.049075253
126	0xbd765fa6	-0.06014981
127	0xbdb3baae	-0.08775841
128	0x3d1bc705	0.038031597
129	0x3d16e036	0.036834918
130	0xbdacd689	-0.08439357
131	0xbd3903a2	-0.04516948
132	0x3d7bbf5a	0.061461784
133	0xbd5818e5	-0.052758116
134	0xbd191761	-0.03737581
135	0xbd4e3e95	-0.05035265
136	0x3da58b72	0.08083238
137	0xbd27aafe	-0.040934555
138	0x3dabcf39	0.08389134
139	0xbc9f0b92	-0.019414697
140	0x3ca00b18	0.01953654
141	0x3d95ac1e	0.073082194
142	0xbe3da3f8	-0.1851958
143	0x3d89f627	0.06736403
144	0xbcf52f5c	-0.02992981
145	0x3d5f4aab	0.05451457
146	0x3c258b37	0.010103992
147	0x3e26e575	0.16298468
148	0xbc8dd151	-0.017311724
149	0xbcf29e81	-0.029616596
150	0xbd75d77c	-0.060019955
151	0xbd9a1a83	-0.07524588
152	0x3c90224b	0.017594477
153	0x3cdfb04d	0.027305746
154	0x3c71465f	0.01472625
155	0xbd09fa60	-0.03368604
156	0xbc6a173b	-0.014287765
157	0x3e0217fa	0.12704459
158	0xbbebfeb4	-0.007201994
159	0x3d1e83df	0.03869998
160	0xbd6d4431	-0.05792636
161	0xbe44ad34	-0.19206697
162	0xbcf088ed	-0.029362166
163	0xbd6968e8	-0.056984812
164	0x3d90a0b8	0.07061905
165	0xbd4a570e	-0.049399428
166	0x3e2339f9	0.15940084
167	0xbe8ca7cd	-0.27471772
168	0x3d731657	0.059347477
169	0xbc22891a	-0.009920383
170	0x3d996161	0.07489277
171	0x3d18bdc2	0.037290342
172	0xbcd7fead	-0.026366556
173	0xbda0e35d	-0.07855866
174	0xbc8976bb	-0.016780248
175	0x3c2f6108	0.010704286
176	0xbdff576e	-0.12467848
177	0x3dab23d5	0.08356444
178	0x3c28ffc0	0.010314882
179	0x3d871401	0.06595612
180	0xbcd5f473	-0.026117539
181	0xbdbee344	-0.09320691
182	0x3d252b5c	0.040324554
183	0xbdad5f37	-0.084654264
184	0xbd602fc0	-0.054733038
185	0x3d825d6a	0.063654736
186	0x3c356da5	0.011073505
187	0xbe132073	-0.14367847
188	0x3d2d78a8	0.042351395
189	0xb9d240f8	-0.00040102727
190	0x3daa288d	0.08308516
191	0x385fcc9e	5.3357908e-05
192	0x3caedb06	0.021344673
193	0x3b7228d7	0.0036950612
194	0xbd91ed1f	-0.071253054
195	0x3da02e8c	0.07821378
196	0x3d423e8c	0.04742293
197	0x3d16b972	0.03679795
198	0x3d94734d	0.072485544
199	0xbd08e1b8	-0.033418387
200	0x3d76a0e8	0.060212046
201	0xbd324153	-0.04351933
202	0xbb0fa325	-0.002191731
203	0x3def4ad0	0.11684191
204	0xbd5f77cd	-0.05455761
205	0xbbffdaa4	-0.0078080464
206	0x3d63b32c	0.055590793
207	0xbd891056	-0.06692569
208	0x3b4a9123	0.0030909262
209	0xbc535071	-0.012897597
210	0xbd4cc85d	-0.04999577
211	0xbd64f225	-0.05589499
212	0xbeb0d919	-0.34540632
213	0x3db9b2d2	0.090673104
214	0xbbf1babc	-0.007376997
215	0x3cc78ee3	0.024360126
216	0xbb954c58	-0.00455622
217	0xbc211867	-0.009832478
218	0xbd959fb7	-0.07305854
219	0xbf4a8483	-0.79108447
220	0x3df607b4	0.12013188
221	0x3cc0d3ae	0.023538437
222	0xbd288ae4	-0.04114808
223	0xbda701c6	-0.08154635
224	0xbf050f43	-0.5197641
225	0xbda0e7f6	-0.07856743
226	0x3d7e06f5	0.062018353
227	0x3d8d5128	0.06900245
228	0x3c646cae	0.013941927
229	0xbd953c87	-0.07286935
230	0x3c883df4	0.016631104
231	0x3e25f3e8	0.16206324
232	0x3d99865f	0.074963324
233	0x3ce8e721	0.028430523
234	0x3da79516	0.08182733
235	0xbe4ba63b	-0.1988763
236	0xbcfdd5f1	-0.030985804
237	0x3d87565c	0.066082686
238	0xbc8e9ef0	-0.017409772
239	0x3cc1ffc2	0.023681525
240	0x3d58d4bb	0.05293725
241	0x3d37acd0	0.04484254
242	0xbcdf33dd	-0.02724641
243	0xbcc35c30	-0.02384767
244	0x3d488f2f	0.048964676
245	0xbc42a22b	-0.011879484
246	0xbdba4c2b	-0.09096559
247	0xbe0f7c6a	-0.14012304
248	0xbd9351bb	-0.07193323
249	0x3b77102f	0.0037698855
250	0x3d5f49fe	0.054513924
251	0xbd884bee	-0.066551074
252	0x3cec19c5	0.028820882
253	0x3dad2f80	0.084563255
254	0x3d161c3a	0.036648013
255	0xbd3b5d0b	-0.04574303

fc2.bias f4 [128]
0	0x3d366a43	0.044534933
1	0xbd8c38e1	-0.06846786
2	0xbe085ba0	-0.13316202
3	0xbd3be7b2	-0.04587526
4	0xbdc1a132	-0.09454574
5	0xbe000aca	-0.12504116
6	0x3e62c52f	0.22145532
7	0x3e2ef63d	0.1708612
8	0x3d55d09c	0.0522009
9	0xbc1e7405	-0.009671216
10	0xbcab6fdb	-0.02092736
11	0xbddfffc5	-0.10937456
12	0xbe2edbff	-0.1707611
13	0x3d18c282	0.037294872
14	0xbd88a13a	-0.066713765
15	0xbd8c97f1	-0.06864918
16	0x3e09a776	0.13442788
17	0x3e5fa49f	0.21840142
18	0xbd05b21e	-0.03264057
19	0xbd136c11	-0.035991732
20	0x3e8b64ec	0.27225435
21	0xbd186b03	-0.03721143
22	0x3d8f3605	0.06992725
23	0x3e68609a	0.226931
24	0xbe241a9d	-0.16025777
25	0xbbd0f476	-0.0063767983
26	0xbe3b6997	-0.18301998
27	0xbda65a02	-0.081226364
28	0xbe81de71	-0.25365022
29	0xbda6a46c	-0.0813683
30	0x3dc04a7d	0.093892075
31	0xbd9f85b9	-0.077891774
32	0xbdb3bca9	-0.087762184
33	0x3e0c122e	0.1367881
34	0xbd3f2469	-0.046665583
35	0x3c207369	0.009793141
36	0x3cf01a03	0.029309278
37	0xbe3b553a	-0.1829423
38	0x3c3dedea	0.011592368
39	0xbe19ca69	-0.1501862
40	0x3d673380	0.0564456
41	0x3d0425d0	0.032262623
42	0x3de20c4c	0.11037502
43	0xbdabe15f	-0.083925955
44	0xbe04989b	-0.1294884
45	0xbdd1621f	-0.10223793
46	0xbd6aff20	-0.057372212
47	0xbe1608d3	-0.14651804
48	0xbd0d35ac	-0.034475014
49	0x3e8fc17c	0.28077304
50	0x3da8aae4	0.0823572
51	0xbe421fd0	-0.18957448
52	0xbdb64134	-0.08899155
53	0xbb00ae3a	-0.0019635097
54	0x39cbb489	0.00038853686
55	0xbd852877	-0.06501859
56	0x3cb89b37	0.02253495
57	0xbce62d1a	-0.028097678
58	0xbcfd56f6	-0.030925255
59	0xbe02ccc5	-0.12773426
60	0xbe2016d1	-0.15633704
61	0xbdbe26a5	-0.092847146
62	0xbe7ce597	-0.24696957
63	0xbe2492b3	-0.16071586
64	0x3d21daa0	0.039515138
65	0xbd6e18be	-0.058129065
66	0x3e89778d	0.26849023
67	0x3e3b3fda	0.18286076
68	0x3d9ac0e7	0.075563245
69	0xbd3e129f	-0.046404477
70	0x3cce998f	0.025219707
71	0xbd42fc0d	-0.047603656
72	0xbc9e1763	-0.019298261
73	0x3d8b33c5	0.06796984
74	0xbceb2f24	-0.028709002
75	0xbdf6addd	-0.120448805
76	0x3b2c86ea	0.0026325532
77	0xbe01b8f2	-0.12668207
78	0xbda7bcb0	-0.08190286
79	0xbe6901df	-0.2275462
80	0xbd59c3ca	-0.053165235
81	0xbd66933e	-0.056292765
82	0x3d6886e5	0.05676927
83	0xbdfc205d	-0.1231086
84	0xbdb96b71	-0.09053696
85	0xbd30f528	-0.04320255
86	0x3d0ef795	0.03490408
87	0x3ecb3277	0.3968694
88	0xbda0797f	-0.078356735
89	0xbb4f454e	-0.0031627002
90	0xbd9ebc4f	-0.07750761
91	0x3c95d9cc	0.01829233
92	0xbdb96bcd	-0.090537645
93	0xbc3a1cc4	-0.011359397
94	0xbe188a2b	-0.14896457
95	0x3e58142f	0.2110145
96	0x3dc0fe58	0.09423512
97	0x3ceb6e10	0.028739005
98	0xbe77d139	-0.24200906
99	0xbd16fca9	-0.03686205
100	0xbd5d2d87	-0.053998496
101	0xbea2a557	-0.3176677
102	0xbe33c424	-0.1755529
103	0x3cfa1726	0.030528616
104	0xbdd1239f	-0.10211872
105	0x3c9c7939	0.019100772
106	0xbde262c3	-0.110539936
107	0xbd573436	-0.052540027
108	0xbdddcdbe	-0.10830258
109	0x3ca48327	0.02008207
110	0xbccd1504	-0.025034435
111	0xbdc34318	-0.095342815
112	0xbd8e95b7	-0.069621496
113	0xbe017098	-0.12640607
114	0xbdfd70ed	-0.123750545
115	0xbd9c6073	-0.07635584
116	0x3cdeebc3	0.02721203
117	0x3e8b060c	0.2715305
118	0xbd05c395	-0.032657225
119	0xbe052fc0	-0.13006496
120	0xbd927a01	-0.07152177
121	0x3e877657	0.26457474
122	0xbca672cd	-0.020318413
123	0xbdc68e2a	-0.096950844
124	0xbd85cade	-0.065328345
125	0xbcaac778	-0.020847067
126	0xbd16672f	-0.036719497
127	0xbe637091	-0.2221091
