saved_models/episode_600/agent_8.pth (torch, 738018 bytes, 44 tensors)

fc1.weight f4 [128, 5]
0	0xbf1928cd	-0.5982788
1	0x3ef40ff5	0.47668424
2	0xbd0c224c	-0.034212396
3	0xbe2348b7	-0.15945707
4	0xbe10271a	-0.14077416
5	0x3dc18896	0.0944988
6	0xbe81d9df	-0.25361535
7	0x3ec6e0a5	0.38843265
8	0x3e52e2c8	0.20594323
9	0x3ec32b4f	0.3811898
10	0x3e8cf1f0	0.27528334
11	0xbe3ee84a	-0.18643299
12	0xbdaee278	-0.08539289
13	0xbd471a5c	-0.048609123
14	0x3e25590f	0.16147254
15	0x3e47b1ec	0.19501466
16	0xbea78d2e	-0.327249
17	0x3e6484b7	0.22316252
18	0xbe04e4e5	-0.12977941
19	0x3e435708	0.19076169
20	0x3e2ae732	0.16689757
21	0xbdbed337	-0.0931763
22	0x3e552086	0.20813188
23	0x3d687be1	0.056758765
24	0x3e3fc466	0.18727264
25	0x3d30d1b4	0.04316874
26	0x3ebd2483	0.3694192
27	0xbe378885	-0.17923172
28	0xbe7f73d9	-0.24946536
29	0xbed8e03f	-0.42358586
30	0x3e42ad6b	0.19011466
31	0x3eb0fc8a	0.34567672
32	0x3d3c0b85	0.045909423
33	0x3e8a7590	0.27042818
34	0xbe1f6c8b	-0.1556875
35	0x3bbd3f3e	0.0057753613
36	0x3e21109f	0.15728997
37	0xbe0db816	-0.13839754
38	0x3ecba230	0.39772177
39	0x3dcb052e	0.09913097
40	0x3e5fc5bf	0.21852778
41	0x3e726563	0.23671488
42	0xba027b29	-0.0004977459
43	0x3d2ae29f	0.04172003
44	0x3e754697	0.23952709
45	0xbb6a4fe9	-0.0035753197
46	0x3c77eba9	0.015131869
47	0x3ed6cef6	0.41954774
48	0xbd8a68b3	-0.06758251
49	0xbc3d55ae	-0.011556072
50	0xbe271d86	-0.16319856
51	0x3e471d30	0.19444728
52	0xbe85a98b	-0.26105914
53	0xbd8dbb7f	-0.06920528
54	0xbd709cbd	-0.058743227
55	0xbe4b72fc	-0.19868082
56	0xbe31a86c	-0.17349404
57	0xbe8429ae	-0.2581305
58	0xbe9160f8	-0.28394294
59	0xbe8511ee	-0.25990242
60	0xbebb256b	-0.36551985
61	0xbccc2d18	-0.024923846
62	0xbe638918	-0.22220266
63	0xbe8fcb3f	-0.28084752
64	0xbe2d8515	-0.16945298
65	0x3e365f0d	0.17809696
66	0x3ebbcd8c	0.36680257
67	0xbeb20c60	-0.34775066
68	0xbea6981b	-0.32537922
69	0xbe248eeb	-0.16070144
70	0x3d94c4c2	0.07264091
71	0xbe29d298	-0.16584241
72	0x3e00c51d	0.12575193
73	0x3ebbbe95	0.3666884
74	0x3de90816	0.113784954
75	0x3d2eb9a9	0.042657528
76	0x3e2c0d14	0.16801864
77	0xbe8cc452	-0.2749353
78	0x3eb73cc9	0.35788563
79	0x3e589cfa	0.21153632
80	0xbda2350e	-0.07920276
81	0xbdac443f	-0.084114544
82	0xbe52d9c7	-0.20590888
83	0x3ee80da7	0.45322916
84	0xbde1998e	-0.11015616
85	0x3d6b8073	0.057495546
86	0xbd970ae7	-0.07375126
87	0xbe8c06ed	-0.27349034
88	0x3e9c9311	0.30580953
89	0xbe1ca32f	-0.15296625
90	0x3ed8712c	0.42273843
91	0xbee918bf	-0.45526692
92	0xbe24b7d4	-0.1608575
93	0x3e416e15	0.18889649
94	0x3e925e14	0.285874
95	0xbeb8e010	-0.36108446
96	0xbe87b078	-0.26501822
97	0xbf0450fd	-0.5168608
98	0x3dfee4c4	0.12445977
99	0x3e6e9df0	0.23302436
100	0x3e43de4e	0.19127771
101	0xbeaaeae9	-0.33382347
102	0xbedbfc23	-0.42965803
103	0xbed182c1	-0.4092007
104	0xbe304775	-0.17214759
105	0xbd427368	-0.04747334
106	0xbcc188dd	-0.023624832
107	0x3bd4bf4a	0.00649253
108	0x3e1cb0af	0.15301774
109	0x3e95afb1	0.29235604
110	0x3d8d94d1	0.0691315
111	0xbe6d75f0	-0.23189521
112	0xbea439bf	-0.32075307
113	0xbeb25d79	-0.3483694
114	0xbeb2be42	-0.3491078
115	0x3ef4ef56	0.4783885
116	0x3deed363	0.116614126
117	0x3ea5de76	0.32396287
118	0xbeb0648f	-0.3445172
119	0x3c7ecde7	0.015552021
120	0x3dda9bec	0.10674271
121	0x3d3c81a9	0.04602209
122	0xbe418303	-0.18897633
123	0x3ed1d0f8	0.40979743
124	0xbe6ecea1	-0.2332101
125	0xbe08779e	-0.1332688
126	0x3ecf99fe	0.40547174
127	0x3dd55a5f	0.104176275
128	0xbee42dfe	-0.4456634
129	0x3d92a167	0.07159691
130	0x3c0a66c3	0.008447352
131	0xbed183c1	-0.40920833
132	0x3dd5206f	0.10406577
133	0xbd5fbd9c	-0.054624185
134	0xbe619a65	-0.22031553
135	0x3e861991	0.2619138
136	0xbdc71143	-0.09720089
137	0xbe667791	-0.22506548
138	0xbd4eb7c8	-0.050468236
139	0xbd79a37e	-0.060946934
140	0x3d6d5141	0.057938818
141	0x3e9e17df	0.30877587
142	0xbdae2333	-0.085028075
143	0xbe9aca72	-0.3023258
144	0x3e1f7588	0.15572178
145	0x3d57d5ba	0.05269406
146	0xbd897445	-0.0671163
147	0xbeb14a0f	-0.34626815
148	0xbd48eb79	-0.04905269
149	0x3e0442dd	0.12916131
150	0x3f0581f2	0.52151406
151	0x3e6d8ac2	0.23197463
152	0xbe6b6e82	-0.22991374
153	0xbe5f28d7	-0.21792923
154	0x3e8eaad4	0.27864707
155	0xbddce55a	-0.10785933
156	0xbf515168	-0.8176484
157	0x3e2293ce	0.15876696
158	0x3e8c6a78	0.2742498
159	0x3e839620	0.25700474
160	0xbe2def9f	-0.1698594
161	0x3e8f2494	0.27957594
162	0xbeea9a18	-0.4582069
163	0x3e2282ff	0.15870284
164	0xbcdb054b	-0.026735922
165	0xbe186141	-0.1488085
166	0xbe55c4a9	-0.20875801
167	0x3dda6187	0.10663133
168	0x3e69e220	0.22840166
169	0x3e7021d4	0.23450404
170	0x3e42d784	0.19027525
171	0x3e74a271	0.23890091
172	0x3e256184	0.1615048
173	0x3baaabbb	0.00520846
174	0x3e496e08	0.1967088
175	0x3d62ea40	0.05539918
176	0xbe0fb102	-0.14032367
177	0xbe7cc821	-0.24685718
178	0xbe3d4f1c	-0.18487209
179	0x3e336366	0.17518386
180	0x3e2e4194	0.17017204
181	0x3d84712e	0.064669
182	0xbe1cb76b	-0.15304343
183	0x3e85a43a	0.26101857
184	0x3da26d0e	0.07930957
185	0xbe121848	-0.14267075
186	0xbecc9e59	-0.3996456
187	0x3db68f1e	0.08914016
188	0xbe33879a	-0.17532197
189	0xbebba47e	-0.36648935
190	0xbe67e62a	-0.22646394
191	0xbddbc3aa	-0.10730679
192	0xbebc6d7c	-0.3680228
193	0xbd9e1133	-0.07718124
194	0x3d7c7c3a	0.06164191
195	0x3eabb2b7	0.33534786
196	0xbeab8df5	-0.33506742
197	0x3c054dd1	0.008136229
198	0xbdc6e29f	-0.09711193
199	0xbde780db	-0.11303874
200	0xbf003142	-0.5007516
201	0x3cf3b9c3	0.029751664
202	0x3e0d36f7	0.13790499
203	0x3e90e8b8	0.2830255
204	0x3e6ce9a4	0.23136002
205	0x3ea1df0b	0.3161548
206	0xbee6753c	-0.45011318
207	0x3e858ac6	0.26082438
208	0xbe130f29	-0.14361252
209	0xbd8b111c	-0.06790373
210	0x3e62841d	0.2212071
211	0xbf0b2bb9	-0.5436359
212	0x3e43c749	0.1911899
213	0x3d2b2fa8	0.041793495
214	0xbec6e6c1	-0.38847926
215	0x3e8e32aa	0.2777303
216	0xbecf8bd3	-0.40536365
217	0xbe425809	-0.18978895
218	0x3e9290bf	0.28626058
219	0xbeb62e7b	-0.35582337
220	0x3ea96d93	0.3309141
221	0xbebd2fb1	-0.36950448
222	0xbd66a6e9	-0.05631152
223	0x3d5e3d6d	0.0542578
224	0xbeb0c828	-0.34527707
225	0x3dd48417	0.10376757
226	0xbe5e756c	-0.2172448
227	0x3e1d36cc	0.15352935
228	0x3ebd00eb	0.36914763
229	0xbe34da87	-0.17661487
230	0xbeab78af	-0.33490512
231	0xbed79a0c	-0.42109716
232	0xbe9dee01	-0.30845645
233	0xbe0ea20e	-0.13929006
234	0xbed25555	-0.41080728
235	0xbe7bd9b5	-0.24594767
236	0xbec57635	-0.38566747
237	0xbd0addbc	-0.03390287
238	0xbee09d62	-0.43870074
239	0xbe0b25b2	-0.13588598
240	0x3dd6cb28	0.10487968
241	0x3e5c1e2d	0.21495886
242	0x3c41223e	0.011787949
243	0x3e3f65bd	0.18691154
244	0xbeaa69b1	-0.3328376
245	0x3e143113	0.14471845
246	0x3ed3bd00	0.41355133
247	0x3d46d8f3	0.048546743
248	0xbeb9d003	-0.36291513
249	0xbd89f0e1	-0.06735397
250	0x3d885f28	0.066587746
251	0x3e49da4c	0.1971218
252	0xbf01bb77	-0.50676674
253	0x3ea25e30	0.31712484
254	0x3d152ad7	0.03641781
255	0xbe1ff785	-0.15621765

fc1.bias f4 [128]
0	0xbe816aa3	-0.2527667
1	0x3ed2c70b	0.41167483
2	0xbf1979b3	-0.59951323
3	0xbf193325	-0.59843665
4	0x3e9d76fb	0.30754837
5	0x3e95136e	0.29116386
6	0xbf6451ad	-0.8918713
7	0xbf247d42	-0.6425363
8	0x3f807bd3	1.0037788
9	0x3e422cee	0.18962452
10	0xbe400ece	-0.18755648
11	0x3ce01c79	0.027357327
12	0x3ec46a50	0.3836236
13	0x3e9b34fa	0.30313855
14	0xbf62f8d8	-0.88660955
15	0xbef1693e	-0.47150606
16	0xbd6ebd70	-0.05828613
17	0x3e37065e	0.17873523
18	0x3df59bd7	0.11992615
19	0xbead9864	-0.33905327
20	0x3e28ba5f	0.16477345
21	0xbf3cd816	-0.7376722
22	0xbeb19a94	-0.34688246
23	0x3e8cd05b	0.27502713
24	0xbefd8310	-0.49514055
25	0xbe3ad6c8	-0.18245995
26	0xbed4fff0	-0.41601515
27	0x3e74c7be	0.2390432
28	0x3c1e9bfe	0.009680746
29	0x3e4c36dd	0.19942804
30	0x3e91b10c	0.2845539
31	0xbecc3aad	-0.39888516
32	0xbe7e5d05	-0.24840172
33	0xbf2c2722	-0.6724721
34	0x3f883fcf	1.0644473
35	0x3e842a39	0.25813463
36	0xbf223e3e	-0.63376224
37	0xbed655f2	-0.41862446
38	0xbed42390	-0.41433382
39	0xbe3e8d71	-0.18608643
40	0xbf081c83	-0.53168505
41	0xbf3173f1	-0.6931754
42	0xbf36979c	-0.7132509
43	0xbe2d17fd	-0.16903682
44	0x3dfe9ead	0.12432609
45	0xbf0fedf8	-0.56222486
46	0x3df77a43	0.120838664
47	0xbec2bf58	-0.3803661
48	0x3f4a6481	0.79059607
49	0x3eecfc29	0.46286133
50	0xbf443870	-0.76648617
51	0x3e947ec5	0.29002967
52	0x3edae1c4	0.4275037
53	0xbd64e3db	-0.055881362
54	0xbf5a7a21	-0.85342604
55	0xbee24c00	-0.44198608
56	0x3e5b6883	0.21426587
57	0xbeea676a	-0.45782024
58	0xbf58199d	-0.8441408
59	0xbee47f91	-0.44628575
60	0xbf0a0b56	-0.5392355
61	0x3e99391b	0.2992638
62	0xbee7ba94	-0.45259535
63	0xbf1f8893	-0.6231777
64	0xbd9ffdf2	-0.07812108
65	0xbd6a2059	-0.057159755
66	0xbefbc495	-0.49173418
67	0xbf33e206	-0.7026676
68	0xbeca5ebf	-0.3952541
69	0x3e86fba5	0.26363865
70	0xbf3c165f	-0.73471636
71	0x3e5b3fa1	0.21410991
72	0xbe3ceaa4	-0.18448883
73	0xbf4753af	-0.77862066
74	0xbef9a016	-0.48754948
75	0xbf0406f1	-0.5157309
76	0xbf207820	-0.62683296
77	0xbee7ee8e	-0.4529919
78	0x3db64dd7	0.089015655
79	0x3e8b0c4f	0.27157828
80	0x3dc9dfdd	0.09857152
81	0xbf12a45e	-0.57282054
82	0xbcee43d2	-0.029085074
83	0x3e438601	0.19094087
84	0xbf09ec02	-0.53875744
85	0xbf524a15	-0.8214429
86	0xbe169247	-0.14704238
87	0xbe648f0c	-0.22320193
88	0x3e827d56	0.2548625
89	0x3f040496	0.515695
90	0xbe9181c6	-0.28419322
91	0x3ca4426c	0.020051204
92	0x3f8192f3	1.012297
93	0x3f372522	0.71541035
94	0xbe1f9c92	-0.1558707
95	0xbeebc2fd	-0.46047202
96	0xbf3a17ed	-0.7269276
97	0xbebab0c4	-0.36462986
98	0xbe01b6f2	-0.12667444
99	0xbf042414	-0.5161755
100	0xbe917cbe	-0.28415483
101	0xbf2d7c37	-0.6776766
102	0xbe7e3ae9	-0.2482716
103	0xbed04c46	-0.40683192
104	0xbef05528	-0.4693997
105	0xbf442e98	-0.76633596
106	0xbc6d86a0	-0.014497429
107	0x3f83649a	1.0265076
108	0xbf37628a	-0.71634734
109	0x3d29a639	0.041418288
110	0xbea3f988	-0.32026315
111	0x3f03d037	0.51489586
112	0xbf4c6237	-0.79837364
113	0x3f4c242c	0.79742694
114	0x3f089c62	0.5336362
115	0x3f05e04b	0.5229537
116	0x3d8dff57	0.06933468
117	0xbeb78c2b	-0.35849127
118	0x3f16bbbc	0.5888021
119	0xbf352566	-0.7076019
120	0xbeb27099	-0.3485153
121	0x3e950966	0.29108733
122	0xbeb3d639	-0.35124376
123	0xbe281a4d	-0.16416283
124	0x3f6c925e	0.9241084
125	0x3f07a19d	0.5298098
126	0x3f1c8a5b	0.61148614
127	0xbf01b311	-0.5066386

fc2.weight f4 [128, 128]
0	0xbd94983d	-0.072556
1	0x3da5087c	0.08058259
2	0xbe0c7fb3	-0.13720588
3	0x3dff83c7	0.124763064
4	0x3dc0a488	0.09406382
5	0x3e28c848	0.16482651
6	0x3e5d05cd	0.21584244
7	0x3db30505	0.08741192
8	0x3e5261d8	0.20545137
9	0x3dcdc87c	0.10048005
10	0x3dd15fe8	0.10223371
11	0xbd4e467b	-0.050360184
12	0x3d417df2	0.04723925
13	0x3e0e877c	0.1391887
14	0x3dfb134e	0.122595415
15	0x3da839cd	0.082141496
16	0xbdc5b0c5	-0.09652857
17	0xbd9cfcdc	-0.076654166
18	0xbe1c6120	-0.15271425
19	0xbd481131	-0.04884452
20	0x3dad6a4a	0.08467539
21	0x3ce37ba3	0.027768916
22	0xbd18f95a	-0.037347175
23	0x3e4f1081	0.2022114
24	0x3d8da669	0.06916506
25	0x3d133c77	0.035946336
26	0xbe454765	-0.19265516
27	0x3d8ae314	0.06781593
28	0x3d93231a	0.071844295
29	0x3d78d289	0.060747657
30	0x3e91cf2d	0.28478375
31	0xbdb6a924	-0.0891898
32	0xbd584478	-0.052799672
33	0x3e2cd429	0.16877808
34	0x3dea6a7b	0.11446091
35	0xbcd82a49	-0.02638735
36	0x3e2e871c	0.17043728
37	0xbdc52e33	-0.096279524
38	0xbbb51b94	-0.005526969
39	0xbe285067	-0.16436921
40	0x3dac57da	0.08415194
41	0x3e08a5f1	0.13344552
42	0xbc262cda	-0.010142529
43	0xbdaf97f9	-0.08573908
44	0xbe6c4df0	-0.23076606
45	0x3e0d5b10	0.13804269
46	0xbd9666dd	-0.07343838
47	0xbd7785f3	-0.06043048
48	0x3e4cc4bf	0.19996928
49	0x3e11b00b	0.14227311
50	0xbcdaeceb	-0.0267243
51	0x3e81e4e1	0.25369933
52	0x3e06370c	0.13106936
53	0xbc123441	-0.008923591
54	0x3d995029	0.074859925
55	0x3dd30bd4	0.103049904
56	0x3c5d6a67	0.013514138
57	0x3cf91831	0.030407043
58	0x3e1ace17	0.1511768
59	0x3db3b600	0.08774948
60	0x3debfef1	0.115232356
61	0xbd9392eb	-0.07205757
62	0xbe0ee5af	-0.13954805
63	0xbdb1e4a5	-0.086861886
64	0xbce5292c	-0.027973734
65	0x3d322647	0.043493535
66	0x3cab1c43	0.0208875
67	0x3e185950	0.1487782
68	0xbe17b56b	-0.14815299
69	0x3e0505b8	0.12990463
70	0xbd137145	-0.035996694
71	0x3e01ecbf	0.12687968
72	0x3ca3ad55	0.019980112
73	0x3c9b3024	0.018943854
74	0x3e105d85	0.14098175
75	0xbc7e5be1	-0.015524835
76	0xba998653	-0.0011713005
77	0x3df1015f	0.1176784
78	0x3d2ae8c3	0.041725885
79	0xbc926ff0	-0.017875642
80	0x3c8fa588	0.017534986
81	0x3d7468e2	0.059670337
82	0xbdaff883	-0.08592322
83	0xbb4ce7a8	-0.0031266008
84	0x3ddcb9a8	0.107775986
85	0xbb594abd	-0.003315612
86	0x3db1fa78	0.08690351
87	0x3c8a4cd2	0.016882334
88	0x3e1cb7a3	0.15304427
89	0x3da3d1d5	0.07999007
90	0x3e126954	0.14297992
91	0x3e00ca81	0.12577249
92	0x3e6be276	0.23035607
93	0x3dbf5a6b	0.09343418
94	0xbe3a1f32	-0.18175963
95	0x3d24c5e9	0.040227804
96	0xbcabb26f	-0.020959107
97	0xbd9d147a	-0.07669921
98	0x3d250212	0.040285178
99	0x3d192c2f	0.037395652
100	0x3e1c15a2	0.15242627
101	0xbe2a627c	-0.16639131
102	0xbd9c7ebc	-0.0764136
103	0x3da54756	0.08070247
104	0x3da5ebcb	0.081016146
105	0x3e1a17c3	0.15048127
106	0x3e17cc86	0.14824113
107	0x3e4724f5	0.19447692
108	0x3d361716	0.04445561
109	0x3e4b7c94	0.19871742
110	0xbea551fb	-0.3228911
111	0x3dcc0553	0.09961953
112	0x3d40f6ff	0.047110554
113	0x3e6a15e7	0.22859918
114	0x3dd6a189	0.10480029
115	0x3de59428	0.11209899
116	0x3e314bf3	0.17314129
117	0x3defba0f	0.1170541
118	0x3e1c3fa8	0.15258658
119	0x3e44f55b	0.1923422
120	0x3b7f05b8	0.003891332
121	0x3e574e0d	0.21025868
122	0x3d934aec	0.071920246
123	0x3ce9c45e	0.028536018
124	0x3db40572	0.08790101
125	0x3dea3f9e	0.11437915
126	0x3d92c4ae	0.0716642
127	0xbc9f86ea	-0.019473512
128	0xbb10b22c	-0.0022078855
129	0xbe230a15	-0.15921815
130	0xbd20db07	-0.03927138
131	0x3d35417b	0.0442519
132	0x3d2180f5	0.039429624
133	0xbc7a6802	-0.015283586
134	0x3cbbd1ab	0.022927126
135	0xbd235f31	-0.039885703
136	0x3d88459a	0.066539004
137	0xbe087605	-0.13326271
138	0xbd6c8f87	-0.057754066
139	0x3d9c1cb9	0.07622666
140	0xbd6704b3	-0.056400966
141	0xbbbc6c98	-0.00575025
142	0x3d0e2aa1	0.034708623
143	0xbd532695	-0.051550467
144	0x3db690a3	0.08914306
145	0x3d71a370	0.058993757
146	0x3ca0ddf0	0.019637078
147	0xbdaff95d	-0.08592484
148	0x3d1c1830	0.038109004
149	0xbcd2430d	-0.025666738
150	0x3b006718	0.0019592699
151	0x3d8807b5	0.06642095
152	0xbbd4165c	-0.006472392
153	0xbd1e5ccc	-0.038662717
154	0xbd58fbef	-0.052974638
155	0xbbcc8838	-0.0062418245
156	0xbb723ab6	-0.0036961264
157	0xbd775a39	-0.060388777
158	0x3d1b0d76	0.037854634
159	0x3cc4ef74	0.024039961
160	0x3ce9cfb8	0.02854143
161	0xbd8112a4	-0.063023835
162	0x3c9ac6c8	0.018893614
163	0x3d9570ff	0.07296943
164	0x3cac24fe	0.021013733
165	0x3b04cc9b	0.0020263556
166	0x3d531692	0.051535197
167	0x3c762eba	0.015025789
168	0x3d97644b	0.07392176
169	0x3b2ce661	0.0026382434
170	0x3d8035cf	0.06260263
171	0x3bf1b782	0.007376612
172	0x3c1fb881	0.009748579
173	0xbbec4fa2	-0.0072116414
174	0x3d952bf3	0.07283773
175	0xbd15bf9e	-0.036559694
176	0xbdc6cd0e	-0.0970708
177	0xbe03f356	-0.12885794
178	0xbcc165f5	-0.023608187
179	0xbd8eb9a8	-0.06969005
180	0x3d8670bc	0.06564471
181	0xbcce680f	-0.025196103
182	0xbd80a849	-0.06282098
183	0x3cd6b29a	0.02620821
184	0x3c309a42	0.010778965
185	0xbd43fe4d	-0.047849942
186	0xbd264f99	-0.040603254
187	0x3cbdb0c9	0.023155587
188	0x3e066018	0.13122594
189	0x3d91e1d2	0.0712315
190	0xbc03162c	-0.008000892
191	0xbd7dbb25	-0.061946053
192	0xbd9c2422	-0.07624079
193	0xbd6e4d68	-0.05817929
194	0xbd88d64c	-0.06681499
195	0xbab6d7a5	-0.0013949765
196	0x3d6b7660	0.057485938
197	0xbdb5179f	-0.08842396
198	0x3da4c4af	0.08045327
199	0xbdffc63d	-0.12488983
200	0xbdad7ea7	-0.08471423
201	0xbc1ec5e5	-0.009690736
202	0xbdd337a4	-0.10313347
203	0xbd36daf0	-0.04464239
204	0xbe468993	-0.19388418
205	0x3d215945	0.039391775
206	0x3d7901e5	0.060792822
207	0xbd8bf088	-0.06832987
208	0x3bd06570	0.0063597485
209	0xbcaf35a4	-0.021387883
210	0xbc62bcbe	-0.013838945
211	0x3da8789e	0.08226131
212	0x3c19ca22	0.009386571
213	0xbdb86f34	-0.09005585
214	0x3d1963ec	0.03744881
215	0xbcb33516	-0.0218759
216	0x3d4ac2e5	0.049502272
217	0xbd8a3d43	-0.06749966
218	0x3b201ecd	0.0024432421
219	0x3d8b0938	0.06788868
220	0x3c3e424c	0.011612486
221	0xbd75e445	-0.060032148
222	0xbcf4227b	-0.029801598
223	0xbc04c5ad	-0.00810377
224	0xbd7c6fea	-0.061630167
225	0x3c056748	0.0081423
226	0xbc7475b4	-0.014920641
227	0x3d148651	0.036260907
228	0x3d11c002	0.035583504
229	0xbd692bc0	-0.05692649
230	0x3ca44968	0.020054534
231	0xbd6bca92	-0.057566233
232	0x3ca0e288	0.019639269
233	0x3be328bf	0.0069323475
234	0xbdfbe845	-0.12300161
235	0xbcd420a3	-0.025894469
236	0xbdc18d93	-0.09450831
237	0x3cfaeaf6	0.030629616
238	0xbd0c963e	-0.03432297
239	0x3c7e48c7	0.015520281
240	0xbdac6c1a	-0.08419056
241	0x3d3c00b1	0.045899097
242	0xbdc22aa2	-0.09480788
243	0x3d895b5f	0.06706881
244	0xbcc07c34	-0.023496725
245	0xbdc68b98	-0.09694594
246	0x3dcb20c0	0.09918356
247	0x3d377e37	0.044798102
248	0xbdea60a5	-0.11444215
249	0xbd0c4810	-0.03424841
250	0x3d0b97b8	0.034080237
251	0xbdd6e395	-0.104926266
252	0xbb23b441	-0.0024979266
253	0x3d4ba62d	0.049719024
254	0x3d7acaa5	0.061228413
255	0xbdd50c2c	-0.10402712

fc2.bias f4 [128]
0	0x3eadbcfe	0.33933252
1	0xbc459245	-0.012058799
2	0xbeb6389c	-0.35590065
3	0x3d6e6948	0.058205873
4	0xbd0685d4	-0.032842472
5	0xbd0ae911	-0.033913676
6	0xbdc31d8f	-0.09527122
7	0xbb7eda31	-0.0038887376
8	0xbd7b8f63	-0.06141604
9	0xbdd9036f	-0.10596358
10	0xbde5318b	-0.1119109
11	0x3c019dad	0.007911128
12	0xbcbd352b	-0.023096642
13	0x3e79c0fe	0.24390027
14	0x3d971b96	0.073783085
15	0xbd0f3dea	-0.034971155
16	0x3dabd876	0.08390896
17	0xbcb82083	-0.02247644
18	0xbdcd6624	-0.100292474
19	0xbeecab4d	-0.46224442
20	0xbecf0bd7	-0.4043872
21	0xbde64e16	-0.112453625
22	0xbe044eef	-0.12920736
23	0xbe99de53	-0.30052432
24	0x3d149e9b	0.03628407
25	0xbe8f41c2	-0.27979857
26	0x3da791d1	0.08182109
27	0xbdcf8f83	-0.101347946
28	0xbdab3c31	-0.0836109
29	0xbdbb55da	-0.09147234
30	0xbc96da26	-0.018414568
31	0xbd81dec9	-0.06341321
32	0xbe5152eb	-0.20441787
33	0x3d651d75	0.055936296
34	0x3daae2f7	0.08344071
35	0xbe09bcb0	-0.13450885
36	0x3f1927c8	0.59826326
37	0xbef3007c	-0.47461307
38	0xbea9a886	-0.33136386
39	0xbcd300fe	-0.025757309
40	0xbde378d1	-0.11107028
41	0xbe7e8938	-0.24857032
42	0xbe2e6be9	-0.17033352
43	0x3d37ee7a	0.044905163
44	0xbe23073e	-0.15920731
45	0xbdbf66f2	-0.09345807
46	0xbd15ec3d	-0.036602248
47	0xbda9981a	-0.08280964
48	0xbd206673	-0.039160203
49	0x3d40a462	0.047031768
50	0xbe83faee	-0.25777382
51	0xbdf1ec61	-0.11812664
52	0xbd7ef47b	-0.062244873
53	0xbdf681df	-0.1203649
54	0xbc074f5d	-0.008258668
55	0xbe08bf20	-0.13354158
56	0xbdca3ba0	-0.09874654
57	0xbd823146	-0.063570544
58	0xbd4b09fb	-0.049570065
59	0xbc02e83c	-0.007989939
60	0xbdbb373b	-0.09141394
61	0xb832d850	-4.2639964e-05
62	0xbdf5c4b5	-0.120004095
63	0x3c938b63	0.0180108
64	0xbeebaa9d	-0.46028605
65	0xbe97aef7	-0.29625675
66	0xbe5d8798	-0.21633756
67	0xbd1615f9	-0.03664205
68	0xbda0baa7	-0.07848101
69	0xbd82407c	-0.06359956
70	0xbdc82d3a	-0.09774251
71	0xbd849add	-0.0647485
72	0x3eebba12	0.46040398
73	0xbcc17004	-0.023612984
74	0xbd33f062	-0.04393042
75	0xbde75f15	-0.11297432
76	0xbf0aa486	-0.5415729
77	0xbeae3258	-0.34022784
78	0x3dac4d55	0.084131874
79	0xbcdc8fce	-0.02692404
80	0xbea69a63	-0.32539663
81	0x3efe5d26	0.49680442
82	0xbd451af8	-0.048121423
83	0xbd2099cf	-0.039209183
84	0xbcfe4f17	-0.031043572
85	0x3e0ad1e4	0.1355663
86	0xbdefc8d6	-0.11708228
87	0xbdeb16b8	-0.11478943
88	0x3f0213c7	0.5081143
89	0x3f103dc8	0.5634427
90	0xbe84bf30	-0.25927114
91	0x3e762fb2	0.24041632
92	0xbd255ed6	-0.040373646
93	0xbca4c84c	-0.02011504
94	0xbd68efc4	-0.056869283
95	0xbcb25659	-0.02176969
96	0xbd2d95c4	-0.042379156
97	0xbd5b2356	-0.053500496
98	0xbdb3e023	-0.08782985
99	0x3ec6bfda	0.38818246
100	0xbd8d4068	-0.0689705
101	0xbd4922b1	-0.04910535
102	0xbd0ae198	-0.03390655
103	0xbe21f202	-0.15814975
104	0xbc8789d8	-0.016545221
105	0x3f24215b	0.64113396
106	0xbea73a83	-0.32661828
107	0x3d6fa0c0	0.058502913
108	0xbe9cb7f0	-0.30609083
109	0xbde887b8	-0.11354011
110	0xbe0e1da0	-0.13878489
111	0xbcd956d3	-0.026530659
112	0xbe8d7ed5	-0.27635828
113	0xbe0573dd	-0.1303248
114	0x3d897ad1	0.067128785
115	0x3d1f6ce9	0.038922224
116	0x3c6c3dd9	0.0144190425
117	0xbbaa8ec5	-0.0052050077
118	0xbdca0744	-0.09864667
119	0x3cb6ef92	0.022331033
120	0xbec2271b	-0.3792046
121	0x3ea08b44	0.3135625
122	0xbc17fbe4	-0.009276364
123	0xbd380c4a	-0.044933595
124	0xbd7cf0ee	-0.061753206
125	0x3d80ddcf	0.06292307
126	0x3cface2c	0.030615889
127	0xbcce2398	-0.025163457

fc3.weight f4 [2, 128]
0	0xbe8be2a5	-0.27321354
1	0x3d3bd68c	0.045858905
2	0xbdc741b8	-0.09729332
3	0xbd8fa344	-0.07013562
4	0x3d957fc1	0.07299758
5	0xbc17a353	-0.009255248
6	0x3c3043d7	0.010758362
7	0x3d714a46	0.058908723
8	0xbcda4235	-0.026642898
9	0xbd341acb	-0.043970864
10	0xbd9a7f62	-0.075438276
11	0xbd12c088	-0.035828143
12	0xbd38486f	-0.044990953
13	0xbea297be	-0.31756395
14	0x3da614f0	0.08109462
15	0xbda6ce0c	-0.08144769
16	0xbcb21579	-0.021738755
17	0xbdec1035	-0.11526529
18	0x3ce82bc9	0.02834119
19	0xbe006a87	-0.12540637
20	0xbcab47ab	-0.020908197
21	0x3cfa7f52	0.03057829
22	0xbdc9e2e4	-0.09857729
23	0xbf2fdf56	-0.6870016
24	0x3ca96529	0.02067812
25	0xbd52f4b8	-0.051502913
26	0xbd30a6b1	-0.04312772
27	0xbd983be7	-0.074333005
28	0x3d9e11ac	0.077182144
29	0x3d3a6eb0	0.045515716
30	0xbdb21825	-0.086960115
31	0x3d780c1b	0.06055842
32	0x3bc71de8	0.006076563
33	0xbddc0e7f	-0.107449524
34	0xbf2cf42e	-0.6756009
35	0xbc32b11f	-0.010906487
36	0xbee8663b	-0.45390496
37	0xbd743272	-0.05961842
38	0xbf0e04f3	-0.554763
39	0x3d60803d	0.054809798
40	0xbd430a38	-0.047617167
41	0x3d4547ce	0.04816418
42	0xbe0b2442	-0.1358805
43	0xbcf2ad9c	-0.029623799
44	0x3db230d5	0.0870072
45	0xbd474148	-0.04864624
46	0x3cdc1292	0.026864324
47	0xbdb7cd05	-0.08974651
48	0xbb3e7c8f	-0.0029065942
49	0xbd9f755e	-0.07786058
50	0xbdde6195	-0.10858456
51	0x3d380f6e	0.04493659
52	0xbea7e108	-0.32788873
53	0x3d76a7e6	0.060218714
54	0xbb919b7a	-0.004443583
55	0xbd3e49e0	-0.04645717
56	0xbd79bf8b	-0.060973685
57	0xbdbe58c5	-0.09294275
58	0x3cb119c0	0.021618724
59	0xbdb394c6	-0.08768611
60	0xbd9d8af0	-0.07692516
61	0xbc989962	-0.018627826
62	0xbc3c78ab	-0.011503379
63	0xbda12a93	-0.078694485
64	0xbe0b4f1f	-0.13604401
65	0xbd994d99	-0.07485504
66	0xbd1f76d3	-0.03893168
67	0x3d50979e	0.050925843
68	0xbd3f937d	-0.046771515
69	0xbceb8e7c	-0.028754465
70	0x3da34000	0.079711914
71	0xbc481966	-0.012213087
72	0xbe982ece	-0.2972321
73	0x3b4aa58f	0.0030921435
74	0x3ce52ffb	0.02797698
75	0xbe19b8a4	-0.15011841
76	0xbdbff3a3	-0.09372642
77	0xbf121dcd	-0.5707672
78	0xbcae29a6	-0.021260094
79	0x3cdf5623	0.027262753
80	0xbdac859b	-0.08423921
81	0xbdeaa019	-0.114563175
82	0xbef76399	-0.48318174
83	0xbd941015	-0.0722963
84	0xbd4ceca3	-0.05003036
85	0xbeb3893d	-0.35065642
86	0x3cea9925	0.028637478
87	0xbd024ae4	-0.031809703
88	0xbe8e06eb	-0.27739653
89	0xbe965486	-0.2936136
90	0xbf2e6aa5	-0.68131477
91	0xbea9796f	-0.3310046
92	0x3d9c3468	0.07627183
93	0xbd9da705	-0.07697872
94	0xbd9ff307	-0.07810026
95	0xbd326e94	-0.043562487
96	0xbbfefb10	-0.007781394
97	0x3d88b5a0	0.06675267
98	0xbd975516	-0.07389276
99	0xbe4fe211	-0.20301081
100	0xbd76da17	-0.06026658
101	0x3d7b0777	0.061286416
102	0xbc89eb4d	-0.016835833
103	0xbdd24468	-0.10266954
104	0x3d53cbd5	0.05170806
105	0xbe7c4e7d	-0.24639316
106	0xbe6717e3	-0.22567706
107	0xbc66919b	-0.014072801
108	0xbd3a4bc1	-0.0454824
109	0xbe04042b	-0.12892215
110	0x3d35b42b	0.044361275
111	0x3d1cdca8	0.03829637
112	0x3afc7e68	0.0019263746
113	0xbb3b78f3	-0.0028606027
114	0xbdc2ba65	-0.09508208
115	0x3d208d8b	0.039197486
116	0x3d86ee2e	0.06588398
117	0xbdc99077	-0.098420076
118	0x3d3ab19b	0.045579534
119	0x3d9a29b7	0.07527488
120	0xbd8e6134	-0.06952134
121	0xbe47da7d	-0.1951694
122	0x3d2d2790	0.042274058
123	0xbd0bf426	-0.034168385
124	0x3d53cedd	0.051710952
125	0xbd86d1cb	-0.065829836
126	0xbc8dc315	-0.017304936
127	0x3bac5e1d	0.0052602426
128	0x3e2c49ff	0.16825102
129	0x3d545927	0.051842835
130	0xbd6d7112	-0.05796916
131	0xbd3d1d1c	-0.04617034
132	0xbdde0e3b	-0.10842558
133	0x3ba07150	0.0048963204
134	0x3d6e909d	0.058243383
135	0x3ca4a23f	0.020096896
136	0xbda72c2a	-0.081627205
137	0x3d1faee1	0.038985137
138	0x3c795c4c	0.015219759
139	0x3d3b24a8	0.045689255
140	0xbc298ff4	-0.0103492625
141	0x3dcee206	0.10101704
142	0xbd4c9fbe	-0.04995703
143	0xbcf1f605	-0.029536257
144	0x3c77ab43	0.015116516
145	0xbe9f0799	-0.31060484
146	0xba96c107	-0.0011501618
147	0xbcb469ab	-0.022023043
148	0xbd4d29cd	-0.050088692
149	0x3c23817d	0.009979603
150	0x3d06d108	0.03291419
151	0xbd81898f	-0.06325065
152	0xbd7a2044	-0.061065927
153	0xbd4969d5	-0.049173195
154	0x3d961107	0.073274665
155	0xbd704144	-0.058655992
156	0xbd047b54	-0.032344177
157	0x3d923eac	0.0714086
158	0xbd4f4cf8	-0.050610512
159	0x3c457b58	0.012053333
160	0xbde67e3a	-0.112545446
161	0x3cbd7737	0.023128135
162	0xbda6e0cd	-0.08148346
163	0xbe349bf5	-0.17637618
164	0x3dccee1b	0.100063525
165	0xbd892026	-0.06695585
166	0xbd8f9ea7	-0.070126824
167	0x3cd09104	0.025459774
168	0xbdb4f8c1	-0.088365085
169	0xbe14192f	-0.14462732
170	0x3d7cc8e8	0.061715037
171	0x3d58581c	0.052818403
172	0xbd332296	-0.043734156
173	0x3d5c775e	0.053824775
174	0x3cbd3a99	0.02309923
175	0x3a93c696	0.0011274393
176	0xbd29a7e3	-0.041419875
177	0x3c5228a3	0.012827071
178	0xbe99d2b1	-0.30043557
179	0x3c908641	0.017642142
180	0xbd64305f	-0.055710193
181	0x3c9d7f0d	0.019225622
182	0xbca9a5d2	-0.020708952
183	0x3d701559	0.05861411
184	0x3d13d07e	0.036087506
185	0x3c98b04c	0.018638752
186	0xbd13012d	-0.035889793
187	0x3e4861bc	0.19568533
188	0xbca300c4	-0.019897826
189	0x3c558037	0.013031057
190	0x3da323d0	0.07965815
191	0x3c33372d	0.010938448
192	0xbc89d92e	-0.016827192
193	0xbdd26dbb	-0.10274836
194	0xbd0c656b	-0.034276407
195	0xbc272a42	-0.010202946
196	0x3d33590e	0.0437861
197	0xbd9899a0	-0.07451177
198	0x3c83403d	0.016021842
199	0xbc6585af	-0.014008923
200	0x3dce4da7	0.10073405
201	0xbd2c321d	-0.04203998
202	0xbd1df142	-0.03856016
203	0x3c3110f8	0.010807268
204	0xbcb77d36	-0.022398572
205	0xbd06fad6	-0.03295406
206	0x3d6c3afb	0.057673436
207	0x3bb8fdf9	0.0056455103
208	0xbd65ff94	-0.05615194
209	0x3e9e0df8	0.30870032
210	0xbc871c09	-0.01649286
211	0xbc5548ec	-0.013017874
212	0xbce9e566	-0.028551769
213	0x3c3893d5	0.011265715
214	0x3cb38f91	0.021919044
215	0xbd3f41ad	-0.046693493
216	0x3e905903	0.2819291
217	0x3e93d704	0.2887498
218	0xbd74d1ed	-0.059770513
219	0x3da6425a	0.08118124
220	0xbc9e2369	-0.019303994
221	0x3d86a447	0.06574302
222	0x3ccb1f12	0.024795089
223	0x3ca2c524	0.019869395
224	0xbc88e083	-0.016708618
225	0xbc56105f	-0.013065427
226	0xbca97dcf	-0.020689873
227	0x3db9bff8	0.09069818
228	0x3ca507eb	0.020145377
229	0xbc08a674	-0.008340467
230	0x3daeb19a	0.085299686
231	0xbe576d42	-0.21037772
232	0xbd66bdc7	-0.05633333
233	0x3e416fe0	0.18890333
234	0xbe1e2cfb	-0.15446846
235	0xbdadb485	-0.08481697
236	0xbcb28bc7	-0.021795167
237	0xbde3e504	-0.11127666
238	0x3ca4d65e	0.02012175
239	0xbd102b8d	-0.035197783
240	0xbdca9d43	-0.098932765
241	0x3cf4e72f	0.029895393
242	0xbce16e13	-0.027518308
243	0x3c1e23f9	0.009652131
244	0x3d26906b	0.04066507
245	0x3d5bd819	0.053672884
246	0x3cbb47da	0.02286141
247	0x3d9f7d43	0.07787564
248	0xbbf5a062	-0.0074959258
249	0x3df2f915	0.11863915
250	0x3da33902	0.07969858
251	0xbcd17b4d	-0.02557149
252	0x3c87ac67	0.0165617
253	0xbc864f2d	-0.016395176
254	0x3c7ccdbc	0.01542991
255	0xbd8b8932	-0.06813277

fc3.bias f4 [2]
0	0xbe92bf5d	-0.28661624
1	0x3f0bae78	0.54563093

fc1.weight f4 [128, 84]
0	0xbdb52df4	-0.088466555
1	0xbd8fcf94	-0.07022014
2	0x3db5464e	0.088513
3	0xbdfec80d	-0.124405004
4	0x3dd26a9c	0.102742404
5	0xbd107dd2	-0.03527624
6	0x3cb0b375	0.021569947
7	0xbdd8d7fc	-0.10588071
8	0xbdc2b07c	-0.09506318
9	0x3bc956a1	0.00614436
10	0xbd1d6270	-0.038423955
11	0x3d5d16af	0.05397671
12	0x3d5c959c	0.053853616
13	0xbdc7c0db	-0.09753581
14	0x3c82f15a	0.015984226
15	0x3d8d9a74	0.06914225
16	0xbcc18520	-0.02362305
17	0xbd7c39b3	-0.061578464
18	0xbd0f7811	-0.035026614
19	0xbc04e5bf	-0.008111416
20	0x3bfd51ce	0.007730699
21	0xbdf2a9b2	-0.11848773
22	0x3b1b3715	0.0023683954
23	0x3da2ee64	0.07955626
24	0x3d31e0c5	0.043427248
25	0xbdbeaf4c	-0.09310779
26	0xbcc9a098	-0.02461271
27	0xbd99b5e7	-0.07505398
28	0xbd954fa9	-0.072905846
29	0xbc9e2ddd	-0.019308979
30	0xbda493c6	-0.08035998
31	0xbdcdce5d	-0.10049126
32	0xbe04c24e	-0.12964746
33	0x3dbc1826	0.091842934
34	0xbbbd197a	-0.0057708593
35	0xbd2786e4	-0.040900126
36	0xbc7ff911	-0.015623347
37	0x3c09f0fc	0.008419272
38	0xbc390696	-0.011293074
39	0xbce559ae	-0.027996864
40	0x3c9273fb	0.01787757
41	0x3d3a0e71	0.04542393
42	0x3d5ddd59	0.05416617
43	0x3d77c43f	0.06048989
44	0x3dc88253	0.09790482
45	0xbdf62811	-0.12019361
46	0xbcdd4160	-0.027008712
47	0xbc5e1669	-0.013555148
48	0x3d55c901	0.052193645
49	0x3dbf1c87	0.09331613
50	0x3cd57faf	0.02606186
51	0xbc106612	-0.008813398
52	0xbd591034	-0.052993968
53	0x3cadc938	0.021214113
54	0xbb7429e6	-0.0037256419
55	0x3d726ced	0.05918591
56	0x3d0b1921	0.03395951
57	0xbde10f24	-0.10989216
58	0x3d387130	0.04502982
59	0xbc06219f	-0.008186727
60	0xbd12e823	-0.035865914
61	0xbda224ed	-0.07917199
62	0xbc96ca57	-0.01840703
63	0x3b4143b9	0.0029489829
64	0x3d9e1e60	0.07720637
65	0xbd7504b2	-0.05981893
66	0xbd2fff7b	-0.042968255
67	0x3d9a7ca9	0.07543308
68	0x3de4091f	0.11134552
69	0x3d4d216f	0.050080713
70	0x3c177ffd	0.009246823
71	0xbc68a6fe	-0.01419997
72	0x3d6ba0b3	0.0575263
73	0x3d1b299c	0.03788148
74	0xbbfcfd2d	-0.0077206106
75	0xbd1ba407	-0.037998226
76	0xbd271ce0	-0.04079902
77	0xbddcbd99	-0.107783504
78	0xbcf10cc1	-0.029425027
79	0x3dbaf7ca	0.09129293
80	0xba2bdc01	-0.00065559155
81	0x3d698dd1	0.057020012
82	0xbdb48171	-0.088137515
83	0xbdf97a38	-0.121815145
84	0x3c622c5d	0.013804522
85	0xbc814ce3	-0.015783733
86	0xbba2cf2e	-0.0049685454
87	0xbdd16810	-0.102249265
88	0x3c79ed7d	0.0152543755
89	0x3cdded74	0.027090766
90	0x3d1fdd21	0.039029244
91	0x3daf50b6	0.08560316
92	0xbd8ee8e6	-0.069780156
93	0x3d934c8f	0.07192337
94	0x3d1fc4de	0.039006107
95	0xbac332d1	-0.0014892464
96	0x3cd0aa24	0.025471754
97	0x3d8ca662	0.068676725
98	0xbd1f2e8a	-0.038862742
99	0xbdb3bafa	-0.08775897
100	0xbd630dba	-0.055433013
101	0x3d37b398	0.04484901
102	0x3cda5bf8	0.026655182
103	0x3d9e44ab	0.07727941
104	0xbd5cda9f	-0.05391943
105	0x3bc56976	0.006024535
106	0xbdda251d	-0.1065161
107	0x3c5900d9	0.013244831
108	0xbdcb031c	-0.099127024
109	0x3da8987f	0.08232211
110	0x3d6937da	0.05693803
111	0xbca6de59	-0.020369695
112	0x3d524b4e	0.051341347
113	0xbd822866	-0.06355362
114	0xbdb31bf5	-0.08745567
115	0xbdae0491	-0.08496965
116	0xbd527f31	-0.05139083
117	0xbd6b1d6a	-0.0574011
118	0xbde86cb6	-0.1134886
119	0x3cc40283	0.023926979
120	0xbd9dd5fb	-0.07706829
121	0xbdd672cf	-0.10471117
122	0xbd562871	-0.05228466
123	0x3c19c990	0.009386435
124	0xbc34524c	-0.011005949
125	0xbdd5ad38	-0.104334295
126	0x3dc320c8	0.09527737
127	0xbd173d93	-0.036923956
128	0xbdb2eb7e	-0.08736323
129	0xbc56c15c	-0.013107624
130	0x3a5749fc	0.00082126237
131	0xbc8f65da	-0.017504621
132	0xbd891338	-0.06693119
133	0xbd9fe133	-0.07806625
134	0x3be4730c	0.0069717225
135	0xbc66e92b	-0.0140936775
136	0xba630479	-0.0008660029
137	0x3d840841	0.06446887
138	0xbda0df62	-0.07855107
139	0x3db40a7c	0.08791062
140	0xbd1c1a65	-0.03811111
141	0xbd19ee72	-0.037580915
142	0xbd060937	-0.03272363
143	0x3c311742	0.010808768
144	0xbc9d0c26	-0.019170832
145	0xbdcf375a	-0.10117979
146	0x3dd0867d	0.101819016
147	0xbdab7b03	-0.08373072
148	0x3daaf7ec	0.083480686
149	0xbdc6bb09	-0.09703643
150	0xbdaa933f	-0.08328866
151	0xbdcd9e29	-0.10039932
152	0xbdb7f67e	-0.089825615
153	0xbdb2f16a	-0.08737452
154	0xbd73f485	-0.059559364
155	0xbdbac6f6	-0.0911998
156	0xbb420501	-0.0029605033
157	0x3a980225	0.0011597319
158	0xbd3e8f5e	-0.046523444
159	0x3dcddf1b	0.100523196
160	0x3cfd88f9	0.030949103
161	0x3c03f2dc	0.008053508
162	0xbd80aee9	-0.062833615
163	0xbd0afb18	-0.033930868
164	0x3dbfd140	0.09366083
165	0x3de9011c	0.11377165
166	0xbda0de30	-0.07854879
167	0x3de185b1	0.11011828
168	0xbc7b49b3	-0.0153373955
169	0xbd8cdc29	-0.0687793
170	0x3da6b380	0.08139706
171	0x3d21f11a	0.039536573
172	0x3d6c4b64	0.057689086
173	0xbdab61c5	-0.083682574
174	0xbe05bb32	-0.1305969
175	0xbc1bed71	-0.00951706
176	0xbe066e0a	-0.13127914
177	0xbccb9db5	-0.024855474
178	0x3d7214ed	0.059101988
179	0xbdbbda6d	-0.09172521
180	0xbc62c4f3	-0.013840902
181	0x3d403fc7	0.046935823
182	0x3d9691a7	0.07352
183	0xbdb46700	-0.08808708
184	0x3d71a9ad	0.058999706
185	0xbd811e72	-0.06304635
186	0xbe0268a6	-0.12735233
187	0xbdb0980c	-0.08622751
188	0x3db11f7f	0.086485855
189	0xbb08e7bb	-0.0020890075
190	0xbd3aea9a	-0.04563389
191	0x3bca5268	0.0061743744
192	0x3bca8d4c	0.0061813947
193	0xbd896b6d	-0.06709943
194	0xbb81f9b1	-0.003966533
195	0x3c3416d5	0.010991772
196	0x3d1c5b33	0.03817291
197	0xbcf01003	-0.02930451
198	0x3d1192e1	0.035540465
199	0xbd9da7bf	-0.07698011
200	0xbd5cd947	-0.05391815
201	0x3cd995fe	0.02656078
202	0xbd27a668	-0.04093018
203	0xbdda995b	-0.106737815
204	0xbe0061e1	-0.12537338
205	0xbdeb8fca	-0.11502035
206	0x3cbfc170	0.023407668
207	0x3da49389	0.080359526
208	0x3cdb14eb	0.026743373
209	0x3c70b4d7	0.014691553
210	0xbadd4f3b	-0.0016884574
211	0xba7a8cd0	-0.0009557726
212	0xbd1e89cd	-0.038705636
213	0xbda81c1a	-0.08208485
214	0x3d0c99e8	0.034326464
215	0xbd998973	-0.074969195
216	0xbdc550cc	-0.096345514
217	0xbda746c6	-0.08167796
218	0x3d9c70ce	0.07638703
219	0xbd71c481	-0.05902529
220	0xbd0117cf	-0.031516846
221	0xbd64a9aa	-0.055825867
222	0x3dbb0408	0.09131628
223	0xbdad821c	-0.08472082
224	0x3b2cc03a	0.0026359693
225	0x3d4816c5	0.04884984
226	0xbb2dcf43	-0.0026521243
227	0x3c7767ba	0.015100414
228	0x3dcad72b	0.09904321
229	0xbc2ed8e6	-0.01067183
230	0x3c9b3ba5	0.01894934
231	0xbc86d5f3	-0.01645944
232	0xbd169ff5	-0.03677364
233	0xbdac9ba3	-0.08428123
234	0xbdb41a01	-0.08794022
235	0xbd760d8b	-0.06007151
236	0x3dab5e08	0.083675444
237	0x3d6e4192	0.058168
238	0x3c57683c	0.01314741
239	0x3d795279	0.060869668
240	0x3cff8c52	0.03119484
241	0x3cc3dcd8	0.023909017
242	0x3db1c0f8	0.08679384
243	0x3d22699c	0.0396515
244	0x3d99d953	0.075121544
245	0xbcecb008	-0.028892532
246	0x3daafc7d	0.083489396
247	0x3db4781f	0.08811974
248	0xbde7abe8	-0.113120854
249	0x3dd41743	0.10355999
250	0xbce545a9	-0.027987318
251	0x3d915b49	0.070974894
252	0xbb8f1f54	-0.0043677483
253	0x3cfcb04b	0.030845782
254	0xbd8d6991	-0.06904901
255	0xbd31a388	-0.043368846

fc1.bias f4 [128]
0	0x3d24681f	0.04013836
1	0x3d4ca6fc	0.049963936
2	0xbda755d2	-0.08170666
3	0xbd2317c1	-0.039817575
4	0xbbf02bc9	-0.0073294383
5	0xbdb769ee	-0.08955751
6	0xbd156717	-0.036475267
7	0x3d870295	0.06592289
8	0xbd8ffd27	-0.07030707
9	0xbcc819f6	-0.024426442
10	0xbdee1d15	-0.11626641
11	0x3d4fd01b	0.050735574
12	0xbd48f7c1	-0.0490644
13	0xbd701b82	-0.058619983
14	0xbcee7f7e	-0.029113527
15	0xbd799538	-0.06093332
16	0xbd9fbf18	-0.0780012
17	0xbca1a843	-0.019733554
18	0x3d1a2ac8	0.037638456
19	0x3ca3a2f3	0.019975161
20	0x3ca460a4	0.020065613
21	0xbd84c98e	-0.06483756
22	0xbd4297eb	-0.04750816
23	0x3d47d64f	0.048788365
24	0xbddab15f	-0.10678362
25	0x3d89162d	0.06693683
26	0x3d468cda	0.04847417
27	0x3d77fcfb	0.060543995
28	0xbdfbc078	-0.1229257
29	0xbd2fa087	-0.0428777
30	0x3de7c4c9	0.11316831
31	0xbdcceac4	-0.100057155
32	0xbce5704b	-0.028007647
33	0x3cd9d482	0.02659059
34	0xbd358750	-0.044318497
35	0x3e84488f	0.25836608
36	0x3d14e451	0.036350552
37	0xbe06cb96	-0.131636
38	0x3c86be11	0.016448053
39	0xbdbacbf1	-0.0912093
40	0xbdf63778	-0.120222986
41	0xbdf072c8	-0.11740643
42	0xbc21e18f	-0.0098804375
43	0xbb3cdcf8	-0.002881823
44	0x3d9deb08	0.07710844
45	0xbcc3fd6f	-0.023924557
46	0x3d3aaec5	0.04557683
47	0xbdab11d9	-0.083530135
48	0x3d897c90	0.067132115
49	0x3da89108	0.082307875
50	0xbcfa3c1b	-0.030546239
51	0xbe04cad9	-0.12968005
52	0xbd87533b	-0.06607672
53	0xbcd539fc	-0.026028626
54	0x3d777b6a	0.06042043
55	0x3d95b66e	0.07310186
56	0x3a253797	0.0006302534
57	0xbde23cc3	-0.11046746
58	0xbd301932	-0.042992778
59	0x3dd1c6b2	0.10242976
60	0xbd158666	-0.036505125
61	0x3d0f1898	0.034935564
62	0xbd9e851a	-0.07740231
63	0xbdea6f47	-0.11447006
64	0x3d73e81b	0.059547525
65	0x3c8f4077	0.017486794
66	0x3d47231a	0.04861746
67	0x3c76c4d8	0.01506158
68	0x3d9b6025	0.075866975
69	0xbbb43163	-0.0054990514
70	0x3d48dfe8	0.04904166
71	0xbe0bd2b0	-0.1365459
72	0xbd42812f	-0.04748648
73	0xbd8d9a93	-0.06914248
74	0xbdb636cb	-0.0889717
75	0x3d89957a	0.067179635
76	0xbe0b9c7a	-0.1363391
77	0xbd9716b6	-0.07377379
78	0x3da7d586	0.08195023
79	0x3db25f83	0.08709624
80	0xbdebb88b	-0.11509808
81	0x3d5d560d	0.054037143
82	0x3db7e1ea	0.089786366
83	0xbd62fd80	-0.055417538
84	0xbd00a909	-0.031411204
85	0xbd2d18cd	-0.04225998
86	0x3da0ce7d	0.078518845
87	0xbdcf1f65	-0.1011341
88	0x3d83d251	0.06436599
89	0xbdc6d293	-0.097081326
90	0x3d9629fd	0.073322274
91	0x3c3d8f75	0.011569847
92	0xbd4bee54	-0.049787834
93	0xbd891184	-0.06692794
94	0xbe1cd422	-0.15315297
95	0x3d2f120f	0.04274183
96	0xba89fa5e	-0.0010526886
97	0xbda54e16	-0.08071534
98	0x3d3551a8	0.044267327
99	0xbdc57bdf	-0.09642767
100	0xbea21c49	-0.31662205
101	0x3dd62a6c	0.1045731
102	0x3d1f4ad2	0.038889714
103	0xbd8d9dca	-0.069148615
104	0xbd146efe	-0.036238663
105	0x3c0a3ec1	0.008437813
106	0xbe09e584	-0.1346646
107	0x3b8eddc8	0.0043599345
108	0xbd8e8c2b	-0.06960329
109	0x3d8e47c7	0.06947284
110	0x3db0c1ea	0.08630736
111	0xbd35ad01	-0.044354443
112	0xbd4c39a8	-0.049859673
113	0x3d0cf105	0.03440954
114	0xbddacc3a	-0.106834844
115	0xbdc9518c	-0.09830007
116	0xbd8a787f	-0.06761264
117	0xbde59753	-0.112105034
118	0xbb33ddfa	-0.002744554
119	0xbdb7a902	-0.089677826
120	0x3d1d425b	0.03839336
121	0xbdb758cb	-0.08952483
122	0x3db9811a	0.09057827
123	0xbd4d24ce	-0.050083928
124	0xbc4d68b5	-0.012537171
125	0xbc591c09	-0.013251313
126	0x3a9741e1	0.0011540019
127	0xbcbf1918	-0.023327395

fc2.weight f4 [128, 128]
0	0x3dc18ad6	0.09450309
1	0x3d101b22	0.035182126
2	0x3cdafc80	0.02673173
3	0x3c9daaa0	0.0192464
4	0x3d9b5cb0	0.07586038
5	0x3d3858bf	0.04500651
6	0xbdb29d6c	-0.08721432
7	0xbcacf1cd	-0.021111393
8	0x3e06687c	0.13125795
9	0xbd62b722	-0.05535043
10	0xbd7349c4	-0.05939652
11	0xbdaeedac	-0.08541426
12	0xba3a9db7	-0.0007118838
13	0x3d7d5bb6	0.06185504
14	0xbd9c1332	-0.07620849
15	0x3dbada13	0.091236256
16	0x3d04be2b	0.03240792
17	0x3d6704e7	0.05640116
18	0xbd99e675	-0.07514659
19	0x3c1cd902	0.009573223
20	0xbd9f8536	-0.0778908
21	0xbc88490e	-0.016636398
22	0xbd41410a	-0.047181167
23	0xbe8f856d	-0.28031483
24	0xbbcce594	-0.006252954
25	0xbd5f5a96	-0.05452975
26	0xbda153e7	-0.07877331
27	0x3da810ec	0.082063526
28	0xbe0a78d6	-0.13522658
29	0xbd549dd8	-0.051908344
30	0x3c226489	0.009911665
31	0xbdb97a56	-0.09056537
32	0x3d6b0a94	0.057383135
33	0x3b84ab45	0.004048737
34	0x3d82539d	0.06363604
35	0xbd8e2322	-0.06940295
36	0xbd865ac5	-0.06560282
37	0x3d94ac45	0.0725942
38	0xbd6639b0	-0.05620736
39	0xbc240ecc	-0.0100132935
40	0xbd424e86	-0.047438167
41	0x3d83a719	0.06428356
42	0x3e00cb7d	0.12577625
43	0x3e5ec913	0.21756391
44	0xbc18b1b4	-0.0093197115
45	0xbd17235c	-0.036898956
46	0x3ca5e35b	0.020250013
47	0xbd721efb	-0.059111577
48	0xbd6fc743	-0.05853964
49	0xbd8f3aa8	-0.0699361
50	0xbcef4db0	-0.029211849
51	0x3ab4ecc1	0.0013803468
52	0x3c440fb8	0.011966638
53	0x3e13a6a8	0.14419043
54	0x3d946c07	0.07247167
55	0xbe019361	-0.12653877
56	0xbd6c1be5	-0.05764379
57	0xbcfad3d0	-0.030618578
58	0xbdb96cff	-0.090539925
59	0x3c3745a4	0.011186037
60	0xbd8d213f	-0.06891107
61	0xbe89f6bc	-0.26946056
62	0xbd8d7329	-0.06906731
63	0xbd46360c	-0.048391387
64	0x3d4f38e2	0.050591357
65	0x3ef4ddaf	0.4782538
66	0xbda57fc1	-0.08081008
67	0x3d9c5c4b	0.07634791
68	0xbd461225	-0.048357148
69	0xbe211026	-0.15728816
70	0x3da6309a	0.08114739
71	0xbea071bb	-0.3133677
72	0xbd5b6bd8	-0.053569645
73	0x3dfd249c	0.12360498
74	0xbd2a9145	-0.041642446
75	0x3df3878c	0.11891088
76	0xbdaf9958	-0.0857417
77	0x3d4e2949	0.05033234
78	0xbcb6cb05	-0.022313604
79	0x3cfec7fa	0.031101216
80	0xbe06f8eb	-0.13180892
81	0x3c194ff7	0.009357444
82	0x3e1c959d	0.15291448
83	0xbcb8ec01	-0.022573473
84	0xbd9fd95d	-0.07805131
85	0xbd4edf2f	-0.050505813
86	0xbd23f2fb	-0.040026646
87	0x3ddc0566	0.10743217
88	0x3db5042b	0.088386856
89	0x3d1e7dd8	0.038694233
90	0x3d2425ca	0.0400751
91	0x3cfe2b38	0.031026468
92	0xbd48b04f	-0.048996266
93	0x3d3994bc	0.04530786
94	0xbb0497e9	-0.0020232147
95	0x3d93eb6b	0.07222637
96	0x3cd8319b	0.026390841
97	0xbc764544	-0.015031163
98	0x3d2e3895	0.04253443
99	0x3d2d6db9	0.042340968
100	0xbc3c3299	-0.011486673
101	0xbe226281	-0.15857889
102	0x3d77c4c0	0.06049037
103	0x3d46a3f2	0.048496194
104	0xbd4200b2	-0.047363944
105	0x3dd9e2f4	0.10638991
106	0xbd46a9f9	-0.048501942
107	0xbd6bf25f	-0.05760419
108	0x3d9472d1	0.07248462
109	0x3d2fe000	0.042938232
110	0x3d051719	0.03249273
111	0xbd4eeed8	-0.050520748
112	0xbbd0e53d	-0.0063749836
113	0xbd50a3f3	-0.050937604
114	0x3da7a7c1	0.081862934
115	0xbc8c3e49	-0.017119544
116	0x3d28cd1e	0.04121124
117	0xbcaef1fc	-0.021355622
118	0x3dc1b848	0.09458977
119	0x3d94178e	0.07231055
120	0xbcfa08a3	-0.030521696
121	0xbd6577a3	-0.056022298
122	0xbdeb0d99	-0.11477203
123	0x3e3613f1	0.17781045
124	0xbb412e69	-0.0029477125
125	0xbd64c381	-0.05585051
126	0xbf650bcc	-0.89471126
127	0xbe2bbc24	-0.16770989
128	0xbce9b7bb	-0.028529992
129	0x3d0dff29	0.034667168
130	0x3bb8391b	0.005622042
131	0xbc7af638	-0.015317492
132	0x3aeee253	0.0018225409
133	0x3d01913b	0.031632643
134	0xbccd2547	-0.02504219
135	0xbc836c4a	-0.016042847
136	0xbd303734	-0.043021396
137	0x3d0bcd3d	0.034131277
138	0x3c4bb114	0.012432355
139	0xbc9ef1cc	-0.019402407
140	0xbd9d0988	-0.076678336
141	0xbd0b8f14	-0.034071997
142	0xbc6a74f2	-0.0143101085
143	0x3d96cc7d	0.07363222
144	0xbd854bca	-0.06508596
145	0x3c847592	0.016169343
146	0xbc424cdf	-0.011859148
147	0xbc60ebf8	-0.013728134
148	0xbd890c3c	-0.06691787
149	0xbcecf13b	-0.028923621
150	0x3d91f667	0.07127076
151	0x3d9a9e3e	0.075497136
152	0x3c4a5b5c	0.012350883
153	0x3cc91c56	0.024549644
154	0xbd918c7d	-0.07106874
155	0xbc22556b	-0.009908061
156	0xbdd02602	-0.101634994
157	0x3d86afd7	0.065765075
158	0xbd940c35	-0.07228891
159	0xbcb2d487	-0.021829857
160	0x3d2e0198	0.04248199
161	0xbd9a0504	-0.07520488
162	0xbcd9cf5e	-0.026588138
163	0xbd863c25	-0.065544404
164	0xbd7f8ea2	-0.062391885
165	0x3c75a954	0.014993984
166	0xbdb43556	-0.087992355
167	0xbd7e3643	-0.062063467
168	0xbd9d4837	-0.076797895
169	0x3ce5368d	0.027980113
170	0x3d6eb6f7	0.058279958
171	0xbce5178a	-0.027965326
172	0x3d7a9aa3	0.06118263
173	0x3c2fc288	0.010727532
174	0x3d29dd30	0.041470706
175	0xbd89af36	-0.06722872
176	0x3c8022ad	0.015641535
177	0xbdb14f9a	-0.08657761
178	0x3d2ba220	0.04190266
179	0xbd0f1cec	-0.03493969
180	0x3cdb5490	0.026773721
181	0xbdb4b949	-0.08824403
182	0x3d3487b0	0.044074714
183	0xbdaf87e4	-0.08570841
184	0xbd2e7eeb	-0.042601507
185	0xbd24a6d5	-0.040198166
186	0xbd0135a3	-0.031545293
187	0x3d4fc0b1	0.050720874
188	0x3d1bcfa0	0.038039804
189	0x3d73d9f8	0.059534043
190	0x3d97f545	0.07419828
191	0xbd84311e	-0.06454681
192	0xbbd0d1b7	-0.006372656
193	0x3cba4885	0.022739658
194	0x3d040381	0.032229904
195	0xbdb4c6b2	-0.088269606
196	0xbd0f19f9	-0.03493688
197	0x3d89f546	0.06736235
198	0x3b8bc970	0.0042659566
199	0x3cc233e7	0.02370639
200	0xbd26a16e	-0.040681295
201	0xbbdb8727	-0.006699461
202	0xbdb2d025	-0.08731107
203	0xbca40599	-0.0200222
204	0xbd893162	-0.06698872
205	0x3da1225b	0.07867881
206	0x3d82c8e0	0.0638597
207	0xbbbe4f43	-0.0058077886
208	0xbd434baa	-0.04767958
209	0x3aaa6960	0.0013001375
210	0xbd8329f5	-0.06404487
211	0x3db09d01	0.08623696
212	0xbd934364	-0.07190588
213	0xbdbbde26	-0.09173231
214	0x3c9ea3ce	0.019365218
215	0x3d841082	0.06448461
216	0x3c8ad4cd	0.016947174
217	0xbd89e161	-0.06732441
218	0xbdb3956a	-0.08768733
219	0x3d63aafe	0.055582993
220	0xbd487c89	-0.04894689
221	0x3dab4fc7	0.08364826
222	0xbcf664e1	-0.0300774
223	0x3d7c779d	0.06163751
224	0x3da9287f	0.08259677
225	0x3db3df4d	0.087828256
226	0xbdbb8035	-0.09155313
227	0x3d6df2af	0.05809277
228	0xbd78f0e3	-0.060776602
229	0x3d0fe88e	0.03513389
230	0xbc840371	-0.016114922
231	0xbd801258	-0.06253499
232	0x3d91bdc8	0.07116276
233	0xbc765280	-0.015034318
234	0xbd13b4af	-0.036060985
235	0x3d07451e	0.0330249
236	0x3c99dd57	0.0187823
237	0x3ca40c78	0.020025477
238	0x3d8d1dae	0.068904266
239	0x3d5d22c8	0.053988248
240	0xbd4d9f37	-0.050200667
241	0x3d4be949	0.049783025
242	0x3d679a95	0.056543905
243	0xbd037ec5	-0.03210332
244	0xbce07647	-0.027400149
245	0xbb8f2ff2	-0.004369729
246	0x3d6a1346	0.057147287
247	0xbd70852f	-0.058720764
248	0xbd75c291	-0.060000006
249	0xbda1a4e2	-0.07892777
250	0xbc2ac5b0	-0.010423109
251	0x3d87536c	0.06607708
252	0x3d5b72da	0.053576328
253	0xbc842f83	-0.016135937
254	0x3ce670a5	0.028129885
255	0x3bf474ab	0.007460197

fc2.bias f4 [128]
0	0xbe87482e	-0.26422256
1	0xbdbda056	-0.09259097
2	0xbe7ee0b6	-0.24890408
3	0xbb6e79b4	-0.0036388459
4	0x3ead3887	0.3383219
5	0xbe28d392	-0.16486958
6	0xbbe8238b	-0.007084315
7	0x3f2b194c	0.66835475
8	0xbe0b79b4	-0.13620645
9	0xbd48ba6a	-0.049005903
10	0xbbb85043	-0.0056248023
11	0xbccf1b3c	-0.025281541
12	0x3ebd4cb2	0.36972576
13	0x3ef624d1	0.48074964
14	0x3d64a149	0.055817876
15	0xbdf93978	-0.121691644
16	0xbd08debb	-0.033415537
17	0xbe3cadb4	-0.18425637
18	0x3d059d2d	0.032620598
19	0xbdade5d9	-0.084911056
20	0xbed137ff	-0.40863034
21	0xbee3b6e4	-0.44475472
22	0xbe854ec3	-0.26036653
23	0xbeb062f3	-0.34450492
24	0x3e02793f	0.12741564
25	0xbe649c69	-0.2232529
26	0x3e02c872	0.12771776
27	0xbc26e117	-0.010185502
28	0x3d996e16	0.074917
29	0xbd9e2105	-0.07721142
30	0xbe6570c5	-0.224063
31	0xbd68b9cb	-0.05681781
32	0x3ed82285	0.42213836
33	0x3d1465b3	0.0362298
34	0x3e5ad9a6	0.21372089
35	0x3ea8ca72	0.32966954
36	0xbe0dfd56	-0.13866171
37	0xbea7af61	-0.3275099
38	0xbe0b07a0	-0.13577127
39	0xbde39cd1	-0.11113895
40	0xbe7686fc	-0.2407493
41	0x3d8dc659	0.069225974
42	0xbda9f4ad	-0.08298621
43	0xbdd28719	-0.10279674
44	0xbd81caf3	-0.063375376
45	0x3bf6e646	0.007534775
46	0xbd109434	-0.035297588
47	0xbc525c41	-0.012839378
48	0xbddecd3c	-0.10878989
49	0xbc032508	-0.008004434
50	0xbe843313	-0.25820217
51	0xbdb55e9e	-0.088559374
52	0x3baa97ea	0.005206098
53	0xbc7e9584	-0.015538577
54	0x3d055522	0.032551892
55	0xbc341a69	-0.010992625
56	0x3c10502c	0.008808177
57	0xbe064aa7	-0.13114415
58	0x3cbf81c8	0.023377314
59	0x3e0b18de	0.13583705
60	0xbda30a54	-0.07960954
61	0xbd07d4df	-0.033161994
62	0xbeab7d6e	-0.33494133
63	0xbd9af8f5	-0.07567016
64	0xbe367779	-0.17819013
65	0xbd28eb6e	-0.04124015
66	0xbe8a7fac	-0.2705053
67	0xbbaadf85	-0.005214634
68	0xbd28ceb1	-0.04121274
69	0xbe22ded5	-0.15905316
70	0x3ea3a962	0.31965166
71	0x3cd88a7a	0.026433218
72	0xbe05d08b	-0.13067834
73	0x3c8e5a45	0.017377028
74	0xbcbd363f	-0.023097156
75	0xbe92d222	-0.28675944
76	0x3e085d7b	0.1331691
77	0x3da297e9	0.07939131
78	0xbe89a3f3	-0.26882896
79	0xbcb1e866	-0.021717262
80	0xbe5e0425	-0.21681269
81	0x3ee7c99e	0.4527101
82	0x3e83a60b	0.25712618
83	0xbe88227a	-0.26588804
84	0xbe68234a	-0.22669712
85	0xbd86b590	-0.06577599
86	0x3e425690	0.18978333
87	0x3e395651	0.18099333
88	0xbe15db09	-0.14634337
89	0xbdb9e9b3	-0.09077778
90	0xbcb141f4	-0.021637894
91	0xbeb81a85	-0.35957733
92	0xbd99fbea	-0.07518752
93	0x3f0bce87	0.5461201
94	0xbd6afb86	-0.057368778
95	0x3db81068	0.08987504
96	0x3dc96b7a	0.09834953
97	0xbd973329	-0.07382805
98	0x3de1a8d0	0.110185266
99	0x3d651cf0	0.0559358
100	0x3e1d9508	0.15388882
101	0xbe274079	-0.16333188
102	0x3e5301f4	0.20606214
103	0xbd72b8fb	-0.059258442
104	0xbdf04241	-0.11731387
105	0xbd9c510c	-0.07632646
106	0x3e26577f	0.16244315
107	0xbe20bfd2	-0.15698174
108	0xbe7cc733	-0.24685363
109	0xbdc5ceec	-0.09658608
110	0x3ea27684	0.31731045
111	0xbe851195	-0.25989977
112	0xbd3b7cce	-0.04577332
113	0x3c84244d	0.01613059
114	0xbd687de7	-0.056760695
115	0xbe4833ef	-0.19551061
116	0xbe41d652	-0.18929413
117	0xbe9703e7	-0.29495165
118	0xbdc87aa7	-0.09789019
119	0xbe574541	-0.21022512
120	0xbd087557	-0.03331503
121	0x3d9ec9a9	0.07753307
122	0x3e10a5aa	0.14125696
123	0xbe279d2a	-0.16368547
124	0x3d59e350	0.053195298
125	0xbd9b9d29	-0.07598335
126	0xbdefdeff	-0.11712455
127	0xbe33ea03	-0.17569737
