saved_models/episode_600/agent_4.pth (torch, 738018 bytes, 44 tensors)

fc1.weight f4 [128, 5]
-0.046380308 0.14112669 -0.27900106 0.21848689 -0.26662397 -0.43581158 -0.24642077 -0.06790744
0.38880062 0.2512036 -0.23958832 0.4024939 -0.014675918 0.2539116 0.3892531 -0.42017034
0.30561614 0.06442661 -0.44712308 -0.26639897 -0.14341573 0.2596797 0.27002713 -0.17781542
0.020472093 -0.02601957 -0.16466926 -0.14420542 0.384167 0.0022678692 -0.18828498 -0.12767747
-0.2274435 0.045887835 -0.1602381 -0.2960164 0.1514406 0.33534062 -0.07118589 -0.05406832
0.33501503 -0.11749079 0.3042592 -0.14720732 0.2800022 0.2573775 0.1390578 -0.1566325
0.069012426 -0.27189338 0.20469324 -0.32796365 -0.34798232 0.27537176 0.043939866 0.37804487
0.09194511 -0.23334995 0.39708492 0.41182518 0.05397529 0.1493603 -0.015412115 0.29473
-0.2927588 -0.25576752 -0.3785596 0.4310837 -0.13046937 -0.29536483 -0.08512447 0.06258208
-0.18226902 0.10301863 -0.19346596 0.05586914 0.015175199 0.08534202 0.22584233 -0.4060732
0.42476365 0.17923526 -0.32605982 0.43373427 0.43012035 0.288935 0.35120308 0.03773009
-0.32256156 0.2973181 0.36007884 -0.3995413 0.31291786 0.102284834 -0.27651164 0.16347831
-0.39945748 -0.3968835 -0.11071608 0.23097867 -0.36354834 0.119451165 -0.040276404 0.021359138
-0.38662672 -0.34203786 -0.04544872 -0.18129866 0.43477243 -0.036791548 -0.29871568 0.3587816
0.27501416 -0.22040369 0.13838032 -0.43790457 0.042044252 0.23714736 -0.28689483 -0.14484069
-0.43035504 0.41246885 -0.09198672 -0.39660087 0.14953321 0.026213562 0.38872412 -0.1345937
-0.10949289 0.31223717 0.049456093 0.0683983 -0.0327628 0.31482884 -0.4326426 -0.25089496
0.3628667 0.39878613 -0.3851335 0.2737241 0.07195986 -0.42472702 0.3319455 0.27725634
-0.25710082 0.055479404 -0.064313 -0.13760501 0.22523507 0.069852814 -0.021807672 0.19422872
0.38851777 0.3403588 -0.081574306 -0.07711362 0.27954268 -0.087615535 0.24337879 0.4044868
0.28313264 0.028110614 -0.12673548 -0.2930168 0.34408188 -0.045632165 -0.3514493 -0.021507943
-0.09667617 0.43321818 -0.32874396 -0.30622554 0.4073502 0.17717752 -0.071262434 -0.3614138
-0.44663692 0.14651437 0.06613014 -0.37013924 -0.055590693 -0.06409726 0.0345593 0.27731746
-0.23911713 0.22950874 -0.19559747 -0.28580165 -0.06805765 0.1493871 -0.121999845 0.365228
-0.2138432 -0.039692204 0.31335595 -0.09361608 0.26996565 0.037791032 0.18225439 0.29987139
-0.34936956 0.37499294 0.30955324 -0.27692133 -0.03886499 0.26586047 0.4192869 -0.1664669
-0.040316924 0.046018757 0.23846756 0.070550136 0.43096012 0.31050098 0.09598958 -0.15571351
-0.049294837 0.0092929695 0.124170765 -0.43064767 0.2007146 0.025632644 0.082645826 0.28433907
-0.09971429 0.26290622 -0.02843728 0.18361644 0.041507866 -0.2592112 -0.06843918 -0.0048249727
0.2680438 -0.13616364 0.049550537 -0.19150506 0.25431672 0.35945663 0.10456753 0.11309152
-0.35874087 -0.004448385 0.29610518 0.09586622 -0.2840045 -0.26616126 -0.36295488 0.18573777
0.3439885 0.04618394 -0.14913508 0.15117052 0.33048496 0.022595106 -0.3034044 0.3922949
00000000: 47f9 3dbd 8483 103e 3ad9 8ebe 07bb 5f3e
00000010: f082 88be b222 dfbe ba55 7cbe 0e13 8bbd
00000020: e010 c73e c29d 803e a456 75be ae13 ce3e
00000030: 4373 70bc b400 823e 2f4c c73e 9120 d7be
00000040: b879 9c3e 19f2 833d 51ed e4be 7265 88be
00000050: 93db 12be bdf4 843e ff40 8a3e 3f15 36be
00000060: 17b5 a73c fe26 d5bc 0f9f 28be 96aa 13be
00000070: 89b1 c43e 88a0 143b c7cd 40be e2bd 02be
00000080: f3e6 68be e2f4 3b3d 7515 24be 768f 97be
00000090: 3f13 1b3e c4b1 ab3e e8c9 91bd be76 5dbd
000000a0: 1787 ab3e 039f f0bd ddc7 9b3e 84bd 16be
000000b0: 735c 8f3e fcc6 833e 2b65 0e3e 4564 20be
000000c0: 6356 8d3d 9c35 8bbe 1b9b 513e daea a7be
000000d0: bd2a b2be 87fd 8c3e 4afa 333d 198f c13e
000000e0: b84d bc3d 4af3 6ebe b74e cb3e c0da d23e
000000f0: 3215 5d3d e8f1 183e 1883 7cbc dae6 963e
00000100: 7be4 95be f6f3 82be 90d2 c1be 01b7 dc3e
00000110: c399 05be 0f3a 97be bd55 aebd 092b 803d
00000120: bba4 3abe 6efb d23d f11b 46be 0ad7 643d
00000130: 66a1 783c ccc7 ae3d 3643 673e d4e8 cfbe
00000140: 9f7a d93e 7389 373e 50f1 a6be 6b12 de3e
00000150: bc38 dc3e 4aef 933e e4d0 b33e de8a 1a3d
00000160: ca26 a5be 143a 983e 415c b83e ad90 ccbe
00000170: c536 a03e b67a d13d ef92 8dbe dc66 273e
00000180: b185 ccbe 5034 cbbe 1dbf e2bd ac85 6c3e
00000190: 0223 babe d0a2 f43d dff8 24bd 5cf9 ae3c
000001a0: f0f3 c5be 961f afbe 7028 3abd 5ba6 39be
000001b0: 7e9a de3e bcb2 16bd 43f1 98be 39b2 b73e
000001c0: a8ce 8c3e 81b1 61be 92b3 0d3e 0735 e0be
000001d0: 9836 2c3d c2d6 723e e1e3 92be 1e51 14be
000001e0: 7f57 dcbe 1e2f d33e 8963 bcbd 450f cbbe
000001f0: 3c1f 193e d3bd d63c d906 c73e eed2 09be
00000200: cf3d e0bd 8ddd 9f3e 7992 4a3d 6814 8c3d
00000210: 4932 06bd 3f31 a13e 5583 ddbe 4e75 80be
00000220: aac9 b93e b22d cc3e 3830 c5be 9125 8c3e
00000230: b15f 933d d275 d9be c3f4 a93e 8bf4 8d3e
00000240: b8a2 83be 5f3e 633d 89b6 83bd 54e8 0cbe
00000250: 06a4 663e fe0e 8f3d 01a6 b2bc e5e3 463e
00000260: cdeb c63e 8243 ae3e 6e10 a7bd bfed 9dbd
00000270: 3820 8f3e c66f b3bd 4a38 793e e518 cf3e
00000280: c3f6 903e 3b48 e63c f2c6 01be 4c06 96be
00000290: 802b b03e cbe8 3abd 2af1 b3be 6d31 b0bc
000002a0: 28fe c5bd c6ce dd3e 2151 a8be 98c9 9cbe
000002b0: 3590 d03e 066e 353e 0af2 91bd 3b0b b9be
000002c0: 98ad e4be dd07 163e 3d6f 873d e482 bdbe
000002d0: 11b3 63bd 6d45 83bd 0d8e 0d3d 8efc 8d3e
000002e0: 1fdb 74be 5704 6b3e b44a 48be 9854 92be
000002f0: cf61 8bbd eff8 183e 0edb f9bd 2aff ba3e
00000300: b6f9 5abe 4b94 22bd 3170 a03e cab9 bfbd
00000310: f038 8a3e c5ca 1a3d e5a0 3a3e be88 993e
00000320: 91e0 b2be 13ff bf3e c37d 9e3e a2c8 8dbe
00000330: e530 1fbd dd1e 883e c6ac d63e 4d76 2abe
00000340: 5c23 25bd 2a7e 3c3d d730 743e 977c 903d
00000350: cea6 dc3e fcf9 9e3e 2f96 c43d 5d73 1fbe
00000360: 62e9 49bd 8a41 183c 3e4d fe3d da7d dcbe
00000370: 2188 4d3e 8dfb d13c 3742 a93d e494 913e
00000380: 0137 ccbd a59b 863e 4cf5 e8bc f305 3c3e
00000390: 2704 2a3d 55b7 84be d729 8cbd ce1a 9ebb
000003a0: 093d 893e 7b6e 0bbe 81f5 4a3d e719 44be
000003b0: cd35 823e b30a b83e 8027 d63d 879c e73d
000003c0: e2ac b7be c2c3 91bb 199b 973e 8255 c43d
000003d0: 0a69 91be 4a46 88be 39d5 b9be 0b32 3e3e
000003e0: 431f b03e 5f2b 3d3d deb6 18be 72cc 1a3e
000003f0: 5335 a93e 5f19 b93c d257 9bbe e1da c83e

fc1.bias f4 [128]
-0.20187731 -0.061010916 0.34027988 0.100832105 -0.037985932 0.43044055 0.08496917 -0.07222122
-0.038183745 0.21557504 -0.15061186 -0.0009239283 -0.37543076 0.3766922 -0.28514242 0.30761626
0.37769678 -0.3146074 -0.3294576 -0.4058485 -0.37496352 -0.043695327 -0.058028866 0.1515199
0.16346844 -0.14076474 0.16489382 -0.36814108 -0.07921749 0.15134056 -0.34976646 0.28982946
-0.26713005 0.08905807 0.25863904 -0.33850938 0.21967842 -0.37969932 -0.1172079 0.23599087
0.22289085 0.30558944 -0.007028965 0.0118548395 0.15992138 -0.16752248 0.32363993 0.42110127
0.40169483 -0.19502649 -0.38137242 0.04303187 -0.43456727 0.42785725 -0.12839371 -0.35490885
-0.38878617 -0.3269863 -0.18580805 0.27043167 -0.30788246 0.03867942 0.22245283 0.4445121
-0.43094233 -0.36078978 0.38098735 0.26984712 -0.30293515 -0.0713117 0.21860856 0.2509369
-0.32234272 -0.30505052 0.032671925 -0.4383698 0.049855024 -0.36027196 0.15549557 0.3586181
0.27104214 0.17285886 -0.28623447 -0.25963682 0.36515504 -0.08137429 -0.36725262 0.3098188
-0.0054769157 0.25682077 -0.38844547 0.20178391 0.11609811 0.19383734 -0.33670747 -0.43076906
0.05271528 -0.39278257 0.10003834 0.1334696 -0.4036121 0.0034158286 -0.42207798 -0.3717901
-0.3025091 0.11643415 0.03918076 0.32326722 0.028955353 -0.3410819 -0.39827672 0.10118695
-0.36459422 0.05349864 -0.0007184626 0.10414012 -0.32615292 0.2817316 0.28557038 -0.29988685
-0.07940734 0.3722346 -0.033393208 -0.16220906 -0.01058007 0.37176841 -0.2067594 -0.18340458
00000000: edb8 4ebe 95e6 79bd 2a39 ae3e 1081 ce3d
00000010: 2397 1bbd b462 dc3e 5104 ae3d b8e8 93bd
00000020: 8f66 1cbd b4bf 5c3e ff39 1abe c733 72ba
00000030: 7638 c0be cddd c03e 30fe 91be e17f 9d3e
00000040: 7961 c13e 3914 a1be abae a8be 60cb cfbe
00000050: 38fb bfbe dff9 32bd adaf 6dbd 0828 1b3e
00000060: 4564 273e a224 10be edd9 283e fd7c bcbe
00000070: c83c a2bd 05f9 1a3e 9714 b3be 8764 943e
00000080: 45c5 88be 1464 b63d 566c 843e 1a51 adbe
00000090: 61f3 603e f367 c2be b20a f0bd 97a7 713e
000000a0: 803d 643e 3876 9c3e 3b53 e6bb cd3a 423c
000000b0: 6ec2 233e 038b 2bbe 22b4 a53e 969a d73e
000000c0: f2aa cd3e 06b5 47be 3f43 c3be 3042 303d
000000d0: 9a7f debe 1b10 db3e a479 03be 9db6 b5be
000000e0: fb0e c7be c06a a7be 7744 3ebe 0576 8a3e
000000f0: c5a2 9dbe 506e 1e3d adca 633e 1797 e33e
00000100: 79a4 dcbe 70b9 b8be c610 c33e 6729 8a3e
00000110: 511a 9bbe de0b 92bd ecda 5f3e cd7a 803e
00000120: 1b0a a5be 952f 9cbe ffd2 053d 0272 e0be
00000130: c834 4c3d 9175 b8be 3b3a 1f3e cb9c b73e
00000140: 09c6 8a3e ea01 313e 538d 92be 1eef 84be
00000150: 9af5 ba3e 90a7 a6bd 8908 bcbe 92a0 9e3e
00000160: b377 b3bb 037e 833e 53e2 c6be 71a0 4e3e
00000170: d9c4 ed3d 4c7d 463e ec64 acbe c38d dcbe
00000180: faeb 573d cc1a c9be e7e0 cc3d 41ac 083e
00000190: 3fa6 cebe 18dc 5f3b 9b1a d8be 465b bebe
000001a0: 79e2 9abe 0775 ee3d 017c 203d 4883 a53e
000001b0: c733 ed3c 49a2 aebe edea cbbe 1b3b cf3d
000001c0: 18ac babe 6421 5b3d 3557 3cba 6a47 d53d
000001d0: 84fd a6be 203f 903e 4836 923e c58a 99be
000001e0: 51a0 a2bd 8995 be3e 51c7 08bd 221a 26be
000001f0: 0858 2dbc 6e58 be3e bcb8 53be 69ce 3bbe

fc2.weight f4 [128, 128]
-0.04434092 0.05494234 0.013553391 -0.060002707 0.09481644 0.08519159 0.008838816 -0.03342626
-0.04391174 0.07234836 0.026201706 -0.010035442 0.029805562 -0.06333411 0.05534617 -0.06406853
-0.040471457 -0.035904042 -0.0072709126 0.07047841 0.0847554 0.014898333 -0.011312998 0.06950228
0.08442627 0.04421599 0.023794109 -0.03034689 0.040040158 -0.024557631 -0.051364042 0.04740656
-0.034701727 0.020911375 -0.02425374 -0.07004489 0.06021384 0.06018179 0.084881164 0.07900176
0.033721957 0.00728565 -0.04669881 -0.06405715 0.08568929 0.060997948 -0.048219327 -0.02551392
0.035860475 0.005636266 -0.045457084 0.018926602 0.10124729 0.00855182 0.018841079 0.09938686
0.013524608 0.03996699 0.058298662 -0.070524216 0.046775583 0.056846585 0.00953925 -0.054514706
0.020260159 0.040665988 0.07435084 -0.043072805 -0.0056186677 0.02064341 0.033024132 -0.017716056
0.041555293 0.04664856 0.013514787 -0.020149399 -0.029410278 0.0156867 -0.044743262 0.024881616
0.046198208 0.036625046 -0.008568908 -0.06844552 0.025676548 0.0639295 0.108936116 -0.06514793
0.08990038 -0.02395984 0.007912811 0.10428985 0.04087092 0.09911038 -0.03414033 0.07466217
0.018806221 0.024255607 0.06282859 0.018960878 -0.006480489 -0.06570718 -0.03663521 -0.05782202
-0.05936665 0.052688926 0.049274355 -0.062059727 0.025265388 -0.027320573 0.0481008 -0.056687366
-0.037733145 -0.03908346 -0.04298709 -0.018210597 -0.017734624 -0.046976972 -0.06617612 0.06805208
0.04487932 0.003351296 -0.07667108 0.04653108 -0.07435004 0.049277365 -0.012514235 0.027238475
-0.03573724 -0.03398682 -0.09521217 -0.062897936 -0.045203686 -0.097529486 -0.023537971 0.026360156
0.054366793 -0.08795675 -0.06003768 0.073916264 0.004763089 0.011567782 -0.035949133 0.08166509
-0.007998205 -0.06419991 -0.026294926 -0.03811948 -0.07295924 0.05522256 0.007537037 -0.010664111
-0.048457813 -0.100664504 -0.087348625 0.022157403 -0.016589062 -0.08381473 -0.09477577 0.037805144
0.03730445 0.010120992 -0.036492426 -0.030863335 -0.06340924 -0.0133052105 0.060745016 0.04199162
-0.030017333 -0.04266275 -0.0776398 -0.020801913 -0.08391582 0.015817944 0.004791195 0.0602606
0.05436758 0.048366956 0.082952365 0.008217783 -0.030919107 -0.068797685 0.013664998 -0.02856941
0.0022382294 -0.051867504 -0.09440138 0.0025825165 0.035816215 -0.05144296 0.06904369 0.042208046
-0.0894479 0.07434573 -0.042948827 0.028418262 0.009839392 -0.001443224 0.04406362 -0.096712075
-0.08163087 0.05327541 -0.07239596 -0.0052175797 -0.0567446 0.052549068 -0.07159613 -0.060895137
-0.019300222 -0.026698012 -0.08506848 -0.056233466 0.014337114 -0.021733854 0.047552533 0.017697515
0.0026967556 -0.014871768 0.07193795 0.06253818 -0.09487205 0.035664327 0.024028927 -0.02960538
-0.020548264 0.020674234 0.043026052 0.06266278 0.052805323 0.07270556 0.0615586 0.061960045
0.063459046 -0.014106477 -0.02103528 0.0036920006 -0.04216059 -0.030466456 0.0146682765 -0.09451254
-0.029784027 0.06570467 -0.018281221 -0.020132061 0.07039746 -0.034801837 -0.019170461 -0.08737638
-0.020985711 0.060136598 -0.05693017 0.007328852 -0.073103406 -0.040009614 0.036613777 0.040495798
00000000: d39e 35bd 380b 613d 0b0f 5e3c 66c5 75bd
00000010: 1f2f c23d ee78 ae3d aed0 103c f9e9 08bd
00000020: ccdc 33bd 612b 943d f6a4 d63c b26b 24bc
00000030: cb2a f43c 50b5 81bd aab2 623d 5d36 83bd
00000040: 66c5 25bd 1e10 13bd d640 eebb fc56 903d
00000050: 3d94 ad3d 2318 743c 275a 39bc 3657 8e3d
00000060: aee7 ac3d d31b 353d ddeb c23c 0b9a f8bc
00000070: 2601 243d 162d c9bc 1a63 52bd 622d 423d
00000080: 6623 0ebd 554e ab3c c8af c6bc b273 8fbd
00000090: caa2 763d 2e81 763d 2dd6 ad3d adcb a13d
000000a0: 0920 0a3d 76bc ee3b 4047 3fbd 6530 83bd
000000b0: de7d af3d fcd8 793d a181 45bd 9102 d1bc
000000c0: 6fe2 123d 6db0 b83b 3531 3abd f60b 9b3c
000000d0: bd5a cf3d ef1c 0c3c 9b58 9a3c 578b cb3d
000000e0: 5196 5d3c 6db4 233d 94ca 6e3d 006f 90bd
000000f0: c197 3f3d f7d7 683d 844a 1c3c d04a 5fbd
00000100: a2f8 a53c 6191 263d 4145 983d 1c6d 30bd
00000110: cd1c b8bb 5e1c a93c 5044 073d 4321 91bc
00000120: e235 2a3d 8f12 3f3d 206d 5d3c 5a10 a5bc
00000130: d3ed f0bc 6581 803c b644 37bd 88d4 cb3c
00000140: 553a 3d3d 2504 163d 9b64 0cbc 2a2d 8cbd
00000150: a057 d23c 78ed 823d e619 df3d 476c 85bd
00000160: b11d b83d 6d47 c4bc bca4 013c eb95 d53d
00000170: 4468 273d 62fa ca3d bbd6 0bbd 7be8 983d
00000180: 810f 9a3c b2b3 c63c 47ac 803d d853 9b3c
00000190: 485a d4bb 7c91 86bd cd0e 16bd c8d6 6cbd
000001a0: 722a 73bd 58d0 573d e8d3 493d 5732 7ebd
000001b0: 5cf9 ce3c 65cf dfbc 5805 453d 0331 68bd
000001c0: 128e 1abd fa15 20bd 3b13 30bd 642e 95bc
000001d0: 3448 91bc ed6a 40bd 5887 87bd e45e 8b3d
000001e0: 61d3 373d 6ba1 5b3b ba05 9dbd 6097 3e3d
000001f0: d544 98bd 10d7 493d 8208 4dbc 3923 df3c
00000200: 3661 12bd c435 0bbd 99fe c2bd a2d0 80bd
00000210: 8027 39bd 8abd c7bd b4d2 c0bc 41f1 d73c
00000220: b7af 5e3d ab22 b4bd 12ea 75bd 6961 973d
00000230: b013 9c3b cb86 3d3c 663f 13bd 0740 a73d
00000240: e70a 03bc 3e7b 83bd 7568 d7bc 2c23 1cbd
00000250: a76b 95bd 0d31 623d 40f9 f63b 86b8 2ebc
00000260: b37b 46bd 3129 cebd d6e3 b2bd 7183 b53c
00000270: c9e5 87bc 0fa7 abbd cd19 c2bd 91d9 1a3d
00000280: 8dcc 183d 84d2 253c 1579 15bd 1bd5 fcbc
00000290: b4dc 81bd 19fe 59bc c4cf 783d 68ff 2b3d
000002a0: e9e6 f5bc 23bf 2ebd 9e01 9fbd c668 aabc
000002b0: 0fdc abbd a294 813c 75ff 9c3b d2d3 763d
000002c0: 8ab0 5e3d 6e1c 463d eee2 a93d e1a3 063c
000002d0: 114a fdbc cde5 8cbd 28e3 5f3c 650a eabc
000002e0: 42af 123b 0573 54bd 8355 c1bd 703f 293b
000002f0: 06b4 123d dab5 52bd c766 8d3d 58e2 2c3d
00000300: 7630 b7bd 9342 983d 1ceb 2fbd 6acd e83c
00000310: 6735 213c 902a bdba 0e7c 343d fb10 c6bd
00000320: 162e a7bd 5137 5a3d 5544 94bd 3bf8 aabb
00000330: 076d 68bd b13d 573d fea0 92bd 2e6d 79bd
00000340: 801b 9ebc cab5 dabc 6238 aebd 1055 66bd
00000350: 37e6 6a3c 320b b2bc 72c6 423d 61fa 903c
00000360: 0dbc 303b b7a8 73bc 3454 933d 0414 803d
00000370: 474c c2bd c214 123d 50d8 c43c fb86 f2bc
00000380: d554 a8bc 035d a93c 163c 303d 5855 803d
00000390: 654a 583d a7e6 943d df24 7c3d d1c9 7d3d
000003a0: d1f6 813d da1e 67bc 2e52 acbc 7ef5 713b
000003b0: 95b0 2cbd ca94 f9bc 3653 703c ca8f c1bd
000003c0: a2fd f3bc 2c90 863d 80c2 95bc feeb a4bc
000003d0: 8b2c 903d 5f8c 0ebd 5f0b 9dbc 63f2 b2bd
000003e0: 3aea abbc cb51 763d 9c2f 69bd de26 f03b
000003f0: 3db7 95bd 1fe1 23bd 54f8 153d ecde 253d

fc2.bias f4 [128]
0.09429618 0.066286586 0.060882397 -0.077206664 0.033069495 0.00603996 0.011192633 -0.006792951
-0.025794197 0.04162711 -0.044512246 -0.06341631 0.019678732 -0.001855789 -0.03956053 -0.042540975
-0.0019129331 0.021443969 0.0217812 0.039396547 -0.041149184 0.017435707 0.07789231 -0.046702377
-0.047273245 -0.005841711 -0.04783293 -0.08784966 -0.07980085 -0.004550511 -0.0658798 0.012947484
-0.028234713 0.0834053 -0.06920206 0.03490389 0.047184482 -0.008116798 0.08382937 -0.012775637
-0.051596917 0.07435035 -0.004093677 0.0049763382 -0.04782158 -0.04450689 -0.039703533 0.07617534
-0.029976483 -0.06638998 0.036524873 -0.0615232 0.06293297 -0.07594327 -0.043799564 0.041877422
0.09601428 -0.06799185 0.030324629 0.0001599789 0.0035341186 -0.043986484 0.06371607 0.024738383
-0.03354636 -0.035656106 0.015220543 -0.078429334 -0.04763971 0.048608083 0.018076228 0.009872329
-0.008317408 -0.029006578 0.07443956 0.043204237 -0.029128624 -0.041388374 -0.06534102 -0.04131689
0.03289101 -0.06665389 -0.011247294 -0.013461279 -0.03786627 -0.06417812 0.09891574 0.012637497
0.011629147 0.05003273 0.09522123 0.01842067 -0.07297483 -0.06268063 0.0700687 -0.07478957
-0.008415598 0.04961506 0.021570465 0.04761089 0.025967766 -0.0776614 -0.046113346 0.03051043
0.082132556 0.06812963 -0.002676146 0.058569305 0.06754294 0.049942095 -0.07567798 -0.002920155
0.03475953 0.019490978 0.039435454 0.054512873 0.0022147642 0.015914125 0.065476045 0.07311096
0.03621608 -0.062494546 -0.081810996 -0.037335273 -0.06116105 -0.019441571 0.0577779 -0.04930481
00000000: 5b1e c13d 43c1 873d d25f 793d 871e 9ebd
00000010: e173 073d dbea c53b 4e61 373c 6797 debb
00000020: 5a4e d3bc 3081 2a3d 7952 36bd 69e0 81bd
00000030: 4b35 a13c f23d f3ba 390a 22bd 723f 2ebd
00000040: 62bb faba 43ab af3c 7d6e b23c 465e 213d
00000050: 0c8c 28bd 54d5 8e3c 0186 9f3d fe4a 3fbd
00000060: 97a1 41bd d36b bfbb 76ec 43bd 86ea b3bd
00000070: a16e a3bd 741c 95bb fdeb 86bd af21 543c
00000080: 7c4c e7bc 66d0 aa3d cfb9 8dbd 62f7 0e3d
00000090: 8444 413d 51fc 04bc bcae ab3d e850 51bc
000000a0: 4a57 53bd ff44 983d 4024 86bb 8d10 a33b
000000b0: 90e0 43bd db4c 36bd 2ca0 22bd d101 9c3d
000000c0: 3e91 f5bc 78f7 87bd 1b9b 153d c0ff 7bbd
000000d0: 00e3 803d 2588 9bbd 2c67 33bd a987 2b3d
000000e0: 23a3 c43d 503f 8bbd 5b6b f83c 02c0 2739
000000f0: ac9c 673b 2c2b 34bd 927d 823d 26a8 ca3c
00000100: e867 09bd 230c 12bd 965f 793c 8f9f a0bd
00000110: db21 43bd 4519 473d 9914 943c 8dbf 213c
00000120: bd45 08bc 349f edbc c573 983d edf6 303d
00000130: 279f eebc db86 29bd 83d1 85bd e63b 29bd
00000140: b9b8 063d d681 88bd 9246 38bc b28c 5cbc
00000150: a919 1bbd d16f 83bd 5694 ca3d 810d 4f3c
00000160: 2e88 3e3c 1fef 4c3d 5903 c33d f2e6 963c
00000170: d473 95bd b45e 80bd 2e80 8f3d 462b 99bd
00000180: 94e1 09bc 2939 4b3d 8bb4 b03c a303 433d
00000190: 5aba d43c f10c 9fbd 59e1 3cbd 02f1 f93c
000001a0: 1d35 a83d 8c87 8b3d 4862 2fbb 5ee6 6f3d
000001b0: f453 8a3d 1590 4c3d 0ffd 9abd 1260 3fbb
000001c0: 0260 0e3d 8bab 9f3c 1287 213d e448 5f3d
000001d0: 9425 113b 575e 823c 4e18 863d 33bb 953d
000001e0: 5057 143d 48fa 7fbd 868c a7bd dfec 18bd
000001f0: 0284 7abd ee43 9fbc 85a8 6c3d d7f3 49bd

fc3.weight f4 [2, 128]
0.07772215 -0.0042787567 -0.06320659 -0.04465432 -0.046012197 -0.036566563 0.014192582 -0.020288255
-0.055774853 -0.04299443 -0.061445363 0.0051052896 -0.08407658 -0.026294576 0.09347461 -0.00035045523
0.057955343 0.06071241 -0.042602506 0.0017542682 0.05967741 0.035067327 0.021001495 -0.0515294
-0.057882227 -0.060660798 0.017868966 0.0071459077 0.0009968617 0.05514052 -0.02963914 -0.009018188
0.0396454 0.037784375 -0.058499236 0.07037446 -0.05987356 0.04099745 0.04674069 0.040265076
-0.0069590793 -0.02102565 0.106862426 0.016735781 0.02264939 -0.023218928 0.07761415 0.0032798361
0.093736485 -0.07110051 0.046403594 -0.057998583 0.031210512 -0.040387325 -0.06253105 0.023334445
0.061051883 0.029781263 0.0010504733 0.02030102 -0.0007052116 -0.06497318 0.014720378 -0.03228197
-0.01589627 -0.038417615 -0.057907417 0.041534077 -0.025835091 -0.0127425585 0.044655144 -0.00964275
-0.042007647 -0.024389345 0.10234622 -0.05441489 0.033501547 -0.052396894 0.10849066 -0.05120018
0.030356428 -0.082279675 0.08005128 0.009604141 0.105650246 -0.014074098 0.08257009 -0.025816921
0.00071467354 -0.029568795 0.021484397 0.049159735 0.08615876 0.07339048 0.006938928 0.03733905
0.027605876 0.025282659 0.0780251 0.09603194 0.09045897 0.031898696 0.048086733 -0.06566546
-0.0059083444 0.055696808 0.08938837 0.088950135 -0.050454743 0.035015117 -0.03826494 -0.061389856
0.022494897 -0.05740715 -0.0348079 0.057405643 -0.019735714 -0.061955217 0.07506004 0.07519317
0.021090504 0.026765725 0.023150578 0.10396974 0.058166422 -0.0024378668 0.109461464 -0.006718719
0.037201606 0.012418032 0.062043946 -0.07923503 0.05756425 -0.045798793 -0.08307127 0.06003591
-0.084177665 0.039387748 0.046437085 0.013987095 -0.026382472 0.08800553 0.058278866 -0.039807223
-0.03043211 -0.023560394 -0.02004218 -0.0393061 0.051684543 -0.030488435 -0.03971496 -0.056631535
0.02340734 -0.025518557 -0.026364816 -0.042860456 0.03074011 0.042821344 -0.049700856 -0.05196861
0.07343625 0.027036918 0.09291119 0.01917 0.07074316 -0.022514066 0.052995782 -0.06487287
0.08156066 0.023504717 -0.015757939 0.03508458 0.03710152 -0.069773346 -0.04744259 -0.050003093
0.069185786 0.034957312 -0.043627888 0.08766241 -0.03241965 0.026312983 0.023403933 0.063427016
-0.07529628 -0.036007006 -0.022061404 0.070865236 -0.03444448 -0.017948123 -0.012081199 -0.055948477
-0.067629054 -0.0026371712 0.09079152 -0.027223032 0.086634055 -0.05199727 0.028154256 0.040730815
0.06882131 0.012246653 0.04157924 0.05729464 -0.014482407 -0.034213305 -0.07696715 -0.07563504
-0.07591714 -0.06577847 0.090397544 -0.08669442 -0.078447044 -0.07980344 0.070986725 -0.02454217
-0.07904964 -0.074670315 0.02047944 0.06811776 0.019636342 0.08842777 -0.067154124 0.02233056
-0.08112616 0.064216346 0.037591655 -0.075372525 -0.0665458 0.04013148 -0.05626715 0.077454455
0.07621526 0.019548267 0.043217316 0.00461061 -0.030281221 0.07110553 0.086891234 0.0035417893
-0.052418172 -0.03118869 0.023584008 -0.07533576 0.03828526 -0.06596216 0.004190185 0.08067723
0.023773476 0.019603636 -0.03971037 0.08168895 -0.04652763 -0.063241035 0.016861279 -0.002615376
00000000: ca2c 9f3d d034 8cbb 7572 81bd 73e7 36bd
00000010: 4977 3cbd d2c6 15bd 0188 683c 8e33 a6bc
00000020: 2c74 64bd ed1a 30bd 22ae 7bbd 464a a73b
00000030: 5830 acbd b967 d7bc 9e6f bf3d 4ebd b7b9
00000040: 9562 6d3d 93ad 783d f77f 2ebd 79ef e53a
00000050: 4d70 743d c2a2 0f3d 540b ac3c 7e10 53bd
00000060: ea15 6dbd 7577 78bd f061 923c 3828 ea3b
00000070: 21a9 823a 07db 613d c8cd f2bc 06c1 13bc
00000080: 3763 223d cac3 1a3d e59c 6fbd 7c20 903d
00000090: fa3d 75bd f1ec 273d 2a73 3f3d feec 243d
000000a0: fd08 e4bb fc3d acbc b0da da3d 7a19 893c
000000b0: 378b b93c 9f35 bebc 2bf4 9e3d 85f2 563b
000000c0: eaf8 bf3d 259d 91bd b211 3e3d ec8f 6dbd
000000d0: 30ad ff3c 2e6d 25bd 4710 80bd e127 bf3c
000000e0: 8a11 7a3d d6f7 f33c 09b0 893a 534e a63c
000000f0: f3dd 38ba a910 85bd be2d 713c 193a 04bd
00000100: e538 82bc ca5b 1dbd 5430 6dbd a31f 2a3d
00000110: 1da4 d3bc 2ac6 50bc 50e8 363d a0fc 1dbc
00000120: 3610 2cbd 2acc c7bc e59a d13d 26e2 5ebd
00000130: eb38 093d 209e 56bd 5a30 de3d 48b7 51bd
00000140: 0bae f83c 3f82 a8bd edf1 a33d b05a 1d3c
00000150: 285f d83d 0c97 66bc 821a a93d 027e d3bc
00000160: ee58 3b3a 423a f2bc 0c00 b03c b85b 493d
00000170: 0174 b03d bf4d 963d f25f e33b d5f0 183d
00000180: b825 e23c 941d cf3c a0cb 9f3d 65ac c43d
00000190: 8d42 b93d 35a8 023d 98f6 443d 9d7b 86bd
000001a0: c99a c1bb 5622 643d 4011 b73d 7d2b b63d
000001b0: a2a9 4ebd 036c 0f3d b3bb 1cbd ee73 7bbd
000001c0: 3847 b83c c223 6bbd bb92 0ebd 2e22 6b3d
000001d0: cbac a1bc c1c4 7dbd 14b9 993d e0fe 993d
000001e0: fec5 ac3c cb43 db3c 48a6 bd3c 16ee d43d
000001f0: ea3f 6e3d 9ec4 1fbb 552d e03d b328 dcbb
00000200: b660 183d 0075 4b3c cb21 7e3d fa45 a2bd
00000210: 7ec8 6b3d 8497 3bbd 4521 aabd 37e8 753d
00000220: 5765 acbd 0c55 213d d034 3e3d 212a 653c
00000230: 0e20 d8bc 3e3c b43d d2b5 6e3d e60c 23bd
00000240: c34c f9bc ba01 c1bc 7f2f a4bc 6fff 20bd
00000250: 2cb3 533d e2c2 f9bc 27ac 22bd 78f6 67bd
00000260: c0c0 bf3c 4b0c d1bc 07fb d7bc 728e 2fbd
00000270: afd2 fb3c 6f65 2f3d 2093 4bbd 0add 54bd
00000280: bf65 963d 877c dd3c 3948 be3d 670a 9d3c
00000290: cae1 903d 6b6f b8bc 1b12 593d 11dc 84bd
000002a0: 4609 a73d f78c c03c cb16 81bc d9b4 0f3d
000002b0: c3f7 173d 54e5 8ebd 2953 42bd 0bd0 4cbd
000002c0: 47b1 8d3d 662f 0f3d 28b3 32bd 5a88 b33d
000002d0: 78ca 04bd 538e d73c 9bb9 bf3c 06e6 813d
000002e0: f034 9abd 157c 13bd 1eba b4bc cb21 913d
000002f0: a815 0dbd f107 93bc 39f0 45bc 3b2a 65bd
00000300: 1a81 8abd 64d4 2cbb e8f0 b93d d602 dfbc
00000310: 326d b13d 17fb 54bd c1a3 e63c 5bd5 263d
00000320: 30f2 8c3d 30a6 483c fe4e 2a3d c9ad 6a3d
00000330: 9e47 6dbc 4023 0cbd f4a0 9dbd 8be6 9abd
00000340: 727a 9bbd ddb6 86bd 5922 b93d d88c b1bd
00000350: d8a8 a0bd fc6f a3bd 7d61 913d a90c c9bc
00000360: c7e4 a1bd c0ec 98bd 80c4 a73c 5381 8b3d
00000370: 65dc a03c 9e19 b53d 1a88 89bd 94ee b63c
00000380: 7925 a6bd dc83 833d b5f9 193d e95c 9abd
00000390: 2a49 88bd e860 243d 6278 66bd 71a0 9e3d
000003a0: bf16 9c3d b023 a03c a404 313d 9a14 973b
000003b0: 5310 f8bc c79f 913d 08f4 b13d 5d1d 683b
000003c0: 70b4 56bd 6c7f ffbc 4033 c13c a349 9abd
000003d0: 01d1 1c3d 2b17 87bd d24d 893b 1b3a a53d
000003e0: 98c0 c23c ce97 a03c 57a7 22bd 894c a73d
000003f0: c293 3ebd 8484 81bd aa20 8a3c ba66 2bbb

fc3.bias f4 [2]
-0.017894896 -0.026570186
00000000: 5198 92bc b8a9 d9bc

fc1.weight f4 [128, 84]
0.047603276 0.033197362 -0.039170414 0.038802654 -0.076079585 -0.058523476 0.07317515 -0.045518216
0.018551068 0.061515115 -0.08245829 -0.02720076 0.010852775 0.023355037 -0.033325795 0.056448087
-0.10181709 0.06681779 -0.0037383514 -0.07902688 -0.09540999 -0.0037770292 -0.043362584 0.09187058
-0.051877774 0.04261011 -0.016127551 -0.02518229 -0.011884442 -0.047275733 -0.11005729 0.042735208
0.025371999 -0.07835602 0.061599754 -0.034364153 -0.115512855 -0.063764356 -0.011637597 -0.015917229
0.0061168787 0.037383847 0.014018546 -0.034522608 0.085029215 0.031787433 -0.10001964 0.09035157
0.049965784 -0.008171405 -0.061295398 0.025180934 -0.06637021 0.06911168 -0.09761233 -0.08980618
-0.10478371 0.052895367 -0.06738011 -0.014846156 0.022136739 -0.018594045 -0.06270797 -0.054808453
-0.01086213 -0.02454302 0.05039561 0.009489408 0.027193671 0.016089516 -0.011045209 -0.033622
-0.048296947 0.06092409 0.096404836 0.029821271 -0.065547176 0.04687626 -0.0007718535 0.07365848
0.060409393 0.025961362 -0.08675939 -0.0775044 -0.049918287 -0.018335458 -0.08578902 -0.07184363
0.05781563 -0.009100519 -0.012406435 -0.053625636 -0.059400927 0.10335401 -0.10520727 -0.003508259
-0.1118985 0.062218368 -0.011425405 -0.0023965333 0.029006034 0.012544891 -0.042558383 -0.041939612
-0.014273663 -0.13287172 -0.10464977 0.021157848 -0.0656536 -0.003022926 -0.08843096 -0.11074543
-0.07875254 -0.05962011 -0.0074409954 -0.043623492 -0.12843734 0.05215098 0.005350767 0.014649863
-0.1241603 -0.044834066 0.019669477 -0.00023202831 0.023015872 -0.053383913 0.061782513 0.048229005
-0.041655082 0.01670161 0.07620689 -0.07577042 -0.020244824 -0.01607647 -0.10230703 -0.009694579
-0.015287032 -0.070718855 0.06388896 0.0054230024 -0.08295884 -0.013405893 0.022283735 -0.042680748
-0.064136 0.09295081 0.1038134 -0.052404642 0.040717576 0.1086123 -0.015426405 0.07744602
-0.12037613 -0.0851425 -0.041704465 0.059978906 0.11344241 -0.053955406 -0.01004109 0.026758138
-0.047036033 -0.033151425 -0.07607066 0.014148758 0.0529995 -0.020832436 -0.049089693 0.0860333
-0.0825613 -0.10119031 -0.115716256 0.0024394363 -0.065665744 0.019770298 0.00504011 -0.06998217
-0.11104385 -0.042747747 -0.0078764055 0.0120463595 -0.097359605 0.015793335 0.018499097 0.04587519
-0.012618886 -0.1655979 -0.025390768 -0.07206091 0.031640757 -0.15579906 -0.05887673 -0.11312862
0.017152263 -0.007789009 0.03404493 -0.10685859 -0.06183599 0.03871291 0.031836778 0.017405493
-0.10344035 -0.14394414 -0.010751734 0.052811485 -0.014075533 -0.055098288 -0.16087277 0.067818016
0.06257629 -0.00050643855 0.015331247 -0.060369223 0.022617446 0.037473228 -0.0740715 -0.10043237
-0.094330154 -0.047758486 -0.04754723 -0.15649846 0.061038774 -0.12343536 -0.09259838 0.04387005
-0.095278345 -0.11754133 -0.0055694026 -0.073172666 0.043148693 0.017155396 0.16361217 -0.018845007
0.100212984 -0.034400925 -0.10898041 -0.10730339 -0.04139978 -0.060041696 0.06495359 0.031932753
0.07247038 -0.10883731 -0.07728621 -0.040986955 -0.039458062 0.07780159 0.014091397 -0.003466648
-0.028876817 0.06917189 -0.054536402 0.08881814 0.1018139 0.055964086 -0.057083838 -0.0070509813
00000000: a7fb 423d f5f9 073d 2871 20bd 88ef 1e3d
00000010: 9dcf 9bbd 50b6 6fbd dadc 953d 4f71 3abd
00000020: 69f8 973c 46f7 7b3d e4df a8bd 21d4 debc
00000030: d6cf 313c 1053 bf3c a180 08bd 1c36 673d
00000040: 7a85 d0bd c4d7 883d 21ff 74bb d8d8 a1bd
00000050: 5066 c3bd 0988 77bb f79c 31bd a526 bc3d
00000060: ca7d 54bd f087 2e3d ed1d 84bc 174b cebc
00000070: f6b6 42bc 33a4 41bd b765 e1bd 1d0b 2f3d
00000080: f0d8 cf3c 1f79 a0bd 0650 7c3d 6dc1 0cbd
00000090: 0192 ecbd e396 82bd 9fab 3ebc d964 82bc
000000a0: 1970 c83b ce1f 193d 0bae 653c 9467 0dbd
000000b0: cc23 ae3d 8a33 023d 19d7 ccbd 3e0a b93d
000000c0: eca8 4c3d 5be1 05bc e210 7bbd 3f48 ce3c
000000d0: 1bed 87bd 6d8a 8d3d f9e8 c7bd 4dec b7bd
000000e0: d798 d6bd d0a8 583d 95fe 89bd 4b3d 73bc
000000f0: 1b58 b53c 8a52 98bc 096d 80bd d47e 60bd
00000100: 13f7 31bc 720e c9bc a16b 4e3d 7679 1b3c
00000110: 43c5 de3c 29ce 833c f7f6 34bc 39b7 09bd
00000120: 05d3 45bd 8a8b 793d e66f c53d bd4b f43c
00000130: 993d 86bd 5201 403d 3656 4aba 42da 963d
00000140: d76f 773d ecac d43c e8ae b1bd a0ba 9ebd
00000150: 1e77 4cbd 3e34 96bc 27b2 afbd c122 93bd
00000160: 15d0 6c3d 581a 15bc 5c44 4bbc 8ea6 5bbd
00000170: 634e 73bd 44ab d33d e976 d7bd d2ea 65bb
00000180: 0a2b e5bd b0d8 7e3d 9f31 3bbc 280f 1dbb
00000190: 109e ed3c 1689 4d3c b351 2ebd dfc8 2bbd
000001a0: 15dc 69bc 860f 08be 9e52 d6bd 3953 ad3c
000001b0: 6575 86bd 481c 46bb 4b1b b5bd 80ce e2bd
000001c0: 0349 a1bd 3734 74bd 98d3 f3bb 8cae 32bd
000001d0: 1485 03be 449c 553d 7d55 af3b fb05 703c
000001e0: c147 febd eda3 37bd e221 a13c a04c 73b9
000001f0: c88b bc3c 17a9 5abd a90f 7d3d c78b 453d
00000200: 859e 2abd d1d1 883c 5c12 9c3d 862d 9bbd
00000210: 79d8 a5bc cdb2 83bc 5986 d1bd 03d6 1ebc
00000220: 7676 7abc 0cd5 90bd 37d8 823d 71b3 b13b
00000230: 53e6 a9bd 64a4 5bbc 618c b63c 02d2 2ebd
00000240: bc59 83bd ff5c be3d 1f9c d43d 40a6 56bd
00000250: 79c7 263d 2070 de3d 08bf 7cbc 059c 9e3d
00000260: c387 f6bd 315f aebd 4dd2 2abd 71ac 753d
00000270: 7f54 e83d 5800 5dbd 6283 24bc e233 db3c
00000280: dba8 40bd cac9 07bd efca 9bbd 31d0 673c
00000290: 0116 593d c9a8 aabc 4612 49bd 3a32 b03d
000002a0: e615 a9bd de3c cfbd a5fc ecbd f3de 1f3b
000002b0: c37b 86bd 52f5 a13c 8227 a53b d052 8fbd
000002c0: f56a e3bd 4318 2fbd 0a0c 01bc 185e 453c
000002d0: 7964 c7bd 0661 813c 6b8b 973c a0e7 3b3d
000002e0: 72bf 4ebc 7f92 29be 4d00 d0bc ac94 93bd
000002f0: bd99 013d ca89 1fbe ba28 71bd faaf e7bd
00000300: e782 8c3c f13a ffbb b272 0b3d add8 dabd
00000310: bc47 7dbd 6e91 1e3d 4867 023d f795 8e3c
00000320: 89d8 d3bd 1866 13be 0a28 30bc db50 583d
00000330: 109d 66bc beae 61bd d5bb 24be 2ce4 8a3d
00000340: ff27 803d 84c2 04ba e92f 7b3c b845 77bd
00000350: 3948 b93c 877d 193d ccb2 97bd 7daf cdbd
00000360: 2b30 c1bd 679e 43bd e2c0 42bd 2241 20be
00000370: cb03 7a3d aecb fcbd 38a4 bdbd 15b1 333d
00000380: 4b21 c3bd 82b9 f0bd 897f b6bb 8ddb 95bd
00000390: afbc 303d 7989 8c3c f389 273e d860 9abc
000003a0: 773c cd3d fce7 0cbd 1f31 dfbd e1c1 dbbd
000003b0: d192 29bd 48ee 75bd 6306 853d ebcb 023d
000003c0: 5a6b 943d 18e6 debd 3c48 9ebd f0e1 27bd
000003d0: c79e 21bd 7156 9f3d 9adf 663c b430 63bb
000003e0: 138f ecbc fea9 8d3d 9061 5fbd 49e6 b53d
000003f0: ce83 d03d 993a 653d bed0 69bd eb0b e7bb

fc1.bias f4 [128]
-0.078986734 -0.0023524032 0.04043273 -0.046928592 -0.036742546 0.053941894 0.025445916 0.04333562
-0.119285405 0.010281518 0.021164242 -0.002383699 0.06651769 0.031804696 0.22865644 -0.07159328
-0.13263203 -0.05711789 0.027574882 0.04088457 0.009873124 -0.04936141 0.092785686 0.0041140574
-0.09112031 -0.03259622 -0.16972104 0.02053229 0.05488637 -0.04093913 -0.12030427 -0.106184244
-0.0894376 0.027035998 -0.0696319 -0.030703774 0.016270753 -0.057197712 -0.027143367 -0.07173623
0.11153644 0.049248286 0.012565197 0.07924275 -0.03484364 -0.05708605 -0.1038025 0.016742604
-0.0892163 -0.0009943967 -0.08002801 0.07324893 0.018180192 -0.0015751495 -0.08125024 -0.018415242
0.068612374 0.007359607 0.06996725 -0.05706025 0.07922577 -0.037398253 0.079622746 -0.036391728
-0.047175884 -0.035818674 -0.119925536 -0.057061736 0.02817963 -0.045925353 0.20504403 -0.087458484
-0.02339404 0.035685368 0.009166075 0.08014108 -0.13800646 0.026519028 -0.045938782 0.012941913
-0.08972479 0.03443975 0.002154282 -0.09258685 0.005854628 0.090121895 -0.12060346 -0.050657853
0.021469438 -0.039704796 -0.04614867 -0.013276883 0.05386144 -0.16988556 0.03585661 -0.029097905
-0.07370081 -0.08962034 -0.010305274 0.028314656 0.0140694305 0.041526902 -0.15410794 0.060479395
0.045681924 -0.019259807 0.028897282 -0.0796751 0.0070767724 0.0026048666 -0.10505204 -0.16097736
-0.124611475 -0.016334668 -0.10207144 -0.13857278 0.064517476 -0.11312787 0.04912636 0.014059018
-0.012952925 -0.04022875 0.08148203 -0.020874146 -0.054349918 0.02114023 -0.16889226 -0.1390236
00000000: ccc3 a1bd c72a 1abb ca9c 253d 3238 40bd
00000010: 5a7f 16bd 2df2 5c3d f473 d03c b180 313d
00000020: e84b f4bd d073 283c a260 ad3c d537 1cbb
00000030: 6d3a 883d a445 023d ea24 6a3e 7f9f 92bd
00000040: b1d0 07be 73f4 69bd b8e4 e13c 9476 273d
00000050: e2c2 213c 312f 4abd 6c06 be3d 37cf 863b
00000060: 499d babd 9d83 05bd 5acb 2dbe 5533 a83c
00000070: 88d0 603d caaf 27bd 1662 f6bd 2077 d9bd
00000080: 0f2b b7bd 997a dd3c 2b9b 8ebd 7b86 fbbc
00000090: 3e4a 853c 2648 6abd c45b debc 72ea 92bd
000000a0: 386d e43d 92b8 493d 42de 4d3c 064a a23d
000000b0: 34b8 0ebd 10d3 69bd 6896 d4bd c927 893c
000000c0: 09b7 b6bd 6b56 82ba bae5 a3bd 8903 963d
000000d0: a0ee 943c 3f75 ceba 8766 a6bd 90db 96bc
000000e0: a584 8c3d dc28 f13b fd4a 8f3d 02b8 69bd
000000f0: 1f41 a23d e92e 19bd 4011 a33d 7e0f 15bd
00000100: 803b 41bd 9ab6 12bd 859b f5bd 91b9 69bd
00000110: f8d8 e63c 391c 3cbd 10f7 513e 6f1d b3bd
00000120: dca4 bfbc d22a 123d 4e2d 163c 0221 a43d
00000130: 9151 0dbe 6f3e d93c 4e2a 3cbd 510a 543c
00000140: a1c1 b7bd b210 0d3d db2e 0d3b 2d9e bdbd
00000150: 2ed8 bf3b d491 b83d f2fe f6bd 9c7e 4fbd
00000160: ade0 af3c 7fa1 22bd 6306 3dbd 4987 59bc
00000170: d09d 5c3d 7bf6 2dbe 61de 123d bb5e eebc
00000180: 73f0 96bd de8a b7bd 74d7 28bc 23f4 e73c
00000190: 7883 663c 1d18 2a3d 79ce 1dbe 3eb9 773d
000001a0: f81c 3b3d bec6 9dbc feb9 ec3c b32c a3bd
000001b0: 45e4 e73b 69b6 2a3b 8625 d7bd 40d7 24be
000001c0: 4d34 ffbd 48d0 85bc d50a d1bd 06e6 0dbe
000001d0: bd21 843d 96af e7bd b938 493d cc57 663c
000001e0: 8138 54bc e7c6 24bd 0de0 a63d 4200 abbc
000001f0: 059e 5ebd 472e ad3c 18f2 2cbe 345c 0ebe

fc2.weight f4 [128, 128]
-0.023483818 -0.007813436 0.015040344 -0.092368685 0.02464853 0.06455228 0.28395057 -0.022538465
0.046888452 0.011169926 0.036213342 -0.041280486 0.16400602 -0.27936023 -0.034304716 0.027986782
0.02650538 -0.064233325 0.005380888 0.021283243 -0.008925091 -0.027468927 -0.059140857 -0.08630801
0.008073692 -0.049545184 0.09706488 0.012636179 -0.0040015364 0.26318917 -0.043183066 0.02434747
-0.07558802 -0.0423761 -0.10682008 -0.07044015 -0.08865532 0.05768521 -0.059928004 0.086116925
0.069911435 0.05605865 0.06528845 0.0835784 -0.032887112 -0.2202562 -0.08671478 -0.10156864
-0.022102566 -0.0698975 0.048825316 -0.024431556 -0.07154138 0.02087484 -0.17460589 -0.10118228
0.04974454 -0.050391875 0.18359113 0.12716335 0.11567421 0.10108822 -0.08797106 -0.36560726
0.016536186 -0.03127573 -0.028972859 0.0034457855 -0.08153585 0.13169539 0.0038661317 0.008075814
0.0069730934 -0.050353736 -0.11968792 0.058055587 -0.06760701 -0.0026020298 -0.09452739 -0.021839455
0.028113062 -0.00289296 0.07680498 -0.2099721 0.076582916 -0.05289143 0.19136238 -0.055047847
-0.04602149 -0.16120212 0.10379532 0.0565599 0.07218088 0.052223276 -0.051453967 0.04318989
-0.06865779 -0.0026785028 -0.029389376 0.09754244 -0.080159836 0.001594194 0.029642627 -0.014698116
-0.043560747 -0.016098073 -0.014515921 0.094323345 -0.19135211 0.063934684 -0.19071172 -0.37550217
0.05119479 0.0234829 -0.08700581 -0.10474783 -0.07838556 -0.04617357 -0.09203465 -0.41139415
-0.054132793 -0.0101889735 0.058352403 0.099526905 0.007153495 -0.06031347 0.07884699 -0.06838742
0.03196431 0.026442206 0.05744404 0.036012895 0.060820106 -0.09474352 -0.4054204 -0.0069891578
-0.083956316 -0.017898178 -0.066521056 -0.041596122 0.23076004 -0.38318 -0.023300495 0.030889899
-0.07211032 0.022163974 -0.087754756 -0.053996377 -0.019773036 0.031438403 -0.040053938 -0.09167799
0.07131018 0.12022589 -0.12968461 0.025041835 -0.053217024 0.08092788 0.04749319 -0.008575197
-0.04580795 0.051095735 0.028664736 0.06157328 -0.032473348 0.04536925 -0.03782222 -0.0640267
0.09153324 0.052125998 0.036241304 0.031767037 -0.06335865 -0.42961589 -0.10670873 -0.022447294
-0.03259459 -0.035842422 -0.021431634 0.0033887224 -0.261792 0.047734518 -0.045364313 -0.033424396
-0.04485826 0.09145896 -0.0035099275 -0.2615485 0.0516087 0.118353136 -0.020148471 -0.035982434
0.017363066 -0.08494314 -0.058807507 -0.041489244 -0.016798995 -0.1094043 -0.05691708 -0.006225953
-0.02622106 -0.0429194 -0.91265625 -0.0781272 -0.060002867 0.04012127 -0.010981263 -0.0137170935
0.05705884 -0.07020842 -0.21760896 0.046318486 -0.044680256 -0.06448251 0.0010866731 0.039883457
-0.33843023 0.36090118 0.09362683 -0.03335806 -0.009533235 -0.24484663 0.021709135 -0.031740054
-0.0347691 0.07240956 -0.05535409 -0.09304326 0.08636465 -0.04590422 0.011161023 -0.0030799091
0.049482163 0.008075644 -0.06518888 0.01557753 -0.1021133 0.012818758 -0.09995231 -0.11075229
-0.04773272 -0.07188557 0.044795617 -0.039824374 -0.121178396 -0.009111664 -0.0010725522 -0.30241236
-0.01846139 -0.07392855 -0.028514275 0.032034114 0.022682708 -0.031328425 -0.020995261 0.011868142
00000000: 2361 c0bc ed03 00bc c66b 763c cb2b bdbd
00000010: b7eb c93c fc33 843d f861 913e 96a2 b8bc
00000020: 1b0e 403d 1102 373c 7154 143d ba15 29bd
00000030: 32f1 273e 4e08 8fbe 1a83 0cbd 8944 e53c
00000040: d021 d93c c38c 83bd 2952 b03b 325a ae3c
00000050: 8b3a 12bc 8406 e1bc af3d 72bd 41c2 b0bd
00000060: 8547 043c e4ef 4abd f4c9 c63d fa07 4f3c
00000070: 521f 83bb bbc0 863e bae0 30bd 5874 c73c
00000080: e4cd 9abd 9092 2dbd 7cc4 dabd ed42 90bd
00000090: ec90 b5bd 5447 6c3d 1177 75bd 125e b03d
000000a0: ba2d 8f3d c19d 653d f3b5 853d 272b ab3d
000000b0: a3b4 06bd d78a 61be 8597 b1bd 3803 d0bd
000000c0: 7110 b5bc 6c26 8fbd 0efd 473d b024 c8bc
000000d0: 4984 92bd b601 ab3c e3cb 32be a838 cfbd
000000e0: eec0 4b3d b667 4ebd 50ff 3b3e 1c37 023e
000000f0: 9ae6 ec3d 5707 cf3d 2c2a b4bd e030 bbbe
00000100: e576 873c fb1a 00bd 7d58 edbc b0d2 613b
00000110: 45fc a6bd 28db 063e ed5e 7d3b 6b50 043c
00000120: 8c7e e43b b83f 4ebd f11e f5bd b2cb 6d3d
00000130: 8b75 8abd d186 2abb 9497 c1bd a8e8 b2bc
00000140: 5d4d e63c d197 3dbb ee4b 9d3d ed02 57be
00000150: 81d7 9c3d afa4 58bd 80f4 433e da79 61bd
00000160: 0881 3cbd 2b12 25be a492 d43d 5bab 673d
00000170: 92d3 933d 13e8 553d 65c1 52bd e2e7 303d
00000180: 759c 8cbd d289 2fbb fdc1 f0bc 55c4 c73d
00000190: d72a a4bd 46f4 d03a 18d5 f23c 5ed0 70bc
000001a0: c16c 32bd 1be0 83bc 2fd4 6dbc 992c c13d
000001b0: cff1 43be 30f0 823d ef49 43be d241 c0be
000001c0: a1b1 513d 365f c03c 1a30 b2bd 0886 d6bd
000001d0: 9c88 a0bd 7f20 3dbd aa7c bcbd 41a2 d2be
000001e0: 59ba 5dbd a7ef 26bc ee02 6f3d c3d4 cb3d
000001f0: de67 ea3b 420b 77bd 887a a13d b40e 8cbd
00000200: 02ed 023d 539d d83c 714a 6b3d 4282 133d
00000210: 811e 793d e408 c2bd 4393 cfbe 4e05 e5bb
00000220: 4af1 abbd 339f 92bc 313c 88bd b260 2abd
00000230: 5c4c 6c3e 2b30 c4be aee0 bebc d00c fd3c
00000240: 93ae 93bd 3991 b53c c4b8 b3bd 4e2b 5dbd
00000250: 10fb a1bc 8ec5 003d 990f 24bd acc1 bbbd
00000260: 120b 923d fe38 f63d 0bcc 04be 8924 cd3c
00000270: 18fa 59bd 84bd a53d 3888 423d fc7e 0cbc
00000280: 1ea1 3bbd c349 513d 4fd2 ea3c 4334 7c3d
00000290: c602 05bd 1bd5 393d 79eb 1abd 6e20 83bd
000002a0: c875 bb3d 1282 553d c371 143d 271e 023d
000002b0: 2ec2 81bd 9df6 dbbe 1b8a dabd 63e3 b7bc
000002c0: e881 05bd 81cf 12bd 6591 afbc 5415 5e3b
000002d0: 9a09 86be 4585 433d eecf 39bd 05e8 08bd
000002e0: 4bbd 37bd d64e bb3d d006 66bb afe9 85be
000002f0: a563 533d 2163 f23d 680e a5bc 5162 13bd
00000300: fd3c 8e3c abf6 adbd 24e0 70bd a0f0 29bd
00000310: 0c9e 89bc 5d0f e0bd e221 69bd 1403 ccbb
00000320: 8ccd d6bc 41cc 2fbd d7a3 69bf 2701 a0bd
00000330: 91c5 75bd 3356 243d c1ea 33bc a9bd 60bc
00000340: 88b6 693d 6fc9 8fbd e2d4 5ebe 74b8 3d3d
00000350: a502 37bd 680f 84bd b36e 8e3a d65c 233d
00000360: ba46 adbe 0ac8 b83e 6cbf bf3d 76a2 08bd
00000370: 4931 1cbc 13b9 7abe 5bd7 b13c dc01 02bd
00000380: 0b6a 0ebd 774b 943d f8ba 62bd 778d bebd
00000390: f3df b03d 1006 3cbd b9dc 363c 4dd8 49bb
000003a0: cfad 4a3d b54f 043c bf81 85bd e538 7f3c
000003b0: c720 d1bd c505 523c ccb3 ccbd 19d2 e2bd
000003c0: 6283 43bd be38 93bd 9c7b 373d e21e 23bd
000003d0: 612c f8bd 1749 15bc e194 8cba cbd5 9abe
000003e0: 573c 97bc da67 97bd c596 e9bc 3436 033d
000003f0: 16d1 b93c 3c52 00bd 41fe abbc 9872 423c

fc2.bias f4 [128]
-0.19264658 -0.17719845 0.13064542 -0.030470125 -0.024495779 -0.053250197 -0.090041645 -0.10476293
-0.2426824 -0.120617434 -0.08689958 -0.15080968 -0.17666057 -0.14275055 -0.08604408 -0.050208203
0.14090957 -0.15368637 -0.09343173 -0.026912598 -0.041331906 -0.03380907 -0.17123762 0.015955444
-0.057133164 -0.09335099 0.4081113 0.15540476 0.12185138 -0.067034416 -0.18608004 0.07203612
-0.07546369 -0.12059419 -0.018786218 -0.16540852 -0.021046145 -0.1304514 0.23973957 -0.14549309
-0.11679434 -0.06621238 0.03750259 0.10342035 0.003681474 -0.036328252 -0.09342134 -0.16636932
0.009160909 -0.049214114 0.62426 -0.018430568 -0.14935382 -0.0067581143 -0.15922447 -0.07132183
-0.0046196403 0.024365595 -0.011062254 -0.1176243 0.3493529 -0.032497678 -0.121147335 -0.0053091873
0.14931619 -0.17314897 -0.072418235 -0.104772545 -0.22411749 -0.076058656 -0.07402707 -0.12768629
-0.22939302 0.11035747 -0.0677297 0.023107434 0.047552958 0.37102488 0.021145828 0.028220749
-0.080314055 -0.0030725265 -0.14640437 -0.19467914 0.033878963 -0.008540347 -0.05137905 -0.013098259
0.10172453 -0.12739393 -0.08932062 -0.06319075 -0.10901699 0.37306783 -0.17703028 -0.14242274
-0.31425938 0.14712079 -0.085926525 0.36168775 -0.027880246 -0.21926758 -0.04023435 -0.15496542
-0.11475393 -0.059134826 0.030249432 0.637416 0.050638635 -0.37988058 -0.06250609 -0.10779862
0.01969305 -0.1019702 0.06360775 -0.058809794 -0.027091606 0.055670206 -0.111437716 -0.33892798
-0.10300988 0.028212354 -0.36043555 -0.34576923 0.45196497 -0.14284903 0.23718515 -0.014265755
00000000: 2545 45be 8373 35be eac7 053e 7c9c f9bc
00000010: 5fab c8bc e11c 5abd c167 b8bd f28d d6bd
00000020: bc81 78be 4606 f7bd 68f8 b1bd da6d 1abe
00000030: 82e6 34be 332d 12be e137 b0bd 1ea7 4dbd
00000040: 994a 103e f65f 1dbe 2359 bfbd cf77 dcbc
00000050: a54b 29bd 617b 0abd ea58 2fbe feb4 823c
00000060: 7704 6abd ce2e bfbd f7f3 d03e 6d22 1f3e
00000070: 378d f93d 5749 89bd c48b 3ebe ac87 933d
00000080: b58c 9abd 16fa f6bd 8ee5 99bc da60 29be
00000090: f768 acbc 0d95 05be 4a7e 753e 24fc 14be
000000a0: df31 efbd 5b9a 87bd 519c 193d 0cce d33d
000000b0: e244 713b efcc 14bd b053 bfbd b85c 2abe
000000c0: a317 163c bd94 49bd 81cf 1f3f b4fb 96bc
000000d0: 35f0 18be 2c73 ddbb bd0b 23be 2e11 92bd
000000e0: 5a60 97bb 5b9a c73c 753e 35bc 02e5 f0bd
000000f0: 62de b23e 491c 05bd 181c f8bd b1f8 adbb
00000100: 58e6 183e f74d 31be 0350 94bd fd92 d6bd
00000110: 0e7f 65be a4c4 9bbd 819b 97bd 32c0 02be
00000120: 01e6 6abe 1903 e23d deb5 8abd cd4b bd3c
00000130: e4c6 423d f9f6 bd3e 043a ad3c 332f e73c
00000140: b27b a4bd 715c 49bb 07eb 15be f859 47be
00000150: abc4 0a3d d0ec 0bbc d772 52bd 159a 56bc
00000160: f354 d03d 8e73 02be bbed b6bd 276a 81bd
00000170: 4d44 dfbd bf02 bf3e 6d47 35be 44d7 11be
00000180: 9be6 a0be d5a6 163e 3ffa afbd 232f b93e
00000190: 1d65 e4bc ae87 60be c6cc 24bd 41af 1ebe
000001a0: 1c04 ebbd 5c37 72bd a8cd f73c b22d 233f
000001b0: 756a 4f3d b57f c2be 3103 80bd 86c5 dcbd
000001c0: 5253 a13c c1d5 d0bd c844 823d 8ae2 70bd
000001d0: 37ef ddbc 7106 643d 7539 e4bd f887 adbe
000001e0: d8f6 d2bd 981d e73c 028b b8be aa08 b1be
000001f0: f467 e73e 0447 12be aae0 723e eaba 69bc

fc3.weight f4 [1, 128]
-0.04774224 -0.035515893 0.0018749163 0.017805237 -0.029586192 -0.033581506 0.0020246538 0.016965006
-0.058617588 0.18090239 -0.014320229 -0.042847767 -0.0903968 0.011630559 0.005902197 0.010985259
0.009828243 0.025836512 0.011429664 -0.06345121 -0.033237457 0.031101884 -0.052778397 -0.0044743656
0.046944957 -0.0599005 0.030888481 0.07177987 0.037560906 -0.005016481 -0.03659492 0.053111088
-0.06637554 -0.014910026 -0.009238538 -0.0183468 0.0028127194 0.0031949887 0.03676709 -0.009685266
-0.007259138 -0.046491172 -0.04517509 -0.0041429414 -0.017729402 -0.009207415 -0.053435717 -0.0054878537
0.0040155323 -0.0054800897 0.08328691 0.016060214 -0.016956668 0.06932585 -0.07562183 -0.010980708
0.0012459025 0.016617276 0.038840223 -0.022480667 0.05929011 -0.002000426 -0.070831664 0.03999953
0.047051013 -0.030129658 0.02984143 0.012229578 -0.054987945 0.0008983122 -0.06988746 0.031999867
-0.03737799 0.066027604 0.009424153 0.02479606 0.04618832 0.045844648 0.0066556446 0.032202326
-0.0064304858 0.01128934 -0.01739151 -0.06450827 -0.0028068174 -0.0043103313 0.035223994 0.029343598
0.05621261 0.014565499 -0.020099534 -0.020328859 0.051400125 0.040291116 -0.027836366 0.0096408
-0.030233577 0.04337008 -0.0037482136 0.039149772 0.02583024 0.020529663 0.010543961 -0.0053412956
-0.009123572 0.067185424 -0.07209183 0.032117195 0.06928856 -0.026812626 -0.07427086 -0.01726151
0.011091832 -0.05940763 0.039847035 0.028095243 0.0051630572 0.009361265 0.029092578 -0.035897218
-0.035856158 -0.017691394 -0.041495305 -0.014588168 0.07116869 0.025781328 0.037517328 0.02739494
00000000: 5e8d 43bd 1d79 11bd c0bf f53a 4adc 913c
00000010: be5e f2bc c38c 09bd 0eb0 043b 32fa 8a3c
00000020: ff18 70bd 7a3e 393e 659f 6abc 2481 2fbd
00000030: f521 b9bd 1a8e 3e3c 3867 c13b 84fb 333c
00000040: a406 213c 18a7 d33c 7c43 3b3c b5f2 81bd
00000050: 0024 08bd 61c9 fe3c 292e 58bd b39d 92bb
00000060: 5b49 403d 3a5a 75bd d709 fd3c 5301 933d
00000070: 77d9 193d 4b61 a4bb 8ee4 15bd 038b 593d
00000080: e6ef 87bd 2f49 74bc 3d5d 17bc 074c 96bc
00000090: 9a55 383b 0463 513b 1799 163d f3ae 1ebc
000000a0: 10de edbb 876d 3ebd 8409 39bd 83c1 87bb
000000b0: 403d 91bc b3da 16bc 69df 5abd 74d3 b3bb
000000c0: ba94 833b 5392 b3bb 5492 aa3d b690 833c
000000d0: b6e8 8abc b6fa 8d3d 9edf 9abd 6de8 33bc
000000e0: 8d4d a33a f420 883c ed16 1f3d 6029 b8bc
000000f0: 30da 723d 9419 03bb 3110 91bd 8cd6 233d
00000100: 90b8 403d 79d2 f6bc 0476 f43c 915e 483c
00000110: 0a3b 61bd b67c 6b3a 2821 8fbd 4b12 033d
00000120: aa19 19bd 7b39 873d c367 1a3c 1b21 cb3c
00000130: f72f 3d3d 99c7 3b3d 9817 da3b 96e6 033d
00000140: d3b6 d2bb edf6 383c a478 8ebc e91c 84bd
00000150: 95f2 37bb ae3d 8dbb 0947 103d fc61 f03c
00000160: 323f 663d 21a4 6e3c c7a7 a4bc b588 a6bc
00000170: f088 523d 4c08 253d 1709 e4bc 72f4 1d3c
00000180: 68ac f7bc d3a4 313d 97a4 75bb 835b 203d
00000190: f199 d33c d32d a83c 94c0 2c3c 0906 afbb
000001a0: 097b 15bc 8398 893d e2a4 93bd 528d 033d
000001b0: 29e7 8d3d 27a6 dbbc 521b 98bd 0368 8dbc
000001c0: 84ba 353c 6a55 73bd a536 233d ff27 e63c
000001d0: dd2e a93b fe5f 193c 8f53 ee3c f608 13bd
000001e0: e8dd 12bd 8bed 90bc fbf6 29bd 3603 6fbc
000001f0: e4c0 913d 5d33 d33c c5ab 193d 5a6b e03c
