saved_models/episode_600/agent_11.pth (torch, 738530 bytes, 44 tensors)

fc1.weight f4 [128, 5]
0	0xbdaedc6a	-0.085381344
1	0x3ecf5465	0.40494075
2	0x3e6a01bb	0.22852223
3	0xbec65e25	-0.38743702
4	0x3e5130dd	0.20428796
5	0x3ee75052	0.45178467
6	0x3e945c36	0.289766
7	0xbdf4faaf	-0.119618766
8	0x3ebefced	0.37302342
9	0xbb92e6a3	-0.0044830604
10	0x3ea33a32	0.31880337
11	0x3e281776	0.164152
12	0x3ee3cf81	0.4449425
13	0xbccc9366	-0.024972629
14	0xbcea7755	-0.028621355
15	0xbea8c37a	-0.32961637
16	0x3e67ecde	0.22648951
17	0xbd239f0b	-0.039946597
18	0x3d95f1b7	0.07321494
19	0xbe5bddd0	-0.21471334
20	0xbd56f737	-0.052481856
21	0x3da50bd4	0.08058897
22	0x3e91877d	0.28423682
23	0xbd2df468	-0.042469412
24	0x3defb805	0.11705021
25	0x3eb314f0	0.34976912
26	0xbee2e313	-0.4431387
27	0xbe36f6cc	-0.17867583
28	0x3e8b4102	0.27198035
29	0xbe9f87f7	-0.3115842
30	0x3e6a02d9	0.22852649
31	0x3e966647	0.29374906
32	0xbd9d0fa4	-0.07668999
33	0x3e0475b7	0.1293553
34	0xbdd2196e	-0.102587566
35	0xbe1c0cb5	-0.15239222
36	0xbe9c150b	-0.30484805
37	0x3e4cd207	0.20001994
38	0xbec8c50d	-0.39212838
39	0xbd07dd24	-0.03316988
40	0xbb222814	-0.0024743127
41	0xbd492498	-0.049107164
42	0x3ead033f	0.3379154
43	0xbd98f76f	-0.07469069
44	0xbe115116	-0.14191088
45	0x3d914968	0.07094079
46	0xbe0aceb1	-0.13555409
47	0xbda0b14f	-0.07846319
48	0x3e837b5c	0.25680053
49	0x3c6ed33e	0.014576731
50	0xbdefd630	-0.11710775
51	0x3ea73e5f	0.32664773
52	0xbdab5832	-0.08366431
53	0x3ed98b19	0.42488936
54	0xbec81c43	-0.39084062
55	0xbdef58fb	-0.116868936
56	0x3edc2b07	0.43001577
57	0xbe4c8750	-0.19973493
58	0x3d4e2348	0.050326616
59	0xbeaa0c32	-0.3321243
60	0x3da5a540	0.080881596
61	0xbe8d91bf	-0.27650258
62	0x3ea64191	0.32471898
63	0x3e176969	0.14786305
64	0x3e0dacc5	0.13835438
65	0xbccfbbf9	-0.025358187
66	0xbebe9025	-0.3721935
67	0x3e9a5c6d	0.3014864
68	0x3e81e371	0.25368837
69	0xbe075d7a	-0.13219252
70	0xbe4913cb	-0.19636457
71	0x3d850673	0.06495371
72	0x3e157b74	0.14597875
73	0xbecc5ebe	-0.39916033
74	0xbeaf5b3d	-0.34249297
75	0x3edd087a	0.4317053
76	0x3e734a60	0.2375884
77	0x3e54d159	0.20782985
78	0x3e3283af	0.17433046
79	0x3e0606f4	0.1308859
80	0xbea1dde5	-0.31614605
81	0xbee3ef1c	-0.44518363
82	0x3ec19182	0.37806326
83	0xbe0e9e86	-0.1392766
84	0x3ebcd844	0.36883748
85	0x3e65310c	0.22381991
86	0xbe14b440	-0.14521885
87	0xbea49061	-0.32141402
88	0xbed90698	-0.42387843
89	0xbe0f2a98	-0.13981092
90	0x3ebb3797	0.3656585
91	0xbec2a5ff	-0.3801727
92	0xbc54f104	-0.012996916
93	0x3e3b6a31	0.18302228
94	0xbe5bf30b	-0.21479432
95	0xbe6e6ef5	-0.23284514
96	0xbe91da4c	-0.2848686
97	0x3e039f11	0.12853648
98	0x3ee73b92	0.45162636
99	0xbea3a1f0	-0.31959486
100	0xbd0cdb98	-0.03438911
101	0xbdb94952	-0.09047188
102	0x3da2d6af	0.07951104
103	0x3e3dbef1	0.1852987
104	0xbdb6d9ca	-0.08928259
105	0xbe8a0f92	-0.26965004
106	0x3e151bc9	0.1456138
107	0x3edf342e	0.43594497
108	0xbe8276f3	-0.25481376
109	0x3e478d1c	0.19487423
110	0xbea8106e	-0.32825035
111	0xbeb23f2c	-0.3481382
112	0xbe6bad32	-0.23015288
113	0xbe4f3bdc	-0.20237678
114	0x3d60b157	0.054856624
115	0x3d65caac	0.056101486
116	0xbe4d93e9	-0.20075954
117	0x3e1d69f2	0.15372446
118	0xbebb7c11	-0.36618093
119	0x3ee30cc1	0.44345668
120	0xbe09776f	-0.13424467
121	0x3ed74fd5	0.42053095
122	0xbe8da656	-0.27665967
123	0xbecd4e2e	-0.4009871
124	0x3ec08ce3	0.37607488
125	0x3e797ee0	0.24364805
126	0x3f01c68b	0.5069358
127	0xbe88e6b0	-0.267385
128	0xbe903e4e	-0.28172535
129	0xbe03fb12	-0.12888744
130	0x3d5bd4a8	0.0536696
131	0xbe10d1b6	-0.14142498
132	0x3dd12c3b	0.102135144
133	0xbeae8f26	-0.3409359
134	0xbe65fe90	-0.22460389
135	0x3e4bae75	0.19890769
136	0xbe525194	-0.20538932
137	0xbe87bc54	-0.2651087
138	0xbdbe1d2a	-0.09282906
139	0xbc0fe653	-0.008782941
140	0xbe883ac3	-0.26607332
141	0xbec26ac3	-0.37972078
142	0x3b3566b5	0.0027679626
143	0x3eb16c74	0.34653056
144	0xbe2cefe9	-0.16888393
145	0xbee50005	-0.44726577
146	0x3ca7f242	0.02050126
147	0x3e51abed	0.2047574
148	0x3d03e9f4	0.032205537
149	0x3edbea4f	0.429522
150	0x3e1da053	0.1539319
151	0xbd3b9f28	-0.04580608
152	0x3d62248e	0.055210643
153	0xbc491a60	-0.012274355
154	0x3eb952af	0.36195895
155	0x3e8cd1f5	0.27503935
156	0x3e5fdd95	0.2186187
157	0x3ed62dc4	0.4183179
158	0xbdfdca17	-0.12392061
159	0xbe5f0c66	-0.21782073
160	0x3d9b0fca	0.07571371
161	0x3ec256d4	0.3795687
162	0x3e76de91	0.2410834
163	0xbe87f189	-0.26551464
164	0x3df17538	0.11789936
165	0x3d8cb567	0.06870537
166	0xbe25d422	-0.16194203
167	0x3e961648	0.29313874
168	0xbec3aee9	-0.38219383
169	0x3e93d1c3	0.28870973
170	0x3e270986	0.16312227
171	0x3e1ce951	0.15323378
172	0xbed47bb8	-0.4150064
173	0x3e1d54b2	0.1536434
174	0x3d7fb822	0.062431462
175	0x3eace8bf	0.3377132
176	0xbe8caf6e	-0.27477592
177	0xbdcbba93	-0.099476956
178	0xbedbeebf	-0.42955586
179	0x3e761433	0.24031143
180	0x3e9b0f57	0.3028514
181	0x3d1a5268	0.037676245
182	0xbecba30d	-0.39772835
183	0x3e783837	0.24240194
184	0x3e28f964	0.16501385
185	0x3eaf0f01	0.34191135
186	0x3d375c40	0.04476571
187	0xbe2d713e	-0.1693773
188	0x3e3b46c2	0.1828871
189	0x3e974d7f	0.29551312
190	0xbe792d23	-0.24333625
191	0xbd53a207	-0.051668193
192	0xbea80cf4	-0.32822382
193	0x3ed76726	0.42070884
194	0x3e1d7380	0.15376091
195	0x3eb8782f	0.36029193
196	0xbeb8f45e	-0.36123937
197	0x3ddf99ee	0.10918032
198	0x3e69ed7e	0.22844502
199	0xbe1ed395	-0.155104
200	0xbbd212c9	-0.006410931
201	0x3ef10f8b	0.4708217
202	0x3e163963	0.14670329
203	0xbebdd0ad	-0.3707327
204	0xbe2ff1c2	-0.17182067
205	0xbe8d0ab5	-0.2754723
206	0xbeb49dba	-0.35276586
207	0xbe87c2db	-0.2651585
208	0x3e9e090f	0.30866286
209	0x3e9cb2c6	0.30605143
210	0xbdb62d5a	-0.08895369
211	0x3f0136c2	0.5047418
212	0xbd956192	-0.07294001
213	0xbe8fd12f	-0.28089282
214	0xbe96cc14	-0.29452574
215	0x3c866461	0.016405286
216	0xbe6f5703	-0.23373036
217	0x3ed7c7ab	0.42144522
218	0x3dbac4af	0.09119546
219	0x3e105d65	0.14098127
220	0xbeae94fc	-0.3409804
221	0xbcaf2fe1	-0.021385135
222	0x3e99c29b	0.30031285
223	0xbc7e6990	-0.015528098
224	0xbdcb4577	-0.09925359
225	0x3ec8b21c	0.39198387
226	0xbca0101c	-0.019538932
227	0x3dd172d1	0.102269776
228	0xbe2e94d4	-0.17048961
229	0x3ed67d38	0.4189241
230	0xbc91caef	-0.017796962
231	0x3d5de8b0	0.054176986
232	0xbe8ca867	-0.2747223
233	0x3e786db7	0.24260603
234	0x3e1fb163	0.15595011
235	0xbe3b5b21	-0.18296482
236	0xbe87ce02	-0.2652436
237	0x3ea100f2	0.31446034
238	0x3cc27d56	0.023741405
239	0x3ebc0a66	0.36726683
240	0xbea0a53d	-0.31376067
241	0xbb1bdd4a	-0.0023783022
242	0x3d253b4e	0.04033976
243	0xbea290a8	-0.3175099
244	0xbc4a7b69	-0.012358525
245	0xbe96e6f1	-0.2947307
246	0x3e66b091	0.22528292
247	0x3efedf0f	0.49779555
248	0xbe652133	-0.22375946
249	0xbccb0da6	-0.024786782
250	0x3e7dbcb0	0.2477901
251	0x3d120164	0.035645857
252	0x3ead0bae	0.33797973
253	0xbdf51a6d	-0.11967931
254	0x3e7225be	0.2364721
255	0xbe761760	-0.24032354

fc1.bias f4 [128]
0	0xbe4bf918	-0.1991924
1	0x3ec9531c	0.3932122
2	0x3e86d1cc	0.26331937
3	0x3e9be631	0.3044906
4	0xbe559a70	-0.20859694
5	0xbeeb5b3f	-0.45968053
6	0xbe28912c	-0.16461629
7	0x3db6041a	0.08887501
8	0xbe5e8858	-0.21731699
9	0xbebb304e	-0.3656029
10	0xbe5996d0	-0.21248937
11	0x3ec6b08f	0.3880658
12	0x3ed29c9e	0.41135114
13	0xbe32f442	-0.1747599
14	0x3e98b2bb	0.2982386
15	0xbea9cec1	-0.33165553
16	0xbd7f68e0	-0.062355876
17	0x3c2e0766	0.010621881
18	0x3eb14d6b	0.34629378
19	0xbdcdecce	-0.100549325
20	0xbe0dd474	-0.13850576
21	0x3e8d4cc5	0.27597633
22	0xbd367ef3	-0.044554662
23	0xbed705a5	-0.41996494
24	0x3eaf3f51	0.34227994
25	0x3e96424c	0.29347456
26	0xbebf1046	-0.37317103
27	0xbedffa70	-0.43745756
28	0x3e0cf0d1	0.13763739
29	0x3e4c594c	0.19955939
30	0xbe8c4dc4	-0.2740308
31	0xbe015755	-0.12630971
32	0x3dbbb1df	0.091647856
33	0xbebc0488	-0.36722207
34	0xbed109a2	-0.40827662
35	0xbe657bca	-0.22410503
36	0x3d7505ec	0.0598201
37	0x3c0181c5	0.007904475
38	0xbd8fa9e6	-0.070148274
39	0xbccd35f5	-0.025050143
40	0x3cf1d1d5	0.029519001
41	0xbe39eab9	-0.18155946
42	0xbed59935	-0.4171845
43	0x3d7a37f8	0.061088532
44	0xbe7995be	-0.24373528
45	0x3e9358c3	0.28778657
46	0x3dc78917	0.09742945
47	0xbebed8d6	-0.37274808
48	0x3d3769a0	0.044778466
49	0x3c5221c9	0.012825438
50	0xbec21242	-0.37904555
51	0x3d609bc1	0.05483604
52	0x3dfa4c5d	0.122215964
53	0xbec4f974	-0.38471568
54	0xbeaa675d	-0.33281985
55	0xbea9721c	-0.3309487
56	0xbe8f5de1	-0.2800131
57	0xbdc8ee1e	-0.09811042
58	0xbd07bec1	-0.0331409
59	0xbedc463b	-0.43022332
60	0x3e47ef63	0.19524913
61	0x3dd31c2d	0.103081085
62	0x3ebf255a	0.37333184
63	0x3ea77ef7	0.32714054
64	0x3e43c532	0.19118193
65	0xbe62b3bc	-0.22138876
66	0x3ed864c8	0.4226439
67	0xbe98dfc8	-0.29858232
68	0x3e2211c2	0.15827087
69	0x3e513467	0.20430146
70	0xbe1c296e	-0.15250179
71	0xbdb6f876	-0.08934109
72	0xbceae6cd	-0.028674508
73	0xbc5607c2	-0.013063373
74	0x3eaaa42a	0.33328372
75	0x3e808af7	0.25106022
76	0x3cccd96b	0.025006017
77	0x3ec70e2e	0.38878006
78	0x3e71d070	0.23614669
79	0x3e19c857	0.1501783
80	0xbe3c37eb	-0.18380706
81	0xbee13628	-0.4398663
82	0xbebb5089	-0.3658488
83	0xbecfc0fb	-0.4057692
84	0x3d68d9fe	0.05684852
85	0xbe8875f4	-0.2665249
86	0xbe5c19ba	-0.21494189
87	0xbe3259c1	-0.17417051
88	0x3e980c2f	0.29696795
89	0xbda665e8	-0.08124906
90	0xbb34c08e	-0.0027580592
91	0xbe0e34e7	-0.13887368
92	0xbed65747	-0.41863462
93	0x3d675f3e	0.056487314
94	0x3eba967b	0.36442932
95	0xbe4dc056	-0.20092902
96	0x3e1cc81c	0.1531071
97	0xbe6793a1	-0.2261491
98	0x3ede664e	0.43437427
99	0xbe4279c4	-0.18991762
100	0xbeb85f34	-0.36010134
101	0xbe931322	-0.28725535
102	0xbecd9ce8	-0.40158772
103	0xbe279fba	-0.16369525
104	0x3dadfd34	0.0849556
105	0x3e83e09f	0.2575731
106	0xbe64a6a8	-0.223292
107	0xbdb3aa46	-0.087727115
108	0xbeb0d2d9	-0.34535864
109	0x3ed3217b	0.4123648
110	0x3ed6c062	0.4194365
111	0x3e7f6794	0.24941856
112	0x3e4ab658	0.19796121
113	0xbe910b6c	-0.28329027
114	0xbe70b00b	-0.23504655
115	0xbd2e3dee	-0.04253953
116	0xbec5ae8d	-0.38609734
117	0x3e9d57cd	0.3073105
118	0xbe1adf84	-0.15124327
119	0x3d87eee2	0.0663736
120	0x3e9b156f	0.3028979
121	0xbedb9871	-0.4288974
122	0xbe99c855	-0.30035654
123	0x3eb83cdb	0.3598393
124	0xbe044460	-0.12916708
125	0x3d19b4b1	0.037525836
126	0x3ee5cd7a	0.4488333
127	0xbd48f86a	-0.04906503

fc2.weight f4 [128, 128]
0	0x3c936ed1	0.017997177
1	0x3d99e563	0.07514455
2	0xbcd442c5	-0.025910744
3	0xbc73b96c	-0.014875751
4	0x3b825491	0.0039773663
5	0xbd4a1183	-0.049333107
6	0x3d4981d6	0.049196087
7	0x3d109c69	0.035305414
8	0x3c5662ee	0.01308511
9	0x3c7d525a	0.015461529
10	0xbda417b0	-0.080123305
11	0x3c9c1d85	0.019057045
12	0x3ca13c4c	0.019682072
13	0xbc8ca51a	-0.01716857
14	0xbb9e9ce6	-0.004840481
15	0xbd12d36c	-0.03584616
16	0x3d9c9b6b	0.07646831
17	0xbd802dd9	-0.06258745
18	0x3d9dbfd7	0.07702606
19	0x3d1433cb	0.036182206
20	0x3cfe5352	0.03104559
21	0x3ac1ee52	0.0014795756
22	0x3ca2d0bd	0.019874925
23	0xbce33810	-0.027736694
24	0xbcddd67c	-0.027079813
25	0xbd246a71	-0.040140573
26	0x3c2b8864	0.01046953
27	0x3d997db4	0.07494679
28	0xbbfb108f	-0.007661886
29	0x3d698a82	0.057016857
30	0xbd79a288	-0.060946018
31	0xbd3170e7	-0.043320563
32	0xbd509d4d	-0.050931264
33	0xbd91c8ba	-0.07118364
34	0xbc9a9cca	-0.018873591
35	0xbc93fe68	-0.018065646
36	0xbdb1f051	-0.08688415
37	0xbd25f42e	-0.04051607
38	0x3d4c2500	0.049839973
39	0x3c837062	0.0160448
40	0xbd9e316d	-0.07724271
41	0xbd0e8f79	-0.034804795
42	0xbcbd60e6	-0.023117494
43	0x3d66eb5a	0.056376792
44	0x3d90eac5	0.07076029
45	0x3d9350d8	0.07193154
46	0x3b7880ce	0.003791857
47	0xbbce0701	-0.006287456
48	0xbbef84f1	-0.007309549
49	0xbd8fd0c3	-0.0702224
50	0x3d63f48d	0.055653144
51	0x3c0e4a08	0.008684643
52	0xbd234a68	-0.03986588
53	0xbd48aa06	-0.048990272
54	0xbd55030c	-0.05200486
55	0x3bb91e79	0.0056493846
56	0x3db37526	0.08762579
57	0xbdae6ae4	-0.085164815
58	0xbd7039fb	-0.058649044
59	0xbd425fcd	-0.047454644
60	0xbc185704	-0.00929809
61	0x390bb2a2	0.00013322619
62	0xbd9a1c03	-0.07524874
63	0xbd0ea044	-0.03482081
64	0x3d3b1bca	0.0456808
65	0x3b0c455b	0.0021403644
66	0xbd8335b6	-0.06406729
67	0x3daa29be	0.08308743
68	0x3bc22344	0.005924614
69	0xbd806d98	-0.06270903
70	0x3bbe2360	0.005802557
71	0xbb179304	-0.00231284
72	0x3d660dd1	0.05616552
73	0xbd3c5876	-0.0459828
74	0x3da618b0	0.081101775
75	0xbd789a13	-0.06069381
76	0x3d2ac4b6	0.041691504
77	0xbd2fb770	-0.04289955
78	0xbcfb6f9f	-0.030692874
79	0xbbd03daa	-0.006355007
80	0x3d408d68	0.047009856
81	0xbd73c2f5	-0.059512097
82	0x3c3a9ef6	0.011390438
83	0xbcac5612	-0.021037135
84	0x3dafe5db	0.08588763
85	0x3cb14628	0.021639898
86	0xbd48c071	-0.04901165
87	0x3d9e0631	0.07716025
88	0xbcc59f4d	-0.024123812
89	0xbcdf2a40	-0.027241826
90	0xbdb1940d	-0.086708166
91	0xbda6cd46	-0.081446216
92	0x3d828989	0.06373889
93	0x3d181aa5	0.037134785
94	0x3c21ad64	0.009868
95	0xbd9e7908	-0.07737929
96	0xbbfde6ef	-0.0077484767
97	0x3c97653b	0.018480888
98	0xbdb42823	-0.08796718
99	0xbd2f8ec2	-0.042860754
100	0x3ccf9472	0.025339339
101	0xbd8d6dde	-0.06905721
102	0xbd68341a	-0.056690313
103	0x3d5f9a1e	0.054590337
104	0x3d1b394a	0.037896432
105	0x3d2ccf7c	0.04219006
106	0x3d388dbf	0.045057055
107	0xbd2b5e32	-0.04183788
108	0xbdac3057	-0.084076576
109	0x3cf0e3bb	0.029405465
110	0x3d039eeb	0.032133978
111	0x3d9566e7	0.07295018
112	0x3c867e0c	0.016417526
113	0xbbe42c96	-0.006963323
114	0x3d05cb6c	0.0326647
115	0x3d7228db	0.059120994
116	0xbcd6b7eb	-0.026210746
117	0xbd44eb3e	-0.048075907
118	0x3d5f3f1c	0.054503545
119	0xbd9e248f	-0.07721817
120	0xbcac6173	-0.021042561
121	0x3daf4002	0.085571304
122	0xbd6b8f31	-0.057509605
123	0x3d440942	0.04786039
124	0x3d79fb1b	0.06103049
125	0xbd9a77eb	-0.07542404
126	0xbbac05d0	-0.0052497163
127	0xbb93d828	-0.004511852
128	0xbda1f951	-0.079088815
129	0xbda335e8	-0.07969266
130	0xbd6ab855	-0.0573047
131	0x3db3614b	0.087587915
132	0xbc53f1f0	-0.0129361
133	0xbcef2992	-0.029194627
134	0x3bfedb81	0.0077776317
135	0xbd9dec56	-0.07711093
136	0x3d139cd0	0.03603822
137	0x3d0f778c	0.03502612
138	0x3d4a16ea	0.04933826
139	0xbb799fb7	-0.0038089582
140	0xbcd6f597	-0.026240153
141	0x3cdc0b87	0.026860965
142	0x3d5f9141	0.054581884
143	0xbd80cf68	-0.062895596
144	0xbd99cd31	-0.0750984
145	0xbd422626	-0.047399662
146	0x3cb1fc0f	0.021726636
147	0xbcba87f5	-0.022769907
148	0x3d04907c	0.032364354
149	0x3cf45c8b	0.029829284
150	0xbd77a9bc	-0.060464606
151	0xbd2b4f2f	-0.041823562
152	0xbd8c8d47	-0.06862884
153	0x3cfdca73	0.030980324
154	0x3da46ef7	0.08028977
155	0x3cbecb61	0.023290338
156	0x3c9a68c0	0.018848777
157	0x3c99c0d0	0.018768698
158	0xbd326ce3	-0.043560874
159	0x3d9d792b	0.076891266
160	0xbd52ea90	-0.051493227
161	0xbd6b6584	-0.05746986
162	0x3d937397	0.071997814
163	0x3ca27959	0.019833254
164	0x3d46b34e	0.048510842
165	0xbd6587f4	-0.056037858
166	0xbd1078d5	-0.035271484
167	0xbd8c6972	-0.068560496
168	0xbbfaec7f	-0.007657587
169	0x3ce83f6a	0.02835055
170	0xbd1ab545	-0.03777053
171	0x3c593938	0.013258271
172	0xbc81e6e6	-0.015857171
173	0x3c1d556c	0.009602886
174	0x3d075bbc	0.03304647
175	0xbda42666	-0.080151364
176	0xbd13aec2	-0.036055334
177	0x3db127bc	0.08650157
178	0x3c99dae3	0.018781131
179	0x3d9a275a	0.07527037
180	0x3ae61988	0.0017555216
181	0xbda76069	-0.08172686
182	0xbd8ffeec	-0.07031044
183	0x3ccd93cb	0.025094887
184	0xbc46bbd9	-0.012129747
185	0xbd3aba76	-0.04558798
186	0x3c8058e3	0.015667384
187	0xbb92cabf	-0.0044797356
188	0xbce73efb	-0.028228274
189	0x3d9d6865	0.07685927
190	0x3d9878a7	0.074448876
191	0xbd853698	-0.065045536
192	0x3db018cc	0.0859848
193	0xbd3a879e	-0.04553949
194	0xbd38c369	-0.045108233
195	0xbd4b2dd6	-0.04960426
196	0x3cc0c1cd	0.023529911
197	0x3ccfb01c	0.02535253
198	0xbdad535f	-0.084631674
199	0xbcb25330	-0.021768183
200	0xbc5a7672	-0.013333904
201	0xbd228131	-0.039673988
202	0x3dae9f51	0.08526481
203	0xbda646ba	-0.08118959
204	0xbd63d4c9	-0.05562285
205	0x3d5d333e	0.054003946
206	0x3c4ff984	0.0126937665
207	0xbd8d3fb0	-0.06896913
208	0xbd98397a	-0.07432838
209	0x3db4a778	0.08821005
210	0xbd8b2376	-0.06793873
211	0x3d30ee85	0.04319622
212	0x3b2d7eca	0.0026473277
213	0xbd2b3b59	-0.041804645
214	0xbd333b00	-0.04375744
215	0x3d41414a	0.047181405
216	0x3d3a2bed	0.045452047
217	0xbcd44341	-0.025910975
218	0xbcd56fc1	-0.026054265
219	0x3d4968de	0.049172275
220	0xbd7c511f	-0.0616008
221	0x3d501835	0.050804336
222	0xbd48ea24	-0.04905142
223	0xbc9d5248	-0.019204274
224	0x3d79ca35	0.060983855
225	0xbd4a8f1d	-0.04945289
226	0x3ce05ea3	0.027388876
227	0x3d51fe5b	0.051267963
228	0xbc26c776	-0.010179391
229	0x3d8b956d	0.0681561
230	0x3c50f81e	0.012754468
231	0x3c50313f	0.012707054
232	0x3d97089c	0.07374689
233	0xbd4405ee	-0.047857217
234	0x3d7464fc	0.05966662
235	0x3babe686	0.0052459864
236	0x3c0d5d81	0.00862825
237	0xbd683543	-0.05669142
238	0x3cba82ca	0.022767443
239	0xbd6fb5a2	-0.058522828
240	0xbca13a33	-0.019681072
241	0xbda971bc	-0.08273646
242	0xbd86feac	-0.065915436
243	0xbd124c0b	-0.03571705
244	0xbb44df36	-0.003004027
245	0xbd94b272	-0.07260598
246	0xbceadab4	-0.028668739
247	0xbd86f51f	-0.06589722
248	0xbcf41b88	-0.029798284
249	0xbd3997c6	-0.045310758
250	0xbd47a07f	-0.048737045
251	0xbc662b79	-0.014048451
252	0xbd77538e	-0.06038242
253	0x3d7751db	0.060380798
254	0x3d7e2de3	0.06205548
255	0xbda2958c	-0.0793868

fc2.bias f4 [128]
0	0x3d7ea5be	0.062169783
1	0x3d0bbed2	0.034117527
2	0x3c22ae07	0.009929187
3	0x3db13624	0.08652905
4	0x3d75c43d	0.0600016
5	0xbc74267e	-0.014901755
6	0x3c7c24f3	0.015389669
7	0x3d4dd22c	0.050249264
8	0xbda2d3ed	-0.07950578
9	0xbb5f2b62	-0.0034052958
10	0xbd373640	-0.04472947
11	0x3d322ec2	0.043501623
12	0x3d8b7ea7	0.068112664
13	0xbc901787	-0.017589344
14	0xbc8117d7	-0.015758438
15	0xbda66902	-0.081254974
16	0x3c70f339	0.014706426
17	0x3d99c03e	0.075073704
18	0x3d916042	0.07098438
19	0x3d3037a5	0.043021817
20	0xbd7e7f3c	-0.06213306
21	0x3cd54264	0.026032634
22	0xbb53e464	-0.0032332176
23	0xbcd9b6a4	-0.026576348
24	0xbc9b64dc	-0.018968992
25	0xbc56c2ac	-0.013107937
26	0xbd8fb61e	-0.07017158
27	0x3d730081	0.059326652
28	0x3cae2950	0.021259934
29	0xbd8f0986	-0.06984238
30	0x3cf7dd38	0.030256853
31	0x3d5849e3	0.05280484
32	0xbd270151	-0.04077274
33	0xbccfa31d	-0.025346333
34	0x3c8ebcbf	0.017423986
35	0xbc06231a	-0.00818708
36	0xbd38d337	-0.045123305
37	0xbda53f85	-0.08068756
38	0x3b008e57	0.001961609
39	0xbcba31d2	-0.022728834
40	0xbd0e3ba0	-0.03472483
41	0x3c7c42e4	0.015396807
42	0x3c31adeb	0.010844688
43	0x3c529e64	0.012855146
44	0xba473a58	-0.00075999415
45	0xbd7ca9a1	-0.06168521
46	0xbd2fa3a7	-0.04288068
47	0xbd686a48	-0.056741983
48	0xbd36137e	-0.044452183
49	0xbd8c658e	-0.068553075
50	0xbc3e35ec	-0.011609536
51	0xbbd91921	-0.00662531
52	0xbdb044c2	-0.086068645
53	0x3d8d5bd7	0.06902283
54	0xbd745fc2	-0.059661634
55	0x3ae70ba2	0.0017627368
56	0xbd5f887e	-0.05457353
57	0xbac6cb85	-0.0015166855
58	0x3d71a375	0.058993775
59	0xbd15d52b	-0.036580246
60	0x3dbe4893	0.09291186
61	0x3c4dfeb2	0.012572931
62	0xbd8dd254	-0.069248825
63	0x3d87b007	0.066253714
64	0x3dacdf52	0.084410325
65	0x3d0235f5	0.03178974
66	0x3c79fcf1	0.01525806
67	0xbd1baec8	-0.03800848
68	0x3c63c098	0.013900898
69	0xbda488c1	-0.08033896
70	0x3d93441a	0.07190724
71	0xbce98ebe	-0.028510448
72	0x3cef9cab	0.02924951
73	0xbd9fafa6	-0.07797174
74	0xbd89d057	-0.06729191
75	0xbdb6d255	-0.089268364
76	0x3d124cce	0.035717778
77	0xbd07ce18	-0.03315553
78	0xbc953bf6	-0.018217068
79	0x3dbe2ae4	0.092855245
80	0xbb3b6a68	-0.0028597359
81	0x3d85d638	0.065349996
82	0x3cd70887	0.026249183
83	0x3d880e8f	0.06643402
84	0xbd4f3624	-0.050588742
85	0x3db191b0	0.08670366
86	0xbb69a570	-0.0035651587
87	0x3cd6fcb1	0.02624354
88	0x3d9a5a33	0.075367354
89	0xbd17729c	-0.036974534
90	0x3d11363b	0.03545211
91	0x3da62d93	0.08114161
92	0x3d6d59db	0.05794702
93	0x3d020c36	0.031749927
94	0x3cab3df7	0.02090357
95	0x3b71de9a	0.0036906363
96	0x3dc36bc0	0.09542036
97	0xbd3f583f	-0.046715017
98	0x3d27ec66	0.04099693
99	0x3d27562c	0.040853664
100	0xbd7954bb	-0.06087182
101	0xbd91b075	-0.07113735
102	0xbb6012b7	-0.0034190842
103	0xbd203aa8	-0.03911844
104	0x3da793f9	0.081825204
105	0x3d850efb	0.06496998
106	0xb9fa1c9b	-0.0004770503
107	0x3d07b5f5	0.033132512
108	0x3c5d5968	0.013510086
109	0x3c8369d3	0.016041672
110	0x3d80dbe5	0.062919416
111	0xbcd43f58	-0.02590911
112	0x3d811600	0.06303024
113	0x3d93e151	0.0722071
114	0x3bdee2ec	0.0068019535
115	0x3d8e89e9	0.06959898
116	0x3d9391e6	0.07205562
117	0xbd22dd44	-0.039761797
118	0x3cc51fdd	0.024063045
119	0xbdae5747	-0.085127406
120	0xbd5ebac0	-0.054377317
121	0xbcf9fcd2	-0.030516062
122	0x3d922c9c	0.07137415
123	0x3d0f0dc0	0.034925222
124	0xbd80ff5e	-0.062987074
125	0xbb1cf132	-0.0023947475
126	0xbd051b1b	-0.032496553
127	0x3d01924c	0.03163366

fc3.weight f4 [2, 128]
0	0xbdaf1915	-0.08549706
1	0x3db4210c	0.08795366
2	0xbd503024	-0.05082716
3	0xbdaf24b5	-0.08551923
4	0x3ce2a03b	0.027664294
5	0xbd89aa94	-0.06721988
6	0xbce973cd	-0.0284976
7	0x3d6f71ed	0.058458257
8	0xbda8569d	-0.08219645
9	0x3bd8f301	0.006620765
10	0xbc159e84	-0.009132031
11	0xbd88b241	-0.06674624
12	0x3ba532e8	0.005041469
13	0x3d9e2f33	0.07723846
14	0xbd77675e	-0.060401313
15	0xbd5ae8c9	-0.053444657
16	0xbcb7e337	-0.022447212
17	0xbc807cef	-0.015684573
18	0xbd4e52bb	-0.050371867
19	0xbd96cb3c	-0.07362983
20	0xbd311c85	-0.04324009
21	0x3d4272b4	0.04747267
22	0xbd302a49	-0.043009076
23	0xbd9beb81	-0.07613278
24	0x3dabd86e	0.0839089
25	0xbccb3b1f	-0.024808465
26	0x3d6a7d22	0.057248242
27	0x3b70d90f	0.003675047
28	0x3da0769c	0.07835123
29	0x3d69c3f6	0.05707165
30	0xbce18e1e	-0.027533587
31	0x3d179193	0.037004065
32	0xbd613208	-0.054979354
33	0xbdb178b1	-0.08665598
34	0xbd7d2824	-0.06180586
35	0x3d7b7e27	0.061399605
36	0xbd2f9a04	-0.04287149
37	0xbd4b16cf	-0.0495823
38	0xbb84e02b	-0.004055043
39	0x3dcb0f53	0.09915032
40	0x3c0337ae	0.008008881
41	0xbbadb37c	-0.005300937
42	0x3cd7a2c9	0.02632274
43	0xbc366ab9	-0.011133843
44	0xbd89a3aa	-0.067206696
45	0xbd10273e	-0.035193674
46	0x3b6dcf16	0.0036286763
47	0xbbb50bc7	-0.0055250856
48	0x3d2c1e5a	0.042021133
49	0xbd9d213e	-0.07672356
50	0x3dc23e0f	0.09484493
51	0xbc6a7f4c	-0.0143125765
52	0x3d98891c	0.074480265
53	0x3d728006	0.059204124
54	0xbda7b130	-0.08188093
55	0xbb2df235	-0.0026542072
56	0x3c6a3675	0.01429521
57	0x3d567ba3	0.052364003
58	0xbcc85264	-0.02445335
59	0xbda651b6	-0.08121054
60	0xbc157499	-0.009122037
61	0xbcce22c8	-0.02516307
62	0x3d9cc57a	0.07654853
63	0x3ba4f969	0.005034615
64	0xbcb1ce0a	-0.021704692
65	0xbcde7e22	-0.027159754
66	0xbc5d5fed	-0.01351164
67	0x3c9ec30a	0.019380111
68	0x3da05611	0.07828916
69	0x3cd6c6f1	0.02621791
70	0xbdb8a1df	-0.090152495
71	0xbd51f96b	-0.051263254
72	0xbb547645	-0.0032419127
73	0x3db0e83e	0.08638047
74	0x3ae3d176	0.001738115
75	0xbc9dc955	-0.019261042
76	0x3c9569ba	0.01823889
77	0x3c24f1d3	0.010067421
78	0x3d138002	0.03601075
79	0xbc8c863e	-0.017153855
80	0x3cb07258	0.021538898
81	0x3de4a68e	0.1116458
82	0x3b674b00	0.0035292506
83	0xbcfdef51	-0.030997904
84	0x3dbe13d9	0.092811294
85	0x3df51284	0.11966422
86	0xbcc7d7eb	-0.02439495
87	0xbc88e87f	-0.016712425
88	0x3d94043f	0.072273724
89	0x3bfa03a0	0.0076298267
90	0x3b8ec071	0.004356437
91	0x3cca8b65	0.024724672
92	0x3cd4b861	0.025966825
93	0xbb572e45	-0.0032833975
94	0x3d79e9e1	0.06101406
95	0x3d3782bc	0.044802412
96	0xbc55d1bf	-0.013050496
97	0xbc0987c3	-0.0083941845
98	0x3dd33e2c	0.10314593
99	0x3d6bd1ad	0.05757301
100	0x3c80c49d	0.015718753
101	0xbcc78f9d	-0.024360472
102	0xbd4245ff	-0.047430035
103	0xbd197e7a	-0.037474133
104	0x3c64c5c4	0.013963167
105	0xbd35ed44	-0.044415727
106	0x3d7171a0	0.058946252
107	0xbd843317	-0.06455057
108	0xbd7f45ef	-0.062322553
109	0x3d672766	0.056434058
110	0x3d9f3457	0.07773655
111	0x3da1a727	0.0789321
112	0xba80c0de	-0.0009823104
113	0xbd5307ca	-0.0515211
114	0x3d079dd9	0.03310952
115	0xbd87b961	-0.06627155
116	0xbd2a990b	-0.04164986
117	0x3d6556d0	0.055990994
118	0x3c82f650	0.015986592
119	0x3c8732cd	0.016503716
120	0x3bfc2a7a	0.0076954933
121	0x3d5ea86c	0.05435984
122	0x3bcd712a	0.0062695937
123	0xbd923951	-0.071398385
124	0x3dbec37b	0.09314629
125	0x3db02f55	0.08602778
126	0x3d46c9d5	0.048532326
127	0x3cf590ba	0.029976238
128	0x3d7d37ae	0.06182068
129	0x3d9387d1	0.07203639
130	0xbd9067ef	-0.07051074
131	0x3d694440	0.056949854
132	0xbd488454	-0.048954323
133	0x3cab0906	0.020878326
134	0x3d94f98b	0.07274159
135	0x3c8e5695	0.01737527
136	0x3ce93475	0.028467396
137	0x3d3a37c4	0.04546334
138	0xbd45f6e8	-0.04833117
139	0x3d89e357	0.06732815
140	0xbcbd7add	-0.023129875
141	0xbbf08303	-0.0073398366
142	0x3d990e26	0.07473402
143	0x3d114034	0.03546162
144	0xbc5ebca6	-0.013594782
145	0xbd9fe5c2	-0.07807495
146	0xbd9d3a76	-0.07677166
147	0x3d97236f	0.07379805
148	0x3ce94a4b	0.028477808
149	0xbd0c4df8	-0.034254044
150	0xbd6ac45f	-0.05731618
151	0xbd377199	-0.04478607
152	0xbda4c3d7	-0.08045166
153	0xbd96f067	-0.07370072
154	0xbd826845	-0.06367544
155	0xbd01393d	-0.031548727
156	0x3d1d8677	0.038458314
157	0x3d85865f	0.0651977
158	0xbd3733a1	-0.04472697
159	0xbd8f5d0c	-0.07000169
160	0x3da9aaa5	0.08284501
161	0x3c04e0d4	0.008110244
162	0xbd7ef383	-0.06224395
163	0x3e1d5f47	0.15368377
164	0xbbacd18c	-0.0052740034
165	0xbd7f05eb	-0.062261503
166	0x3c7fbc03	0.01560879
167	0x3dd73dc1	0.105098255
168	0xbc40df7f	-0.011772036
169	0x3db1c42c	0.08679995
170	0x3dddd512	0.108316556
171	0x3e13e635	0.14443286
172	0x3d118bb6	0.03553363
173	0x3cb0b538	0.021570787
174	0xbd4b496f	-0.04963058
175	0xbd9cae7f	-0.0765047
176	0x3c4ec1a4	0.01261941
177	0x3db98091	0.09057725
178	0x3db30ae0	0.087423086
179	0xbcd028fd	-0.02541017
180	0x3cd7ae74	0.026328303
181	0x3e36f1ab	0.17865627
182	0x3cde5afb	0.027142992
183	0xbc5cc4df	-0.013474672
184	0xbc5fe9eb	-0.01366661
185	0xbd49a554	-0.049229935
186	0x3a951bd7	0.0011376095
187	0x3d90a8e0	0.0706346
188	0x3d867f9a	0.06567307
189	0x3d598686	0.053106807
190	0x3dab2a06	0.08357625
191	0x3c959130	0.018257707
192	0x3c225105	0.009907012
193	0x3cd5bb9b	0.026090434
194	0xbc8a4e60	-0.016883075
195	0x3c6eb2b5	0.014568974
196	0xbd8df3bc	-0.06931254
197	0xbda7f5ac	-0.08201155
198	0xbd085064	-0.03327979
199	0xbd4f0164	-0.050538436
200	0xbd0174e8	-0.03160563
201	0xbd3e5fbf	-0.04647803
202	0x3da44d12	0.080225125
203	0xbd03fe77	-0.0322251
204	0x3da3d608	0.079998076
205	0x3cbc8b08	0.023015514
206	0xbd40a7b4	-0.047034934
207	0x3d8b9df3	0.06817236
208	0xbd7894b0	-0.060688674
209	0x3dc2f7bc	0.09519908
210	0x3c109225	0.008823906
211	0x3cc1f1dc	0.023674898
212	0x3cca1a2d	0.024670685
213	0x3dcedd1f	0.10100769
214	0x3ba1cfba	0.004938093
215	0x3995359a	0.0002845943
216	0x3c61f5e5	0.013791536
217	0xbcb32414	-0.02186779
218	0x3d8c4f20	0.068510294
219	0xbd033e21	-0.032041673
220	0x3d2dc452	0.042423554
221	0xbd873234	-0.06601372
222	0x3d1baf8c	0.03800921
223	0xbd666efd	-0.05625819
224	0x3bb46d85	0.00550622
225	0xbd62c6a9	-0.05536524
226	0x3af007b1	0.0018312839
227	0x3d06b321	0.032885674
228	0x3dd8f08d	0.105927564
229	0xbd71d460	-0.059040427
230	0x3ce70aa1	0.02820331
231	0x3ceb1745	0.02869762
232	0xbd91f59b	-0.07126924
233	0x3d9c6ba5	0.07637719
234	0xbd5c2246	-0.053743623
235	0xbda2eeb1	-0.07955683
236	0x3d84fc2a	0.06493409
237	0xbd3a2c68	-0.045452505
238	0x3d9510e5	0.07278613
239	0xbd4df5f5	-0.05028339
240	0xbd3950c1	-0.04524303
241	0x3dbe4145	0.09289793
242	0x3ce1cb65	0.027562806
243	0x3d98aef4	0.07455245
244	0x3cd9e235	0.026597122
245	0x3db273d4	0.08713499
246	0xbd32356a	-0.04350797
247	0xbcbd0943	-0.023075705
248	0x3d32630e	0.043551497
249	0xbcb027de	-0.021503385
250	0xbc5c3425	-0.013440167
251	0xbd7a934e	-0.061175637
252	0x3da810e8	0.082063496
253	0x3ce75011	0.02823642
254	0x3cc7b6a0	0.024379075
255	0x3d983328	0.07431632

fc3.bias f4 [2]
0	0x3d808d36	0.06276934
1	0x3d491cf5	0.04909988

fc1.weight f4 [128, 84]
0	0xbe12f59a	-0.14351502
1	0x3c0231d7	0.007946453
2	0xbd0e46d2	-0.03473551
3	0xbdee5639	-0.116375394
4	0xbd91a7fd	-0.07112119
5	0xbddf9424	-0.109169275
6	0x3c9f3b5e	0.019437488
7	0x3c73d8d4	0.014883239
8	0x3d894a96	0.06703679
9	0x3dc8568d	0.09782133
10	0xbde4559c	-0.11149141
11	0xbde513fb	-0.111854516
12	0xbe2d4622	-0.16921285
13	0x3e1a20d7	0.1505159
14	0x3e8ffd4c	0.28122938
15	0x3d3c27b6	0.04593631
16	0xba0725c8	-0.0005155471
17	0xbe3558c8	-0.17709649
18	0xbe648f8a	-0.22320381
19	0x3e9a9448	0.30191255
20	0x3e13157a	0.14363661
21	0x3d3157f9	0.043296788
22	0xbd4c71f1	-0.04991335
23	0xbe99e762	-0.30059344
24	0x3e76a74b	0.24087255
25	0xbe471c5a	-0.19444409
26	0xbd988a6d	-0.074482776
27	0x3e5b7a9d	0.21433492
28	0xbe07605d	-0.13220353
29	0x3e4fd3cb	0.20295636
30	0xbec9bd5b	-0.3940228
31	0xbd69bc1e	-0.05706417
32	0x3d82c393	0.06384959
33	0xbd05344b	-0.032520574
34	0x3e17fdab	0.1484286
35	0xbca4fca7	-0.020140005
36	0xbe20ce7c	-0.15703768
37	0xbcc4c51d	-0.024019772
38	0xbdb9c4d5	-0.09070746
39	0xbd9d0c51	-0.07668365
40	0xbe3a89a1	-0.18216564
41	0x3edcb5da	0.43107492
42	0x3dae39cc	0.08507118
43	0x3e49014b	0.196294
44	0xbd22ee16	-0.039777838
45	0x3dfba81f	0.12287926
46	0x3e6f7eee	0.23388264
47	0xbc223e60	-0.009902567
48	0x3da21775	0.0791463
49	0x3d75a1cb	0.05996875
50	0xbf427f87	-0.7597584
51	0x3e476e86	0.19475755
52	0xbead1575	-0.33805433
53	0x3e98d972	0.29853398
54	0x3dc617f8	0.096725404
55	0x3e46d7fe	0.19418332
56	0xbcf567c6	-0.02995671
57	0xbe30fd9e	-0.17284247
58	0xbd56824d	-0.05237036
59	0x3db92dd9	0.09041948
60	0xbcb4cb52	-0.022069607
61	0xbd9daf0c	-0.07699403
62	0xbda33f79	-0.07971091
63	0x3e486e7d	0.19573398
64	0xbbfe79e0	-0.0077659935
65	0xbdce343a	-0.10068555
66	0x3d8486cb	0.06471022
67	0xbe26d792	-0.16293171
68	0xbd1de95b	-0.038552623
69	0x3d8992f6	0.06717484
70	0x3dcc042c	0.09961733
71	0xbd2387dd	-0.03992449
72	0x3de145cc	0.10999641
73	0x3c38548c	0.011250626
74	0xbcd04fa4	-0.0254286
75	0x3dab21aa	0.0835603
76	0xbdc69c72	-0.09697808
77	0x3e989237	0.29799053
78	0xbd68e166	-0.05685558
79	0xbc43aa51	-0.011942462
80	0x3d413706	0.047171615
81	0xbd033e16	-0.03204163
82	0xbd7d3027	-0.0618135
83	0x3d83db24	0.06438282
84	0xbd6d82df	-0.057986137
85	0xbc9c663d	-0.01909172
86	0xbcbf3326	-0.02333982
87	0xbd6647cf	-0.056220826
88	0x3d5045e0	0.050847888
89	0xbdcd1a52	-0.10014786
90	0xbd90b470	-0.07065666
91	0xbd9185fd	-0.07105634
92	0x39886d56	0.00026021403
93	0xbda93d91	-0.08263696
94	0xbd54c098	-0.051941484
95	0x3c9f640c	0.019456886
96	0x3d29ed85	0.041486282
97	0xbdacbe28	-0.08434707
98	0xbd2c90d2	-0.0421303
99	0xbd70c4a7	-0.058781292
100	0x3d975ba1	0.07390524
101	0xbd497dc6	-0.049192213
102	0xbdd33e66	-0.10314636
103	0xbd0f17a0	-0.03493464
104	0x3d959790	0.07304299
105	0xbd7cf6af	-0.061758693
106	0xbdadb77f	-0.08482265
107	0xbd269041	-0.040664915
108	0x3c8db94a	0.017300267
109	0x3c417b51	0.011809186
110	0x3c750a8d	0.014956129
111	0xbd3a3441	-0.04545999
112	0xbd420f87	-0.04737809
113	0xbcb116d9	-0.02161734
114	0xbc9a1ee3	-0.018813556
115	0xbd21285b	-0.039345127
116	0x3d8fe582	0.07026197
117	0xbc84e84a	-0.016224045
118	0x3da1690f	0.078813665
119	0x3c93c466	0.018037986
120	0xbd5c08e6	-0.053719424
121	0x3daccafe	0.08437155
122	0x3db0044a	0.08594568
123	0x3d0a485f	0.033760425
124	0x3ccae708	0.024768367
125	0xbcd08b8e	-0.02545717
126	0xbdb4f737	-0.08836215
127	0x3d50b05d	0.050949443
128	0xbd132414	-0.03592308
129	0xbd2c9477	-0.042133775
130	0x3cacb79c	0.021083646
131	0xbc9f9efe	-0.019484993
132	0xbbee3b6e	-0.007270268
133	0xbc9cf8d3	-0.019161617
134	0x3cb94dd1	0.022620114
135	0x3da18993	0.07887568
136	0xbc6cdf89	-0.014457592
137	0xbbdd7264	-0.006758021
138	0xbdad896a	-0.08473475
139	0xbd047ecf	-0.032347497
140	0x3dcebd44	0.10094693
141	0x3d8f1bad	0.069877006
142	0xbd181e36	-0.037138186
143	0xbb3efc98	-0.0029142257
144	0x3cdd941b	0.027048161
145	0x3d5c5e1d	0.05380069
146	0x3d5d2e55	0.053999264
147	0x3be9f565	0.007139849
148	0x3dca3626	0.09873609
149	0x3db79949	0.08964784
150	0xbc51ec24	-0.012812648
151	0x3cb88e3f	0.022528766
152	0x3d50cbdc	0.050975665
153	0xbddd4e7b	-0.108059846
154	0x3d968f67	0.073515706
155	0x3bbed5a4	0.005823808
156	0xbcef876b	-0.029239377
157	0xbd3ba41d	-0.045810807
158	0x3dc9aad1	0.09847034
159	0xbda3a6f2	-0.07990827
160	0xbd1f752d	-0.038930107
161	0xbd85f415	-0.065406956
162	0x3d60fd78	0.054929227
163	0x3d76fab3	0.06029768
164	0xbd6ee0be	-0.0583198
165	0xbd67db72	-0.056605764
166	0xb98bbdc5	-0.00026653535
167	0xbd01b82b	-0.031669777
168	0xbddeb148	-0.108736575
169	0x3d9467f6	0.072463915
170	0xbcde8b17	-0.027165933
171	0xbe060ab7	-0.13090025
172	0x3cb2a235	0.021805862
173	0x3c883a9f	0.016629515
174	0x3d1f1c2f	0.038845237
175	0x3cbe0ce2	0.023199502
176	0x3d641f23	0.055693757
177	0x3da408fe	0.080095276
178	0xbc859302	-0.01630545
179	0xbd55927f	-0.052141663
180	0xbb13ce84	-0.0022553513
181	0xbd711ae5	-0.05886354
182	0xbd43a0b7	-0.04776069
183	0x3cd8ede6	0.026480626
184	0xbda77c07	-0.08177953
185	0xba5754d9	-0.00082142424
186	0x3cb27bd7	0.021787567
187	0x3d12c831	0.03583545
188	0xbde3491a	-0.110979274
189	0x3d279963	0.040917765
190	0xbd01b504	-0.03166677
191	0x3d67adc8	0.056562215
192	0xbdb775dc	-0.08958027
193	0x3cdfdd1e	0.027327117
194	0x3bd76c24	0.0065741707
195	0xbde7ee91	-0.113248
196	0xbc41c456	-0.011826595
197	0xbdf8bec7	-0.12145763
198	0x3a5b3345	0.0008361827
199	0xbcbf53de	-0.02335542
200	0xbd9416c5	-0.072309054
201	0x3c62c5c2	0.013841094
202	0xbd3ce6b3	-0.04611845
203	0xbcd7d179	-0.026345002
204	0xbd4016f9	-0.04689691
205	0x3cba04ca	0.022707362
206	0xbd82620a	-0.06366356
207	0x3ddc6cf9	0.107629724
208	0xbd966665	-0.07343749
209	0x3d96d5aa	0.07364972
210	0x3dac4269	0.08411104
211	0xbde63163	-0.112398885
212	0x3d735017	0.05940255
213	0xbbd3b753	-0.006461063
214	0x3d13efea	0.03611747
215	0x3d64f887	0.055901077
216	0xbd7df74a	-0.06200341
217	0x3cc48e3d	0.023993606
218	0xbdcd6c81	-0.10030461
219	0xbba1082e	-0.004914305
220	0xbc3c8988	-0.011507399
221	0xbda59bdf	-0.08086371
222	0x3d7750ef	0.06037992
223	0x3dd9b1d4	0.10629621
224	0xbd96e299	-0.07367439
225	0x3ce070d4	0.02739755
226	0xbe04a010	-0.12951684
227	0x3ddb9318	0.10721415
228	0x3c9eeeb4	0.019400932
229	0xbd39e5e0	-0.04538524
230	0xbcbf99ea	-0.023388822
231	0x3d4e3ffb	0.050353985
232	0x37994a49	1.8273613e-05
233	0x3d92c513	0.07166495
234	0x3da40581	0.08008862
235	0xba049c2e	-0.0005058673
236	0xbda98cf0	-0.08278835
237	0x3d30fafe	0.043208115
238	0xbbb7e9be	-0.005612581
239	0x3c97e652	0.018542442
240	0x3d924a1c	0.071430415
241	0xbca58f41	-0.02020991
242	0x3c760d99	0.01501789
243	0x3dcd8342	0.10034801
244	0x3d675e2f	0.056486305
245	0x3d534b61	0.05158556
246	0xbddd4f30	-0.108061194
247	0xbdabae07	-0.083828025
248	0xbdb12c78	-0.0865106
249	0x3d3c3434	0.045948222
250	0xbceef8fd	-0.029171461
251	0xbca2a1b1	-0.019852491
252	0xbd89df57	-0.06732052
253	0xbd6cc600	-0.057806015
254	0xbd6e9e9d	-0.058256734
255	0xbd03dac9	-0.03219107

fc1.bias f4 [128]
0	0x3b4a9956	0.003091415
1	0xbd89e862	-0.06733777
2	0xbdd495d9	-0.10380144
3	0x3c87666d	0.016528333
4	0x3c9b23e3	0.01893801
5	0xbd11caba	-0.035593726
6	0xbcd68013	-0.026184117
7	0x3cf864f2	0.030321572
8	0xbcbf919d	-0.023384864
9	0x3dfb1279	0.12259383
10	0x3c6500df	0.0139772585
11	0xbdc3a088	-0.09552103
12	0x3cc6cbac	0.02426704
13	0xbd170670	-0.036871374
14	0x3d5441f9	0.05182073
15	0xbd116f00	-0.03550625
16	0xbd7ff568	-0.062489897
17	0x3d9889b9	0.074481435
18	0xbc74dc93	-0.014945167
19	0xbdf9006d	-0.12158284
20	0x3d2b21f8	0.041780442
21	0x3d804ba2	0.06264426
22	0xbd0ad9f8	-0.033899277
23	0x3d43ddc8	0.04781893
24	0xbd82c137	-0.06384509
25	0xbd1d1529	-0.038350258
26	0xbd72ab29	-0.059245262
27	0xbd4871c5	-0.048936624
28	0xbdad56e7	-0.08463841
29	0xbda1aa14	-0.07893768
30	0x3cd24ab2	0.025670383
31	0xbdad23fe	-0.084541306
32	0xbde57540	-0.11204004
33	0x3d259228	0.04042259
34	0x3c0302d5	0.007996281
35	0xbda1f253	-0.07907548
36	0x3d8a204a	0.0674444
37	0x3d21cc3e	0.03950142
38	0x3e0977c4	0.13424593
39	0x3d4dbe29	0.05023018
40	0xbdb550b2	-0.08853282
41	0xbdbec5f5	-0.09315101
42	0xbdd0c28f	-0.10193359
43	0xbe10b0f3	-0.14130001
44	0x3d8232b4	0.06357327
45	0xbe0fb1f2	-0.14032724
46	0x3ce77c1e	0.028257426
47	0xbc8f61a3	-0.017502612
48	0xbd758890	-0.05994469
49	0x3de2c169	0.11072046
50	0x3bd22073	0.0064125597
51	0xbc954b76	-0.01822446
52	0xbbe4c402	-0.0069813738
53	0xbdc4bbcf	-0.09606134
54	0xbc66608d	-0.014061105
55	0x3d4cec66	0.050030135
56	0xbdfebcf6	-0.12438385
57	0x3d2be7ed	0.04196923
58	0x3d0eed80	0.034894466
59	0xbc5f8f91	-0.013645069
60	0x3d4003f1	0.04687876
61	0xbe0c40ab	-0.13696544
62	0xbda6fb92	-0.08153452
63	0xbc8cde39	-0.017195808
64	0xbdaa2dbd	-0.08309505
65	0x3d664204	0.0562153
66	0xbca44453	-0.02005211
67	0xbd3dad96	-0.046308123
68	0x3c84ae0d	0.016196275
69	0x3c4f0bd6	0.012637099
70	0x3d853ba2	0.06505515
71	0xbd9cb664	-0.07651976
72	0x3b0ed3ac	0.0021793647
73	0x3a5a7f91	0.0008335049
74	0xbc9f7af3	-0.019467806
75	0xbbf49968	-0.0074645765
76	0xbdfc8367	-0.123297505
77	0xbd8402d4	-0.06445852
78	0xbd2a7f55	-0.04162534
79	0xbd8241e4	-0.06360224
80	0x3d336456	0.04379686
81	0xbdab834d	-0.08374653
82	0xbdee807f	-0.116456024
83	0xbdf8a167	-0.1214016
84	0xbd54c28e	-0.051943354
85	0xbdc4d887	-0.09611612
86	0x3d1bdb81	0.038051132
87	0xbd93d7dd	-0.07218907
88	0xbd2e8ff8	-0.042617768
89	0xbd66874c	-0.056281373
90	0xbe061b2e	-0.13096306
91	0xbd2cfa29	-0.04223076
92	0xbd126e8e	-0.035749964
93	0xbdc9c6b0	-0.0985235
94	0xbd9f04de	-0.077646
95	0xbd99291e	-0.074785456
96	0xbcaa7bfc	-0.020811073
97	0x3d5abff9	0.053405736
98	0xbdf3c0ee	-0.11902033
99	0x3c62c618	0.013841175
100	0xbdc0e29a	-0.09418221
101	0xbca3d406	-0.019998562
102	0x3d0748e4	0.0330285
103	0xbde06a84	-0.10957816
104	0xbc5cbd27	-0.013472832
105	0xbd7a08c6	-0.061043523
106	0xbdc527da	-0.09626742
107	0xbd64ffee	-0.055908136
108	0x3d1d4ed4	0.038405254
109	0x3ca3ac53	0.019979632
110	0x3d9286ab	0.07154592
111	0x3d1cabd2	0.038249798
112	0x3cb8c969	0.022556977
113	0x3d0104d0	0.03149873
114	0xbd6407a1	-0.055671338
115	0x3d9c1cb8	0.07622665
116	0x3cde5b33	0.027143097
117	0x3d4de949	0.050271306
118	0x3d5dfa08	0.054193527
119	0x3d94109f	0.07229733
120	0x3d9fa36e	0.077948436
121	0x3bfffac4	0.007811876
122	0xbd397f89	-0.045287643
123	0xbdc3e384	-0.095648795
124	0xbde48565	-0.111582555
125	0x3d685f82	0.05673171
126	0xbd28690b	-0.0411158
127	0xbdc28d7d	-0.09499643

fc2.weight f4 [128, 128]
0	0xbe9bf999	-0.30463865
1	0x3c89235d	0.016740495
2	0xbbd9496b	-0.0066310666
3	0xbc34fa58	-0.011046015
4	0xbe6e258b	-0.23256509
5	0x3d9d47ce	0.07679711
6	0xbf127e5f	-0.57224077
7	0xbdcdd6df	-0.10050749
8	0xbe0dd0f8	-0.13849247
9	0xbdabd0b8	-0.08389419
10	0xbd45db24	-0.048304692
11	0x3d532f90	0.05155903
12	0x3e10effd	0.14154048
13	0x3d188f25	0.03724589
14	0x3d1f3c84	0.03887607
15	0xbcb1ce30	-0.021704763
16	0xbde48b82	-0.111594215
17	0xbce97df2	-0.028502438
18	0x3d8f12ea	0.069860294
19	0x3d162d65	0.036664385
20	0x3db04938	0.08607715
21	0x3d246211	0.040132586
22	0x3d3815c8	0.044942647
23	0x3d86f87e	0.06590365
24	0x3d8292b6	0.06375639
25	0xbe8eb922	-0.2787562
26	0x3ba66cc6	0.005078885
27	0x3d86efee	0.06588732
28	0xbe11359f	-0.14180611
29	0x3beafe15	0.007171402
30	0xbd60ed1b	-0.05491362
31	0xbc2fe0f0	-0.010734782
32	0xbcfc40f8	-0.030792698
33	0x3dd6e60c	0.10493097
34	0xbcd59cf7	-0.026075823
35	0x3d659145	0.056046743
36	0x3d26340a	0.040576972
37	0xbdfbedc2	-0.12301208
38	0xbea3ce62	-0.31993395
39	0xbdb48235	-0.088138975
40	0x3d446c90	0.047955096
41	0x3be684a8	0.007034857
42	0x3cbfafe8	0.023399308
43	0xbd10dd71	-0.035367433
44	0xbce11574	-0.02747605
45	0x3d8c18b6	0.06840651
46	0xbe29c8f8	-0.1658057
47	0x3c533738	0.012891583
48	0x3d87752a	0.06614144
49	0x3e80a372	0.251247
50	0x3c3388db	0.010957922
51	0xbc4b8976	-0.01242291
52	0x3d80d4ea	0.0629061
53	0x3d887519	0.066629596
54	0xbd22c562	-0.03973902
55	0xbd9c31d2	-0.0762669
56	0x3c022184	0.007942561
57	0xbc328c93	-0.010897773
58	0xbce33744	-0.027736314
59	0x3d6639a0	0.0562073
60	0xbd8ab440	-0.06772661
61	0xbdcd12ab	-0.10013326
62	0xbc10dfe2	-0.00884244
63	0x3d4cbf81	0.04998732
64	0x3c110a24	0.008852515
65	0xbeb40a51	-0.3516412
66	0xbd96dc5e	-0.073662505
67	0xbdc8b15b	-0.09799453
68	0x3b9809fc	0.004639862
69	0xbcf45453	-0.029825365
70	0xbd389d42	-0.045071848
71	0x3c648ea8	0.0139500275
72	0x3d4228b3	0.047402095
73	0x3c8ba09f	0.017044364
74	0xbeedd78f	-0.4645352
75	0xbca9a5f8	-0.020709023
76	0xbda3ae1c	-0.07992193
77	0xbd73b82a	-0.059501804
78	0x3d4bef92	0.04978902
79	0xbd15a3dc	-0.03653322
80	0xbd982420	-0.07428765
81	0xbd894c89	-0.06704051
82	0x3d7ca9bb	0.061685305
83	0x3cea3f29	0.02859457
84	0x3db172c2	0.086644664
85	0xbd3ca910	-0.046059668
86	0xbd95b504	-0.073099166
87	0xbd846c42	-0.06465961
88	0xbc814745	-0.015781054
89	0x3d910690	0.0708133
90	0xbd00a08f	-0.03140312
91	0x3da1de91	0.07903779
92	0x3cc96519	0.02458434
93	0xbc08bd89	-0.00834597
94	0xbe02ca0a	-0.12772384
95	0x3c5e3b7a	0.013563985
96	0xbdc6a97f	-0.097002976
97	0xbc8da6de	-0.017291483
98	0xbd5e4579	-0.054265473
99	0xbd80b750	-0.06284964
100	0xbc8b55b8	-0.017008647
101	0x3cd144f3	0.025545573
102	0xbd8166be	-0.06318425
103	0xbd560168	-0.052247435
104	0xbea53714	-0.32268584
105	0xbd93426d	-0.07190404
106	0x3d137899	0.036003683
107	0xbd9a8c91	-0.07546342
108	0xb80ef38f	-3.408227e-05
109	0xbc85820d	-0.016297365
110	0xbe480a5a	-0.19535199
111	0xbd7108dd	-0.058846343
112	0x3cb736b9	0.022364961
113	0xbcfd70b1	-0.030937525
114	0x3d318235	0.043337066
115	0x3e1bf48a	0.15230003
116	0x3da1836b	0.07886394
117	0x3a5a8995	0.00083365414
118	0x3d48e82c	0.04904954
119	0xba4b0a01	-0.0007745326
120	0xbcff3287	-0.031152023
121	0x3d7d9df5	0.061918218
122	0xbec603a3	-0.3867465
123	0x3cb53d08	0.022123829
124	0xbd6f40e2	-0.058411486
125	0xbda1d225	-0.0790141
126	0xbe0a9893	-0.13534765
127	0xbd98f344	-0.07468274
128	0x3e48498c	0.19559306
129	0x3d90ab61	0.07063938
130	0xbc3c00eb	-0.011474828
131	0x3d87cd46	0.0663095
132	0x3ca6b9dd	0.020352298
133	0xbdaa4541	-0.083139904
134	0xbd781d46	-0.060574792
135	0x3c8b0eb4	0.016974784
136	0x3d9519d6	0.072803184
137	0xbe3b23a4	-0.18275315
138	0xbce4f1e6	-0.027947377
139	0xbd11639d	-0.03549539
140	0xbca48c23	-0.020086354
141	0xbb9b0ec3	-0.0047319843
142	0xbd2a5b02	-0.041590698
143	0x3c3b9892	0.01144995
144	0x3d3fca69	0.046823893
145	0xbd88c269	-0.06677706
146	0x3cdd5c39	0.027021514
147	0x3b378d3d	0.0028007769
148	0xbd2cefe4	-0.042220965
149	0x3d75b238	0.059984416
150	0xbd26aaea	-0.04069034
151	0x3d9b6345	0.075872935
152	0xbd99e06a	-0.07513507
153	0xbe1ebd03	-0.1550179
154	0xbc08010f	-0.008301034
155	0x3d28beff	0.041197773
156	0xbcfb94ba	-0.030710567
157	0xbd0f2f67	-0.034957316
158	0xbcba5a7c	-0.022748224
159	0xbd156caf	-0.036480602
160	0xbd4c09b9	-0.04981396
161	0xbd899d7c	-0.06719491
162	0x3d42739f	0.047473546
163	0x3d9dac40	0.0769887
164	0xbcb367e3	-0.021900123
165	0x3d89a99b	0.06721803
166	0x3d89d929	0.06730873
167	0x3d11a64e	0.03555899
168	0xbd7db827	-0.0619432
169	0x3d4d2595	0.05008467
170	0x3b7a1472	0.003815916
171	0xbb97df8f	-0.0046348046
172	0xbd3fe6ed	-0.046851087
173	0x3da1b617	0.07896059
174	0xbe02a0d3	-0.12756662
175	0xbd2b79cf	-0.041864213
176	0xbd75f673	-0.060049485
177	0xbdc19523	-0.09452274
178	0xbc462039	-0.012092643
179	0xbcb3ac7e	-0.021932837
180	0xbdb1c1fc	-0.08679578
181	0x3c279d3a	0.010230357
182	0xbd7498b9	-0.05971596
183	0x3c8fc870	0.01755163
184	0xbcd9971c	-0.026561312
185	0xbcb6b98b	-0.02230527
186	0xbdb1c9c6	-0.08681063
187	0xbd8eb2b9	-0.069676824
188	0xbd8149f5	-0.06312934
189	0xbd1c1b2f	-0.03811186
190	0x3d7cd384	0.061725155
191	0xbd1af191	-0.037828032
192	0x3d118ba2	0.035533555
193	0x3d20a895	0.039223272
194	0xbd30401b	-0.043029886
195	0xbd9d1cc3	-0.076715015
196	0x3d67e4f6	0.05661484
197	0x3d21499a	0.039376833
198	0x3d44335f	0.047900554
199	0xbc1467c9	-0.009057947
200	0x3c26a7d1	0.0101718465
201	0x3d873afe	0.06603049
202	0xbd8b5537	-0.06803363
203	0xbb17957d	-0.0023129873
204	0xbcad468e	-0.021151807
205	0xbd82350d	-0.06357775
206	0xbda8c62f	-0.082409255
207	0xbd649840	-0.05580926
208	0x3bce8844	0.006302865
209	0xbe3880b5	-0.18017848
210	0xbd3f922d	-0.046770263
211	0x3d053743	0.032523405
212	0xbd2abca2	-0.0416838
213	0x3d89b7ee	0.06724535
214	0x3ada9821	0.0016677418
215	0x3d0fc305	0.035098094
216	0xbd847db2	-0.06469287
217	0x3daccb81	0.08437253
218	0xbda24f25	-0.07925252
219	0xbdad7895	-0.08470265
220	0x3d7e0288	0.062014133
221	0xbd80db8b	-0.062918745
222	0xbdd2302c	-0.10263094
223	0x3da1f836	0.079086706
224	0x3e3ebc99	0.18626632
225	0xbcf13914	-0.029446162
226	0xbb7269e6	-0.003698939
227	0x3cfafd0c	0.03063824
228	0xbd5cbd61	-0.053891543
229	0xbd212f67	-0.039351847
230	0xbb9f7ee8	-0.0048674233
231	0x3d2c612f	0.04208487
232	0x3d2c93ad	0.042133022
233	0xbd34ec7c	-0.04417084
234	0xbce0cc2c	-0.027441107
235	0xbcaae3f2	-0.020860646
236	0x3d630609	0.055425677
237	0x3d8980b3	0.067140006
238	0x3d3181c5	0.04333665
239	0xbd78239c	-0.060580835
240	0xbd451de7	-0.04812422
241	0xbd9da554	-0.076975495
242	0xbca93a28	-0.020657614
243	0xbe5cc75c	-0.21560425
244	0xbc6c19c7	-0.014410443
245	0xbda2a23f	-0.07941102
246	0xbd597b46	-0.05309608
247	0xbccfacf9	-0.025351034
248	0xbe558376	-0.2085093
249	0x3d5b70a9	0.053574238
250	0xbe6f867d	-0.23391147
251	0x3cadfacd	0.021237755
252	0x3dac4ae2	0.0841272
253	0x3d5c29dd	0.05375086
254	0x3d1a6fbf	0.037704226
255	0x3c87c17e	0.016571756

fc2.bias f4 [128]
0	0x3e03cf82	0.12872127
1	0xbebb275e	-0.36553472
2	0xbe277fe5	-0.16357382
3	0xbd6816f3	-0.05666251
4	0xbdb537a9	-0.08848507
5	0x3e96fe8d	0.29491082
6	0xbf0a65f8	-0.5406184
7	0xbcc3de70	-0.023909777
8	0x3e25f84b	0.16207998
9	0xbc9bb870	-0.019008845
10	0xbed92447	-0.4241049
11	0x3ccf7592	0.025324617
12	0xbd84818a	-0.0647002
13	0xbecf2f18	-0.40465617
14	0xbde2d2bc	-0.11075351
15	0xbd459df5	-0.048246343
16	0xbdcccc0a	-0.09999855
17	0xbe9404b7	-0.28909847
18	0x3e7ad7d9	0.24496402
19	0x3d08d6eb	0.033408087
20	0x3f30441c	0.68853927
21	0x3c4653fc	0.012104984
22	0x3ef3109b	0.47473606
23	0x3e2eea3c	0.17081541
24	0x3f02246d	0.5083683
25	0xbee8466c	-0.45366228
26	0xbd47b06b	-0.04875223
27	0xbcd8735f	-0.0264222
28	0xbc6fc6ed	-0.01463483
29	0xbdc8b3e8	-0.097999394
30	0xbd2e9b55	-0.042628605
31	0xbccdcee8	-0.025123075
32	0xbd189cce	-0.037258916
33	0xbcdd1094	-0.026985444
34	0x3cae56a9	0.021281557
35	0xbe4adb56	-0.19810233
36	0x3eb77ad2	0.35835892
37	0x3e9ba134	0.30396426
38	0xbe885e74	-0.26634562
39	0x3c3f2f79	0.011669033
40	0x3cab670f	0.020923166
41	0xbef28c7e	-0.47372812
42	0xbd5eb570	-0.05437225
43	0xbdcb2188	-0.09918505
44	0xbe01ae30	-0.12664104
45	0xbd89e1c0	-0.067325115
46	0xbe91a8ff	-0.28449246
47	0xbd81e2e1	-0.06342102
48	0x3cbc00ec	0.022949658
49	0xbf0c6754	-0.54845166
50	0x3e093146	0.13397703
51	0xbd033662	-0.032034285
52	0x3ec9b418	0.39395213
53	0xbe877243	-0.26454362
54	0x3e6d1eb1	0.23156239
55	0x3ec90279	0.392597
56	0x3d2ca6b6	0.042151175
57	0xbe384aee	-0.17997333
58	0xbe3e5691	-0.1858771
59	0x3e6ef4d5	0.23335584
60	0xbd92c13b	-0.07165762
61	0xbea54057	-0.3227565
62	0x3b96595f	0.0045882906
63	0xbebf495c	-0.37360656
64	0xbd9ae6eb	-0.07563575
65	0x3dc715bd	0.09720943
66	0xbefc7741	-0.49309734
67	0xbe779db8	-0.24181259
68	0x39804bec	0.0002447063
69	0x3ece503d	0.40295592
70	0xbcd08645	-0.02545465
71	0x3d23b43b	0.039966803
72	0xbe4d1bd9	-0.20030154
73	0xbdba1e53	-0.09087815
74	0xbe7c55a3	-0.24642043
75	0xbe991450	-0.2989831
76	0xbd7dfc57	-0.06200823
77	0xbad0ce9f	-0.0015930719
78	0xbe93c05e	-0.28857702
79	0x3ca65921	0.020306172
80	0xbe73350b	-0.23750703
81	0xbe1fe8fa	-0.15616217
82	0xbc2cc41d	-0.010544804
83	0xbda6bf02	-0.081419006
84	0xbde1b0e8	-0.1102007
85	0xbec3fc6b	-0.38278517
86	0x3e5561ba	0.20838061
87	0xbdc4d89a	-0.09611626
88	0x3d9fbb40	0.07799387
89	0xbe7054b0	-0.23469806
90	0xbee8935b	-0.45424923
91	0xbc4477dd	-0.011991468
92	0x3e882420	0.2659006
93	0xbe9e2bd8	-0.30892825
94	0x3dc530d9	0.096284576
95	0x3bad42bd	0.005287497
96	0xbd18b82f	-0.037285026
97	0xbec8448d	-0.391148
98	0xbecc4fc3	-0.39904603
99	0xbe5e4b6c	-0.21708459
100	0x3c09d1a4	0.008411799
101	0x3dc75557	0.09733074
102	0xbdf2a0c4	-0.1184707
103	0xbe3b5958	-0.182958
104	0xbdcff691	-0.10154451
105	0xbd0faff1	-0.0350799
106	0x3cfe6359	0.031053232
107	0xbca3bd22	-0.019987646
108	0x3e5229eb	0.20523803
109	0xbe25ac60	-0.16179037
110	0x3c0d82ba	0.008637125
111	0x3c7cab18	0.015421651
112	0x3e974681	0.29545978
113	0xbe7c9610	-0.2466662
114	0xbdd5e9c2	-0.104449764
115	0xbe78ce13	-0.24297361
116	0x3d624b1f	0.055247422
117	0x3ea4e1a7	0.3220341
118	0xbcb498a2	-0.022045437
119	0x3d21520f	0.039384898
120	0xbdd992b3	-0.10623684
121	0x3e63ec02	0.22257999
122	0xbd842f43	-0.06454327
123	0xbdfafa89	-0.12254817
124	0x3f1c276a	0.6099764
125	0x3df90b4f	0.1216036
126	0x3cffe371	0.031236382
127	0x3f2fc7ed	0.6866444
