saved_models/episode_600/agent_0.pth (torch, 738018 bytes, 44 tensors)

fc1.weight f4 [128, 5]
0	0x3e2ed701	0.17074205
1	0x3db0d657	0.08634632
2	0x3e3cc316	0.18433794
3	0x3d139680	0.0360322
4	0xbe9e0229	-0.30861023
5	0x3ebd02bd	0.36916152
6	0x3ce8dbd0	0.028425127
7	0x3e2d5475	0.16926749
8	0x3ee995d4	0.45622122
9	0xbea20246	-0.3164236
10	0x3e1d4b0f	0.15360664
11	0xbddda14c	-0.108217806
12	0xbdfeded5	-0.124448456
13	0x3ec0e8f6	0.37677735
14	0x3d9ee645	0.07758764
15	0xbd618058	-0.05505404
16	0xbe9745ee	-0.2954554
17	0x3d3cb4f6	0.046071015
18	0xbe8bd75b	-0.2731274
19	0x3d85506f	0.06509482
20	0x3eba95ab	0.36442313
21	0x3e1b9932	0.15195158
22	0x3e76b2d8	0.24091661
23	0xbe7a915e	-0.24469516
24	0xbb9a91e8	-0.0047171004
25	0xbed2f7f5	-0.412048
26	0xbcacf3da	-0.021112371
27	0xbb8b481a	-0.0042505385
28	0x3eddc2d9	0.4331272
29	0x3ea57ed8	0.32323337
30	0xbd4dabf8	-0.05021283
31	0x3d421a85	0.047388572
32	0xbea80f9f	-0.32824418
33	0x3d5eb807	0.05437472
34	0x3ea784bb	0.32718453
35	0x3d677091	0.056503836
36	0x3e6d6033	0.23181228
37	0xbe2d93b1	-0.16950871
38	0x3e5ef800	0.21774292
39	0xbc6f3fb1	-0.014602588
40	0x3ee8242d	0.453401
41	0xbe2159ff	-0.15756987
42	0x3e945572	0.2897144
43	0x3cc384f7	0.023867114
44	0xbe212f9e	-0.15740821
45	0x3e873f5a	0.2641552
46	0xbe8b7c15	-0.27243105
47	0x3dbfc775	0.09364215
48	0xbea8cf54	-0.3297068
49	0x3e4698c4	0.19394213
50	0xbebf8f31	-0.37413934
51	0x3db4b7d0	0.08824122
52	0xbcd34e2b	-0.02579411
53	0x3e93202e	0.2873549
54	0xbe14cd35	-0.14531405
55	0x3dc1af1a	0.09457226
56	0xbd64fe23	-0.055906426
57	0xbe7ae704	-0.24502188
58	0x3ed5425a	0.41652185
59	0xbecaba29	-0.39595154
60	0x3e2f6873	0.17129688
61	0xbd700cd5	-0.058605988
62	0x3eb92bb6	0.3616616
63	0xbec8a2b4	-0.39186633
64	0x3eb7057e	0.35746378
65	0x3b5f7704	0.0034098038
66	0x3e4243ef	0.18971227
67	0x3d9a39c6	0.07530551
68	0x3eaceea7	0.33775827
69	0x3dc89925	0.09794835
70	0xbe944d39	-0.28965166
71	0x3e23bae5	0.15989263
72	0xbe7b513c	-0.24542707
73	0x3eb15ab2	0.34639508
74	0x3edd5b68	0.432338
75	0xbecbfb7f	-0.39840314
76	0xbe862293	-0.26198253
77	0xbe2068e3	-0.15665011
78	0xbe11cffb	-0.14239495
79	0xbedd5472	-0.4322849
80	0xbebb5b93	-0.36593303
81	0xbdba77a4	-0.09104851
82	0x3edcc24e	0.43116993
83	0xbec246e0	-0.37944698
84	0xbc06b589	-0.008221992
85	0x3ee135fe	0.43986505
86	0xbe811197	-0.25208732
87	0x3e18bf8e	0.14916822
88	0xbeb41a38	-0.35176253
89	0x3e8b9587	0.27262518
90	0x3daaa880	0.0833292
91	0xbe3b51f3	-0.1829298
92	0xbec404a6	-0.38284796
93	0x3ee9c4bd	0.45657912
94	0xbc6d6e24	-0.014491592
95	0x3e219c58	0.15782297
96	0x3de98513	0.11402335
97	0x3e4876f2	0.19576624
98	0x3e2b6d0e	0.1674082
99	0x3ec9561f	0.39323518
100	0xbe90046a	-0.28128368
101	0xbd95fe19	-0.07323856
102	0x3dae9253	0.08524003
103	0x3d163732	0.036673732
104	0xbe421323	-0.18952613
105	0x3ebc1db4	0.36741412
106	0x3df9aadb	0.12190791
107	0xbd80b2bc	-0.06284091
108	0xbd9ce81e	-0.0766146
109	0x3e8d90fb	0.27649674
110	0x3c272009	0.010200509
111	0x3dc57c83	0.09642889
112	0xbdfd8d0e	-0.1238042
113	0x3e2c4401	0.16822816
114	0x3ea12cdf	0.31479546
115	0x3e854ce4	0.26035225
116	0x3e8c6687	0.27421972
117	0x3dd95dee	0.10613619
118	0xbe1f1ef0	-0.15539145
119	0xbe9831d0	-0.29725504
120	0xbe0c7ba2	-0.13719037
121	0xbe210378	-0.1572398
122	0xbe0174ce	-0.12642214
123	0xbea11aeb	-0.3146585
124	0xbe76c043	-0.2409678
125	0x3e38c02b	0.18042056
126	0xbd930b71	-0.07179917
127	0xbdb7556b	-0.08951839
128	0xbe983a6c	-0.29732072
129	0x3e89bc01	0.26901248
130	0xbd992d4e	-0.07479344
131	0xbe4085aa	-0.18800989
132	0xbd7347a9	-0.059394512
133	0x3e3230bd	0.17401405
134	0x3dd000ff	0.1015644
135	0x3e1dd3bd	0.15412803
136	0x3df3aaf7	0.11897843
137	0x3ea16a4c	0.3152641
138	0xbe064eba	-0.1311597
139	0x3e1eff9b	0.15527193
140	0x3d2c644d	0.04208784
141	0x3d76fc16	0.060299
142	0xbe1415dc	-0.14461464
143	0x3e5bc0c2	0.2146025
144	0xbe4066b1	-0.18789174
145	0x3e14c605	0.14528663
146	0x3e0838ef	0.13302968
147	0xbd2c27b5	-0.042030055
148	0x3ede8166	0.43458098
149	0x3dec0fa3	0.1152642
150	0x3e87908d	0.2647747
151	0xbcaa58ac	-0.020794235
152	0xbe900ef6	-0.28136414
153	0x3ed44be5	0.41464153
154	0xbe1f42ad	-0.15552779
155	0xbe6e891a	-0.23294488
156	0x3e995f07	0.29955313
157	0xbec044a9	-0.37552384
158	0xbed1b71f	-0.40960023
159	0xbeaeed00	-0.34165192
160	0xbd51fc36	-0.051265918
161	0x3de22495	0.11042134
162	0x3e83e097	0.25757286
163	0x3e52c176	0.20581612
164	0x3e58bbc7	0.21165381
165	0x3ed48915	0.41510835
166	0xbee44a60	-0.44587994
167	0xbe424615	-0.18972047
168	0x3e8a8830	0.27057028
169	0xbe22065d	-0.1582274
170	0xbe550878	-0.20804012
171	0x3d9bfa87	0.07616144
172	0xbea98601	-0.3311005
173	0xbec284ad	-0.3799185
174	0x3e83c3b9	0.25735262
175	0x3e853ec2	0.26024443
176	0x3e995103	0.2994462
177	0x3ea610d9	0.3243473
178	0x3eb0bc8a	0.34518844
179	0xbeda03a4	-0.42580903
180	0x3e8f5aee	0.2799906
181	0x3c2533ec	0.01008318
182	0x3e80e323	0.25173292
183	0xbeae3056	-0.34021252
184	0xbdd0d7e2	-0.101974264
185	0x3ec4401a	0.38330156
186	0xbe68fbe6	-0.22752342
187	0x3c8389a1	0.016056838
188	0xbec282a8	-0.37990308
189	0xbe2b9fc9	-0.16760172
190	0xbd41c61b	-0.04730807
191	0xbee4a689	-0.44658306
192	0x3d0a7bbd	0.033809412
193	0xbdc9f9bf	-0.098620884
194	0x3c632198	0.01386299
195	0x3df4aeab	0.11947378
196	0x3e7ce0ac	0.2469508
197	0xbe85ace3	-0.26108465
198	0xbe8f075a	-0.27935296
199	0x3ec5010f	0.3847737
200	0xbe2e1dbd	-0.17003532
201	0xbee56ee2	-0.4481116
202	0x3e6774f5	0.2260321
203	0x3e54d4de	0.20784327
204	0xbe94357d	-0.28947058
205	0xbe9410ee	-0.28919166
206	0x3e209e45	0.15685375
207	0xbe64481b	-0.22293131
208	0x3df08c8c	0.11745557
209	0xbe9f4eb9	-0.31114748
210	0xbe7aa30b	-0.24476258
211	0x3edcb744	0.4310857
212	0xbed07c9e	-0.40720075
213	0xbecc5cdd	-0.399146
214	0x3e948506	0.2900774
215	0xbbf3b674	-0.0074375216
216	0xbee35d28	-0.4440701
217	0xbe50e92b	-0.20401447
218	0x3e11aa69	0.14225163
219	0xbe0a1d4b	-0.13487737
220	0xbe3717a1	-0.17880107
221	0x3e597484	0.21235853
222	0x3ee001a8	0.43751264
223	0xbe32a099	-0.17444076
224	0xbede4102	-0.43408972
225	0xbe96a5d6	-0.29423398
226	0xbecf1f0e	-0.4045338
227	0xbe9539a4	-0.2914554
228	0x3c6cee76	0.01446115
229	0x3dc61b15	0.09673134
230	0x3e4d53e0	0.20051527
231	0x3dc64501	0.0968113
232	0xbcb3e3e8	-0.02195926
233	0x3d7d9309	0.0619078
234	0x3c6774ac	0.014126938
235	0xbeda4868	-0.42633367
236	0x3e048b36	0.1294373
237	0xbdec3dc5	-0.11535219
238	0x3ec8f738	0.39251113
239	0x3e93f5e8	0.2889855
240	0xbe98a648	-0.29814363
241	0x3eaa03c7	0.33206007
242	0xbe37c03b	-0.17944424
243	0xbdb8b749	-0.09019334
244	0x3ea81539	0.32828692
245	0x3e8d6a48	0.2762015
246	0xbe316575	-0.17323859
247	0xbd994c0d	-0.07485209
248	0xbe4a3c1e	-0.19749495
249	0xbd9a8f56	-0.075468704
250	0xbe2e0f70	-0.16998076
251	0x3eab8be7	0.33505175
252	0x3de0554b	0.10953768
253	0xbdb9c1ff	-0.09070205
254	0x3d8a9fc5	0.06768755
255	0xbe54bc41	-0.20774938

fc1.bias f4 [128]
0	0xbeb0c8ba	-0.34528142
1	0x3eaa90fc	0.3331374
2	0xbe547640	-0.20748234
3	0x3d4a29d9	0.049356315
4	0xbdf90f58	-0.1216113
5	0xbd55cd11	-0.05219752
6	0xbe93d6d4	-0.28874838
7	0xbb911a16	-0.0044281585
8	0xbd8ec177	-0.06970494
9	0x3ea8a09f	0.32935044
10	0x3df2f387	0.118628554
11	0xbdb2d50f	-0.08732044
12	0xbe675c78	-0.22593868
13	0xbe206302	-0.15662768
14	0x3ede193b	0.43378624
15	0xbd42e95a	-0.047585823
16	0xbe8186b9	-0.25298098
17	0xbe914263	-0.28370962
18	0x3ecdb5f0	0.4017787
19	0xbecf5e33	-0.40501556
20	0x3ed26cda	0.41098672
21	0xbeb65bf1	-0.3561702
22	0x3c83eb63	0.016103452
23	0xbe1ec733	-0.15505676
24	0xbe14970d	-0.14510746
25	0x3ebb7a8a	0.36616927
26	0xbeb659f5	-0.35615507
27	0xbebefc24	-0.37301743
28	0xbeb288a6	-0.3486988
29	0xbd97c9ba	-0.07411523
30	0xbe1df127	-0.15424024
31	0xbe8dc9f1	-0.27693132
32	0x3ee30eb0	0.44347143
33	0xbec41246	-0.38295192
34	0x3ed78cc5	0.42099586
35	0xbe9682dd	-0.29396716
36	0xbdac2d10	-0.084070325
37	0x3da56f58	0.08077878
38	0xbd203400	-0.03911209
39	0xbeb7888c	-0.35846364
40	0xbe0fc94a	-0.1404163
41	0x3e93abe0	0.28842068
42	0x3dfdc23d	0.12390564
43	0x3e650083	0.22363476
44	0x3e9c7dbc	0.30564678
45	0x3e30862e	0.17238685
46	0xbd5bbed6	-0.053648792
47	0xbbf9fb6f	-0.00762885
48	0xbed10339	-0.4082277
49	0x3e7ef231	0.24897076
50	0xbd8ca064	-0.068665296
51	0x3eb8dbac	0.36105096
52	0x3ec0077b	0.37505707
53	0xbdd2815f	-0.10278582
54	0xbc15c39f	-0.009140878
55	0x3eb8550d	0.3600239
56	0xbce16afd	-0.027516836
57	0xbe8f4d68	-0.27988744
58	0x3e4f8eea	0.20269361
59	0x3cf107ab	0.029422602
60	0xbe885825	-0.2662975
61	0x3ebca7de	0.36846823
62	0xbecc3277	-0.39882252
63	0x3dda0811	0.1064607
64	0x3d3442df	0.044009086
65	0x3c581aac	0.013189953
66	0xbe5ed76e	-0.21761867
67	0xbe8dd977	-0.27704975
68	0x3e5065cd	0.20351334
69	0x3e82a2a5	0.25514713
70	0xbe1cfbcd	-0.1533043
71	0xbe872fde	-0.26403707
72	0x3eccfabb	0.40035042
73	0xbd9ad605	-0.07560352
74	0x3da4a791	0.08039773
75	0xbe6ddc81	-0.23228647
76	0xbe27a9f3	-0.16373424
77	0xbe60c0b8	-0.21948516
78	0xbec5194c	-0.38495862
79	0xbe0e448b	-0.13893335
80	0x3ed5ebce	0.41781467
81	0xbedcb8bf	-0.431097
82	0xbea48f55	-0.32140604
83	0xbdeadfde	-0.114684805
84	0xbeb61140	-0.35560036
85	0x3e2ee0cb	0.17077939
86	0xbec6c1f8	-0.3881986
87	0xbec065fe	-0.37577814
88	0x3c91c5b2	0.017794464
89	0xbed076d0	-0.40715647
90	0xbdf04efe	-0.117338166
91	0x3e63de90	0.2225287
92	0xbedd8f68	-0.43273473
93	0x3ecc7521	0.39933112
94	0x3ea1f68f	0.31633422
95	0x3ec342c8	0.38136888
96	0xbc3d7f68	-0.011566021
97	0xbe5be2b7	-0.21473204
98	0xbe8f9bdb	-0.28048596
99	0x3e685b4a	0.22691074
100	0xbcd2bf11	-0.025725873
101	0xbebb8136	-0.36622018
102	0x3eb17723	0.34661207
103	0x3ea09cdd	0.31369677
104	0xbe9595a6	-0.29215735
105	0xbee0bddb	-0.43894848
106	0x3ed06e3c	0.40709102
107	0x3eb5dbee	0.35519356
108	0xbe7d8e00	-0.247612
109	0xbec20fe0	-0.37902737
110	0xbd37b2db	-0.044848304
111	0xbcb14f59	-0.021644281
112	0x3e943e44	0.28953755
113	0xbd69dbbb	-0.057094317
114	0x3ed48276	0.41505784
115	0x3e7024f8	0.23451602
116	0xbec081ae	-0.37598938
117	0x3ead667c	0.33867252
118	0x3e1e10dd	0.1543612
119	0xbeb35771	-0.3502765
120	0x3e85e8c3	0.26154146
121	0x3daa480d	0.08314524
122	0xbd489da4	-0.048978463
123	0x3eb630e4	0.35584176
124	0xbed1d3ea	-0.4098199
125	0x3e7efa25	0.2490011
126	0x3e097ba4	0.13426071
127	0x3e8c23b9	0.27371004

fc2.weight f4 [128, 128]
0	0x3d7b38c2	0.061333425
1	0xbc09dfca	-0.008415172
2	0x3aca3cf2	0.001542954
3	0xbd70991c	-0.058739766
4	0x3d0647ca	0.032783307
5	0xbd996bf7	-0.07491296
6	0xbd1e3253	-0.03862221
7	0x3d1c9113	0.03822429
8	0xbca0024c	-0.019532345
9	0xbd839f51	-0.064268716
10	0xbd8ce43b	-0.06879469
11	0xbbec013c	-0.0072022956
12	0x3c14e123	0.00908688
13	0x3d266600	0.04062462
14	0x3d46caf5	0.0485334
15	0xbce77a82	-0.028256658
16	0x3c826623	0.015917843
17	0xbd38f7b4	-0.045158103
18	0xbd52fc38	-0.051510066
19	0xbc7db266	-0.015484428
20	0x3d8b84ee	0.06812464
21	0xbab80a32	-0.0014041124
22	0x3d04fd6c	0.032468244
23	0x3dadf880	0.08494663
24	0x3c660687	0.014039642
25	0x3c86308d	0.016380573
26	0x3c089f94	0.008338828
27	0x3d13e0c4	0.036103025
28	0x3d8f0781	0.06983853
29	0x3da03133	0.07821884
30	0x3d081409	0.033222232
31	0x3d6cf9ce	0.05785542
32	0x3d64e37a	0.055881
33	0x3c6ebdb7	0.014571599
34	0x3dacfe70	0.084469676
35	0xbd32c33a	-0.043643214
36	0xbd7de0ec	-0.06198208
37	0x3d84aab8	0.064778745
38	0xbcbf64ee	-0.023363557
39	0x3d9e85a2	0.07740332
40	0x3cd77a54	0.026303448
41	0x3c40f6b1	0.011777566
42	0x3da33cb7	0.07970565
43	0x3d2e6d54	0.042584732
44	0xbb77738a	-0.0037758076
45	0x3ce7b6b3	0.02828536
46	0xbd896d75	-0.067103304
47	0x3d2877dc	0.04112993
48	0xbd0bbb14	-0.03411396
49	0x3c8d8405	0.017274866
50	0xbb431003	-0.0029764182
51	0x3d70889c	0.05872403
52	0x3cc8c918	0.024509951
53	0x3d11d0b5	0.03559943
54	0x3d9e6030	0.0773319
55	0xbd1957e3	-0.03743733
56	0x3d7b8461	0.061405543
57	0xbbe79145	-0.007066878
58	0x3d8279f0	0.06370914
59	0xbd709086	-0.05873158
60	0xbcf7fc5a	-0.030271698
61	0xbd0ee42e	-0.034885578
62	0xbd63150f	-0.055440005
63	0x3d95c11b	0.073122226
64	0xbbe9a547	-0.0071302983
65	0xbd3869bf	-0.045022722
66	0xbd69a8d0	-0.057045758
67	0xbd88eb7d	-0.06685541
68	0x3c398567	0.0113233095
69	0xbd443e0d	-0.04791074
70	0xbca40b34	-0.020024873
71	0x3d9a3795	0.07530133
72	0xbcf8329e	-0.030297574
73	0xbdb199d1	-0.08671916
74	0xbc21b5f7	-0.009870044
75	0x3d01b9bf	0.031671282
76	0xbda4d0f8	-0.0804767
77	0x3d895afd	0.06706808
78	0xbd8915b1	-0.066935904
79	0x3c393832	0.011304902
80	0xbc602891	-0.013681547
81	0x3c8c441e	0.017122325
82	0xbda36ffe	-0.07980345
83	0xbce35fe2	-0.027755681
84	0xbc85bb20	-0.01632458
85	0xbda04725	-0.0782607
86	0xbdb0afb3	-0.08627262
87	0x3d879dbb	0.066218816
88	0xbc7f52fc	-0.01558375
89	0x3d3ae434	0.045627788
90	0xbccc5c73	-0.024946427
91	0x3c9ad880	0.018902063
92	0x3bdbdbb8	0.006709542
93	0xbda5e382	-0.08100034
94	0x3cc09a83	0.023511177
95	0xbda1eee3	-0.07906892
96	0x3db45deb	0.08806976
97	0xbdb375fe	-0.087627396
98	0xbd8a963d	-0.06766937
99	0xbda5935e	-0.08084749
100	0x3cd8cbfe	0.026464459
101	0xbc98a079	-0.018631207
102	0xbc88cb1c	-0.016698413
103	0x3c973786	0.018459093
104	0xbd9c7f8f	-0.07641517
105	0x3d5f2b88	0.054484874
106	0x3d699cfb	0.057034474
107	0xbd92d9c2	-0.0717044
108	0xbce8ba57	-0.028409166
109	0x3d444e0f	0.047926005
110	0x3c504eb9	0.012714081
111	0xbd64c14e	-0.055848412
112	0xbd20c7d6	-0.03925308
113	0x3d338cef	0.043835577
114	0x3d109ce5	0.035305876
115	0x3d822c60	0.0635612
116	0xbda9f2b8	-0.08298248
117	0xbc29eb9b	-0.010371114
118	0xbd8a757f	-0.06760692
119	0x3d7d4c85	0.061840553
120	0xbd5558b0	-0.052086532
121	0xbd1e3c89	-0.03863195
122	0x3db2283a	0.08699079
123	0x3d14c1be	0.03631758
124	0xbd07b0b4	-0.0331275
125	0x3c218611	0.009858624
126	0x3daacb76	0.08339588
127	0xbbf4ffee	-0.0074767983
128	0x3ca47ee2	0.020080034
129	0x3daa3384	0.08310607
130	0xbd15d9ea	-0.036584772
131	0xbc26b0e1	-0.010174007
132	0xbd81839e	-0.06323932
133	0xbdad0d1f	-0.08449768
134	0x3c3861c3	0.011253777
135	0x3d951f2b	0.072813354
136	0x3babeb36	0.005246545
137	0xbd499770	-0.049216688
138	0x3c7c3a84	0.015394811
139	0xbd8b1b47	-0.06792312
140	0x3d7021cc	0.05862598
141	0xbdaf5d74	-0.08562747
142	0xbca0f52b	-0.019648155
143	0x3db2e294	0.087346226
144	0xbc310881	-0.01080525
145	0xbd8b98f9	-0.068162866
146	0x3da69e24	0.08135632
147	0x39a839a1	0.00032086394
148	0x3c4c9d25	0.012488638
149	0xbce11cd9	-0.027479576
150	0xbda9008a	-0.08252056
151	0xbc0e709d	-0.008693841
152	0x3d1b7450	0.03795272
153	0x3db36169	0.08758814
154	0xbdad8082	-0.084717765
155	0x3d5f0ac9	0.054453645
156	0x3d5f6de6	0.054548167
157	0xbd1e3571	-0.038625184
158	0x3d26be17	0.040708628
159	0xbd83a7f4	-0.06428519
160	0x3d41d95c	0.04732643
161	0x3d3db448	0.046314508
162	0x3d2a7617	0.041616526
163	0xbd081d26	-0.033230923
164	0x3d9d5e48	0.07683998
165	0xbd8a0ee4	-0.067411214
166	0xbc8268ad	-0.015919054
167	0x3d8211a8	0.06351024
168	0xbd30a22d	-0.043123413
169	0x3b26f6a9	0.002547661
170	0x3d14d88c	0.036339328
171	0x3bd7b143	0.0065824105
172	0x3d112fe3	0.03544606
173	0x3d93eced	0.072229244
174	0x3d28faa9	0.041254673
175	0xbb52ff88	-0.0032195766
176	0x3cff9bd1	0.031202229
177	0x3d5434c8	0.05180815
178	0xbb876b69	-0.0041326773
179	0xbc8335ce	-0.016016867
180	0xbd88c1fe	-0.06677626
181	0x3d8cde68	0.06878358
182	0xbdb4b920	-0.08824372
183	0x3d4a2b33	0.049357604
184	0x3dac4892	0.08412279
185	0xbc97ec27	-0.018545223
186	0xbda249cf	-0.07924234
187	0xbdac5426	-0.084144875
188	0xbd53ad29	-0.05167881
189	0xbdabd173	-0.08389559
190	0x3d1af31f	0.037829515
191	0xbd454dc1	-0.048169855
192	0x3d93635e	0.07196687
193	0xbd9e851d	-0.07740233
194	0xbd8cc4c2	-0.06873466
195	0xbb8ac0b7	-0.004234399
196	0x3d2a6253	0.041597676
197	0x3d69c97f	0.057076927
198	0x3d99b173	0.07504549
199	0x3cb1f0f2	0.021721337
200	0xbd19e685	-0.037573356
201	0xbd7a1882	-0.06105853
202	0x3d78443f	0.06061196
203	0x3dafb9c9	0.085803576
204	0xbd771346	-0.060321115
205	0x3d3f0549	0.0466359
206	0xbcdbd958	-0.026837036
207	0xba37bedd	-0.0007009337
208	0x3d9e7b84	0.077384025
209	0xbd4d3c90	-0.050106585
210	0xbd76cd26	-0.06025424
211	0x3a6f2603	0.00091227907
212	0x3d3009ac	0.042977974
213	0xbd84653b	-0.06464621
214	0xbd65c896	-0.056099497
215	0xbd8714ee	-0.06595789
216	0x3d925b53	0.07146325
217	0xbd5cc51f	-0.053898927
218	0xbc65ac0f	-0.014018073
219	0xbdab7bff	-0.0837326
220	0xbdaeb5cf	-0.08530771
221	0x3d1db9a7	0.03850713
222	0xbd4e6f21	-0.05039895
223	0x3d6758c7	0.05648115
224	0x3c502f7a	0.012706632
225	0x3bf13e87	0.00736219
226	0xbc806c55	-0.015676657
227	0xbcc0d4c2	-0.02353895
228	0xbcf5f5ea	-0.030024488
229	0xbd25d333	-0.04048462
230	0x3d02c248	0.031923562
231	0x3d875db8	0.06609672
232	0xbd968e78	-0.073513925
233	0xbd663bd3	-0.056209397
234	0xba674777	-0.00088226
235	0xba8d9fd7	-0.0010805082
236	0x3c69ba67	0.014265633
237	0xba390d53	-0.00070591754
238	0xbb155a53	-0.0022789433
239	0x3d076bff	0.033061977
240	0xbdb3fd67	-0.08788567
241	0x3d81ba3e	0.06334351
242	0x3caf569b	0.021403601
243	0xbcf09374	-0.029367186
244	0x3c712fae	0.01472084
245	0xbd7b2349	-0.061312947
246	0x3cdadbf0	0.026716202
247	0x3c8e083f	0.017337916
248	0xbd7bf080	-0.061508656
249	0xbd8c7ed8	-0.06860131
250	0x3da81066	0.08206253
251	0xbd9bde2e	-0.07610737
252	0xbbb7608e	-0.005596227
253	0x3ce7dc06	0.028303158
254	0x3d9f8311	0.07788671
255	0xbd5d4c58	-0.054027885

fc2.bias f4 [128]
0	0x3cfb4c01	0.03067589
1	0xbd11d5b1	-0.035604183
2	0x3d870bc2	0.065940395
3	0xbc24633b	-0.010033424
4	0xbd1824af	-0.03714436
5	0xbdbf3c53	-0.09337678
6	0xbda4e92b	-0.08052286
7	0xbc853160	-0.016258895
8	0x3d30c065	0.04315223
9	0xbd8f071f	-0.0698378
10	0x3da22821	0.0791781
11	0xbd813bb2	-0.06310214
12	0xbd944c1e	-0.07241081
13	0x3d099f3e	0.03359913
14	0x3c55fcf9	0.013060802
15	0x3c9c7f96	0.019103806
16	0x3d6a366f	0.05718082
17	0x3be9ba60	0.0071328133
18	0xbdaebdef	-0.08532321
19	0x3d803a9c	0.06261179
20	0xbcdbae59	-0.026816534
21	0x3dc15004	0.0943909
22	0xbd3a3741	-0.04546285
23	0x3d20956c	0.039205
24	0x3c8a1346	0.016854893
25	0x3cf6b4fc	0.030115597
26	0x3d2f2c2f	0.042766746
27	0x3d4c71aa	0.049913086
28	0xbdb71ccf	-0.08941042
29	0xbd925ecb	-0.071469866
30	0xbc34e869	-0.011041739
31	0xbd95f97a	-0.073229745
32	0x3d0b5065	0.034012217
33	0x3d57a2db	0.052645545
34	0x3c863abb	0.016385427
35	0x3d424560	0.047429442
36	0x3c1216d8	0.008916579
37	0xbd665ad1	-0.056238953
38	0x3da2cc43	0.07949116
39	0xbd0e4468	-0.034733206
40	0xbd6d31c1	-0.057908777
41	0x3c2cd7b1	0.010549472
42	0xbda6ecdb	-0.08150645
43	0x3c61458d	0.013749492
44	0x3cfba226	0.030716967
45	0xbb1de44f	-0.0024092381
46	0xbd44ab78	-0.048015088
47	0xbd2d2246	-0.042269014
48	0x3db279db	0.08714648
49	0xbcbc8b12	-0.023015533
50	0xbcc9db84	-0.024640806
51	0xbd858cd9	-0.06521005
52	0x3d593b02	0.05303479
53	0x3d8e62ad	0.06952415
54	0xbc1bd60b	-0.009511481
55	0xbd1cd82a	-0.038292088
56	0xb93aa575	-0.0001779998
57	0x3d7d96a3	0.061911236
58	0xbd97087a	-0.07374664
59	0xbc595815	-0.013265629
60	0x3c20e92f	0.00982122
61	0xbd9e28df	-0.07722639
62	0x3c924bec	0.017858468
63	0xbd0bf3ae	-0.034167938
64	0x3d40fdbf	0.04711699
65	0xbd998914	-0.07496849
66	0x3d65be35	0.0560896
67	0xbd3296cc	-0.043600842
68	0x3c8d5e60	0.017256916
69	0xbda2038b	-0.07910832
70	0x3d89802a	0.067138985
71	0x3cc50f4d	0.024055148
72	0x3d8eb617	0.06968325
73	0x3d83f8d7	0.06443947
74	0xbaa0eb0c	-0.0012277081
75	0xbb17dc5d	-0.0023172118
76	0x3da32bef	0.07967364
77	0x3d336deb	0.043805998
78	0x3ccfcf38	0.025367364
79	0x3da138e1	0.07872177
80	0x3c223ff6	0.009902945
81	0x3d01babd	0.031672228
82	0xb9aeebac	-0.00033363455
83	0xbd7aa703	-0.06119443
84	0x3d7b15b8	0.06130001
85	0x3d510178	0.05102679
86	0xbc00acc2	-0.007853689
87	0x3c95201c	0.018203788
88	0x3da5e271	0.08099831
89	0x3c8787ad	0.016544187
90	0x3d4abcc6	0.049496435
91	0x3d11cab5	0.035593707
92	0xbd90a27d	-0.07062242
93	0xbcb17610	-0.021662742
94	0xbda99fe3	-0.08282449
95	0x3db41399	0.087928005
96	0x3c43147b	0.011906738
97	0xbcf67f7d	-0.030090088
98	0xbd6d7b7e	-0.0579791
99	0xbd8da193	-0.069155835
100	0x3d78b0b3	0.06071539
101	0xbd92baa4	-0.07164505
102	0xbbc764cb	-0.0060850135
103	0x3dbde9e4	0.09273127
104	0xbd037e68	-0.032102972
105	0xbd59e3dd	-0.053195823
106	0x3d81487e	0.06312655
107	0xbd1ae01b	-0.03781138
108	0x3d23ca5e	0.039987914
109	0xbda68957	-0.08131664
110	0xbd7fb1b1	-0.06242532
111	0xbdabb2b7	-0.083836965
112	0x3d814513	0.06312003
113	0x3c036684	0.008020047
114	0xbce0d08c	-0.027443193
115	0xbd8ca54b	-0.06867465
116	0x3d6002ae	0.054690056
117	0x3d83a4a0	0.06427884
118	0x3ce9a97f	0.028523205
119	0xbd5f0ce5	-0.054455657
120	0x3d44310a	0.04789833
121	0x3c871f76	0.016494494
122	0x3db0ad51	0.086268075
123	0x3ce30f04	0.027717121
124	0x3d972818	0.07380694
125	0xbcfa3e52	-0.030547295
126	0x3c838592	0.016054902
127	0x3da4715e	0.080294356

fc3.weight f4 [2, 128]
0	0x3d4fb5f1	0.050710622
1	0xbda55e51	-0.0807463
2	0x3cb7b756	0.022426289
3	0xbd8ee7a8	-0.06977779
4	0x3d5d12da	0.053973056
5	0x3d958ea0	0.07302594
6	0xbc96e60a	-0.018420238
7	0xbdab3dd4	-0.08361402
8	0xbc58ea56	-0.013239464
9	0xbd9107a0	-0.070815325
10	0xbce86251	-0.028367193
11	0xbd94967c	-0.07255265
12	0x3d1c15a7	0.038106587
13	0x3d82f942	0.063951984
14	0xbd85bf07	-0.06530576
15	0x3d183fd3	0.037170243
16	0xbec8485d	-0.3911771
17	0x3ca02e0f	0.019553212
18	0x3d070754	0.032965973
19	0x3d000b64	0.031260863
20	0x3d305081	0.043045525
21	0xbd802e26	-0.06258802
22	0x37c7b7fe	2.3808327e-05
23	0xb969d928	-0.00022301509
24	0x3abb4aca	0.0014289257
25	0x3ce8cdcb	0.028418442
26	0x3cf802ad	0.030274713
27	0x3c27e5a8	0.010247625
28	0x3c83047f	0.015993355
29	0xbd96f335	-0.07370607
30	0xbd94052f	-0.07227551
31	0xbd14f293	-0.03636415
32	0xbd6a6616	-0.057226263
33	0x3d3b8ce5	0.045788664
34	0x3d289a93	0.04116304
35	0x3d8f5923	0.06999423
36	0xbe218164	-0.15772015
37	0x3b71a83e	0.0036873962
38	0xbccc69e7	-0.024952842
39	0xbda32162	-0.07965352
40	0xbdbd2267	-0.09235077
41	0x3d34e896	0.044167124
42	0xbda8843a	-0.08228345
43	0x3d28d496	0.041218363
44	0xbd53ec86	-0.05173924
45	0xbca79df5	-0.020461062
46	0x3d359124	0.04432787
47	0x3cff475c	0.031161956
48	0x3d80826e	0.062748775
49	0xbda39213	-0.07986846
50	0x3d9286ad	0.071545936
51	0x3d80b841	0.06285144
52	0xbdc4f2f3	-0.096166514
53	0x3d99fb06	0.07518582
54	0xbe53882d	-0.20657416
55	0xbcaa6d59	-0.020804094
56	0xbd8db372	-0.06918992
57	0x3bf3ab57	0.007436197
58	0x3d3e24c7	0.046421792
59	0xbd82ba74	-0.06383219
60	0xbdafb8a8	-0.08580142
61	0x3d04be42	0.032408006
62	0xbd2b111b	-0.04176436
63	0xbd303666	-0.04302063
64	0xbd406b5b	-0.046977382
65	0xbae339a3	-0.0017335903
66	0xbda2ccf0	-0.07949245
67	0xbdbccb5f	-0.092184775
68	0xbdad8673	-0.0847291
69	0x3d5f79fd	0.054559696
70	0x3cd22a9b	0.025655081
71	0x3d5ba5ca	0.053624906
72	0x3d447a93	0.04796846
73	0xbdbc156c	-0.091837734
74	0x3d80c496	0.06287496
75	0x3d1c9448	0.03822735
76	0x3d57172c	0.052512333
77	0xbd0df895	-0.034660894
78	0x3d278dce	0.04090672
79	0xbd6b9efe	-0.057524674
80	0xbd3bafda	-0.045822002
81	0xbb4406ea	-0.0029911348
82	0xbdd0c8c4	-0.10194543
83	0x3d26c512	0.040715285
84	0xbd03dade	-0.03219115
85	0x3d792f9d	0.060836423
86	0x3d44aa59	0.04801402
87	0x3dab94aa	0.08377965
88	0xbb12f624	-0.0022424543
89	0xbcb71101	-0.022346975
90	0xbd98d8be	-0.07463215
91	0xbdecccb3	-0.11562481
92	0x3c04bd4e	0.008101774
93	0x3d5b1147	0.053483274
94	0x3d2cc705	0.042181987
95	0xbd6f0de6	-0.058362864
96	0xbe48f1fe	-0.19623563
97	0xbd40b8f6	-0.047051392
98	0xbc83cf6d	-0.01609012
99	0x3d9091c8	0.070590556
100	0x3d000924	0.031258717
101	0xbd90e85c	-0.07075569
102	0x3d19aca8	0.037518173
103	0xbd8e244c	-0.06940517
104	0xbd40e5f5	-0.047094304
105	0x3d7ffce0	0.06249702
106	0xbd7c52fc	-0.061602578
107	0xbc751aac	-0.014959972
108	0x3c156a48	0.009119578
109	0x3d03aa82	0.03214503
110	0x3bae2a3f	0.0053150947
111	0x3cde798e	0.027157571
112	0x3cf4628d	0.029832149
113	0xbcba5e17	-0.022749944
114	0x3d350eab	0.04420344
115	0xbc5c5d42	-0.013449969
116	0xbd8a6c9a	-0.06758995
117	0x3db22c40	0.08699846
118	0xbd173f30	-0.036925495
119	0xbccadfc1	-0.024764897
120	0xbdb95252	-0.090489045
121	0xbcfc90dc	-0.030830793
122	0xbc916169	-0.017746644
123	0x3ccb3c22	0.024808947
124	0x3d88fc01	0.06688691
125	0xbd0217a0	-0.03176081
126	0x3d24e420	0.04025662
127	0xbd6917ad	-0.056907345
128	0xbce4274d	-0.027850771
129	0x3d73eb38	0.059550494
130	0x3cef05e9	0.029177623
131	0x3b4d669d	0.003134168
132	0xbd8f6e09	-0.070034094
133	0xbd8764dc	-0.06611034
134	0x3cbf0683	0.023318535
135	0x3c9951c0	0.01871574
136	0xbd6a3acc	-0.05718498
137	0x3d541660	0.05177915
138	0xbd685490	-0.05672127
139	0xbd8b1e1e	-0.06792854
140	0xbd04bf25	-0.032408852
141	0x3cacb796	0.021083634
142	0x3d973cad	0.0738462
143	0x3db0ecdb	0.086389266
144	0xbeb0204c	-0.3439964
145	0xbd5277f5	-0.05138393
146	0xbda8c820	-0.08241296
147	0xbda132dd	-0.078710295
148	0x3b2d089c	0.0026402837
149	0xbdeade31	-0.11468161
150	0xbd51baa6	-0.051203392
151	0xbd9182c1	-0.071050175
152	0x3c83f7b5	0.016109327
153	0x3da11021	0.078644045
154	0x3d888e5c	0.06667778
155	0xbd034b4f	-0.03205424
156	0x3b094ba1	0.002094962
157	0x3ce140ab	0.027496656
158	0xbc46f47a	-0.012143249
159	0xbd8fbf6d	-0.070189334
160	0x3d87f41a	0.066383556
161	0xbd9b3904	-0.07579234
162	0x3d113ab8	0.03545639
163	0xbcf5b034	-0.029991247
164	0xbe275142	-0.16339591
165	0xbc982dc3	-0.018576508
166	0xbce32c6f	-0.027731149
167	0x3d995d51	0.07488502
168	0xbdd9121e	-0.10599159
169	0x3c00c06e	0.007858379
170	0xbdac8478	-0.08423704
171	0x3d9f682c	0.07783541
172	0xbdb9e387	-0.090766005
173	0xbc21b106	-0.009868866
174	0xbdc5cf9c	-0.09658739
175	0x3d2b9c71	0.04189724
176	0x3d81f13c	0.0634484
177	0xbd0b991c	-0.034081563
178	0xbd2706fa	-0.040778138
179	0xbd10cadc	-0.03534971
180	0x3d0b139b	0.033954244
181	0xbda787b3	-0.081801794
182	0xbe484b2a	-0.19559923
183	0xbc6c3639	-0.014417225
184	0xbd9b31f4	-0.07577887
185	0xbdaa3987	-0.08311754
186	0x3d679470	0.056538045
187	0xbd4c1955	-0.049828846
188	0xbd1daa48	-0.03849247
189	0x3ce02020	0.027359068
190	0xbdfdf0a4	-0.12399414
191	0xbd7b91b8	-0.061418265
192	0xbd9f6607	-0.07783132
193	0x3d5c202d	0.053741623
194	0xbd57ce8d	-0.052687217
195	0xbc863ae9	-0.016385512
196	0x3d2abc81	0.041683678
197	0xbda98948	-0.082781374
198	0xbc2b983a	-0.010473305
199	0xbd888852	-0.06666626
200	0x3d076101	0.033051495
201	0xbdac2ca7	-0.08406954
202	0x3cd5e410	0.026109725
203	0x3d833eec	0.06408486
204	0x3d8e08d9	0.06935281
205	0x3c9c73b8	0.019098148
206	0xbdb434b6	-0.08799116
207	0xba37abc6	-0.0007006492
208	0xbdaf9e16	-0.085750744
209	0xbcb9a716	-0.02266268
210	0xbda5cd6c	-0.08095822
211	0x3d179a02	0.037012108
212	0x3d98b140	0.07455683
213	0x3c7d2603	0.015450957
214	0xbdd48884	-0.10377601
215	0x3d8849fc	0.066547364
216	0xbc888aae	-0.01666769
217	0x3d4e9865	0.050438304
218	0xbda020cc	-0.078187555
219	0xbe895c76	-0.26828355
220	0xbd86c66d	-0.065808155
221	0x3a8f9c40	0.00109566
222	0x3cc4502d	0.023964012
223	0xbdfe77e3	-0.1242521
224	0xbe0c5fad	-0.13708372
225	0x3ce32ea0	0.027732193
226	0x3d6e6978	0.05820605
227	0xbd30c16d	-0.043153215
228	0x3d848c34	0.06472054
229	0x3d48aed1	0.048994843
230	0xba4de33f	-0.00078539917
231	0xbda26813	-0.07930007
232	0xbc3e013d	-0.011596975
233	0x3d85ca3c	0.06532714
234	0xbc651b4d	-0.01398356
235	0x3cbf9b95	0.023389617
236	0xbd9710d9	-0.0737626
237	0xbd22ac85	-0.03971531
238	0x3c893339	0.016748058
239	0x3c4bbaee	0.012434704
240	0xbda26808	-0.07929999
241	0xbd4479ac	-0.047967598
242	0x39f4070a	0.0004654455
243	0x3d6513ae	0.05592697
244	0xbb4948be	-0.0030713524
245	0x3d0555d5	0.03255256
246	0xbc6069e1	-0.0136971185
247	0x3ca7a830	0.02046594
248	0xbd0d568a	-0.03450636
249	0x3d043dfb	0.03228567
250	0xbdd82bd2	-0.10555233
251	0xbc382cf4	-0.011241186
252	0xbd06d2b0	-0.03291577
253	0xbdc74f7d	-0.09731958
254	0xbb6f59c5	-0.0036522013
255	0xbd8c76e6	-0.068586156

fc3.bias f4 [2]
0	0xbd19d8fe	-0.037560456
1	0x3ce07dcb	0.027403733

fc1.weight f4 [128, 84]
0	0xbdb69ea2	-0.089169756
1	0xbd8cf0fb	-0.06881901
2	0x3c5dfd49	0.013549157
3	0x3d067fb4	0.03283663
4	0x3d9de560	0.077097654
5	0x3d1b70f2	0.03794951
6	0xbce7366e	-0.028224196
7	0xbd6b75bb	-0.057485323
8	0xbd92cd37	-0.07168048
9	0xbc374652	-0.011186199
10	0xbdc71c51	-0.09722198
11	0xbc99e38f	-0.018785266
12	0xbda773d4	-0.08176389
13	0xbdcc39db	-0.099719726
14	0x3d1089f4	0.035287812
15	0xbafd0fa8	-0.0019307034
16	0xbdc310f5	-0.09524719
17	0x3dd54a94	0.10414615
18	0xbc2050e5	-0.009784912
19	0xbd9761a3	-0.073916696
20	0xbc14996f	-0.009069785
21	0xbda69f8b	-0.08135899
22	0xbdb55eae	-0.08855949
23	0xbc1c5033	-0.009540605
24	0xbd913163	-0.07089498
25	0x3d2250cb	0.03962783
26	0xbd2f3fa6	-0.04278531
27	0xbd3f5e26	-0.046720646
28	0xbdc0d5b5	-0.094157614
29	0x3bafcfa9	0.005365331
30	0x3da81cbe	0.08208607
31	0xbd40a3c5	-0.047031183
32	0xbd7b76bb	-0.061392527
33	0xbcd6d3d9	-0.026224064
34	0x3d9ac3f3	0.075569056
35	0xbd8a9381	-0.067664154
36	0xbdb1c645	-0.08680395
37	0xbcc68f67	-0.024238301
38	0x3cff1c78	0.031141505
39	0xbd687520	-0.056752324
40	0xbd96d3b8	-0.07364601
41	0x3dc26e56	0.09493701
42	0xbd7f96ee	-0.062399797
43	0xbceb8a0d	-0.028752351
44	0x3be14907	0.0068751606
45	0xbdb56a57	-0.08858173
46	0x3d2aaed5	0.04167064
47	0xbdb073cd	-0.08615837
48	0xbc259a8e	-0.0101076495
49	0xbdd7f821	-0.10545374
50	0x3db23bbf	0.08702802
51	0x3dce33c3	0.100684665
52	0x3d92e651	0.071728356
53	0x3d838378	0.0642156
54	0xbddd40cf	-0.10803377
55	0xbd32756b	-0.04356901
56	0x3d10aff0	0.035324037
57	0x3d2bcebb	0.0419452
58	0x3d7735a8	0.060353905
59	0x3c4c60be	0.012474237
60	0xbca0bf42	-0.019622449
61	0xbd0d689a	-0.034523584
62	0x3dd72c13	0.10506453
63	0xbd6db583	-0.05803443
64	0x3b2d41a9	0.0026436842
65	0xbd9d1b76	-0.076712534
66	0xbd911a5e	-0.07085107
67	0xbd227eb0	-0.0396716
68	0x3db0bcb1	0.0862974
69	0xbdc279a6	-0.09495859
70	0x3cb7022f	0.022339908
71	0x3ce3f003	0.027824407
72	0xbd9119ad	-0.070849754
73	0x3d9bcae6	0.07607059
74	0x3dd94046	0.10607962
75	0xbdd8a8ff	-0.105791084
76	0x3bf4e32a	0.007473369
77	0xbc24811c	-0.010040548
78	0x3b4256a0	0.0029653683
79	0x3cc0a972	0.023518298
80	0xbd208958	-0.03919348
81	0x3da7ef5e	0.081999525
82	0x3c655e2e	0.013999505
83	0x3d55b9f3	0.052179288
84	0xbe30d804	-0.17269903
85	0xbe2ef757	-0.1708654
86	0x3c8c750c	0.017145656
87	0xbe1b17c6	-0.15145788
88	0xbd68cfcb	-0.05683879
89	0xbeecc684	-0.46245205
90	0xbd812050	-0.06304991
91	0xbe3f6612	-0.1869128
92	0x3dd53bf3	0.10411825
93	0x3d735fbb	0.059417468
94	0xbf5e1ece	-0.86765754
95	0xbe0bfac5	-0.1366988
96	0x3dd968d9	0.10615701
97	0x3ed6be21	0.41941932
98	0x3e69b672	0.22823504
99	0x3d89e1a5	0.067324914
100	0xbcceb95d	-0.025234872
101	0x3abcf7a2	0.0014417062
102	0xbe2d59a5	-0.16928728
103	0x3e53f68e	0.20699522
104	0x3cf8da17	0.03037743
105	0xbe3e4a6a	-0.18583074
106	0x3c85141a	0.016244937
107	0xbe742bbe	-0.23844811
108	0x3e5627e2	0.20913652
109	0x3eceabf6	0.4036557
110	0xbdbaa04c	-0.091126055
111	0x3d88abcb	0.06673392
112	0x3d69c890	0.057076037
113	0x3df7e777	0.12104695
114	0xbd3116b1	-0.04323453
115	0x3e2dfb13	0.16990308
116	0xbe86d323	-0.2633296
117	0x3e1f6bf4	0.15568525
118	0x3e4c52d6	0.19953474
119	0xbeb93e6e	-0.36180443
120	0x3defd24f	0.11710035
121	0x3e33aa64	0.17545468
122	0x3e153b53	0.14573412
123	0x3dbb9eba	0.09161134
124	0xbf516cde	-0.81806743
125	0x3e02ed3b	0.12785809
126	0xbd66d7a8	-0.05635801
127	0x3e9be979	0.30451563
128	0x3c36e94e	0.011164023
129	0x3e94c866	0.29059142
130	0xbe84c9e8	-0.25935292
131	0x3e5f93e3	0.21833758
132	0xbe617215	-0.22016175
133	0xbddd43fe	-0.10803984
134	0xbed8c2f0	-0.42336226
135	0xbef341d0	-0.47511148
136	0x3aa2a57d	0.0012408938
137	0xbdcfbb37	-0.1014313
138	0xbccfd843	-0.025371676
139	0x3d96a2ab	0.07355245
140	0xbefac5a4	-0.48978913
141	0x3e83b7c6	0.25726146
142	0xbe71cf8a	-0.23614326
143	0x3dca78c5	0.09886316
144	0xbdabceac	-0.08389029
145	0xbd8ae561	-0.06782032
146	0x3cb45328	0.022012308
147	0xbe7e0893	-0.24807958
148	0x3dbc56c3	0.09196236
149	0xbd9eb7e1	-0.07749916
150	0x3e04bdb4	0.12962991
151	0xbde0a1c4	-0.10968354
152	0xbd5f2b18	-0.054484457
153	0xbd4ec836	-0.050483905
154	0x3d56545a	0.052326538
155	0xbcefbbbd	-0.029264325
156	0x3d6bf0d1	0.057602707
157	0xbe1a78e1	-0.15085174
158	0xbd55d2db	-0.05220304
159	0x3e33e5de	0.17568156
160	0x3d32bd5e	0.043637626
161	0xbe8ea20c	-0.27858007
162	0x3d89a91b	0.067217074
163	0xbd41c8e9	-0.047310743
164	0xbddae3cc	-0.1068798
165	0x3cd94431	0.026521774
166	0x3e9e1839	0.30877855
167	0x3d374f78	0.04475352
168	0xbe8b7d3b	-0.2724398
169	0x3d7a10df	0.061051246
170	0xbe04f324	-0.12983376
171	0x3dafa9f4	0.08577338
172	0xbd272887	-0.040810134
173	0xbe87fc82	-0.26559836
174	0x3da32cc9	0.079675265
175	0xbe140503	-0.14455037
176	0xbc1d745c	-0.009610262
177	0x3dda7e32	0.10668601
178	0xbbe638a6	-0.007025796
179	0xbd8baa7f	-0.06819629
180	0xbd82716f	-0.06369292
181	0xbe1ee39f	-0.15516518
182	0x3ced931e	0.029000815
183	0xbc124ee5	-0.008929943
184	0x3b1cd0a0	0.002392806
185	0xbda4ca5b	-0.08046409
186	0xbc2c52a4	-0.01051775
187	0xbcf5aedd	-0.029990608
188	0xbd931225	-0.07181195
189	0xbd740b36	-0.059581004
190	0x3d9b11f0	0.07571781
191	0xbda7babd	-0.081899144
192	0xbd712bde	-0.058879726
193	0xbd8fd00e	-0.07022105
194	0xbbd6e575	-0.006558115
195	0xbd713f33	-0.058898162
196	0x3d9339de	0.07188772
197	0xbd3373db	-0.04381166
198	0xbd3c83a3	-0.046023976
199	0x3b345c10	0.0027520694
200	0xbda0e517	-0.078561954
201	0xb93ef5ff	-0.00018211453
202	0x3c76019b	0.015015031
203	0xbe28e3ee	-0.16493198
204	0xbc926434	-0.017870046
205	0xbe35cde7	-0.17754327
206	0x3cfa50cf	0.03055611
207	0x3dbdae7b	0.09261795
208	0xbdd03459	-0.101662345
209	0xbd4764c2	-0.048680075
210	0x3cece025	0.028915474
211	0x3dcb7499	0.099343486
212	0x3ce9f698	0.028559968
213	0xbd6b261e	-0.0574094
214	0x3d90fd36	0.07079546
215	0xbd97dab4	-0.07414761
216	0xbc53138b	-0.012883077
217	0x3c339f34	0.01096325
218	0x3da1b141	0.078951366
219	0x3cd95285	0.026528606
220	0x3d780b82	0.06055785
221	0x3d2a2d58	0.04154715
222	0xbc76df1f	-0.015067845
223	0xbdc4b80c	-0.09605417
224	0xbd6fec80	-0.058575153
225	0xbdf3cc61	-0.119042166
226	0x3d8a00aa	0.06738408
227	0xbca506e7	-0.020144893
228	0xbcf9d680	-0.03049779
229	0x3df34a87	0.11879449
230	0xbd32a195	-0.043611128
231	0x3e5484a4	0.20753723
232	0xbcd6b26b	-0.026208123
233	0x3de2d130	0.110750556
234	0x3d9e0108	0.077150404
235	0xbdb07cea	-0.086175755
236	0xbdf375cd	-0.11887703
237	0xbe12f60c	-0.14351672
238	0x3d5a7680	0.053335667
239	0xbe0a6f04	-0.13518912
240	0xbabe4c90	-0.0014518667
241	0xbddc454d	-0.107554056
242	0xbd9af2fe	-0.07565878
243	0x3d70213e	0.058625452
244	0x3d5cf020	0.05393994
245	0x3e293b67	0.16526566
246	0x3d8acec4	0.06777719
247	0x3d3eb840	0.046562433
248	0x3e81f5c8	0.2538283
249	0x3db5a5fb	0.08869549
250	0xbdc50793	-0.09620585
251	0x3d32f16b	0.043687265
252	0xbe11bf90	-0.14233232
253	0x3e750c05	0.23930366
254	0xbdf7ddec	-0.12102875
255	0x3ce5c78a	0.02804925

fc1.bias f4 [128]
0	0xbdd4e1b7	-0.10394614
1	0xbde0866c	-0.10963139
2	0xbe05e2ff	-0.13074873
3	0x3da28acb	0.07936629
4	0xbdd999c5	-0.10625032
5	0x3d9facea	0.077966526
6	0xbd7beb0b	-0.06150345
7	0xbde2ff04	-0.110837966
8	0x3d0d147b	0.03444336
9	0x3ca2ae62	0.019858543
10	0xbe00d254	-0.12580234
11	0xbdc96ea3	-0.098355554
12	0xbb9ab3ca	-0.0047211396
13	0xbd8e88b0	-0.06959665
14	0xbddbacb2	-0.107262984
15	0xbd7f0ca9	-0.062267933
16	0xbdcf5f27	-0.10125571
17	0x3e6fd62c	0.23421544
18	0x3bfa4398	0.0076374523
19	0xbd9ac5de	-0.075572714
20	0x3dc7075d	0.09718201
21	0x3d5ce89b	0.053932767
22	0xbdee01ea	-0.11621459
23	0x3dc521a6	0.096255586
24	0xbc8b3602	-0.016993526
25	0xbcc046a3	-0.023471182
26	0x3cfd9de1	0.030959072
27	0xbd8efeae	-0.0698217
28	0xb9d078ec	-0.00039762945
29	0x3c2743b0	0.010209009
30	0xbd44efb3	-0.048080157
31	0x3d33e978	0.043923825
32	0xbe13c7cb	-0.14431684
33	0x3e1124e8	0.14174235
34	0xbde076a4	-0.10960129
35	0x3d996ace	0.074910745
36	0xbdc9009b	-0.098145686
37	0x3dabc585	0.08387283
38	0x3d7cdb5e	0.061732642
39	0xbd8d929c	-0.06912729
40	0x3d9d6c2d	0.076866485
41	0x3d8c9b8c	0.06865606
42	0x3c57b21b	0.013165022
43	0xbddd71a1	-0.108126886
44	0x3d89081a	0.066909984
45	0x3d0b8ea1	0.03407157
46	0xbc9e0795	-0.019290725
47	0x3ab680a2	0.0013923834
48	0xbc069eb5	-0.00821655
49	0x3d83ace1	0.064294584
50	0xbd0784b7	-0.03308555
51	0xbdfc72d6	-0.12326591
52	0x3d06a09e	0.03286802
53	0x3e51aae6	0.20475349
54	0xbda7e118	-0.0819723
55	0x3d0d3e6e	0.034483366
56	0x3d29b336	0.041430674
57	0x3d45b1dc	0.048265323
58	0x3e8bf83b	0.27337822
59	0x39fadefa	0.00047849846
60	0x3cde611d	0.027145917
61	0xbb855c60	-0.00406985
62	0xbe18b015	-0.1491092
63	0xbe124e07	-0.14287578
64	0xbcab864e	-0.020938065
65	0x3c1e2977	0.009653441
66	0xbd8ab240	-0.0677228
67	0x3b6627b4	0.003511888
68	0x3d835c42	0.06414081
69	0xb98ad21c	-0.00026477955
70	0xbe146859	-0.1449293
71	0x3cccefe1	0.025016727
72	0x3cbe6cb7	0.023245199
73	0xbda8ef13	-0.08248725
74	0x3d0ba58f	0.034093436
75	0xbe006fa3	-0.12542586
76	0xbdb10808	-0.0864411
77	0x3d83e0a2	0.0643933
78	0x3cf34405	0.02969552
79	0xbe12a2e0	-0.14319944
80	0xbbe0e1e8	-0.0068628676
81	0x3d38affd	0.04508971
82	0x3ce3a2b6	0.027787548
83	0x3d944ee2	0.07241608
84	0xbd2d06b2	-0.042242713
85	0x3c0bcab5	0.008532216
86	0xbdb2d613	-0.08732238
87	0xbdc6a1c1	-0.09698821
88	0x3c868cb8	0.016424522
89	0xbd6d6a57	-0.05796274
90	0x3d100dad	0.035169292
91	0xbd8a7705	-0.067609824
92	0xbc64645f	-0.013939946
93	0xbe0a3a25	-0.13498743
94	0xbdf93b44	-0.12169507
95	0x3d9f9b93	0.07793345
96	0xbd66a766	-0.056311987
97	0xbcde6ab1	-0.027150484
98	0x3e022787	0.12710391
99	0xba1fba1b	-0.00060931005
100	0x3c7e5f21	0.01552561
101	0xbe5cef4b	-0.21575658
102	0xbda69667	-0.08134156
103	0x3c67a736	0.014138987
104	0x3cec582f	0.028850643
105	0x3d5cf44f	0.05394393
106	0x3d4af349	0.04954842
107	0xbd1374cf	-0.03600007
108	0xbe3bf3b6	-0.18354687
109	0x3da146a8	0.07874805
110	0xbdc43914	-0.09581199
111	0xbe93cc20	-0.28866673
112	0xbe21da06	-0.15805826
113	0xbd490873	-0.049080323
114	0xbc3f6919	-0.011682772
115	0xbd39eceb	-0.04539196
116	0xbd926c36	-0.07149546
117	0xbc49ebcd	-0.012324286
118	0x3b831d29	0.004001279
119	0xbc62fa18	-0.013853572
120	0xbbfe24ac	-0.0077558365
121	0xbc934f5a	-0.017982174
122	0xbdbd3ad1	-0.09239734
123	0x3dbd5a9d	0.09245799
124	0xbda34285	-0.07971672
125	0x3e6ccfd9	0.23126163
126	0xbdcbe74e	-0.09956227
127	0xbc836159	-0.01603763

fc2.weight f4 [128, 128]
0	0x3c5ec3ad	0.013596457
1	0xbf06e310	-0.5269022
2	0xbd5f2bb2	-0.05448503
3	0xbe364741	-0.17800619
4	0xbd64f293	-0.0558954
5	0x3db11557	0.086466484
6	0xbc9d9e6b	-0.019240579
7	0xbb929b7b	-0.004474101
8	0xbcabc567	-0.020968152
9	0xbcfb7b5e	-0.030698474
10	0xbd774abe	-0.060374014
11	0xbd186cdd	-0.037213195
12	0xbcd5a871	-0.026081296
13	0x3d605493	0.054768156
14	0xbd9f4c69	-0.07778246
15	0xbd8bf9f7	-0.068347864
16	0x3dc01cb1	0.093804725
17	0x3da98109	0.08276565
18	0x3d2eca93	0.04267366
19	0xbd0cacb0	-0.034344375
20	0xbebfe5a1	-0.3747988
21	0x3cb08cfc	0.021551602
22	0xbf1ef46d	-0.62091714
23	0xbba64a91	-0.005074807
24	0xbd0fa02b	-0.035064857
25	0xbd1e3ea8	-0.038633972
26	0xbd911e6b	-0.0708588
27	0xbce01103	-0.027351862
28	0x3bba1c2b	0.0056796274
29	0xbda5d2f9	-0.080968805
30	0x3d9b3420	0.075783014
31	0x3cca63ee	0.024705853
32	0x3e09746d	0.13423319
33	0xbe9c3b41	-0.30513957
34	0x3ca3a648	0.01997675
35	0xbc38dc7a	-0.011283034
36	0xbf210335	-0.6289552
37	0xbdb9af74	-0.09066668
38	0x3d60dd8d	0.054898787
39	0x3af1fccc	0.001846218
40	0x3d304653	0.043035816
41	0x3d2dd641	0.042440657
42	0x3d0c0368	0.034182936
43	0x3d856b30	0.06514585
44	0x3d6644d0	0.05621797
45	0x3d62e377	0.05539271
46	0xbce0fe5e	-0.027465042
47	0x3d987428	0.0744403
48	0xbd2e1711	-0.042502467
49	0x3d7785d2	0.060430355
50	0xbd95ac13	-0.07308211
51	0x3d6dd09a	0.058060266
52	0x3a4c33ae	0.00077896833
53	0x3e1f3063	0.15545802
54	0x3cab0cf7	0.020880206
55	0x3cf99754	0.030467667
56	0xbc9bca18	-0.019017264
57	0xbc894ca1	-0.016760172
58	0x3e37c16a	0.17944875
59	0xbe83c98f	-0.25739715
60	0xbd6daf58	-0.05802855
61	0x3d8a2d5b	0.06746932
62	0xbcbaef76	-0.022819262
63	0x3d6cbfea	0.05780021
64	0xbb6149b3	-0.0034376204
65	0x3d493fbb	0.049133044
66	0x3e3da4c0	0.18519878
67	0xbcd85906	-0.026409637
68	0xbd060eb6	-0.032728873
69	0xbdde6735	-0.10859529
70	0xbda5a04c	-0.08087215
71	0xbdb47788	-0.08811861
72	0x3d6185c7	0.05505922
73	0x3cb4f8c7	0.022091283
74	0xbcf5c3d7	-0.03000061
75	0xbda00f7c	-0.078154534
76	0x3dd3d523	0.10343387
77	0xbb3f2234	-0.0029164674
78	0xbd7bcbb2	-0.061473556
79	0xbd4aa603	-0.049474727
80	0xbd8ec6fb	-0.06971546
81	0xbd9a8355	-0.07544581
82	0xbd5837ad	-0.05278747
83	0x3c92e4c4	0.01793135
84	0x3d14ed62	0.0363592
85	0xbf965623	-1.1745037
86	0x3d8fd82a	0.07023652
87	0x3cdc81d2	0.026917372
88	0xbe929fff	-0.28637692
89	0xbdbbf3fd	-0.091773964
90	0xbd039555	-0.032124836
91	0xbeead94a	-0.45868903
92	0x3d4f376a	0.050589956
93	0xbf25f5a7	-0.6482796
94	0xbd9a4ae0	-0.075338125
95	0xbd3b7850	-0.045769036
96	0xba14847e	-0.0005665495
97	0xbe342f41	-0.17596151
98	0xbd8d20fe	-0.068910584
99	0x3d37172f	0.044699844
100	0x3c92427a	0.017853964
101	0x3e54408e	0.2072775
102	0x3e76a8fd	0.24087901
103	0xbd0dd53e	-0.03462719
104	0xbb9d3b68	-0.0047983415
105	0x3c258aec	0.010103922
106	0x3ddf42bf	0.10901403
107	0x3e0f118f	0.13971542
108	0xbf2d3bb8	-0.6766925
109	0xbdb27a90	-0.08714783
110	0x3d1c91a2	0.038224824
111	0x3e029690	0.12752748
112	0xbd7f7041	-0.062362913
113	0xbf160312	-0.58598435
114	0xbde01abc	-0.10942599
115	0x3d07ec66	0.03318443
116	0x3d0f857c	0.03503941
117	0x3d2241ab	0.039613407
118	0xbdb09992	-0.08623041
119	0x3ba39683	0.0049923076
120	0xbb74a6e1	-0.0037330913
121	0x3d8d0388	0.06885439
122	0xbcfee8f8	-0.031116948
123	0x3e6938a6	0.22775516
124	0xbd998812	-0.074966565
125	0xbcfa2484	-0.03053499
126	0xbd482b9c	-0.048869714
127	0x3cc13df5	0.023589114
128	0xbd988130	-0.074465156
129	0x3d1fc201	0.039003376
130	0xbce55527	-0.027994705
131	0x3c58f616	0.013242265
132	0x3d2b5d1e	0.04183685
133	0xbd665d28	-0.056241184
134	0x3d8d1522	0.068887964
135	0xbd226c12	-0.039653845
136	0x3803a789	3.1388863e-05
137	0xbd084232	-0.033266254
138	0x3d00e5c8	0.031469136
139	0xbb9652c6	-0.004587504
140	0xbcf636f9	-0.03005551
141	0x3d4bc37f	0.049746986
142	0xbc94ae74	-0.018149592
143	0xbce3828f	-0.027772216
144	0x3c964083	0.018341308
145	0xbdf813f7	-0.12113183
146	0x3d4e5cc7	0.050381448
147	0x3d858afd	0.065206505
148	0x3da11ba9	0.07866604
149	0x3d478c43	0.04871775
150	0x3c359989	0.011083969
151	0xbcea0270	-0.028565615
152	0xbb042909	-0.002016606
153	0xbd70d2f7	-0.05879494
154	0x3d700f1c	0.05860816
155	0x3d80c54e	0.06287633
156	0xbd5b6e9c	-0.053572282
157	0x3d70c6ac	0.05878322
158	0x3d54bb1b	0.05193625
159	0x3d1d4e2f	0.03840464
160	0x3d987151	0.074434884
161	0x3bfa86b5	0.007645453
162	0xbd8d7173	-0.06906404
163	0x3c74f6a4	0.014951382
164	0xbdcb0722	-0.0991347
165	0xbb57dae3	-0.0032936863
166	0xbcda90b6	-0.026680332
167	0x3bb2afcc	0.0054530855
168	0x3c8fd449	0.01755728
169	0xbdadc3c5	-0.08484606
170	0x3d1d16e6	0.038351916
171	0x3d8fa331	0.07013548
172	0xbd8596a3	-0.06522872
173	0xbdc02a12	-0.09383024
174	0x3d7ad3a9	0.06123701
175	0xbd9cdc8f	-0.07659256
176	0xbd6a67f4	-0.057228044
177	0xbcdc1b63	-0.026868528
178	0xbd75c172	-0.059998937
179	0x3d24b8ca	0.04021529
180	0x3d828d58	0.063746154
181	0x3d38a373	0.045077752
182	0x3c30d595	0.010793109
183	0x3d8efabb	0.06981417
184	0x3d83cd65	0.0643566
185	0x3c7d52e4	0.015461657
186	0x3bc5f8ee	0.0060416376
187	0xbd96cd59	-0.07363386
188	0xbd4eb75a	-0.050467826
189	0x3d47005d	0.04858433
190	0x3d3d62a7	0.04623666
191	0x3a6e11d2	0.0009081635
192	0xbd555bca	-0.05208949
193	0x3d6704a2	0.056400903
194	0x3d3c70a1	0.04600585
195	0xbb98b685	-0.00466043
196	0x3c263e3e	0.010146676
197	0x3d4448da	0.04792104
198	0x3cc34db8	0.02384077
199	0x3be56650	0.007000722
200	0xbd4dec3e	-0.050274126
201	0xbd25f6e8	-0.04051867
202	0x3d99d354	0.07511011
203	0xbd852f2c	-0.06503138
204	0xbdb4cfee	-0.08828722
205	0xbbb86b38	-0.005628016
206	0x3a76525e	0.0009396429
207	0x3cfe1aef	0.031018702
208	0xbc9672ac	-0.018365227
209	0xbca2717b	-0.019829502
210	0x3d821f31	0.063536055
211	0xbc5e4dfc	-0.013568398
212	0xbd793e71	-0.060850564
213	0xbd13c57d	-0.03607701
214	0xbd429c86	-0.047512554
215	0xbd8cb62b	-0.06870683
216	0x3d4b72e9	0.049670134
217	0x3c658c52	0.014010506
218	0xbdb35911	-0.087572224
219	0x3982e2cf	0.00024964518
220	0xbcd71051	-0.026252897
221	0xbb3f88d6	-0.0029225848
222	0xbdad5a63	-0.084645055
223	0x3d37f63d	0.044912565
224	0x3d837755	0.06419245
225	0x3d627a41	0.05529237
226	0xbdb4dd7e	-0.08831309
227	0xbda614de	-0.08109449
228	0xbd82a10d	-0.06378374
229	0x3ab587db	0.0013849692
230	0x3d1b0d02	0.037854202
231	0x3c6454cd	0.013936234
232	0xbc247ad5	-0.010039051
233	0xbbfb68dd	-0.007672413
234	0xbd07bfbc	-0.033141837
235	0x3ce7d411	0.028299363
236	0x3cf36512	0.02971128
237	0xbd0e13b6	-0.034686767
238	0x3d8b2e0d	0.06795893
239	0xbda2fc60	-0.07958293
240	0x3d6ad0ba	0.057327963
241	0xbc7ecd2a	-0.015551845
242	0xbd7fef86	-0.062484287
243	0x3c92caa3	0.01791889
244	0xbcc9de38	-0.024642095
245	0x3d73c978	0.059518307
246	0xbd4737ab	-0.048637073
247	0xbd957907	-0.07298475
248	0xbd71e312	-0.05905444
249	0xbda00c33	-0.07814827
250	0xbd17580c	-0.036949202
251	0xbd510623	-0.051031243
252	0x3c0261f5	0.007957925
253	0xbddf1a6c	-0.108937114
254	0xbc39f9f1	-0.011351095
255	0xbdb43ef8	-0.08801073

fc2.bias f4 [128]
0	0xbdf21542	-0.11820461
1	0xbd9e70be	-0.077363476
2	0xbd2b18cb	-0.04177169
3	0xbb39cf68	-0.0028352384
4	0xbe1d7483	-0.15376477
5	0xbe2cda72	-0.16880205
6	0x3cd55d8c	0.026045583
7	0x3e918eb7	0.28429195
8	0xbe1cc1ce	-0.15308306
9	0x3e5c332e	0.21503899
10	0xbe12f9f3	-0.1435316
11	0x3e266632	0.16249922
12	0xbe554253	-0.20826082
13	0xbe556a53	-0.2084134
14	0xbe19b1f7	-0.15009294
15	0x3d33dc0c	0.043911025
16	0xbe058cf4	-0.1304205
17	0xbd96c6d9	-0.07362146
18	0xbd2fbe12	-0.042905875
19	0xbc171aee	-0.009222729
20	0xbdf28e42	-0.1184354
21	0xbdffdd46	-0.124933764
22	0xbd1556b4	-0.03645964
23	0xbd4d3aeb	-0.050105017
24	0xbd2d9e50	-0.042387307
25	0xbdccf3cb	-0.10007437
26	0xbda87f8c	-0.08227453
27	0xbe95324e	-0.29139942
28	0xbea8fe38	-0.33006454
29	0xbd35b4de	-0.04436194
30	0xbdcfcfe6	-0.10147075
31	0x3e25506a	0.16143957
32	0xbdcad7e8	-0.09904462
33	0xbcadbbfc	-0.021207802
34	0xbc54c7a9	-0.012987056
35	0xbdd09023	-0.10183742
36	0xbdf9d50a	-0.12198837
37	0x3c85e136	0.01634274
38	0xbdd8d034	-0.105865866
39	0x3ee7b522	0.4525538
40	0xbd8d3fca	-0.068969324
41	0xbd9af6cc	-0.07566604
42	0x3d62fd05	0.05541708
43	0xbdabe85d	-0.08393929
44	0xbe0118f3	-0.12607174
45	0xbdb3421e	-0.08752845
46	0xbdf20b20	-0.11818528
47	0xbd0cdb68	-0.03438893
48	0xbe00e774	-0.12588292
49	0xbde159b4	-0.11003438
50	0x3ceac7a8	0.028659657
51	0xbda02653	-0.0781981
52	0xbdb82d41	-0.089930065
53	0xbda67465	-0.08127669
54	0x3c59b9c6	0.013288921
55	0xbd93fa49	-0.072254725
56	0xbd95e118	-0.07318324
57	0x3e87cc15	0.2652289
58	0x3e592891	0.21206881
59	0xbbdec669	-0.0067985547
60	0xbdd5139f	-0.10404133
61	0x3c54cc1e	0.012988118
62	0xbe05d423	-0.13069205
63	0xbdfbcfc7	-0.1229549
64	0xbe52acda	-0.2057375
65	0xbdb4f18f	-0.08835136
66	0xbdedf9d4	-0.116199166
67	0xbd41c130	-0.04730338
68	0xbd998893	-0.074967526
69	0x3ed22570	0.41044188
70	0xbe527d96	-0.2055572
71	0xbd4f1e4f	-0.050566014
72	0xbe2c1a53	-0.16806917
73	0xbca42337	-0.020036323
74	0xbd91e6e0	-0.07124114
75	0xbcc1dca9	-0.02366479
76	0xbdc68f47	-0.09695297
77	0x3c46c3dc	0.012131657
78	0x3dbb0ca6	0.09133272
79	0xbc8b7589	-0.017023819
80	0xbe2e0bfd	-0.1699676
81	0x3c70396a	0.014662126
82	0xbd55a815	-0.05216225
83	0xbcccf487	-0.025018943
84	0xbd799a5d	-0.060938228
85	0xbee106c5	-0.43950477
86	0xbd9fb005	-0.07797245
87	0xbdd0a07b	-0.10186859
88	0x3d4fb051	0.050705258
89	0x3f05d908	0.5228429
90	0x3d263dd3	0.040586304
91	0xbda4fdbd	-0.08056209
92	0x3d01deb3	0.031706523
93	0x3e87be4b	0.2651237
94	0x3c85711a	0.016289283
95	0xbdf16128	-0.11786109
96	0x3e6b0298	0.22950208
97	0xbe38931b	-0.18024866
98	0xbe96887a	-0.29400998
99	0x3acaf8e6	0.0015485554
100	0x3e26448d	0.16237088
101	0xbbcd9697	-0.006274055
102	0xbcf365be	-0.0297116
103	0x3c34d839	0.01103788
104	0x3c8512c6	0.016244303
105	0xbdc6032d	-0.096685745
106	0xbcb1000f	-0.021606473
107	0xbe5ff0f3	-0.21869259
108	0xbec1f189	-0.3787959
109	0xbe523e6a	-0.20531622
110	0x3cf2eb0d	0.029653097
111	0x3c55e6d9	0.013055527
112	0x3d952249	0.0728193
113	0xbdb94fdd	-0.09048436
114	0xbd7641de	-0.06012141
115	0x3bb81513	0.0056177466
116	0xbd6637e7	-0.056205656
117	0xbd038b44	-0.032115236
118	0xbe856a95	-0.26057878
119	0xbddac20d	-0.106815435
120	0xbd140a3a	-0.036142565
121	0xbebf9af9	-0.37422922
122	0xbcde42ef	-0.027131526
123	0xbd5b8689	-0.0535951
124	0x3efdb8ff	0.49555203
125	0x3f1bf26d	0.6091679
126	0xbdf0407a	-0.11731048
127	0x3e5cf10e	0.2157633
