saved_models/episode_200/agent_5.pth (torch, 738018 bytes, 44 tensors)

fc1.weight f4 [128, 5]
0	0x3e983852	0.2973047
1	0xbe386cf5	-0.18010314
2	0x3de6610e	0.112489805
3	0xbeaefd1d	-0.34177485
4	0x3deeb871	0.11656273
5	0xbdebafe8	-0.11508161
6	0xbe9bb33a	-0.30410177
7	0xbe2b8461	-0.16749717
8	0xbeb5da29	-0.35518005
9	0xbdabc53a	-0.08387227
10	0xbd9cbb71	-0.07652939
11	0xbd74a8ce	-0.059731297
12	0x3e98dc09	0.29855374
13	0xbea90f88	-0.33019662
14	0x3e084494	0.1330741
15	0xbeaaf324	-0.33388627
16	0xb9c66c4f	-0.000378462
17	0x3c933a28	0.017972067
18	0xbed005cc	-0.40629423
19	0xbe9bed22	-0.30454355
20	0x3d9dc49b	0.07703515
21	0x3ec1643a	0.3777178
22	0x3e82334b	0.25429758
23	0xbe5d8255	-0.21631749
24	0xbda5ef2e	-0.081022605
25	0x3d73a40d	0.059482623
26	0xbc4e3d15	-0.012587805
27	0xbe632d4d	-0.2218525
28	0x3eba8254	0.36427557
29	0x3dbf20ff	0.093324654
30	0xbe56a16b	-0.20960014
31	0xbeab1844	-0.3341695
32	0xbd90667b	-0.070507966
33	0xbdfc69d6	-0.12324874
34	0xbe178cf4	-0.14799863
35	0x3e069d1c	0.1314587
36	0xbdd2700e	-0.10275279
37	0xbe7b77a4	-0.24557358
38	0xbda3ffef	-0.080078
39	0x3e5ab192	0.213568
40	0xbd84d63b	-0.06486174
41	0x3d330392	0.043704577
42	0x3d262878	0.040565938
43	0x3e17e1ea	0.14832273
44	0xbe133d63	-0.14378886
45	0x3ddf2ea9	0.108975716
46	0xbe63d83b	-0.22250454
47	0xbe13b642	-0.14424995
48	0x3e94b62b	0.29045233
49	0x3ce8e3de	0.028428968
50	0x3e2ef92b	0.17087238
51	0xbdb5ec68	-0.088829815
52	0xbd8d7967	-0.06907921
53	0x3edd10cd	0.4317688
54	0x3ec75a68	0.38936162
55	0xbec4b7e9	-0.38421562
56	0x3c577363	0.013150069
57	0xbbbd7942	-0.0057822773
58	0x3e1725e3	0.14760546
59	0xbd3c9f5a	-0.046050407
60	0x3ea53111	0.32263997
61	0xbdfc3967	-0.12315636
62	0x3dd79dc1	0.10528136
63	0xbe00e077	-0.12585627
64	0xbd9ade03	-0.075618766
65	0xbbffeba0	-0.007810071
66	0xbeb16c44	-0.34652913
67	0xbc7602c1	-0.015015305
68	0x3ea52504	0.32254803
69	0xbe933e15	-0.28758302
70	0x3e1ec133	0.15503387
71	0xbcf3d3f5	-0.029764155
72	0xbe9cd90d	-0.30634347
73	0x3d254503	0.040349018
74	0xbbfce6b2	-0.0077179307
75	0xbdc9760c	-0.09836969
76	0xbd637526	-0.055531643
77	0x3eec02be	0.46095842
78	0xbeb7e1ae	-0.35914367
79	0x3e075e45	0.13219555
80	0x3da1af5e	0.07894777
81	0x3ed29340	0.41127968
82	0x3e31e613	0.17372923
83	0x3c72ed16	0.0148270335
84	0x3ea2bf21	0.31786445
85	0xbe87bd10	-0.2651143
86	0x3d005e0a	0.031339683
87	0xbd5fcc5e	-0.05463826
88	0xbe71ea80	-0.23624611
89	0xbec31dc3	-0.38108644
90	0x3d5caef7	0.053877797
91	0x3c55c671	0.0130478
92	0x3e9a3a38	0.30122542
93	0xbd74a561	-0.05972803
94	0x3eac6a21	0.3367472
95	0x3e6e41b5	0.23267253
96	0xbe8bb0e1	-0.27283385
97	0x3ee4cd4c	0.4468788
98	0xbe26f3c8	-0.16303933
99	0xbeb054e7	-0.34439775
100	0xbeabf2ad	-0.33583584
101	0xbebdadbf	-0.3704662
102	0x3e398b33	0.18119507
103	0x3cb4a678	0.022052035
104	0xbe68bdf2	-0.22728708
105	0x3ea5ee8e	0.32408565
106	0xbe92c798	-0.28667903
107	0xbeb616cb	-0.35564265
108	0xbe902954	-0.2815653
109	0x3ea1e19c	0.3161744
110	0x3ec73c6c	0.38913286
111	0xbe3613aa	-0.17780939
112	0x3e7e10eb	0.24811141
113	0xbe89ff7a	-0.26952726
114	0xbe05d4a4	-0.13069397
115	0x3ec8058b	0.3906673
116	0x3e2e596d	0.170263
117	0xbe66bef6	-0.22533783
118	0x3d8d18cb	0.068894945
119	0xbe10913b	-0.14117901
120	0x3e0ac4d5	0.13551648
121	0xbedde789	-0.4334071
122	0xbe6621e1	-0.22473861
123	0x3df54951	0.119768746
124	0xbea37f24	-0.31932938
125	0x3d36cb54	0.044627503
126	0x3e1a6a15	0.1507953
127	0xbea629fa	-0.324539
128	0x3eba13c1	0.36343196
129	0x3dd94057	0.10607975
130	0xbe20ec8f	-0.1571524
131	0x3b0100d3	0.001968433
132	0x3eb98f54	0.36242163
133	0xbd6dda10	-0.05806929
134	0xbe92a4cf	-0.28641364
135	0xbe29180a	-0.16513076
136	0xbea87991	-0.32905248
137	0xbe11ec0f	-0.14250205
138	0xbe009f66	-0.12560806
139	0xbe49263e	-0.19643494
140	0x3dc42e44	0.09579137
141	0xbe0acc54	-0.13554507
142	0xbec80875	-0.39068952
143	0x3de35d6f	0.111018054
144	0x3e9cd332	0.3062988
145	0x3cbce0ba	0.023056377
146	0x3eeeb267	0.46620485
147	0xbeb8cb51	-0.36092618
148	0xbe946167	-0.28980562
149	0x3ddc368d	0.10752592
150	0x3eef6a6d	0.46760884
151	0x3e2db8e1	0.16965057
152	0x3e784740	0.2424593
153	0xbe8c4d0b	-0.2740253
154	0x3eff9a82	0.49922568
155	0xbc9adfb8	-0.018905506
156	0xbc841281	-0.016122105
157	0x3e94d0c3	0.29065523
158	0x3e6aab32	0.22916868
159	0x3eed5189	0.4635127
160	0x3eeb7de8	0.45994496
161	0xbe9086f1	-0.28227952
162	0xbe0105a1	-0.12599804
163	0xbe81a8f8	-0.25324225
164	0x3de183bc	0.110114545
165	0xbe9d6a2d	-0.30745068
166	0x3e9d79fa	0.30757123
167	0x3caa2e59	0.020774053
168	0x3ea5a79b	0.32354435
169	0xbeef3097	-0.4671676
170	0xbda9c4b1	-0.08289469
171	0xbeac5692	-0.33659798
172	0xbe972906	-0.29523486
173	0xbc9c9755	-0.01911513
174	0xbe967364	-0.2938491
175	0xbec90978	-0.39265037
176	0xbe4883fc	-0.19581598
177	0x3e904d87	0.2818415
178	0x3e55f533	0.20894317
179	0xbda310d9	-0.07962198
180	0x3ec2964e	0.38005298
181	0x3d963455	0.073342
182	0x3eab95bb	0.33512673
183	0x3ebde30d	0.37087288
184	0xbdc18998	-0.09450072
185	0xbde70ad5	-0.11281363
186	0x3e466b98	0.19376981
187	0x3ee10b24	0.43953812
188	0x3d8a42ba	0.06751008
189	0x3eeb6adb	0.45979962
190	0x3db5a9b8	0.08870262
191	0xbec4c5ce	-0.38432163
192	0x3e2bfd0c	0.16795748
193	0x3ec84674	0.3911625
194	0xbe91da5f	-0.28486916
195	0xbe892e4f	-0.26793143
196	0x3ea83c06	0.32858294
197	0x3e679e58	0.22618997
198	0xbea17f85	-0.31542602
199	0x3e074263	0.13208918
200	0x3e3d1ed4	0.18468791
201	0xbd88485c	-0.066544265
202	0x3da9b63f	0.08286714
203	0xbe9084b6	-0.2822625
204	0x3ee188e3	0.4404975
205	0x3eb1d187	0.3473017
206	0x3ebecead	0.37267056
207	0xbdcc27c9	-0.09968526
208	0x3e8420f6	0.25806397
209	0xbe7f7fc5	-0.24951084
210	0x3d1a39a7	0.037652638
211	0x3ed382d9	0.41310766
212	0x3e8ce7c7	0.27520582
213	0xbd9e1820	-0.07719445
214	0x3e0417db	0.12899725
215	0x3e6c576f	0.23080228
216	0xbe8e43aa	-0.27786
217	0xbd822cb6	-0.06356184
218	0x3e35331a	0.17695275
219	0x3e7e7271	0.24848343
220	0xbe93f10f	-0.2889485
221	0xbd968a0a	-0.073505476
222	0xbe5297ef	-0.2056577
223	0x3e41ef09	0.18938841
224	0x3eb960d6	0.36206692
225	0xbdcef84d	-0.10105953
226	0xbec1d541	-0.37858012
227	0xbdf3f458	-0.11911839
228	0xbca8d3d7	-0.020608826
229	0xbeaf15e6	-0.34196395
230	0xbd883591	-0.06650842
231	0x3eb2c930	0.3491912
232	0xbe717137	-0.23578344
233	0x3ed07567	0.4071457
234	0x3dde1384	0.10843566
235	0x3e7efe7b	0.24901764
236	0xbee26b5e	-0.4422254
237	0x3cf7e1d2	0.030259047
238	0xbe64f174	-0.22357732
239	0xbec6a7a9	-0.3879979
240	0xbdbe39fb	-0.09288403
241	0xbebbcda6	-0.36680335
242	0xbe9ffa16	-0.31245488
243	0x3e528e40	0.20562077
244	0xbe91ef9e	-0.28503126
245	0x3e92f508	0.2870257
246	0xbe8aceae	-0.2711081
247	0x3d683e83	0.05670024
248	0x3e31ca75	0.17362387
249	0xbd1ae593	-0.037816595
250	0xbe2b96e4	-0.16756779
251	0xbe20bc2f	-0.15696786
252	0xbe683a80	-0.22678566
253	0x3ef29b7f	0.4738426
254	0x3eb57da0	0.35447407
255	0xbebf4c79	-0.37363032

fc1.bias f4 [128]
0	0x3d53fb8b	0.051753562
1	0x3ee3eae2	0.4451514
2	0xbe95a445	-0.2922689
3	0x3ee3e48d	0.44510308
4	0xbed2c5b3	-0.41166458
5	0x3daead4a	0.08529146
6	0xbec5e7eb	-0.38653502
7	0xbea008ef	-0.31256816
8	0xbe364829	-0.17800964
9	0xbedf7a4b	-0.4364799
10	0xbe8f8df0	-0.28037977
11	0xbe10c706	-0.14138421
12	0x3edd604a	0.43237525
13	0x3ea68ec7	0.32530805
14	0xbea0d805	-0.3141481
15	0x3e4ccc87	0.19999896
16	0x3d9f2cbf	0.077722065
17	0x3e6b81c2	0.22998717
18	0xbcf5348b	-0.029932281
19	0x3e39ac67	0.18132173
20	0xbdc511b1	-0.09622515
21	0x3e898482	0.26858908
22	0x3d9025af	0.070384376
23	0xbc6381d0	-0.01388593
24	0xbed95738	-0.42449355
25	0x3e77dd1c	0.2420544
26	0x3eaf43cd	0.34231415
27	0x3ee24d01	0.44199374
28	0xbdcc0174	-0.09961215
29	0xbe9f69f2	-0.31135517
30	0x3e9b8a8a	0.30379134
31	0x3e9aaf12	0.30211693
32	0x3e705b11	0.23472239
33	0x3eab2294	0.3342482
34	0x3de25757	0.11051815
35	0x3e183180	0.14862633
36	0xbe2bb73c	-0.16769117
37	0x3e7a4008	0.24438488
38	0xbe2045a2	-0.15651563
39	0xbe68bbd6	-0.22727904
40	0xbea40fa6	-0.3204319
41	0xbc0555f2	-0.008138167
42	0xbc6d7371	-0.014492855
43	0xbe6a3420	-0.22871447
44	0x3de9d8b8	0.11418289
45	0x3ec588df	0.38580987
46	0xbcd7b60b	-0.026331922
47	0x3ec0a7b3	0.37627944
48	0xbe3681b8	-0.17822921
49	0xbeb52b06	-0.35384387
50	0xbc1de5d4	-0.009637315
51	0x3dffdf9d	0.12493823
52	0xbe455bf3	-0.19273357
53	0x3df851a7	0.12124949
54	0x3e96c8da	0.29450113
55	0xbec7aa23	-0.38996992
56	0xbe5dff9b	-0.21679537
57	0x3de4bc50	0.1116873
58	0x3ed02399	0.4065216
59	0x3eb5ea7d	0.35530463
60	0xbe3c4302	-0.18384936
61	0xbbf6ea7b	-0.0075352765
62	0x3e61df24	0.22057778
63	0x3c19c3bd	0.009385047
64	0x3ee3ea93	0.44514903
65	0x3eaefe20	0.34178257
66	0xbce2f04a	-0.02770247
67	0xbe8a5ff7	-0.2702634
68	0x3e13690c	0.14395541
69	0x3e690260	0.22754812
70	0x3e793e8b	0.24340264
71	0x3e5b74ea	0.21431318
72	0xbeb31c64	-0.34982598
73	0x3ea35b6b	0.31905684
74	0x3ea5fe5f	0.32420632
75	0xbc5f0aa9	-0.013613381
76	0xbd93be93	-0.072140835
77	0x3e48eae2	0.1962085
78	0xbe82018b	-0.25391802
79	0x3e2fabf9	0.17155446
80	0xbea0ec8e	-0.31430477
81	0xbe5201d7	-0.20508514
82	0x3e7696e1	0.24080993
83	0xbeb91ea4	-0.3615619
84	0x3ebd98b3	0.37030563
85	0x3edfcd98	0.43711543
86	0x3eb6cb62	0.35702044
87	0xbe8a71a9	-0.2703984
88	0xbeb4c5f1	-0.35307267
89	0xbdf5a77a	-0.11994834
90	0xbe93b880	-0.288517
91	0xbde3308c	-0.11093244
92	0xbe824802	-0.25445563
93	0x3e407a32	0.18796614
94	0xbe9a65e4	-0.3015586
95	0x3e26a10f	0.16272376
96	0x3ecbc46c	0.39798295
97	0x3e059a74	0.130472
98	0xbb5b28bc	-0.0033441028
99	0xbe1f846e	-0.15577862
100	0xbe6a52cd	-0.22883148
101	0xbec1288a	-0.3772624
102	0x3e56599f	0.20932625
103	0x3e5d918d	0.21637554
104	0xbec67a72	-0.38765293
105	0x3ef83f68	0.48485875
106	0x3df0ec77	0.11763852
107	0xbe7bf7b9	-0.24606217
108	0x3eacd333	0.33754882
109	0x3b12fa5b	0.0022427056
110	0x3ee55bbd	0.44796553
111	0x3eb7d7a5	0.3590671
112	0xbed7162b	-0.420091
113	0x3ea515db	0.32243237
114	0x3e984351	0.29738858
115	0xbdb403b1	-0.087897666
116	0xbe9df421	-0.30850318
117	0xbeb49733	-0.35271606
118	0xbc9aea52	-0.01891056
119	0x3e3c2d94	0.18376762
120	0xbdafe58f	-0.08588707
121	0x3c23653b	0.009972866
122	0xbd558ae1	-0.0521344
123	0xbe70dcc5	-0.23521717
124	0x3e207345	0.15668972
125	0x3eba11ca	0.36341697
126	0xbe2b5228	-0.16730559
127	0x3e462326	0.19349346

fc2.weight f4 [128, 128]
0	0xbcd33ecc	-0.02578678
1	0x3daaa90d	0.08333025
2	0x3c316a2d	0.010828537
3	0x3ca9fb9e	0.020749863
4	0xbda3db20	-0.08000779
5	0x3d8d181e	0.068893656
6	0xbd4deb40	-0.05027318
7	0x3d3bdd0f	0.045865115
8	0x3b3dd38f	0.002896521
9	0xbd4cb57f	-0.049977776
10	0x3d37a82b	0.04483811
11	0x3d4be050	0.049774468
12	0x3c7543e6	0.0149698015
13	0x3be1f758	0.0068959408
14	0xbd360034	-0.044433787
15	0x3d63afaf	0.055587467
16	0xbbc22ccf	-0.0059257518
17	0xbd0068a4	-0.031349793
18	0xbc6cff9e	-0.014465241
19	0x3da8c82c	0.08241305
20	0x3db3d5a9	0.08780987
21	0x3d87458f	0.06605064
22	0xbd8eeac9	-0.069783755
23	0x3c84642e	0.01616105
24	0xbd7c2871	-0.061562005
25	0xbdb0e218	-0.08636874
26	0x3a094c28	0.00052374834
27	0xbd9815de	-0.07426046
28	0x3c65402f	0.013992353
29	0xbcefc01e	-0.029266413
30	0xbd9ad198	-0.07559508
31	0x3c96df03	0.018416887
32	0xbda91544	-0.08256009
33	0x3ca6a16e	0.020340648
34	0xbc4df8bb	-0.012571509
35	0xbca2cde9	-0.019873576
36	0xbda2726a	-0.07931979
37	0x3cfbca54	0.030736126
38	0xbd307562	-0.043080695
39	0xbd54360a	-0.05180935
40	0xbcae7839	-0.021297561
41	0x3d8a83c9	0.06763417
42	0x3d43e496	0.04782542
43	0xbd53cc7e	-0.05170869
44	0xbca23ebf	-0.01980531
45	0xbd8b41c7	-0.067996554
46	0x3d970b89	0.07375247
47	0xbd81dcb7	-0.06340926
48	0xbc4a01f2	-0.012329565
49	0x3d7c10a7	0.06153932
50	0x3da79117	0.081819706
51	0x3d6fdc91	0.058559958
52	0x3d9a93b7	0.075477056
53	0xbc1e5c55	-0.009665568
54	0xbce9b83d	-0.028530234
55	0xbbc61027	-0.006044406
56	0x3d995591	0.074870236
57	0xbd96a44f	-0.07355558
58	0x3d56a2b4	0.05240126
59	0x3da1f5e8	0.07908231
60	0x3c40f09a	0.011776114
61	0xbd1ce470	-0.038303792
62	0xbd252c7a	-0.04032562
63	0x3da257c4	0.07926896
64	0xbc996686	-0.018725645
65	0xbc06382d	-0.008192104
66	0xbd94bbe5	-0.072624005
67	0x3ca1a3f4	0.0197315
68	0xbd9303b4	-0.07178441
69	0xbd6f311b	-0.05839644
70	0xbcb265f3	-0.021777129
71	0xbc2cbb74	-0.010542739
72	0xbdb394fc	-0.08768651
73	0xbc6bafa7	-0.0143851405
74	0xbbf5d344	-0.0075019915
75	0x3d449e17	0.04800233
76	0xbda66995	-0.08125607
77	0xbc06f0a4	-0.008236084
78	0xbd8b779e	-0.068099245
79	0x3d4ee11b	0.050507646
80	0x3d777d44	0.060422197
81	0xbd7b6e5c	-0.061384544
82	0xbadbdd58	-0.001677434
83	0xbc1e6bd8	-0.009669267
84	0x3d2f2d76	0.042767964
85	0x3d02cc61	0.031933192
86	0xbc8dd731	-0.017314525
87	0xbd4eaeb9	-0.050459597
88	0xbbc50949	-0.00601307
89	0x3c397a71	0.011320696
90	0xbd868df3	-0.065700434
91	0x3c69fd50	0.014281586
92	0xbc85f220	-0.016350806
93	0x3b8bd44f	0.0042672525
94	0x3d128094	0.035767153
95	0xbd8af99a	-0.06785889
96	0xbd5bc24f	-0.053652104
97	0xbccce4a6	-0.025011372
98	0x3cc6d0e2	0.024269525
99	0xbd9f9e61	-0.0779388
100	0x3da1b356	0.07895534
101	0x3da350cb	0.079743944
102	0xbd1678c5	-0.03673627
103	0xbc6c70d3	-0.014431196
104	0xbd833365	-0.06406287
105	0xbd809239	-0.0627789
106	0xbd5511d2	-0.052018948
107	0xbd54c335	-0.051943976
108	0x3cbd44ca	0.02310409
109	0x3ab885ea	0.0014077995
110	0xbda3a99f	-0.07991337
111	0xbd86584b	-0.06559809
112	0xbd55e61e	-0.05222141
113	0x3d176bd3	0.036968064
114	0xbd74b612	-0.05974395
115	0x3d58dde1	0.052945975
116	0x3d7d7462	0.06187857
117	0x3d604a68	0.05475846
118	0xbc568d23	-0.013095173
119	0x3d9c6800	0.07637024
120	0xbd9b181f	-0.0757296
121	0x3c97f39f	0.018548785
122	0xbdb3d905	-0.087816276
123	0xbd85cb84	-0.06532958
124	0xbc187d99	-0.009307289
125	0x3d098e2f	0.033582862
126	0x3d6132a0	0.05497992
127	0x3dae1191	0.08499444
128	0xbd8e1ceb	-0.069391094
129	0xbd237653	-0.039907765
130	0x3b430ba3	0.0029761575
131	0x3d20ea57	0.039285984
132	0xbd530a7e	-0.051523678
133	0x3c2bce43	0.010486188
134	0xbdb3298b	-0.08748158
135	0xbd46e654	-0.0485595
136	0xbd11fd1a	-0.035641767
137	0xbd51646b	-0.051121157
138	0x3d28b035	0.04118367
139	0xbd27c514	-0.040959433
140	0xbda35891	-0.07975877
141	0xbdb2e7fb	-0.08735653
142	0xbd23e72f	-0.040015396
143	0x3c7aa1f2	0.0152974
144	0xbd91146c	-0.07083973
145	0x3d16f404	0.036853805
146	0xbc6f7c24	-0.014617
147	0x3dae5df8	0.08514017
148	0x3d6429c5	0.055703897
149	0x3c82d258	0.01596944
150	0x3dad1e8b	0.08453091
151	0xbd06f79c	-0.032950982
152	0xbd85947b	-0.06522461
153	0x3cdd4e71	0.027014943
154	0x3d87bdad	0.06627975
155	0xbd9a19a7	-0.07524424
156	0xbd00ce2e	-0.03144663
157	0x3d0a2200	0.03372383
158	0x3adec893	0.0016997032
159	0xbd3e5e49	-0.046476636
160	0xba847932	-0.001010692
161	0x3db96a15	0.09053437
162	0xbc213830	-0.009840056
163	0xbcd327fb	-0.0257759
164	0xbd2e72e2	-0.04259003
165	0xbd299e6d	-0.041410852
166	0x3d4232a9	0.047411595
167	0xbd8ab97b	-0.06773659
168	0xbd3e5830	-0.04647082
169	0x3a558cea	0.0008146303
170	0x3d2fbdd0	0.04290563
171	0xbd8be31a	-0.068304256
172	0xbb015860	-0.0019736513
173	0xbd84f2df	-0.064916365
174	0x3d080e0c	0.03321652
175	0xbd220028	-0.03955093
176	0x3d8e4997	0.0694763
177	0xbd973c3a	-0.07384534
178	0x3c7f44af	0.01558034
179	0xbc3685e1	-0.011140318
180	0xbccd9308	-0.025094524
181	0x3b45347a	0.0030091093
182	0x3d97c974	0.07411471
183	0xbd972c9d	-0.07381556
184	0xbd6dd104	-0.05806066
185	0xbd603573	-0.054738473
186	0xbdb2a8c3	-0.08723595
187	0xbd69d275	-0.057085473
188	0x3b7a9323	0.0038234673
189	0x3d99c9fb	0.07509228
190	0x3dab75be	0.08372067
191	0x3cb71808	0.022350326
192	0x3d7d4cad	0.0618407
193	0x3da19d3b	0.078913175
194	0xbc9f63c6	-0.019456755
195	0xbcf2cf93	-0.029639995
196	0x3d132e6b	0.03593294
197	0xbd874c9f	-0.06606411
198	0xbca8611d	-0.02055412
199	0xbdbc8b14	-0.092062145
200	0x3d83e7bc	0.06440684
201	0x3da0c38a	0.07849796
202	0xbd9d2701	-0.07673455
203	0x3da2802f	0.07934605
204	0x3d84eaf2	0.06490125
205	0xbb88fb48	-0.0041803457
206	0xbc7ab426	-0.01530174
207	0x3be8671a	0.007092369
208	0x39904f80	0.00027525052
209	0xbc0dac96	-0.008647105
210	0xbcdbd881	-0.026836636
211	0x3d3f10d7	0.04664692
212	0xbd071019	-0.032974336
213	0x3d23bdc7	0.039975908
214	0xbca56abf	-0.020192502
215	0xbda90f52	-0.08254875
216	0x3d259bcb	0.04043178
217	0x3d95a5c5	0.07307009
218	0xbd560d1d	-0.0522586
219	0xbd650c4f	-0.05591994
220	0xbd1aa428	-0.037754208
221	0xbda8d7e9	-0.082443066
222	0xbb27312c	-0.0025511486
223	0xbd62e0b9	-0.055390093
224	0xbd62944d	-0.055317212
225	0x3d8fd27a	0.07022567
226	0x3c9d47b8	0.019199237
227	0x3d8dfeee	0.069333896
228	0x3cbfa1e6	0.023392629
229	0x3c0d951e	0.008641509
230	0x3d49df7a	0.04928539
231	0x3c8553b8	0.016275272
232	0xbdb9de92	-0.09075655
233	0x3d60d431	0.05488986
234	0x3d502dcf	0.050824936
235	0xbda686b0	-0.08131158
236	0xbd3c1b82	-0.04592467
237	0xbbfa39ae	-0.0076362705
238	0xbd06dafb	-0.03292368
239	0x3d73fa8f	0.059565123
240	0x3d926a97	0.07149237
241	0x3d87cfd9	0.06631441
242	0x3cd3636f	0.02580425
243	0xbb2620b6	-0.0025349087
244	0xbd478125	-0.048707146
245	0xba9d897b	-0.0012019122
246	0x3d63b01e	0.05558788
247	0xbdafc88b	-0.085831724
248	0x3c86b24b	0.016442439
249	0x3cfba43c	0.030717961
250	0x3d60f017	0.054916468
251	0xbd4f40d0	-0.05059892
252	0x3d9d2bd4	0.07674375
253	0x3d99a41d	0.07502005
254	0x3cdab820	0.026699126
255	0x3dacbe3e	0.08434723

fc2.bias f4 [128]
0	0x3d83fdbe	0.06444882
1	0x3d0cd709	0.03438476
2	0xbb8385f7	-0.0040137726
3	0xbd879b67	-0.066214375
4	0x3d172ebe	0.03690981
5	0x3c8472b7	0.016167982
6	0x3d6f9f94	0.058501795
7	0xbd66be43	-0.05633379
8	0xbcd4489b	-0.025913527
9	0xbc382045	-0.011238162
10	0xbd085621	-0.033285264
11	0xbd7c21b3	-0.061555576
12	0x3daf4688	0.08558375
13	0xbd6729d5	-0.05643638
14	0xbdb61622	-0.0889094
15	0x3db06ef4	0.08614913
16	0xba3b1783	-0.00071369874
17	0xbd7ef6ff	-0.062247273
18	0xbd983e18	-0.074337184
19	0x3d8309e5	0.063983716
20	0x3da1e78a	0.07905491
21	0x3c25fee8	0.010131575
22	0x3d258ba4	0.040416375
23	0x3d79d897	0.06099757
24	0xbc5f0441	-0.013611854
25	0x3d22316c	0.039597914
26	0xbdb3c65d	-0.08778069
27	0xbc439f78	-0.011939876
28	0xbc03e92a	-0.008051196
29	0x3da4012c	0.08008036
30	0xbd9eb8d0	-0.07750094
31	0xbd78531a	-0.060626127
32	0xbcd997f3	-0.026561713
33	0x3d779510	0.06044489
34	0x3bfe4924	0.007760184
35	0x3d6d2e71	0.057905618
36	0x3d2f5381	0.042804245
37	0xbda92c2b	-0.082603775
38	0x3d313461	0.043262843
39	0x3d3caf0c	0.046065375
40	0xbba1f09c	-0.004942013
41	0x3d951052	0.072785035
42	0xbd9b705b	-0.075897895
43	0x3d8432ff	0.06455039
44	0xbd81ab32	-0.06331481
45	0xbcdfc2b1	-0.027314516
46	0xbd171ce4	-0.036892787
47	0x3dc0d948	0.09416443
48	0x3d8d1a17	0.06889742
49	0x3c6b82b1	0.014374421
50	0xbc1c79b0	-0.009550497
51	0x3ce21fb3	0.027603006
52	0xbd85cb43	-0.0653291
53	0x3d1f75c3	0.038930666
54	0xbdb38da3	-0.087672494
55	0x3cc2ea7b	0.02379345
56	0xbdee607c	-0.11639497
57	0x3d962b01	0.07332421
58	0xbcd99b36	-0.026563268
59	0x3d7ba0d4	0.061432675
60	0x3b89b7e8	0.0042028315
61	0x3d4265f1	0.0474605
62	0x3dce18ec	0.10063347
63	0x3d59fc36	0.053219043
64	0x3d910b56	0.0708224
65	0xbc5d44db	-0.013505186
66	0xbd4df01e	-0.05027782
67	0xbb63fa62	-0.003478669
68	0xbce803fe	-0.028322216
69	0xbd8cfebf	-0.068845265
70	0xbd91e5d5	-0.07123915
71	0x3d71a450	0.05899459
72	0x3d6bb594	0.057546213
73	0x3dda8293	0.10669436
74	0x3c45c310	0.012070432
75	0x3d41d7d6	0.047324978
76	0xbc88fb75	-0.016721467
77	0xbb88ca50	-0.004174508
78	0x3bfa5129	0.0076390696
79	0xbb9a715a	-0.0047132196
80	0x3d41687e	0.047218792
81	0xbd76cc44	-0.060253397
82	0xbca0e1c0	-0.019638896
83	0xbdb05047	-0.08609062
84	0xbda200b6	-0.07910292
85	0x3ce3bfa4	0.027801342
86	0x3d8415f0	0.06449497
87	0xbd7ad4a1	-0.061237935
88	0x3d962195	0.07330624
89	0xbd52825f	-0.051393863
90	0xbb447aa9	-0.0029980338
91	0x3d2b6d04	0.041852012
92	0xbda7d751	-0.08195365
93	0x3d276698	0.040869325
94	0xbc0e7321	-0.008694441
95	0x3ca8ad87	0.020590557
96	0xbd04d735	-0.0324318
97	0x3d94de08	0.072689116
98	0xbccdd8e6	-0.02512784
99	0xbd9ea03b	-0.07745405
100	0xbbdefa94	-0.0068047736
101	0xbde01ea4	-0.10943344
102	0xbd57f899	-0.052727316
103	0x3df4c451	0.11951507
104	0xbdb2ae85	-0.08724693
105	0xbdaaa6f2	-0.083326235
106	0x3d48c23c	0.04901336
107	0x3d38f7f6	0.04515835
108	0x3d371909	0.04470161
109	0xbd808883	-0.062760375
110	0x3d7eabee	0.062175684
111	0xbde6dc4e	-0.112724885
112	0x3d336ddd	0.043805946
113	0xbb406662	-0.00293579
114	0x3d6e215d	0.058137286
115	0xbd32e937	-0.043679442
116	0xbde324a5	-0.11090974
117	0xbc19b21e	-0.009380845
118	0x3d3c1e7b	0.045927506
119	0xbdb3a9f7	-0.087726526
120	0xbc0d0622	-0.008607419
121	0x3d0dc219	0.034608934
122	0xbd3cf20f	-0.046129283
123	0xbdc6a4a5	-0.09699372
124	0x3d9e01bb	0.07715174
125	0x3da21163	0.079134725
126	0x3d92ee6b	0.07174381
127	0x3b840592	0.0040289843

fc3.weight f4 [2, 128]
0	0xbc8d8635	-0.017275909
1	0xbc0827a1	-0.0083102295
2	0x3c26c14e	0.010177923
3	0xbd078ea3	-0.033095013
4	0xbe334268	-0.175058
5	0xbd8498bb	-0.064744435
6	0x3d12cc10	0.03583914
7	0xbd595c1c	-0.053066358
8	0xbce44d9f	-0.027869044
9	0x3d145448	0.03621319
10	0xbcf9ceae	-0.03049406
11	0xbcd23c21	-0.025663437
12	0xbd19ca8e	-0.037546687
13	0xbbc28b4c	-0.0059370156
14	0x3d8fa149	0.070131846
15	0xbcd2b7b9	-0.025722371
16	0xbbd6c60b	-0.0065543703
17	0xbadb305a	-0.0016722784
18	0x3d1aca05	0.037790317
19	0xbd4ee97c	-0.050515637
20	0xbdab7b01	-0.083730705
21	0x3d21a101	0.039460186
22	0xbb7a0768	-0.0038151387
23	0xbddbc671	-0.10731209
24	0x3cee96f4	0.029124714
25	0xbd05e3d2	-0.03268797
26	0x3acf2fe0	0.0015807115
27	0xbd55df24	-0.052214757
28	0x3da1f5f5	0.07908241
29	0xbda5d2f4	-0.08096877
30	0x3d912a3f	0.07088136
31	0x3bf451bb	0.007456032
32	0x3d37696a	0.044778265
33	0x3d0ce0be	0.03439402
34	0xbc8ea2e0	-0.01741165
35	0x3db2e5c2	0.08735229
36	0xbd972e16	-0.07381837
37	0x3b940dd5	0.0045182505
38	0xbd1bac16	-0.03800591
39	0xbc35a118	-0.011085771
40	0x3d8130da	0.06308146
41	0xbd9bdb0e	-0.07610141
42	0x3d943595	0.072367825
43	0xbd9c0777	-0.07618611
44	0xbbfdb500	-0.007742524
45	0xbd0465ce	-0.03232365
46	0xbd057e5e	-0.032591216
47	0xbd4ba9c6	-0.049722455
48	0x3d7b63d5	0.061374504
49	0xbc8f0be9	-0.017461734
50	0xbcb3bedf	-0.0219416
51	0xbd529b9b	-0.05141793
52	0x3d7a2f76	0.06108042
53	0xbd8184ec	-0.06324181
54	0xbc03cbbe	-0.008044181
55	0xbdc723af	-0.09723603
56	0x3c85ba57	0.016324205
57	0x3da54d6e	0.08071409
58	0xbd9f6f32	-0.07784881
59	0xbe015958	-0.12631738
60	0x3d8bee75	0.068325914
61	0x3da813c3	0.08206894
62	0xbd77a134	-0.06045647
63	0xbd5f57c5	-0.054527063
64	0xbdab663d	-0.0836911
65	0xbb2d361b	-0.0026429954
66	0xbd698fa3	-0.05702175
67	0xbc617613	-0.013761061
68	0xbdc8f92f	-0.09813153
69	0x3d326968	0.043557554
70	0x3b576b07	0.003287019
71	0xbb05e571	-0.0020430947
72	0xbbbeea3b	-0.0058262623
73	0xbe1ebd22	-0.15501836
74	0xbb048ae7	-0.0020224394
75	0x3da087ed	0.07838426
76	0xbd98ee9a	-0.07467385
77	0xbd487424	-0.048938885
78	0x3c398bb9	0.011324816
79	0x3c04fe05	0.008117204
80	0xbda52355	-0.0806338
81	0xbdc1c001	-0.0946045
82	0x3cf287e1	0.029605808
83	0xbc9ca4fb	-0.019121638
84	0xbd1d845c	-0.038456306
85	0xbc8a9997	-0.01691894
86	0xbd163334	-0.036669925
87	0xbcea2a3d	-0.028584594
88	0xbd2c5c66	-0.042080306
89	0xbd0f365b	-0.034963947
90	0xbd14349e	-0.036182992
91	0x3d1674a3	0.036732327
92	0xbd39bd2c	-0.045346424
93	0xbc369948	-0.011144944
94	0xbcfa3665	-0.030543515
95	0xbd813ecb	-0.06310805
96	0x3d3f3536	0.046681605
97	0x3cb5b9b4	0.022183277
98	0xbc6cb864	-0.014448259
99	0xbc10013c	-0.008789357
100	0x3d4e0056	0.05029329
101	0x3d13819c	0.036012277
102	0xbd75a89b	-0.059975248
103	0xbd98b730	-0.07456815
104	0xbca6968f	-0.020335464
105	0xbb3e3f61	-0.0029029476
106	0xbc0c066b	-0.008546452
107	0xbdb8258d	-0.08991537
108	0x3d16905a	0.036758758
109	0x3d114c1b	0.03547297
110	0x3da75e99	0.0817234
111	0x3c15a2ee	0.009133084
112	0x3c86eee5	0.016471336
113	0xbb0735c0	-0.0020631403
114	0x3d5ff71f	0.054679032
115	0x3d94794c	0.07249698
116	0xbce82973	-0.028340077
117	0xbc73dfa6	-0.014884865
118	0xbd8ae67b	-0.06782242
119	0x3cf4cd8a	0.029883165
120	0x3d6db374	0.058032468
121	0x3d646acd	0.055765916
122	0xbc33a235	-0.010963966
123	0x3bf994e7	0.0076166275
124	0xbd9c7ec1	-0.07641364
125	0xbdc063b8	-0.0939402
126	0x3d0a66c7	0.033789422
127	0xbd006e36	-0.031355105
128	0x3daa4d53	0.0831553
129	0xbd1d6e23	-0.038435113
130	0x3d1e5e5d	0.03866421
131	0x3ccd964b	0.02509608
132	0x3bd34fe1	0.0064487313
133	0x3d235f00	0.03988552
134	0xbcea44d7	-0.028597279
135	0x3c185e71	0.00929986
136	0xbcbdfef2	-0.023192856
137	0x3d477d8a	0.048703708
138	0xbd468520	-0.0484668
139	0x3d2ab7e5	0.04167928
140	0x3cc6d7f2	0.024272893
141	0xbcd07b83	-0.02544952
142	0xbda3a48a	-0.07990368
143	0x3cc21175	0.023689965
144	0x3d1ab4a6	0.037769936
145	0xbc2fb2d3	-0.010723787
146	0xbca7765c	-0.02044218
147	0x3d3b2d2a	0.04569737
148	0xbd664cde	-0.05622565
149	0x3d907b02	0.07054712
150	0x3dbc6544	0.091990024
151	0x3db93bcc	0.090446085
152	0xbd89aef9	-0.067228265
153	0x3c8c2e60	0.017111957
154	0xbd8fe364	-0.07025793
155	0x3da946d7	0.08265465
156	0x3d13db0d	0.036097575
157	0x3c45bf96	0.012069603
158	0x3cda52c8	0.026650801
159	0x3daff9e9	0.085925885
160	0xbd6a4dd8	-0.057203144
161	0x3db235f0	0.08701694
162	0xbd277d37	-0.0408909
163	0x3d50d41a	0.050983526
164	0x3d21c623	0.0394956
165	0xbd4a735e	-0.04942643
166	0x3d89984d	0.06718502
167	0x3ceaff24	0.028686114
168	0x3cf5066d	0.02991029
169	0x3c993bc9	0.018705266
170	0x3d952671	0.07282723
171	0x3d97465f	0.07386469
172	0x3d4d2012	0.050079413
173	0xbbe132a0	-0.00687249
174	0x3d2a16c1	0.041525606
175	0x3d13606f	0.035980638
176	0xbda697f5	-0.08134452
177	0x3b9879b2	0.004653179
178	0x3d80af64	0.06283453
179	0x3d7fd29a	0.062456705
180	0xbd86851d	-0.06568358
181	0x3d1a8777	0.037726846
182	0xbd6433a9	-0.05571333
183	0x3da314b6	0.07962935
184	0xbd910a92	-0.07082094
185	0x3d09224e	0.03347998
186	0x3ce01daf	0.027357904
187	0x3d4c0915	0.04981335
188	0x3d6a35fb	0.057180386
189	0x3d8ea753	0.06965508
190	0xbd20044f	-0.03906661
191	0x3d6c2af6	0.05765816
192	0x3c8f368d	0.017482067
193	0xbd22179b	-0.039573293
194	0x3d8d552d	0.069010116
195	0x3d77be16	0.060484014
196	0xbc6d0c42	-0.0144682545
197	0xbcd54d86	-0.026037943
198	0x3d155b3e	0.03646397
199	0x3d2596fb	0.04042719
200	0xbbed676a	-0.007244994
201	0x39a41aa1	0.00031300358
202	0x3d94a8da	0.072587684
203	0xbcb46d57	-0.022024794
204	0xbc9def9d	-0.019279296
205	0x3d8b9bfe	0.068168625
206	0x3d67e83a	0.056617953
207	0xbc740670	-0.014894113
208	0xbcb4a4f1	-0.022051306
209	0xbd8bea8b	-0.06831845
210	0x3c6d2208	0.014473446
211	0xbd70e1bd	-0.05880903
212	0x3dbac1ae	0.09118973
213	0xbdb060ac	-0.08612189
214	0x3cc607da	0.024173666
215	0x3bd9dc16	0.0066485507
216	0x3d1a6df8	0.03770253
217	0x3d2fe8ef	0.042946752
218	0xbd616eb6	-0.055037223
219	0xbcab20c9	-0.020889657
220	0x3cf87e71	0.03033373
221	0x3cee4ba6	0.029088806
222	0xbcce54d8	-0.025186941
223	0xbd47f2f8	-0.048815697
224	0x3d8a29de	0.06746267
225	0xbda67897	-0.081284694
226	0xbd02cc30	-0.03193301
227	0xbd92770a	-0.07151611
228	0xbcbbb616	-0.022913974
229	0xbd874561	-0.0660503
230	0xbcfce100	-0.030869007
231	0x3da7de7e	0.08196734
232	0xbc116d86	-0.00887621
233	0x3d8951c7	0.06705051
234	0xbd96806e	-0.07348715
235	0x3d20f8d5	0.039299805
236	0xbd01c06e	-0.031677656
237	0xbd62085a	-0.055183746
238	0x3d768ef2	0.060194917
239	0x3d9798a7	0.07402163
240	0xbd0b9645	-0.034078855
241	0xbcd48ab7	-0.02594505
242	0xbd9acd62	-0.07558705
243	0x3d31bd43	0.043393385
244	0x3c90a63e	0.017657395
245	0xbd814bfc	-0.06313321
246	0xbd21a512	-0.039464064
247	0x3d8ae31f	0.06781601
248	0x3cccb42b	0.024988255
249	0xbd705228	-0.0586721
250	0x3d599f44	0.053130403
251	0xbd485dc4	-0.048917547
252	0xbd4dd36b	-0.050250452
253	0x3c57bbb7	0.013167313
254	0x3cf241d1	0.0295724
255	0xbbe47684	-0.006972136

fc3.bias f4 [2]
0	0xbd1d198a	-0.038354434
1	0x3d73101e	0.059341542

fc1.weight f4 [128, 84]
0	0xbd38dd40	-0.045132875
1	0x3d12452c	0.0357105
2	0xbdde81b7	-0.10864585
3	0xbd4ae956	-0.049538933
4	0x3d836810	0.06416333
5	0x3b86218d	0.004093355
6	0xbd3608d1	-0.044442
7	0xbde6233f	-0.112371914
8	0xbdcc6505	-0.099802054
9	0xbd06db03	-0.03292371
10	0x3d14dd6d	0.03634398
11	0xbd3c06cd	-0.045904923
12	0x3cb601c9	0.022217648
13	0xbbae7873	-0.0053244173
14	0xbc50f6e0	-0.012754172
15	0x3cc4b153	0.024010336
16	0xbd62c98d	-0.055367995
17	0xbc54f6ee	-0.012998326
18	0xbc6fd3fb	-0.014637942
19	0xbd50bac0	-0.05095935
20	0x3c04087e	0.008058665
21	0xbab6570d	-0.0013911441
22	0xbd1da0be	-0.038483374
23	0x3b936d96	0.0044991476
24	0x3d7783b3	0.060428333
25	0x3c387d56	0.011260351
26	0xbdca7439	-0.09885449
27	0xbd8cacf0	-0.06868923
28	0x3d6f17b2	0.058372207
29	0xbdb6c515	-0.08924309
30	0xbd405ed4	-0.046965435
31	0xbd9555dc	-0.07291767
32	0x3cea35a1	0.028590025
33	0xbdaadbb7	-0.083426885
34	0x3d7020c4	0.058624998
35	0x3d092f5c	0.03349243
36	0x3d10070c	0.03516297
37	0x3c76e40b	0.015069018
38	0xbdc6922a	-0.09695847
39	0xbddddfe2	-0.10833718
40	0xbdbc9343	-0.092077754
41	0x3d0014ff	0.031270023
42	0x3d2af98a	0.041741885
43	0xbd43e6e0	-0.0478276
44	0x3daa93fe	0.083290085
45	0x3bf0dac0	0.007350296
46	0xbe087026	-0.13324031
47	0x3d851335	0.06497804
48	0xbd5fd21a	-0.054643728
49	0xbd244e2e	-0.04011362
50	0xbd9f52b4	-0.07779446
51	0x3c6a4d8c	0.014300715
52	0xbddca837	-0.10774272
53	0xbdc92d90	-0.098231435
54	0xbdb7a6e7	-0.08967381
55	0xbcb4d98a	-0.022076387
56	0xbde7b2f7	-0.11313432
57	0x3d85d2d6	0.065343544
58	0xbd3161e5	-0.04330625
59	0x3dd2575e	0.1027057
60	0x3d9cddbb	0.07659479
61	0x3d9eb003	0.07748415
62	0xbbb4525b	-0.0055029816
63	0xbdb6256b	-0.08893856
64	0x3de918bf	0.11381673
65	0xbd175120	-0.0369426
66	0x3b92755e	0.0044695577
67	0x3cfe0e2d	0.031012619
68	0x3d9e1c3c	0.07720229
69	0xbda27fd4	-0.079345375
70	0xbc9c24f9	-0.019060599
71	0xbe155a9a	-0.14585343
72	0x3dc6f669	0.09714968
73	0xbdaf30e0	-0.08554244
74	0xbd8ab51e	-0.067728266
75	0xbdb15657	-0.08659046
76	0xbcad77ef	-0.021175353
77	0xbd3b366a	-0.04570619
78	0xbd9fde99	-0.07806129
79	0xbdad06b9	-0.08448548
80	0xbd9050ff	-0.07046699
81	0x3e07b311	0.13251902
82	0xbd72bf7d	-0.05926465
83	0x3cbcc795	0.023044387
84	0xbd9e0f3d	-0.0771775
85	0xbb10610a	-0.0022030496
86	0x3b72883f	0.0037007479
87	0x3d15b8a6	0.036553048
88	0x3d0b716f	0.034043726
89	0x3da7f745	0.0820146
90	0xbc91c0c7	-0.017792119
91	0xbe37b4cf	-0.17940067
92	0xbdae0f06	-0.08498959
93	0x3d84148d	0.06449232
94	0xbe7bc3d1	-0.24586417
95	0xbe1a110c	-0.15045565
96	0xbdc1da9b	-0.09465524
97	0x3c6c0090	0.014404431
98	0xbd60abd1	-0.054851357
99	0x3d159426	0.03651824
100	0x3c4a6e94	0.012355465
101	0x3cc6bc36	0.024259668
102	0x3ce1b7c0	0.02755344
103	0xbd81a7d1	-0.063308366
104	0x3c9adf29	0.01890524
105	0x3d7aff29	0.061278496
106	0xbdbd29ac	-0.09236464
107	0x3e0b7174	0.13617498
108	0xbca69bfb	-0.02033805
109	0x3e3dd051	0.18536498
110	0x3cd547aa	0.026035149
111	0x3d6e9169	0.058244143
112	0xbe1b3eb6	-0.15160641
113	0x3bca82b0	0.00618013
114	0xbebb1443	-0.36538896
115	0x3d9e95e1	0.07743431
116	0xbeafa1c6	-0.3430311
117	0xbd8ef667	-0.06980591
118	0x3c40e35e	0.011772959
119	0x3dbb7463	0.091530584
120	0x3e53d863	0.20688014
121	0x3da44302	0.08020593
122	0x3c078899	0.0082723135
123	0x3cf91d02	0.03040934
124	0x3e7cc796	0.24685511
125	0x3d84f261	0.064915426
126	0x3e8161ab	0.25269827
127	0xbdf97d26	-0.12182073
128	0xbdccfb0b	-0.1000882
129	0xbe0931dc	-0.13397926
130	0x3d099191	0.03358609
131	0xbe276677	-0.16347681
132	0x3e45f40f	0.19331382
133	0xbc374a85	-0.0111872
134	0x3e5eda12	0.21762875
135	0xbe072e49	-0.1320125
136	0x3e2013ff	0.15632628
137	0x3c5d231d	0.013497141
138	0xbd7f07fc	-0.062263474
139	0xbc12257a	-0.008920068
140	0xbebebe2d	-0.37254468
141	0x3d2e010a	0.04248146
142	0xbe263bca	-0.16233745
143	0xbd2879c9	-0.04113177
144	0xbc01ea45	-0.007929389
145	0xbbbbe2ea	-0.0057338374
146	0x3df523b0	0.119696975
147	0x3d7b61a8	0.06137243
148	0x3db39604	0.087688476
149	0x3e2ab4df	0.1667056
150	0xbdc601ef	-0.096683376
151	0x3ded0183	0.11572554
152	0x3d1d31cf	0.03837758
153	0xbd82e973	-0.06392183
154	0xbc840ead	-0.01612028
155	0xbdc2c6ee	-0.09510599
156	0xbc9df264	-0.01928062
157	0x3cfc366d	0.030787671
158	0xbc9e490d	-0.019321943
159	0xbe2ad00c	-0.16680926
160	0x3e20c88f	0.15701507
161	0xbd3d0f0f	-0.04615694
162	0xbdc4ab90	-0.096030354
163	0x3c113808	0.008863457
164	0xbe120213	-0.14258604
165	0x3dc0d198	0.09414977
166	0xbd553854	-0.05205567
167	0xba9ad12d	-0.0011811607
168	0xbbae2792	-0.0053147757
169	0xbd89cc13	-0.06728377
170	0xbd6149ce	-0.055002026
171	0xbd5e2fbc	-0.05424474
172	0x3d14c731	0.036322776
173	0xbdf6bbae	-0.12047516
174	0xbbd72344	-0.0065654833
175	0x3d6d59bb	0.0579469
176	0xbe010903	-0.12601094
177	0xbd9eeeeb	-0.07760414
178	0x3959e371	0.00020779461
179	0x3c062ae9	0.0081889415
180	0x3d07a9cb	0.03312091
181	0xbd9cbf04	-0.07653621
182	0x3c9d4de7	0.019202186
183	0xbd74ccdd	-0.059765685
184	0xbc38609f	-0.011253505
185	0x3b762dd3	0.0037563934
186	0x3d386311	0.045016352
187	0xbdd6cb85	-0.10488037
188	0xbdeb2bd6	-0.114829704
189	0x3cf9c91f	0.03049141
190	0x3bb6a1d1	0.0055734892
191	0x3d12cd3e	0.035840265
192	0x3d756c15	0.05991753
193	0xbd2d9612	-0.042379446
194	0xbd3686e0	-0.04456222
195	0xbc1fec83	-0.009760979
196	0xbd857ea2	-0.06518294
197	0x3d7ca15a	0.061677314
198	0x3d1a5e17	0.037687387
199	0xbd669e83	-0.056303512
200	0x3c63bc3a	0.013899857
201	0xbe0799f2	-0.13242319
202	0xbd266fbb	-0.0406339
203	0x3c24a447	0.010048932
204	0xbddb479b	-0.10707017
205	0xbda63b79	-0.08116812
206	0x3c5214ac	0.012822311
207	0xbda7db3c	-0.081961125
208	0xbdca9609	-0.09891898
209	0x3d982ad1	0.074300416
210	0xbdd3fc31	-0.10350836
211	0xbd5c8bef	-0.05384439
212	0xbd9ea5b6	-0.077464506
213	0xbd503bbb	-0.050838213
214	0xbdae3648	-0.08506447
215	0x3d8f1ef6	0.06988327
216	0x3d10d10e	0.03535562
217	0xbc4e16c2	-0.012578668
218	0xbcc91183	-0.024544483
219	0xbd9904c7	-0.07471614
220	0xbe0041a7	-0.12525044
221	0xbe044c20	-0.12919664
222	0x3ddce817	0.10786455
223	0xbd359047	-0.044327047
224	0x3ccc56c9	0.024943726
225	0x3c673308	0.014111288
226	0xbda3c178	-0.079958856
227	0xbd7e970f	-0.06215578
228	0x3dbaeb70	0.091269374
229	0xbc1e042c	-0.009644549
230	0xbc07e2d6	-0.008293828
231	0x3c9099c2	0.017651442
232	0x3dbeaffc	0.0931091
233	0xbd6fd2bf	-0.058550593
234	0xbda426be	-0.08015202
235	0xbdfaae8a	-0.12240322
236	0x3d009131	0.031388465
237	0xbe0e1151	-0.13873793
238	0xbdf84430	-0.12122381
239	0xbd33ec28	-0.043926388
240	0x3dedae43	0.116055034
241	0xbd837faf	-0.06420838
242	0x3dcb0a12	0.0991403
243	0x3da19c84	0.07891181
244	0xbdb25964	-0.08708456
245	0x3aa09ef4	0.0012254403
246	0x3c923831	0.01784906
247	0xbdb55fa7	-0.08856135
248	0x3bcdddd1	0.006282546
249	0x3d2afb04	0.041743293
250	0xbe0698cd	-0.13144226
251	0xbbda1dad	-0.0066563697
252	0xbdc60cde	-0.09670423
253	0xbc84f0f3	-0.016228175
254	0xbd8cd3cc	-0.068763345
255	0x3c477893	0.012174743

fc1.bias f4 [128]
0	0xbe031c42	-0.12803748
1	0xbe172c32	-0.14762953
2	0xbddf14fa	-0.10892673
3	0x3db7cfe4	0.08975199
4	0x3cfea847	0.0310861
5	0x3da62b0d	0.0811368
6	0xbd2f93a7	-0.04286542
7	0x3d814466	0.06311874
8	0xbdf6dcae	-0.1205381
9	0x3e183a27	0.14865933
10	0x3cb372ad	0.021905268
11	0xbd64546e	-0.05574458
12	0xbda0493c	-0.07826468
13	0x3da0b30b	0.0784665
14	0x3d2c5909	0.042077098
15	0xbd123f96	-0.03570517
16	0xbddf7c4a	-0.10912378
17	0x3dace6f7	0.084424905
18	0x3d545d18	0.051846594
19	0xbd19fd7e	-0.037595265
20	0x3d12b7d3	0.03581984
21	0xbddb7dc7	-0.107173495
22	0xbdde97ba	-0.10868783
23	0xbc9c7e88	-0.019103304
24	0x3c875548	0.016520157
25	0x3c70f72c	0.014707368
26	0xbd55e94e	-0.05222445
27	0xbd4f98b4	-0.05068274
28	0xbd92db91	-0.07170785
29	0x3c7ee8dc	0.015558448
30	0xbdac5266	-0.08414154
31	0xbd251fed	-0.04031365
32	0xbd4fbe01	-0.05071831
33	0xbd8992a6	-0.06717424
34	0x3d8c231a	0.068426326
35	0xbd75c171	-0.059998933
36	0xbcd69a3d	-0.026196593
37	0x3b38d051	0.0028200338
38	0xbd208918	-0.039193243
39	0xbcbce8de	-0.023060258
40	0xbd35bdfa	-0.04437063
41	0xbd6bab18	-0.057536215
42	0xbd2ccafa	-0.04218576
43	0x3d148882	0.036262996
44	0xbe117c6d	-0.14207621
45	0x3bbb6655	0.005718986
46	0x3e15f3de	0.14643809
47	0xbd3e9420	-0.04652798
48	0x3a81c545	0.000990071
49	0xbdcd76ee	-0.1003245
50	0xbd2bdbeb	-0.041957777
51	0xbb49991d	-0.0030761429
52	0x3c0c5fa3	0.008567723
53	0xbdd729c6	-0.105060145
54	0xbdebf72c	-0.11521754
55	0x3b99bd3a	0.004691747
56	0xbdbeb386	-0.09311585
57	0xbcf0fe01	-0.029417994
58	0x3d91229f	0.070866816
59	0x3d684b64	0.056712523
60	0xbca797cb	-0.020458123
61	0xbd226880	-0.03965044
62	0xbe047006	-0.12933359
63	0xbb5c1a8e	-0.0033585164
64	0xbda40116	-0.080080196
65	0xbd0043cb	-0.031314652
66	0x3d6a1838	0.057152003
67	0xbdf5fe86	-0.12011437
68	0xbde2f76a	-0.11082347
69	0x3bf6f868	0.0075369366
70	0x3e21aff4	0.15789777
71	0xbc0f78af	-0.008756801
72	0xbd9526c6	-0.07282786
73	0xbd2311ff	-0.039812084
74	0x3ddc9d7c	0.10772225
75	0xbddb3c24	-0.1070483
76	0x3d990701	0.07472039
77	0x3d636d50	0.05552417
78	0xbe010cf4	-0.12602597
79	0xbe001e09	-0.12511458
80	0x3b8eab11	0.004353889
81	0xbdb5fb36	-0.08885805
82	0x3d8876a0	0.06663251
83	0xbadeeb8d	-0.0017007455
84	0xbdf39a80	-0.11894703
85	0x3d019c7c	0.031643376
86	0x3bb506b3	0.0055244802
87	0xbe07aaab	-0.13248698
88	0xbdddd402	-0.10831453
89	0xbd19ac22	-0.037517674
90	0xbd1fa936	-0.03897973
91	0xbdb3b3b6	-0.087745115
92	0xbdd2f369	-0.10300333
93	0x3d0e89e8	0.034799486
94	0x3d6a232a	0.05716244
95	0x3d234505	0.039860744
96	0xbd6b27d3	-0.057411026
97	0x3de14c09	0.11000831
98	0x3cab0e89	0.020880954
99	0xbe27ce62	-0.16387323
100	0x3d6574c6	0.056019567
101	0x3c5a9d6f	0.013343199
102	0xbdeb7ea8	-0.11498767
103	0xbd17b71e	-0.03703987
104	0xbba567ec	-0.005047789
105	0xbd881b47	-0.06645828
106	0xbda91eb6	-0.08257811
107	0x3d35cca4	0.044384614
108	0xbd257f38	-0.04040453
109	0x3d7b068a	0.061285533
110	0xbd0e81e2	-0.034791835
111	0x3d0f7ef4	0.03503318
112	0xbb3cb22e	-0.0028792727
113	0x3d44678b	0.04795031
114	0x3d28771e	0.041129224
115	0x3d0b7c1f	0.034053918
116	0x3d306e24	0.04307379
117	0x3d40fc64	0.0471157
118	0xbd29c7e9	-0.041450415
119	0xbb82c0b1	-0.0039902558
120	0xbdc81d09	-0.09771163
121	0x3da80aee	0.0820521
122	0x3cb6ce74	0.022315241
123	0xbd267e26	-0.04064765
124	0xbda2692e	-0.07930218
125	0xbd9cb741	-0.076521404
126	0x3ce699fb	0.028149595
127	0xbd542aad	-0.05179851

fc2.weight f4 [128, 128]
0	0xbd75f9e0	-0.060052752
1	0x3de2164b	0.11039408
2	0xbcf3b12f	-0.029747574
3	0x3d48f0bc	0.049057707
4	0x3c6063a3	0.01369563
5	0xbda3e94e	-0.08003484
6	0xbc8217cc	-0.015880488
7	0x3d84ee3a	0.064907506
8	0xbe758724	-0.23977333
9	0xbe2eb178	-0.17059886
10	0x3d902b4b	0.070395075
11	0xbd9292eb	-0.07156929
12	0x3cd9c460	0.026582897
13	0xbcb65808	-0.022258773
14	0x3e13621d	0.14392896
15	0xbd5fed51	-0.054669682
16	0xbd879806	-0.06620793
17	0x3de092b1	0.10965479
18	0xbd562948	-0.052285463
19	0xbd13de06	-0.03610041
20	0xbd63421e	-0.055482976
21	0xbd6d7e40	-0.05798173
22	0x3d2a8d8b	0.041638892
23	0x3b6a7db2	0.0035780487
24	0xbed4b2b8	-0.41542602
25	0x3d2c10dc	0.042008266
26	0xbc44f133	-0.012020397
27	0xbd5736a5	-0.052542347
28	0xbd14dfef	-0.036346372
29	0xbd8dd38c	-0.06925115
30	0x3d17cc77	0.037060227
31	0x3e2b5454	0.16731387
32	0xbd861b14	-0.065481335
33	0xbd17faf7	-0.037104573
34	0x3ce7d23c	0.02829849
35	0xbc9190a4	-0.017769165
36	0xbd977ac4	-0.073964626
37	0xbe15092b	-0.14554279
38	0x3deb68bb	0.11494585
39	0xbd53f94c	-0.05175142
40	0xbd756f60	-0.05992067
41	0x3d9238bc	0.071397275
42	0x3e30b556	0.17256674
43	0xb94ee89e	-0.00019732348
44	0xbe821a0e	-0.25410503
45	0x3e1891a7	0.14899312
46	0xbd89f38f	-0.06735908
47	0x3d5cf90a	0.05394844
48	0xbddf12ec	-0.10892281
49	0x3d517e59	0.051145885
50	0xbe069953	-0.13144426
51	0xbd10b2ec	-0.035326883
52	0x3c16ac15	0.009196301
53	0xbd2d5de1	-0.042325858
54	0xbdfec26d	-0.124394275
55	0x3dd07af0	0.101796985
56	0xbdafec8e	-0.08590041
57	0xbd018f62	-0.03163088
58	0x3c8df4ab	0.01732858
59	0xbd1e86f3	-0.038702916
60	0xbc505045	-0.01271445
61	0xbd58fd88	-0.05297616
62	0x3d35c7db	0.04438005
63	0xbd5398e7	-0.05165949
64	0xbd82cfe5	-0.06387309
65	0xbd7e96ee	-0.062155657
66	0x3d5f5eed	0.054533888
67	0x3c89ebe4	0.016836114
68	0x3d75c06c	0.05999796
69	0xbcf3a02e	-0.029739466
70	0xbd334083	-0.043762695
71	0xbd01d507	-0.0316973
72	0xbac9d8fa	-0.0015399747
73	0xbd0147c7	-0.031562593
74	0xbc61e0f0	-0.013786539
75	0x3d7a893f	0.061166044
76	0xbe560191	-0.20899035
77	0xbda55af7	-0.08073991
78	0x3d983c40	0.07433367
79	0xbd8dfc7d	-0.06932924
80	0xbcc340a9	-0.023834543
81	0x3e345072	0.17608812
82	0x3ccfe86a	0.025379378
83	0x3d5ea5b4	0.054357246
84	0xbdcbba4a	-0.09947641
85	0xbcce3107	-0.025169862
86	0x3ce38162	0.027771655
87	0x3d9798e2	0.07402207
88	0x3d4e0435	0.05029698
89	0x3d659061	0.056045894
90	0x3d876768	0.0661152
91	0xbca1087f	-0.019657372
92	0xbda24098	-0.079224765
93	0xbd3e3c35	-0.046444137
94	0x3beac211	0.007164248
95	0xbd84ac17	-0.06478136
96	0x3ca0eea6	0.019645046
97	0x3bb9c013	0.005668649
98	0x3d64cb19	0.05585775
99	0xbe0a7099	-0.13519515
100	0xbc29c645	-0.010362213
101	0x3d80253a	0.062571004
102	0xbd7215da	-0.05910287
103	0xbb96b488	-0.0045991577
104	0x3cff809d	0.031189257
105	0xbdf47665	-0.119366445
106	0xbbe32af0	-0.006932609
107	0xbd9b85ec	-0.07593903
108	0x3c2e477a	0.0106371585
109	0xbd780132	-0.060548015
110	0xbd6ced03	-0.05784322
111	0xbed9d8a2	-0.4254809
112	0xbd778f40	-0.06043935
113	0xbde1295d	-0.109942175
114	0x3d8d6203	0.0690346
115	0xbcec58b2	-0.028850887
116	0xbd6d9fab	-0.0580136
117	0x3e3209a5	0.17386492
118	0xbdabb18d	-0.083834745
119	0x3cf7cd03	0.030249124
120	0xbcb0e493	-0.021593368
121	0xbcc1fb5d	-0.02367943
122	0xbae8bf58	-0.001775722
123	0x3d460cf1	0.048352186
124	0xbbd2c377	-0.0064319926
125	0xbdadffbd	-0.08496044
126	0x3baee80a	0.00533772
127	0xbde380a8	-0.111085236
128	0x3d1782de	0.03699004
129	0xbd89dc7c	-0.06731507
130	0xbbd8916a	-0.0066091316
131	0x3d8412ef	0.06448924
132	0x3d62d721	0.055380944
133	0xbce7b4d3	-0.028284466
134	0x3d9fdb35	0.07805482
135	0x3d1d4afb	0.038401585
136	0xbdbb6be9	-0.091514416
137	0xbd3a9a43	-0.04555727
138	0xbd0c1a8b	-0.034205
139	0xbd1960a8	-0.037445694
140	0xbbdddad8	-0.006770473
141	0xbd3676e3	-0.044546973
142	0x3cc7aac7	0.024373425
143	0x3d737c01	0.05944443
144	0xbc5622fc	-0.013069864
145	0xbc85a310	-0.016313106
146	0x3cd216bb	0.025645604
147	0xbda6fc8b	-0.081536375
148	0xbe029324	-0.12751442
149	0x3d967ec9	0.07348401
150	0x3d32a1d2	0.043611355
151	0x3cc65f76	0.024215441
152	0x3d08fe14	0.033445433
153	0x3c803c84	0.015653856
154	0xbd05057a	-0.032475926
155	0xbda9b498	-0.08286399
156	0xbd4ef77d	-0.050528992
157	0x3c9b6f92	0.0189741
158	0xbd850fc9	-0.064971514
159	0xbd2f4746	-0.04279258
160	0xbc083e16	-0.008315584
161	0xbd9b87d0	-0.075942636
162	0xbd916a85	-0.07100395
163	0xbd2d99d6	-0.042383038
164	0xbd6437ec	-0.055717394
165	0xbdb692bf	-0.08914708
166	0x3ad4c610	0.0016233344
167	0xbd9deb48	-0.07710892
168	0xbd1e113d	-0.03859066
169	0xbdfe7342	-0.124243274
170	0xbc6f0aaf	-0.0145899495
171	0x3d143d11	0.03619105
172	0xbbae3b53	-0.0053171306
173	0xbc7a034b	-0.015259574
174	0x3d01ddd3	0.03170569
175	0x3d25bdc1	0.040464167
176	0xbd8fd2f8	-0.07022661
177	0x3d585b38	0.052821368
178	0xbc8a4eed	-0.016883338
179	0xbcc437ac	-0.023952328
180	0x3d8636da	0.06553431
181	0x3c62fb6d	0.01385389
182	0xbcf67791	-0.03008631
183	0xbda0a97e	-0.07844828
184	0xbd6b2a22	-0.057413228
185	0x3d2e7d1e	0.04259979
186	0x3d8bf7e2	0.06834389
187	0x3b40a255	0.0029393632
188	0xbc74b795	-0.0149363475
189	0xbcbf6d8c	-0.023367666
190	0xbd87c5cb	-0.06629523
191	0xbd4d367f	-0.0501008
192	0xbc0b34b9	-0.008496457
193	0x3da83a71	0.08214272
194	0x3db354c6	0.087564036
195	0x3d9123f5	0.070869364
196	0xbd6e1240	-0.058122873
197	0xbda710bc	-0.08157489
198	0xbdd1a40f	-0.1023637
199	0x3ceed1f4	0.029152848
200	0x3c71f99e	0.014768986
201	0x3d0abd85	0.033872146
202	0xbc72c3e1	-0.014817209
203	0xbd47869f	-0.04871237
204	0xbd95e3c9	-0.07318837
205	0x3ccc167c	0.024913065
206	0x3d489c8f	0.04897743
207	0x3d100861	0.03516424
208	0xbda710e5	-0.08157519
209	0xbd4cd43a	-0.050007083
210	0xba988d82	-0.0011638852
211	0xbda1ebd7	-0.07906311
212	0xbd98fc48	-0.07469994
213	0xbd4d1056	-0.050064407
214	0xbd172631	-0.036901657
215	0x3cc0c187	0.023529781
216	0x3c861165	0.016365716
217	0xbd8c2ceb	-0.06844505
218	0xbbe1e94a	-0.0068942653
219	0xbd73e11a	-0.059540845
220	0xbdadee08	-0.084926665
221	0x3cae4b79	0.021276223
222	0xbd06266e	-0.032751493
223	0x3d9b95e6	0.0759695
224	0xbd7c8f23	-0.061659943
225	0x3cb66909	0.022266882
226	0xbcd5d01e	-0.026100215
227	0xbc63d910	-0.013906732
228	0x3d99a1fd	0.075016
229	0xbbdac19e	-0.006675913
230	0xbd52ed0f	-0.051495608
231	0x3d8b6fd2	0.068084374
232	0x39900726	0.00027471146
233	0x3ab3c290	0.00137146
234	0x3bdccf71	0.006738596
235	0xbd19fb6a	-0.037593283
236	0x3cb00e47	0.021491183
237	0xbcc66238	-0.024216756
238	0xbd4c0040	-0.049804926
239	0xbd211fd2	-0.039336987
240	0x3d8ea131	0.069643386
241	0xbb997c2a	-0.004683991
242	0xbd70422c	-0.058656856
243	0x3d9dd1ac	0.07706007
244	0xbdbde512	-0.09272207
245	0xbd7c7029	-0.0616304
246	0xbd0083e9	-0.0313758
247	0xbd2b5f29	-0.0418388
248	0x3da2bb97	0.07945936
249	0x3d0d104c	0.03443937
250	0xbdbaf7ed	-0.09129319
251	0x3d70c352	0.058780022
252	0xbdb05128	-0.08609229
253	0x3da1724c	0.078831285
254	0xbcda9944	-0.02668441
255	0x3cc5945d	0.024118597

fc2.bias f4 [128]
0	0xbcf462a8	-0.0298322
1	0xbd83af84	-0.06429961
2	0xbdf9ac21	-0.12191034
3	0xbb854882	-0.0040674815
4	0x3e3b2bd6	0.18278441
5	0xbca8c2f6	-0.020600777
6	0x3d6bc0a8	0.05755678
7	0xbdd206bf	-0.10255193
8	0x3d3fcea2	0.04682792
9	0xbe4d1553	-0.20027666
10	0xbdfc5910	-0.12321675
11	0xbe33e2db	-0.17567007
12	0x3d68b664	0.056814566
13	0xbdc5728d	-0.096409895
14	0x3ca9972e	0.02070197
15	0x3e854290	0.26027346
16	0x3caffb3a	0.021482099
17	0x3eb20f4d	0.347773
18	0xbdce692a	-0.10078652
19	0x3e35e2e4	0.17762333
20	0xbe029a7b	-0.12754242
21	0x3d4c6eac	0.049910232
22	0xbe835b5d	-0.25655642
23	0xbd2edc4d	-0.042690564
24	0xbcdc43bd	-0.026887769
25	0x3e6692ce	0.22516939
26	0x3e30aa4d	0.17252465
27	0xbd35f75e	-0.04442536
28	0x3d5bf59f	0.05370104
29	0xbd5b7a50	-0.053583443
30	0xbd5b92e1	-0.05360687
31	0x3e8ff225	0.2811443
32	0xbd99bebc	-0.07507083
33	0xbd47536d	-0.048663545
34	0xbdcbeda3	-0.09957435
35	0xbca261c2	-0.019822005
36	0xbdf4d3d2	-0.11954464
37	0xbcc76d4b	-0.024344107
38	0xbd71a608	-0.05899623
39	0xbdc89512	-0.09794058
40	0xbe2afa36	-0.1669701
41	0xbe53150f	-0.20613502
42	0x3e429732	0.19002989
43	0xbe480f4c	-0.19537085
44	0xbd0c6ce9	-0.034283552
45	0x3e803773	0.25042304
46	0xbd364108	-0.044495612
47	0xbd1cad75	-0.03825136
48	0x3d23c49e	0.03998243
49	0xbd4204e6	-0.047367953
50	0xbda4a1bd	-0.08038662
51	0xbd61aeaf	-0.055098232
52	0xbd67f9a1	-0.05663455
53	0xbe23e950	-0.1600697
54	0x3e1d92db	0.15388052
55	0xbd46a754	-0.04849942
56	0xbe0d417b	-0.1379451
57	0x3e662ac9	0.22477259
58	0x3dd42a0e	0.10359584
59	0x3d9b3231	0.075779326
60	0x3e94cda9	0.29063156
61	0x3c5ada7e	0.013357757
62	0xbdd5dfc5	-0.10443071
63	0xbdbf7b2b	-0.09349664
64	0x3e0ed142	0.13947013
65	0xbde84b60	-0.11342502
66	0xbc7ded65	-0.015498494
67	0xbdfdef50	-0.12399161
68	0xbe33baea	-0.17551771
69	0x3e570acf	0.21000217
70	0xbe685ec7	-0.22692405
71	0xbc5a579e	-0.013326554
72	0xbd676961	-0.05649698
73	0xbde430e5	-0.111421384
74	0xbd990907	-0.07472425
75	0x3d29742e	0.041370563
76	0x3e9720ce	0.29517215
77	0xbd287ebe	-0.041136496
78	0x3c8990d9	0.016792702
79	0xbcbc7e26	-0.023009371
80	0xbda52efc	-0.08065602
81	0x3d5eacb0	0.054363906
82	0x3d3b7047	0.045761373
83	0xbcdf1c8a	-0.027235288
84	0x3d5af74d	0.0534585
85	0x3eb12aeb	0.34603056
86	0x3e37e9e3	0.17960314
87	0x3e51c5d0	0.20485616
88	0x3cc302e7	0.023805095
89	0x3cd51ff4	0.026016213
90	0x3c2cea29	0.010553875
91	0xbcb4f203	-0.022088056
92	0x3d02f31f	0.03197014
93	0xbe2cde70	-0.16881728
94	0xbe35bc84	-0.17747694
95	0xbdd87204	-0.10568622
96	0xbd4382e8	-0.047732264
97	0x3b8679a4	0.004103856
98	0x3e553904	0.20822531
99	0xbb5691ff	-0.003274083
100	0xbc48d9e6	-0.012258982
101	0xbe587629	-0.21138825
102	0xbe43c5e4	-0.19118458
103	0xbe1febad	-0.15617247
104	0xbd5979ac	-0.05309455
105	0xbd564ce2	-0.052319415
106	0xbe1c84e0	-0.15285063
107	0x3e102ba9	0.14079155
108	0x3e4db9ba	0.2009038
109	0xbdff1740	-0.124556065
110	0xbde60818	-0.112320125
111	0xbdb03bac	-0.086051315
112	0x3e092853	0.13394289
113	0xbb21909c	-0.0024652844
114	0xbe00966a	-0.12557378
115	0x3e30f7d1	0.17282034
116	0x3e404736	0.18777165
117	0x3d4103b9	0.04712269
118	0xbd9918ed	-0.07475457
119	0x3c8b2c3a	0.016988862
120	0xbc0dfc82	-0.00866616
121	0xbd84d7e8	-0.06486493
122	0x3d6ae731	0.057349388
123	0xbd8fc00b	-0.07019051
124	0x3e0cfb9d	0.13767858
125	0x3e3b6237	0.18299185
126	0x3de9be6f	0.114132755
127	0xbd4c7f62	-0.04992617
