saved_models/episode_200/agent_9.pth (torch, 738018 bytes, 44 tensors)

fc1.weight f4 [128, 5]
-0.087422006 -0.059132006 0.067776896 0.37064564 0.0061662276 0.22130887 -0.05031805 0.15002866
0.20682782 0.1978782 -0.42714825 0.12055564 0.42118317 -9.505804e-06 -0.2808023 -0.23222089
-0.35632408 -0.27393264 0.21381462 -0.43040073 -0.03683307 -0.18107674 0.0883355 0.07829791
0.028336242 0.35778055 0.41888088 -0.21028809 0.17939688 0.22568384 0.4355822 -0.14669259
-0.4336426 -0.043815117 0.3886706 -0.07518204 -0.17521302 0.108273394 -0.44457015 -0.37226403
0.36240503 0.1628491 -0.3162911 0.13042335 -0.3787432 -0.42838943 0.21552502 0.049693033
-0.15984078 -0.34223777 0.32384557 0.34925115 -0.16217971 0.16964887 0.11733223 0.08055703
0.1390572 0.36930218 -0.100776434 0.33278888 0.30611572 -0.0060501783 -0.30406216 0.26368654
0.023636147 -0.42503732 -0.34348914 0.27845362 -0.39459383 -0.03181549 -0.2201746 -0.14768168
0.060725015 0.30090415 0.085376576 0.06593204 0.29310015 0.1400555 -0.42974406 0.08663405
-0.10663321 0.26843056 0.27055335 -0.21359652 -0.1713164 0.027230727 -0.267028 0.13206947
0.36035934 -0.2619306 -0.22954383 0.30534413 -0.23572335 0.33438143 -0.26232812 -0.33297652
-0.02897846 0.35368988 0.30709505 0.30657262 -0.10408709 -0.32502484 0.36569068 -0.037105497
-0.3646435 0.26614642 -0.24146594 -0.31924406 0.014084768 0.11783747 -0.1338844 -0.16496773
-0.38737813 0.27021798 -0.4448049 0.18000692 -0.20272237 0.13407686 0.4501507 0.39521682
-0.1539457 -0.3734619 -0.24317896 -0.13412967 -0.3427423 0.19869572 -0.28499812 0.14910921
0.14926891 0.06272473 0.37342635 -0.33466497 0.35126477 0.24353915 0.04818713 -0.4407405
0.09025512 -0.44512805 0.31002167 0.085665636 -0.2232447 0.017990338 -0.18823843 0.3818013
0.024709212 -0.08799423 0.37067604 0.25805727 0.09835628 -0.024365509 0.103627235 0.44649842
-0.34013504 0.16568604 -0.17513408 0.073970415 -0.3824824 0.08687543 0.2792259 -0.24111782
-0.16555358 -0.38953468 -0.42954412 0.00616804 -0.04512718 -0.25390226 -0.13866031 -0.015138484
0.4098532 0.32191974 0.061806917 -0.0056048227 -0.41269153 0.011228003 0.37912193 0.11122076
-0.21243241 0.28781566 0.4532434 -0.3968677 0.44421616 -0.011148502 -0.3233106 -0.39783642
-0.43827376 -0.19710864 0.06089564 -0.2961612 -0.007892855 0.19282582 0.29226187 0.4146768
0.3754714 -0.04599639 -0.4173945 -0.17363109 -0.19206503 -0.18371348 0.0638996 0.39327973
0.11760401 -0.29342982 -0.22796148 -0.3869357 -0.23219995 -0.11788358 0.4338778 0.34519163
0.052274548 -0.34890452 0.33980986 -0.23647657 -0.42910755 0.2431549 -0.10057802 -0.43246818
0.2520107 0.07987494 -0.17171341 -0.337572 -0.03301288 -0.12844457 0.15221336 -0.13878402
-0.36365527 0.29095864 0.07413408 -0.04184751 0.10168859 -0.07643573 -0.015580405 -0.34647208
0.040614966 -0.04596429 0.010511103 -0.14790033 -0.18281399 0.3552495 0.30303594 0.43016478
-0.37262645 -0.14911723 0.23241831 0.2636018 0.4323787 -0.4199456 0.25557503 0.30011892
0.43867844 -0.15829675 0.06985127 -0.16094704 0.30364272 -0.2579802 -0.11499348 -0.28104514
00000000: 4f0a b3bd 6734 72bd 9dce 8a3d 44c5 bd3e
00000010: 110e ca3b cb9e 623e 4d1a 4ebd 1da1 193e
00000020: acca 533e 95a0 4a3e 2db3 dabe e0e5 f63d
00000030: 52a5 d73e 1e7b 1fb7 52c5 8fbe 50cb 6dbe
00000040: 1c70 b6be e640 8cbe 38f2 5a3e 7c5d dcbe
00000050: 46de 16bd 2e6c 39be 3ee9 b43d a85a a03d
00000060: 6821 e83c 032f b73e 8e77 d63e c355 57be
00000070: d1b3 373e aa19 673e a104 df3e 9536 16be
00000080: 6706 debe 7b77 33bd d5ff c63e 0bf9 99bd
00000090: 0b6b 33be 71be dd3d b39e e3be 6499 bebe
000000a0: 278d b93e eac1 263e e8f0 a1be b38d 053e
000000b0: a1ea c1be dc55 dbbe 97b2 5c3e ec8a 4b3d
000000c0: 4dad 23be ca39 afbe 16cf a53e 0cd1 b23e
000000d0: 7012 26be 6fb8 2d3e e14b f03d 16fb a43d
000000e0: 0365 0e3e 2d15 bd3e e063 cebd 4e63 aa3e
000000f0: 33bb 9c3e 9340 c6bb 09ae 9bbe ec01 873e
00000100: 98a0 c13c 7e9e d9be cfdd afbe 7991 8e3e
00000110: 3408 cabe f650 02bd 7375 61be de39 17be
00000120: cbba 783d 1c10 9a3e ead9 ae3d 6107 873d
00000130: 3911 963e b66a 0f3e 6a07 dcbe 316d b13d
00000140: 8362 dabd bb6f 893e f885 8a3e 0cb9 5abe
00000150: 916d 2fbe f912 df3c e5b7 88be 383d 073e
00000160: 0581 b83e c51b 86be 8a0d 6bbe 1156 9c3e
00000170: 7661 71be 0b34 ab3e df4f 86be e67b aabe
00000180: 3c64 edbc d716 b53e 903b 9d3e 16f7 9c3e
00000190: 9d2b d5bd a869 a6be cf3b bb3e effb 17bd
000001a0: 8eb2 babe 5844 883e d942 77be f573 a3be
000001b0: ccc3 663c c554 f13d fe18 09be 4ded 28be
000001c0: 6d56 c6be 035a 8a3e 78bd e3be bc53 383e
000001d0: 7496 4fbe 724b 093e 277a e63e dc59 ca3e
000001e0: f1a3 1dbe 6636 bfbe e803 79be 4a59 09be
000001f0: eb7b afbe e476 4b3e 46eb 91be 16b0 183e
00000200: f3d9 183e d375 803d bd31 bf3e 3559 abbe
00000210: fad8 b33e 5462 793e de5f 453d bda8 e1be
00000220: add7 b83d d3e7 e3be 29bb 9e3e 7771 af3d
00000230: 429a 64be 7960 933c 93c1 40be 767b c33e
00000240: f96a ca3c 5236 b4bd 40c9 bd3e 1520 843e
00000250: 046f c93d 2d9a c7bc 843a d43d 719b e43e
00000260: 2e26 aebe 9aa9 293e 5956 33be cd7d 973d
00000270: bcd4 c3be bfeb b13d b2f6 8e3e 97e7 76be
00000280: e186 29be 1771 c7be 35ed dbbe 451d ca3b
00000290: 47d7 38bd 7aff 81be f8fc 0dbe 6707 78bc
000002a0: 47d8 d13e aad2 a43e 4029 7d3d a9a8 b7bb
000002b0: 4e4c d3be a8f5 373c 451c c23e b6c7 e33d
000002c0: e287 59be 935c 933e 850f e83e 3e32 cbbe
000002d0: 4d70 e33e 35a8 36bc f888 a5be 37b1 cbbe
000002e0: 6b65 e0be d9d6 49be b56d 793d 71a2 97be
000002f0: 0951 01bc 2274 453e 59a3 953e 8450 d43e
00000300: ca3d c03e b666 3cbd bbb4 d5be 59cc 31be
00000310: b2ac 44be 631f 3cbe cbdd 823d f65b c93e
00000320: 5fda f03d 6f3c 96be bc6e 69be 701c c6be
00000330: d3c5 6dbe f26c f1bd 3b25 de3e f5bc b03e
00000340: d61d 563d 9da3 b2be 8ffb ad3e ea26 72be
00000350: fcb3 dbbe 99fd 783e d9fb cdbd 786c ddbe
00000360: 8c07 813e 7995 a33d a4d5 2fbe 3dd6 acbe
00000370: 8338 07bd f986 03be d2dd 1b3e 661d 0ebe
00000380: 0631 babe 88f8 943e 9cd3 973d 4b68 2bbd
00000390: 1c42 d03d 568a 9cbd f444 7fbc ca64 b1be
000003a0: e15b 263d 0d45 3cbd c336 2c3c 2f73 17be
000003b0: 9733 3bbe 43e3 b53e 8727 9b3e 8f3e dc3e
000003c0: e5c8 bebe 30b2 18be 11ff 6d3e d1f6 863e
000003d0: be60 dd3e 1c03 d7be bbda 823e 30a9 993e
000003e0: 769a e03e 8b18 22be 2f0e 8f3d 4dcf 24be
000003f0: 0f77 9b3e fb15 84be b481 ebbd 26e5 8fbe

fc1.bias f4 [128]
-0.40881374 -0.33829457 -0.45642164 -0.054318942 -0.3181072 0.4462884 -0.303523 -0.39482296
0.32238537 -0.36330318 0.1940028 -0.1594202 0.40975922 -0.032693807 0.18360016 0.09327463
-0.10089418 0.23190288 -0.36468136 0.051698357 0.03267555 0.23338678 0.38905045 0.19706616
-0.1681149 -0.23051535 -0.35986528 -0.3779355 -0.3856479 -0.17783876 -0.20290811 -0.4160399
-0.020694232 -0.3692997 -0.08992154 0.28883892 0.16110736 -0.27388915 0.0057275165 0.09681634
0.13049848 0.36273012 0.25267562 -0.3375973 0.27357328 -0.12269058 0.17114176 -0.047361378
0.17750409 0.30631682 -0.3627018 -0.20272271 0.19689795 0.45268416 0.098537244 -0.106934145
-0.41764548 0.418115 0.37025425 0.094312444 0.00520305 -0.33939472 0.19014406 0.043182045
-0.3255141 0.22544664 -0.06786318 0.17987785 -0.380302 0.40333715 0.2931059 0.14691848
0.1007867 -0.021961508 -0.060145006 0.100439355 -0.124328226 0.2083781 -0.17362125 -0.06461974
-0.10517895 0.08212129 -0.25365615 -0.08584114 0.036688704 -0.27147266 -0.0901927 0.36178973
-0.004038705 -0.023299169 -0.0052068 -0.052551307 0.25416157 0.018836597 -0.012059644 0.42181638
0.39649677 -0.078513056 -0.2774339 -0.21815278 0.36748967 -0.41682893 -0.18399453 -0.33080977
0.05974001 -0.14241473 -0.22567777 0.39083993 0.23565607 -0.30036843 0.3550546 -0.20900314
0.3102919 0.12263453 -0.26913434 0.20657396 -0.024240343 0.079056785 -0.09033956 0.082691334
-0.12712675 0.4291407 0.21250398 0.43233895 0.12527058 -0.25901243 -0.2863855 -0.4011642
00000000: 0950 d1be f234 adbe 19b0 e9be 8a7d 5ebd
00000010: f2de a2be ea7f e43e 5e67 9bbe 3c26 cabe
00000020: b20f a53e e002 babe aca8 463e 0d3f 23be
00000030: f6cb d13e f1e9 05bd ae01 3c3e c506 bf3d
00000040: 9ca1 cebd f377 6d3e 84b7 babe a8c1 533d
00000050: ccd6 053d f2fc 6e3e 9f31 c73e b6cb 493e
00000060: 5026 2cbe 370c 6cbe 4340 b8be c380 c1be
00000070: a473 c5be 5d1b 36be 25c7 4fbe 2f03 d5be
00000080: f386 a9bc da14 bdbe c928 b8bd b2e2 933e
00000090: 54f9 243e 333b 8cbe e4ad bb3b a547 c63d
000000a0: 65a1 053e c3b7 b93e b35e 813e 8ed9 acbe
000000b0: cc11 8c3e 3345 fbbd c93f 2f3e 01fe 41bd
000000c0: a2c3 353e 8fd5 9c3e 0db4 b9be 8b96 4fbe
000000d0: 9e9f 493e 38c6 e73e e5cd c93d 4a00 dbbd
000000e0: a1d5 d5be 2b13 d63e f791 bd3e e226 c13d
000000f0: 597e aa3b 25c5 adbe 20b5 423e a8df 303d
00000100: c9a9 a6be 7cdb 663e dafb 8abd e631 383e
00000110: f2b6 c2be 3582 ce3e fa11 963e cc71 163e
00000120: 4269 ce3d 9fe8 b3bc 9c5a 76bd 26b3 cd3d
00000130: cc9f febd 1261 553e c5c9 31be 5b57 84bd
00000140: 1068 d7bd 352f a83d 38df 81be 7bcd afbd
00000150: e546 163d 77fe 8abe f3b6 b8bd 813c b93e
00000160: 1d57 84bb e6dd bebc ce9d aabb 0a40 57bd
00000170: 7721 823e 354f 9a3c d095 45bc 51f8 d73e
00000180: a001 cb3e 74cb a0bd d10b 8ebe 7163 5fbe
00000190: 9b27 bc3e 9a6a d5be 1069 3cbe e65f a9be
000001a0: f1b1 743d 2bd5 11be 1318 67be 2c1c c83e
000001b0: d34f 713e e4c9 99be b7c9 b53e eb04 56be
000001c0: 94de 9e3e d027 fb3d facb 89be 2088 533e
000001d0: af93 c6bc 86e8 a13d f203 b9bd 135a a93d
000001e0: 842d 02be 54b8 db3e a59a 593e 885b dd3e
000001f0: ee46 003e 479d 84be 1fa1 92be 6565 cdbe

fc2.weight f4 [128, 128]
0.081449226 -0.014967105 -0.0067237145 -0.039183937 0.0769482 0.09270787 -0.030503497 -0.009527432
0.0072193714 0.015487681 0.0809987 -0.045584813 0.06440151 -0.026481697 0.019212075 0.0075230277
-0.02893534 -0.021112537 -0.06993388 0.04595821 -0.01151933 -0.022646712 -0.0433264 0.018416347
0.046855558 0.08396864 0.06609453 0.038985316 -0.046145227 0.045657877 -0.027259098 0.07223001
0.0018982624 -0.001233332 0.026154079 0.012938346 0.07720466 -0.08455544 0.014529852 -0.05008017
-0.06801955 0.001049743 0.023461131 0.05629529 0.08908478 -0.0067086034 0.030607956 0.010244988
-0.0174454 0.032286372 0.018822372 -0.05789415 -0.021963893 -0.06836815 0.06840247 0.004757431
0.072812535 0.09141751 0.02661043 -0.040429894 -0.0068190643 -0.029376749 0.007946189 -0.01680207
0.03445534 -0.051012002 0.06149576 -0.064505346 -0.081170075 -0.061538767 -0.065775044 -0.045776088
0.06355136 0.020838546 0.07703348 -0.018194288 0.08599665 -0.069569066 -0.015986811 0.040314972
0.069367625 -0.06343564 -0.01711614 -0.048704147 0.07162886 -0.05175702 0.03525794 -0.07456644
-0.03556786 -0.009149799 0.017206958 0.086503595 0.08238973 -0.009179893 0.049376786 0.007496556
0.040162306 -0.054303896 0.05571473 0.09462303 -0.040033158 0.08760107 -0.039028622 -0.038916923
0.05751655 -0.036510788 -0.011090893 0.03374177 0.01880117 0.032047287 -0.0067737424 0.023181818
0.084229924 0.07431672 0.020832123 -0.06460869 -0.068600304 0.0049449676 0.0850293 -0.06377789
0.02594141 0.083249345 -0.05559502 0.09490252 0.04915862 0.014753325 0.047361705 -0.056333162
-0.0067241844 -0.043408003 0.039324295 0.05222799 0.011754949 0.042409346 0.05228873 -0.022403968
-0.056259513 -0.06619074 0.07877087 0.048547607 -0.050417878 0.076942526 0.013132717 -0.056434672
0.0624428 0.04077759 0.0606422 -0.027603097 0.077295616 0.0059321267 0.05884346 0.019119613
0.086178996 -0.078485504 0.04850145 0.007385344 0.0492652 0.03869728 0.09238559 -0.0003241238
-0.014603619 -0.08979621 0.04009004 0.04765072 -0.0040771067 0.06635497 -0.019520612 -0.035115335
-0.0076127113 0.0081456425 -0.03442764 0.06058523 0.056207247 0.05071656 0.047603376 0.040218543
0.08508711 0.06554989 -0.018114606 0.045526665 -0.07020545 -0.035094716 0.011691853 -0.032709725
0.085803755 0.05608187 0.04878349 -0.06589101 0.03757878 -0.0029106496 -0.060827386 -0.02543367
-0.027465537 0.061564762 -0.08259277 0.053692978 0.017812427 -0.022604328 0.08600914 0.07373923
0.04856355 -0.07988709 -0.033832923 0.059715025 0.057129286 -0.051662393 -0.010087473 0.031534802
-0.030965721 -0.06987911 -0.008074041 -0.058334135 0.029475365 -0.0008951287 -0.009435321 0.04263272
0.08399265 -0.064188235 -0.02710197 0.030324584 -0.056337982 0.041088846 0.019874621 0.023140976
-0.025723545 0.04751908 0.076969974 -0.0016884257 -0.041935664 0.014054783 0.058957003 0.00875884
-0.054754443 0.06677401 0.06733426 0.06763772 0.05634939 0.0634457 0.056363802 0.07823247
-0.074208185 0.013001354 -0.030289222 0.0896569 -0.024255037 0.018688554 -0.02380322 -0.03808986
0.086195394 -0.06757867 0.051629953 -0.012556972 0.06672081 -0.043818813 -0.013969041 -0.05541716
00000000: dace a63d 9738 75bc 9b52 dcbb 567f 20bd
00000010: 0597 9d3d a0dd bd3d 78e2 f9bc f218 1cbc
00000020: 7a90 ec3b 0bc0 7d3c a5e2 a53d 24b7 3abd
00000030: f0e4 833d 25f0 d8bc a462 9d3c bb83 f63b
00000040: ce09 edbc 33f4 acbc 7e39 8fbd ad3e 3c3d
00000050: 92bb 3cbc 9985 b9bc 0677 31bd e1dd 963c
00000060: 9deb 3f3d c0f7 ab3d 925c 873d 11af 1f3d
00000070: c702 3dbd c103 3b3d 794e dfbc 54ed 933d
00000080: 1ecf f83a c1a7 a1ba 1441 d63c 5bfb 533c
00000090: 7a1d 9e3d 672b adbd 9e0e 6e3c dd20 4dbd
000000a0: d54d 8bbd 8897 893a 8f31 c03c e495 663d
000000b0: 1572 b63d d8d3 dbbb 89bd fa3c 98da 273c
000000c0: a8e9 8ebc b73e 043d 6031 9a3c 6b22 6dbd
000000d0: 9fed b3bc 9a04 8cbd 9816 8c3d 39e4 9b3b
000000e0: bd1e 953d 1a39 bb3d 1efe d93c d199 25bd
000000f0: 7572 dfbb 82a7 f0bc bb30 023c 7fa4 89bc
00000100: 0b21 0d3d f6f1 50bd fae2 7b3d 611b 84bd
00000110: 7f3c a6bd 1310 7cbd 11b5 86bd b57f 3bbd
00000120: 3727 823d 99b5 aa3c bbc3 9d3d 300c 95bc
00000130: 031f b03d 3a7a 8ebd c6f6 82bc 5021 253d
00000140: 9d10 8e3d 8bea 81bd 2637 8cbc 007e 47bd
00000150: 27b2 923d 2bff 53bd a16a 103d 4ab6 98bd
00000160: 9baf 11bd 0ae9 15bc 9bf5 8c3c cc28 b13d
00000170: f2bb a83d 4367 16bc 503f 4a3d aba5 f53b
00000180: 3b81 243d c36d 5ebd 2135 643d b8c9 c13d
00000190: cff9 23bd 3168 b33d 7adc 1fbd 5a67 1fbd
000001a0: 7996 6b3d 568c 15bd 94b6 35bc cf34 0a3d
000001b0: e904 9a3c 0444 033d 45f6 ddbb cce7 bd3c
000001c0: bd80 ac3d 5d33 983d 21a8 aa3c 9051 84bd
000001d0: 517e 8cbd 6509 a23b d723 ae3d fb9d 82bd
000001e0: 1483 d43c a27e aa3d 9bb7 63bd 415c c23d
000001f0: 8d5a 493d eeb7 713c 59fe 413d 9abd 66bd
00000200: 8c56 dcbb 97cc 31bd 8312 213d 04ed 553d
00000210: d497 403c 6cb5 2d3d b52c 563d 8788 b7bc
00000220: 6070 66bd 038f 87bd 9f52 a13d dbd9 463d
00000230: fa82 4ebd 0b94 9d3d 9c2a 573c 0b28 67bd
00000240: 05c4 7f3d 6706 273d f563 783d e41f e2bc
00000250: 2a4d 9e3d 4962 c23b d705 713d bca0 9c3c
00000260: 9d7e b03d 02bd a0bd 75a9 463d c100 f23b
00000270: 4eca 493d 0a81 1e3d a834 bd3d 29ef a9b9
00000280: 0544 6fbc 13e7 b7bd 7435 243d 672d 433d
00000290: 4099 85bb 1de5 873d b1e9 9fbc 19d5 0fbd
000002a0: 0d74 f9bb 4d75 053c ff03 0dbd 3828 783d
000002b0: 9239 663d 2bbc 4f3d c2fb 423d 33bc 243d
000002c0: 2742 ae3d 053f 863d 1565 94bc 2b7a 3a3d
000002d0: e0c7 8fbd 7abf 0fbd 308f 3f3c a2fa 05bd
000002e0: e1b9 af3d 1ab6 653d 32d1 473d def1 86bd
000002f0: 35ec 193d 99c0 3ebb 2326 79bd 465a d0bc
00000300: 68ff e0bc 552b 7c3d 6626 a9bd 2bed 5b3d
00000310: 5eeb 913c b62c b9bc 8f25 b03d 9804 973d
00000320: 93ea 463d d89b a3bd 6494 0abd be97 743d
00000330: 6600 6a3d f29b 53bd ee45 25bc a32a 013d
00000340: d3ab fdbc c71c 8fbd fc48 04bc c6ef 6ebd
00000350: 5276 f13c 12a7 6aba 9b96 1abc a69f 2e3d
00000360: 5704 ac3d 1f75 83bd f304 debc 436b f83c
00000370: a8c2 66bd c74c 283d 1ad0 a23c 2592 bd3c
00000380: 2fba d2bc 5ea3 423d 6fa2 9d3d 2a4e ddba
00000390: bbc4 2bbd 0846 663c e67c 713d 3d81 0f3c
000003a0: 3246 60bd d0c0 883d 8be6 893d a585 8a3d
000003b0: 9ece 663d d2ef 813d bbdd 663d 5838 a03d
000003c0: 76fa 97bd a203 553c 1a21 f8bc 099e b73d
000003d0: 80b2 c6bc bd18 993c f8fe c2bc 1d04 1cbd
000003e0: 3687 b03d b066 8abd ee79 533d c2bb 4dbc
000003f0: eca4 883d 5b7b 33bd 68de 64bc 1bfd 62bd

fc2.bias f4 [128]
-0.064095356 0.050353047 0.05647771 -0.04384036 0.013357943 -0.01627666 -0.07325229 -0.03364994
-0.04736783 -0.025325587 0.025841946 -0.05870779 0.049608793 0.08801718 0.07889268 0.079766504
0.05375235 -0.019186953 0.04597001 0.03556569 -0.056076568 -0.073929794 -0.09376085 -0.013547126
0.050782975 -0.07627428 -0.002532787 -0.036776137 -0.010206337 -0.032718945 -0.016112704 0.0017894828
0.022849355 -0.038504474 -0.013405335 0.027424464 -0.014383855 -0.044916686 0.04667212 0.053399462
-0.026619274 0.027932083 0.02449245 0.0738952 -0.045744427 -0.03346929 -0.080918215 0.028879022
0.06226727 -0.07235697 0.039085038 0.012086199 0.0679609 0.046099454 -0.06808193 -0.05655168
0.028165737 -0.06888013 0.087094344 -0.082123 -0.004576466 0.031622164 -0.040088423 0.035695136
-0.043554954 0.05859829 -0.0923881 0.09661391 0.010774546 0.019752828 -0.05124927 0.06312323
-0.040161174 -0.05429619 -0.057507068 -0.027934706 0.0680597 -0.03204835 -0.0056198845 0.06581951
0.020350447 -0.079046935 0.007069941 -0.06755871 -0.02675743 0.06570453 0.05489856 0.08700084
-0.035070915 -0.033583388 0.031890646 0.019016642 -0.05004817 0.050703943 0.010524367 -0.038857646
0.019659404 -0.038235314 -0.02124055 -0.07398437 -0.06544846 -0.023487413 0.019573951 -0.07750262
-0.068241976 0.010659391 0.015375755 -0.035452396 0.041806698 0.008503644 0.071906686 0.013800301
-0.08601241 -0.0775585 0.065352425 0.021324228 -0.00392805 -0.051930573 -0.016247658 -0.029895674
0.060611222 -0.034983918 -0.0067168167 0.024787582 -0.0477783 -0.078800894 0.06474395 -0.026269106
00000000: 6d44 83bd ff3e 4e3d 2c55 673d f391 33bd
00000010: 46db 5a3c a156 85bc 4c05 96bd 85d4 09bd
00000020: c504 42bd 9b77 cfbc 7db2 d33c 9477 70bd
00000030: 9732 4b3d 5a42 b43d 7c92 a13d 9f5c a33d
00000040: 6d2b 5c3d f52d 9dbc 0d4b 3c3d 54ad 113d
00000050: 8bb0 65bd 8168 97bd b005 c0bd c4f4 5dbc
00000060: cf01 503d b135 9cbd 1dfd 25bb 93a2 16bd
00000070: 7b38 27bc 4d04 06bd cafe 83bc 148d ea3a
00000080: 922e bb3c deb6 1dbd 0da2 5bbc 45a9 e03c
00000090: 43aa 6bbc 8ffa 37bd 442b 3f3d 65b9 5a3d
000000a0: aa10 dabc d3d1 e43c 64a4 c83c 5e56 973d
000000b0: 825e 3bbd 1817 09bd 73b8 a5bd b393 ec3c
000000c0: f70b 7f3d e42f 94bd a217 203d 3105 463c
000000d0: 162f 8b3d c8d2 3c3d 8a6e 8bbd bca2 67bd
000000e0: d5bb e63c 0711 8dbd 855e b23d 1a30 a8bd
000000f0: 2ef6 95bb 3e86 013d c233 24bd 1035 123d
00000100: ae66 32bd c304 703d f935 bdbd 83dd c53d
00000110: b987 303c afd0 a13c c1ea 51bd c146 813d
00000120: 0b80 24bd af65 5ebd 888c 6bbd 53d7 e4bc
00000130: e262 8b3d 2145 03bd 0227 b8bb 61cc 863d
00000140: fbb5 a63c 5ce3 a1bd f7aa e73b 395c 8abd
00000150: 6632 dbbc 1990 863d 50dd 603d 7f2d b23d
00000160: 85a6 0fbd bc8e 09bd c49f 023d cac8 9b3c
00000170: 4fff 4cbd f0ae 4f3d 656e 2c3c 3229 1fbd
00000180: c20c a13c a29c 1cbd a900 aebc 1e85 97bd
00000190: d809 86bd ad68 c0bc 8d59 a03c b2b9 9ebd
000001a0: 73c2 8bbd baa4 2e3c 97ea 7b3c 8836 11bd
000001b0: 803d 2b3d de52 0b3c d043 933d a81a 623c
000001c0: 4627 b0bd fed6 9ebd 7ed7 853d 26b0 ae3c
000001d0: dfb6 80bb 27b5 54bd cf19 85bc c6e7 f4bc
000001e0: 7943 783d 4c4b 0fbd be18 dcbb 540f cb3c
000001f0: 2eb3 43bd 5d62 a1bd 7a98 843d 4f32 d7bc

fc3.weight f4 [2, 128]
0.04493266 0.07860553 0.068196215 0.0297823 -0.031395394 0.0012999563 -0.007725073 -0.02543228
0.05104755 -0.06287733 0.08112312 -0.039578892 -0.013807103 -0.018634576 -0.02432663 0.06741324
0.051827885 0.067199424 0.05338087 0.016609944 -0.04271604 0.015096675 -0.0565261 0.06421581
0.09640692 0.19109328 0.02630524 0.0688788 -0.028238595 0.0047272537 -0.021414487 0.08276478
0.0022093924 0.014780793 0.021905134 0.07305005 0.037650496 0.067418225 -0.07644068 -0.058441017
0.029916592 -0.05477635 -0.02034224 -0.03634861 -0.009282114 0.15572189 -0.063808516 0.0107879555
0.0331115 0.06807579 -0.07267399 0.0430303 0.009429859 0.08113687 0.0039323224 0.049319904
-0.036780383 0.044000402 0.19487698 0.08895596 -0.0031382171 -0.0061700996 0.019468976 0.05960699
-0.055331573 0.02490059 -0.025013113 0.015003408 -0.08238437 0.0009771985 -0.042725883 -0.010247003
-0.06953316 0.058069024 -0.01699363 0.024421044 0.0052414574 0.07353407 -0.008655806 -0.020138016
-0.015658636 0.026921488 0.005180337 0.084656 -0.03479407 -0.008987077 0.023733571 -0.058802545
-0.03672498 -0.07817109 -0.0031245355 -0.048046414 0.09606837 -0.042648766 0.023804834 0.031355515
0.05656495 0.056575827 0.023499075 0.022525007 -0.07529438 -0.01749224 -0.0006240014 0.00592139
0.073803395 -0.077936575 -0.071313396 -0.054206904 -0.05668346 0.0037305548 -0.0060284613 0.05805015
-0.008881583 0.0008205578 0.055589963 -0.046727516 -0.006374991 0.07977005 0.0003429025 0.010341481
-0.047322966 0.06758264 -0.0027088095 -0.008496373 -0.07199936 0.030454028 -0.04772803 -0.07476186
0.09795504 -0.026136076 0.070443675 0.027712574 0.095846206 -0.039395448 -0.018633017 0.078751065
-0.04581299 0.08897403 0.08735469 -0.009006919 0.09024893 -0.07493757 -0.027862437 -0.088023
-0.059519727 0.048635572 0.0033423798 0.030671125 -0.034069303 -0.066259764 -0.023526667 0.03630675
0.05059683 0.19223599 0.015255971 -0.0026183834 0.065151945 -0.017553076 0.050081026 -0.01126281
-0.05788079 0.06089199 0.058595102 0.031983968 0.056551576 -0.074889936 -0.0057372293 -0.039705485
0.0054930723 0.033982653 0.07043542 -0.0069636134 -0.0008590508 0.12376403 0.06616499 -0.06354401
0.0002871781 -0.016336648 0.021833984 -0.0131823225 0.017354144 0.029648941 -0.021244265 0.056172762
0.004637823 -0.0020666285 0.059543625 0.03917881 -0.025065532 -0.031799626 0.11152955 0.030826416
0.034522958 0.07163269 0.017087651 0.05687916 -0.012890434 -0.070565596 -0.07401839 0.050047945
0.039568815 0.04598639 0.07495247 0.008778842 -0.02834165 -0.01711319 0.014423967 0.0034934785
0.07362839 -0.027288174 0.004820109 0.09003741 0.03320344 0.0869777 0.06509067 0.06329277
-0.061288353 -0.01194412 0.040229946 0.094971225 0.036809582 -0.07319395 0.095242284 0.03360091
-0.056937624 0.004225436 -0.06873599 -0.034331802 0.056453995 0.06386416 0.08145399 0.053690564
-0.027770137 0.03326846 0.0050986633 -0.012467181 -0.08101049 0.04458419 -0.04350218 0.021646494
0.042584762 0.05659381 -0.06710988 0.080481894 0.0030935581 -0.032003988 0.06442903 0.0042996826
0.008786322 -0.046796996 0.021286065 0.020888684 -0.035194084 0.00028128666 0.062209863 0.09914148
00000000: 4f0b 383d f0fb a03d 75aa 8b3d 03fa f33c
00000010: 7598 00bd 4c63 aa3a 9c22 fdbb 5b57 d0bc
00000020: 3c17 513d d4c5 80bd e123 a63d 7a1d 22bd
00000030: 3037 62bc 8aa7 98bc a448 c7bc f40f 8a3d
00000040: 7a49 543d da9f 893d e6a5 5a3d 9411 883c
00000050: 04f7 2ebd 0b58 773c e987 67bd 9483 833d
00000060: fe70 c53d f5ad 433e 167e d73c 5410 8d3d
00000070: a054 e7bc 14e7 9a3b 6f6d afbc 9580 a93d
00000080: 74cb 103b 242b 723c 6572 b33c 449b 953d
00000090: 6837 1a3d 9112 8a3d ee8c 9cbd d95f 6fbd
000000a0: a413 f53c 2a5d 60bd c5a4 a6bc 48e2 14bd
000000b0: 0214 18bc 8f75 1f3e 0aae 82bd f7bf 303c
000000c0: ed9f 073d 526b 8b3d 1ad6 94bd 8a40 303d
000000d0: b27f 1a3c 162b a63d b6da 803b ab03 4a3d
000000e0: 07a7 16bd c439 343d d58d 473e 8b2e b63d
000000f0: 8caa 4dbb 8c2e cabb 677d 9f3c 7626 743d
00000100: 5ca3 62bd 52fc cb3c 4de8 ccbc dbd0 753c
00000110: 23b9 a8bd 5715 803a 5601 2fbd 0ce3 27bc
00000120: 6767 8ebd c9d9 6d3d 3a36 8bbc a40e c83c
00000130: 88c0 ab3b 0899 963d 15d1 0dbc 7bf8 a4bc
00000140: 8a46 80bc 748a dc3c d1bf a93b 2060 ad3d
00000150: 3a84 0ebd 883e 13bc e86c c23c f0da 70bd
00000160: ef6c 16bd 2a18 a0bd 02c5 4cbb 51cc 44bd
00000170: 7ebf c43d 79b0 2ebd 5b02 c33c a46e 003d
00000180: a6b0 673d 0ebc 673d 2281 c03c 5d86 b83c
00000190: f133 9abd e34b 8fbc 0694 23ba 3808 c23b
000001a0: 3c26 973d 369d 9fbd c20c 92bd 0f08 5ebd
000001b0: ea2c 68bd 537c 743b 668a c5bb fec5 6d3d
000001c0: 0f84 11bc b41a 573a 4db2 633d 5a65 3fbd
000001d0: 4de5 d0bb 7b5e a33d 98c7 b339 516f 293c
000001e0: bad5 41bd c468 8a3d 4886 31bb 5f34 0bbc
000001f0: 6774 93bd ba7a f93c 777e 43bd bf1c 99bd
00000200: a79c c83d 531b d6bc c644 903d 7b05 e33c
00000210: 044b c43d 1f5d 21bd 45a4 98bc 3d48 a13d
00000220: 67a6 3bbd 0438 b63d 04e7 b23d c291 13bc
00000230: 6ed4 b83d de78 99bd c43f e4bc 6745 b4bd
00000240: f5ca 73bd 1836 473d d40b 5b3b 0342 fb3c
00000250: 418c 0bbd 33b3 87bd ffba c0bc 63b6 143d
00000260: 9f3e 4f3d 83d9 443e 2ef4 793c 2f99 2bbb
00000270: 626e 853d 78cb 8fbc c321 4d3d a687 38bc
00000280: 6814 6dbd e169 793d 6b01 703d 9f01 033d
00000290: a0a2 673d e55f 99bd 5eff bbbb 38a2 22bd
000002a0: 3bff b33b 6531 0b3d 7240 903d 062f e4bb
000002b0: ec31 61ba ff77 fd3d 8381 873d 5d23 82bd
000002c0: 6490 9639 6fd4 85bc 2fdd b23c abfa 57bc
000002d0: 472a 8e3c 56e2 f23c 7408 aebc 6915 663d
000002e0: e1f8 973b 4670 07bb 04e4 733d f679 203d
000002f0: 3b56 cdbc 5340 02bd 9b69 e43d ae87 fc3c
00000300: f267 0d3d 29b4 923d 67fb 8b3c 1ffa 683d
00000310: 6632 53bc b284 90bd f496 97bd 13ff 4c3d
00000320: e912 223d 3a5c 3c3d ae80 993d 22d5 0f3c
00000330: bf2c e8bc f630 8cbc 8152 6c3c d8f2 643b
00000340: 7bca 963d 738b dfbc 01f2 9d3b 8965 b83d
00000350: 5500 083d 5d21 b23d 424e 853d a49f 813d
00000360: 7f09 7bbd 45b1 43bc 28c8 243d 4680 c23d
00000370: a5c5 163d b6e6 95bd 630e c33d 1ca1 093d
00000380: 6d37 69bd 8775 8a3b 74c5 8cbd 819f 0cbd
00000390: 4e3c 673d 36cb 823d 59d1 a63d a3ea 5b3d
000003a0: 337e e3bc 8244 083d b012 a73b 2643 4cbc
000003b0: d4e8 a5bd e99d 363d 582f 32bd fd53 b13c
000003c0: 5c6d 2e3d e9ce 673d e870 89bd b1d3 a43d
000003d0: 4bbd 4a3b 9d16 03bd 5ef3 833d 5ae4 8c3b
000003e0: 81f4 0f3c 35ae 3fbd 1d60 ae3c bf1e ab3c
000003f0: ac27 10bd a879 9339 c5cf 7e3d b00a cb3d

fc3.bias f4 [2]
-0.07485887 -0.021707825
00000000: 9b4f 99bd 9cd4 b1bc

fc1.weight f4 [128, 84]
0.03419673 -0.08024816 0.085060306 -0.046576805 0.029698348 -0.0064514307 -0.04374613 0.05262533
-0.09843241 -0.0687185 -0.12457683 -0.082936145 -0.031786054 -0.0504813 0.04485812 0.034740612
0.07039002 -0.07061761 -0.0012495865 -0.05284688 0.032856494 -0.059991147 0.030539244 -0.0089750355
-0.05974683 -0.06597311 0.0065935035 -0.08329336 0.029984381 -0.13903145 0.01736672 -0.008453996
-0.017916018 0.06543607 0.00943196 0.05357594 -0.016040517 -0.11721605 -0.11316943 -0.01997981
-0.115668796 0.05821436 -0.06945295 -0.107525185 0.054606073 -0.13575895 0.012962491 0.00969011
-0.05878369 0.09895152 -0.08264047 -0.10688197 -0.09880445 0.0419294 0.027406381 -0.07449045
0.04376975 0.074768044 0.017969184 -0.08617009 -0.07607463 0.09335638 0.023345713 -0.085127965
-0.05888649 0.07057225 -0.0846752 0.03361288 0.05130896 -0.05678293 -0.013761481 -0.0075527383
-0.06337874 -0.0012672957 0.03715347 0.043843366 -0.084171444 0.05659375 0.023285048 -0.11408788
-0.1250056 -0.07299697 0.09519182 0.0050536986 -0.6165181 -0.21248232 -0.2282851 -0.084253564
-0.09800443 -0.16638812 -0.051931575 -0.14657511 0.10943917 -0.09942649 -0.19169818 0.10928186
-0.21178819 -0.0751607 0.09746738 0.05633852 0.0446263 -0.038572308 0.038122214 -0.062325764
-0.0003305106 0.10670336 -0.017470466 0.0070162863 0.029395169 -0.022627136 0.103737324 -0.12533525
0.049075875 -0.037114184 -0.02126107 -0.021270322 -0.28636155 -0.026955806 0.028576974 -0.092861496
0.18156573 -0.060314797 0.07516173 0.09311917 -0.21582584 0.15589102 -0.38409054 0.18477477
0.026586497 0.05948223 0.09636253 -0.05615856 -0.07987191 -0.044139214 0.01020468 -0.018067537
0.103668965 0.041044563 0.051302787 -0.14606042 0.14650993 -0.0767658 0.029450897 -0.071446314
-0.0950359 -0.15051344 0.012508683 0.24455012 -0.15213549 0.0076503684 0.08508851 0.01128483
0.02811351 0.11169169 -0.041837912 0.10052862 -0.049499106 0.10063631 -0.021352207 -0.033490807
0.032748215 0.20316154 0.070786044 0.026945563 0.18212658 -0.13914125 -0.116967 -0.08436324
-0.3610623 -0.043565735 -0.14932267 0.058290645 0.011045635 -0.12663633 -0.09139777 0.06939463
-0.028158585 -0.044734366 0.023889584 7.7091696e-05 0.085603625 -0.10102695 0.042724088 0.05872596
0.08112629 -0.1312106 0.020325478 0.078956336 0.102159984 0.00564107 0.039297324 0.13136916
0.13005695 0.038335543 0.054544725 0.0647204 -0.0497804 0.20699018 -0.10568191 0.12919779
0.047434147 0.06329051 0.09094609 -0.105739474 -0.120022826 -0.20449029 -0.21127279 0.05101838
0.18575446 0.07820303 0.19105257 0.04904796 -0.097010426 -0.12972234 -0.08104 -0.16705735
0.009560613 0.013864936 -0.07274559 -0.10041834 -0.062026363 -0.13447112 0.03297177 -0.013973473
0.06531757 -0.079411305 0.05785663 -0.086408384 0.050831705 -0.049218103 -0.07701055 0.06925286
-0.04050402 -0.040918477 0.124477886 0.020589689 -0.040153846 -0.04434454 0.2492791 0.011721154
-0.1104945 0.0705984 0.0704132 0.1754568 0.01485786 0.014902094 -0.04969124 0.016066492
-0.047416836 0.012033828 0.11026984 0.047177915 0.00049808243 -0.05330197 -0.04257507 0.033491377
00000000: df11 0c3d 2659 a4bd 1934 ae3d 52c7 3ebd
00000010: f349 f33c 8666 d3bb 242f 33bd a88d 573d
00000020: ee96 c9bd 49bc 8cbd 2322 ffbd 6dda a9bd
00000030: 1832 02bd 7bc5 4ebd 26bd 373d 2c4c 0e3d
00000040: a528 903d f79f 90bd 2ac9 a3ba f875 58bd
00000050: 8894 063d 47b9 75bd 702d fa3c 070c 13bc
00000060: 18b9 74bd e91c 87bd 510e d83b b695 aabd
00000070: cea1 f53c 435e 0ebe a744 8e3c a182 0abc
00000080: 9dc4 92bc 5903 863d 8288 1a3c 7272 5b3d
00000090: 6767 83bc f80e f0bd 60c5 e7bd b3ac a3bc
000000a0: c3e3 ecbd 2e72 6e3d 593d 8ebd 2a36 dcbd
000000b0: 9eaa 5f3d 6504 0bbe a160 543c 44c3 1e3c
000000c0: 2bc7 70bd 18a7 ca3d 683f a9bd efe4 dabd
000000d0: fd59 cabd 2abe 2b3d 5983 e03c 738e 98bd
000000e0: e947 333d fd1f 993d 1c34 933c f279 b0bd
000000f0: 04cd 9bbd a131 bf3d 823f bf3c 9257 aebd
00000100: f632 71bd 2f88 903d 316a adbd a9ad 093d
00000110: 5829 523d 3895 68bd d677 61bc f67c f7bb
00000120: b6cc 81bd 631b a6ba 3d2e 183d 1a95 333d
00000130: 1462 acbd d9ce 673d 49c0 be3c e8a6 e9bd
00000140: 7801 00be 6f7f 95bd eef3 c23d 7f99 a53b
00000150: 21d4 1dbf f794 59be 92c3 69be 228d acbd
00000160: 8cb6 c8bd a661 2abe 34b6 54bd c917 16be
00000170: a521 e03d 1ea0 cbbd 874c 44be 2bcf df3d
00000180: 01df 58be daed 99bd fa9c c73d 38c3 663d
00000190: 11ca 363d fffd 1dbd 0a26 1c3d 4d49 7fbd
000001a0: 6248 adb9 4b87 da3d 391e 8fbc e0e8 e53b
000001b0: 23ce f03c 8b5c b9bc 3c74 d43d e257 00be
000001c0: c903 493d 0b05 18bd b22b aebc 193f aebc
000001d0: fb9d 92be 6cd2 dcbc 421a ea3c 2b2e bebd
000001e0: 5eec 393e a60c 77bd 65ee 993d 43b5 be3d
000001f0: 7301 5dbe e5a1 1f3e 84a7 c4be 9935 3d3e
00000200: edcb d93c a4a3 733d b859 c53d 8506 66bd
00000210: e293 a3bd 52cb 34bd 8831 273c 5f02 94bc
00000220: 6550 d43d 581e 283d df22 523d dd90 15be
00000230: b306 163e 6337 9dbd 0243 f13c 7252 92bd
00000240: 2fa2 c2bd 3220 1abe 38f1 4c3c 596b 7a3e
00000250: 68c9 1bbe f1af fa3b e242 ae3d 02e4 383c
00000260: 4e4e e63c 9dbe e43d 3b5e 2bbd f3e1 cd3d
00000270: 93bf 4abd 691a ce3d d3ea aebc a82d 09bd
00000280: fe22 063d 9409 503e 46f8 903d f1bc dc3c
00000290: 647f 3a3e 0b7b 0ebe 658c efbd a2c6 acbd
000002a0: 28dd b8be fc71 32bd 0be8 18be 2cc2 6e3d
000002b0: c0f8 343c f4ac 01be c12e bbbd c61e 8e3d
000002c0: d5ac e6bc 623b 37bd 17b4 c33c 4aac a138
000002d0: f450 af3d 38e7 cebd 74ff 2e3d a28a 703d
000002e0: 8a25 a63d 125c 06be 9e81 a63c dcb3 a13d
000002f0: 4139 d13d bad8 b83b 3bf6 203d a385 063e
00000300: a62d 053e bb05 1d3d 4a6a 5f3d 218c 843d
00000310: 88e6 4bbd 3cf5 533e c26f d8bd 6d4c 043e
00000320: 4f4a 423d 749e 813d f241 ba3d f08d d8bd
00000330: 87ce f5bd e765 51be e557 58be a6f8 503d
00000340: 6b36 3e3e e928 a03d 49a3 433e 84e6 483d
00000350: 67ad c6bd efd5 04be 4df8 a5bd 1511 2bbe
00000360: 1ea4 1c3c c229 633c a4fb 94bd 21a8 cdbd
00000370: 5b0f 7ebd ccb2 09be 680d 073d fef0 64bc
00000380: 38c5 853d 65a2 a2bd 13fb 6c3d e1f6 b0bd
00000390: e834 503d ec98 49bd b5b7 9dbd 72d4 8d3d
000003a0: 8be7 25bd 229a 27bd 43ee fe3d b5ab a83c
000003b0: 5c78 24bd 9fa2 35bd 0543 7f3e 150a 403c
000003c0: f14a e2bd e595 903d cc34 903d f3aa 333e
000003d0: 626e 733c ea27 743c 0b89 4bbd e09d 833c
000003e0: 2838 42bd 8829 453c 27d5 e13d a13d 413d
000003f0: bf91 023a 2b53 5abd 3263 2ebd 412e 093d

fc1.bias f4 [128]
0.009604299 -0.0072610932 0.048497666 0.07365947 0.013022942 -0.033900827 -0.09442924 -0.093160324
0.039165 -0.04533945 -0.062211286 -0.12109268 -0.081163704 -0.06328894 -0.021437969 -0.02943004
-0.01823204 0.00992485 -0.073261686 -0.009223819 0.046451945 -0.07819586 -0.07850438 -0.08223943
-0.049958218 -0.08304669 -0.088378176 -0.11928361 -0.08272823 0.031080738 -0.10515664 0.02784312
-0.06845101 0.048996888 0.008712676 -0.056364458 0.08694239 0.06843823 0.06087905 0.012478954
-0.085085586 -0.11234659 -0.043751035 0.11247407 -0.057043023 0.0870192 0.039988186 0.044578936
-0.07696472 -0.09071567 -0.089895986 0.06961348 0.015667396 -0.07642225 -0.010322692 -0.12574205
-0.10257936 -0.016006717 0.06529114 -0.043289926 -0.10275812 -0.098983206 -0.118551515 -0.002536323
-0.08823821 0.026836166 -0.008995161 -0.07383521 0.06471168 0.047646172 -0.07821656 0.117720455
-0.07062605 -0.031533018 -0.08823163 -0.046524506 0.09171616 -0.04132059 -0.10852685 0.14874387
-0.07965236 -0.043017298 -0.12918343 -0.070653334 -0.059646934 -0.01782367 -0.012762433 0.034707703
-0.094214045 -0.079664096 -0.01763909 -0.028837396 0.10247448 -0.06520071 -0.0071155624 -0.028131023
0.03964263 -0.0051683355 -0.08791805 0.052737635 -0.0024891144 -0.06305489 0.005932932 -0.03400984
0.063290946 -0.0152013255 -0.06975968 0.04752525 0.02117223 -0.08919303 0.09061435 0.020211382
0.036553968 -0.0770027 0.092596926 0.020206938 -0.07950585 0.0028626374 -0.08143451 0.04650704
0.07572381 -0.023657624 0.06394949 -0.0477234 0.006811109 0.15958458 -0.09634523 -0.11018608
00000000: 5a5b 1d3c 77ee edbb 7da5 463d c7da 963d
00000010: 2d5e 553c 98db 0abd 1e64 c1bd d7ca bebd
00000020: 7b6b 203d dcb5 39bd 43d1 7ebd 70ff f7bd
00000030: 2839 a6bd a29d 81bd ae9e afbc 4417 f1bc
00000040: 5c5b 95bc d79b 223c 390a 96bd 801f 17bc
00000050: 6544 3e3d 2725 a0bd e8c6 a0bd 256d a8bd
00000060: fda0 4cbd 6214 aabd 9eff b4bd f74a f4bd
00000070: 6b6d a9bd 089d fe3c 5d5c d7bd 4117 e43c
00000080: 0b30 8cbd f6b0 483d 9dbf 0e3c 6bde 66bd
00000090: da0e b23d 5829 8c3d 505c 793d 8774 4c3c
000000a0: 5a41 aebd f815 e6bd 4934 33bd ce58 e63d
000000b0: f2a5 69bd 1f37 b23d a7ca 233d 6798 363d
000000c0: ae9f 9dbd 23c9 b9bd 631b b8bd 8391 8e3d
000000d0: e958 803c 4583 9cbd 8220 29bc 86c2 00be
000000e0: 2115 d2bd 8520 83bc 5cb7 853d c750 31bd
000000f0: d972 d2bd b5b7 cabd 23cb f2bd 7038 26bb
00000100: 3cb6 b4bd 85d7 db3c 7160 13bc ea36 97bd
00000110: 8f87 843d a228 433d 0130 a0bd 6c17 f13d
00000120: 64a4 90bd c428 01bd c9b2 b4bd 7b90 3ebd
00000130: afd5 bb3d c73f 29bd 5343 debd 5050 183e
00000140: c720 a3bd e832 30bd a948 04be b2b2 90bd
00000150: 5850 74bd f202 92bc 8619 51bc aa29 0e3d
00000160: 4bf3 c0bd ee26 a3bd da7f 90bc 673c ecbc
00000170: 24de d13d f387 85bd aa29 e9bb 0873 e6bc
00000180: 4f60 223d 245b a9bb 610e b4bd 6b03 583d
00000190: 6920 23bb ec22 81bd 0a69 c23b e74d 0bbd
000001a0: af9e 813d fb0e 79bc 2ade 8ebd d6a9 423d
000001b0: 6271 ad3c d6aa b6bd 0494 b93d 5792 a53c
000001c0: 9db9 153d 97b3 9dbd 75a3 bd3d 0589 a53c
000001d0: f7d3 a2bd 169b 3b3b 23c7 a6bd 2a7e 3e3d
000001e0: 1615 9b3d a2cd c1bc f3f7 823d 9d79 43bd
000001f0: b92f df3b 246a 233e a650 c5bd 3da9 e1bd

fc2.weight f4 [128, 128]
0.10148251 -0.03400294 -0.19054468 -0.08133378 -0.06290202 -0.058645986 0.088119954 -0.03161777
0.17217694 0.04100431 -0.064294815 0.044483304 -0.025612075 0.0263985 0.008312502 0.07845524
-0.015169738 0.07301297 0.07436955 -0.020586155 0.08475443 -0.030195408 0.00424337 0.06820174
0.016616229 0.062186833 0.07982375 0.05217586 -0.0050045154 -0.00397459 0.088061325 0.07047915
-0.014939928 0.019384116 0.21355261 0.054200094 0.14801848 0.059125938 -0.08253589 0.056795057
0.07685489 0.06677506 -0.08345688 -0.017609457 -0.04119957 0.09055567 0.04685328 -0.007633346
-0.0415743 -0.042894647 0.062291946 -0.098467104 0.031710695 -0.017521322 0.036229838 0.035423618
-0.053589992 -0.019947158 -0.05264687 0.05132315 -0.066796735 -0.08711183 -0.0025304763 -0.0091783935
0.045056127 -0.1311223 -0.02328534 0.059703045 0.04652347 -0.000491801 -0.075677335 -0.10573015
0.025223577 0.054511573 -0.029062865 0.058575764 0.05353646 -0.03055945 0.030240837 0.10732181
0.036644705 -0.023830684 0.010956026 -0.04398696 -0.091520846 -0.04168988 -0.078670144 -0.013957656
0.086026184 0.016768098 -0.087706216 -0.11815495 -0.07085722 0.052006062 0.083281435 0.02669238
-0.06672302 0.00156331 -0.06830044 0.034982696 0.052711986 0.03249071 -0.07337727 0.12662397
0.07370683 -0.098688416 -0.00060346373 0.04325235 -0.074769035 0.012843386 0.07151138 0.07084307
-0.089035094 -0.03406962 -0.017891418 -0.13418734 0.03478666 -0.06701598 -0.028006274 0.060692515
-0.03327154 -0.047817644 0.11762459 0.083290264 0.038240876 -0.044228204 -0.022445433 0.023861315
0.084656805 0.27434212 -0.1587871 -0.025870873 0.06176986 -0.049024045 0.10068877 -0.09086474
-0.06434973 -0.067423426 -0.08454944 0.05350985 0.087369785 -0.050274786 -0.0016500596 0.0754654
-0.056916106 0.054160662 0.05777051 0.08566919 -0.047291502 0.026199408 0.06770272 -0.020279862
0.08274278 0.07590931 0.076687925 -0.07499882 -0.07947116 -0.0033925474 0.035811786 -0.36002034
0.040130626 -0.02111673 -0.13459726 0.057367034 -0.05511456 -0.19027092 -0.025135363 -0.49484622
-0.06875695 0.051839694 -0.09669989 0.055221587 0.047869008 0.009718031 0.05983077 -0.16293566
0.0066199824 0.07063665 -0.053470396 0.15105267 -0.075455725 -0.24983451 -0.06706089 0.030903216
-0.085956916 -0.011065718 -0.08799942 0.05068229 -0.006472154 0.029065257 0.018604234 -0.035749935
-0.046544537 -0.0479825 0.057592146 0.053757567 -0.008049827 0.025056902 0.0905839 0.15408929
0.014124729 0.02559277 0.031351026 0.05754036 -0.052908488 0.029455006 0.07204559 -0.036148753
-0.082218714 0.007920206 -0.021402212 -0.04594276 0.08627905 0.063126005 0.00049638265 0.06460017
-0.025620606 -0.06049682 0.10670301 -0.07365757 0.048477735 0.022939943 -0.02477576 0.0039600544
-0.101083435 -0.016558906 0.073879294 -0.0425505 -0.02824072 -0.006565341 -0.08487646 -0.20756923
-0.07563951 -0.058456562 -0.029532297 -0.002950353 0.024146449 0.080869906 -0.09212214 -0.12947515
0.05244552 0.07395525 0.09510306 -0.2550958 0.14273006 -0.04098665 0.08535883 0.024304029
-0.085898206 -0.042171773 -0.000746824 0.009293085 0.16877615 -0.51981056 0.073785156 -0.06570473
00000000: 10d6 cf3d ab46 0bbd 251e 43be 5392 a6bd
00000010: c6d2 80bd c636 70bd 3c78 b43d a381 01bd
00000020: 274f 303e 23f4 273d 00ad 83bd 2034 363d
00000030: 6ad0 d1bc ab41 d83c 2931 083c 24ad a03d
00000040: 7e8a 78bc d387 953d 104f 983d 4ca4 a8bc
00000050: bb93 ad3d 5c5c f7bc f80b 8b3b 5bad 8b3d
00000060: c21e 883c 9fb7 7e3d a27a a33d 5bb6 553d
00000070: ebfc a3bb 473d 82bb 7f59 b43d 5f57 903d
00000080: 9ac6 74bc 70cb 9e3c 89ad 5a3e eb00 5e3d
00000090: 2892 173e 0a2e 723d 9408 a9bd efa1 683d
000000a0: 1966 9d3d 5dc1 883d 71eb aabd b541 90bc
000000b0: e1c0 28bd 4075 b93d 3ae9 3f3d 2621 fabb
000000c0: d049 2abd 4cb2 2fbd d725 7f3d 1fa9 c9bd
000000d0: 13e3 013d e088 8fbc bd65 143d 5b18 113d
000000e0: 2e81 5bbd 3968 a3bc 3fa4 57bd 3938 523d
000000f0: bacc 88bd b067 b2bd 59d6 25bb f960 16bc
00000100: c68c 383d ed44 06be e6c0 bebc 2e8b 743d
00000110: 658f 3e3d 35ec 00ba b8fc 9abd 0d89 d8bd
00000120: ada1 ce3c 8747 5f3d 3f15 eebc 24ed 6f3d
00000130: 0c49 5b3d d057 fabc a2bb f73c 8acb db3d
00000140: c218 163d 9138 c3bc e780 333c ac2b 34bd
00000150: 486f bbbd 02c3 2abd d01d a1bd a7ae 64bc
00000160: 7f2e b03d 405d 893c 519f b3bd 39fb f1bd
00000170: 971d 91bd 4f04 553d 758f aa3d faa9 da3c
00000180: 14a6 88bd fbe7 cc3a 1ae1 8bbd 044a 0f3d
00000190: 86e8 573d fb14 053d d246 96bd b7a9 013e
000001a0: 9bf3 963d 271d cabd c431 1eba 6029 313d
000001b0: 8220 99bd 116d 523c 8f74 923d 2c16 913d
000001c0: 0858 b6bd 968c 0bbd 0691 92bc 6868 09be
000001d0: 757c 0e3d ad3f 89bd 6a6d e5bc b798 783d
000001e0: bd47 08bd 6fdc 43bd 29e5 f03d 1694 aa3d
000001f0: 77a2 1c3d a228 35bd 7cdf b7bc ce78 c33c
00000200: 8c60 ad3d 9276 8c3e 1699 22be 27ef d3bc
00000210: 6502 7d3d 70cd 48bd ea35 ce3d 4b17 babd
00000220: cbc9 83bd 4b15 8abd 4228 adbd 252d 5b3d
00000230: eeee b23d efec 4dbd d046 d8ba 9b8d 9a3d
00000240: dd20 69bd 92d7 5d3d c5a0 6c3d 5473 af3d
00000250: bcb4 41bd 24a0 d63c b9a7 8a3d f421 a6bc
00000260: 0c75 a93d 5776 9b3d 8f0e 9d3d fb98 99bd
00000270: c7c1 a2bd 8055 5ebb 61af 123d 9654 b8be
00000280: 0360 243d fefc acbc ddd3 09be b2f9 6a3d
00000290: cebf 61bd 61d6 42be ade8 cdbc 7c5c fdbe
000002a0: 72d0 8cbd dc55 543d 980a c6bd 0830 623d
000002b0: 4b12 443d 6038 1f3c 1c11 753d 9bd8 26be
000002c0: 70ec d83b f3a9 903d c603 5bbd 8dad 1a3e
000002d0: 8888 9abd 9ed4 7fbe 3857 89bd be28 fd3c
000002e0: 2e0a b0bd fc4c 35bc 0a39 b4bd 3c98 4f3d
000002f0: 5d14 d4bb 431a ee3c e867 983c 866e 12bd
00000300: 7ca5 3ebd 4c89 44bd bee5 6b3d e530 5c3d
00000310: 6ce3 03bc 2244 cd3c 0d84 b93d 95c9 1d3e
00000320: 686b 673c eea7 d13c ef69 003d 71af 6b3d
00000330: 92b6 58bd a04b f13c a38c 933d b710 14bd
00000340: 4962 a8bd c0c3 013c b153 afbc 7a2e 3cbd
00000350: 12b3 b03d 3548 813d ad1f 023a 184d 843d
00000360: 4ee2 d1bc 83cb 77bd 1c87 da3d c8d9 96bd
00000370: 9790 463d 8cec bb3c 89f6 cabc 58c3 813b
00000380: d504 cfbd 8ba6 87bc 074e 973d 6f49 2ebd
00000390: 1559 e7bc 1222 d7bb b6d3 adbd 078d 54be
000003a0: e3e8 9abd 2670 6fbd b7ed f1bc b65a 41bb
000003b0: c6ce c53c 1f9f a53d 88aa bcbd 2295 04be
000003c0: 1dd1 563d da75 973d 65c5 c23d eb9b 82be
000003d0: d427 123e 9ee1 27bd 9cd0 ae3d 3e19 c73c
000003e0: 66eb afbd 4fbc 2cbd 83c6 43ba 0642 183c
000003f0: a8d3 2c3e 4e12 05bf ac1c 973d 3490 86bd

fc2.bias f4 [128]
0.16670181 0.009629522 0.28381026 -0.03918288 0.122091256 0.0011092719 0.01188228 -0.0052765403
-0.07019126 0.035312086 -0.04320533 0.069929816 0.065175444 0.010515733 0.15907481 -0.08005601
-0.11579943 -0.117250174 -0.091538906 0.03445836 -0.10354462 0.14513029 0.22051825 -0.062140457
0.01313908 0.13969594 -0.09081907 -0.05120949 -0.077204995 -0.092188224 -0.11756969 -0.23955154
-0.031538103 -0.005057991 -0.013156465 0.027294427 -0.061810028 -0.0027243732 -0.18313932 -0.07708254
0.025084924 -0.101068586 -0.10977573 0.13916126 -0.05625084 -0.045142725 0.039694622 -0.06140053
0.0018886756 -0.09926325 -0.0892549 0.09505892 -0.120989144 -0.03416755 -0.14186454 0.17361708
0.00034828266 -0.039643854 0.103473686 -0.10553299 0.0032978987 -0.036996715 0.030078173 -0.045307692
0.057572156 0.21824303 0.0063345833 -0.016725956 -0.075141005 -0.09917477 0.03868956 0.019838685
0.07739155 -0.060208585 -0.06905424 -0.11518067 -0.003305648 -0.090810314 0.09566071 0.074099064
-0.016595345 0.033847153 0.04159828 -0.07957808 0.040809292 -0.029308544 0.010100795 -0.022377355
0.02156582 -0.028449843 -0.12521793 -0.13115528 -0.094447516 0.115177445 0.116925925 -0.02379277
-0.07050775 -0.04941795 -0.065289974 -0.19207682 -0.17687108 -0.08008862 -0.14329976 0.047616053
-0.03164006 0.016082276 -0.1649385 -0.0014555057 -0.0054326425 -0.038310234 -0.020884851 0.0348402
-0.057988405 -0.05934126 0.1682399 -0.0006038082 0.081308044 -0.04334837 -0.0867608 0.03220567
-0.13667512 -0.057127245 0.28303558 -0.10158971 -0.024136722 -0.06470478 0.02138569 -0.014863257
00000000: e1b3 2a3e 25c5 1d3c 944f 913e 3a7e 20bd
00000010: fb0a fa3d fd64 913a e5ad 423c d4e6 acbb
00000020: 6fc0 8fbd 68a3 103d 12f8 30bd 5d37 8f3d
00000030: b47a 853d 2e4a 2c3c 82e4 223e 68f4 a3bd
00000040: 4028 edbd dc20 f0bd c078 bbbd 3624 0d3d
00000050: 340f d4bd 099d 143e 89cf 613e fe86 7ebd
00000060: 4c45 573c 740c 0f3e 59ff b9bd 0bc1 51bd
00000070: a71d 9ebd 2ecd bcbd 61c8 f0bd 004d 75be
00000080: 192e 01bd 81bd a5bb 378e 57bc 9098 df3c
00000090: 832c 7dbd 668b 32bb e088 3bbe 73dd 9dbd
000000a0: e67e cd3c 0cfd cebd 19d2 e0bd 4a80 0e3e
000000b0: 4867 66bd 94e7 38bd d496 223d 1f7f 7bbd
000000c0: 708d f73a 884a cbbd 46cb b6bd 40ae c23d
000000d0: 28c9 f7bd 46f3 0bbd f044 11be adc8 313e
000000e0: b599 b639 9861 22bd 03ea d33d ae21 d8bd
000000f0: 8f21 583b de89 17bd 8066 f63c 8f94 39bd
00000100: c8d0 6b3d 1a7b 5f3e 5692 cf3b df04 89bc
00000110: 87e3 99bd 241c cbbd f278 1e3d bd84 a23c
00000120: 767f 9e3d 479d 76bd 4f6c 8dbd d8e3 ebbd
00000130: 92a3 58bb c2fa b9bd c3e9 c33d 40c1 973d
00000140: f6f2 87bc 50a3 0a3d f562 2a3d d5f9 a2bd
00000150: a527 273d 7918 f0bc ce7d 253c b750 b7bc
00000160: cdaa b03c a50f e9bc 2139 00be 924d 06be
00000170: b36d c1bd 27e2 eb3d dc76 ef3d 0ee9 c2bc
00000180: 5e66 90bd 7a6a 4abd c0b6 85bd c9af 44be
00000190: b11d 35be 8105 a4bd 2cbd 12be 0d09 433d
000001a0: 0299 01bd fabe 833c a3e5 28be abc6 beba
000001b0: 4f04 b2bb 31eb 1cbd b516 abbc 99b4 0e3d
000001c0: 4085 6dbd d20f 73bd 1547 2c3e e248 1eba
000001d0: d584 a63d 0f8e 31bd a5af b1bd 18ea 033d
000001e0: 90f4 0bbe 42fe 69bd 0aea 903e 440e d0bd
000001f0: 60ba c5bc f183 84bd 0b31 af3c 0585 73bc

fc3.weight f4 [1, 128]
0.032640386 -0.054264117 0.040252578 0.016783187 0.111248374 0.119907916 -0.047853157 -0.053885475
0.052704174 0.02043069 -0.06921145 -0.04303963 0.067874394 -0.015496778 0.078147545 -0.007679932
-0.006753449 0.01346394 0.0011314253 -0.08325515 -0.028870542 0.035992876 0.012927605 -0.018660164
0.04288832 0.049808588 -0.047785018 -0.035223614 -0.054072436 0.023516417 -0.07448305 -0.019158125
0.091244675 0.008868326 0.048169646 -0.011528472 0.01167361 0.009095682 -0.015607051 -0.045204043
0.030839948 -0.021169517 -0.03925113 -0.031008407 -0.029918067 0.078263864 0.0014742373 0.028256733
-0.015479517 -0.030294487 0.036331024 0.073531404 -0.0006186553 -0.055788618 -0.02879062 0.076003455
0.014777183 0.021906523 0.041913442 -0.03477223 -0.057917815 -0.0058899024 0.09975927 -0.027773293
0.015885515 0.02209169 -0.011325519 0.010829593 -0.01937578 -0.021570051 0.046747733 -0.004376374
0.0148996925 -0.08738899 0.02162525 -0.01995905 -0.04196221 0.019229062 0.029758804 0.04951307
0.013182288 0.031612903 0.046786886 0.011529884 0.025543159 -0.024062667 0.06057234 -0.045034915
-0.046351608 -0.037516728 0.013780863 -0.06791632 -0.0772313 0.027963575 0.04392852 -0.03077142
-0.004820814 -0.04463173 0.024527425 -0.03747535 -0.045122575 0.014511995 0.040858407 0.014085479
-0.030307144 0.014962544 -0.06734445 0.06651368 0.00046080162 0.037910864 -0.07322386 0.003374873
-0.0054002865 0.010928453 0.051724177 0.01701145 0.030907523 -0.02496805 -0.03772474 0.039444387
-0.04818872 0.02614729 0.07937868 0.008843922 -0.028623711 0.0065040537 -0.011009777 0.003042531
00000000: edb1 053d 0d44 5ebd e3df 243d e57c 893c
00000010: 30d6 e33d 4892 f53d ac01 44bd 04b7 5cbd
00000020: 55e0 573d 435e a73c bcbe 8dbd 534a 30bd
00000030: bb01 8b3d 33e6 7dbc d20b a03d f0a7 fbbb
00000040: 094c ddbb db97 5c3c 554c 943a ad81 aabd
00000050: ea81 ecbc 446d 133d 4ece 533c 33dd 98bc
00000060: aaab 2f3d 1704 4c3d 39ba 43bd a346 10bd
00000070: 0f7b 5dbd 80a5 c03c 928a 98bd 80f1 9cbc
00000080: 7dde ba3d 754c 113c 894d 453d ebe1 3cbc
00000090: ab42 3f3c 0e06 153c b7b4 7fbc e027 39bd
000000a0: 0fa4 fc3c b26b adbc cbc5 20bd 5805 febc
000000b0: bc16 f5bc ce48 a03d 323b c13a aa7a e73c
000000c0: cd9d 7dbc 252c f8bc d7cf 143d a297 963d
000000d0: 412d 22ba 9b82 64bd 4eda ebbc b3a7 9b3d
000000e0: ff1b 723c 4f75 b33c 6ead 2b3d 536d 0ebd
000000f0: 3b3b 6dbd 1500 c1bb 974e cc3d d184 e3bc
00000100: 5722 823c a2f9 b43c ab8e 39bc 9b6e 313c
00000110: f5b9 9ebc adb3 b0bc 8d7a 3f3d b067 8fbb
00000120: d71d 743c 00f9 b2bd 7027 b13c 2981 a3bc
00000130: 91e0 2bbd 4486 9d3c bcc8 f33c 38ce 4a3d
00000140: 86fa 573c 887c 013d 9ba3 3f3d d7e7 3c3c
00000150: e33f d13c 121f c5bc b41a 783d 8876 38bd
00000160: 2fdb 3dbd 24ab 19bd 21c9 613c b617 8bbd
00000170: 722b 9ebd de13 e53c 64ee 333d 5814 fcbc
00000180: ebf7 9dbb c3cf 36bd bded c83c c17f 19bd
00000190: 73d2 38bd b8c3 6d3c 255b 273d c8c6 663c
000001a0: b046 f8bc 7525 753c e3eb 89bd 5338 883d
000001b0: bf97 f139 6c48 1b3d 64f6 95bd f92c 5d3b
000001c0: e3f4 b0bb 410d 333c bbdc 533d 995b 8b3c
000001d0: c631 fd3c cc89 ccbc 4285 1abd 7090 213d
000001e0: 8961 45bd d732 d63c 4a91 a23d 19e6 103c
000001f0: 467c eabc f51f d53b 5a62 34bc 3365 473b
